models/Env2/PDSRL_256_A5_S2_P/local_episode_2550_reward_400.000000.pt (torch, 297564 bytes, 8 tensors)

fc0.weight f4 [256, 23]
0.0245463 -0.069837116 0.027863843 -0.02740937 0.034773048 -0.060473304 -0.051329654 0.016564963
-0.064889304 -0.06749808 0.009603336 -0.045452897 -0.049213752 -0.03755524 -0.03701106 0.021539688
-0.075789765 -0.020234382 0.04101494 -0.057567365 0.0526021 -0.02170572 -0.0007156391 -0.11040774
0.008166572 0.11012037 -0.008480919 0.029842457 -0.07689658 -0.18108489 -0.034946866 -0.11735663
-0.103500344 -0.12559694 -0.092832915 -0.031344 0.10557901 0.11499689 -0.0335085 -0.06695944
-0.07826951 -0.0110558355 -0.050449457 -2.3670645 -0.05342131 -0.25846472 0.038508907 0.018840687
0.019323587 -0.05594822 -0.02342402 -0.05853764 -0.017008545 -0.07979175 -0.04515888 -0.026090743
-0.058163997 -0.0010859275 -0.041427054 0.00024829368 0.035321645 0.0013458974 -0.010868327 -0.056104247
-0.043521233 -0.0681571 -0.050885785 0.015332145 0.0052470607 -0.1273133 -0.22762047 -0.23466462
-0.14111061 0.14169794 0.057514414 0.057143953 -0.084431864 -0.033603035 0.21186174 -0.17823894
-0.09488584 0.11882686 0.056259062 -0.017922305 0.074043505 -0.056246437 0.16916607 -0.07012033
-0.03207916 -1.3657337 0.70368075 0.1328465 0.12119861 -0.06839521 -0.048071515 0.022124948
0.28405827 0.24559914 0.037844125 -0.04105909 0.15770774 0.1066398 0.07643593 -0.15155856
-0.1873538 -0.08580316 -0.19530267 -0.069732994 -0.037551776 -0.16050525 -0.14552651 -0.008090425
0.0031934292 0.038750023 -0.06703747 0.0031224887 0.0010780685 0.009574441 -0.05871861 0.04708427
-0.04717296 -0.05071729 0.04924371 -0.05878304 0.01747525 0.0031752812 0.031515803 -0.07203065
-0.03677505 0.046674635 -0.043225005 -0.064669184 -0.05018018 0.0059141633 -0.0070945835 -0.06929538
0.015274812 -0.05945609 -0.024901321 -0.02520069 -0.0048257033 0.014623708 -0.048385113 -0.07285289
-0.03396643 -0.0611574 0.03970189 -0.040848225 -0.01368912 -0.05627639 -0.03236382 -0.047812276
-0.008272573 0.03930433 0.017938314 -0.050553374 -0.056470703 -0.04294266 -0.029485958 0.028398938
-0.025862534 -0.003485685 -0.024190105 -0.023921441 0.016758533 0.023193283 0.01786489 0.014346058
-0.010207804 -0.0792353 -0.07975393 -0.026704129 -0.06506112 -0.061642744 -0.057407916 -0.038965583
-0.028279873 -0.07608432 -0.062094886 -0.018481249 -0.042649068 0.05288159 0.046097763 0.025873767
0.009261624 -0.032589626 -0.01531952 0.016228516 -0.04502375 -0.039097134 -0.06973621 -0.052070674
-0.019057518 0.0015962641 -0.06982738 -0.029313074 -0.019686604 -4.697496e-06 0.012176165 -0.027385373
-0.043292597 0.027331512 0.04450951 -0.044139795 0.03613587 -0.010301048 -0.009183757 -0.07177293
-0.07704313 -0.12804426 0.028426776 -0.029381374 -0.04974536 -0.02385176 -0.09207254 -0.14628172
0.07348706 -0.18298398 0.013494008 0.01404495 -0.0003743582 0.011475035 -0.12735961 -0.13194343
0.115166776 -0.027553797 -0.28767234 1.9137002 1.1354351 -0.037543204 -0.004437517 -0.112698905
-0.08611772 -0.12352156 0.31577498 -0.047347978 0.27994424 -0.09131368 -0.3273682 -0.5074674
-0.010850604 0.033020154 0.2319144 0.18859293 -0.068513386 -0.05243714 -0.10153487 0.016309474
-0.012105353 -0.026996788 -0.03628044 0.057297494 0.914729 0.45486712 0.19429971 -0.1840629
00000000: 5215 c93c c306 8fbd b742 e43c 9d89 e0bc
00000010: 2f6e 0e3d dbb2 77bd 0b3f 52bd 3fb3 873c
00000020: afe4 84bd 6f3c 8abd 5057 1d3c d12c 3abd
00000030: 5c94 49bd 86d3 19bd e998 17bd 0074 b03c
00000040: aa37 9bbd 93c2 a5bc 48ff 273d c2cb 6bbd
00000050: 4d75 573d 32d0 b1bc ba99 3bba 741d e2bd
00000060: 16cd 053c ca86 e13d 8df3 0abc 2b78 f43c
00000070: f47b 9dbd 516e 39be 7224 0fbd ac58 f0bd
00000080: fdf7 d3bd 7c9c 00be 2f1f bebd 9162 00bd
00000090: cf39 d83d 7d83 eb3d 3540 09bd 0822 89bd
000000a0: c44b a0bd 8923 35bc 17a4 4ebd fc7d 17c0
000000b0: 4ed0 5abd 7d55 84be 84bb 1d3d c957 9a3c
000000c0: 804c 9e3c f629 65bd bbe3 bfbc 2ac5 6fbd
000000d0: 8155 8bbc db69 a3bd 85f8 38bd 41bc d5bc
000000e0: 5f3d 6ebd ae55 8eba 6aaf 29bd 6a2d 8239
000000f0: 6ead 103d d368 b03a 1111 32bc 91cd 65bd
00000100: 5243 32bd f395 8bbd 9d6d 50bd ad33 7b3c
00000110: 89ef ab3b 6b5e 02be 5715 69be ec4b 70be
00000120: 4d7f 10be 4419 113e 3c94 6b3d c70f 6a3d
00000130: 9dea acbd 56a3 09bd 49f2 583e 4584 36be
00000140: 8253 c2bd 7f5b f33d e76f 663d ccd1 92bc
00000150: 1fa4 973d aa62 66bd df39 2d3e 3f9b 8fbd
00000160: 7065 03bd 5dd0 aebf 6c24 343f ea08 083e
00000170: fa36 f83d ca12 8cbd a3e6 44bd 613f b53c
00000180: 1670 913e 577e 7b3e 7102 1b3d 942d 28bd
00000190: 237e 213e f865 da3d 718a 9c3d 2b32 1bbe
000001a0: add9 3fbe 91b9 afbd 6cfd 47be 2cd0 8ebd
000001b0: e4cf 19bd 7d5b 24be e704 15be b48d 04bc
000001c0: da48 513b 58b8 1e3d f14a 89bd aba2 4c3b
000001d0: fa4d 8d3a 1ede 1c3c ed82 70bd 6fdb 403d
000001e0: 6f38 41bd efbc 4fbd c6b3 493d 7cc6 70bd
000001f0: 4128 8f3c 6118 503b b716 013d ce84 93bd
00000200: 6fa1 16bd e72d 3f3d b40c 31bd 4771 84bd
00000210: bc89 4dbd 99cb c13b ae79 e8bb bcea 8dbd
00000220: 3443 7a3c 3b88 73bd dbfd cbbc ad71 cebc
00000230: ef20 9ebb 4798 6f3c 782f 46bd e533 95bd
00000240: 6220 0bbd 2f80 7abd 739e 223d 7850 27bd
00000250: 5548 60bc 1282 66bd ed8f 04bd ced6 43bd
00000260: b089 07bc 94fd 203d 5ff3 923c 0e11 4fbd
00000270: d34d 67bd a5e4 2fbd 898c f1bc e4a4 e83c
00000280: aadd d3bc 1770 64bb 542a c6bc e6f6 c3bc
00000290: 3149 893c d7ff bd3c 6459 923c ba0b 6b3c
000002a0: a23e 27bc 1e46 a2bd 0756 a3bd 9ec2 dabc
000002b0: c43e 85bd 1a7d 7cbd 9024 6bbd 609a 1fbd
000002c0: 31ab e7bc 19d2 9bbd 3557 7ebd fd65 97bc
000002d0: cab0 2ebd 5e9a 583d 02d1 3c3d 39f5 d33c
000002e0: 11be 173c b37c 05bd b9fe 7abc aaf1 843c
000002f0: d36a 38bd 5124 20bd dcd1 8ebd 0f48 55bd
00000300: 831e 9cbc bc39 d13a a801 8fbd f921 f0bc
00000310: cd45 a1bc 2f9f 9db6 8a7e 473c 4a57 e0bc
00000320: 9453 31bd 56e6 df3c 9b4f 363d eecb 34bd
00000330: 3503 143d bac5 28bc 7877 16bc b0fd 92bd
00000340: cac8 9dbd 091e 03be 45df e83c 35b1 f0bc
00000350: cac1 4bbd c464 c3bc 8790 bcbd e0ca 15be
00000360: 6280 963d 2760 3bbe f915 5d3c ca1c 663c
00000370: 8245 c4b9 c901 3c3c 8f6a 02be 2e1c 07be
00000380: 8fdc eb3d 80b8 e1bc ca49 93be 21f4 f43f
00000390: f055 913f e7c6 19bd 9768 91bb afce e6bd
000003a0: 7d5e b0bd dff8 fcbd 42ad a13e f4ef 41bd
000003b0: da54 8f3e ab02 bbbd ce9c a7be 62e9 01bf
000003c0: bbc6 31bc 2440 073d f87a 6d3e 811e 413e
000003d0: bf50 8cbd 54c8 56bd 84f1 cfbd 729b 853c
000003e0: 8855 46bc 5e28 ddbc cc9a 14bd c7b0 6a3d
000003f0: ae2b 6a3f 58e4 e83e 81f6 463e fc7a 3cbe

fc0.bias f4 [256]
0.08552664 -0.14580011 0.07939598 0.18735719 0.13134281 0.08704197 0.0844769 0.07936078
0.08543675 0.23194093 -0.036370162 0.27204993 0.08485015 0.09232168 0.08460029 0.09642686
0.07222279 0.088484436 -0.115209386 0.08377838 0.08790058 0.2826824 0.34455982 0.1306365
0.067956395 0.087198325 0.19882445 -0.2184345 0.08074886 0.08251486 -0.06693985 0.23528609
0.084158234 0.009843917 0.07325686 -0.42126915 0.06926315 0.0651099 0.07523443 0.07568506
0.073934875 0.1 0.037265547 -0.2866537 -0.36335954 0.067334056 0.072170176 0.13806091
0.07967667 -0.011516738 0.09160094 0.1594549 0.088930584 0.06987507 0.20023037 0.080290265
0.36649296 0.07206174 0.076826476 0.07532145 0.27330732 0.07239115 0.08505558 -0.14854819
-0.36798918 0.0817784 0.08552052 0.15235192 0.14617182 0.06616807 0.5048533 0.09440808
-0.17446128 0.07474675 0.0845002 0.3442016 0.06720365 0.08353421 0.07947936 0.08418408
0.2008586 -0.09707218 0.13812797 0.06330484 0.17426077 0.33191726 0.06989703 0.26142508
0.072473966 0.07572821 0.08133888 0.075626925 0.1 0.06009355 0.41975382 -0.04792311
0.085972995 0.43334717 0.21779585 0.0788347 0.27809355 0.07434273 0.06606437 -0.051424917
0.0877355 0.16294776 0.07482099 0.08852058 0.07736463 0.07939861 0.16033691 0.0807828
0.086232774 -0.111015625 0.10719942 0.28527665 0.17087278 0.08934272 0.09316655 0.3436913
0.062342796 0.14328378 0.11846514 0.084119484 0.22953168 0.07746333 0.26782697 0.092291296
0.06975699 0.07886095 0.48427343 0.22362438 0.08053583 0.16463225 0.08311017 0.19358873
0.1 0.07772619 0.08424925 0.077572465 0.08694494 0.08093036 0.10642941 0.088816136
0.11853064 0.079787895 0.21774781 0.08408739 -0.027079824 0.08202908 0.082192324 -0.12115116
0.16973662 0.068538 0.093028024 0.09436148 0.04127981 0.082791 0.54409844 0.081300125
0.06885652 0.072207294 0.02567306 -0.06098537 0.07617998 -0.17964141 0.09460495 0.081526816
0.061059784 0.07604836 0.071949586 0.1 0.5150851 -0.115518816 0.08631121 0.08770916
-0.029609222 0.07058204 0.3601713 0.0786846 0.22498336 0.09454032 -0.16634496 0.18073925
0.07460857 0.08680154 -0.06263228 0.018739492 0.073166125 0.0149371745 0.1 -0.007594464
0.30378938 0.17087172 0.46263334 0.08235298 0.07573584 0.075695924 0.071879126 0.085652575
0.3156819 -0.03775182 -0.10763467 0.42662445 0.08449212 -0.077803515 0.17401306 0.083951145
0.2131388 0.080349594 0.23552854 -0.00031893965 0.012329747 -0.13034149 0.10893238 0.07767201
0.16133697 0.12193132 0.28973374 0.06928555 0.08345203 0.074027404 0.21366604 0.19175383
0.06758198 0.120483994 0.07146915 0.062073436 0.07453482 0.09248294 0.08174821 0.07451002
0.1 0.07047857 -0.3021627 0.06969567 0.49134767 0.0843648 0.09219272 0.1
0.07529313 0.4370716 0.08829051 0.084155224 0.104679406 0.07444707 0.073880985 0.082641065
0.02621287 0.15107386 0.36334154 0.27636507 0.07871011 0.075700395 0.08195494 0.07819308
00000000: 9728 af3d a04c 15be 5c9a a23d 90da 3f3e
00000010: bb7e 063e 0f43 b23d 3a02 ad3d e887 a23d
00000020: 76f9 ae3d ec81 6d3e e1f8 14bd 214a 8b3e
00000030: eac5 ad3d 2613 bd3d eb42 ad3d 727b c53d
00000040: 8be9 933d 5437 b53d e6f2 ebbd 0094 ab3d
00000050: 3805 b43d bfbb 903e 256a b03e 93c5 053e
00000060: b92c 8b3d 0995 b23d a398 4b3e 4bad 5fbe
00000070: a95f a53d 8dfd a83d c317 89bd d6ee 703e
00000080: 275b ac3d 6148 213c b107 963d 97b0 d7be
00000090: d7d9 8d3d 5758 853d 8214 9a3d c500 9b3d
000000a0: 2b6b 973d cdcc cc3d c2a3 183d 46c4 92be
000000b0: 430a babe 70e6 893d f5cd 933d d75f 0d3e
000000c0: 862d a33d b3b0 3cbc 4699 bb3d 2548 233e
000000d0: 3d21 b63d a91a 8f3d 3109 4d3e 396f a43d
000000e0: f7a4 bb3e 1b95 933d 3357 9d3d 2242 9a3d
000000f0: f0ee 8b3e d041 943d 9f31 ae3d 041d 18be
00000100: 1469 bcbe 6f7b a73d 6225 af3d 2402 1c3e
00000110: 11ae 153e 2083 873d 113e 013f 0659 c13d
00000120: faa5 32be d314 993d 710e ad3d 313b b03e
00000130: 11a2 893d fc13 ab3d 13c6 a23d b468 ac3d
00000140: e0ad 4d3e c7cd c6bd 6b71 0d3e f8a5 813d
00000150: 6a71 323e 0ff1 a93e 2d26 8f3d 82d9 853e
00000160: 3b6d 943d 6417 9b3d 0095 a63d 4ae2 9a3d
00000170: cdcc cc3d a724 763d f9e9 d63e 064b 44bd
00000180: 9c12 b03d aedf dd3e e005 5f3e 1674 a13d
00000190: 4762 8e3e 0041 983d c24c 873d efa2 52bd
000001a0: abae b33d c7db 263e bf3b 993d 474a b53d
000001b0: 5971 9e3d bd9b a23d 5c2f 243e 7471 a53d
000001c0: cf9a b03d 295c e3bd 5f8b db3d c80f 923e
000001d0: 46f9 2e3e 51f9 b63d 1bce be3d 4ef8 af3e
000001e0: 295b 7f3d fcb8 123e da9d f23d d646 ac3d
000001f0: 5a0a 6b3e 18a5 9e3d 9e20 893e 3803 bd3d
00000200: c1dc 8e3d da81 a13d b0f2 f73e cafd 643e
00000210: f8ef a43d 5b95 283e aa35 aa3d 203c 463e
00000220: cdcc cc3d e92e 9f3d df8a ac3d 50de 9e3d
00000230: 3010 b23d d1be a53d aaf7 d93d 3ce5 b53d
00000240: 31c0 f23d d667 a33d 48f9 5e3e 0236 ac3d
00000250: 82d6 ddbc ddfe a73d 7354 a83d 191e f8bd
00000260: 70cf 2d3e a75d 8c3d 7a85 be3d 9740 c13d
00000270: 0515 293d 548e a93d 094a 0b3f ae80 a63d
00000280: a604 8d3d 6be1 933d 4f50 d23c cccb 79bd
00000290: 4004 9c3d ebf3 37be 3dc0 c13d 88f7 a63d
000002a0: d319 7a3d 3ebf 9b3d 4e5a 933d cdcc cc3d
000002b0: 9edc 033f 2195 ecbd efc3 b03d dca0 b33d
000002c0: 0a8f f2bc 518d 903d 5f68 b83e 6425 a13d
000002d0: 0a62 663e 5b9e c13d 5556 2abe b613 393e
000002e0: 61cc 983d 01c5 b13d 5a45 80bd 9083 993c
000002f0: 1fd8 953d 0dbb 743c cdcc cc3d fbda f8bb
00000300: 488a 9b3e fff8 2e3e 47de ec3e aea8 a83d
00000310: 641b 9b3d 7706 9b3d 5d35 933d 9e6a af3d
00000320: 0fa1 a13e a7a1 1abd 916f dcbd 856e da3e
00000330: 340a ad3d 7357 9fbd 7b30 323e 94ee ab3d
00000340: 0f41 5a3e 548e a43d 652e 713e 5b37 a7b9
00000350: b502 4a3c 3d78 05be f117 df3d 8112 9f3d
00000360: 8535 253e 21b7 f93d fb57 943e 95e5 8d3d
00000370: e6e8 aa3d ae9b 973d 45cb 5a3e 1e5b 443e
00000380: 6c68 8a3d 50c0 f63d 6b5e 923d b740 7e3d
00000390: b6a5 983d b267 bd3d 9b6b a73d b698 983d
000003a0: cdcc cc3d 1257 903d 12b5 9abe 9abc 8e3d
000003b0: ec91 fb3e 74c7 ac3d 89cf bc3d cdcc cc3d
000003c0: 4933 9a3d d9c7 df3e a8d1 b43d 9359 ac3d
000003d0: 2862 d63d b577 983d ea4e 973d b83f a93d
000003e0: 5fbc d63c 1bb3 1a3e e707 ba3e b97f 8d3e
000003f0: c432 a13d cf08 9b3d fed7 a73d b223 a03d

fc1.weight f4 [256, 256]
0.018158473 0.20003805 -0.001231062 -0.20380773 -0.051065385 -0.08281402 -0.006784846 0.005486369
-0.0012953586 -0.19673716 0.15453324 -0.0027499008 0.0012811571 -0.026677025 0.012044065 -0.11296193
0.07181592 0.064777195 0.10279739 0.011117336 0.048150606 0.05575188 -0.17809896 0.018065313
0.03308834 0.044208493 0.14018695 0.10517474 -0.027245745 -0.046202164 -0.48372647 -0.5857854
0.020938829 0.281929 -0.032214124 -0.5919532 0.026037602 0.02470383 0.029193014 0.025536168
0.0076644663 -0.05700855 -0.35528958 -1.068492 0.10551206 0.019138906 -0.044573132 -0.07192067
-0.04250387 -0.058542162 0.22657755 0.08434878 0.06418792 0.033783812 -0.24531193 -0.014778321
-0.64433813 -0.054586533 0.04820475 0.020111332 -0.23403944 0.0055279275 0.026353177 0.023265319
-0.48314077 -0.043716975 0.048461523 -0.36856472 -0.09284471 0.06050144 0.14864543 0.0420294
-0.4262629 0.01838476 0.04608805 -0.109915316 0.028794333 -0.030077647 -0.022956882 -0.025801815
-0.2143205 0.21847029 -0.19247556 0.05789277 0.0891576 -0.2323768 0.027567225 -0.75545835
-0.016773568 -0.051928487 0.03415286 -0.021280047 -0.017061874 0.008293706 -0.2611289 0.024021164
0.043005496 0.11473095 0.28875804 0.056182407 -0.8810999 0.04522059 -0.08450665 0.39898202
-0.003624037 0.49734825 -0.04636677 0.02269611 0.047145143 -0.003679549 0.11023307 -0.018728685
-0.18779716 -0.20105568 -0.70538294 -0.6999516 0.02900573 0.04108813 0.012013987 0.07719523
-0.040388975 0.09425562 0.0548115 0.027926639 0.2369893 -0.020903774 -0.44957304 0.08035416
-0.049533732 -0.05052581 -0.5253958 0.29897946 -0.044089615 0.042190623 0.0023267984 0.2827583
0.004574053 -0.027815152 -0.011733942 -0.004495831 0.027704917 -0.011330458 -0.4066733 0.05230839
-0.95661336 -0.009101942 0.22776705 0.055169024 0.0074646277 0.009176672 0.035600122 -0.05516125
-0.28932726 -0.010826797 0.044902496 0.052204788 -0.16328207 -0.06518348 -0.8737298 0.0489159
-0.048838418 -0.00078532414 -0.3294154 -0.28065452 0.07206481 -0.08771998 0.045753174 -0.043087523
-0.011090224 0.028567914 -0.027126623 0.02081877 0.09448727 -0.3786002 -0.0710455 -0.041716777
-0.0722539 -0.013435134 0.10678728 0.015525388 -0.5366231 0.012166195 -0.5024448 -0.011095148
-0.011049808 -0.042255193 0.11610699 -0.11697579 -0.02916395 -0.3131304 -0.06004017 -0.03726564
0.10325635 0.09518919 -0.5276657 0.050778475 0.059780944 -0.035337143 -0.0018919765 0.05203197
-0.09452885 -0.30303597 0.16438249 -0.0062398817 0.009559438 -0.73527807 -0.14529121 -0.07753784
-0.6486469 0.02938362 -0.25203308 -0.45647565 -0.14607519 -1.0977783 -0.043792862 0.053916596
-0.12256299 -0.1899722 -0.3540983 -0.04868843 0.005941933 -0.065076195 -0.20217423 -0.2748736
-0.020348597 -0.34112445 -0.06244684 -0.4021179 -0.016377078 0.016448125 -0.02825075 -0.029187197
0.03849198 0.060362287 0.4562741 0.0003430133 -0.16246454 0.033756454 0.020021042 -0.0538921
-0.15319513 -0.3866448 0.047315978 -0.03935462 -0.0988264 -0.00029802055 -0.0038653547 0.039421417
-0.11515683 -0.94367284 -0.55768776 0.32568038 0.0092007825 0.030117575 0.016609315 -0.040240847
00000000: 14c1 943c c6d6 4c3e 965b a1ba f9b2 50be
00000010: f029 51bd 669a a9bd 6a53 debb 00c7 b33b
00000020: 06c9 a9ba 7775 49be f63d 1e3e ae37 34bb
00000030: 80ec a73a c789 dabc 7854 453c 9658 e7bd
00000040: 3a14 933d e8a9 843d 7087 d23d 7d25 363c
00000050: 9239 453d 155c 643d 935f 36be b5fd 933c
00000060: a487 073d f713 353d 2b8d 0f3e db65 d73d
00000070: 7832 dfbc 7b3e 3dbd ffaa f7be 08f6 15bf
00000080: e887 ab3c ff58 903e f5f2 03bd 3f8a 17bf
00000090: cf4c d53c b05f ca3c 3026 ef3c 3a31 d13c
000000a0: 3426 fb3b cc81 69bd 84e8 b5be 59c4 88bf
000000b0: b516 d83d 32c9 9c3c 5192 36bd 254b 93bd
000000c0: 8a18 2ebd e8c9 6fbd f203 683e 0ebf ac3d
000000d0: f574 833d e560 0a3d 0d33 7bbe c520 72bc
000000e0: 58f3 24bf 2196 5fbd 5872 453d 85c0 a43c
000000f0: 09a8 6fbe 9e23 b53b 9ee2 d73c e996 be3c
00000100: 3a5e f7be 9210 33bd 977f 463d 84b4 bcbe
00000110: 5e25 bebd 5cd0 773d 8236 183e 0527 2c3d
00000120: 213f dabe a39b 963c d3c6 3c3d 481b e1bd
00000130: 18e2 eb3c 6665 f6bc 1210 bcbc 545e d3bc
00000140: d576 5bbe adb6 5f3e 5018 45be f820 6d3d
00000150: 4398 b63d 2ff4 6dbe a9d4 e13c b865 41bf
00000160: b968 89bc f7b2 54bd dfe3 0b3d 7e53 aebc
00000170: 58c5 8bbc 53e2 073c b0b2 85be 08c8 c43c
00000180: 8826 303d 0ff8 ea3d 18d8 933e 861f 663d
00000190: c38f 61bf 3a39 393d d311 adbd 5f47 cc3e
000001a0: 4081 6dbb 6ea4 fe3e 15eb 3dbd 31ed b93c
000001b0: 441b 413d 9724 71bb e0c1 e13d e66c 99bc
000001c0: e64d 40be 8ae1 4dbe fa93 34bf 0730 33bf
000001d0: 6d9d ed3c 074c 283d 50d6 443c 8818 9e3d
000001e0: e96e 25bd 1709 c13d 0682 603d 68c6 e43c
000001f0: 53ad 723e 643e abbc 702e e6be b990 a43d
00000200: e2e3 4abd 27f4 4ebd 5780 06bf d613 993e
00000210: 5097 34bd 13d0 2c3d 337d 183b b2c5 903e
00000220: f0e1 953b 9adc e3bc b83f 40bc c451 93bb
00000230: 6cf5 e23c 63a3 39bc 7c37 d0be 5341 563d
00000240: 9de4 74bf 5020 15bc c43b 693e eaf8 613d
00000250: d699 f43b c159 163c 6fd1 113d c3f0 61bd
00000260: b422 94be e162 31bc aeeb 373d b0d4 553d
00000270: 6a33 27be eb7e 85bd c2ac 5fbf 0a5c 483d
00000280: cb0a 48bd 36de 4dba 23a9 a8be f3b1 8fbe
00000290: b796 933d 88a6 b3bd ae67 3b3d 8b7c 30bd
000002a0: c5b3 35bc 4207 ea3c a738 debc 208c aa3c
000002b0: 8b82 c13d e3d7 c1be 4e80 91bd 36df 2abd
000002c0: daf9 93bd 091f 5cbc 4ab3 da3d 325e 7e3c
000002d0: 2260 09bf b854 473c 39a0 00bf 6cc8 35bc
000002e0: 410a 35bc c813 2dbd 80c9 ed3d 0191 efbd
000002f0: 3ce9 eebc a152 a0be aeec 75bd dba3 18bd
00000300: 1178 d33d 8df2 c23d 1915 07bf 17fd 4f3d
00000310: dddc 743d aebd 10bd 32fc f7ba 7a1f 553d
00000320: 5798 c1bd 8827 9bbe e253 283e ec77 ccbb
00000330: 309f 1c3c 2f3b 3cbf 38c7 14be 29cc 9ebd
00000340: b90d 26bf ebb5 f03c 7b0a 81be 2db7 e9be
00000350: bc94 15be 0084 8cbf 2560 33bd a6d7 5c3d
00000360: 4e02 fbbd 1388 42be 5f4c b5be 856d 47bd
00000370: 8cb4 c23b ab46 85bd c306 4fbe 3cbc 8cbe
00000380: 1ab2 a6bc dda7 aebe 42c8 7fbd 66e2 cdbe
00000390: 3929 86bc 38be 863c 1e6e e7bc fd19 efbc
000003a0: c4a9 1d3d 723e 773d c29c e93e 77d6 b339
000003b0: 1b5d 26be 3544 0a3d 2b03 a43c f6bd 5cbd
000003c0: 2fdf 1cbe 4ff6 c5be 66ce 413d 4f32 21bd
000003d0: 7f65 cabd a43f 9cb9 e451 7dbb 5a78 213d
000003e0: 58d7 ebbd 8b94 71bf a0c4 0ebf 94bf a63e
000003f0: e1be 163c 22b9 f63c 4210 883c 96d3 24bd

fc1.bias f4 [256]
-0.14055555 0.035535157 -0.06951792 -0.03987595 0.3982212 0.03775738 0.048467096 -0.25442833
0.014146547 0.043386664 0.10036517 -0.0060276347 0.019799482 -0.21818039 -0.2529214 -0.030787928
0.05622563 0.16407269 0.09065526 -0.46492648 0.0814516 -0.008908047 -0.07187107 -0.6181998
0.44789475 0.016343003 -0.14603028 0.18263973 -0.14711861 0.02890505 0.8513087 -0.16730893
0.05589408 0.040809985 -0.47449413 -0.015551892 -0.077629656 0.12105523 0.08572348 -0.43635842
-0.029141229 -0.11879609 0.22020023 -0.123178445 0.37781003 -0.25903693 0.61675704 0.19624366
0.027541086 0.10499974 -0.014443112 0.023412848 0.14598767 -0.09114149 -0.14331515 0.17430207
-0.026962979 0.06774395 0.0779078 -0.5212456 0.029641926 0.2719986 -0.001182844 0.04240453
0.022820303 -0.14510597 -0.022019079 0.17023522 0.23074457 0.09190583 -0.098722585 -0.057863664
0.09168109 -0.46278992 -0.039452463 -0.13502142 0.15983793 0.10656865 -0.07884291 0.05290186
0.049817476 -0.15565959 0.03010024 0.019010173 -0.115205504 0.033339113 0.05972516 -0.27502492
0.2910106 0.3056818 -0.088220336 -0.39768642 -0.12998652 -0.058786962 0.053010155 0.050642367
-0.09110823 0.0057199425 -0.37127453 0.15546182 0.007997184 0.35852265 -0.13090445 0.16827172
0.24465108 -0.1031419 0.1844465 0.24863869 -0.8349675 0.49854064 0.11693125 0.25455174
0.59385335 0.26010785 0.04127209 1.4522524 0.026679879 -0.11699858 -0.08218041 -0.31413332
-0.36183363 0.010994925 0.30144876 -0.039845373 -0.13963355 0.0024786105 0.4229195 -0.0069553256
-0.16092364 0.041556984 0.99765503 -0.158803 -0.25345218 -0.0019159381 0.20417854 -0.06006762
0.037192553 -0.36792856 0.03557327 -0.088298336 -0.23413603 0.047063 0.10247576 0.35794726
-0.20956367 -0.025684511 -0.11330032 -0.34498295 -0.073984504 0.08656973 -0.23337975 0.07173806
0.023105966 -0.033898436 0.50289446 0.6061007 0.003329255 -0.33218697 -0.15390359 -0.07302545
0.053789016 0.22473294 -0.18915735 -0.27115107 -0.24968997 0.43482125 0.0010009534 0.105381966
-0.16701858 0.16411814 -0.48934188 -0.04664174 -0.13256097 -0.2324685 0.043971237 0.30152816
-0.18118379 0.029244611 -0.11089463 0.33165765 -0.08215665 0.6891331 -0.22085266 0.1382214
0.047645763 0.015657224 -0.05010219 0.02926085 -0.05332119 0.57417506 0.06718546 -0.09624613
-0.10381611 0.10464366 0.43313673 -0.3478663 -0.27817392 -0.32546064 0.12674806 0.03584455
0.04008332 0.0944045 -0.12772326 -0.14532259 -0.039718106 0.058492962 0.054038286 -0.013861638
0.03418202 0.33350164 -0.20591706 0.056382813 -0.18686463 -0.08989311 -0.422126 -0.14161102
0.037866935 -0.32115036 -0.31639686 -0.2996587 -0.20563138 0.07661043 0.18337667 -0.011802275
0.03615611 0.05683928 0.03630318 -0.25967067 0.09160795 0.046783518 0.15456 0.03728125
-0.018242776 -0.097665794 0.045315094 -0.05684109 0.3785098 -0.33839196 0.23261265 0.008441623
-0.30457067 0.23064788 -0.082240455 -0.16275059 0.0943045 0.044243935 0.15413076 0.4233627
0.38586488 0.45733216 0.050261702 0.113087565 0.023386046 0.19538254 0.031010183 0.032542158
00000000: cbed 0fbe 508d 113d 695f 8ebd f754 23bd
00000010: a6e3 cb3e 7ca7 1a3d 6f85 463d 6e44 82be
00000020: ebc6 673c 37b6 313d 418c cd3d 7783 c5bb
00000030: 8632 a23c ae6a 5fbe ea7e 81be f736 fcbc
00000040: d94c 663d ac02 283e 77a9 b93d d80a eebe
00000050: 19d0 a63d 0ff3 11bc 2431 93bd 5842 1ebf
00000060: 7652 e53e c3e1 853c f688 15be e905 3b3e
00000070: 43a6 16be 49ca ec3c 5eef 593f 0853 2bbe
00000080: 31f1 643d 5f28 273d e5f0 f2be 5dcd 7ebc
00000090: 4cfc 9ebd ceeb f73d cb8f af3d 5f6a dfbe
000000a0: 96b9 eebc 5d4b f3bd 2b7c 613e fb44 fcbd
000000b0: 5170 c13e 7da0 84be cae3 1d3f 19f4 483e
000000c0: d89d e13c 1b0a d73d cda2 6cbc 4dcc bf3c
000000d0: cb7d 153e 64a8 babd 35c1 12be 3e7c 323e
000000e0: 77e1 dcbc 57bd 8a3d 208e 9f3d 5a70 05bf
000000f0: a0d3 f23c 6743 8b3e a909 9bba 5fb0 2d3d
00000100: a5f1 ba3c a996 14be 5b61 b4bc 2452 2e3e
00000110: 4e48 6c3e 2039 bc3d 112f cabd 7302 6dbd
00000120: 4cc3 bb3d cdf2 ecbe e898 21bd 0e43 0abe
00000130: 8eac 233e aa40 da3d 6478 a1bd 9faf 583d
00000140: 690d 4c3d 3a65 1fbe c794 f63c 39bb 9b3c
00000150: ddf0 ebbd 988e 083d 5fa2 743d 11d0 8cbe
00000160: 57ff 943e 5382 9c3e ddac b4bd 8e9d cbbe
00000170: 301b 05be 99ca 70bd 2d21 593d 5f6e 4f3d
00000180: f496 babd 5b6e bb3b b217 bebe 6231 1f3e
00000190: 9f06 033c 4890 b73e d10b 06be 6c4f 2c3e
000001a0: d085 7a3e 0f3c d3bd 8bdf 3c3e 249b 7e3e
000001b0: 6ec0 55bf b840 ff3e a779 ef3d 9b54 823e
000001c0: c606 183f db2c 853e ec0c 293d 68e3 b93f
000001d0: c38f da3c f49c efbd 344e a8bd 15d6 a0be
000001e0: 4242 b9be 0f24 343c 7e57 9a3e e734 23bd
000001f0: 19fc 0ebe 2f70 223b e888 d83e 80e9 e3bb
00000200: 2bc9 24be a837 2a3d 5266 7f3f 419d 22be
00000210: 7cc4 81be 3720 fbba 2e14 513e 7709 76bd
00000220: 3857 183d 2261 bcbe 47b5 113d c2d5 b4bd
00000230: 5bc1 6fbe 22c5 403d d0de d13d dd44 b73e
00000240: dc97 56be 5368 d2bc 000a e8bd 9ba1 b0be
00000250: 3085 97bd 784b b13d 1afb 6ebe 67eb 923d
00000260: b948 bd3c 16d9 0abd b1bd 003f 6a29 1b3f
00000270: a12f 5a3b 6914 aabe e798 1dbe 5e8e 95bd
00000280: df51 5c3d 6420 663e 77b2 41be 50d4 8abe
00000290: baae 7fbe e4a0 de3e 6c32 833a 80d2 d73d
000002a0: eb06 2bbe 960e 283e 058b fabe 690b 3fbd
000002b0: 10be 07be 390c 6ebe 2f1b 343d e661 9a3e
000002c0: 3e88 39be 6592 ef3c b91c e3bd 08cf a93e
000002d0: bf41 a8bd 076b 303f 3327 62be e989 0d3e
000002e0: 3428 433d 9443 803c f437 4dbd 73b4 ef3c
000002f0: 5267 5abd 23fd 123f 8898 893d b11c c5bd
00000300: 8a9d d4bd 6a4f d63d 19c4 dd3e 881b b2be
00000310: d06c 8ebe c7a2 a6be 3eca 013e bcd1 123d
00000320: 682e 243d 2657 c13d e3c9 02be 72cf 14be
00000330: 74af 22bd 5196 6f3d 4057 5d3d ec1b 63bc
00000340: 7202 0c3d bac0 aa3e ecdb 52be aaf1 663d
00000350: 7159 3fbe e119 b8bd e620 d8be 7b02 11be
00000360: 5c1a 1b3d d26d a4be c5fe a1be dd6c 99be
00000370: 0891 52be eee5 9c3d 18c7 3b3e 545e 41bc
00000380: 6e18 143d 4ed0 683d a5b2 143d 8ef3 84be
00000390: f39c bb3d 13a0 3f3d fa44 1e3e 39b4 183d
000003a0: e071 95bc 0105 c8bd 529c 393d 34d2 68bd
000003b0: 09cc c13e b641 adbe 0332 6e3e bc4e 0a3c
000003c0: b0f0 9bbe f52e 6c3e af6d a8bd 17a8 26be
000003d0: b822 c13d 2139 353d 74d4 1d3e ffc2 d83e
000003e0: 1590 c53e 7127 ea3e 37df 4d3d 749a e73d
000003f0: 1894 bf3c 5c12 483e 1109 fe3c ed4a 053d

last_fc.weight f4 [3, 256]
-0.05469484 -0.009022037 0.0033218372 0.42159966 -0.056929294 0.002504073 0.05808385 0.08024372
0.04850948 -0.0025748545 -0.011332472 0.33197471 0.013229459 0.008811372 0.11544324 0.3161834
0.013358454 0.22591484 0.22135566 -0.0076058204 0.10174592 -0.29486233 0.2376894 -0.058179427
0.1836675 0.0015187912 0.010170674 0.015211853 0.025621625 0.19806477 -0.054338668 -0.36563426
0.013738079 -0.032883517 -0.07698677 -0.035478305 0.17945926 -0.24944939 1.355596 -0.1130944
0.30463913 0.5094503 0.11699776 0.2797751 0.0170225 -0.07201509 0.15072168 0.5092314
-1.1306841 -0.772366 0.14084242 -0.22599477 -0.3003 -0.12184044 -0.0866746 -0.03611539
-1.3802446 -0.010287412 0.7975963 0.07352568 0.005165751 -0.045283075 0.02760325 0.018508734
-0.1716087 -0.47601366 -0.3397803 -0.16837887 0.18343726 -0.030510817 0.08631106 0.13201164
0.35248506 -0.803454 -0.080372155 -0.062159076 -0.59277254 0.37115029 -0.027099693 -0.010167738
-0.0153291235 0.9769506 0.6576972 -0.03054771 -0.07774089 -0.009694102 -0.024724096 -0.04108593
0.02752827 0.14373706 0.033983137 0.09176985 0.10463911 -0.05936546 -0.016277676 -0.00022066843
0.6722976 0.08352449 -0.114017285 0.34345815 0.0372627 -0.073909424 0.01979834 0.1502857
0.010697713 -0.012516501 0.091639295 -0.038235333 0.09720207 -0.037427217 0.06198814 0.40789872
0.05485407 0.22022521 -0.004315364 -0.028278207 0.0045808083 0.04224842 -0.14311366 -0.70437205
-0.6033496 -0.0005203127 0.42983875 0.6138573 0.10423203 -0.44388896 -0.083157085 0.29540235
-0.6496727 -0.0069453367 0.0891372 -0.5019764 0.03058441 0.15856165 -0.14306308 0.62180454
-0.010626613 -0.15292667 0.23167384 0.5327931 0.10321553 0.017053168 0.27186093 0.8204015
-0.16796881 -0.19522522 -0.055228576 -0.32251883 0.12448929 -0.13940874 -0.12225292 -0.072730966
-1.8287978 0.07604241 0.1966829 0.039043844 0.07576648 0.38039446 0.10688873 -0.1360451
0.01151409 0.19060451 0.5766966 -0.582548 -0.19187602 -0.82446116 -0.08700755 -0.13497487
0.46111634 0.04009304 -1.9548506 -0.06726126 -0.19956201 -0.15139773 0.0030939153 0.049303167
-0.19710773 0.53499264 0.12951106 -0.27382815 -0.073313795 0.15790188 -0.12993866 -0.31944636
0.03369221 0.0012025586 -0.21701202 0.015549478 -0.48647475 0.21679066 1.3963698 0.003348932
0.59528893 -0.15652382 0.27710223 0.63033044 -1.2674855 0.03626504 0.09842296 -0.012945811
-0.00048038262 -0.058863737 0.0151898805 0.06531249 -0.62751275 -0.015175674 -0.0027705815 0.082279235
1.8649662 0.076553114 0.045849063 -0.008404949 -0.15191753 -0.06766876 -1.3555334 0.95601666
-0.009698677 -0.15203097 -0.57652885 -0.012379249 0.26258504 -0.27563214 -0.05243696 0.11922912
-0.0058399197 0.013096294 -0.017264899 0.007036399 0.2023742 0.0013933856 0.023867063 0.014727819
0.108747184 -0.1865632 0.00052412995 0.0653389 -0.001087094 -0.9138498 -0.18137573 0.12804651
-0.28346714 0.74133354 -0.70250094 -0.14511095 0.6719123 0.008765908 1.0391678 0.06781587
0.0029929213 0.11482464 -0.005222737 0.009422664 0.008335655 -0.08055979 -0.0011469474 -0.026044263
00000000: b207 60bd 2ad1 13bc 2eb3 593b e9db d73e
00000010: b12e 69bd 601b 243b 55e9 6d3d d256 a43d
00000020: e0b1 463d e4be 28bb d5ab 39bc 97f8 a93e
00000030: 5fc0 583c 935d 103c 816d ec3d cae2 a13e
00000040: 6bdd 5a3c 3856 673e 0fab 623e 3f3a f9bb
00000050: 2a60 d03d 32f8 96be da64 733e 8d4d 6ebd
00000060: 5513 3c3e 2d12 c73a e6a2 263c 233b 793c
00000070: 71e4 d13c 7ed1 4a3e 3992 5ebd 6a34 bbbe
00000080: ae15 613c deb0 06bd 3dab 9dbd b351 11bd
00000090: 2bc4 373e a96f 7fbe 2b84 ad3f 099e e7bd
000000a0: a9f9 9b3e 566b 023f 869c ef3d af3e 8f3e
000000b0: c572 8b3c a67c 93bd c956 1a3e fd5c 023f
000000c0: 42ba 90bf c7b9 45bf ff38 103e 2c6b 67be
000000d0: ecc0 99be 7b87 f9bd 7482 b1bd bbed 13bd
000000e0: dbab b0bf 898c 28bc 452f 4c3f a294 963d
000000f0: 7645 a93b bf7a 39bd 3620 e23c a19f 973c
00000100: 31ba 2fbe 10b8 f3be aff7 adbe 836b 2cbe
00000110: fad6 3b3e d2f1 f9bc dac3 b03d 0f2e 073e
00000120: ec78 b43e 29af 4dbf 289a a4bd 849a 7ebd
00000130: f1bf 17bf 6907 be3e 2d00 debc 9696 26bc
00000140: 0127 7bbc 6f19 7a3f d85e 283f 313f fabc
00000150: 9e36 9fbd 03d4 1ebc 308a cabc b849 28bd
00000160: f782 e13c cf2f 133e e731 0b3d d5f1 bb3d
00000170: 084d d63d 3229 73bd c358 85bc 3b63 67b9
00000180: b21b 2c3f e30e ab3d e581 e9bd bfd9 af3e
00000190: c6a0 183d d35d 97bd 2130 a23c 7fe4 193e
000001a0: 7645 2f3c 0312 4dbc 62ad bb3d a79c 1cbd
000001b0: e111 c73d 484d 19bd 47e7 7d3d 1ad8 d03e
000001c0: a9ae 603d b882 613e e667 8dbb b3a7 e7bc
000001d0: 9b1a 963b ae0c 2d3d 638c 12be ba51 34bf
000001e0: 1f75 1abf 9865 08ba d313 dc3e c125 1d3f
000001f0: 9a77 d53d 6a45 e3be 434e aabd fa3e 973e
00000200: f350 26bf b595 e3bb 908d b63d 8681 00bf
00000210: 288c fa3c fc5d 223e 217f 12be 952e 1f3f
00000220: 3f1b 2ebc cf98 1cbe e83b 6d3e 2165 083f
00000230: aa62 d33d 16b3 8b3c 5b31 8b3e d505 523f
00000240: 0400 2cbe 1fe9 47be 5c37 62bd 3021 a5be
00000250: 3ef4 fe3d 2ac1 0ebe bd5f fabd f9f3 94bd
00000260: 0c16 eabf 20bc 9b3d 3e67 493e 70ec 1f3d
00000270: 752b 9b3d 10c3 c23e 7ae8 da3d 684f 0bbe
00000280: 98a5 3c3c d42d 433e 63a2 133f de21 15bf
00000290: 267b 44be e30f 53bf 0431 b2bd da36 0abe
000002a0: 7117 ec3e 9938 243d 8b38 fabf 45c0 89bd
000002b0: fc59 4cbe 0208 1bbe 49c3 4a3b 1ef2 493d
000002c0: 9cd6 49be 47f5 083f 8c9e 043e 3433 8cbe
000002d0: 8b25 96bd 08b1 213e a40e 05be 798e a3be
000002e0: d800 0a3d 2c9f 9d3a 6638 5ebe 3dc3 7e3c
000002f0: 3813 f9be 5ffe 5d3e 3fbc b23f c179 5b3b
00000300: db64 183f c847 20be 58e0 8d3e 565d 213f
00000310: f73c a2bf a78a 143d fa91 c93d ab1a 54bc
00000320: dddb fbb9 1a1b 71bd fade 783c 8ec2 853d
00000330: ada4 20bf 64a3 78bc a592 35bb 0482 a83d
00000340: 36b7 ee3f e1c7 9c3d 3acc 3b3d e9b4 09bc
00000350: 4590 1bbe eb95 8abd 1e82 adbf 82bd 743f
00000360: 33e7 1ebc 02ae 1bbe 6597 13bf 55d2 4abc
00000370: 8c71 863e a81f 8dbe 23c8 56bd 662e f43d
00000380: cc5c bfbb d791 563c 1e6f 8dbc 9891 e63b
00000390: 2f3b 4f3e 43a2 b63a dc84 c33c f34c 713c
000003a0: d8b6 de3d 6c0a 3fbe c465 093a 67d0 853d
000003b0: d27c 8eba 0ff2 69bf 8fba 39be a01e 033e
000003c0: 9b22 91be 09c8 3d3f 1ad7 33bf f797 14be
000003d0: 7202 2c3f e29e 0f3c 7303 853f 0ce3 8a3d
000003e0: e324 443b 2e29 eb3d 7e23 abbb 8461 1a3c
000003f0: 4592 083c 88fc a4bd 2b55 96ba c75a d5bc

last_fc.bias f4 [3]
-0.016319875 -0.008170197 -0.002842611
00000000: 42b1 85bc 4adc 05bc 194b 3abb

last_fc_log_std.weight f4 [3, 256]
0.045861673 -0.012815724 -0.046889935 0.10400423 0.010686931 0.017656017 -0.004056907 -0.00854546
0.04427563 -0.0109031135 0.050395414 0.36140606 0.031276483 0.12523748 0.02643755 0.33319336
-0.047168393 0.22950765 0.029615525 -0.055011906 0.109327525 -0.05742074 0.60830057 -0.037818074
0.0842153 0.036435932 -0.0797883 -0.08676651 0.013007708 0.089426056 -0.057957157 -0.010888128
0.0962771 0.0040134713 0.0457125 0.047367793 0.13381612 -0.048498143 0.8760716 0.09529894
0.2617642 0.21117397 -0.11054009 0.19329576 0.05404417 0.010088304 0.044363003 0.19391759
0.13060868 0.112663634 0.10455721 0.06625157 0.09289871 -0.014875723 -0.10922181 0.012502077
0.99688184 0.004665366 0.3500398 0.08375314 0.0023536684 -0.003798489 -0.038696125 0.004774232
-0.061271038 0.23483296 0.5408805 0.097922124 0.22616953 0.02025947 0.045848656 0.023127038
0.36866102 0.2589097 0.049129713 -0.09190229 0.1796743 0.260166 0.039891083 0.008533391
0.00816812 0.13070159 0.44649583 0.0023947072 -0.09389064 0.036952034 0.022941954 -0.1573391
0.024528587 0.110456586 -0.013062583 -0.006870829 0.10012535 -0.04429252 0.0037326685 0.015838515
0.19275415 0.037155714 0.053758778 0.2959518 0.017970745 -0.04148825 -0.064359516 0.072571225
0.003664826 -0.03471405 0.073633306 -0.015082807 -0.03255597 -0.06287133 0.054451704 0.23128548
0.08349295 0.23159383 -0.024494492 -0.218311 0.027505439 -0.014900694 -0.030041702 0.42286593
-0.0088903345 0.0479808 0.21032894 0.15841341 0.062068686 0.4627503 -0.07967017 0.3031861
-0.0025530225 0.034123372 0.007713543 0.22258566 -0.036984473 0.031394083 -0.13620691 0.24539107
0.025369218 -0.15405633 0.44578758 0.20180511 0.09099552 0.0018080233 0.23004816 0.54209745
-0.06263843 -0.029508669 -0.12488282 0.3959872 0.07518378 0.03221382 -0.046152513 -0.0967344
0.33426958 0.012810328 0.15557726 0.05911283 0.09626882 0.23670645 -0.0018701028 -0.06269607
0.03399622 0.14492297 0.21323346 0.12614833 -0.022518056 -0.3040605 -0.09832215 -0.03727506
0.13314416 0.010837735 0.48936516 -0.014546273 0.059385557 -0.07895616 0.005060614 -0.0024346556
-0.12255457 -0.10159995 0.10044233 -0.024950089 -0.23466785 0.14786582 -0.011518706 -0.05338735
-0.012252093 -0.005020125 -0.053639505 -0.017501654 -0.19939905 0.0764171 0.81761366 0.03558929
1.4454335 -0.02998855 0.08659556 0.24961844 0.45260206 -0.02176086 0.084978975 -0.019187909
0.0058693667 -0.090371 0.048807167 0.0148193715 0.39189488 -0.016388804 0.02779133 -0.03167316
1.4010185 0.065132 0.042774048 0.004171273 -0.05873844 0.008353224 0.597527 0.70050883
0.038998872 0.056465194 0.22618279 0.009879744 0.19116622 -0.057388976 -0.031969715 -0.2076628
0.021728331 -0.0040223217 0.045353662 -0.0573281 0.04834653 -0.003045449 0.0015449015 0.056489512
0.13166036 0.19366068 -0.004370713 0.123693265 0.022102453 0.46420088 -0.07986659 -0.016274665
0.17685467 0.32764158 0.047973733 -0.06165235 0.3920696 0.03564302 0.48673597 0.002129348
0.0013337026 0.041184902 0.023501184 0.015270745 -0.004265663 0.0016243517 -0.02151787 0.019162497
00000000: 73d9 3b3d 0bf9 51bc a90f 40bd 2b00 d53d
00000010: 3d18 2f3c 5aa3 903c cdef 84bb 4202 0cbc
00000020: 5d5a 353d f9a2 32bc 6c6b 4e3d 370a b93e
00000030: c51b 003d 413e 003e 9093 d83c 5298 aa3e
00000040: a533 41bd 0e04 6b3e 429c f23c 2a54 61bd
00000050: 1ce7 df3d 0332 6bbd 96b9 1b3f 20e7 1abd
00000060: 1279 ac3d d83d 153d 0c68 a3bd a4b2 b1bd
00000070: 481e 553c 0225 b73d 7c64 6dbd 1e64 32bc
00000080: ee2c c53d 7083 833b 083d 3b3d bb04 423d
00000090: 1807 093e fda5 46bd 3a46 603f 172c c33d
000000a0: f505 863e fd3d 583e d862 e2bd 53ef 453e
000000b0: 6b5d 5d3d 6a49 253c fbb5 353d 5592 463e
000000c0: 48be 053e 31bc e63d 1722 d63d e7ae 873d
000000d0: ae41 be3d 4eb9 73bc afaf dfbd 83d5 4c3c
000000e0: a633 7f3f eddf 983b 6b38 b33e c486 ab3d
000000f0: 0140 1a3b 12f0 78bb d47f 1ebd 2971 9c3b
00000100: 57f7 7abd 0d78 703e 2577 0a3f 658b c83d
00000110: fc98 673e 30f7 a53c cdcb 3b3d ea74 bd3c
00000120: 23c1 bc3e d08f 843e 3d3c 493d 4537 bcbd
00000130: 8afc 373e 7a34 853e d564 233d a3cf 0b3c
00000140: 94d3 053c a3d6 053e 1a9b e43e 85f0 1c3b
00000150: bc49 c0bd 045b 173d c4f0 bb3c 801d 21be
00000160: 2df0 c83c 1037 e23d 7204 56bc b124 e1bb
00000170: 850e cd3d 136c 35bd c99f 743b c6bf 813c
00000180: 5861 453e 9730 183d 2a32 5c3d ff86 973e
00000190: 6237 933c 95ef 29bd ecce 83bd 39a0 943d
000001a0: 942d 703b 5230 0ebd 0fcd 963d e11d 77bc
000001b0: 6959 05bd afc2 80bd c008 5f3d 1ad6 6c3e
000001c0: 5afe aa3d ef26 6d3e aca8 c8bc eb8c 5fbe
000001d0: 1653 e13c 0a22 74bc 041a f6bc e281 d83e
000001e0: c4a8 11bc 8487 443d 7860 573e 2037 223e
000001f0: bc3b 7e3d 9bed ec3e 1d2a a3bd 353b 9b3e
00000200: 9c50 27bb f3c4 0b3d e3c1 fc3b 7fed 633e
00000210: 087d 17bd 1597 003d d379 0bbe cc47 7b3e
00000220: 1bd3 cf3c f1c0 1dbe 453e e43e 00a6 4e3e
00000230: dc5b ba3d 32fb ec3a bf91 6b3e e6c6 0a3f
00000240: 9448 80bd 2abc f1bc 90c2 ffbd d6be ca3e
00000250: f4f9 993d a3f2 033d 6b0a 3dbd af1c c6bd
00000260: 6225 ab3e 69e2 513c a54f 1f3e 4b20 723d
00000270: 9628 c53d 2d63 723e 3d1e f5ba cc66 80bd
00000280: 9f3f 0b3d b066 143e df59 5a3e 072d 013e
00000290: c977 b8bc d1ad 9bbe 205d c9bd bcad 18bd
000002a0: f156 083e c190 313c 128e fa3e 7e53 6ebc
000002b0: 453e 733d c4b3 a1bd 82d3 a53b be8e 1fbb
000002c0: e4fd fabd a213 d0bd b5b4 cd3d 2164 ccbc
000002d0: c54c 70be 236a 173e f4b8 3cbc b2ac 5abd
000002e0: 01bd 48bc dc7f a4bb 19b5 5bbd a15f 8fbc
000002f0: 442f 4cbe 9280 9c3d 214f 513f 13c6 113d
00000300: f703 b93f 8caa f5bc 0359 b13d fa9b 7f3e
00000310: 75bb e73e d543 b2bc 7509 ae3d f62f 9dbc
00000320: d153 c03b 6e14 b9bd 06ea 473d f3cc 723c
00000330: 72a6 c83e d041 86bc a5aa e33c b7bb 01bd
00000340: 9354 b33f ed63 853d d733 2f3d 2daf 883b
00000350: b897 70bd f6db 083c 88f7 183f 8c54 333f
00000360: 48bd 1f3d 0c48 673d 769c 673e a6de 213c
00000370: 14c1 433e b410 6bbd adf2 02bd 8fa5 54be
00000380: 9dff b13c aecd 83bb c3c4 393d dfd0 6abd
00000390: 0307 463d 2896 47bb 4b7e ca3a 8c61 673d
000003a0: f9d1 063e fc4e 463e 3338 8fbb e552 fd3d
000003b0: 3410 b53c bdab ed3e 1891 a3bd 7252 85bc
000003c0: 6419 353e a3c0 a73e 1b80 443d 2d87 7cbd
000003d0: 59bd c83e 6afe 113d 7535 f93e 888c 0b3b
000003e0: a2cf ae3a 80b1 283d 8e85 c03c 2632 7a3c
000003f0: fac6 8bbb 33e8 d43a 3e46 b0bc abfa 9c3c

last_fc_log_std.bias f4 [3]
-2.167231 -1.3774009 -1.8771443
00000000: eab3 0ac0 ac4e b0bf 4446 f0bf
