models/Env2/PDSRL_256_A5_S2_P/local_episode_2900_reward_400.000000.pt (torch, 297564 bytes, 8 tensors)

fc0.weight f4 [256, 23]
000000 52 15 c9 3c c3 06 8f bd b7 42 e4 3c 9d 89 e0 bc
       0.0245463 -0.069837116 0.027863843 -0.02740937
000010 2f 6e 0e 3d db b2 77 bd 0b 3f 52 bd 3f b3 87 3c
       0.034773048 -0.060473304 -0.051329654 0.016564963
000020 af e4 84 bd 6f 3c 8a bd 50 57 1d 3c d1 2c 3a bd
       -0.064889304 -0.06749808 0.009603336 -0.045452897
000030 5c 94 49 bd 86 d3 19 bd e9 98 17 bd 00 74 b0 3c
       -0.049213752 -0.03755524 -0.03701106 0.021539688
000040 aa 37 9b bd 93 c2 a5 bc 48 ff 27 3d c2 cb 6b bd
       -0.075789765 -0.020234382 0.04101494 -0.057567365
000050 4d 75 57 3d 32 d0 b1 bc ba 99 3b ba 78 73 ac bd
       0.0526021 -0.02170572 -0.0007156391 -0.084204614
000060 a8 8d 01 bd 94 9b 2a 3e 3b 0f 06 bc 02 71 4f 3c
       -0.031629235 0.16660911 -0.008182342 0.0126612205
000070 7b a1 e8 bd 74 3e 16 be 45 a7 3c bd e9 83 48 be
       -0.11358925 -0.14672261 -0.04605796 -0.1958157
000080 71 0d 07 be fa 78 cc bd db 25 7b bd c2 b3 8b bb
       -0.13188721 -0.09984012 -0.0613154 -0.004263372
000090 c4 6b 41 3e ce 38 0a 3e 24 7b 41 bc f4 19 78 bc
       0.18888766 0.13498232 -0.011809144 -0.015142906
0000a0 cb 17 a7 bd 55 52 bc bd d2 e6 a3 bd db 54 1b c0
       -0.08158835 -0.09195391 -0.0800301 -2.4270542
0000b0 2a ba e1 bd 77 76 bb be 84 bb 1d 3d c9 57 9a 3c
       -0.11021836 -0.3661382 0.038508907 0.018840687
0000c0 80 4c 9e 3c f6 29 65 bd bb e3 bf bc 2a c5 6f bd
       0.019323587 -0.05594822 -0.02342402 -0.05853764
0000d0 81 55 8b bc db 69 a3 bd 85 f8 38 bd 41 bc d5 bc
       -0.017008545 -0.07979175 -0.04515888 -0.026090743
0000e0 5f 3d 6e bd ae 55 8e ba 6a af 29 bd 6a 2d 82 39
       -0.058163997 -0.0010859275 -0.041427054 0.00024829368
0000f0 6e ad 10 3d d3 68 b0 3a 11 11 32 bc 91 cd 65 bd
       0.035321645 0.0013458974 -0.010868327 -0.056104247
000100 52 43 32 bd f3 95 8b bd 9d 6d 50 bd ad 33 7b 3c
       -0.043521233 -0.0681571 -0.050885785 0.015332145
000110 89 ef ab 3b 17 ae 30 bd 25 2d 93 be 8c 49 68 be
       0.0052470607 -0.043134775 -0.2874538 -0.22684306
000120 ce a9 3a be 71 b6 d3 3d a4 e9 31 3e 28 c1 b3 3d
       -0.18228838 0.10337532 0.17374283 0.08777076
000130 4e 96 76 bd f0 87 10 bd 3d a6 ed 3d 06 67 51 be
       -0.060201935 -0.03528589 0.11603973 -0.20449457
000140 0c 6a ff bd 6e 56 a5 3d 94 08 cf 3d c0 95 13 be
       -0.12471399 0.08073126 0.10109058 -0.14412594
000150 27 20 f2 3d 07 ad 58 bd a5 f4 30 3e b4 53 0d be
       0.11822539 -0.052899387 0.17280824 -0.13801461
000160 11 87 f5 3d 31 1f bc bf ee 18 29 3f 0b bf 05 3e
       0.119886525 -1.4697019 0.66053665 0.13061158
000170 9b 0c 07 3e ab 7f 6a bc 71 60 d1 39 8a 43 50 3d
       0.13188402 -0.014312665 0.0003993544 0.05084566
000180 da 9f b9 3e f1 6f 82 3e 48 78 1e bd 01 4e e3 bd
       0.3625477 0.2547603 -0.038688928 -0.110988624
000190 75 79 27 3e 49 ee 2b 3e 5e 48 d1 3d 5b 56 95 be
       0.16354926 0.16790117 0.10218881 -0.29167446
0001a0 60 ae 16 be 99 cd 36 be f3 c6 3e be 15 ed c9 bd
       -0.14714956 -0.17851867 -0.1863058 -0.09859673
0001b0 fc 1d 86 bd 68 9a 3a be 66 a2 34 be bc 99 e2 3c
       -0.06548688 -0.18222964 -0.17640075 0.027661197
0001c0 97 d0 fb 3d 14 fc 89 3d 3c b4 83 bd ab a2 4c 3b
       0.12295645 0.06737533 -0.06430861 0.0031224887
0001d0 fa 4d 8d 3a 1e de 1c 3c ed 82 70 bd 6f db 40 3d
       0.0010780685 0.009574441 -0.05871861 0.04708427
0001e0 6f 38 41 bd ef bc 4f bd c6 b3 49 3d 7c c6 70 bd
       -0.04717296 -0.05071729 0.04924371 -0.05878304
0001f0 41 28 8f 3c 61 18 50 3b b7 16 01 3d ce 84 93 bd
       0.01747525 0.0031752812 0.031515803 -0.07203065
000200 6f a1 16 bd e7 2d 3f 3d b4 0c 31 bd 47 71 84 bd
       -0.03677505 0.046674635 -0.043225005 -0.064669184
000210 bc 89 4d bd 99 cb c1 3b ae 79 e8 bb bc ea 8d bd
       -0.05018018 0.0059141633 -0.0070945835 -0.06929538
000220 34 43 7a 3c 3b 88 73 bd db fd cb bc ad 71 ce bc
       0.015274812 -0.05945609 -0.024901321 -0.02520069
000230 ef 20 9e bb 47 98 6f 3c 78 2f 46 bd e5 33 95 bd
       -0.0048257033 0.014623708 -0.048385113 -0.07285289
000240 62 20 0b bd 2f 80 7a bd 73 9e 22 3d 78 50 27 bd
       -0.03396643 -0.0611574 0.03970189 -0.040848225
000250 55 48 60 bc 12 82 66 bd ed 8f 04 bd ce d6 43 bd
       -0.01368912 -0.05627639 -0.03236382 -0.047812276
000260 b0 89 07 bc 94 fd 20 3d 5f f3 92 3c 0e 11 4f bd
       -0.008272573 0.03930433 0.017938314 -0.050553374
000270 d3 4d 67 bd a5 e4 2f bd 89 8c f1 bc e4 a4 e8 3c
       -0.056470703 -0.04294266 -0.029485958 0.028398938
000280 aa dd d3 bc 17 70 64 bb 54 2a c6 bc e6 f6 c3 bc
       -0.025862534 -0.003485685 -0.024190105 -0.023921441
000290 31 49 89 3c d7 ff bd 3c 64 59 92 3c ba 0b 6b 3c
       0.016758533 0.023193283 0.01786489 0.014346058
0002a0 a2 3e 27 bc 1e 46 a2 bd 07 56 a3 bd 9e c2 da bc
       -0.010207804 -0.0792353 -0.07975393 -0.026704129
0002b0 c4 3e 85 bd 1a 7d 7c bd 90 24 6b bd 60 9a 1f bd
       -0.06506112 -0.061642744 -0.057407916 -0.038965583
0002c0 31 ab e7 bc 19 d2 9b bd 35 57 7e bd fd 65 97 bc
       -0.028279873 -0.07608432 -0.062094886 -0.018481249
0002d0 ca b0 2e bd 5e 9a 58 3d 02 d1 3c 3d 39 f5 d3 3c
       -0.042649068 0.05288159 0.046097763 0.025873767
0002e0 11 be 17 3c b3 7c 05 bd b9 fe 7a bc aa f1 84 3c
       0.009261624 -0.032589626 -0.01531952 0.016228516
0002f0 d3 6a 38 bd 51 24 20 bd dc d1 8e bd 0f 48 55 bd
       -0.04502375 -0.039097134 -0.06973621 -0.052070674
000300 83 1e 9c bc bc 39 d1 3a a8 01 8f bd f9 21 f0 bc
       -0.019057518 0.0015962641 -0.06982738 -0.029313074
000310 cd 45 a1 bc 2f 9f 9d b6 8a 7e 47 3c 4a 57 e0 bc
       -0.019686604 -4.697496e-06 0.012176165 -0.027385373
000320 94 53 31 bd 56 e6 df 3c 9b 4f 36 3d ee cb 34 bd
       -0.043292597 0.027331512 0.04450951 -0.044139795
000330 35 03 14 3d ba c5 28 bc 78 77 16 bc a2 57 5e bd
       0.03613587 -0.010301048 -0.009183757 -0.054282792
000340 38 ce 63 bd 90 36 9b bd 36 29 cc 3d 84 eb 58 bb
       -0.055616587 -0.07578766 0.09968798 -0.0033099363
000350 e1 36 5f 3d b2 66 c4 bc f8 84 f0 bd 2e 02 4c be
       0.054495696 -0.02397475 -0.11744112 -0.19922706
000360 b6 e7 1f 3d da fa 26 be ef 0a 0b 3d 2b 40 86 3d
       0.039039336 -0.1630663 0.033945974 0.06555208
000370 26 17 36 3c 6f 93 c6 3b a8 ac 17 be 25 78 d8 bd
       0.011113917 0.006060056 -0.14811957 -0.10569791
000380 cd ca 8e 3d 7e 62 6b be 4d 61 3c be 86 23 00 40
       0.06972275 -0.2298679 -0.18396492 2.0021682
000390 1f 1a 89 3f f3 5d ac bd b0 9b 71 ba 36 5d ac bd
       1.0711097 -0.08416357 -0.00092166197 -0.08416216
0003a0 13 07 e1 bd 67 77 1f be c2 43 9f 3e 64 6a 2e ba
       -0.109876774 -0.15572892 0.31106383 -0.00066534267
0003b0 53 07 85 3e 6c 69 91 bc 98 b6 b3 be 66 5f 18 bf
       0.2598215 -0.017750464 -0.35100245 -0.59520566
0003c0 5d bc c0 bd 23 cd 8b 3c 86 68 37 3e 79 cf 25 3e
       -0.094109274 0.01706559 0.17910966 0.16192426
0003d0 f3 a3 97 bd c5 45 07 3c 7f b2 e6 bd 92 ba d5 3d
       -0.07404318 0.00825638 -0.11264514 0.10435976
0003e0 fd 59 75 bc 00 66 82 bc 99 de a4 bd 52 e1 55 3d
       -0.014975068 -0.015917778 -0.0805027 0.052216835
0003f0 d0 64 6e 3f a0 e4 d1 3e 0f 87 52 3e 9e 62 51 be
       0.9312258 0.4099474 0.20559333 -0.20447776

fc0.bias f4 [256]
000000 97 28 af 3d 2b b0 4f be 5c 9a a2 3d 5a 39 46 3e
       0.08552664 -0.20282046 0.07939598 0.19357815
000010 74 a6 c4 3d 0f 43 b2 3d 3a 02 ad 3d e8 87 a2 3d
       0.09602061 0.08704197 0.0844769 0.07936078
000020 76 f9 ae 3d ab 06 55 3e cc b8 37 bd e6 a4 92 3e
       0.08543675 0.20803325 -0.04485397 0.28641433
000030 ea c5 ad 3d 26 13 bd 3d 1e c5 a2 3d 72 7b c5 3d
       0.08485015 0.09232168 0.07947753 0.09642686
000040 8b e9 93 3d 54 37 b5 3d 13 d5 f5 bd 00 94 ab 3d
       0.07222279 0.088484436 -0.12003531 0.08377838
000050 38 05 b4 3d e7 44 9f 3e c4 79 c8 3e 76 3f e8 3d
       0.08790058 0.31107256 0.391554 0.11340229
000060 b9 2c 8b 3d 09 95 b2 3d 7c 11 6b 3e 03 8d 70 be
       0.067956395 0.087198325 0.22955889 -0.23491292
000070 a9 5f a5 3d 8d fd a8 3d 45 cc b0 bd a3 f2 4f 3e
       0.08074886 0.08251486 -0.08632711 0.20307402
000080 27 5b ac 3d 40 95 0c 3d b1 07 96 3d c3 ed e2 be
       0.084158234 0.034322023 0.07325686 -0.44322023
000090 d7 d9 8d 3d 57 58 85 3d 82 14 9a 3d c5 00 9b 3d
       0.06926315 0.0651099 0.07523443 0.07568506
0000a0 2b 6b 97 3d cd cc cc 3d 0d ee 3d 3d 63 f7 9b be
       0.073934875 0.1 0.0463696 -0.3046218
0000b0 d0 b1 ba be 70 e6 89 3d f5 cd 93 3d d7 5f 0d 3e
       -0.36463785 0.067334056 0.072170176 0.13806091
0000c0 86 2d a3 3d c5 b8 95 bc d3 15 81 3d f1 90 39 3e
       0.07967667 -0.018276582 0.06302991 0.18121697
0000d0 3d 21 b6 3d a9 1a 8f 3d 40 98 5d 3e 39 6f a4 3d
       0.088930584 0.06987507 0.2164011 0.080290265
0000e0 62 08 be 3e 1b 95 93 3d 33 57 9d 3d 22 42 9a 3d
       0.3711577 0.07206174 0.076826476 0.07532145
0000f0 bf ee 7f 3e d0 41 94 3d 9f 31 ae 3d 06 6b fc bd
       0.24993418 0.07239115 0.08505558 -0.123251006
000100 ce 43 ad be 6f 7b a7 3d 62 25 af 3d fb b2 3f 3e
       -0.33840793 0.0817784 0.08552052 0.1872062
000110 11 ae 15 3e 20 83 87 3d 21 5a 00 3f 06 59 c1 3d
       0.14617182 0.06616807 0.50137526 0.09440808
000120 0a 36 31 be 06 30 b3 3d 71 0e ad 3d ee e8 a9 3e
       -0.1730577 0.08749394 0.0845002 0.33185524
000130 11 a2 89 3d fc 13 ab 3d 13 c6 a2 3d b4 68 ac 3d
       0.06720365 0.08353421 0.07947936 0.08418408
000140 ee 15 36 3e b0 25 ce bd 6e 4e ee 3d f8 a5 81 3d
       0.17781803 -0.10065782 0.11636053 0.06330484
000150 56 13 2a 3e 8b cc 9c 3e 2d 26 8f 3d c9 d6 78 3e
       0.16608939 0.30624804 0.06989703 0.24300684
000160 3b 6d 94 3d 64 17 9b 3d 00 95 a6 3d 4a e2 9a 3d
       0.072473966 0.07572821 0.08133888 0.075626925
000170 cd cc cc 3d a7 24 76 3d 69 1c e4 3e 0c b4 df bd
       0.1 0.06009355 0.44552925 -0.10923013
000180 9c 12 b0 3d a3 33 dd 3e cc a2 7c 3e 16 74 a1 3d
       0.085972995 0.43203458 0.24671477 0.0788347
000190 20 f9 78 3e 00 41 98 3d c2 4c 87 3d 78 d2 a1 bd
       0.24313784 0.07434273 0.06606437 -0.07901472
0001a0 ab ae b3 3d fe 47 12 3e bf 3b 99 3d 47 4a b5 3d
       0.0877355 0.14285275 0.07482099 0.08852058
0001b0 66 57 98 3d bd 9b a2 3d 92 ea 3a 3e 74 71 a5 3d
       0.07438545 0.07939861 0.18253544 0.0807828
0001c0 a5 be 86 3d 3c 61 ce bd 00 b2 19 3e eb 58 ab 3e
       0.06579331 -0.1007714 0.15009308 0.33466277
0001d0 18 bf 2b 3e 51 f9 b6 3d 1b ce be 3d 9d fe af 3e
       0.16772115 0.08934272 0.09316655 0.34373942
0001e0 29 5b 7f 3d e5 1d 42 3e d2 8b 1d 3e d6 46 ac 3d
       0.062342796 0.18956716 0.15385368 0.084119484
0001f0 b5 b5 87 3e 18 a5 9e 3d 69 57 92 3e 01 f7 ab 3d
       0.2650582 0.07746333 0.28582314 0.08396722
000200 c1 dc 8e 3d da 81 a1 3d f6 3f ea 3e 1d b3 57 3e
       0.06975699 0.07886095 0.45751923 0.2106442
000210 f8 ef a4 3d e0 b4 4c 3e aa 35 aa 3d 29 50 3f 3e
       0.08053583 0.19990873 0.08311017 0.18682922
000220 cd cc cc 3d 33 ca c8 3d df 8a ac 3d 50 de 9e 3d
       0.1 0.098041914 0.08424925 0.077572465
000230 30 10 b2 3d d1 be a5 3d 13 e3 f7 3d 3c e5 b5 3d
       0.08694494 0.08093036 0.12103858 0.088816136
000240 54 1f 42 3e d6 67 a3 3d 1f f6 85 3e 02 36 ac 3d
       0.18957263 0.079787895 0.26164338 0.08408739
000250 6f 1d 02 bc dd fe a7 3d 73 54 a8 3d f0 4d fb bd
       -0.007941588 0.08202908 0.082192324 -0.12270725
000260 87 48 3e 3e a7 5d 8c 3d 7a 85 be 3d 97 40 c1 3d
       0.18582354 0.068538 0.093028024 0.09436148
000270 cd 39 cb ba 54 8e a9 3d 34 94 09 3f ae 80 a6 3d
       -0.0015504897 0.082791 0.53741765 0.081300125
000280 a6 04 8d 3d 6b e1 93 3d 4a 6c 44 3d 3b 89 aa bd
       0.06885652 0.072207294 0.047954835 -0.08326956
000290 40 04 9c 3d 1d 6d 46 be 3d c0 c1 3d 88 f7 a6 3d
       0.07617998 -0.19377561 0.09460495 0.081526816
0002a0 d3 19 7a 3d 3e bf 9b 3d 4e 5a 93 3d cd cc cc 3d
       0.061059784 0.07604836 0.071949586 0.1
0002b0 a3 8f 06 3f f0 14 e0 bd ef c3 b0 3d dc a0 b3 3d
       0.5256292 -0.109414935 0.08631121 0.08770916
0002c0 e1 3e 96 bd 51 8d 90 3d 33 52 c8 3e 64 25 a1 3d
       -0.07336212 0.07058204 0.39125213 0.0786846
0002d0 4a 83 84 3e 5b 9e c1 3d e0 c9 4a be 64 f8 4a 3e
       0.25881416 0.09454032 -0.19803572 0.19821316
0002e0 61 cc 98 3d 01 c5 b1 3d 78 06 be bd 46 f4 b6 bc
       0.07460857 0.08680154 -0.092785776 -0.022333276
0002f0 1f d8 95 3d c5 b7 38 3c cd cc cc 3d 76 8e b4 3c
       0.073166125 0.011274283 0.1 0.022040587
000300 cd db 74 3e 87 57 2b 3e d2 e1 f9 3e ae a8 a8 3d
       0.23911972 0.16732608 0.488051 0.08235298
000310 64 1b 9b 3d 77 06 9b 3d 5d 35 93 3d 9e 6a af 3d
       0.07573584 0.075695924 0.071879126 0.085652575
000320 3e a6 ad 3e 6b 09 77 bd 8c c3 03 be ea 44 da 3e
       0.33915895 -0.060311716 -0.12867564 0.42630702
000330 34 0a ad 3d fc e8 8a bd 20 c6 45 3e 94 ee ab 3d
       0.08449212 -0.067827195 0.1931386 0.083951145
000340 23 53 49 3e 54 8e a4 3d 0f 70 66 3e 5a fa 83 3c
       0.1966062 0.080349594 0.22503684 0.016110588
000350 3d f5 8e bc cc 0e 02 be 21 39 fa 3d 81 12 9f 3d
       -0.017450923 -0.12700957 0.12217928 0.07767201
000360 e1 9c 3d 3e 67 fd e8 3d 7b 4f ab 3e 95 e5 8d 3d
       0.18516876 0.11376458 0.33459076 0.06928555
000370 e6 e8 aa 3d ae 9b 97 3d 85 a0 81 3e 1b f9 50 3e
       0.08345203 0.074027404 0.2531778 0.20407526
000380 6c 68 8a 3d 89 f1 11 3e 6b 5e 92 3d 7f df 61 3d
       0.06758198 0.14252295 0.07146915 0.055144783
000390 b6 a5 98 3d 33 f0 9c 3d 9b 6b a7 3d b6 98 98 3d
       0.07453482 0.07663002 0.08174821 0.07451002
0003a0 cd cc cc 3d 12 57 90 3d 15 d0 93 be 9a bc 8e 3d
       0.1 0.07047857 -0.28869691 0.06969567
0003b0 35 c1 e0 3e 74 c7 ac 3d 89 cf bc 3d cd cc cc 3d
       0.43897405 0.0843648 0.09219272 0.1
0003c0 b7 56 33 3d 7e ff ea 3e a8 d1 b4 3d 93 59 ac 3d
       0.04378387 0.4589805 0.08829051 0.084155224
0003d0 28 62 d6 3d b5 77 98 3d ea 4e 97 3d b8 3f a9 3d
       0.104679406 0.07444707 0.073880985 0.082641065
0003e0 d2 4f 08 3d 24 d4 e5 3d a6 16 cb 3e f9 46 88 3e
       0.033279248 0.11222103 0.39665717 0.26616648
0003f0 c4 32 a1 3d cf 08 9b 3d fe d7 a7 3d b2 23 a0 3d
       0.07871011 0.075700395 0.08195494 0.07819308

fc1.weight f4 [256, 256]
000000 14 c1 94 3c c6 d6 4c 3e 96 5b a1 ba a3 b9 70 be
       0.018158473 0.20003805 -0.001231062 -0.23508315
000010 3b 6e ac bd 66 9a a9 bd 6a 53 de bb 00 c7 b3 3b
       -0.08419462 -0.08281402 -0.006784846 0.005486369
000020 06 c9 a9 ba 77 75 49 be c6 c1 33 3e 69 a2 8a 3d
       -0.0012953586 -0.19673716 0.17554387 0.067692585
000030 80 ec a7 3a c7 89 da bc 78 54 45 3c 96 58 e7 bd
       0.0012811571 -0.026677025 0.012044065 -0.11296193
000040 3a 14 93 3d e8 a9 84 3d 4f 47 64 3e 7d 25 36 3c
       0.07181592 0.064777195 0.22292827 0.011117336
000050 92 39 45 3d c8 83 77 3d 04 e7 59 be c8 f0 f5 bd
       0.048150606 0.06042841 -0.21279532 -0.12008816
000060 a4 87 07 3d f7 13 35 3d af 1b 0f 3e 05 16 05 3e
       0.03308834 0.044208493 0.13975404 0.12996681
000070 78 32 df bc 7b 3e 3d bd c6 2a be be d3 5b 1a bf
       -0.027245745 -0.046202164 -0.3714201 -0.6029636
000080 e8 87 ab 3c 39 ae 2a 3e f5 f2 03 bd 20 b7 42 bf
       0.020938829 0.16668023 -0.032214124 -0.76060677
000090 cf 4c d5 3c b0 5f ca 3c 30 26 ef 3c 3a 31 d1 3c
       0.026037602 0.02470383 0.029193014 0.025536168
0000a0 34 26 fb 3b cc 81 69 bd fc 50 f4 be b4 79 63 bf
       0.0076644663 -0.05700855 -0.47718036 -0.8885758
0000b0 45 13 0e 3e 32 c9 9c 3c 51 92 36 bd 25 4b 93 bd
       0.13874538 0.019138906 -0.044573132 -0.07192067
0000c0 8a 18 2e bd e2 6f 60 bc 36 28 93 3e ef f9 c7 3c
       -0.04250387 -0.01369855 0.28741616 0.02441117
0000d0 f5 74 83 3d e5 60 0a 3d d2 7f 65 be c5 20 72 bc
       0.06418792 0.033783812 -0.22412041 -0.014778321
0000e0 b7 6a 5d bf 21 96 5f bd 58 72 45 3d 85 c0 a4 3c
       -0.8649096 -0.054586533 0.04820475 0.020111332
0000f0 54 d6 43 be 9e 23 b5 3b 9e e2 d7 3c fa 16 0b be
       -0.19124728 0.0055279275 0.026353177 -0.13582984
000100 a0 5d f8 be 92 10 33 bd 97 7f 46 3d 4b 3c 27 bf
       -0.4850893 -0.043716975 0.048461523 -0.65326375
000110 5e 25 be bd 5c d0 77 3d 53 e8 92 bd 05 27 2c 3d
       -0.09284471 0.06050144 -0.071732186 0.0420294
000120 c6 fd b7 be 31 ea 22 3c d3 c6 3c 3d 08 81 c3 bd
       -0.359358 0.009943531 0.04608805 -0.09546095
000130 18 e2 eb 3c 66 65 f6 bc 12 10 bc bc 54 5e d3 bc
       0.028794333 -0.030077647 -0.022956882 -0.025801815
000140 41 b0 1a be 03 d9 94 3e 96 8a 26 be f8 20 6d 3d
       -0.15106298 0.29071817 -0.16263804 0.05789277
000150 24 bb 19 3d 08 d0 d4 be a9 d4 e1 3c 82 1f 4f bf
       0.037531987 -0.41564965 0.027567225 -0.8090745
000160 b9 68 89 bc f7 b2 54 bd df e3 0b 3d 7e 53 ae bc
       -0.016773568 -0.051928487 0.03415286 -0.021280047
000170 58 c5 8b bc 53 e2 07 3c 7b a5 05 be 08 c8 c4 3c
       -0.017061874 0.008293706 -0.13051407 0.024021164
000180 88 26 30 3d 29 6b 9d 3d 17 90 d0 3e 86 1f 66 3d
       0.043005496 0.07686455 0.40734932 0.056182407
000190 eb 58 33 bf 3a 39 39 3d d3 11 ad bd 29 9a 96 3e
       -0.70057553 0.04522059 -0.08450665 0.2941449
0001a0 40 81 6d bb 2b a8 ff 3e 15 eb 3d bd 31 ed b9 3c
       -0.003624037 0.4993299 -0.04636677 0.02269611
0001b0 44 1b 41 3d 97 24 71 bb 1f c1 7c 3e e6 6c 99 bc
       0.047145143 -0.003679549 0.24683045 -0.018728685
0001c0 b4 f9 4d be 57 38 11 be e0 4a 52 bf 31 93 28 bf
       -0.20114785 -0.14181648 -0.821455 -0.65849596
0001d0 6d 9d ed 3c 07 4c 28 3d 50 d6 44 3c 8b db c6 3d
       0.02900573 0.04108813 0.012013987 0.09709843
0001e0 e9 6e 25 bd fe b4 c1 3e f9 53 02 3e 68 c6 e4 3c
       -0.040388975 0.378334 0.12727346 0.027926639
0001f0 5c a8 b1 3d 64 3e ab bc 91 9e 22 bf 90 65 55 3e
       0.0867469 -0.020903774 -0.63523203 0.20839524
000200 e2 e3 4a bd 27 f4 4e bd 51 6c 01 bf dc 5e 73 3e
       -0.049533732 -0.05052581 -0.505559 0.23766655
000210 50 97 34 bd 45 40 70 be 33 7d 18 3b 28 c9 35 3e
       -0.044089615 -0.23462017 0.0023267984 0.17752516
000220 f0 e1 95 3b 70 70 cd bc b8 3f 40 bc c4 51 93 bb
       0.004574053 -0.025078028 -0.011733942 -0.004495831
000230 6c f5 e2 3c 63 a3 39 bc 0f 14 df be 53 41 56 3d
       0.027704917 -0.011330458 -0.4356999 0.05230839
000240 9b 54 53 bf 50 20 15 bc 7c 5d 39 3e ea f8 61 3d
       -0.8255097 -0.009101942 0.18102068 0.055169024
000250 5a cf 48 bd c1 59 16 3c 6f d1 11 3d 3b 66 2a 3d
       -0.04902587 0.009176672 0.035600122 0.0416014
000260 b9 6f 84 be e1 62 31 bc ae eb 37 3d b0 d4 55 3d
       -0.25866488 -0.010826797 0.044902496 0.052204788
000270 21 bd 52 be eb 7e 85 bd d8 c4 6c bf 0a 5c 48 3d
       -0.2057996 -0.06518348 -0.9248786 0.0489159
000280 cb 0a 48 bd 36 de 4d ba 57 b5 71 be bb e4 ab be
       -0.048838418 -0.00078532414 -0.23604332 -0.33572945
000290 b7 96 93 3d 98 f4 98 bd ae 67 3b 3d 8b 7c 30 bd
       0.07206481 -0.074685276 0.045753174 -0.043087523
0002a0 c5 b3 35 bc 42 07 ea 3c a7 38 de bc 20 8c aa 3c
       -0.011090224 0.028567914 -0.027126623 0.02081877
0002b0 8d 80 05 3d 2a c9 0b bf 4e 80 91 bd 36 df 2a bd
       0.0325933 -0.54603827 -0.0710455 -0.041716777
0002c0 56 44 ef 3c 09 1f 5c bc dc 13 9f bd 32 5e 7e 3c
       0.02920739 -0.013435134 -0.0776746 0.015525388
0002d0 ea 1a f6 be b8 54 47 3c 67 a7 04 bf 26 fd 21 be
       -0.4806741 0.012166195 -0.51817936 -0.15819225
0002e0 41 0a 35 bc c8 13 2d bd d6 bf 8f 3d 82 0a 08 be
       -0.011049808 -0.042255193 0.07019012 -0.13285258
0002f0 3c e9 ee bc 72 10 e9 be ae ec 75 bd 7f 24 4f be
       -0.02916395 -0.4552036 -0.06004017 -0.20228766
000300 7a de 04 be 7a c8 13 3d c6 27 02 bf 17 fd 4f 3d
       -0.12975493 0.03607986 -0.5084194 0.050778475
000310 dd dc 74 3d ae bd 10 bd 32 fc f7 ba 7a 1f 55 3d
       0.059780944 -0.035337143 -0.0018919765 0.05203197
000320 9c 50 1b 3d 73 bf 9f be c7 0d 91 3b fd c1 39 be
       0.037918672 -0.31200752 0.004426691 -0.18140407
000330 30 9f 1c 3c 84 a1 46 bf 33 13 5d be 29 cc 9e bd
       0.009559438 -0.77590203 -0.21589355 -0.07753784
000340 b9 0d 26 bf eb b5 f0 3c 98 fa bd be 32 34 9f be
       -0.6486469 0.02938362 -0.3710525 -0.3109451
000350 9a bc 15 be 79 2b cc bf e3 86 d6 be a6 d7 5c 3d
       -0.14622727 -1.5950767 -0.41899785 0.053916596
000360 fb 86 a7 3d 94 8c 87 be a2 11 fc be 85 6d 47 bd
       0.08180042 -0.2647444 -0.49232203 -0.04868843
000370 8c b4 c2 3b ab 46 85 bd be d6 72 be 7e a2 67 be
       0.005941933 -0.065076195 -0.2371473 -0.2262058
000380 1a b2 a6 bc e4 88 ae be 42 c8 7f bd de 36 9b be
       -0.020348597 -0.34088814 -0.06244684 -0.30315298
000390 39 29 86 bc 38 be 86 3c 1e 6e e7 bc fd 19 ef bc
       -0.016377078 0.016448125 -0.02825075 -0.029187197
0003a0 c4 a9 1d 3d 72 3e 77 3d 41 67 db 3e 77 d6 b3 39
       0.03849198 0.060362287 0.42852214 0.0003430133
0003b0 08 70 47 be 35 44 0a 3d 2b 03 a4 3c f6 bd 5c bd
       -0.1947633 0.033756454 0.020021042 -0.0538921
0003c0 a9 10 6f be f9 27 9d be 66 ce 41 3d 4f 32 21 bd
       -0.23346199 -0.3069456 0.047315978 -0.03935462
0003d0 7f 65 ca bd a4 3f 9c b9 e4 51 7d bb 5a 78 21 3d
       -0.0988264 -0.00029802055 -0.0038653547 0.039421417
0003e0 b7 c4 86 be 31 16 85 bf da fc f3 be e7 cb 8d 3e
       -0.26321957 -1.0397397 -0.47653848 0.27694628
0003f0 e1 be 16 3c 22 b9 f6 3c 42 10 88 3c 96 d3 24 bd
       0.0092007825 0.030117575 0.016609315 -0.040240847

fc1.bias f4 [256]
000000 a6 5c f1 bd 50 8d 11 3d ab f5 8a bd f7 54 23 bd
       -0.117852494 0.035535157 -0.06785139 -0.03987595
000010 d5 6d df 3e 7c a7 1a 3d 7f 85 41 bd de 05 9a be
       0.43638483 0.03775738 -0.047246452 -0.300826
000020 eb c6 67 3c 37 b6 31 3d c3 45 ac 3d d7 30 bf 3b
       0.014146547 0.043386664 0.084117435 0.0058346796
000030 86 32 a2 3c 22 8f 76 be bf 0a 87 be 25 b2 96 bd
       0.019799482 -0.24078038 -0.26375386 -0.07358197
000040 d9 4c 66 3d 4d 95 78 3e 26 9c 17 3e 50 83 f0 be
       0.05622563 0.24275704 0.1480566 -0.46975183
000050 6f 51 68 3c 3c 53 db bc 0a cd 87 bd 58 e9 1d bf
       0.0141795715 -0.026773088 -0.06630905 -0.6168418
000060 7f 60 e9 3e c3 e1 85 3c 04 bd 2d be 3f 15 37 3e
       0.45581433 0.016343003 -0.16966635 0.17879198
000070 91 0a 17 be 51 bb 90 3c 37 be 4e 3f c6 a9 7c be
       -0.14750125 0.017667444 0.80758995 -0.24674138
000080 03 a8 1b 3d 5f 28 27 3d 5a 01 ee be 2c 3b c4 bd
       0.038002025 0.040809985 -0.46485406 -0.09581599
000090 66 d4 fe bd fe 02 13 3e 7d ac 4d 3d f8 98 ba be
       -0.124428555 0.1435661 0.050213326 -0.3644483
0000a0 be b3 06 be 5d 4b f3 bd 2d b3 7b 3e c6 8d f0 bd
       -0.13154504 -0.11879609 0.24580069 -0.11745791
0000b0 ef aa c3 3e a5 db 28 be 13 84 14 3f 77 a1 0d 3e
       0.3821635 -0.16490038 0.5801403 0.13831125
0000c0 0a c6 99 3c c1 87 2b 3d cd a2 6c bc a1 76 45 3d
       0.01877119 0.041877512 -0.014443112 0.048208836
0000d0 0f cb a8 3d 98 79 08 be 87 92 31 be 45 ef 85 3e
       0.08241855 -0.13327634 -0.17341052 0.2615911
0000e0 9d 66 ee bc 57 bd 8a 3d cb 2e 90 3c fb 4a 17 bf
       -0.029101664 0.06774395 0.017600438 -0.59098786
0000f0 a0 d3 f2 3c 81 4e 89 3e eb 31 ba 3c 5f b0 2d 3d
       0.029641926 0.26817706 0.02272888 0.04240453
000100 75 43 dc bc 45 cd 32 be 24 3b 25 3d 8b a6 ee 3d
       -0.026887635 -0.17461117 0.040339604 0.11652859
000110 6e 2e 49 3e 8c aa 97 3d a4 c1 19 be a6 e9 da bc
       0.19646618 0.07405576 -0.15015274 -0.02672274
000120 f1 3c 03 3e 68 7c e6 be e2 4d b4 bd 95 d4 4a be
       0.12816216 -0.4501679 -0.088039175 -0.19807656
000130 53 21 7b 3d 43 96 3e 3d 29 9a dc bd 9f af 58 3d
       0.061311077 0.04653002 -0.10771591 0.05290186
000140 69 0d 4c 3d 3a 65 1f be f5 52 41 3d 40 d0 9d 3c
       0.049817476 -0.15565959 0.047198255 0.01926434
000150 fe 5b cf bd 98 8e 08 3d 5f a2 74 3d ab 1b 9d be
       -0.10124968 0.033339113 0.05972516 -0.3068517
000160 1a 21 9a 3e 90 f9 87 3e 66 6b 8e bd 5d d5 e1 be
       0.3010338 0.2655759 -0.069540784 -0.44108096
000170 12 6d 10 be 97 31 91 bc 2d 21 59 3d 5f 6e 4f 3d
       -0.14104107 -0.017723842 0.053010155 0.050642367
000180 db 1d db bd cb 1b 9b bd 17 0e b1 be 99 c0 0c 3e
       -0.10699054 -0.075736605 -0.34581062 0.13745345
000190 9f 06 03 3c 02 23 d8 3e d3 31 71 be 69 9d 59 3e
       0.007997184 0.4221421 -0.23554163 0.21251453
0001a0 e3 bc 92 3e 70 65 d6 bd ef b2 5a 3e c8 9f 9b 3e
       0.28659734 -0.104685664 0.2135732 0.3039534
0001b0 02 01 69 bf 91 31 11 3f cf 05 04 3e 3e 55 76 3e
       -0.9101716 0.5671626 0.12892841 0.24055955
0001c0 23 26 11 3f 80 11 93 3e ec 0c 29 3d 29 2e b9 3f
       0.56698817 0.2872429 0.04127209 1.4467212
0001d0 c3 8f da 3c 52 42 0f be ca 0b b0 bd 52 17 93 be
       0.026679879 -0.13990143 -0.085959986 -0.2872873
0001e0 cd 59 bc be d9 f6 0f be b0 34 9b 3e e7 34 23 bd
       -0.36787263 -0.14059009 0.30313635 -0.039845373
0001f0 04 38 a6 bd 2f 70 22 3b 54 9f b8 3e dc 6c e5 bc
       -0.08116153 0.0024786105 0.36059058 -0.02800601
000200 2b c9 24 be a8 37 2a 3d 8d 12 81 3f 40 44 17 be
       -0.16092364 0.041556984 1.0083786 -0.14772129
000210 50 fc 76 be 5b ea 99 bc 88 f2 42 3e 77 09 76 bd
       -0.24119687 -0.018788507 0.19037831 -0.06006762
000220 38 57 18 3d 50 71 cf be 44 80 01 3d 62 e9 8e bd
       0.037192553 -0.40516138 0.031616464 -0.06978108
000230 ee ef 4e be 22 c5 40 3d bf 38 e9 3d 29 0d c9 3e
       -0.20208713 0.047063 0.113877766 0.39267853
000240 56 61 5d be 16 ba 0e bd df 96 07 be 1b e8 a8 be
       -0.21619162 -0.034845434 -0.13241147 -0.32989582
000250 9e a6 e1 bd ba 11 df 3d b1 ec 91 be 57 8f de 3c
       -0.11018108 0.10892053 -0.28500894 0.02716796
000260 fb 47 92 3c 00 47 cf bb 17 e6 00 3f ac 71 1f 3f
       0.017856589 -0.0063256025 0.5035109 0.62282825
000270 b6 bd c9 ba 78 72 78 be f5 5a 45 be d4 19 f0 bd
       -0.0015391621 -0.24262416 -0.19272979 -0.11723676
000280 df 51 5c 3d c3 75 4a 3e 1d f3 51 be 78 df a9 be
       0.053789016 0.19771485 -0.20502897 -0.33178306
000290 d7 75 08 be b8 0c d0 3e ea 1f 67 3d 43 9f f9 3d
       -0.13326202 0.40634704 0.05642692 0.1218858
0002a0 eb 06 2b be 7d 79 7e 3d 77 14 02 bf ef 82 8a bd
       -0.16701858 0.06212758 -0.50812477 -0.06763255
0002b0 2c a3 e2 bd b1 e7 a5 be 2f 1b 34 3d da 3d 9f 3e
       -0.11066279 -0.3240333 0.043971237 0.31101876
0002c0 7e 4c 55 be 68 a8 bc 3d 01 e2 29 be 0b 9b aa 3e
       -0.2082996 0.092118084 -0.1659012 0.33321413
0002d0 bf 41 a8 bd f7 68 41 3f 1c eb 65 be 7d 52 1f 3e
       -0.08215665 0.7555079 -0.22452968 0.1555881
0002e0 34 28 43 3d d7 b0 31 bc 53 7f 7e bc 73 b4 ef 3c
       0.047645763 -0.010845385 -0.015533286 0.02926085
0002f0 7e 94 95 bd ed 37 13 3f f2 1b b4 3c e4 61 25 be
       -0.07303713 0.5750721 0.021985982 -0.16150624
000300 8a 9d d4 bd 4f dd b4 3d 43 a8 02 3f 92 20 a2 be
       -0.10381611 0.08831274 0.51037997 -0.31665474
000310 d0 6c 8e be 87 e8 ab be 5d a4 0c 3e bc d1 12 3d
       -0.27817392 -0.33575842 0.13734575 0.03584455
000320 68 2e 24 3d 78 e8 04 3e da 28 17 be 5b a0 19 be
       0.04008332 0.12979305 -0.14761677 -0.15002577
000330 74 af 22 bd 51 96 6f 3d 40 57 5d 3d 00 96 bd bc
       -0.039718106 0.058492962 0.054038286 -0.023142815
000340 0c 4e 9d 3c b3 09 ac 3e 66 f4 5c be aa f1 66 3d
       0.019202255 0.3360115 -0.21577606 0.056382813
000350 dd ce 5f be 44 7a cd bd e4 98 de be f1 50 12 be
       -0.21856256 -0.10033086 -0.4347602 -0.14288689
000360 5c 1a 1b 3d ef 4c bc be 7b de 99 be 60 e6 96 be
       0.037866935 -0.36777446 -0.30052552 -0.29472637
000370 a0 88 04 be 19 a4 83 3c 80 0a 11 3e 54 5e 41 bc
       -0.12942743 0.016069459 0.14164162 -0.011802275
000380 6e 18 14 3d 4e d0 68 3d a5 b2 14 3d 09 48 90 be
       0.03615611 0.05683928 0.03630318 -0.28179958
000390 c7 3d 09 3e 13 a0 3f 3d 46 42 40 3e 39 b4 18 3d
       0.13402472 0.046783518 0.18775281 0.03728125
0003a0 e3 63 c3 bc 71 07 0d be 52 9c 39 3d 1a 58 b2 bd
       -0.02385134 -0.1377237 0.045315094 -0.0870821
0003b0 57 81 e0 3e c8 2f be be 01 d0 70 3e bc 4e 0a 3c
       0.43848678 -0.3714583 0.23516847 0.008441623
0003c0 05 e1 a3 be 46 34 62 3e 16 af 01 be 79 91 74 be
       -0.32007614 0.22090253 -0.12664446 -0.23883618
0003d0 fb 48 69 3d 21 39 35 3d dd e9 17 3e 5e ad c2 3e
       0.056954365 0.044243935 0.14835306 0.38022894
0003e0 f7 75 bd 3e 2f af fd 3e 37 df 4d 3d 5e 08 80 3d
       0.37004063 0.49547717 0.050261702 0.06251596
0003f0 18 94 bf 3c 4a d9 45 3e 11 09 fe 3c ed 4a 05 3d
       0.023386046 0.1932117 0.031010183 0.032542158

last_fc.weight f4 [3, 256]
000000 c0 dc 17 be 2a d1 13 bc c0 7a 5c bd e9 db d7 3e
       -0.14830303 -0.009022037 -0.053828 0.42159966
000010 28 08 d7 bc 60 1b 24 3b 06 29 60 3d 2d 31 e7 3d
       -0.026249006 0.002504073 0.054726623 0.112886764
000020 e0 b1 46 3d e4 be 28 bb 75 8f 80 bc a1 9f 25 3f
       0.04850948 -0.0025748545 -0.015693406 0.646967
000030 5f c0 58 3c 75 9b 16 3e 24 69 cc 3c b5 7b 30 3e
       0.013229459 0.1470774 0.024952479 0.1723469
000040 6b dd 5a 3c 5f ff 29 3e ee 8a a5 3e 03 b0 28 3e
       0.013358454 0.16601323 0.32332557 0.16473393
000050 4e c7 18 3e 83 ed 56 be 4a b4 91 bd 08 41 81 bd
       0.14919779 -0.20989041 -0.071144655 -0.06311232
000060 ea 01 5a 3e 2d 12 c7 3a cd d3 5e 3d 11 a1 f8 3d
       0.21289793 0.0015187912 0.054401208 0.12140096
000070 24 7f d2 bc 5b d8 91 3e 86 bc 36 bd d4 c5 83 be
       -0.025695391 0.2848538 -0.044613384 -0.25736868
000080 30 3c b4 3d de b0 06 bd 71 d3 0b 3c f6 3d 52 bd
       0.08800542 -0.032883517 0.008534298 -0.05132862
000090 8d 56 bc 3d c4 25 ce bd f2 cc a9 3f a9 96 34 be
       0.09196196 -0.10065797 1.3265669 -0.17635597
0000a0 45 33 76 3e 56 6b 02 3f 35 cb fb 3d 43 f5 96 3e
       0.24042995 0.5094503 0.12294618 0.29483995
0000b0 18 73 e0 bd 1f 8c 23 be 94 1c 3c 3e af 18 df 3e
       -0.109594524 -0.1597142 0.18370277 0.4357352
0000c0 c5 5a 47 bf 24 a5 2e bf ff 38 10 3e 24 d5 67 be
       -0.7787288 -0.68220735 0.14084242 -0.226399
0000d0 ca ae bc be 9d 72 d4 bd ca a6 2d bc 41 76 59 3c
       -0.36852103 -0.10373423 -0.010598848 0.013272823
0000e0 d4 f9 ac bf 89 8c 28 bc cb a3 8c 3f 54 3c 94 3d
       -1.3513741 -0.010287412 1.0987486 0.07238069
0000f0 76 45 a9 3b 0d 06 1d bd ed 57 89 3c a1 9f 97 3c
       0.005165751 -0.03833585 0.01676556 0.018508734
000100 e0 47 7f be d7 97 d0 be 26 a4 0d bf de f8 8c be
       -0.24929762 -0.40740845 -0.55328596 -0.2753362
000110 3b 36 a0 3e 51 65 c4 ba 46 85 6e 3d 56 a1 f5 3d
       0.31291375 -0.0014983808 0.05823257 0.11993663
000120 7b 7f c4 3e 86 b4 4d bf 2d dc 79 bd f9 ee 50 bd
       0.3837851 -0.8035358 -0.06100099 -0.051009152
000130 fa 24 14 bf 48 2f c4 3e 75 71 b1 3b 96 96 26 bc
       -0.5786892 0.38317323 0.0054151365 -0.010167738
000140 01 27 7b bc 6f 19 7a 3f 4a ed 17 3f b9 df 6b bd
       -0.0153291235 0.9769506 0.5934645 -0.057586405
000150 3c bc 40 bc 03 d4 1e bc 30 8a ca bc 46 6b 82 bc
       -0.011763629 -0.009694102 -0.024724096 -0.015920293
000160 f3 ec 8b 3d 9f 3a 4a 3e e4 9e 8e bc 0d b9 ca 3d
       0.06832304 0.19748925 -0.01740975 0.09898577
000170 33 da 61 3d 2c 87 c4 bd c3 58 85 bc 3b 63 67 b9
       0.05513973 -0.095960945 -0.016277676 -0.00022066843
000180 1b 0b 28 3f 8f 45 02 3d ca 3a 95 bd 8b 91 87 3e
       0.65641946 0.031804617 -0.07286604 0.26478228
000190 c6 a0 18 3d d8 fc 0a be 67 dc 7a bd 9d 05 00 3e
       0.0372627 -0.13573015 -0.06124535 0.12502141
0001a0 e7 50 56 3d 16 48 36 bd cc b9 c4 3d 13 49 a0 bd
       0.05232325 -0.04450234 0.096057504 -0.07826438
0001b0 b1 c4 c3 3d be f1 d4 bc 63 4e 89 3d 4e 0c be 3e
       0.09559 -0.025994178 0.06704404 0.37118763
0001c0 ea a7 da 3d 58 79 22 3e e6 67 8d bb 58 da 18 bd
       0.10676558 0.15866601 -0.004315364 -0.037317604
0001d0 9b 1a 96 3b 78 8e 1a 3d be d4 46 be 16 90 75 bf
       0.0045808083 0.037733525 -0.19417092 -0.9592298
0001e0 f0 12 3d bf 0f 1a 44 3d 6d 39 fb 3e c1 25 1d 3f
       -0.7385702 0.047876414 0.4906725 0.6138573
0001f0 83 87 c6 3d 6a 45 e3 be d7 3c 68 bd 97 9b f0 bd
       0.096938156 -0.44388896 -0.056698646 -0.117484264
000200 f3 50 26 bf b5 95 e3 bb cf 90 c3 3d d3 bf 01 bf
       -0.6496727 -0.0069453367 0.095491044 -0.50683326
000210 b6 92 0e bd 20 35 29 3e 2b 89 f6 bd 95 2e 1f 3f
       -0.034807883 0.16524172 -0.120378815 0.62180454
000220 3f 1b 2e bc 70 f1 23 be cb bf e5 3e 3e 8b af 3e
       -0.010626613 -0.1601007 0.4487289 0.3428592
000230 fa 48 37 3d 16 b3 8b 3c 60 50 65 3e 82 7c 5d 3f
       0.04474733 0.017053168 0.22393942 0.8651811
000240 af 72 e6 bd cc c5 af be 23 bd 1d 3d 26 06 bd be
       -0.11252343 -0.34330595 0.038510453 -0.36918753
000250 ee 9d 3e 3c d4 4f 37 be 29 48 04 be ef 6d 5d bd
       0.011634333 -0.17901546 -0.12918152 -0.05405992
000260 d1 44 d7 bf bc 5c 70 3d 7e 88 2f 3e 74 a4 fc 3b
       -1.6817876 0.05868219 0.17141911 0.007710034
000270 6c 9f 05 3e d2 d6 a7 3e 64 2d 05 3e 72 dd 96 bd
       0.13049096 0.32781082 0.13005596 -0.07366456
000280 98 a5 3c 3c 0d d8 74 3e bb 91 0f 3f cd 0a fe be
       0.01151409 0.23910542 0.5608174 -0.49617615
000290 1e d9 9e bd 01 e4 53 bf 3b c0 03 be e2 3c f7 bd
       -0.077562556 -0.8276978 -0.12866299 -0.12072159
0002a0 71 17 ec 3e 86 e9 61 3d b3 54 cf bf 94 7b af bd
       0.46111634 0.055154346 -1.6197723 -0.085684925
0002b0 ac 48 4d be 5b 17 fe bd 49 c3 4a 3b 50 c2 c5 3d
       -0.20047253 -0.124067985 0.0030939153 0.09656203
0002c0 7d 98 13 be f2 90 2b 3f 11 96 f3 3d 97 c5 b0 be
       -0.14413638 0.67018044 0.11893857 -0.3452575
0002d0 8b 25 96 bd b2 cd 56 3e 23 22 fd bd ec 7b 76 be
       -0.073313795 0.20976904 -0.12360027 -0.2407071
0002e0 d8 00 0a 3d 4d ce 71 3d 5d e5 ab be 3d c3 7e 3c
       0.03369221 0.059034634 -0.33573428 0.015549478
0002f0 fa 4b 15 bf f5 b6 31 3e 9e 6c a9 3f 8c 85 a5 3d
       -0.58319056 0.17354949 1.3236272 0.08082113
000300 db 64 18 3f b5 8b c3 bd 61 31 ae 3e ef 10 27 3f
       0.59528893 -0.095481314 0.34022048 0.65260214
000310 f7 3c a2 bf 62 9a 0f 3d 42 cb 74 3d ab 1a 54 bc
       -1.2674855 0.03505934 0.059764154 -0.012945811
000320 dd db fb b9 18 2b b4 bc 07 cf 00 bd 27 dc af be
       -0.00048038262 -0.021993205 -0.031447437 -0.3434765
000330 ad a4 20 bf 64 a3 78 bc a5 92 35 bb 01 6a d3 3d
       -0.62751275 -0.015175674 -0.0027705815 0.10322953
000340 1e a2 ee 3f 65 3f ed 3c 9d 28 bb 3c e9 b4 09 bc
       1.8643224 0.028960893 0.022846514 -0.008404949
000350 19 5c 1a be f4 56 44 bd b6 3f 92 bf e2 e4 48 3f
       -0.15074195 -0.047934487 -1.1425693 0.7847425
000360 33 e7 1e bc 86 8d 56 be 2f 33 20 bf 24 e9 0b 3c
       -0.009698677 -0.20952424 -0.625781 0.008539472
000370 b6 33 64 3e f4 f1 55 be d3 3b d4 bd 66 2e f4 3d
       0.22285351 -0.20893079 -0.10362973 0.11922912
000380 cc 5c bf bb d7 91 56 3c 1e 6f 8d bc 3e ab a1 3c
       -0.0058399197 0.013096294 -0.017264899 0.019734975
000390 2c 5b 72 3e 43 a2 b6 3a f1 35 e1 3b f3 4c 71 3c
       0.23667592 0.0013933856 0.0068728854 0.014727819
0003a0 96 fd f1 3d 4e c8 98 bd c4 65 09 3a 45 85 86 3d
       0.11815946 -0.0746008 0.00052412995 0.06568388
0003b0 56 43 36 ba cf 9e 37 bf 93 d6 df bd a0 1e 03 3e
       -0.0006952783 -0.717267 -0.10929599 0.12804651
0003c0 93 aa 90 be 22 8e 39 3f 19 59 3e bf 30 3f a6 bd
       -0.28255138 0.724825 -0.743547 -0.08117521
0003d0 ab 2d 3e 3f e2 9e 0f 3c 33 1a 84 3f ae 60 0d 3e
       0.74288434 0.008765908 1.0320495 0.13806412
0003e0 a7 ea 15 3c 9d 02 f0 3d 7e 23 ab bb c8 03 6b bd
       0.009150184 0.117192484 -0.005222737 -0.057376653
0003f0 45 92 08 3c 6e bb b8 bd 2b 55 96 ba c7 5a d5 bc
       0.008335655 -0.090201244 -0.0011469474 -0.026044263

last_fc.bias f4 [3]
000000 f4 c7 b6 3c fd ee 77 bd 25 cd 6c 3c
       0.022312142 -0.06053065 0.014453207

last_fc_log_std.weight f4 [3, 256]
000000 e9 bc df 3b 0b f9 51 bc ca fe c1 3c 2b 00 d5 3d
       0.00682794 -0.012815724 0.023681063 0.10400423
000010 19 ca 8d bb 5a a3 90 3c 7d 85 09 bc 0c 82 0f bd
       -0.0043270704 0.017656017 -0.0083936425 -0.03503613
000020 5d 5a 35 3d f9 a2 32 bc 28 35 f9 3c 49 21 b4 3e
       0.04427563 -0.0109031135 0.030420855 0.35181645
000030 c5 1b 00 3d 84 8f 02 3d 97 bc 8f 3e 17 e0 59 3e
       0.031276483 0.03187515 0.2807357 0.2127689
000040 a5 33 41 bd 2a 4b 07 3e 81 6a 19 3e 63 9b 80 3d
       -0.047168393 0.13212267 0.14982034 0.06279638
000050 59 06 10 3e 85 2e 1f bd 3a 5b b5 3e f7 6a 6d bd
       0.14064921 -0.038862724 0.35421163 -0.057963338
000060 ba 52 fe 3d d8 3d 15 3d 06 ca e4 bd 35 37 27 3d
       0.124181226 0.036435932 -0.111713454 0.040824134
000070 af cd 37 bd 43 59 47 3e a7 34 3c bd 4a 8d 2a bd
       -0.04487389 0.19467644 -0.04594865 -0.04163865
000080 50 4a 6e 3d 70 83 83 3b d2 0f 9d 3c 1f f4 ea 3c
       0.05817634 0.0040134713 0.019172583 0.02868086
000090 97 f6 76 bd 81 60 7c bd 7b f1 69 3f ce 97 32 3d
       -0.06029376 -0.06161547 0.91384095 0.043601803
0000a0 66 35 bd 3e fd 3d 58 3e 7b e1 46 bd 7b 5f 6b 3e
       0.36954802 0.21117397 -0.04855488 0.22985642
0000b0 7f e4 d6 bc 3c a7 50 3d 4e cf ac 3d bd a5 c3 3d
       -0.026232002 0.050940737 0.08437978 0.095530964
0000c0 0e 73 d8 3c cb 5d 22 3d 17 22 d6 3d ee 0c 3b bd
       0.02642205 0.03964023 0.10455721 -0.045666628
0000d0 00 de 68 3e 8e 0d 7c 3b c4 26 aa 3b a1 f6 6d 3c
       0.22740936 0.0038460228 0.0051926095 0.014524133
0000e0 31 4a 83 3f ed df 98 3b 96 db fe 3e ed 84 77 3d
       1.0257016 0.004665366 0.49776906 0.060429502
0000f0 01 40 1a 3b 8f 20 c8 bc 4d c9 78 bb 29 71 9c 3b
       0.0023536684 -0.024429588 -0.0037961781 0.004774232
000100 2e 7e 24 3e 0f 3f bf 3d 18 e6 ea 3e c3 5f 8c bd
       0.16063759 0.09338199 0.45878673 -0.068542026
000110 8f c6 6b 3e 70 09 1d 3d f4 bf 30 3d 90 66 6b 3d
       0.23024963 0.03833908 0.04315181 0.057470858
000120 44 a3 af 3e 10 49 c4 3e 16 74 82 3d e2 07 40 bd
       0.3430425 0.38336992 0.06369798 -0.046882518
000130 db e3 0b 3e 35 c5 d5 3e 22 7c 46 bd a3 cf 0b 3c
       0.13661139 0.4175202 -0.048458226 0.008533391
000140 94 d3 05 3c a3 d6 05 3e 7b 92 a5 3e 08 3d 1b 3c
       0.00816812 0.13070159 0.32338318 0.009475
000150 12 da 97 bc 04 5b 17 3d c4 f0 bb 3c 2e b0 a5 bd
       -0.018536601 0.036952034 0.022941954 -0.08090244
000160 c1 f0 14 3d db 71 32 3e 67 e0 bf bc 83 9f 83 3c
       0.036362413 0.17426245 -0.023422433 0.016067272
000170 fd 11 17 3d 4d 38 2e bd c9 9f 74 3b c6 bf 81 3c
       0.03688239 -0.04253416 0.0037326685 0.015838515
000180 cc 59 35 3e 20 64 42 bc 70 00 0b 3d d3 39 94 3e
       0.17710036 -0.011864692 0.033935964 0.28950366
000190 62 37 93 3c 10 4c 7c 3d f4 65 98 bd e6 5e 73 3d
       0.017970745 0.061595976 -0.07441321 0.059416674
0001a0 e4 c7 9b 3c 5a 62 10 bd 70 51 34 3d 7e ad 26 bd
       0.019016214 -0.035250045 0.044022977 -0.0406928
0001b0 3d 47 92 3b 93 50 f1 bc 21 72 fb 3a 2a 88 2c 3e
       0.0044640587 -0.029457366 0.0019183793 0.16848817
0001c0 f2 21 ab 3d 8f e7 0b 3e ac a8 c8 bc b7 71 16 be
       0.08356084 0.13662551 -0.024494492 -0.14691816
0001d0 16 53 e1 3c 57 62 e5 3c 58 cd 35 3c 0d 08 8b 3e
       0.027505439 0.028000994 0.011096321 0.2715458
0001e0 38 06 e6 3d c9 69 2c bd 85 53 a6 3e 20 37 22 3e
       0.11231655 -0.042093072 0.32485595 0.15841341
0001f0 44 3b 18 3d 9b ed ec 3e 79 06 68 bd 61 af 22 3e
       0.037165895 0.4627503 -0.056646798 0.15887214
000200 9c 50 27 bb f3 c4 0b 3d e9 9e 25 3c 0a 1c 82 3e
       -0.0025530225 0.034123372 0.010108688 0.25412017
000210 b5 38 0d 3d 0a 10 c3 3d 7e f5 10 bd cc 47 7b 3e
       0.03447791 0.095245436 -0.03539037 0.24539107
000220 1b d3 cf 3c b2 90 e6 bc 82 3b 86 3e 02 7c 49 3e
       0.025369218 -0.028145168 0.26217276 0.19676211
000230 ff 71 4e 3d 32 fb ec 3a 22 15 32 3e b6 af 17 3f
       0.050401684 0.0018080233 0.17390874 0.5925249
000240 41 f2 91 3c 48 ad d5 bd 6c 31 bd bd de fc b4 3e
       0.017815711 -0.104334414 -0.09237942 0.35349172
000250 72 42 13 3e b4 b6 22 3e 1b c3 d5 37 ea e3 33 bc
       0.14380816 0.15890008 2.5482432e-05 -0.010979632
000260 c4 5a 09 3f 7b 5d ab 3c 79 86 d4 3d 73 5b b6 3b
       0.5365412 0.020918598 0.10377211 0.005565101
000270 df d1 13 3c 8d 26 43 3e f2 e5 a5 3d f7 39 eb 3d
       0.009022205 0.19057675 0.08100499 0.11485665
000280 9f 3f 0b 3d 11 dd 69 3e dd 93 6a 3e 36 fe f1 3d
       0.03399622 0.22838236 0.22907968 0.11816065
000290 b1 46 d2 3d 13 28 77 be 5e 0b f4 bd 43 88 3d bd
       0.102673896 -0.24136381 -0.119162306 -0.046272527
0002a0 f1 56 08 3e 12 0b ec bb 23 44 2e 3f a7 77 8e 3b
       0.13314416 -0.007203468 0.6807272 0.0043477598
0002b0 80 16 55 3d 89 a0 84 bd 82 d3 a5 3b 75 e7 9b 3c
       0.05202341 -0.06475932 0.005060614 0.019031266
0002c0 72 f9 76 3d 68 ae 48 3d 38 b3 ca 3d 50 54 e3 3d
       0.060296483 0.04899445 0.098974645 0.11100066
0002d0 c5 4c 70 be 05 68 7e 3e 5a 6c 4e bd 0a 90 56 bd
       -0.23466785 0.24844368 -0.0503963 -0.05238346
0002e0 01 bd 48 bc d9 3f 8d 3d 88 42 86 bd a1 5f 8f bc
       -0.012252093 0.068969436 -0.065556586 -0.017501654
0002f0 40 cf 50 3d 18 1b 61 3d 21 5c 83 3f 20 b2 62 3d
       0.0509789 0.05495748 1.026249 0.055345654
000300 f7 03 b9 3f 07 71 db bc 8b 58 1f 3e ba f0 30 3e
       1.4454335 -0.026787294 0.1556112 0.1727933
000310 75 bb e7 3e 2d 3e c1 bc 29 ca e1 3c f6 2f 9d bc
       0.45260206 -0.023589218 0.027562218 -0.019187909
000320 d1 53 c0 3b 16 11 a2 bc 1b 2e b7 3c 3a 93 bd 3c
       0.0058693667 -0.019783538 0.022360852 0.023141492
000330 72 a6 c8 3e d0 41 86 bc a5 aa e3 3c 7e 6e 18 bd
       0.39189488 -0.016388804 0.02779133 -0.03721475
000340 4c 5b b3 3f 0d 0c be 3d fd 1f 3a 3c 2d af 88 3b
       1.4012237 0.09279642 0.011360166 0.004171273
000350 94 ab 86 bd f2 4d f7 bd ea 10 4f 3f 1b 1d 46 3f
       -0.06575695 -0.12075414 0.80885184 0.7738816
000360 48 bd 1f 3d 97 f0 08 bc 7d 5c 49 3e 88 3c 8a bd
       0.038998872 -0.008358142 0.19664188 -0.06749827
000370 37 e6 e8 3d 06 c2 17 bd 02 72 74 3c 8f a5 54 be
       0.11372035 -0.03705027 0.01491976 -0.2076628
000380 9d ff b1 3c ae cd 83 bb c3 c4 39 3d 9f 60 b0 bd
       0.021728331 -0.0040223217 0.045353662 -0.08612179
000390 79 e4 e0 bb 28 96 47 bb 71 bb 26 bd 8c 61 67 3d
       -0.0068631736 -0.003045449 -0.0407061 0.056489512
0003a0 94 41 ec 3c 14 d5 3a 3d 33 38 8f bb 0b 44 f4 3a
       0.028839864 0.045613363 -0.004370713 0.0018636001
0003b0 89 87 55 3a 19 28 39 be 7a 3b 27 3d 72 52 85 bc
       0.00081455015 -0.18081702 0.040828206 -0.016274665
0003c0 93 69 32 3e d9 2a cf 3e 92 24 50 3d e1 e8 f1 bc
       0.17423086 0.40462378 0.050816126 -0.02952999
0003d0 49 b5 ed 3e 6a fe 11 3d 73 97 14 3f 43 8e 98 3d
       0.46427372 0.03564302 0.58043593 0.07449009
0003e0 ac 7d 4b 3c 09 43 cf 3c 8e 85 c0 3c 8f 4b 66 3c
       0.012420099 0.02530052 0.023501184 0.0140561005
0003f0 fa c6 8b bb 0a 17 21 bc 3e 46 b0 bc ab fa 9c 3c
       -0.004265663 -0.009832153 -0.02151787 0.019162497

last_fc_log_std.bias f4 [3]
000000 7c 8d 18 c0 21 b5 b5 bf ea c4 04 c0
       -2.3836355 -1.4195901 -2.0745187
