models/Env2/PDSRL_256_A5_S2_P/local_episode_1750_reward_400.000000.pt (torch, 297564 bytes, 8 tensors)

fc0.weight f4 [256, 23]
0.0245463 -0.069837116 0.027863843 -0.02740937 0.034773048 -0.060473304 -0.051329654 0.016564963
-0.064889304 -0.06749808 0.009603336 -0.045452897 -0.049213752 -0.03755524 -0.03701106 0.021539688
-0.075789765 -0.020234382 0.04101494 -0.057567365 0.0526021 -0.02170572 -0.0007156391 -0.1714966
0.117726386 0.06173182 0.09757379 -0.07037122 -0.077089906 -0.2164583 0.06923209 -0.046431266
-0.08774929 0.012257494 0.016723318 0.040263914 -0.061143965 -0.110111155 -0.013340114 0.051816717
-0.040408406 -0.10033857 -0.072566025 -1.855438 0.02467541 -0.06554748 0.038508907 0.018840687
0.019323587 -0.05594822 -0.02342402 -0.05853764 -0.017008545 -0.07979175 -0.04515888 -0.026090743
-0.058163997 -0.0010859275 -0.041427054 0.00024829368 0.035321645 0.0013458974 -0.010868327 -0.056104247
-0.043521233 -0.0681571 -0.050885785 0.015332145 0.0052470607 0.0077337204 -0.10670815 -0.16634658
-0.1814762 0.12788984 0.14204668 0.036120743 -0.07182808 0.038114958 0.22744116 -0.16832702
-0.07858682 0.07803553 0.016121516 -0.22015963 0.06572761 0.017177999 0.12943023 -0.013201262
0.0058799433 -1.0918528 0.7804571 -0.040752787 0.020849416 -0.01091169 -0.07675206 -0.027549814
0.032160815 0.035233308 -0.043347593 -0.062202517 -0.009949862 0.031959284 0.024265436 -0.049493056
-0.026335051 0.015306245 -0.06471528 0.00371862 -0.05518749 -0.067415155 -0.07248085 0.03932774
-0.01699412 -0.034739755 0.027910082 0.0031224887 0.0010780685 0.009574441 -0.05871861 0.04708427
-0.04717296 -0.05071729 0.04924371 -0.05878304 0.01747525 0.0031752812 0.031515803 -0.07203065
-0.03677505 0.046674635 -0.043225005 -0.064669184 -0.05018018 0.0059141633 -0.0070945835 -0.06929538
0.015274812 -0.05945609 -0.024901321 -0.02520069 -0.0048257033 0.014623708 -0.048385113 -0.07285289
-0.03396643 -0.0611574 0.03970189 -0.040848225 -0.01368912 -0.05627639 -0.03236382 -0.047812276
-0.008272573 0.03930433 0.017938314 -0.050553374 -0.056470703 -0.04294266 -0.029485958 0.028398938
-0.025862534 0.008969625 -0.014337059 -0.014529902 0.028066786 0.03123666 0.02778807 0.024993546
0.0002289312 -0.06890807 -0.06950093 -0.016511027 -0.054923568 -0.051563483 -0.047398612 -0.029038236
-0.018257195 -0.06613118 -0.052203413 -0.00865184 -0.032890745 0.061841175 0.03600632 0.035281595
0.009261624 -0.032589626 -0.01531952 0.016228516 -0.04502375 -0.039097134 -0.06973621 -0.052070674
-0.019057518 0.0015962641 -0.06982738 -0.029313074 -0.019686604 -4.697496e-06 0.012176165 -0.027385373
-0.043292597 0.027331512 0.04450951 -0.044139795 0.03613587 -0.010301048 -0.009183757 -0.0648064
-0.20119278 -0.017754784 0.16039641 -0.114753306 -0.06796119 -0.046462595 -0.027181067 -0.043146413
0.09091841 -0.0393124 -0.0553572 -0.08334598 -0.06418364 0.06560215 -0.20279174 -0.086227655
0.14572737 0.021473696 -0.30330768 1.5037413 1.1724118 -0.09602442 -0.056091923 -0.08180172
-0.29341772 -0.11975281 0.25426415 -0.037147757 0.22717103 -0.09943006 -0.28440234 -0.35961536
0.03141451 -0.015503482 0.17180884 0.23218739 -0.08374004 0.0024734763 0.031388562 0.004265766
-0.04070774 -0.005158197 0.333205 0.12752107 0.9037924 0.31576577 0.27385566 -0.085726604
00000000: 5215 c93c c306 8fbd b742 e43c 9d89 e0bc
00000010: 2f6e 0e3d dbb2 77bd 0b3f 52bd 3fb3 873c
00000020: afe4 84bd 6f3c 8abd 5057 1d3c d12c 3abd
00000030: 5c94 49bd 86d3 19bd e998 17bd 0074 b03c
00000040: aa37 9bbd 93c2 a5bc 48ff 273d c2cb 6bbd
00000050: 4d75 573d 32d0 b1bc ba99 3bba ce9c 2fbe
00000060: 881a f13d 81da 7c3d c4d4 c73d c91e 90bd
00000070: 50e1 9dbd 3fa7 5dbe 8ec9 8d3d b62e 3ebd
00000080: e6b5 b3bd a8d3 483c 57ff 883c c6eb 243d
00000090: 1872 7abd f581 e1bd 7e90 5abc c43d 543d
000000a0: 4983 25bd 4f7e cdbd 7f9d 94bd fe7e edbf
000000b0: 1624 ca3c c23d 86bd 84bb 1d3d c957 9a3c
000000c0: 804c 9e3c f629 65bd bbe3 bfbc 2ac5 6fbd
000000d0: 8155 8bbc db69 a3bd 85f8 38bd 41bc d5bc
000000e0: 5f3d 6ebd ae55 8eba 6aaf 29bd 6a2d 8239
000000f0: 6ead 103d d368 b03a 1111 32bc 91cd 65bd
00000100: 5243 32bd f395 8bbd 9d6d 50bd ad33 7b3c
00000110: 89ef ab3b 266b fd3b cd89 dabd c256 2abe
00000120: e6d4 39be 8ef5 023e af74 113e 58f3 133d
00000130: 9a1a 93bd 6e1e 1c3d 56e6 683e eb5d 2cbe
00000140: 20f2 a0bd 18d1 9f3d 4511 843c 8771 61be
00000150: 329c 863d e0b8 8c3c 5c89 043e 1b4a 58bc
00000160: 8aac c03b d5c1 8bbf 09cc 473f 65ec 26bd
00000170: 65cc aa3c f2c6 32bc 2f30 9dbd 26b0 e1bc
00000180: 0fbb 033d cd50 103d 3f8d 31bd 11c8 7ebd
00000190: bf04 23bc bde7 023d 4fc8 c63c 3bb9 4abd
000001a0: 9bbc d7bc 0bc7 7a3c 7289 84bd 17b4 733b
000001b0: 470c 62bd f510 8abd d770 94bd 2016 213d
000001c0: 4137 8bbc 464b 0ebd afa3 e43c aba2 4c3b
000001d0: fa4d 8d3a 1ede 1c3c ed82 70bd 6fdb 403d
000001e0: 6f38 41bd efbc 4fbd c6b3 493d 7cc6 70bd
000001f0: 4128 8f3c 6118 503b b716 013d ce84 93bd
00000200: 6fa1 16bd e72d 3f3d b40c 31bd 4771 84bd
00000210: bc89 4dbd 99cb c13b ae79 e8bb bcea 8dbd
00000220: 3443 7a3c 3b88 73bd dbfd cbbc ad71 cebc
00000230: ef20 9ebb 4798 6f3c 782f 46bd e533 95bd
00000240: 6220 0bbd 2f80 7abd 739e 223d 7850 27bd
00000250: 5548 60bc 1282 66bd ed8f 04bd ced6 43bd
00000260: b089 07bc 94fd 203d 5ff3 923c 0e11 4fbd
00000270: d34d 67bd a5e4 2fbd 898c f1bc e4a4 e83c
00000280: aadd d3bc 56f5 123c fce5 6abc d30e 6ebc
00000290: 51ec e53c 06e4 ff3c cea3 e33c 44bf cc3c
000002a0: 400d 7039 ad1f 8dbd 8156 8ebd 2242 87bc
000002b0: 89f7 60bd 3b34 53bd 0c25 42bd 98e1 edbc
000002c0: 1d90 95bc c96f 87bd 3fd3 55bd 72c0 0dbc
000002d0: 72b8 06bd 2c4d 7d3d 5d7b 133d 6f83 103d
000002e0: 11be 173c b37c 05bd b9fe 7abc aaf1 843c
000002f0: d36a 38bd 5124 20bd dcd1 8ebd 0f48 55bd
00000300: 831e 9cbc bc39 d13a a801 8fbd f921 f0bc
00000310: cd45 a1bc 2f9f 9db6 8a7e 473c 4a57 e0bc
00000320: 9453 31bd 56e6 df3c 9b4f 363d eecb 34bd
00000330: 3503 143d bac5 28bc 7877 16bc 38b9 84bd
00000340: 7b05 4ebe 7b72 91bc f53e 243e c803 ebbd
00000350: 3d2f 8bbd 904f 3ebd d4aa debc 4bba 30bd
00000360: 6e33 ba3d 0a06 21bd 3bbe 62bd 4cb1 aabd
00000370: b672 83bd 6c5a 863d a3a8 4fbe 2098 b0bd
00000380: 8e39 153e 9be9 af3c 254b 9bbe 987a c03f
00000390: 9711 963f 73a8 c4bd a5c0 65bd a987 a7bd
000003a0: d93a 96be f640 f5bd e92e 823e 3f28 18bd
000003b0: 869f 683e fda1 cbbd 2f9d 91be 811f b8be
000003c0: 80ac 003d 5102 7ebc a8ee 2f3e 88c2 6d3e
000003d0: e67f abbd 0c1a 223b 4b91 003d d7c7 8b3b
000003e0: 29bd 26bd 1806 a9bb d999 aa3e e294 023e
000003f0: f05e 673f 0dac a13e cf36 8c3e 6e91 afbd

fc0.bias f4 [256]
0.08552664 -0.04145569 0.07939598 0.25374812 0.08272288 0.08704197 0.0844769 0.0893061
0.08543675 0.20173688 0.0009694225 0.20463564 0.08485015 0.09232168 0.08460029 0.11229966
0.07222279 0.088484436 -0.10282149 0.08377838 0.08790058 0.21817625 0.31511313 0.13755395
0.067956395 0.087198325 0.17672332 -0.17578219 0.08074886 0.08251486 0.047916938 0.22234327
0.084158234 0.10841534 0.07325686 -0.36234424 0.08512405 0.0651099 0.09108726 0.07568506
0.0898144 0.1 0.061199415 -0.14887536 -0.32328498 0.067334056 0.072170176 0.13806091
0.07967667 -0.018046124 0.15453987 0.13881637 0.088930584 0.085738465 0.09584684 0.080290265
0.33629122 0.087889045 0.076826476 0.07532145 0.28510278 0.07239115 0.08505558 -0.11058686
-0.31701234 0.0817784 0.08552052 0.089212105 0.14617182 0.06616807 0.41455323 0.09440808
-0.20472722 0.07474675 0.0845002 0.2802453 0.06720365 0.08353421 0.07947936 0.08418408
0.17001817 -0.091140814 0.21519111 0.07917497 0.2122179 0.28742558 0.08576648 0.23543371
0.08835385 0.07572821 0.08133888 0.075626925 0.1 0.06009355 0.4421516 0.072163574
0.085972995 0.40938917 0.068855554 0.0788347 0.31957635 0.07434273 0.06606437 0.0028042085
0.0877355 0.1771221 0.07482099 0.08852058 0.07736463 0.07939861 0.15844333 0.0807828
0.13361923 -0.13385835 -0.045156714 0.27934667 0.17945224 0.08934272 0.09316655 0.34761217
0.08197676 0.1441585 0.17712405 0.084119484 0.2125084 0.07746333 0.26457784 0.12924658
0.06975699 0.07886095 0.35053328 0.1829184 0.08563565 0.09304543 0.08311017 0.1533578
0.1 0.08369027 0.08424925 0.077572465 0.08694494 0.08093036 0.14228523 0.088816136
0.09601907 0.09498492 0.13982093 0.08408739 -0.08290909 0.09788979 0.082192324 -0.11867485
0.12682626 0.068538 0.1 0.09436148 0.11123633 0.082791 0.47496104 0.081300125
0.08472865 0.072207294 -0.009974191 -0.09282539 0.07617998 -0.096825 0.1 0.081526816
0.07407905 0.07604836 0.071949586 0.1 0.45187765 -0.10259011 0.08631121 0.08770916
0.07015618 0.07058204 0.2435932 0.0786846 0.17029724 0.1 -0.15111022 0.25106874
0.07460857 0.08680154 -0.07105076 0.115674555 0.073166125 -0.0025141896 0.1 -0.01148904
0.35492182 0.19447792 0.41220242 0.08235298 0.07573584 0.075695924 0.071879126 0.085652575
0.22081248 -0.036391106 -0.14526683 0.3602604 0.08449212 -0.08561192 0.1461276 0.083951145
0.23361875 0.080349594 0.22294407 0.08885613 0.00048598056 -0.013134739 0.10489576 0.07767201
0.07861198 0.15056811 0.22073379 0.06928555 0.08345203 0.074027404 0.20003937 0.15985222
0.06758198 0.1202263 0.08730206 0.006057682 0.07607549 0.09248294 0.08174821 0.07451002
0.1 0.07047857 -0.25658202 0.06969567 0.50611657 0.0843648 0.09219272 0.1
0.09042667 0.37735432 0.08829051 0.084155224 0.104679406 0.07444707 0.073880985 0.082641065
0.08756838 0.21016115 0.30374935 0.26619178 0.07871011 0.075700395 0.08195494 0.0866894
00000000: 9728 af3d 71cd 29bd 5c9a a23d 46eb 813e
00000010: 9d6a a93d 0f43 b23d 3a02 ad3d 1ee6 b63d
00000020: 76f9 ae3d 1d94 4e3e d820 7e3a 018c 513e
00000030: eac5 ad3d 2613 bd3d eb42 ad3d 5dfd e53d
00000040: 8be9 933d 5437 b53d 1394 d2bd 0094 ab3d
00000050: 3805 b43d 9869 5f3e 8256 a13e f1da 0c3e
00000060: b92c 8b3d 0995 b23d f5f6 343e 3f00 34be
00000070: a95f a53d 8dfd a83d 8d44 443d f4ad 633e
00000080: 275b ac3d dd08 de3d b107 963d 2f85 b9be
00000090: 8555 ae3d 5758 853d f58b ba3d c500 9b3d
000000a0: 9df0 b73d cdcc cc3d 3dac 7a3d c872 18be
000000b0: 9c85 a5be 70e6 893d f5cd 933d d75f 0d3e
000000c0: 862d a33d 77d5 93bc b33f 1e3e e125 0e3e
000000d0: 3d21 b63d a697 af3d 594b c43d 396f a43d
000000e0: 5d2e ac3e 2cff b33d 3357 9d3d 2242 9a3d
000000f0: fef8 913e d041 943d 9f31 ae3d 5d7b e2bd
00000100: 714f a2be 6f7b a73d 6225 af3d d6b4 b63d
00000110: 11ae 153e 2083 873d 5240 d43e 0659 c13d
00000120: 03a4 51be d314 993d 710e ad3d 507c 8f3e
00000130: 11a2 893d fc13 ab3d 13c6 a23d b468 ac3d
00000140: 3e19 2e3e 09a8 babd 0f5b 5c3e 7d26 a23d
00000150: a64f 593e 7229 933e 56a6 af3d 8915 713e
00000160: ddf2 b43d 6417 9b3d 0095 a63d 4ae2 9a3d
00000170: cdcc cc3d a724 763d b261 e23e 7fca 933d
00000180: 9c12 b03d 759b d13e 2404 8d3d 1674 a13d
00000190: 839f a33e 0041 983d c24c 873d d0c6 373b
000001a0: abae b33d 7f5f 353e bf3b 993d 474a b53d
000001b0: 5971 9e3d bd9b a23d f83e 223e 7471 a53d
000001c0: 7bd3 083e 2a12 09be 3ff6 38bd 8706 8f3e
000001d0: 54c2 373e 51f9 b63d 1bce be3d 39fa b13e
000001e0: 6ee3 a73d 499e 133e 0260 353e d646 ac3d
000001f0: cd9b 593e 18a5 9e3d bf76 873e 3759 043e
00000200: c1dc 8e3d da81 a13d 1979 b33e f64e 3b3e
00000210: be61 af3d 9a8e be3d aa35 aa3d d409 1d3e
00000220: cdcc cc3d ce65 ab3d df8a ac3d 50de 9e3d
00000230: 3010 b23d d1be a53d 38b3 113e 3ce5 b53d
00000240: a5a5 c43d 7487 c23d 382d 0f3e 0236 ac3d
00000250: 3ecc a9bd 717a c83d 7354 a83d cd0b f3bd
00000260: bede 013e a75d 8c3d cdcc cc3d 9740 c13d
00000270: dfcf e33d 548e a93d 182e f33e ae80 a63d
00000280: 3786 ad3d 6be1 933d ca6a 23bc 3d1b bebd
00000290: 4004 9c3d 304c c6bd cdcc cc3d 88f7 a63d
000002a0: c2b6 973d 3ebf 9b3d 4e5a 933d cdcc cc3d
000002b0: 825c e73e c31a d2bd efc3 b03d dca0 b33d
000002c0: 0bae 8f3d 518d 903d 7f70 793e 6425 a13d
000002d0: 6662 2e3e cdcc cc3d a3bc 1abe 158c 803e
000002e0: 61cc 983d 01c5 b13d 1083 91bd c8e6 ec3d
000002f0: 1fd8 953d 1ac5 24bb cdcc cc3d 873c 3cbc
00000300: 50b8 b53e 3825 473e 320c d33e aea8 a83d
00000310: 641b 9b3d 7706 9b3d 5d35 933d 9e6a af3d
00000320: ab1c 623e d70e 15bd d4c0 14be 0d74 b83e
00000330: 340a ad3d 4d55 afbd 79a2 153e 94ee ab3d
00000340: c139 6f3e 548e a43d 734b 643e 34fa b53d
00000350: 35cb fe39 1733 57bc 97d3 d63d 8112 9f3d
00000360: 51ff a03d 872e 1a3e 0a08 623e 95e5 8d3d
00000370: e6e8 aa3d ae9b 973d 1fd7 4c3e 4db0 233e
00000380: 6c68 8a3d 3539 f63d 6ccb b23d 857f c63b
00000390: 77cd 9b3d b267 bd3d 9b6b a73d b698 983d
000003a0: cdcc cc3d 1257 903d b85e 83be 9abc 8e3d
000003b0: db90 013f 74c7 ac3d 89cf bc3d cdcc cc3d
000003c0: 9e31 b93d 9634 c13e a8d1 b43d 9359 ac3d
000003d0: 2862 d63d b577 983d ea4e 973d b83f a93d
000003e0: 0d57 b33d 7c34 573e 0985 9b3e 4a4a 883e
000003f0: c432 a13d cf08 9b3d fed7 a73d 368a b13d

fc1.weight f4 [256, 256]
0.018158473 0.28281817 -0.001231062 0.020546759 0.056682754 -0.08281402 -0.006784846 0.005486369
-0.0012953586 -0.058262277 -0.09055685 0.14540687 0.0012811571 -0.026677025 0.012044065 -0.11296193
0.07181592 0.064777195 0.003030751 0.011117336 0.048150606 0.12246013 0.14533289 0.22572546
0.03308834 0.044208493 0.19260934 0.24382609 -0.027245745 -0.046202164 -0.6495376 -0.27643156
0.020938829 0.16286787 -0.032214124 -0.42892542 0.026037602 0.02470383 0.029193014 0.025536168
0.0076644663 -0.05700855 -0.5446846 -1.3794185 0.091343015 0.019138906 -0.044573132 -0.07192067
-0.04250387 -0.066451944 0.38198298 0.13870056 0.06418792 0.033783812 -0.029520137 -0.014778321
-0.4802444 -0.054586533 0.04820475 0.020111332 0.13511875 0.0055279275 0.026353177 -0.36138463
-0.57430893 -0.043716975 0.048461523 -0.15993401 -0.09284471 0.06050144 -0.0050443388 0.0420294
-0.35712096 0.01838476 0.04608805 0.028630542 0.028794333 -0.030077647 -0.022956882 -0.025801815
-0.2513012 0.101656795 -0.3290599 0.05789277 0.063503385 -0.13902271 0.027567225 -0.48608625
-0.016773568 -0.051928487 0.03415286 -0.021280047 -0.017061874 0.008293706 -0.015311214 0.019372368
0.043005496 0.45176724 0.01336976 0.056182407 -1.0866553 0.04522059 -0.08450665 -0.33165002
-0.003624037 0.40671337 -0.04636677 0.02269611 0.047145143 -0.003679549 0.107293464 -0.018728685
0.030352382 0.067977086 -0.026377825 -0.84311527 -0.0055492735 0.04108813 0.012013987 0.06203086
-0.040388975 0.024706237 -0.17298035 0.027926639 0.39643103 -0.020903774 -0.1420993 0.062619746
-0.049533732 -0.05052581 -0.57935333 0.31303236 -0.044089615 -0.01039662 0.0023267984 0.10882778
0.004574053 -0.027815152 -0.011733942 -0.004495831 0.027704917 -0.011330458 -0.2125202 0.05230839
-0.9102374 -0.009101942 0.13966885 0.055169024 -0.46052885 0.009176672 0.035600122 -0.04262563
-0.104609475 -0.010826797 0.044902496 0.052204788 -0.40086508 -0.06518348 -0.71379983 0.0489159
-0.048838418 -0.00078532414 -0.14053044 -0.13704395 0.07206481 -0.23007517 0.045753174 -0.043087523
-0.011090224 0.028567914 -0.027126623 0.02081877 0.12134309 -0.21984036 -0.0710455 -0.041716777
-0.02007935 -0.013435134 0.22785412 0.015525388 -0.9051098 0.012166195 -0.7628963 0.502009
-0.011049808 -0.042255193 -0.14653672 0.34523353 -0.02916395 0.056859247 -0.06004017 0.023738848
0.004542908 0.076902285 -0.45567468 0.050778475 0.059780944 -0.035337143 -0.0018919765 0.05203197
0.06355329 0.0703607 0.099379584 0.13000344 0.009559438 -0.35119635 -0.15462893 -0.07753784
-0.40535128 0.02938362 -0.0691355 -0.30648756 -0.24626687 -0.47645095 -0.47398835 0.053916596
0.071541294 0.06350621 -0.32549682 -0.04868843 0.005941933 -0.065076195 -0.3742319 -0.0913072
-0.020348597 -0.41075152 -0.06244684 0.04905877 -0.016377078 0.016448125 -0.02825075 -0.029187197
0.03849198 0.060362287 0.15392822 0.0003430133 -0.344828 0.033756454 0.020021042 -0.0538921
-0.07220532 -0.43187305 0.047315978 -0.03935462 -0.0988264 -0.00029802055 -0.0038653547 0.039421417
-0.0057051866 -0.8394343 -0.1995363 0.2761861 0.0092007825 0.030117575 0.016609315 -0.023027305
00000000: 14c1 943c 8bcd 903e 965b a1ba ad51 a83c
00000010: 2d2c 683d 669a a9bd 6a53 debb 00c7 b33b
00000020: 06c9 a9ba 6da4 6ebd df75 b9bd 8ae5 143e
00000030: 80ec a73a c789 dabc 7854 453c 9658 e7bd
00000040: 3a14 933d e8a9 843d 909f 463b 7d25 363c
00000050: 9239 453d 60cc fa3d 25d2 143e 9324 673e
00000060: a487 073d f713 353d 623b 453e 8cad 793e
00000070: 7832 dfbc 7b3e 3dbd 1948 26bf 7088 8dbe
00000080: e887 ab3c d6c6 263e f5f2 03bd 1d9c dbbe
00000090: cf4c d53c b05f ca3c 3026 ef3c 3a31 d13c
000000a0: 3426 fb3b cc81 69bd 7370 0bbf c990 b0bf
000000b0: 0c12 bb3d 32c9 9c3c 5192 36bd 254b 93bd
000000c0: 8a18 2ebd f517 88bd 4693 c33e 8507 0e3e
000000d0: f574 833d e560 0a3d 37d4 f1bc c520 72bc
000000e0: 98e2 f5be 2196 5fbd 5872 453d 85c0 a43c
000000f0: 925c 0a3e 9e23 b53b 9ee2 d73c 6807 b9be
00000100: e905 13bf 9210 33bd 977f 463d bec5 23be
00000110: 5e25 bebd 5cd0 773d fb4a a5bb 0527 2c3d
00000120: 8fd8 b6be a39b 963c d3c6 3c3d 998a ea3c
00000130: 18e2 eb3c 6665 f6bc 1210 bcbc 545e d3bc
00000140: 8daa 80be 7031 d03d 8a7a a8be f820 6d3d
00000150: 100e 823d f85b 0ebe a9d4 e13c 4ce0 f8be
00000160: b968 89bc f7b2 54bd dfe3 0b3d 7e53 aebc
00000170: 58c5 8bbc 53e2 073c e3db 7abc cdb2 9e3c
00000180: 8826 303d 094e e73e d60c 5b3c 861f 663d
00000190: 8517 8bbf 3a39 393d d311 adbd 08ce a9be
000001a0: 4081 6dbb bc3c d03e 15eb 3dbd 31ed b93c
000001b0: 441b 413d 9724 71bb adbc db3d e66c 99bc
000001c0: 8fa5 f83c 9237 8b3d 4f16 d8bc 67d6 57bf
000001d0: aed6 b5bb 074c 283d 50d6 443c 1214 7e3d
000001e0: e96e 25bd bc64 ca3c c321 31be 68c6 e43c
000001f0: 02f9 ca3e 643e abbc 7b82 11be c83e 803d
00000200: e2e3 4abd 27f4 4ebd 8050 14bf c745 a03e
00000210: 5097 34bd 9656 2abc 337d 183b 19e1 de3d
00000220: f0e1 953b 9adc e3bc b83f 40bc c451 93bb
00000230: 6cf5 e23c 63a3 39bc e59e 59be 5341 563d
00000240: 5105 69bf 5020 15bc 5a05 0f3e eaf8 613d
00000250: 70ca ebbe c159 163c 6fd1 113d 3698 2ebd
00000260: 7e3d d6bd e162 31bc aeeb 373d b0d4 553d
00000270: 303e cdbe eb7e 85bd 96bb 36bf 0a5c 483d
00000280: cb0a 48bd 36de 4dba 36e7 0fbe 4055 0cbe
00000290: b796 933d d398 6bbe ae67 3b3d 8b7c 30bd
000002a0: c5b3 35bc 4207 ea3c a738 debc 208c aa3c
000002b0: ba82 f83d d51d 61be 4e80 91bd 36df 2abd
000002c0: 737d a4bc 091f 5cbc 9752 693e 325e 7e3c
000002d0: 47b5 67bf b854 473c 2c4d 43bf a983 003f
000002e0: 410a 35bc c813 2dbd b90d 16be 73c2 b03e
000002f0: 3ce9 eebc 3ee5 683d aeec 75bd f977 c23c
00000300: addc 943b f27e 9d3d 314e e9be 17fd 4f3d
00000310: dddc 743d aebd 10bd 32fc f7ba 7a1f 553d
00000320: 3a28 823d 4519 903d 8687 cb3d 9f1f 053e
00000330: 309f 1c3c 02d0 b3be 0c57 1ebe 29cc 9ebd
00000340: 348a cfbe ebb5 f03c ea96 8dbd f0eb 9cbe
00000350: 622d 7cbe 61f1 f3be 9aae f2be a6d7 5c3d
00000360: 3e84 923d 8b0f 823d 85a7 a6be 856d 47bd
00000370: 8cb4 c23b ab46 85bd 539b bfbe 45ff babd
00000380: 1ab2 a6bc 064e d2be 42c8 7fbd d9f1 483d
00000390: 3929 86bc 38be 863c 1e6e e7bc fd19 efbc
000003a0: c4a9 1d3d 723e 773d 5c9f 1d3e 77d6 b339
000003b0: 4c8d b0be 3544 0a3d 2b03 a43c f6bd 5cbd
000003c0: 62e0 93bd 771e ddbe 66ce 413d 4f32 21bd
000003d0: 7f65 cabd a43f 9cb9 e451 7dbb 5a78 213d
000003e0: 93f2 babb 2be5 56bf 3e53 4cbe 4468 8d3e
000003f0: e1be 163c 22b9 f63c 4210 883c c2a3 bcbc

fc1.bias f4 [256]
-0.023727097 0.035535157 -0.16640016 0.025764195 0.37562588 0.053632602 0.07734039 -0.09182735
0.014146547 0.043386664 0.12890421 0.087045446 0.019799482 0.07681585 -0.07366848 0.025073854
0.05622563 0.22329764 0.17076793 -0.377521 0.15842363 0.038304314 -0.019425113 -0.4053801
0.49347904 0.016343003 -0.17605129 0.06166819 -0.1606437 0.091920905 0.70038235 -0.21160479
0.17815012 0.040809985 -0.28873637 -0.12352547 -0.186252 0.05239709 0.120510384 -0.40505838
0.026620997 -0.11879609 0.3042531 0.013491456 0.3734662 -0.20130114 0.6732928 0.047962878
0.0019537993 0.080978155 -0.014443112 -0.013242031 0.1552911 0.10911848 -0.11836093 0.23141263
0.034854505 0.06774395 0.10220591 -0.37683243 0.029641926 0.07114583 0.031818587 0.04240453
0.07970016 -0.080639474 0.04375819 0.16702463 0.19544807 0.015511319 -0.030461399 -0.030957226
0.08802196 -0.24716339 0.04032536 -0.016774418 0.07473689 0.023869714 0.031697035 0.05290186
0.049817476 -0.15565959 0.07527649 -0.01212418 -0.056238595 0.033339113 0.05972516 -0.06250468
0.14995943 0.3482064 -0.07177076 -0.15572806 0.0042448747 -0.020788053 0.053010155 0.050642367
-0.019916434 0.026164077 -0.33245173 0.16078813 0.023873828 0.32282463 -0.0773724 0.2669827
0.24702476 -0.013181274 0.28034258 0.35268608 -0.7802083 0.22904263 -0.029063286 0.36112526
0.54159546 0.32169545 0.04127209 1.3744632 0.026679879 -0.06564324 0.007935598 -0.11549423
-0.24630746 0.112874165 0.16508086 -0.00037186246 -0.0030455498 0.0024786105 0.21772562 0.16672593
-0.14504157 0.041556984 0.97346896 -0.052130118 -0.18982594 0.059110433 0.13732122 -0.06006762
0.037192553 -0.19280343 0.11772418 -0.054515168 -0.259693 0.047063 0.012868884 0.33769506
-0.101583146 0.027239686 0.055906117 -0.32264385 -0.018010069 0.07110497 -0.10493375 0.08602884
0.10311725 0.26917076 0.4424783 0.5189481 -0.058195457 -0.15175001 -0.2152352 0.005880334
0.053789016 0.26028794 -0.096721426 -0.13577144 -0.25173664 0.36299223 -0.044459183 0.23135938
-0.16701858 0.2678975 -0.3689853 -0.039333586 -0.24905984 -0.19852544 0.043971237 0.30619463
-0.29232064 0.06548166 0.0067858896 0.35017174 -0.08215665 0.5667214 -0.11588728 0.10579111
0.047645763 0.08256246 -0.14382495 0.02926085 0.027702196 0.6205005 0.09178956 0.024954317
-0.08943014 -0.047204986 0.5141243 -0.34582853 -0.27817392 -0.14832003 0.24364479 0.051596303
0.04008332 0.10001083 0.056611285 -0.14737928 -0.02383603 0.058492962 0.054038286 0.11836885
0.07334943 0.26910338 -0.067979164 0.056382813 -0.09215507 0.009179713 -0.3830473 -0.06564664
0.037866935 -0.3045531 -0.2879862 -0.24000087 -0.21795738 0.0035755995 0.1665719 -0.011802275
0.03615611 0.05683928 0.03630318 -0.17043605 0.2070196 0.046783518 0.33203617 0.03728125
0.19333792 0.0496529 0.045315094 0.04769136 0.33209202 -0.31467614 0.25819817 0.008441623
-0.21464662 0.23068354 -0.017560702 -0.060815427 0.09228175 0.044243935 0.17774525 0.28518227
0.19143952 0.42983243 0.050261702 0.13131438 0.039260134 0.12873891 0.031010183 0.032542158
00000000: 545f c2bc 508d 113d ce64 2abe 6f0f d33c
00000010: 0952 c03e dcad 5b3d a364 9e3d fa0f bcbd
00000020: ebc6 673c 37b6 313d 77ff 033e e244 b23d
00000030: 8632 a23c a151 9d3d 80df 96bd af67 cd3c
00000040: d94c 663d 23a8 643e cadd 2e3e 6f4a c1be
00000050: ce39 223e fce4 1c3d 6a21 9fbc fb8d cfbe
00000060: 49a9 fc3e c3e1 853c ca46 34be c997 7c3d
00000070: c87f 24be 0741 bc3d 424c 333f edae 58be
00000080: fc6c 363e 5f28 273d 41d5 93be ecfa fcbd
00000090: d8b8 3ebe 559e 563d 26ce f63d d063 cfbe
000000a0: 4714 da3c 5d4b f3bd 10c7 9b3e 450b 5d3c
000000b0: f636 bf3e e321 4ebe eb5c 2c3f b974 443d
000000c0: 500b 003b e0d7 a53d cda2 6cbc 1bf5 58bc
000000d0: a104 1f3e 8279 df3d 3767 f2bd 6ff7 6c3e
000000e0: 99c3 0e3d 57bd 8a3d 5551 d13d 2ef0 c0be
000000f0: a0d3 f23c e8b4 913d 3554 023d 5fb0 2d3d
00000100: d639 a33d 4f26 a5bd ca3b 333d 8108 2b3e
00000110: 8a23 483e 3023 7e3c 2f8a f9bc 029a fdbc
00000120: db44 b43d 6618 7dbe 342c 253d 816a 89bc
00000130: a80f 993d 6b8a c33c c0d4 013d 9faf 583d
00000140: 690d 4c3d 3a65 1fbe 8f2a 9a3d 7fa4 46bc
00000150: 715a 66bd 988e 083d 5fa2 743d 7402 80bd
00000160: f78e 193e 1c48 b23e 8cfc 92bd 2d77 1fbe
00000170: 9718 8b3b b54b aabc 2d21 593d 5f6e 4f3d
00000180: ca27 a3bc 0c56 d63c 1d37 aabe a5a5 243e
00000190: 0c93 c33c 4549 a53e 6c75 9ebd f5b1 883e
000001a0: 0ff4 7c3e 45f6 57bc 1089 8f3e 4593 b43e
000001b0: bbbb 47bf 278a 6a3e 2116 eebc 69e5 b83e
000001c0: 00a6 0a3f 44b5 a43e ec0c 293d 69ee af3f
000001d0: c38f da3c f76f 86bd 4f04 023c 3d88 ecbd
000001e0: 0638 7cbe 922a e73d f50a 293e 89f6 c2b9
000001f0: d997 47bb 2f70 223b 77f3 5e3e 34ba 2a3e
00000200: c785 14be a837 2a3d 4335 793f 6486 55bd
00000210: bb61 42be c81d 723d ef9d 0c3e 7709 76bd
00000220: 3857 183d 436e 45be 6019 f13d 4c4b 5fbd
00000230: 7bf6 84be 22c5 403d 03d8 523c 5ee6 ac3e
00000240: d30a d0bd c325 df3c d0fd 643d 9331 a5be
00000250: da89 93bc 7c9f 913d 82e7 d6bd e32f b03d
00000260: 232f d33d c0d0 893e 848c e23e c8d9 043f
00000270: 5c5e 6ebd 5b64 1bbe 9e66 5cbe d1af c03b
00000280: df51 5c3d 7644 853e e215 c6bd ab07 0bbe
00000290: a0e3 80be 1eda b93e d51a 36bd 79e9 6c3e
000002a0: eb06 2bbe dc29 893e a4eb bcbe 411c 21bd
000002b0: 8b09 7fbe 414a 4bbe 2f1b 343d 8bc5 9c3e
000002c0: 0dab 95be 401b 863d 2b5c de3b b649 b33e
000002d0: bf41 a8bd a714 113f 4f56 edbd 02a9 d83d
000002e0: 3428 433d 8216 a93d d946 13be 73b4 ef3c
000002f0: b7ef e23c 1fd9 1e3f 2afc bb3d ff6c cc3c
00000300: 2627 b7bd 045a 41bd a69d 033f 7010 b1be
00000310: d06c 8ebe 35e1 17be 057e 793e a556 533d
00000320: 682e 243d 7ad2 cc3d 3ce1 673d 98ea 16be
00000330: c743 c3bc 5196 6f3d 4057 5d3d 5e6b f23d
00000340: 3a38 963d ebc7 893e a938 8bbd aaf1 663d
00000350: ccbb bcbd 8266 163c c71e c4be bf71 86bd
00000360: 5c1a 1b3d 62ee 9bbe ed72 93be cac2 75be
00000370: 3830 5fbe 9b54 6a3b d391 2a3e 545e 41bc
00000380: 6e18 143d 4ed0 683d a5b2 143d ca86 2ebe
00000390: f2fc 533e 13a0 3f3d a500 aa3e 39b4 183d
000003a0: 60fa 453e d760 4b3d 529c 393d 0458 433d
000003b0: f707 aa3e 3b1d a1be 8d32 843e bc4e 0a3c
000003c0: 53cc 5bbe 4e38 6c3e 76db 8fbc 9919 79bd
000003d0: 37fe bc3d 2139 353d da02 363e 6903 923e
000003e0: b908 443e ff12 dc3e 37df 4d3d 4777 063e
000003f0: 3ccf 203d 22d4 033e 1109 fe3c ed4a 053d

last_fc.weight f4 [3, 256]
-0.114333056 -0.009022037 -0.14976169 0.35425746 0.02131947 -0.013376341 0.034961406 0.09251746
0.04850948 -0.0025748545 -0.06653761 0.22140726 0.013229459 0.07010734 -0.038744673 0.3148869
0.013358454 0.10027323 0.28648123 -0.17805122 0.16889204 -0.19491298 0.71020913 -0.0904392
0.0866002 0.0015187912 0.100857474 -0.00770206 0.004523858 0.11015005 -0.09734224 -0.56613755
0.18096745 -0.032883517 -0.06303696 -0.042657975 0.1124595 -0.2156854 1.3137562 0.17045578
0.16667269 0.5094503 0.080381796 0.3601061 -0.419637 -0.2322978 0.08716283 0.49820435
-0.6060373 -0.4879514 0.14084242 -0.121599905 -0.16793771 -0.13981435 -0.25588408 -0.07863963
-1.3522884 -0.010287412 0.048356824 0.047888387 0.005165751 -0.0061243367 0.012226058 0.018508734
-0.0120874485 -0.47384778 -0.31106946 -0.018383581 0.2055552 -0.088334 0.06048581 0.12618294
0.13111368 -0.14304474 0.0733541 -0.07759187 -0.6428139 0.21441828 -0.07568437 -0.010167738
-0.0153291235 0.9769506 0.023264643 -0.10612603 -0.07492046 -0.009694102 -0.024724096 -0.082943276
-0.03310247 0.067410916 -0.042998943 0.02671483 0.08859291 0.048113395 -0.016277676 -0.00022066843
0.82686085 0.18930648 -0.16372004 0.16282225 0.05299687 -0.3174982 0.044289052 0.13142665
0.021490242 -0.09826804 0.101319775 0.16593838 0.10279266 -0.022881746 0.07300464 0.1419021
-0.01815431 0.19875665 -0.004315364 -0.023720417 0.0045808083 0.086059324 -0.16574393 -0.081480525
-0.08291016 -0.03499661 0.23957665 0.5480737 0.06256679 -0.44388896 -0.14195375 0.38592306
-0.6654672 -0.0069453367 0.1080812 -0.5319771 0.1524372 0.06844159 -0.22352451 0.62180454
-0.010626613 -0.15198922 0.80046314 0.3888556 0.09871645 0.017053168 0.18859501 0.4826983
-0.22622834 -0.24894293 0.0166654 -0.3041798 0.45371994 -0.07868276 -0.044063248 -0.1658974
-0.7101592 0.09281131 0.124003425 -0.04587362 -0.024468053 0.304307 0.111786 -0.17296766
0.01151409 0.1889276 0.83811265 -0.29199287 -0.2879994 -0.75749916 -0.26881504 0.021349669
0.46111634 -0.0074789003 -0.6663195 -0.09480734 -0.20606044 -0.12243211 0.0030939153 0.0773719
-0.094998956 0.36862484 0.0005753461 -0.10804364 -0.073313795 0.03047069 -0.11086267 -0.34624466
0.03369221 -0.02045638 -0.19990608 0.015549478 -0.37304565 0.09729817 0.39160335 0.04453916
0.59887326 -0.108446114 0.42054254 0.112852745 -1.2674855 0.07454798 0.11976075 0.0029165687
-0.00048038262 -0.023356164 -0.01198046 -0.51874954 -0.64336336 -0.015175674 -0.0027705815 0.116254516
1.9255706 0.052963533 0.077658735 -0.008404949 -0.04832294 -0.046286475 -0.5415124 0.7754748
-0.009698677 -0.17331083 -0.5911155 0.018526237 0.22877103 -0.15642653 -0.2187491 0.11922912
-0.0058399197 0.013096294 -0.017264899 0.048112698 0.23051356 0.0013933856 -0.047607426 0.014727819
0.082597315 -0.2908872 0.00052412995 0.15050504 -0.075068176 -0.33486566 -0.12966684 0.12804651
-0.13878253 0.46019104 -0.3041954 -0.1727753 0.73290324 0.008765908 0.748944 0.079893954
-0.03272742 0.055519834 -0.005222737 -0.07015764 0.023394443 -0.08620742 -0.0011469474 -0.026044263
00000000: 7327 eabd 2ad1 13bc 215b 19be 3c61 b53e
00000010: 2ba6 ae3c 7128 5bbc b133 0f3d cb79 bd3d
00000020: e0b1 463d e4be 28bb df44 88bd 96b8 623e
00000030: 5fc0 583c 7094 8f3d bcb2 1ebd db38 a13e
00000040: 6bdd 5a3c 0d5c cd3d abad 923e 0f53 36be
00000050: 09f2 2c3e 4597 47be 44d0 353f 3038 b9bd
00000060: 725b b13d 2d12 c73a 5d8e ce3d 9061 fcbb
00000070: df3c 943b 5996 e13d 5e5b c7bd 64ee 10bf
00000080: 884f 393e deb0 06bd 8619 81bd 21ba 2ebd
00000090: 2b51 e63d a2dc 5cbe 2a29 a83f f68b 2e3e
000000a0: 3fac 2a3e 566b 023f 369f a43d d45f b83e
000000b0: a9da d6be 79df 6dbe 6d82 b23d a414 ff3e
000000c0: 4325 1bbf c4d4 f9be ff38 103e 5f09 f9bd
000000d0: ddf7 2bbe 7e2b 0fbe 3d03 83be d00d a1bd
000000e0: c917 adbf 898c 28bc ce11 463d 9d26 443d
000000f0: 7645 a93b a9ae c8bb ce4f 483c a19f 973c
00000100: 6f0a 46bc 2d9c f2be 7f44 9fbe 2a99 96bc
00000110: 107d 523e 75e8 b4bd f8bf 773d 1a36 013e
00000120: aa42 063e 527a 12be ad3a 963d 7de8 9ebd
00000130: 748f 24bf 7790 5b3e 6800 9bbd 9696 26bc
00000140: 0127 7bbc 6f19 7a3f 7e95 be3c 9b58 d9bd
00000150: e66f 99bd 03d4 1ebc 308a cabc 2ade a9bd
00000160: 7596 07bd bc0e 8a3d a91f 30bd 0fd9 da3c
00000170: 3370 b53d 8d12 453d c358 85bc 3b63 67b9
00000180: 27ad 533f 8fd9 413e 3aa6 27be e0ba 263e
00000190: 3f13 593d 208f a2be 7068 353d b594 063e
000001a0: 4e0c b03c c140 c9bd be80 cf3d c0eb 293e
000001b0: f584 d23d 8072 bbbc 7583 953d c94e 113e
000001c0: 59b8 94bc dd86 4b3e e667 8dbb 5251 c2bc
000001d0: 9b1a 963b df3f b03d c7b8 29be 43df a6bd
000001e0: cdcc a9bd 9b58 0fbd 9553 753e 8f4e 0c3f
000001f0: 0423 803d 6a45 e3be 535c 11be b597 c53e
00000200: 0f5c 2abf b595 e3bb ad59 dd3d a72f 08bf
00000210: 7f18 1c3e 1b2b 8c3d 9ce3 64be 952e 1f3f
00000220: 3f1b 2ebc 10a3 1bbe 27eb 4c3f 1518 c73e
00000230: da2b ca3d 16b3 8b3c 0d1f 413e 3b24 f73e
00000240: 67a8 67be e5ea 7ebe e085 883c 74bd 9bbe
00000250: fb4d e83e 6d24 a1bd aa7b 34bd 02e1 29be
00000260: fecc 35bf db13 be3d 82f5 fd3d fae5 3bbd
00000270: 3a71 c8bc 21ce 9b3e 0ff0 e43d 6f1e 31be
00000280: 98a5 3c3c 3d76 413e 8d8e 563f 1780 95be
00000290: a874 93be 77eb 41bf 20a2 89be 80e5 ae3c
000002a0: 7117 ec3e 9011 f5bb ea93 2abf 5a2a c2bd
000002b0: 8201 53be b0bd fabd 49c3 4a3b 2975 9e3d
000002c0: d08e c2bd 65bc bc3e d3d2 163a fc45 ddbd
000002d0: 8b25 96bd ab9d f93c f80b e3bd fb46 b1be
000002e0: d800 0a3d 2394 a7bc 2eb4 4cbe 3dc3 7e3c
000002f0: d7ff bebe 4344 c73d 3c80 c83e b26e 363d
00000300: c24f 193f ff18 debd 5a51 d73e 571f e73d
00000310: f73c a2bf 9dac 983d 2045 f53d e723 3f3b
00000320: dddb fbb9 6d55 bfbc b149 44bc c5cc 04bf
00000330: 76b3 24bf 64a3 78bc a592 35bb d916 ee3d
00000340: 1979 f63f 4af0 583d 8b0b 9f3d e9b4 09bc
00000350: 46ee 45bd e396 3dbd 8fa0 0abf 8485 463f
00000360: 33e7 1ebc 6578 31be 5853 17bf 56c4 973c
00000370: f442 6a3e 472e 20be c4ff 5fbe 662e f43d
00000380: cc5c bfbb d791 563c 1e6f 8dbc d211 453d
00000390: bf0b 6c3e 43a2 b63a 0100 43bd f34c 713c
000003a0: c828 a93d 2bef 94be c465 093a fe1d 1a3e
000003b0: 58bd 99bd 8373 abbe 62c7 04be a01e 033e
000003c0: 021d 0ebe 299e eb3e 80bf 9bbe 02ec 30be
000003d0: 8c9f 3b3f e29e 0f3c cbba 3f3f 719f a33d
000003e0: 300d 06bd c468 633d 7e23 abbb cfae 8fbd
000003f0: b4a5 bf3c 848d b0bd 2b55 96ba c75a d5bc

last_fc.bias f4 [3]
0.15115407 0.08803939 -0.016542707
00000000: 22c8 1a3e ff4d b43d 9284 87bc

last_fc_log_std.weight f4 [3, 256]
0.09061766 -0.012815724 0.022681875 0.13351157 0.03399383 0.0018299576 -0.033205975 0.017073847
0.04427563 -0.0109031135 0.03741183 -0.0048699235 0.031276483 -0.021730855 0.07288468 0.14721616
-0.047168393 0.10300904 0.13984978 0.16730705 0.035748977 -0.12120893 0.66408354 0.03027854
-0.009863564 0.036435932 0.05274285 -0.1933019 0.07798882 -0.02688352 -0.043199852 0.19221795
0.04497136 0.0040134713 0.049766142 0.02607697 0.04729476 -0.029530063 1.1116519 0.16647741
0.19390887 0.21117397 0.027204586 0.24672423 0.11496745 0.367449 0.00075848395 0.5852039
0.53264385 0.033706915 0.10455721 -0.049038045 0.046678655 0.035573393 0.04259828 0.08843018
1.0060731 0.004665366 0.053835988 0.08155607 0.0023536684 -0.007201154 -0.014303919 0.004774232
0.023626808 0.109885335 0.29972288 -0.06105589 0.06434593 0.0089142835 -0.006839344 0.043599524
0.06113505 0.14746454 -0.032164272 0.046765737 0.06455522 0.13431156 -0.024714742 0.008533391
0.00816812 0.13070159 -0.07334117 0.080776684 0.13179035 0.036952034 0.022941954 -0.083858676
0.0057605947 0.02833487 -0.04097179 0.02909154 0.020275641 -0.008456533 0.0037326685 0.015838515
0.3314826 -0.07196729 -0.01678438 0.11049821 0.03264568 0.23750263 0.07378105 0.05484312
-0.027782453 0.07088531 0.031628523 0.08374607 -0.061725862 -0.077499874 -0.007429757 0.117371194
-0.032999687 0.009229131 -0.024494492 -0.42717612 0.027505439 -0.053734712 0.015601816 -0.013966264
-0.04272725 0.026706178 -0.1116723 0.08893896 0.00050994894 0.4627503 -0.043911587 0.3280634
-0.017959332 0.034123372 -0.09034892 -0.09380865 0.15849558 0.020956736 -0.13559894 0.24539107
0.025369218 0.0058234194 0.32334548 0.16329966 -0.04572445 0.0018080233 -0.03700268 0.4199707
-0.04396561 -0.026769238 0.014166806 0.2717614 0.03454262 0.036844887 0.013029 0.05856071
0.5113429 0.014053522 0.02188681 -0.13300566 -0.1119474 0.14558084 0.10644625 0.015657676
0.03399622 -0.008339349 0.29719934 0.17718421 0.054905996 -0.16769426 0.1269276 0.12510714
0.13314416 0.054162107 0.1660486 -0.026378276 -0.16604906 -0.015368682 0.005060614 0.0016704601
0.06086579 0.18636926 0.08792159 -0.024938451 -0.23466785 0.06407996 -0.06027558 -0.11917978
-0.012252093 0.0027831434 0.022004142 -0.017501654 0.17977615 -0.054125883 0.23954874 0.024985055
1.443958 -0.04075976 0.20271346 0.08307245 0.45260206 -0.06463048 0.085127994 -0.0037267949
0.0058693667 0.022754932 0.0130588645 0.51560175 0.37622666 -0.016388804 0.02779133 0.041029535
1.3709277 -0.021440892 -0.03173133 0.004171273 0.035771277 -0.011159731 0.3328795 1.0081813
0.038998872 0.13595368 0.16949558 0.005224801 0.05909704 0.23125339 -0.011228379 -0.2076628
0.021728331 -0.0040223217 0.045353662 -0.02867285 0.1725017 -0.003045449 -0.03743949 0.056489512
0.009739426 0.21183918 -0.004370713 0.078229934 0.040241074 0.2805372 0.11676441 -0.016274665
0.29033026 0.14863816 -0.14861257 -0.0019402403 0.7663933 0.03564302 0.562899 0.007554216
-0.037090488 -0.019044463 0.023501184 -0.008354067 -0.019855447 0.030356614 -0.02151787 0.019162497
00000000: c095 b93d 0bf9 51bc 57cf b93c 42b7 083e
00000010: 1d3d 0b3d 30db ef3a fd02 08bd 74de 8b3c
00000020: 5d5a 353d f9a2 32bc 263d 193d e193 9fbb
00000030: c51b 003d e804 b2bc 9044 953d d5bf 163e
00000040: a533 41bd 67f6 d23d c834 0f3e 8a52 2b3e
00000050: 856d 123d 633c f8bd 6101 2a3f b30a f83c
00000060: c99a 21bc d83d 153d e308 583d eff0 45be
00000070: 9ab8 9f3d d43a dcbc 54f2 30bd c8d4 443e
00000080: e433 383d 7083 833b 95d7 4b3d 5f9f d53c
00000090: 26b8 413d 08e9 f1bc 9c4a 8e3f 0e79 2a3e
000000a0: 0c90 463e fd3d 583e 27dc de3c 47a5 7c3e
000000b0: 0e74 eb3d 4622 bc3e ffd4 463a eccf 153f
000000c0: 595b 083f 4310 0a3d 1722 d63d 1edc 48bd
000000d0: 1e32 3f3d 68b5 113d 897b 2e3d e21a b53d
000000e0: 01c7 803f eddf 983b 2083 5c3d de06 a73d
000000f0: 0140 1a3b a8f7 ebbb fc5a 6abc 2971 9c3b
00000100: 028d c13c 900b e13d 4775 993e be15 7abd
00000110: cdc7 833d 370d 123c 931c e0bb 6a95 323d
00000120: bf68 7a3d f200 173e afbe 03bd 6e8d 3f3d
00000130: 8735 843d f888 093e 9276 cabc a3cf 0b3c
00000140: 94d3 053c a3d6 053e e533 96bd 3f6e a53d
00000150: 0df4 063e 045b 173d c4f0 bb3c 19be abbd
00000160: 5fc3 bc3b 871e e83c 09d2 27bd 6251 ee3c
00000170: 1a19 a63c 458d 0abc c99f 743b c6bf 813c
00000180: 16b8 a93e 9663 93bd 657f 89bc e34c e23d
00000190: 7ab7 053d e433 733e 851a 973d 2ea3 603d
000001a0: 0798 e3bc 512c 913d e98c 013d 0f83 ab3d
000001b0: 42d4 7cbd 41b8 9ebd 5275 f3bb 4f60 f03d
000001c0: ae2a 07bd c835 173c aca8 c8bc d4b6 dabe
000001d0: 1653 e13c ee18 5cbd c29e 7f3c c2d2 64bc
000001e0: c502 2fbd eac6 da3c 72b4 e4bd a125 b63d
000001f0: 18ae 053a 9bed ec3e a3dc 33bd edf7 a73e
00000200: 731f 93bc f3c4 0b3d db08 b9bd c01e c0bd
00000210: aa4c 223e 76ad ab3c 73da 0abe cc47 7b3e
00000220: 1bd3 cf3c 62d2 be3b 8a8d a53e 0738 273e
00000230: 9049 3bbd 32fb ec3a 1f90 17bd 6606 d73e
00000240: 4915 34bd 294b dbbc e41b 683c 4f24 8b3e
00000250: 907c 0d3d aaea 163d 9677 553c 5bdd 6f3d
00000260: 5ee7 023f be40 663c f84b b33c a332 08be
00000270: ae44 e5bd 2513 153e 7e00 da3d 8744 803c
00000280: 9f3f 0b3d c4a1 08bc 832a 983e c76f 353e
00000290: 1ce5 603d 0bb8 2bbe 4ff9 013e 161c 003e
000002a0: f156 083e 16d9 5d3d a508 2a3e 4117 d8bc
000002b0: c408 2abe edcc 7bbc 82d3 a53b 57f3 da3a
000002c0: 684e 793d 95d7 3e3e 3c10 b43d b94b ccbc
000002d0: c54c 70be 5b3c 833d 87e3 76bd 8714 f4bd
000002e0: 01bd 48bc 6665 363b 0842 b43c a15f 8fbc
000002f0: 3d17 383e 1ab3 5dbd 444c 753e 75ad cc3c
00000300: 9ed3 b83f b5f3 26bd 1e94 4f3e e321 aa3d
00000310: 75bb e73e fc5c 84bd 9657 ae3d 3e3d 74bb
00000320: d153 c03b 8d68 ba3c d9f4 553c 7afe 033f
00000330: c8a0 c03e d041 86bc a5aa e33c 960e 283d
00000340: 8f7a af3f cfa4 afbc b6f8 01bd 2daf 883b
00000350: e784 123d 4ed7 36bc 2f6f aa3e 160c 813f
00000360: 48bd 1f3d 7137 0b3e 4090 2d3e cf34 ab3b
00000370: bd0f 723d b0cd 6c3e 3cf7 37bc 8fa5 54be
00000380: 9dff b13c aecd 83bb c3c4 393d 53e3 eabc
00000390: 49a4 303e 2896 47bb 275a 19bd 8c61 673d
000003a0: 1d92 1f3c 5fec 583e 3338 8fbb 0437 a03d
000003b0: d3d3 243d 92a2 8f3e 2e22 ef3d 7252 85bc
000003c0: 2ba6 943e 9a34 183e e52d 18be a94f feba
000003d0: 5a32 443f 6afe 113d 261a 103f 5b89 f73b
000003e0: 32ec 17bd 2203 9cbc 8e85 c03c 7fdf 08bc
000003f0: e4a7 a2bc 6fae f83c 3e46 b0bc abfa 9c3c

last_fc_log_std.bias f4 [3]
-1.7468729 -1.5585561 -1.571231
00000000: 8899 dfbf c47e c7bf 191e c9bf
