models/Env2/SAC_256_A5_S2_P/local_episode_550_reward_200.000000.pt (torch, 296992 bytes, 6 tensors)

trunk.0.weight f4 [256, 23]
-0.05282069 0.04881341 -0.02087755 -0.19374819 -0.07122271 0.06533537 0.040640697 -0.07686815
0.15505613 -0.15152517 0.008843324 -0.01546043 -0.07295396 -0.10225235 -0.04926664 -0.007622803
-0.006584396 0.014297232 -0.019300073 0.008303639 -0.16269182 0.12527406 -0.01852821 0.0667489
-0.050119296 -0.090117685 -0.17237352 -0.14892085 0.00020452468 -0.005975634 -0.004908248 -0.03945952
-0.049176753 0.15936215 0.11413739 -0.06455643 0.10270485 -0.09383952 -0.041440405 0.054934893
-0.05844421 -0.116718106 0.01744161 -0.2694973 -0.06808729 -0.12012778 -0.13168775 -0.012848563
0.017161204 8.7331035e-05 -0.034050148 -0.045827623 -0.11468951 0.07410726 -0.0031565547 -0.03765251
0.028140409 -0.027684841 -0.043210115 -0.042377852 -0.07087995 0.13158938 0.02144865 0.10949356
-0.11760653 -0.119487785 0.11044544 -0.12051596 -0.1357233 0.123845145 0.031376675 -0.049725495
-0.006241441 -0.059300862 0.055379555 0.049372964 -0.00065011205 -0.018713992 -0.0026437566 -0.0715952
-0.011551032 -0.06738694 0.018316211 -0.049422108 -0.090379894 0.08139586 -0.08732245 -0.047286488
-0.106091104 -0.013701776 0.035823233 -0.028435487 0.027684981 0.0002719989 0.05855743 -0.04000895
-0.03310022 0.035862166 0.059322625 -0.013156858 -0.00973559 -0.013408268 -0.1783429 -0.16234882
-0.017938724 -0.0064315046 0.007185457 0.00029427727 -0.069636986 -0.11589306 -0.054168507 -0.105000205
0.16740589 -0.1606423 -0.1870376 -0.09381488 -0.0711922 -0.040100474 -0.0156135475 0.02903394
-0.047375284 0.07512093 0.1203002 -0.0069092666 -0.103109285 -0.14362516 -0.045029122 -0.013053923
-0.04771826 0.100673646 -0.08834206 -0.17279102 0.11640629 -0.08883605 -0.071736716 0.07987953
0.022592604 0.060975302 -0.055647805 -0.114490785 -0.08753768 -0.03607591 -0.12690297 0.0017846094
0.060595762 -0.053297415 0.0063190693 0.073365845 -0.017800156 0.018055672 -0.050644994 -0.14464028
0.09850061 0.028044546 0.043958068 -0.05380469 0.013957299 0.010880975 0.056372706 -0.07655635
-0.0731237 0.050869558 0.044381514 -0.08019912 -0.102050506 -0.17465134 -0.03810762 -0.13448723
0.028115638 -0.03841423 0.047620207 0.10597019 -0.12681086 0.008157949 -0.04933917 0.031828064
-0.030953655 -0.0240821 0.051388796 -0.056776516 0.08419962 0.118840106 -0.0052472777 -0.015608865
-0.079494014 0.040915206 -0.049750783 -0.018865399 -0.15584633 -0.0064314683 -0.023115642 0.0036714093
0.040275253 -0.0247108 0.03573239 -0.018864226 -0.08427313 -0.002914197 -0.007901559 0.061230954
-0.1241345 0.006085889 -0.114515595 0.0962848 0.02952759 0.053774845 -0.0196 0.2220275
0.12470968 -0.15302709 0.065827355 -0.035212077 -0.2635524 -0.17124432 -0.066806644 -0.12987949
-0.23599179 0.00029942492 -0.10903063 -0.020718703 0.051819336 0.14023158 -0.047055323 -0.2155371
0.07840399 0.16215266 0.0944135 -0.051296275 0.19005089 -0.21164738 -0.1075659 0.088489786
0.024011124 -0.031012757 0.02779847 0.15906142 -0.0079682665 -0.024580233 -0.12782685 -0.14301336
0.13167746 -0.112779655 -0.40087083 -0.11419959 0.15113306 -0.164523 0.018202858 -0.008617921
-0.12862213 -0.06665904 0.21440758 -0.029159537 0.015431838 0.14787965 -0.07691261 -0.02733405
00000000: 825a 58bd 92f0 473d 6507 abbc ed65 46be
00000010: 36dd 91bd 8dce 853d dc76 263d 0c6d 9dbd
00000020: 09c7 1e3e 6a29 1bbe 97e3 103c be4d 7dbc
00000030: e368 95bd ae69 d1bd d1cb 49bd b5c8 f9bb
00000040: ebc1 d7bb f03e 6a3c 301b 9ebc fc0b 083c
00000050: af98 26be d847 003e 79c8 97bc a6b3 883d
00000060: e449 4dbd 9f8f b8bd af82 30be b57e 18be
00000070: ad75 5639 40cf c3bb 5ed5 a0bb 4ea0 21bd
00000080: 906d 49bd d52f 233e ddc0 e93d 2936 84bd
00000090: ec56 d23d ef2e c0bd 6abd 29bd 6903 613d
000000a0: 3263 6fbd e709 efbd b5e1 8e3c 8dfb 89be
000000b0: 5971 8bbd 8e05 f6bd 27d9 06be c782 52bc
000000c0: a795 8c3c 7e25 b738 2b78 0bbd bfb5 3bbd
000000d0: 55e2 eabd 8cc5 973d 33de 4ebb 8539 1abd
000000e0: b786 e63c 52cb e2bc 17fd 30bd 6694 2dbd
000000f0: 8229 91bd 5ebf 063e 14b5 af3c 293e e03d
00000100: b1db f0bd 03b6 f4bd 3831 e23d 12d1 f6bd
00000110: 0cfb 0abe 86a2 fd3d d484 003d f6ac 4bbd
00000120: 0085 ccbb 76e5 72bd acd5 623d 4e3b 4a3d
00000130: 486c 2aba 164e 99bc e042 2dbb 81a0 92bd
00000140: 8a40 3dbc 2a02 8abd e10b 963c d66e 4abd
00000150: 1819 b9bd dfb2 a63d 1dd6 b2bd 7aaf 41bd
00000160: 4b46 d9bd 6a7d 60bc 62bb 123d 8af1 e8bc
00000170: 9dcb e23c 139b 8e39 ead9 6f3d 6de0 23bd
00000180: 1994 07bd 35e4 123d 48fc 723d dd8f 57bc
00000190: 0682 1fbc 5aae 5bbc 859f 36be c53e 26be
000001a0: 3bf4 92bc 5fbf d2bb fb73 eb3b 3a49 9a39
000001b0: d69d 8ebd 5759 edbd ccdf 5dbd 590a d7bd
000001c0: 736c 2b3e 6a7f 24be c986 3fbe 0422 c0bd
000001d0: 37cd 91bd 6540 24bd f7cf 7fbc 96d8 ed3c
000001e0: 960c 42bd 01d9 993d f45f f63d 2167 e2bb
000001f0: f62a d3bd 7912 13be 7570 38bd 1fe0 55bc
00000200: 3974 43bd fc2d ce3d afec b4bd 21f0 30be
00000210: 6c66 ee3d adef b5bd b3ea 92bd e197 a33d
00000220: 2014 b93c 3dc1 793d f4ee 63bd 257a eabd
00000230: f546 b3bd 55c4 13bd daf2 01be 8ee9 e93a
00000240: 4333 783d 644e 5abd 3210 cf3b d540 963d
00000250: a2d1 91bc 7de9 933c 2071 4fbd 951c 14be
00000260: b0ba c93d adbd e53c 600d 343d 4e62 5cbd
00000270: 28ad 643c 1e46 323c 11e7 663d 93c9 9cbd
00000280: e1c1 95bd 995c 503d 64c9 353d 703f a4bd
00000290: dbff d0bd cdd7 32be bc16 1cbd 05b7 09be
000002a0: c452 e63c 3d58 1dbd 680d 433d e606 d93d
000002b0: b5da 01be eba8 053c df17 4abd 255e 023d
000002c0: 8592 fdbc d347 c5bc 0f7d 523d 7e8e 68bd
000002d0: da70 ac3d 7162 f33d 5bf1 abbb 53bc 7fbc
000002e0: c2cd a2bd b496 273d 7ac7 4bbd 9c8b 9abc
000002f0: 2e96 1fbe 11bf d2bb 045d bdbc 079c 703b
00000300: aaf7 243d 4e6e cabc 205c 123d 2689 9abc
00000310: 6497 acbd 1dfc 3ebb 8a75 01bc 4fcd 7a3d
00000320: 3b3a febd 236c c73b 2787 eabd f730 c53d
00000330: d8e3 f13c 0343 5c3d 2e90 a0bc 2d5b 633e
00000340: ca67 ff3d 22b3 1cbe 7ed0 863d 8a3a 10bd
00000350: 57f0 86be ac5a 2fbe ecd1 88bd 21ff 04be
00000360: d5a7 71be 22fc 9c39 734b dfbd 45ba a9bc
00000370: 8340 543d de98 0f3e 15bd 40bd c2b5 5cbe
00000380: 4592 a03d 590b 263e dd5b c13d 0b1c 52bd
00000390: b39c 423e 17ba 58be 834b dcbd 223a b53d
000003a0: fab2 c43c 770e febc 9eb9 e33c ffe0 223e
000003b0: 558d 02bc 7c5c c9bc 0be5 02be 1872 12be
000003c0: 75d6 063e 05f9 e6bd f13e cdbe 7ae1 e9bd
000003d0: a0c2 1a3e b878 28be 291e 953c 2e32 0dbc
000003e0: 85b5 03be 8984 88bd a98d 5b3e fbdf eebc
000003f0: d2d5 7c3c c36d 173e 5c84 9dbd a8eb dfbc

trunk.0.bias f4 [256]
-0.015291781 -0.04146148 -0.0072654616 0.0 -0.031199442 -0.015519676 -0.012124337 -0.025459178
-0.013605177 0.021015856 0.025384154 -0.008193703 0.0033087377 -0.0230551 0.0 -0.030534364
-0.016666511 -0.029518498 -0.010192479 -0.030431578 -0.022123488 -0.0029533377 0.00803321 0.018794708
-0.023794876 -0.061865784 0.009660666 -0.02236422 -0.022408003 -0.017581604 -0.006147223 -0.03183542
-0.02797844 -0.0145824095 -0.0050253137 -0.013408582 0.0 -0.025644291 -0.025830144 0.0
-0.01584838 -0.003860811 -0.031820875 0.026501095 -0.009773185 0.01522853 -0.021211935 -0.00941354
-0.024375701 -0.030946685 0.0 0.0 -0.025864547 0.0 0.030461026 0.0
-0.015836896 -0.015198009 0.0 -0.013700502 -0.041302405 -0.031994622 0.0 -0.029764399
-0.033020835 0.0 -0.044707574 -0.038690962 0.0 -0.026186893 0.04085347 -0.011981503
-0.016151574 -0.02084515 -0.02639544 0.0 -0.03767516 -0.013314324 0.032790933 -0.008867482
-0.021787794 -0.024291828 0.0 -0.015634146 -0.0008124814 -0.015169287 -0.01634896 -0.015550826
-0.016200041 -0.039665114 -0.005995149 -0.010307956 0.22573765 -0.04390075 -0.02918583 -0.074844606
-0.017659694 0.0 -0.027782716 0.08565823 -0.016199157 -0.012412677 -0.012894618 -0.032143194
-0.023207719 -0.023305794 -0.034683757 0.011466745 -0.019242056 -0.04982128 0.098585404 0.008387205
0.0 0.03656605 -0.015645247 -0.018935809 0.012661685 -0.04506447 -0.026914852 -0.021397257
-0.009723814 0.0 0.0016960363 -0.028262649 -0.007826505 -0.01449319 0.06931121 -0.0086846575
-0.035824306 -0.023135535 -0.004277509 -0.007932808 0.032024037 -0.017319322 -0.012197833 -0.011157597
0.017843781 -0.026797723 0.0 -0.018190222 -0.05285312 -0.050473567 0.032797437 -0.011423192
-0.037247647 -0.022294058 -0.03794471 -0.05002714 -0.023417879 -0.020068627 0.0 0.022090016
-0.043214258 0.12466934 -0.021908421 -0.0058824136 -0.032968644 0.07337034 -0.011589264 0.053718176
0.018857896 -0.027187737 -0.017570013 -0.06842301 0.0 0.024482042 -0.02160536 -0.021243246
0.11759984 -0.029628381 -0.023109265 -0.03649497 0.0 -0.024900407 -0.037851267 -0.011754563
-0.008250746 -0.013317066 0.030047717 -0.045954265 -0.023789894 -0.020324947 0.026529286 -0.020778878
-0.00812337 -0.039881997 -0.012461466 -0.021531712 -0.039720293 -0.01800509 0.012830853 -0.045770496
-0.03329303 -0.01913181 0.08700605 -0.08554745 0.008243445 -0.015725736 -0.011872638 0.0
0.022477783 0.0 -0.0033832153 0.0 -0.004942544 -0.016173508 -0.048617724 -0.036803268
-0.008759472 -0.019778818 -0.060283843 -0.02176558 -0.029762562 0.013807506 -0.0053605363 -0.02325879
-0.012668903 -0.0296764 0.0 -0.04013611 0.09778749 0.022556545 -0.03976916 -0.023422332
-0.025620695 -0.0014149286 -0.0460819 -0.033724707 -0.018664815 0.023159625 -0.043686 0.048202105
-0.01581672 -0.006592577 0.008849836 0.0 -0.022926217 -0.044848237 -0.016227998 -0.01368126
0.0 0.06539586 -0.0046012374 -0.009546569 0.033782195 -0.026570579 -0.013529337 -0.01304414
0.027589798 0.04412146 -0.019186117 0.0 0.10954771 -0.02077996 -0.04490013 0.16717565
00000000: 618a 7abc 83d3 29bd 1c13 eebb 0000 0000
00000010: f995 ffbc 3d46 7ebc 28a5 46bc c48f d0bc
00000020: 40e8 5ebc 7229 ac3c 6ef2 cf3c e23e 06bc
00000030: 68d7 583b 0dde bcbc 0000 0000 3423 fabc
00000040: 3588 88bc c7d0 f1bc 5bfe 26bc a54b f9bc
00000050: 513c b5bc c98c 41bb ba9d 033c 5cf7 993c
00000060: 79ed c2bc fa66 7dbd c547 1e3c 2b35 b7bc
00000070: fd90 b7bc 4c07 90bc a56e c9bb db65 02bd
00000080: 0b33 e5bc 0feb 6ebc 63ab a4bb abaf 5bbc
00000090: 0000 0000 fa13 d2bc bd99 d3bc 0000 0000
000000a0: 76d4 81bc a905 7dbb 9b56 02bd d318 d93c
000000b0: b51f 20bc 1681 793c a7c4 adbc 403b 1abc
000000c0: 8daf c7bc e783 fdbc 0000 0000 0000 0000
000000d0: e3e1 d3bc 0000 0000 6789 f93c 0000 0000
000000e0: 61bc 81bc 1201 79bc 0000 0000 1278 60bc
000000f0: b62c 29bd cb0c 03bd 0000 0000 78d4 f3bc
00000100: db40 07bd 0000 0000 4a1f 37bd 6a7a 1ebd
00000110: 0000 0000 e585 d6bc f855 273d 114e 44bc
00000120: 4e50 84bc 73c3 aabc 403b d8bc 0000 0000
00000130: 4551 1abd 5324 5abc c94f 063d ea48 11bc
00000140: 517c b2bc a8ff c6bc 0000 0000 2e13 80bc
00000150: b4fc 54ba 9a88 78bc 41ee 85bc e4c8 7ebc
00000160: f3b5 84bc e377 22bd f472 c4bb b3e2 28bc
00000170: c527 673e 46d1 33bd 1f17 efbc 2148 99bd
00000180: 10ab 90bc 0000 0000 9498 e3bc 956d af3d
00000190: 18b4 84bc 8a5e 4bbc f343 53bc 95a8 03bd
000001a0: 1d1e bebc cbeb bebc 8e10 0ebd 04df 3b3c
000001b0: 84a1 9dbc 6611 4cbd 25e7 c93d 7d6a 093c
000001c0: 0000 0000 48c6 153d 762a 80bc 451f 9bbc
000001d0: f572 4f3c 8695 38bd 897c dcbc 4d49 afbc
000001e0: a250 1fbc 0000 0000 894d de3a 1287 e7bc
000001f0: be3a 00bc d874 6dbc 09f3 8d3d 184a 0ebc
00000200: 82bc 12bd bc86 bdbc 592a 8cbb 9cf8 01bc
00000210: a32b 033d 40e1 8dbc 6bd9 47bc 5bce 36bc
00000220: 1f2d 923c e686 dbbc 0000 0000 a903 95bc
00000230: 837c 58bd 5fbd 4ebd 9b56 063d 5728 3bbc
00000240: fd90 18bd 07a2 b6bc ea6b 1bbd 42e9 4cbd
00000250: dad6 bfbc f666 a4bc 0000 0000 1ff6 b43c
00000260: 6f01 31bd a452 ff3d 4a79 b3bc 43c1 c0bb
00000270: 210a 07bd 3043 963d e5e0 3dbc 9707 5c3d
00000280: e07b 9a3c d1b8 debc fdee 8fbc 5d21 8cbd
00000290: 0000 0000 908e c83c b9fd b0bc 5106 aebc
000002a0: 2fd8 f03d 38b7 f2bc a44f bdbc c07b 15bd
000002b0: 0000 0000 f0fb cbbc ee09 1bbd 3696 40bc
000002c0: 232e 07bc d32f 5abc a126 f63c 8a3a 3cbd
000002d0: 06e3 c2bc 8180 a6bc f253 d93c 7738 aabc
000002e0: e217 05bc 4e5b 23bd 2d2b 4cbc 4663 b0bc
000002f0: bfb1 22bd 697f 93bc 8038 523c d879 3bbd
00000300: 465e 08bd 50ba 9cbc 3a30 b23d 8033 afbd
00000310: 840f 073c 42d3 80bc 7485 42bc 0000 0000
00000320: 5423 b83c 0000 0000 efb8 5dbb 0000 0000
00000330: 10f5 a1bb 4e7e 84bc 6123 47bd 06bf 16bd
00000340: e383 0fbc 3007 a2bc 31ec 76bd bb4d b2bc
00000350: 9ed0 f3bc e138 623c 70a7 afbb 3889 bebc
00000360: 3b91 4fbc ec1b f3bc 0000 0000 c365 24bd
00000370: cf44 c83d 81c8 b83c fde4 22bd 31e0 bfbc
00000380: 7ee2 d1bc 2075 b9ba 60c0 3cbd eb22 0abd
00000390: f4e6 98bc 41b9 bd3c 17f0 32bd 926f 453d
000003a0: 1192 81bc 8b06 d8bb e7fe 103c 0000 0000
000003b0: c3cf bbbc c9b2 37bd 94f0 84bc 5d27 60bc
000003c0: 0000 0000 44ee 853d fac5 96bb 3669 1cbc
000003d0: 335f 0a3d 8baa d9bc 27aa 5dbc 17b7 55bc
000003e0: 0004 e23c b4b8 343d 342c 9dbc 0000 0000
000003f0: 8d5a e03d bc3a aabc 33e9 37bd 1830 2b3e

trunk.2.weight f4 [256, 256]
-0.12984082 0.013944267 -0.05421774 -0.044585794 -0.065458044 -0.03961992 0.07488842 0.005619896
0.12144036 -0.051859148 -0.108696565 -0.07413534 0.008290835 -0.09910356 -0.012137698 -0.1019493
-0.0717905 -0.034256484 -0.030978983 -0.24919708 -0.09416458 0.06082705 0.008823357 0.06520497
0.015226598 -0.05058134 -0.10807169 0.026850536 0.09978969 -0.017030781 -0.108011104 -0.04628901
0.046584222 -0.08138715 -0.009835738 0.009134037 0.00088083465 -0.0057311873 0.2953007 0.019299462
0.11553357 0.016905524 -0.09059319 -0.0058893394 0.111554064 -0.22748251 -0.020720389 -0.009231844
-0.05353603 -0.20549119 -0.0866492 -0.10773577 -0.074831806 -0.11792284 0.1131885 0.06437713
0.06184104 0.076848924 -0.068207875 -0.117187366 -0.14780405 -0.13330425 -0.12876561 -0.043989405
-0.0043220078 0.090057164 -0.090191305 -0.063260555 0.05428616 -0.030734543 -0.21197453 0.047617078
0.021104362 -0.00014214824 -0.017887125 0.03763 -0.049358767 -0.0061529167 -0.0896122 0.07063431
-0.07109803 -0.13850586 0.049769044 0.0049143396 0.08046831 -0.040496837 0.050571166 0.034055956
-0.23187809 -0.02073214 0.10573933 -0.12829825 -0.058150075 -0.13101612 0.036570165 -0.19167495
-0.021728726 0.0031502564 -0.00010029023 -0.046161693 0.0194722 -0.014951102 -0.1431126 0.012386203
0.14161791 0.03398104 0.018622037 -0.008447477 -0.10558019 -0.14201677 -0.094621815 -0.047365084
0.052420933 -0.0050982684 0.06344975 0.010145187 -0.048450742 -0.032320786 0.05842084 -0.07155159
-0.0011602122 -0.009742307 0.09539884 0.014831199 -0.04516818 -0.044304855 -0.15218484 -0.01984472
0.076893024 0.009916544 -0.039354816 0.021378836 -0.0770006 0.07403333 -0.06119149 0.0237269
0.011232124 -0.014709687 0.042614605 0.014547335 -0.060276587 -0.00566393 -0.18575153 -0.10269549
0.047170293 0.06235503 -0.09192676 -0.14302252 0.03989679 -0.05164262 0.095299885 -0.09541595
-0.025839815 0.051752694 -0.009201515 -0.09570383 0.13554567 -0.13642113 0.0029519561 0.02132295
-0.11202032 0.030684646 -0.024752928 -0.1406708 0.02704851 0.025045933 0.113621384 -0.02722499
-0.25661048 -0.0052241627 0.00060338184 -0.14135838 -0.09158021 -0.0023101037 0.09873378 -0.005742146
0.15461066 0.041099846 -0.07553144 0.078066856 -0.1461419 -0.030190218 -0.20122312 0.027536443
-0.07479378 -0.0813777 0.0458017 -0.017008642 0.10095698 -0.064926855 0.030849263 -0.19819914
0.16519533 0.034910362 -0.005750982 -0.119694784 -0.109390184 0.029172687 0.03975589 -0.11035165
-0.061213084 0.005493488 -0.30721316 0.14070857 -0.010148777 0.008088432 -0.05089249 -0.033433903
0.016582178 -0.006202551 -0.065013945 -0.022362206 -0.076660916 0.18042326 -0.0779447 -0.08526808
-0.1908883 0.06459661 0.060947444 0.025759086 -0.22417012 -0.045329683 -0.12125127 -0.16916107
-0.10028285 -0.061035547 0.049034063 0.02112504 -0.09213853 -0.12660389 -0.050579578 -0.04063887
-0.04873853 0.107276335 0.16336963 0.048184246 0.025350625 0.034760777 -0.0040788692 0.10622142
0.011925796 0.08662957 0.01778414 -0.07765603 0.021149771 0.07363156 -0.05865688 0.041270077
-0.055624958 -0.013871277 -0.06249816 -0.05669508 0.16144243 0.078343496 -0.12537171 -0.01771262
00000000: fef4 04be 7f76 643c 6c13 5ebd 989f 36bd
00000010: de0e 86bd 7f48 22bd 1a5f 993d 1b27 b83b
00000020: b9b5 f83d 426a 54bd 4e9c debd 45d4 97bd
00000030: 48d6 073c cff6 cabd 32dd 46bc cbca d0bd
00000040: e606 93bd 8750 0cbd a3c7 fdbc 852d 7fbe
00000050: 5cd9 c0bd c925 793d d78f 103c 2f8a 853d
00000060: fb78 793c 612e 4fbd b154 ddbd a8f5 db3c
00000070: 895e cc3d 2384 8bbc ed34 ddbd 8c99 3dbd
00000080: 19cf 3e3d 4eae a6bd 1326 21bc eea6 153c
00000090: d0e7 663a afcc bbbb a731 973e e819 9e3c
000000a0: dd9c ec3d 747d 8a3c ec88 b9bd 5cfb c0bb
000000b0: 7576 e43d 2df1 68be cebd a9bc 2941 17bc
000000c0: 9948 5bbd 486c 52be 2375 b1bd 92a4 dcbd
000000d0: 6b41 99bd 8881 f1bd 5fcf e73d 28d8 833d
000000e0: 084d 7d3d f862 9d3d 92b0 8bbd eeff efbd
000000f0: f259 17be e980 08be 22db 03be 3c2e 34bd
00000100: a19f 8dbb e46f b83d 38b6 b8bd c08e 81bd
00000110: 2a5b 5e3d 02c7 fbbc da0f 59be 200a 433d
00000120: 0ee3 ac3c a10d 15b9 0588 92bc ea21 1a3d
00000130: 6b2c 4abd 689e c9bb 9a86 b7bd b9a8 903d
00000140: d89b 91bd 7bd4 0dbe a0da 4b3d 7808 a13b
00000150: 92cc a43d 03e0 25bd b623 4f3d 427e 0b3d
00000160: 7371 6dbe 73d6 a9bc dd8d d83d 9e60 03be
00000170: c62e 6ebd 1729 06be 99ca 153d 7046 44be
00000180: 7100 b2bc 8874 4e3b e852 d2b8 0b14 3dbd
00000190: 2a84 9f3c 78f5 74bc 1c8c 12be 80ef 4a3c
000001a0: 4904 113e b42f 0b3d 3e8d 983c 4967 0abc
000001b0: 6d3a d8bd d86c 11be 15c9 c1bd e401 42bd
000001c0: 55b7 563d 600f a7bb f1f1 813d 0038 263c
000001d0: 4974 46bd cd62 04bd b14a 6f3d a489 92bd
000001e0: 4312 98ba 329e 1fbc 7860 c33d 8ffe 723c
000001f0: 4502 39bd 0279 35bd 58d6 1bbe 6591 a2bc
00000200: 177a 9d3d 0079 223c 8432 21bd ab22 af3c
00000210: 7eb2 9dbd c99e 973d eea3 7abd ea5e c23c
00000220: f106 383c e600 71bc a78c 2e3d f257 6e3c
00000230: 95e4 76bd 7d98 b9bb a635 3ebe 0352 d2bd
00000240: a335 413d fd67 7f3d 1944 bcbd 7f74 12be
00000250: d16a 233d 3687 53bd 962c c33d 7069 c3bd
00000260: 05ae d3bc a2fa 533d f3c1 16bc 5f00 c4bd
00000270: 7ccc 0a3e fbb1 0bbe 9b75 413b 78ad ae3c
00000280: e96a e5bd 5e5e fb3c a7c6 cabc 020c 10be
00000290: d694 dd3c 212d cd3c 54b2 e83d f106 dfbc
000002a0: 7362 83be 742f abbb 452c 1e3a 40c0 10be
000002b0: 688e bbbd 1c65 17bb f034 ca3d 9d28 bcbb
000002c0: 4252 1e3e 5058 283d 3ab0 9abd 84e1 9f3d
000002d0: 39a6 15be 7a51 f7bc 6f0d 4ebe 1b94 e13c
000002e0: 7b2d 99bd 5aa9 a6bd 909a 3b3d b555 8bbc
000002f0: 88c2 ce3d 5ff8 84bd 98b7 fc3c b7f4 4abe
00000300: f728 293e 2bfe 0e3d bc72 bcbb 8a22 f5bd
00000310: f607 e0bd 8ffb ee3c 12d7 223d 0c00 e2bd
00000320: 92ba 7abd b802 b43b 0b4b 9dbe e815 103e
00000330: 0e47 26bc 5885 043c a574 50bd fdf1 08bd
00000340: 59d7 873c c53e cbbb 0826 85bd f230 b7bc
00000350: 6600 9dbd e0c0 383e 79a1 9fbd 08a1 aebd
00000360: 3978 43be 3a4b 843d 07a4 793d b804 d33c
00000370: da8c 65be 9eab 39bd 9652 f8bd 8f38 2dbe
00000380: 1861 cdbd 6900 7abd f1d7 483d 6b0e ad3c
00000390: 20b3 bcbd 73a4 01be 882c 4fbd f274 26bd
000003a0: 0ea2 47bd b2b3 db3d 5e4a 273e d85c 453d
000003b0: 1dac cf3c 5161 0e3d 09a8 85bb 9e8a d93d
000003c0: 6a64 433c d86a b13d 0bb0 913c 200a 9fbd
000003d0: 4942 ad3c 25cc 963d 3242 70bd d00a 293d
000003e0: ffd6 63bd 5a44 63bc 12fe 7fbd 1a39 68bd
000003f0: 2a51 253e 8e72 a03d 7161 00be 0e1a 91bc

trunk.2.bias f4 [256]
-0.08355596 -0.1529063 -0.084626734 -0.05972746 -0.042344373 -0.010894308 -0.105431214 0.15797976
-0.094710134 -0.13203926 -0.18259683 -0.1368605 -0.07172006 -0.029236149 -0.013700678 -0.11416777
-0.054339007 -0.08240845 0.018041845 0.09069439 -0.072247945 -0.056517843 -0.045695465 0.003589871
-0.03350231 -0.084518336 -0.14837523 -0.05477517 -0.13047789 0.066226676 -0.18888308 0.027551508
0.7102381 -0.010740746 -0.045202002 0.2374653 -0.08608653 -0.14320698 -0.08102661 -0.018843621
-0.14929518 -0.0323444 -0.1305765 -0.06713572 -0.054793593 -0.046269137 -0.12945694 -0.14652057
-0.14505552 -0.090015545 -0.09138058 0.084521085 0.036734853 -0.051883206 -0.15973851 -0.035897337
-0.091889754 -0.13481645 -0.043406744 -0.034732338 -0.052739788 -0.115838215 -0.05328403 -0.030062584
-0.08533271 -0.08683514 0.7032502 -0.053581692 -0.05608154 -0.16162682 -0.06139294 0.056428444
-0.17529896 -0.024569193 -0.1343738 -0.019774307 -0.013386717 -0.11821537 -0.12213828 -0.026801184
-0.041162603 -0.10569623 -0.055508483 -0.16658829 0.036825173 -0.05731483 -0.11967945 -0.08178062
-0.016239079 0.0043317196 -0.055026993 -0.17176716 -0.07834281 -0.10190791 -0.21460171 0.24383728
0.02599019 -0.077626616 -0.08582906 -0.04101144 0.15133862 0.005233366 -0.014837939 -0.12525284
-0.12900335 -0.063503966 -0.08830618 -0.16886993 0.14608778 -0.08631249 0.44632432 -0.067425534
-0.0209022 0.33946297 -0.13151285 -0.107363425 -0.058663286 -0.10470309 0.03196753 -0.15563975
-0.043962352 0.13061605 0.44316435 -0.26032552 -0.14063342 0.3753676 0.101332165 -0.042948343
-0.06609536 -0.040355857 -0.12949236 -0.075672254 0.34898615 -0.16992049 -0.070352025 -0.05938729
-0.05499688 -0.08706304 -0.03512572 -0.107983224 0.03326804 -0.15342794 -0.07183688 -0.051739875
-0.037995405 -0.060571574 -0.27744913 -0.092560016 -0.06988844 -0.090939194 -0.016056841 -0.11716294
-0.050450504 -0.07687569 0.07346722 -0.19276862 0.16333891 -0.10219475 -0.031117503 -0.028283915
-0.2462176 -0.07861593 -0.03895329 0.5469679 -0.0686345 0.110137805 -0.14447789 -0.07392749
-0.08934707 -0.06654662 -0.22001499 -0.03868932 -0.070185915 0.055758707 0.55884033 -0.017014481
0.47576863 -0.06988317 -0.119640075 -0.11831151 -0.105340555 -0.039838012 -0.065729894 -0.061582856
-0.010071 0.021429485 -0.024044093 -0.0477596 -0.17191453 -0.1506781 0.3996214 -0.060405888
-0.06990678 -0.27199486 -0.0639601 -0.112877004 -0.094414264 -0.11428011 -0.10454359 -0.066889614
-0.10105961 -0.077808715 -0.087376304 0.007259509 -0.040866535 -0.05674679 -0.111942515 -0.10866806
-0.04143892 0.7290823 -0.17201489 -0.10803165 -0.068854176 -0.146835 -0.18494812 0.058849983
-0.03183459 -0.118554644 -0.02763662 -0.11614493 -0.17758855 -0.055695564 -0.058324557 -0.024185266
-0.060324904 -0.16803154 0.22046976 -0.24040793 -0.052557014 0.3547058 -0.19846854 -0.08133886
0.18641828 -0.07155558 -0.06554397 -0.09439768 -0.17550841 -0.039166957 -0.07825508 -0.09263235
-0.10746503 -0.049039643 -0.0668868 -0.13092385 -0.08914285 0.624953 -0.17444259 -0.12012055
-0.107677706 -0.12382065 -0.071886405 -0.050949946 -0.029727759 -0.05928856 -0.0588242 -0.08159045
00000000: 631f abbd 7893 1cbe c850 adbd c8a4 74bd
00000010: 4b71 2dbd 0a7e 32bc 52ec d7bd 72c5 213e
00000020: 63f7 c1bd 4d35 07be aafa 3abe 2925 0cbe
00000030: f8e1 92bd a680 efbc cf78 60bc cbd0 e9bd
00000040: 9492 5ebd c3c5 a8bd 7ecc 933c fbbd b93d
00000050: bbf6 93bd 417f 67bd 2b2b 3bbd 0b44 6b3b
00000060: b839 09bd f317 adbd adef 17be ee5b 60bd
00000070: ff9b 05be daa1 873d 916a 41be b3b3 e13c
00000080: 2ad2 353f f4f9 2fbc bc25 39bd 1b2a 733e
00000090: 224e b0bd daa4 12be 48f1 a5bd f05d 9abc
000000a0: d6e0 18be 907b 04bd d9b5 05be 747e 89bd
000000b0: 3f6f 60bd b584 3dbd 5c90 04be 7d09 16be
000000c0: 6f89 14be 125a b8bd be25 bbbd 6419 ad3d
000000d0: 4977 163d 7c83 54bd 7e92 23be 1609 13bd
000000e0: b230 bcbd 530d 0abe 45cb 31bd 7f43 0ebd
000000f0: ad05 58bd 963c edbd 5b40 5abd cf45 f6bc
00000100: eac2 aebd 9fd6 b1bd 3508 343f 7a78 5bbd
00000110: c2b5 65bd 8081 25be 2a77 7bbd 8321 673d
00000120: 9281 33be 5545 c9bc 4999 09be bafd a1bc
00000130: f653 5bbc e61a f2bd a223 fabd 288e dbbc
00000140: 1e9a 28bd 4477 d8bd dd5c 63bd 1f96 2abe
00000150: fed5 163d f5c2 6abd 801a f5bd 997c a7bd
00000160: d107 85bc 19f1 8d3b fc63 61bd bbe3 2fbe
00000170: 3272 a0bd 18b5 d0bd 8dc0 5bbe 7bb0 793e
00000180: 61e9 d43c b4fa 9ebd 25c7 afbd 9dfb 27bd
00000190: 83f8 1a3e a87c ab3b d41a 73bc 4842 00be
000001a0: 7419 04be 5e0e 82bd dfd9 b4bd 3dec 2cbe
000001b0: 0998 153e 9ac4 b0bd 9f84 e43e 6616 8abd
000001c0: 173b abbc 17ce ad3e 4eab 06be 5be1 dbbd
000001d0: ea48 70bd 936e d6bd 62f0 023d 0760 1fbe
000001e0: de11 34bd 37c0 053e 70e6 e23e 6349 85be
000001f0: 3502 10be 2f30 c03e 3d87 cf3d 9aea 2fbd
00000200: 015d 87bd 2f4c 25bd a599 04be 0efa 9abd
00000210: 50ae b23e a3ff 2dbe b914 90bd 1640 73bd
00000220: 6944 61bd 1b4e b2bd fddf 0fbd 4f26 ddbd
00000230: 1144 083d 371c 1dbe 371f 93bd 31ed 53bd
00000240: 12a1 1bbd e619 78bd d00d 8ebe 1b90 bdbd
00000250: ac21 8fbd 543e babd a389 83bc 20f3 efbd
00000260: 30a5 4ebd 0071 9dbd fb75 963d 2365 45be
00000270: 5142 273e 7b4b d1bd 22ea febc abb3 e7bc
00000280: 7720 7cbe 6401 a1bd 7c8d 1fbd 1706 0c3f
00000290: 3f90 8cbd ee8f e13d 03f2 13be 4c67 97bd
000002a0: 99fb b6bd 9849 88bd 9c4b 61be b178 1ebd
000002b0: a2bd 8fbd 3e63 643d 2910 0f3f f461 8bbc
000002c0: f297 f33e e81e 8fbd db05 f5bd 4e4d f2bd
000002d0: cabc d7bd 2f2d 23bd 659d 86bd 4e3e 7cbd
000002e0: d600 25bc e38c af3c 1ef8 c4bc 929f 43bd
000002f0: 5d0a 30be 5c4b 1abe 2d9b cc3e 2a6c 77bd
00000300: 492b 8fbd e942 8bbe 83fd 82bd 0f2c e7bd
00000310: 445c c1bd b10b eabd f31a d6bd 6cfd 88bd
00000320: 57f8 cebd 2d5a 9fbd 59f2 b2bd 2de1 ed3b
00000330: ab63 27bd 526f 68bd 1e42 e5bd 5c8d debd
00000340: dbbb 29bd 23a5 3a3f ac24 30be b33f ddbd
00000350: 6b03 8dbd ea5b 16be 0a63 3dbe ae0c 713d
00000360: fd64 02bd c7cc f2bd 3166 e2bc 65dd edbd
00000370: c6d9 35be 0821 64bd bbe5 6ebd 2e20 c6bc
00000380: 3f17 77bd 7610 2cbe d3c2 613e 7f2d 76be
00000390: 0646 57bd 009c b53e 563b 4bbe fd94 a6bd
000003a0: 6fe4 3e3e bb8b 92bd eb3b 86bd 9253 c1bd
000003b0: 7ab8 33be 886d 20bd 3344 a0bd 08b6 bdbd
000003c0: a016 dcbd cbdd 48bd f2fb 88bd e710 06be
000003d0: 8790 b6bd ebfc 1f3f 14a1 32be c301 f6bd
000003e0: 2186 dcbd ae95 fdbd 2e39 93bd e4b0 50bd
000003f0: a187 f3bc 90d8 72bd a5f1 70bd e518 a7bd

trunk.4.weight f4 [6, 256]
0.07145251 0.09056454 0.200706 -0.011267037 0.06462304 -0.0051294575 0.0013368675 0.008437114
-0.03738024 0.11393704 0.06800996 -0.004173254 -0.017327059 -0.078556105 0.018560193 0.031953495
-0.03234458 0.054459848 -0.031929377 -0.006623224 0.03741414 0.03644392 0.008752063 0.0037606964
-0.03372066 0.035506286 0.03636612 0.08864313 0.07760076 0.0189766 0.015551288 -0.11214604
-0.15794362 0.0053365654 -0.007024906 -0.022725847 0.09315928 0.005369016 0.060213454 -0.05396108
0.13712199 0.041886047 0.041638263 0.007812769 0.056888703 0.14616413 0.0002995333 0.010033202
0.0075251474 0.11791282 -0.03866815 -0.052038882 -0.021291643 0.026423527 0.38378626 -0.069354445
0.015280349 0.016982941 -0.022071328 -0.031165268 0.1725082 0.0010633332 -0.028256565 0.008084297
-0.030116571 0.0031765974 -0.089993834 0.03941728 0.114969626 0.014843388 -0.09663869 -0.047475576
0.03264433 -0.033468787 0.056525152 -0.0737295 0.07045847 -0.044671204 -0.02823184 -0.06835957
0.015706928 0.014917158 -0.040249873 0.06050682 -0.09138024 0.02126672 0.06521008 0.04122743
0.076908626 0.02318148 -0.047255535 0.00011673718 -0.09647841 0.06165713 0.06702998 0.012400551
-0.010030251 0.053435095 0.04940569 -0.068635695 0.035748452 -0.008868306 -0.0014741927 0.021201637
0.026647124 0.17666467 0.059296455 0.21597125 -0.015500806 -0.01881381 -0.13097976 0.06510912
-0.05296849 -0.011292106 0.31808317 -0.18134494 0.02668964 0.107519016 0.052790124 0.018746931
0.0054500536 0.021008147 0.03406733 0.13437013 -0.0016582648 0.05323366 -0.05757963 0.043612663
-0.12186437 -0.0060329773 0.26155668 -0.028344622 -0.02373555 0.21656777 0.026544396 0.04678136
-0.018615423 6.795453e-05 0.082171835 0.105518505 0.09097036 0.021718763 0.115254916 0.05812018
-0.036265116 -0.009106703 0.10422715 -0.015635513 0.14125305 0.12512271 0.21816856 -0.03511929
-0.12552546 0.1178328 0.00996068 0.036709305 -0.046350732 -7.100955e-05 0.034022763 -0.07047101
0.06346422 0.036287166 -0.010257327 -0.13717127 0.07105474 -0.035926342 0.026559735 0.021723788
0.06746496 0.03229887 -0.007536809 0.0069063795 0.052081384 -0.0044267676 -0.021454446 0.028039623
-0.07443131 -0.20004722 -0.0025143772 0.12713984 0.05561034 -0.09795451 0.0034097696 -0.0961957
0.10465818 -0.115670875 -0.08438994 -0.014525978 0.019082585 0.108723715 -0.0033112124 0.029892558
0.11198395 -0.023095075 0.07371037 -0.042414002 0.03972234 0.10958327 -0.0129114585 -0.02781899
-0.016586903 -0.018247364 0.112295285 -0.016914073 -0.042777933 0.04405363 0.045422673 0.045801196
-0.023758128 -0.089343384 0.034162253 -0.009124324 -0.22707327 0.060647156 0.041222766 0.003350579
-0.073550515 0.15365578 -0.07600263 0.07991857 0.13550065 0.29353976 -0.07395752 -0.007891846
0.05908949 0.13283141 -0.103480056 0.2578679 0.07375718 0.033486642 0.03263598 -0.02632363
-0.015183527 -0.024994856 0.032975186 -0.066397 -0.0050931037 -0.023016877 0.05560417 0.0843832
0.097616136 -0.0769395 -0.068277195 0.06910497 0.19375092 -0.027442966 0.099345095 0.01948187
0.08843035 -0.011527673 -0.06809215 -0.06340267 -0.053022575 -0.12263558 -0.040576886 -0.08159247
00000000: b255 923d e779 b93d e085 4d3e 6199 38bc
00000010: 1659 843d 0215 a8bb d439 af3a d23b 0a3c
00000020: 061c 19bd d357 e93d ce48 8b3d cbbf 88bb
00000030: 7af1 8dbc 06e2 a0bd 8c0b 983c abe1 023d
00000040: c07b 04bd 4a11 5f3d 61c8 02bd a107 d9bb
00000050: 923f 193d 3846 153d d064 0f3c 0476 763b
00000060: ad1e 0abd 0a6f 113d a4f4 143d 888a b53d
00000070: 26ed 9e3d d174 9b3c d4ca 7e3c d3ac e5bd
00000080: f9bb 21be 5bde ae3b 2f31 e6bb 8e2b babc
00000090: 4bca be3d 92ee af3b 62a2 763d 4b06 5dbd
000000a0: b569 0c3e b490 2b3d e28c 2a3d 2101 003c
000000b0: 2104 693d 0dac 153e ae0a 9d39 4d62 243c
000000c0: 8395 f63b 477c f13d 7e62 1ebd b926 55bd
000000d0: d06b aebc 2776 d83c a27f c43e b409 8ebd
000000e0: 6e5a 7a3c cf1f 8b3c eece b4bc 4e4e ffbc
000000f0: fda5 303e 8b5f 8b3a 507a e7bc 0074 043c
00000100: 07b7 f6bc 762e 503b b04e b8bd 0474 213d
00000110: 3275 eb3d af31 733c 81ea c5bd c075 42bd
00000120: 10b6 053d 9116 09bd eb86 673d 7eff 96bd
00000130: 884c 903d 27f9 36bd 7646 e7bc 1a00 8cbd
00000140: d1ab 803c 1867 743c 0ddd 24bd 00d6 773d
00000150: 9025 bbbd 8b37 ae3c dd8c 853d 18de 283d
00000160: 4582 9d3d 16e7 bd3c 058f 41bd ccd0 f438
00000170: 7996 c5bd 308c 7c3d 0447 893d ae2b 4b3c
00000180: ec55 24bc c2de 5a3d 9f5d 4a3d df90 8cbd
00000190: f86c 123d 5f4c 11bc b339 c1ba 0eaf ad3c
000001a0: 124b da3c 95e7 343e d7e0 723d 9127 5d3e
000001b0: 18f7 7dbc 6b1f 9abc 8f1f 06be ee57 853d
000001c0: 7df5 58bd 8602 39bc ccdb a23e 7db2 39be
000001d0: 3ba4 da3c ee32 dc3d 753a 583d 2a93 993c
000001e0: 5d96 b23b 4719 ac3c 2f8a 0b3d 5398 093e
000001f0: 225a d9ba 8a0b 5a3d 9ed8 6bbd 31a3 323d
00000200: 0794 f9bd 48b0 c5bb c2ea 853e fb32 e8bc
00000210: 0e71 c2bc f1c3 5d3e a273 d93c d09d 3f3d
00000220: 5f7f 98bc cf82 8e38 b549 a83d 161a d83d
00000230: ab4e ba3d 8ceb b13c c50a ec3d 6d0f 6e3d
00000240: bb8a 14bd 4834 15bc 0b75 d53d 0c16 80bc
00000250: a4a4 103e 2b20 003e 9467 5f3e 3fd9 0fbd
00000260: bf89 00be 5352 f13d 1f32 233c 7f5c 163d
00000270: 44da 3dbd f6ea 94b8 745b 0b3d 1b53 90bd
00000280: 87f9 813d daa1 143d 590e 28bc a076 0cbe
00000290: 2685 913d 8027 13bd cd93 d93c 16f6 b13c
000002a0: 122b 8a3d d24b 043d 56f7 f6bb e94e e23b
000002b0: 4a53 553d 6b0e 91bb 3cc1 afbc 5ab3 e53c
000002c0: 716f 98bd 2ed9 4cbe 40c8 24bb f230 023e
000002d0: abc7 633d 609c c8bd 7176 5f3b 4002 c5bd
000002e0: 0757 d63d dae4 ecbd a2d4 acbd 5efe 6dbc
000002f0: 1553 9c3c 8aaa de3d ed00 59bb 3de1 f43c
00000300: d757 e53d e231 bdbc 76f5 963d 4eba 2dbd
00000310: e4b3 223d 326d e03d 958a 53bc a7e4 e3bc
00000320: 42e1 87bc 7f7b 95bc 12fb e53d 628f 8abc
00000330: ea37 2fbd 9471 343d 200d 3a3d 099a 3b3d
00000340: 68a0 c2bc aaf9 b6bd b8ed 0b3d 307e 15bc
00000350: e585 68be 2769 783d 34d9 283d 6395 5b3b
00000360: a7a1 96bd f157 1d3e 44a7 9bbd 59ac a33d
00000370: afc0 0a3e d84a 963e 0a77 97bd cd4c 01bc
00000380: d207 723d f504 083e 5aed d3bd 4307 843e
00000390: 010e 973d 4a29 093d 4ead 053d a7a4 d7bc
000003a0: 54c4 78bc 03c2 ccbc fd10 073d 26fb 87bd
000003b0: 0de4 a6bb e48d bcbc 33c1 633d 19d1 ac3d
000003c0: f8ea c73d 7592 9dbd ead4 8bbd e886 8d3d
000003d0: a466 463e 12d0 e0bc 7175 cb3d 7198 9f3c
000003e0: f91a b53d 91de 3cbc e673 8bbd 42d9 81bd
000003f0: 332e 59bd 5d28 fbbd f333 26bd f419 a7bd

trunk.4.bias f4 [6]
-0.5187894 -0.6586436 0.6094661 -0.6655685 -0.72616106 -0.56554306
00000000: 62cf 04bf de9c 28bf f805 1c3f b262 2abf
00000010: b1e5 39bf 6ec7 10bf
