models/Env2/SAC_256_A5_S2_P/local_episode_1000_reward_200.000000.pt (torch, 297002 bytes, 6 tensors)

trunk.0.weight f4 [256, 23]
000000 82 5a 58 bd 92 f0 47 3d 65 07 ab bc ed 65 46 be
       -0.05282069 0.04881341 -0.02087755 -0.19374819
000010 36 dd 91 bd 8d ce 85 3d dc 76 26 3d 0c 6d 9d bd
       -0.07122271 0.06533537 0.040640697 -0.07686815
000020 09 c7 1e 3e 6a 29 1b be 97 e3 10 3c be 4d 7d bc
       0.15505613 -0.15152517 0.008843324 -0.01546043
000030 e3 68 95 bd ae 69 d1 bd d1 cb 49 bd b5 c8 f9 bb
       -0.07295396 -0.10225235 -0.04926664 -0.007622803
000040 eb c1 d7 bb f0 3e 6a 3c 30 1b 9e bc fc 0b 08 3c
       -0.006584396 0.014297232 -0.019300073 0.008303639
000050 af 98 26 be d8 47 00 3e 79 c8 97 bc a6 b3 88 3d
       -0.16269182 0.12527406 -0.01852821 0.0667489
000060 e4 49 4d bd 9f 8f b8 bd af 82 30 be b5 7e 18 be
       -0.050119296 -0.090117685 -0.17237352 -0.14892085
000070 ad 75 56 39 40 cf c3 bb 5e d5 a0 bb 4e a0 21 bd
       0.00020452468 -0.005975634 -0.004908248 -0.03945952
000080 90 6d 49 bd d5 2f 23 3e dd c0 e9 3d 29 36 84 bd
       -0.049176753 0.15936215 0.11413739 -0.06455643
000090 ec 56 d2 3d ef 2e c0 bd 6a bd 29 bd 69 03 61 3d
       0.10270485 -0.09383952 -0.041440405 0.054934893
0000a0 32 63 6f bd e7 09 ef bd b5 e1 8e 3c 8d fb 89 be
       -0.05844421 -0.116718106 0.01744161 -0.2694973
0000b0 59 71 8b bd 8e 05 f6 bd be 1c 17 be 3c 5e eb bc
       -0.06808729 -0.12012778 -0.14757058 -0.028731458
0000c0 bc 8c a7 3a b2 65 81 bc 93 86 4c bd 28 c4 7c bd
       0.0012783031 -0.015795562 -0.049933027 -0.061710507
0000d0 c3 b4 05 be ac 7c 6e 3d 9e f8 9b bc ec 47 5b bd
       -0.13057236 0.058224365 -0.019039448 -0.053535387
0000e0 be d3 48 3c 12 74 32 bd 7b 0b 72 bd cb a2 6e bd
       0.0122575145 -0.043567725 -0.05909298 -0.05826072
0000f0 bb b0 b1 bd 85 f7 ec 3d e3 60 b6 3b f0 b6 bf 3d
       -0.08676287 0.11570648 0.005565749 0.093610644
000100 6f b1 08 be 98 9e 0a be 01 aa c1 3d da 49 d6 bd
       -0.13348936 -0.13537061 0.09456254 -0.10463305
000110 a2 3e 1b be 86 a2 fd 3d d4 84 00 3d f6 ac 4b bd
       -0.15160611 0.123845145 0.031376675 -0.049725495
000120 00 85 cc bb 76 e5 72 bd ac d5 62 3d 4e 3b 4a 3d
       -0.006241441 -0.059300862 0.055379555 0.049372964
000130 48 6c 2a ba 16 4e 99 bc e0 42 2d bb 81 a0 92 bd
       -0.00065011205 -0.018713992 -0.0026437566 -0.0715952
000140 8a 40 3d bc 2a 02 8a bd e1 0b 96 3c d6 6e 4a bd
       -0.011551032 -0.06738694 0.018316211 -0.049422108
000150 18 19 b9 bd df b2 a6 3d 1d d6 b2 bd 7a af 41 bd
       -0.090379894 0.08139586 -0.08732245 -0.047286488
000160 4b 46 d9 bd 6a 7d 60 bc 62 bb 12 3d 8a f1 e8 bc
       -0.106091104 -0.013701776 0.035823233 -0.028435487
000170 9d cb e2 3c 13 9b 8e 39 ea d9 6f 3d 6d e0 23 bd
       0.027684981 0.0002719989 0.05855743 -0.04000895
000180 19 94 07 bd 35 e4 12 3d 48 fc 72 3d dd 8f 57 bc
       -0.03310022 0.035862166 0.059322625 -0.013156858
000190 06 82 1f bc 5a ae 5b bc 85 9f 36 be c5 3e 26 be
       -0.00973559 -0.013408268 -0.1783429 -0.16234882
0001a0 3b f4 92 bc 5f bf d2 bb fb 73 eb 3b 3a 49 9a 39
       -0.017938724 -0.0064315046 0.007185457 0.00029427727
0001b0 d6 9d 8e bd 57 59 ed bd cc df 5d bd 59 0a d7 bd
       -0.069636986 -0.11589306 -0.054168507 -0.105000205
0001c0 73 6c 2b 3e 6a 7f 24 be c9 86 3f be 04 22 c0 bd
       0.16740589 -0.1606423 -0.1870376 -0.09381488
0001d0 37 cd 91 bd 65 40 24 bd f7 cf 7f bc 96 d8 ed 3c
       -0.0711922 -0.040100474 -0.0156135475 0.02903394
0001e0 96 0c 42 bd 01 d9 99 3d f4 5f f6 3d 21 67 e2 bb
       -0.047375284 0.07512093 0.1203002 -0.0069092666
0001f0 f6 2a d3 bd 79 12 13 be 75 70 38 bd 1f e0 55 bc
       -0.103109285 -0.14362516 -0.045029122 -0.013053923
000200 39 74 43 bd fc 2d ce 3d af ec b4 bd 21 f0 30 be
       -0.04771826 0.100673646 -0.08834206 -0.17279102
000210 6c 66 ee 3d ad ef b5 bd b3 ea 92 bd e1 97 a3 3d
       0.11640629 -0.08883605 -0.071736716 0.07987953
000220 20 14 b9 3c 3d c1 79 3d f4 ee 63 bd 25 7a ea bd
       0.022592604 0.060975302 -0.055647805 -0.114490785
000230 f5 46 b3 bd 55 c4 13 bd da f2 01 be 8e e9 e9 3a
       -0.08753768 -0.03607591 -0.12690297 0.0017846094
000240 43 33 78 3d 64 4e 5a bd 32 10 cf 3b d5 40 96 3d
       0.060595762 -0.053297415 0.0063190693 0.073365845
000250 a2 d1 91 bc 7d e9 93 3c 20 71 4f bd 95 1c 14 be
       -0.017800156 0.018055672 -0.050644994 -0.14464028
000260 b0 ba c9 3d ad bd e5 3c 60 0d 34 3d 4e 62 5c bd
       0.09850061 0.028044546 0.043958068 -0.05380469
000270 28 ad 64 3c 1e 46 32 3c 11 e7 66 3d 93 c9 9c bd
       0.013957299 0.010880975 0.056372706 -0.07655635
000280 e1 c1 95 bd 99 5c 50 3d 64 c9 35 3d 70 3f a4 bd
       -0.0731237 0.050869558 0.044381514 -0.08019912
000290 db ff d0 bd cd d7 32 be bc 16 1c bd 05 b7 09 be
       -0.102050506 -0.17465134 -0.03810762 -0.13448723
0002a0 c4 52 e6 3c 3d 58 1d bd 68 0d 43 3d e6 06 d9 3d
       0.028115638 -0.03841423 0.047620207 0.10597019
0002b0 b5 da 01 be eb a8 05 3c df 17 4a bd 25 5e 02 3d
       -0.12681086 0.008157949 -0.04933917 0.031828064
0002c0 85 92 fd bc d3 47 c5 bc 0f 7d 52 3d 7e 8e 68 bd
       -0.030953655 -0.0240821 0.051388796 -0.056776516
0002d0 da 70 ac 3d 71 62 f3 3d 5b f1 ab bb 53 bc 7f bc
       0.08419962 0.118840106 -0.0052472777 -0.015608865
0002e0 c2 cd a2 bd b4 96 27 3d 7a c7 4b bd 9c 8b 9a bc
       -0.079494014 0.040915206 -0.049750783 -0.018865399
0002f0 2e 96 1f be 11 bf d2 bb 04 5d bd bc 07 9c 70 3b
       -0.15584633 -0.0064314683 -0.023115642 0.0036714093
000300 aa f7 24 3d 4e 6e ca bc 20 5c 12 3d 26 89 9a bc
       0.040275253 -0.0247108 0.03573239 -0.018864226
000310 64 97 ac bd 1d fc 3e bb 8a 75 01 bc 4f cd 7a 3d
       -0.08427313 -0.002914197 -0.007901559 0.061230954
000320 3b 3a fe bd 23 6c c7 3b 27 87 ea bd f7 30 c5 3d
       -0.1241345 0.006085889 -0.114515595 0.0962848
000330 d8 e3 f1 3c 03 43 5c 3d 2e 90 a0 bc 2d 5b 63 3e
       0.02952759 0.053774845 -0.0196 0.2220275
000340 ca 67 ff 3d 22 b3 1c be 7e d0 86 3d 8a 3a 10 bd
       0.12470968 -0.15302709 0.065827355 -0.035212077
000350 57 f0 86 be ac 5a 2f be ec d1 88 bd 21 ff 04 be
       -0.2635524 -0.17124432 -0.066806644 -0.12987949
000360 d5 a7 71 be 22 fc 9c 39 73 4b df bd 45 ba a9 bc
       -0.23599179 0.00029942492 -0.10903063 -0.020718703
000370 83 40 54 3d de 98 0f 3e 15 bd 40 bd c2 b5 5c be
       0.051819336 0.14023158 -0.047055323 -0.2155371
000380 45 92 a0 3d 59 0b 26 3e dd 5b c1 3d 0b 1c 52 bd
       0.07840399 0.16215266 0.0944135 -0.051296275
000390 b3 9c 42 3e 17 ba 58 be 83 4b dc bd 22 3a b5 3d
       0.19005089 -0.21164738 -0.1075659 0.088489786
0003a0 fa b2 c4 3c 77 0e fe bc 9e b9 e3 3c ff e0 22 3e
       0.024011124 -0.031012757 0.02779847 0.15906142
0003b0 55 8d 02 bc 7c 5c c9 bc 0b e5 02 be 18 72 12 be
       -0.0079682665 -0.024580233 -0.12782685 -0.14301336
0003c0 75 d6 06 3e 05 f9 e6 bd f1 3e cd be 7a e1 e9 bd
       0.13167746 -0.112779655 -0.40087083 -0.11419959
0003d0 a0 c2 1a 3e b8 78 28 be 29 1e 95 3c 2e 32 0d bc
       0.15113306 -0.164523 0.018202858 -0.008617921
0003e0 85 b5 03 be 89 84 88 bd a9 8d 5b 3e fb df ee bc
       -0.12862213 -0.06665904 0.21440758 -0.029159537
0003f0 d2 d5 7c 3c c3 6d 17 3e 5c 84 9d bd a8 eb df bc
       0.015431838 0.14787965 -0.07691261 -0.02733405

trunk.0.bias f4 [256]
000000 61 8a 7a bc 83 d3 29 bd 84 a1 bd bc 00 00 00 00
       -0.015291781 -0.04146148 -0.023148306 0.0
000010 f9 95 ff bc 3d 46 7e bc 28 a5 46 bc c4 8f d0 bc
       -0.031199442 -0.015519676 -0.012124337 -0.025459178
000020 40 e8 5e bc 72 29 ac 3c 6e f2 cf 3c e2 3e 06 bc
       -0.013605177 0.021015856 0.025384154 -0.008193703
000030 68 d7 58 3b 0d de bc bc 00 00 00 00 34 23 fa bc
       0.0033087377 -0.0230551 0.0 -0.030534364
000040 35 88 88 bc c5 70 f5 bc 5b fe 26 bc a5 4b f9 bc
       -0.016666511 -0.029961 -0.010192479 -0.030431578
000050 51 3c b5 bc c9 8c 41 bb a5 33 98 3c 5c f7 99 3c
       -0.022123488 -0.0029533377 0.018579314 0.018794708
000060 79 ed c2 bc fa 66 7d bd c5 47 1e 3c 2b 35 b7 bc
       -0.023794876 -0.061865784 0.009660666 -0.02236422
000070 fd 90 b7 bc 4c 07 90 bc a5 6e c9 bb db 65 02 bd
       -0.022408003 -0.017581604 -0.006147223 -0.03183542
000080 0b 33 e5 bc 0f eb 6e bc 63 ab a4 bb ab af 5b bc
       -0.02797844 -0.0145824095 -0.0050253137 -0.013408582
000090 00 00 00 00 fa 13 d2 bc bd 99 d3 bc 00 00 00 00
       0.0 -0.025644291 -0.025830144 0.0
0000a0 76 d4 81 bc a9 05 7d bb 9b 56 02 bd d3 18 d9 3c
       -0.01584838 -0.003860811 -0.031820875 0.026501095
0000b0 b5 1f 20 bc 09 dd bd 3b a7 c4 ad bc 40 3b 1a bc
       -0.009773185 0.0057941717 -0.021211935 -0.00941354
0000c0 8d af c7 bc e7 83 fd bc 00 00 00 00 00 00 00 00
       -0.024375701 -0.030946685 0.0 0.0
0000d0 e3 e1 d3 bc 00 00 00 00 33 92 d2 3c 00 00 00 00
       -0.025864547 0.0 0.025704479 0.0
0000e0 61 bc 81 bc 12 01 79 bc 00 00 00 00 e5 58 f2 bc
       -0.015836896 -0.015198009 0.0 -0.029583404
0000f0 b6 2c 29 bd cb 0c 03 bd 00 00 00 00 78 d4 f3 bc
       -0.041302405 -0.031994622 0.0 -0.029764399
000100 db 40 07 bd 00 00 00 00 4a 1f 37 bd 6a 7a 1e bd
       -0.033020835 0.0 -0.044707574 -0.038690962
000110 00 00 00 00 e5 85 d6 bc f8 55 27 3d 11 4e 44 bc
       0.0 -0.026186893 0.04085347 -0.011981503
000120 4e 50 84 bc 73 c3 aa bc 40 3b d8 bc 00 00 00 00
       -0.016151574 -0.02084515 -0.02639544 0.0
000130 45 51 1a bd 53 24 5a bc c9 4f 06 3d cc 00 80 bc
       -0.03767516 -0.013314324 0.032790933 -0.01562538
000140 51 7c b2 bc a8 ff c6 bc 00 00 00 00 2e 13 80 bc
       -0.021787794 -0.024291828 0.0 -0.015634146
000150 b4 fc 54 ba 9a 88 78 bc 41 ee 85 bc e4 c8 7e bc
       -0.0008124814 -0.015169287 -0.01634896 -0.015550826
000160 f3 b5 84 bc e3 77 22 bd f4 72 c4 bb b3 e2 28 bc
       -0.016200041 -0.039665114 -0.005995149 -0.010307956
000170 3c 26 61 3e 46 d1 33 bd 1f 17 ef bc 21 48 99 bd
       0.21987242 -0.04390075 -0.02918583 -0.074844606
000180 10 ab 90 bc 00 00 00 00 94 98 e3 bc ea c2 be 3d
       -0.017659694 0.0 -0.027782716 0.09314521
000190 18 b4 84 bc 8a 5e 4b bc f3 43 53 bc 95 a8 03 bd
       -0.016199157 -0.012412677 -0.012894618 -0.032143194
0001a0 1d 1e be bc cb eb be bc 8e 10 0e bd a9 9a 8f 3b
       -0.023207719 -0.023305794 -0.034683757 0.0043824506
0001b0 84 a1 9d bc 66 11 4c bd b2 ec d2 3d d2 41 8e 3c
       -0.019242056 -0.04982128 0.10299052 0.01736537
0001c0 00 00 00 00 48 c6 15 3d 76 2a 80 bc 45 1f 9b bc
       0.0 0.03656605 -0.015645247 -0.018935809
0001d0 f5 72 4f 3c e2 51 4b bd 6e 78 c8 bc 4d 49 af bc
       0.012661685 -0.049638636 -0.024471488 -0.021397257
0001e0 a2 50 1f bc 00 00 00 00 89 4d de 3a 12 87 e7 bc
       -0.009723814 0.0 0.0016960363 -0.028262649
0001f0 be 3a 00 bc d8 74 6d bc 1e 9e 88 3d 18 4a 0e bc
       -0.007826505 -0.01449319 0.066707835 -0.0086846575
000200 82 bc 12 bd bc 86 bd bc 59 2a 8c bb 9c f8 01 bc
       -0.035824306 -0.023135535 -0.004277509 -0.007932808
000210 2b 30 bb 3c 40 e1 8d bc 6b d9 47 bc 5b ce 36 bc
       0.022850117 -0.017319322 -0.012197833 -0.011157597
000220 1f 2d 92 3c e6 86 db bc 00 00 00 00 a9 03 95 bc
       0.017843781 -0.026797723 0.0 -0.018190222
000230 83 7c 58 bd 5f bd 4e bd 70 97 0a 3d 57 28 3b bc
       -0.05285312 -0.050473567 0.03383583 -0.011423192
000240 fd 90 18 bd 07 a2 b6 bc ea 6b 1b bd 42 e9 4c bd
       -0.037247647 -0.022294058 -0.03794471 -0.05002714
000250 da d6 bf bc f6 66 a4 bc 00 00 00 00 4b 4e ba bb
       -0.023417879 -0.020068627 0.0 -0.005685603
000260 6f 01 31 bd 2d bc 06 3e 4a 79 b3 bc 43 c1 c0 bb
       -0.043214258 0.13157721 -0.021908421 -0.0058824136
000270 21 0a 07 bd 42 7e a5 3d e5 e0 3d bc dd 5b 88 3d
       -0.032968644 0.080807224 -0.011589264 0.066581465
000280 36 00 90 3b d1 b8 de bc fd ee 8f bc c0 bd 95 bd
       0.0043945564 -0.027187737 -0.017570013 -0.073115826
000290 00 00 00 00 90 8e c8 3c b9 fd b0 bc 51 06 ae bc
       0.0 0.024482042 -0.02160536 -0.021243246
0002a0 b2 8d f3 3d 38 b7 f2 bc a4 4f bd bc c0 7b 15 bd
       0.118922606 -0.029628381 -0.023109265 -0.03649497
0002b0 00 00 00 00 f0 fb cb bc ee 09 1b bd 36 96 40 bc
       0.0 -0.024900407 -0.037851267 -0.011754563
0002c0 23 2e 07 bc d3 2f 5a bc a1 26 f6 3c 8a 3a 3c bd
       -0.008250746 -0.013317066 0.030047717 -0.045954265
0002d0 06 e3 c2 bc 81 80 a6 bc f2 53 d9 3c 77 38 aa bc
       -0.023789894 -0.020324947 0.026529286 -0.020778878
0002e0 e2 17 05 bc 4e 5b 23 bd 2d 2b 4c bc 46 63 b0 bc
       -0.00812337 -0.039881997 -0.012461466 -0.021531712
0002f0 bf b1 22 bd 69 7f 93 bc 80 38 52 3c d8 79 3b bd
       -0.039720293 -0.01800509 0.012830853 -0.045770496
000300 46 5e 08 bd 50 ba 9c bc 24 0d ba 3d 80 33 af bd
       -0.03329303 -0.01913181 0.090845376 -0.08554745
000310 84 0f 07 3c 42 d3 80 bc 74 85 42 bc 00 00 00 00
       0.008243445 -0.015725736 -0.011872638 0.0
000320 40 03 93 3c 00 00 00 00 ef b8 5d bb 00 00 00 00
       0.017945886 0.0 -0.0033832153 0.0
000330 10 f5 a1 bb 4e 7e 84 bc 4e 29 51 bd 06 bf 16 bd
       -0.004942544 -0.016173508 -0.05106478 -0.036803268
000340 e3 83 0f bc 30 07 a2 bc 31 ec 76 bd bb 4d b2 bc
       -0.008759472 -0.019778818 -0.060283843 -0.02176558
000350 9e d0 f3 bc e1 38 62 3c 70 a7 af bb 38 89 be bc
       -0.029762562 0.013807506 -0.0053605363 -0.02325879
000360 3b 91 4f bc ec 1b f3 bc 00 00 00 00 c3 65 24 bd
       -0.012668903 -0.0296764 0.0 -0.04013611
000370 b5 e0 bc 3d 81 c8 b8 3c fd e4 22 bd 31 e0 bf bc
       0.09222547 0.022556545 -0.03976916 -0.023422332
000380 7e e2 d1 bc 20 75 b9 ba 60 c0 3c bd eb 22 0a bd
       -0.025620695 -0.0014149286 -0.0460819 -0.033724707
000390 f4 e6 98 bc 41 b9 bd 3c c3 e2 48 bd 43 00 13 3d
       -0.018664815 0.023159625 -0.04904438 0.03588892
0003a0 11 92 81 bc 8b 06 d8 bb e7 fe 10 3c 00 00 00 00
       -0.01581672 -0.006592577 0.008849836 0.0
0003b0 c3 cf bb bc c9 b2 37 bd 94 f0 84 bc 5d 27 60 bc
       -0.022926217 -0.044848237 -0.016227998 -0.01368126
0003c0 00 00 00 00 44 ee 85 3d fa c5 96 bb 36 69 1c bc
       0.0 0.06539586 -0.0046012374 -0.009546569
0003d0 84 c5 98 3c 8b aa d9 bc 27 aa 5d bc 17 b7 55 bc
       0.01864887 -0.026570579 -0.013529337 -0.01304414
0003e0 64 78 aa 3c fd 5b 48 3d 7a 85 e7 bc 00 00 00 00
       0.02080936 0.04891585 -0.028261889 0.0
0003f0 82 ba e6 3d bc 3a aa bc 33 e9 37 bd a4 a7 28 3e
       0.11266042 -0.02077996 -0.04490013 0.164702

trunk.2.weight f4 [256, 256]
000000 fe f4 04 be 7f 76 64 3c 6c 13 5e bd 98 9f 36 bd
       -0.12984082 0.013944267 -0.05421774 -0.044585794
000010 de 0e 86 bd 7f 48 22 bd 1a 5f 99 3d 1b 27 b8 3b
       -0.065458044 -0.03961992 0.07488842 0.005619896
000020 b9 b5 f8 3d 42 6a 54 bd 4e 9c de bd 45 d4 97 bd
       0.12144036 -0.051859148 -0.108696565 -0.07413534
000030 48 d6 07 3c cf f6 ca bd 32 dd 46 bc cb ca d0 bd
       0.008290835 -0.09910356 -0.012137698 -0.1019493
000040 e6 06 93 bd 87 50 0c bd a3 c7 fd bc 85 2d 7f be
       -0.0717905 -0.034256484 -0.030978983 -0.24919708
000050 5c d9 c0 bd c9 25 79 3d d7 8f 10 3c 2f 8a 85 3d
       -0.09416458 0.06082705 0.008823357 0.06520497
000060 fb 78 79 3c 61 2e 4f bd b1 54 dd bd a8 f5 db 3c
       0.015226598 -0.05058134 -0.10807169 0.026850536
000070 89 5e cc 3d 23 84 8b bc ed 34 dd bd 8c 99 3d bd
       0.09978969 -0.017030781 -0.108011104 -0.04628901
000080 19 cf 3e 3d 4e ae a6 bd 13 26 21 bc ee a6 15 3c
       0.046584222 -0.08138715 -0.009835738 0.009134037
000090 d0 e7 66 3a af cc bb bb a7 31 97 3e e8 19 9e 3c
       0.00088083465 -0.0057311873 0.2953007 0.019299462
0000a0 dd 9c ec 3d 74 7d 8a 3c ec 88 b9 bd 5c fb c0 bb
       0.11553357 0.016905524 -0.09059319 -0.0058893394
0000b0 75 76 e4 3d 2d f1 68 be ce bd a9 bc 29 41 17 bc
       0.111554064 -0.22748251 -0.020720389 -0.009231844
0000c0 99 48 5b bd 48 6c 52 be 23 75 b1 bd 92 a4 dc bd
       -0.05353603 -0.20549119 -0.0866492 -0.10773577
0000d0 6b 41 99 bd 88 81 f1 bd 5f cf e7 3d 28 d8 83 3d
       -0.074831806 -0.11792284 0.1131885 0.06437713
0000e0 08 4d 7d 3d f8 62 9d 3d 92 b0 8b bd ee ff ef bd
       0.06184104 0.076848924 -0.068207875 -0.117187366
0000f0 f2 59 17 be e9 80 08 be 22 db 03 be 3c 2e 34 bd
       -0.14780405 -0.13330425 -0.12876561 -0.043989405
000100 a1 9f 8d bb e4 6f b8 3d 38 b6 b8 bd c0 8e 81 bd
       -0.0043220078 0.090057164 -0.090191305 -0.063260555
000110 2a 5b 5e 3d 02 c7 fb bc da 0f 59 be 20 0a 43 3d
       0.05428616 -0.030734543 -0.21197453 0.047617078
000120 0e e3 ac 3c a1 0d 15 b9 05 88 92 bc ea 21 1a 3d
       0.021104362 -0.00014214824 -0.017887125 0.03763
000130 6b 2c 4a bd 68 9e c9 bb 9a 86 b7 bd b9 a8 90 3d
       -0.049358767 -0.0061529167 -0.0896122 0.07063431
000140 d8 9b 91 bd 7b d4 0d be a0 da 4b 3d 78 08 a1 3b
       -0.07109803 -0.13850586 0.049769044 0.0049143396
000150 92 cc a4 3d 03 e0 25 bd b6 23 4f 3d 42 7e 0b 3d
       0.08046831 -0.040496837 0.050571166 0.034055956
000160 73 71 6d be 73 d6 a9 bc dd 8d d8 3d 9e 60 03 be
       -0.23187809 -0.02073214 0.10573933 -0.12829825
000170 c6 2e 6e bd 17 29 06 be 99 ca 15 3d 70 46 44 be
       -0.058150075 -0.13101612 0.036570165 -0.19167495
000180 71 00 b2 bc 88 74 4e 3b e8 52 d2 b8 0b 14 3d bd
       -0.021728726 0.0031502564 -0.00010029023 -0.046161693
000190 2a 84 9f 3c 78 f5 74 bc 1c 8c 12 be 80 ef 4a 3c
       0.0194722 -0.014951102 -0.1431126 0.012386203
0001a0 49 04 11 3e b4 2f 0b 3d 3e 8d 98 3c 49 67 0a bc
       0.14161791 0.03398104 0.018622037 -0.008447477
0001b0 6d 3a d8 bd d8 6c 11 be 15 c9 c1 bd e4 01 42 bd
       -0.10558019 -0.14201677 -0.094621815 -0.047365084
0001c0 55 b7 56 3d 60 0f a7 bb f1 f1 81 3d 00 38 26 3c
       0.052420933 -0.0050982684 0.06344975 0.010145187
0001d0 49 74 46 bd cd 62 04 bd b1 4a 6f 3d a4 89 92 bd
       -0.048450742 -0.032320786 0.05842084 -0.07155159
0001e0 43 12 98 ba 32 9e 1f bc 78 60 c3 3d 8f fe 72 3c
       -0.0011602122 -0.009742307 0.09539884 0.014831199
0001f0 45 02 39 bd 02 79 35 bd 58 d6 1b be 65 91 a2 bc
       -0.04516818 -0.044304855 -0.15218484 -0.01984472
000200 17 7a 9d 3d 00 79 22 3c 84 32 21 bd ab 22 af 3c
       0.076893024 0.009916544 -0.039354816 0.021378836
000210 7e b2 9d bd c9 9e 97 3d ee a3 7a bd ea 5e c2 3c
       -0.0770006 0.07403333 -0.06119149 0.0237269
000220 f1 06 38 3c e6 00 71 bc a7 8c 2e 3d f2 57 6e 3c
       0.011232124 -0.014709687 0.042614605 0.014547335
000230 95 e4 76 bd 7d 98 b9 bb a6 35 3e be 03 52 d2 bd
       -0.060276587 -0.00566393 -0.18575153 -0.10269549
000240 a3 35 41 3d fd 67 7f 3d 19 44 bc bd 7f 74 12 be
       0.047170293 0.06235503 -0.09192676 -0.14302252
000250 d1 6a 23 3d 36 87 53 bd 96 2c c3 3d 70 69 c3 bd
       0.03989679 -0.05164262 0.095299885 -0.09541595
000260 05 ae d3 bc a2 fa 53 3d f3 c1 16 bc 5f 00 c4 bd
       -0.025839815 0.051752694 -0.009201515 -0.09570383
000270 7c cc 0a 3e fb b1 0b be 9b 75 41 3b 78 ad ae 3c
       0.13554567 -0.13642113 0.0029519561 0.02132295
000280 e9 6a e5 bd 5e 5e fb 3c a7 c6 ca bc 02 0c 10 be
       -0.11202032 0.030684646 -0.024752928 -0.1406708
000290 d6 94 dd 3c 21 2d cd 3c 54 b2 e8 3d f1 06 df bc
       0.02704851 0.025045933 0.113621384 -0.02722499
0002a0 73 62 83 be 74 2f ab bb 45 2c 1e 3a 40 c0 10 be
       -0.25661048 -0.0052241627 0.00060338184 -0.14135838
0002b0 68 8e bb bd 1c 65 17 bb f0 34 ca 3d 9d 28 bc bb
       -0.09158021 -0.0023101037 0.09873378 -0.005742146
0002c0 42 52 1e 3e 50 58 28 3d 3a b0 9a bd 84 e1 9f 3d
       0.15461066 0.041099846 -0.07553144 0.078066856
0002d0 39 a6 15 be 7a 51 f7 bc 6f 0d 4e be 1b 94 e1 3c
       -0.1461419 -0.030190218 -0.20122312 0.027536443
0002e0 7b 2d 99 bd 5a a9 a6 bd 90 9a 3b 3d b5 55 8b bc
       -0.07479378 -0.0813777 0.0458017 -0.017008642
0002f0 88 c2 ce 3d 5f f8 84 bd 98 b7 fc 3c b7 f4 4a be
       0.10095698 -0.064926855 0.030849263 -0.19819914
000300 f7 28 29 3e 2b fe 0e 3d bc 72 bc bb 8a 22 f5 bd
       0.16519533 0.034910362 -0.005750982 -0.119694784
000310 f6 07 e0 bd 8f fb ee 3c 12 d7 22 3d 0c 00 e2 bd
       -0.109390184 0.029172687 0.03975589 -0.11035165
000320 92 ba 7a bd b8 02 b4 3b 0b 4b 9d be e8 15 10 3e
       -0.061213084 0.005493488 -0.30721316 0.14070857
000330 0e 47 26 bc 58 85 04 3c a5 74 50 bd fd f1 08 bd
       -0.010148777 0.008088432 -0.05089249 -0.033433903
000340 59 d7 87 3c c5 3e cb bb 08 26 85 bd f2 30 b7 bc
       0.016582178 -0.006202551 -0.065013945 -0.022362206
000350 66 00 9d bd e0 c0 38 3e 79 a1 9f bd 08 a1 ae bd
       -0.076660916 0.18042326 -0.0779447 -0.08526808
000360 39 78 43 be 3a 4b 84 3d 07 a4 79 3d b8 04 d3 3c
       -0.1908883 0.06459661 0.060947444 0.025759086
000370 da 8c 65 be 9e ab 39 bd 96 52 f8 bd 8f 38 2d be
       -0.22417012 -0.045329683 -0.12125127 -0.16916107
000380 18 61 cd bd 69 00 7a bd f1 d7 48 3d 6b 0e ad 3c
       -0.10028285 -0.061035547 0.049034063 0.02112504
000390 20 b3 bc bd 73 a4 01 be 88 2c 4f bd f2 74 26 bd
       -0.09213853 -0.12660389 -0.050579578 -0.04063887
0003a0 0e a2 47 bd b2 b3 db 3d 5e 4a 27 3e d8 5c 45 3d
       -0.04873853 0.107276335 0.16336963 0.048184246
0003b0 1d ac cf 3c 51 61 0e 3d 09 a8 85 bb 9e 8a d9 3d
       0.025350625 0.034760777 -0.0040788692 0.10622142
0003c0 6a 64 43 3c d8 6a b1 3d 0b b0 91 3c 20 0a 9f bd
       0.011925796 0.08662957 0.01778414 -0.07765603
0003d0 49 42 ad 3c 25 cc 96 3d 32 42 70 bd d0 0a 29 3d
       0.021149771 0.07363156 -0.05865688 0.041270077
0003e0 ff d6 63 bd 5a 44 63 bc 12 fe 7f bd 1a 39 68 bd
       -0.055624958 -0.013871277 -0.06249816 -0.05669508
0003f0 2a 51 25 3e 8e 72 a0 3d 71 61 00 be 0e 1a 91 bc
       0.16144243 0.078343496 -0.12537171 -0.01771262

trunk.2.bias f4 [256]
000000 63 1f ab bd 78 93 1c be c8 50 ad bd 8c d9 9a bd
       -0.08355596 -0.1529063 -0.084626734 -0.07561025
000010 4b 71 2d bd 0a 7e 32 bc 52 ec d7 bd 72 c5 21 3e
       -0.042344373 -0.010894308 -0.105431214 0.15797976
000020 85 21 e6 bd 4d 35 07 be 42 3e 4b be 29 25 0c be
       -0.11236862 -0.13203926 -0.19847968 -0.1368605
000030 f8 e1 92 bd a6 80 ef bc cf 78 60 bc cb d0 e9 bd
       -0.07172006 -0.029236149 -0.013700678 -0.11416777
000040 81 d0 8f bd c3 c5 a8 bd 7e cc 93 3c 2e 4b 9f 3d
       -0.07022191 -0.08240845 0.018041845 0.07778011
000050 bb f6 93 bd 41 7f 67 bd 2b 2b 3b bd 0b 44 6b 3b
       -0.072247945 -0.056517843 -0.045695465 0.003589871
000060 b8 39 09 bd f3 17 ad bd ad ef 17 be 28 b5 90 bd
       -0.03350231 -0.084518336 -0.14837523 -0.07065803
000070 ff 9b 05 be 4b 35 4e 3d 28 ae 51 be e8 50 77 3d
       -0.13047789 0.050343793 -0.20476592 0.060379893
000080 d4 7f 3f 3f 89 df da bc bc 25 39 bd 1b 2a 73 3e
       0.74804425 -0.026717918 -0.045202002 0.2374653
000090 22 4e b0 bd ea 7f 35 be 48 f1 a5 bd f0 5d 9a bc
       -0.08608653 -0.17724577 -0.08102661 -0.018843621
0000a0 d6 e0 18 be 90 7b 04 bd d9 b5 05 be 74 7e 89 bd
       -0.14929518 -0.0323444 -0.1305765 -0.06713572
0000b0 3f 6f 60 bd b5 84 3d bd 5c 90 04 be 4c af 34 be
       -0.054793593 -0.046269137 -0.12945694 -0.17644995
0000c0 6f 89 14 be 0c 4b ba bd be 25 bb bd 64 19 ad 3d
       -0.14505552 -0.09096345 -0.09138058 0.084521085
0000d0 49 77 16 3d 7c 83 54 bd 7e 92 23 be 16 09 13 bd
       0.036734853 -0.051883206 -0.15973851 -0.035897337
0000e0 b2 30 bc bd 53 0d 0a be 45 cb 31 bd 7f 43 0e bd
       -0.091889754 -0.13481645 -0.043406744 -0.034732338
0000f0 ad 05 58 bd 96 3c ed bd 5b 40 5a bd cf 45 f6 bc
       -0.052739788 -0.115838215 -0.05328403 -0.030062584
000100 04 e7 c3 bd 9f d6 b1 bd 58 d9 3c 3f 7a 78 5b bd
       -0.09565547 -0.08683514 0.7376914 -0.053581692
000110 c2 b5 65 bd 80 81 25 be cc 42 9e bd 9e be 7a 3d
       -0.05608154 -0.16162682 -0.07727584 0.061216943
000120 92 81 33 be 55 45 c9 bc 0e c9 1f be 08 5b 44 bc
       -0.17529896 -0.024569193 -0.1560404 -0.011984594
000130 f6 53 5b bc 0b 51 09 be a2 23 fa bd 28 8e db bc
       -0.013386717 -0.13409822 -0.12213828 -0.026801184
000140 1e 9a 28 bd 44 77 d8 bd dd 5c 63 bd 1f 96 2a be
       -0.041162603 -0.10569623 -0.055508483 -0.16658829
000150 04 29 fe 3c f5 c2 6a bd 80 1a f5 bd f7 bd c2 bd
       0.031025417 -0.05731483 -0.11967945 -0.09508889
000160 d1 07 85 bc 19 f1 8d 3b fc 63 61 bd bb e3 2f be
       -0.016239079 0.0043317196 -0.055026993 -0.17176716
000170 32 72 a0 bd 18 b5 d0 bd 8d c0 5b be 93 56 6b 3e
       -0.07834281 -0.10190791 -0.21460171 0.22982244
000180 da 99 25 3c b4 fa 9e bd 25 c7 af bd 9d fb 27 bd
       0.010107482 -0.077626616 -0.08582906 -0.04101144
000190 29 8d e2 3d a8 7c ab 3b d4 1a 73 bc 48 42 00 be
       0.110620804 0.005233366 -0.014837939 -0.12525284
0001a0 74 19 04 be 5e 0e 82 bd df d9 b4 bd 3d ec 2c be
       -0.12900335 -0.063503966 -0.08830618 -0.16886993
0001b0 09 98 15 3e 57 a1 cb bd 13 55 f0 3e 66 16 8a bd
       0.14608778 -0.099428825 0.46939906 -0.067425534
0001c0 17 3b ab bc 35 5d b6 3e d6 8d 1e be 5b e1 db bd
       -0.0209022 0.35617986 -0.15483794 -0.107363425
0001d0 ea 48 70 bd 11 cd d4 bd 62 f0 02 3d 07 60 1f be
       -0.058663286 -0.10390676 0.03196753 -0.15563975
0001e0 de 11 34 bd 37 c0 05 3e 89 9f f0 3e 28 6b 8d be
       -0.043962352 0.13061605 0.46996716 -0.27620816
0001f0 35 02 10 be 5c f3 c8 3e 57 62 f9 3d 72 d4 6b bd
       -0.14063342 0.39248168 0.1217696 -0.05757565
000200 82 a6 e6 bd 2e 00 73 bd a5 99 04 be 0e fa 9a bd
       -0.112622276 -0.059326343 -0.12949236 -0.075672254
000210 fd 07 b3 3e a3 ff 2d be b9 14 90 bd 51 b3 84 bd
       0.34967032 -0.16992049 -0.070352025 -0.064795144
000220 69 44 61 bd 1b 4e b2 bd fd df 0f bd 4f 26 dd bd
       -0.05499688 -0.08706304 -0.03512572 -0.107983224
000230 11 44 08 3d 37 1c 1d be 58 d3 9e bd 31 ed 53 bd
       0.03326804 -0.15342794 -0.07755154 -0.051739875
000240 12 a1 1b bd e6 19 78 bd d0 0d 8e be 1b 90 bd bd
       -0.037995405 -0.060571574 -0.27744913 -0.092560016
000250 ac 21 8f bd 54 3e ba bd b5 8e 72 bb 20 f3 ef bd
       -0.06988844 -0.090939194 -0.003701133 -0.11716294
000260 30 a5 4e bd 00 71 9d bd fb 75 96 3d 23 65 45 be
       -0.050450504 -0.07687569 0.07346722 -0.19276862
000270 51 42 27 3e 7b 4b d1 bd 22 ea fe bc ab b3 e7 bc
       0.16333891 -0.10219475 -0.031117503 -0.028283915
000280 77 20 7c be b4 0c a4 bd 7c 8d 1f bd 92 9e 11 3f
       -0.2462176 -0.080102354 -0.03895329 0.56882584
000290 3f 90 8c bd 47 28 d3 3d 03 f2 13 be 4c 67 97 bd
       -0.0686345 0.10310417 -0.14447789 -0.07392749
0002a0 99 fb b6 bd 98 49 88 bd 6a e1 59 be b1 78 1e bd
       -0.08934707 -0.06654662 -0.21277395 -0.03868932
0002b0 a2 bd 8f bd 4f af 40 3d 34 ba 0e 3f 30 69 c8 bc
       -0.070185915 0.047042187 0.55752873 -0.02446422
0002c0 a8 5d 02 3f e8 1e 8f bd db 05 f5 bd 4e 4d f2 bd
       0.5092416 -0.06988317 -0.119640075 -0.11831151
0002d0 03 44 f8 bd 64 b4 26 bd 65 9d 86 bd 4e 3e 7c bd
       -0.12122347 -0.040699378 -0.065729894 -0.061582856
0002e0 62 49 a3 bc 17 f0 4c 3d 1e f8 c4 bc 92 9f 43 bd
       -0.019932453 0.050033655 -0.024044093 -0.0477596
0002f0 5d 0a 30 be 5c 4b 1a be 07 d6 bf 3e 2a 6c 77 bd
       -0.17191453 -0.1506781 0.37467977 -0.060405888
000300 49 2b 8f bd e9 42 8b be 2d 90 78 bd 0f 2c e7 bd
       -0.06990678 -0.27199486 -0.06068437 -0.112877004
000310 44 5c c1 bd b1 0b ea bd f3 1a d6 bd 3f b6 ab bd
       -0.094414264 -0.11428011 -0.10454359 -0.0838437
000320 57 f8 ce bd 2d 5a 9f bd 59 f2 b2 bd 2d e1 ed 3b
       -0.10105961 -0.077808715 -0.087376304 0.007259509
000330 ab 63 27 bd 52 6f 68 bd 1e 42 e5 bd 5c 8d de bd
       -0.040866535 -0.05674679 -0.111942515 -0.10866806
000340 db bb 29 bd 4a c0 43 3f ac 24 30 be b3 3f dd bd
       -0.04143892 0.76465285 -0.17201489 -0.10803165
000350 0b 6d 8d bd ea 5b 16 be 0a 63 3d be ae 0c 71 3d
       -0.06905564 -0.146835 -0.18494812 0.058849983
000360 fd 64 02 bd c7 cc f2 bd d2 2f 2a bc a0 f7 01 be
       -0.03183459 -0.118554644 -0.010387378 -0.12692118
000370 67 b1 23 be 08 21 64 bd bb e5 6e bd 2e 20 c6 bc
       -0.15985642 -0.055695564 -0.058324557 -0.024185266
000380 3f 17 77 bd 76 10 2c be 5c b0 67 3e 7f 2d 76 be
       -0.060324904 -0.16803154 0.2262587 -0.24040793
000390 06 46 57 bd 00 9c b5 3e 33 42 31 be fd 94 a6 bd
       -0.052557014 0.3547058 -0.17310409 -0.08133886
0003a0 e0 22 3d 3e bb 8b 92 bd 0e 47 8d bd 92 53 c1 bd
       0.18470335 -0.07155558 -0.06898318 -0.09439768
0003b0 7a b8 33 be f1 a6 1d bd 33 44 a0 bd e8 b2 db bd
       -0.17550841 -0.038489286 -0.07825508 -0.10727483
0003c0 a0 16 dc bd cb dd 48 bd f2 fb 88 bd e7 10 06 be
       -0.10746503 -0.049039643 -0.0668868 -0.13092385
0003d0 87 90 b6 bd a7 c5 27 3f 14 a1 32 be c3 01 f6 bd
       -0.08914285 0.6553597 -0.17444259 -0.12012055
0003e0 21 86 dc bd ae 95 fd bd 2e 39 93 bd e4 b0 50 bd
       -0.107677706 -0.12382065 -0.071886405 -0.050949946
0003f0 a1 87 f3 bc 90 d8 72 bd a5 f1 70 bd e5 18 a7 bd
       -0.029727759 -0.05928856 -0.0588242 -0.08159045

trunk.4.weight f4 [6, 256]
000000 b2 55 92 3d e7 79 b9 3d e0 85 4d 3e 8d 3f 97 3b
       0.07145251 0.09056454 0.200706 0.00461573
000010 16 59 84 3d 02 15 a8 bb d4 39 af 3a d2 3b 0a 3c
       0.06462304 -0.0051294575 0.0013368675 0.008437114
000020 1f aa 07 bd d3 57 e9 3d bb a8 ab 3d cb bf 88 bb
       -0.033121224 0.11393704 0.08381792 -0.004173254
000030 7a f1 8d bc 06 e2 a0 bd 8c 0b 98 3c ab e1 02 3d
       -0.017327059 -0.078556105 0.018560193 0.031953495
000040 05 db 86 bc 4a 11 5f 3d 61 c8 02 bd 7f aa e8 b9
       -0.016461859 0.054459848 -0.031929377 -0.00044377518
000050 92 3f 19 3d 38 46 15 3d d0 64 0f 3c 04 76 76 3b
       0.03741414 0.03644392 0.008752063 0.0037606964
000060 ad 1e 0a bd 0a 6f 11 3d a4 f4 14 3d b5 11 d6 3d
       -0.03372066 0.035506286 0.03636612 0.10452596
000070 26 ed 9e 3d ca c8 0e 3d a6 bc ad b9 f6 53 e0 bd
       0.07760076 0.034859456 -0.00033137685 -0.10953514
000080 b5 ff 2d be b2 39 e4 ba 2f 31 e6 bb 8e 2b ba bc
       -0.16992076 -0.0017412214 -0.007024906 -0.022725847
000090 4b ca be 3d 59 91 0e 3d 62 a2 76 3d 4b 06 5d bd
       0.09315928 0.034806583 0.060213454 -0.05396108
0000a0 b5 69 0c 3e b4 90 2b 3d e2 8c 2a 3d 21 01 00 3c
       0.13712199 0.041886047 0.041638263 0.007812769
0000b0 21 04 69 3d 0d ac 15 3e ae 0a 9d 39 fd e5 f0 3c
       0.056888703 0.14616413 0.0002995333 0.029406542
0000c0 83 95 f6 3b 38 3e 93 3d 7e 62 1e bd b9 26 55 bd
       0.0075251474 0.07189602 -0.03866815 -0.052038882
0000d0 d0 6b ae bc 27 76 d8 3c a2 7f c4 3e b4 09 8e bd
       -0.021291643 0.026423527 0.38378626 -0.069354445
0000e0 6e 5a 7a 3c cf 1f 8b 3c ee ce b4 bc 4e 4e ff bc
       0.015280349 0.016982941 -0.022071328 -0.031165268
0000f0 fd a5 30 3e 8b 5f 8b 3a 50 7a e7 bc 00 74 04 3c
       0.1725082 0.0010633332 -0.028256565 0.008084297
000100 3a 42 a8 bb 76 2e 50 3b 82 24 c2 bd 04 74 21 3d
       -0.005134848 0.0031765974 -0.094796196 0.03941728
000110 32 75 eb 3d af 31 73 3c df 70 e6 bd d6 f9 df bc
       0.114969626 0.014843388 -0.11251997 -0.02734081
000120 10 b6 05 3d 91 16 09 bd 33 89 2b 3d 90 85 06 be
       0.03264433 -0.033468787 0.04187889 -0.13136888
000130 88 4c 90 3d e2 d5 eb bc 76 46 e7 bc 1a 00 8c bd
       0.07045847 -0.02878851 -0.02823184 -0.06835957
000140 d1 ab 80 3c 18 67 74 3c 0d dd 24 bd 00 d6 77 3d
       0.015706928 0.014917158 -0.040249873 0.06050682
000150 84 f6 89 bd 8b 37 ae 3c dd 8c 85 3d c2 4e fe 3c
       -0.06736472 0.02126672 0.06521008 0.031043414
000160 45 82 9d 3d 16 e7 bd 3c 05 8f 41 bd cc d0 f4 38
       0.076908626 0.02318148 -0.047255535 0.00011673718
000170 79 96 c5 bd 30 8c 7c 3d 04 47 89 3d bf f7 9f 3c
       -0.09647841 0.06165713 0.06702998 0.019527314
000180 e4 c6 bf 3b c2 de 5a 3d 9f 5d 4a 3d df 90 8c bd
       0.005852567 0.053435095 0.04940569 -0.068635695
000190 75 ac ff 3c 5f 4c 11 bc b3 39 c1 ba 0e af ad 3c
       0.031210164 -0.008868306 -0.0014741927 0.021201637
0001a0 12 4b da 3c 95 e7 34 3e d7 e0 72 3d 91 27 5d 3e
       0.026647124 0.17666467 0.059296455 0.21597125
0001b0 18 f7 7d bc 0a b2 c2 bc 59 5c fa bd ee 57 85 3d
       -0.015500806 -0.023766536 -0.12224645 0.06510912
0001c0 7d f5 58 bd b0 07 ab bc 90 1c 8f 3e 7d b2 39 be
       -0.05296849 -0.02087769 0.2795148 -0.18134494
0001d0 3b a4 da 3c 20 fb fc 3d 75 3a 58 3d 2a 93 99 3c
       0.02668964 0.12352586 0.052790124 0.018746931
0001e0 5d 96 b2 3b 47 19 ac 3c 21 18 14 3d e9 db 19 3e
       0.0054500536 0.021008147 0.036155824 0.15025295
0001f0 22 5a d9 ba a5 b0 05 3d f7 bd 80 bd 9d 51 87 3d
       -0.0016582648 0.032639164 -0.06286233 0.066073634
000200 cb 1c cb bd dd 99 c2 bc c2 ea 85 3e fb 32 e8 bc
       -0.09917601 -0.023755008 0.26155668 -0.028344622
000210 48 08 95 bc f1 c3 5d 3e a2 73 d9 3c 98 73 2b 3d
       -0.018192425 0.21656777 0.026544396 0.041858286
000220 5f 7f 98 bc cf 82 8e 38 b5 49 a8 3d 16 1a d8 3d
       -0.018615423 6.795453e-05 0.082171835 0.105518505
000230 ab 4e ba 3d 8c eb b1 3c 35 fc c8 3d 6d 0f 6e 3d
       0.09097036 0.021718763 0.0981373 0.05812018
000240 bb 8a 14 bd 48 34 15 bc 0b 75 d5 3d 0c 16 80 bc
       -0.036265116 -0.009106703 0.10422715 -0.015635513
000250 a4 a4 10 3e 2b 20 00 3e cb 90 46 3e 3f d9 0f bd
       0.14125305 0.12512271 0.19391172 -0.03511929
000260 bf 89 00 be 53 52 f1 3d 1f 32 23 3c 7f 5c 16 3d
       -0.12552546 0.1178328 0.00996068 0.036709305
000270 44 da 3d bd f6 ea 94 b8 74 5b 0b 3d 1b 53 90 bd
       -0.046350732 -7.100955e-05 0.034022763 -0.07047101
000280 87 f9 81 3d a6 69 a4 3d 59 0e 28 bc 3a e3 0b be
       0.06346422 0.08027963 -0.010257327 -0.13660899
000290 26 85 91 3d 8f 62 fb bb cd 93 d9 3c 16 f6 b1 3c
       0.07105474 -0.007671661 0.026559735 0.021723788
0002a0 12 2b 8a 3d d2 4b 04 3d 5b be 59 bd e9 4e e2 3b
       0.06746496 0.03229887 -0.053160053 0.0069063795
0002b0 4a 53 55 3d cb b3 12 3d cb f0 76 3c 37 c5 0c bc
       0.052081384 0.035815995 0.015072058 -0.008591942
0002c0 24 5b a8 bd 2e d9 4c be 40 c8 24 bb f2 30 02 3e
       -0.08220509 -0.20004722 -0.0025143772 0.12713984
0002d0 8b b9 22 3d 0c 27 75 bd 71 76 5f 3b 40 02 c5 bd
       0.03972773 -0.05985169 0.0034097696 -0.0961957
0002e0 73 26 56 3d d8 9b df bd a2 d4 ac bd 5e fe 6d bc
       0.05228276 -0.10918397 -0.08438994 -0.014525978
0002f0 15 53 9c 3c 8a aa de 3d c9 16 0a bc 3d e1 f4 3c
       0.019082585 0.108723715 -0.008428284 0.029892558
000300 d7 57 e5 3d e2 31 bd bc d0 0f 9f 3d 4e ba 2d bd
       0.11198395 -0.023095075 0.07766688 -0.042414002
000310 e4 b3 22 3d 32 6d e0 3d 95 8a 53 bc 8d 4c 90 bc
       0.03972234 0.10958327 -0.0129114585 -0.017614627
000320 42 e1 87 bc 7f 7b 95 bc 12 fb e5 3d 62 8f 8a bc
       -0.016586903 -0.018247364 0.112295285 -0.016914073
000330 ea 37 2f bd 94 71 34 3d 20 0d 3a 3d 09 9a 3b 3d
       -0.042777933 0.04405363 0.045422673 0.045801196
000340 68 a0 c2 bc 5f cb c1 bd b8 ed 0b 3d 30 7e 15 bc
       -0.023758128 -0.09462618 0.034162253 -0.009124324
000350 04 02 72 be 27 69 78 3d 34 d9 28 3d 63 95 5b 3b
       -0.23633581 0.060647156 0.041222766 0.003350579
000360 a7 a1 96 bd f1 57 1d 3e 6c 69 9b bd 21 ab ec 3d
       -0.073550515 0.15365578 -0.07588467 0.11556078
000370 92 e2 fd 3d d8 4a 96 3e 0a 77 97 bd cd 4c 01 bc
       0.123967305 0.29353976 -0.07395752 -0.007891846
000380 d2 07 72 3d f5 04 08 3e ee 3a b5 bd 43 07 84 3e
       0.05908949 0.13283141 -0.088491306 0.2578679
000390 01 0e 97 3d 4a 29 09 3d d7 1a 80 3d a7 a4 d7 bc
       0.07375718 0.033486642 0.06255119 -0.02632363
0003a0 59 30 81 bd 03 c2 cc bc 90 55 ca bc 26 fb 87 bd
       -0.0630805 -0.024994856 -0.024699003 -0.066397
0003b0 0d e4 a6 bb 07 37 b0 bc 33 c1 63 3d d4 de 31 3d
       -0.0050931037 -0.021510614 0.05560417 0.043425396
0003c0 f8 ea c7 3d 75 92 9d bd ea d4 8b bd e8 86 8d 3d
       0.097616136 -0.0769395 -0.068277195 0.06910497
0003d0 a4 66 46 3e f0 2d b1 bc 71 75 cb 3d 71 98 9f 3c
       0.19375092 -0.02162835 0.099345095 0.01948187
0003e0 f9 1a b5 3d 91 de 3c bc e6 73 8b bd 42 d9 81 bd
       0.08843035 -0.011527673 -0.06809215 -0.06340267
0003f0 33 2e 59 bd 5d 28 fb bd f3 33 26 bd f4 19 a7 bd
       -0.053022575 -0.12263558 -0.040576886 -0.08159247

trunk.4.bias f4 [6]
000000 2d 39 0e bf 6d 62 37 bf fb 9b 22 3f 71 72 3c bf
       -0.55555993 -0.7163456 0.6351926 -0.73612124
000010 d7 c3 50 bf fe 7e 27 bf
       -0.8154883 -0.6542815
