models/Env2/PDDRL_256_A5_S2_P/local_episode_1300_reward_400.000000.pt (torch, 293866 bytes, 6 tensors)

linear1.weight f4 [256, 23]
-0.36633265 0.028360173 0.1757748 0.13919398 -0.36579558 0.08566563 0.4477642 -0.13424179
-0.46177942 0.2019157 0.13119462 -0.2302434 -0.005488421 0.11493067 0.12272777 -0.07526362
0.028295409 0.21514349 -0.12020114 -0.07244265 0.21545938 -0.106890656 0.89945513 0.15181084
-0.0018463054 0.1225148 -0.2402459 0.1301102 0.021693558 -0.14186938 0.27822536 -0.025926873
0.16006744 0.07920289 0.0359681 0.048690666 -0.20795375 -0.4196198 0.13319255 0.14779554
0.058638692 0.2993434 0.18836373 -0.25107446 -0.53335005 -1.4589982 0.15070435 -0.039751135
0.12611735 -0.037133116 -0.21992281 0.0880214 0.060121767 0.108861536 0.018734343 -0.1709205
-0.34201926 -0.11227645 0.08524924 0.27515134 -0.09246068 0.1276059 -0.057154663 -0.124508046
0.20598777 0.4024259 0.8216755 -0.14149465 -1.4506598 -0.14381269 0.021025663 0.03696711
-0.032048546 -0.23542018 -0.20419991 -0.13704817 -0.09912434 -0.022353744 -0.22158869 -0.07456688
0.09987932 0.17044452 0.13131066 -0.14965558 0.17854235 -0.08821441 -0.18360718 -0.17087096
-0.044529248 -0.07996936 -0.12196056 -0.14841327 -0.038491942 -0.008774544 0.24089605 -0.47428867
-0.05578892 -0.13780554 0.26858798 0.20223592 0.2035444 0.30998018 0.0049785497 0.12193782
-0.022560174 0.17011386 -0.01568484 0.32692692 -0.11605851 -0.42179048 -0.51375264 0.11782279
0.09038729 0.0896999 -1.1595279 -0.18426001 0.040195707 0.09330699 0.278524 -0.27005574
-0.24231113 -0.7903405 -0.0034264387 0.14781204 0.046564 -0.05404566 0.2722654 -0.096756905
-0.10507717 0.11023178 0.02387747 0.06312227 0.10511513 0.06336012 0.081682205 0.037204083
0.56442285 -0.90631974 0.3077979 -0.09974311 -0.10946027 0.29119146 0.1318329 -0.44058585
0.13104959 0.22361109 0.060572684 -0.4022988 -0.24462038 -0.13848886 0.24979365 -0.07466639
0.12656456 -0.019460985 0.0029654454 -0.16063243 -0.017819654 0.32379073 0.7599986 0.6264437
-0.32073018 -0.54794914 0.14066805 0.1984654 0.22296794 0.107882544 0.013765848 -0.24612486
-0.07304709 0.38255486 -0.19453745 0.27332658 -0.12030971 -0.03857951 -0.21441725 -0.32155007
0.019485889 0.09640538 0.10172104 -0.14715935 0.33504513 -1.0121664 -0.12766992 -0.28640488
0.34745362 -0.5754935 -0.34367895 0.44095063 0.068993405 0.17605701 0.20238653 -0.10403427
0.17639491 -0.3495561 -0.4773448 0.035958003 -0.119235456 0.24283244 -0.11272328 -0.08333292
0.1235256 -0.13455875 -0.08881883 0.26096228 -0.51506585 -0.29490134 0.55080146 -0.40629783
-0.47592857 -0.15441188 0.14156087 0.12797785 0.25241378 0.08551825 -0.13819773 0.068276554
0.18011504 -0.0881486 0.0662947 0.20817111 -0.11393008 -0.18139628 0.05705589 0.28263074
0.15147218 0.43967152 -0.13275124 0.19921418 0.31472528 -0.7817966 -0.2694087 0.4051395
0.2827012 -0.18163319 0.034163665 -0.2205244 -0.002429091 0.44344997 -0.16455165 -0.30205497
-0.025875729 -0.24593303 -0.009541613 0.031386778 0.098586716 -0.520735 -0.14279638 -0.07647914
0.18205653 -0.16079664 0.9659212 0.5664481 0.21497455 -0.61392045 -0.051589336 0.12657037
00000000: f48f bbbe 9853 e83c 4ffe 333e de88 0e3e
00000010: 8f49 bbbe 7671 af3d 5941 e53e ae76 09be
00000020: 5a6e ecbe fdc2 4e3e e257 063e edc4 6bbe
00000030: 36d8 b3bb c560 eb3d b258 fb3d d023 9abd
00000040: c6cb e73c 934e 5c3e 042c f6bd d05c 94bd
00000050: 62a1 5c3e 7de9 dabd b142 663f 4d74 1b3e
00000060: bbff f1ba 0ae9 fa3d 0503 76be 9c3b 053e
00000070: b0b6 b13c 3546 11be 8e73 8e3e 9864 d4bc
00000080: b8e8 233e 2035 a23d 4953 133d dd6f 473d
00000090: d4f1 54be 68d8 d6be a163 083e b757 173e
000000a0: 202f 703d 8a43 993e 6ce2 403e d58c 80be
000000b0: a189 08bf 74c0 babf 3e52 1a3e 16d2 22bd
000000c0: e824 013e e518 18bd 7233 61be 9044 b43d
000000d0: 3e42 763d ccf2 de3d c478 993c c905 2fbe
000000e0: 261d afbe 32f1 e5bd 2797 ae3d a3e0 8c3e
000000f0: 065c bdbd 1fab 023e 021b 6abd 13fe febd
00000100: 75ee 523e c40a ce3e 5359 523f f9e3 10be
00000110: 38af b9bf a243 13be 033e ac3c d36a 173d
00000120: 5645 03bd fd11 71be c819 51be 5b56 0cbe
00000130: b401 cbbd 331f b7bc 25e8 62be 85b6 98bd
00000140: 878d cc3d 0289 2e3e 4d76 063e 503f 19be
00000150: ced3 363e c2a9 b4bd 8503 3cbe ccf8 2ebe
00000160: 4d64 36bd fac6 a3bd 75c6 f9bd a6f9 17be
00000170: baa9 1dbd 1bc3 0fbc 74ad 763e f7d5 f2be
00000180: ec82 64bd e51c 0dbe 5d84 893e ef16 4f3e
00000190: f16d 503e b9b5 9e3e 1a23 a33b 89ba f93d
000001a0: 1dd0 b8bc 5432 2e3e 7e7d 80bc f762 a73e
000001b0: 16b0 edbd ecf4 d7be 4b85 03bf 134d f13d
000001c0: f91c b93d 95b4 b73d 696b 94bf a8ae 3cbe
000001d0: 41a4 243d bc17 bf3d b39a 8e3e bf44 8abe
000001e0: 6920 78be c153 4abf 1a8e 60bb 0a5c 173e
000001f0: e5b9 3e3d fb5e 5dbd 5f66 8b3e 7c28 c6bd
00000200: b332 d7bd 33c1 e13d af9a c33c 4046 813d
00000210: 9a46 d73d f3c2 813d 0049 a73d 4f63 183d
00000220: 047e 103f 9204 68bf b097 9d3e 1e46 ccbd
00000230: b52c e0bd 0c17 953e 34ff 063e 7894 e1be
00000240: dd31 063e 4efa 643e 101b 783d 1cfa cdbe
00000250: c47d 7abe 06d0 0dbe e8c9 7f3e b1ea 98bd
00000260: 249a 013e a56c 9fbc eb57 423b d47c 24be
00000270: 86fa 91bc e6c7 a53e 458f 423f 9d5e 203f
00000280: bf36 a4be 6546 0cbf 490b 103e 843a 4b3e
00000290: b551 643e 86f1 dc3d 278a 613c 2808 7cbe
000002a0: b699 95bd 3bde c33e d334 47be 76f1 8b3e
000002b0: f064 f6bd 8c05 1ebd 3290 5bbe 36a2 a4be
000002c0: dfa0 9f3c 2f70 c53d 1f53 d03d f1b0 16be
000002d0: 098b ab3e ab8e 81bf e7bb 02be a9a3 92be
000002e0: 71e5 b13e 8b53 13bf b0f6 afbe 48c4 e13e
000002f0: 6a4c 8d3d 4a48 343e 6a3e 4f3e eb0f d5bd
00000300: dea0 343e 04f9 b2be 8a66 f4be b348 133d
00000310: b831 f4bd 11a9 783e 77db e6bd 73aa aabd
00000320: fdfa fc3d c5c9 09be a6e6 b5bd d99c 853e
00000330: 5bdb 03bf 4ffd 96be 5301 0d3f 4506 d0be
00000340: e9ac f3be 261e 1ebe 55f5 103e a00c 033e
00000350: 613c 813e 3124 af3d b583 0dbe 94d4 8b3d
00000360: 1470 383e 4187 b4bd 84c5 873d cf2a 553e
00000370: 2c54 e9bd f2bf 39be 70b3 693d fab4 903e
00000380: 861b 1b3e a01c e13e f1ef 07be cdfe 4b3e
00000390: ac23 a13e d223 48bf f0ef 89be 726e cf3e
000003a0: 36be 903e 0dfe 39be 33ef 0b3d 26d1 61be
000003b0: 6231 1fbb e00b e33e 3a80 28be f3a6 9abe
000003c0: 56f9 d3bc ded5 7bbe 6d54 1cbc 6c8f 003d
000003d0: d5e7 c93d e44e 05bf 3739 12be 18a1 9cbd
000003e0: 076d 3a3e e0a7 24be 9d46 773f be02 113f
000003f0: 4a22 5c3e e429 1dbf 574f 53bd aa9b 013e

linear1.bias f4 [256]
-0.09078248 0.235753 0.15683544 0.045639288 0.21183734 0.043360002 -0.08128244 0.023873508
0.17075004 0.31517196 0.14289053 0.040314186 -0.08540484 0.06377935 0.054972295 0.15248008
-0.1946769 -0.18910562 -0.054121777 -0.21026614 -0.03599329 -0.099894024 0.28664336 -0.12257824
0.008170799 -0.12785895 0.12026313 0.006932077 -0.072463945 -0.10045608 -0.23152408 0.15049055
0.20379606 0.03027986 -0.11160479 0.13582827 -0.06346262 -0.1257826 0.13379526 -0.0076788208
-0.24474195 -0.09149929 -0.20690806 -0.09976319 0.097801425 0.06936852 0.25679883 -0.07874818
-0.2073553 -0.033738222 -0.08295093 -0.12689891 0.11723923 -0.034134574 0.06358663 0.23061217
-0.0074258936 -0.04195919 -0.21633884 -0.26219887 -0.099816166 0.14125891 0.01635578 -0.010191424
-0.16661972 0.2429679 -0.18465072 -0.026488 -0.074476786 0.06789267 -0.23539712 0.005440369
-0.20844276 0.18103467 0.106646396 -0.2685178 0.015653713 0.16270298 -0.12191091 0.004374667
-0.0062745605 -0.020309916 0.03630479 0.03982133 0.10351338 0.29784042 -0.26934865 -0.23257706
0.020088246 0.1726641 0.28304288 -0.07413553 0.12468717 0.30642113 -0.2873603 -0.1566783
0.139308 -0.19068775 0.015741114 -0.11911095 -0.040990967 0.07177172 -0.13635367 0.23877
-0.18981865 -0.22402547 0.2370531 0.18715027 -0.25589278 -0.0040260307 -0.09237311 -0.085782535
-0.14049377 0.13623531 0.09877607 0.022772292 -0.32313105 0.122259535 0.11386801 0.113109566
0.23177148 -0.03113912 -0.028716935 0.12991296 -0.046299573 -0.04766807 -0.103895575 0.10465449
0.18212149 -0.02433353 -0.1551893 -0.12188458 0.0062858337 -0.08150149 -0.068509236 -0.14810863
-0.08618787 -0.046875123 -0.12856019 0.1364902 -0.042569548 -0.15313329 -0.14488728 -0.04393379
-0.03660204 -0.08758198 0.031897377 0.109223545 -0.111141875 -0.06706182 -0.11597786 0.19846074
0.044508062 -0.08695608 -0.009476034 -0.11087321 0.1655311 -0.10952928 0.123403646 -0.105739444
0.09255694 -0.056412354 -0.10931323 -0.07123385 0.070331626 -0.16180973 0.029833136 -0.14498098
0.074245036 0.16166922 0.088966906 0.09319797 0.06959929 -0.10026334 0.06647219 0.17169982
-0.044538673 0.09455694 0.04998115 -0.09875033 0.0074397614 0.13802443 0.10948896 -0.12228398
-0.11939857 -0.12379629 0.0032850006 -0.042624407 -0.120299414 0.16011411 0.062153984 0.29388225
-0.2063682 -0.39358366 0.106097974 -0.08899747 -0.15160906 -0.04174529 -0.007878636 0.26830456
0.17846783 0.20653771 0.021261882 0.16697784 0.22522737 0.06010039 -0.067912295 -0.101977214
-0.05055924 -0.1987993 -0.09170332 0.25405923 -0.21946193 -0.19822256 0.021113642 0.20154643
-0.19011904 0.1694124 -0.19353016 0.18099602 -0.16989152 0.033695985 -0.20413621 0.02290569
0.050231114 -0.03649362 -0.073798984 -0.074104756 0.072168164 -0.17535219 -0.27926907 -0.13492565
-0.1476332 0.024840808 0.027096389 -0.17659871 0.10824974 0.19184022 0.047949664 -0.091490194
0.23060106 0.0054111974 0.10986565 -0.12172261 -0.06336838 -0.14953962 -0.066327706 -0.1681502
-0.009677675 0.06592515 -0.11966183 -0.036282394 0.20051578 0.14411663 -0.33304542 0.2712638
00000000: 2aec b9bd 3c69 713e 7899 203e 43f0 3a3d
00000010: e3eb 583e 429a 313d 6877 a6bd 6092 c33c
00000020: 19d9 2e3e 385e a13e e551 123e 7d20 253d
00000030: bce8 aebd bf9e 823d a12a 613d bd23 1c3e
00000040: 6259 47be e7a4 41be ccae 5dbd 0250 57be
00000050: b36d 13bd 3d95 ccbd ebc2 923e 4d0a fbbd
00000060: d1de 053c 75ed 02be 844c f63d 7a26 e33b
00000070: fa67 94bd ebbb cdbd a614 6dbe 321a 1a3e
00000080: eaaf 503e 780d f83c 0d91 e4bd 9116 0b3e
00000090: b1f8 81bd 27cd 00be a001 093e 9e9e fbbb
000000a0: a29d 7abe fb63 bbbd b5df 53be a550 ccbd
000000b0: 1d4c c83d 1511 8e3d 237b 833e ba46 a1bd
000000c0: f354 54be 1731 0abd 2de2 a9bd caf1 01be
000000d0: 1f1b f03d b2d0 0bbd b539 823d 9925 6c3e
000000e0: e954 f3bb 66dd 2bbd ee87 5dbe ee3e 86be
000000f0: 6b6c ccbd 2da6 103e 8ffc 853c eef9 26bc
00000100: 5c9e 2abe 94cc 783e 1415 3dbe 5dfd d8bc
00000110: 4987 98bd 500b 8b3d f10b 71be 1f45 b23b
00000120: 0572 55be 2761 393e 6d69 da3d 2a7b 89be
00000130: 373c 803c 9c9b 263e 6dac f9bd 5e59 8f3b
00000140: d49a cdbb fb60 a6bc 55b4 143d b11b 233d
00000150: d3fe d33d 8a7e 983e 11e8 89be ae28 6ebe
00000160: 1b90 a43c dcce 303e ffea 903e 5ed4 97bd
00000170: fd5b ff3d 3be3 9c3e e420 93be 4770 20be
00000180: c2a6 0e3e a643 43be 82f3 803c 71f0 f3bd
00000190: 25e6 27bd 0dfd 923d 4ca0 0bbe 1f80 743e
000001a0: d25f 42be ef66 65be 0cbe 723e 52a4 3f3e
000001b0: 6104 83be cbec 83bb 1d2e bdbd c1ae afbd
000001c0: 99dd 0fbe 4581 0b3e 1c4b ca3d f58c ba3c
000001d0: 6f71 a5be 3563 fa3d a233 e93d fda5 e73d
000001e0: 8155 6d3e 7817 ffbc c73f ebbc e707 053e
000001f0: 9fa4 3dbd 983f 43bd 34c7 d4bd 1855 d63d
00000200: 0e7e 3a3e 1c57 c7bc f2e9 1ebe 9f9e f9bd
00000210: 65f9 cd3b 41ea a6bd 924e 8cbd caa9 17be
00000220: 4483 b0bd 2100 40bd 48a5 03be 16c4 0b3e
00000230: 685d 2ebd f9ce 1cbe 555d 14be ebf3 33bd
00000240: 05ec 15bd 2e5e b3bd d3a6 023d 98b0 df3d
00000250: 5a9e e3bd b557 89bd cd85 edbd 4b39 4b3e
00000260: 164e 363d 0716 b2bd 5e41 1bbc 7e11 e3bd
00000270: fc80 293e e350 e0bd 0dbb fc3d ec8d d8bd
00000280: 7e8e bd3d a410 67bd 9ddf dfbd 0ee3 91bd
00000290: 070a 903d 73b1 25be 9f64 f43c e575 14be
000002a0: c80d 983d 9e8c 253e 4834 b63d 94de be3d
000002b0: 138a 8e3d de56 cdbd 9222 883d 14d2 2f3e
000002c0: 2f6e 36bd 12a7 c13d 09b9 4c3d 9d3d cabd
000002d0: 3ec9 f33b 4756 0d3e bf3b e03d 0670 fabd
000002e0: 3d87 f4bd e988 fdbd 2a49 573b ee96 2ebd
000002f0: 8a5f f6bd f4f4 233e 2d95 7e3d bc77 963e
00000300: 2f52 53be cc83 c9be e549 d93d 4e44 b6bd
00000310: 683f 1bbe 1cfd 2abd 6515 01bc 375f 893e
00000320: 45c0 363e 9f7e 533e 662d ae3c 3dfc 2a3e
00000330: 01a2 663e d42b 763d 9a15 8bbd 6ed9 d0bd
00000340: 3517 4fbd 0b92 4bbe f3ce bbbd 0d14 823e
00000350: a1ba 60be dbfa 4abe 84f6 ac3c 3062 4e3e
00000360: 91ae 42be 727a 2d3e c52c 46be 0557 393e
00000370: 0bf8 2dbe cd04 0a3d 1509 51be b7a4 bb3c
00000380: 24bf 4d3d 567a 15bd ec23 97bd 3cc4 97bd
00000390: e7cc 933d 868f 33be 5bfc 8ebe f329 0abe
000003a0: 282d 17be f37e cb3c 3ff9 dd3c 4bd6 34be
000003b0: 0ab2 dd3d c371 443e de66 443d 365f bbbd
000003c0: af22 6c3e 6a50 b13b 3e01 e13d b449 f9bd
000003d0: 48c7 81bd ea20 19be d2d6 87bd 912f 2cbe
000003e0: 1c8f 1ebc c403 873d 4311 f5bd d99c 14bd
000003f0: 0254 4d3e 4f93 133e ee84 aabe 17e3 8a3e

linear2.weight f4 [256, 256]
-0.010443992 -0.61359125 -0.22338857 -0.019181408 0.36642817 -0.3105241 -0.73534155 -0.02350931
-0.13048758 -0.45906076 -0.15328121 -0.03440849 0.14170739 -0.20388749 -0.022441074 -0.89927816
-0.11147803 -0.010564724 -0.25490895 0.14644836 -0.36266366 -0.03965139 -0.123207785 -0.059978478
0.05770751 -0.46345684 -0.3203478 0.062218986 0.35167843 0.019473061 0.023348229 -0.05599195
0.110296965 -0.84322274 -0.7318892 0.3278609 -0.18332458 0.016139712 -0.22037175 0.34816405
-0.1894149 -0.34594145 0.06061212 -0.050236844 -0.01224507 0.008685194 -0.686955 0.2052442
0.41336122 -0.163096 0.26008612 -0.038686305 -0.12768123 0.08414168 -0.024887063 -0.3122981
0.25743482 -0.016114185 -0.010888761 -0.13036647 0.44597438 -0.14194746 0.69737726 -0.4454318
-0.12173315 -0.1895682 -0.08544268 0.011919305 0.07227768 0.01164224 -0.2874021 0.12876523
0.11084426 -0.20558068 -0.03466797 -0.37743098 -0.037793584 0.11445437 0.31409156 -0.029892221
0.10048443 -0.2169278 0.49863476 -0.16923644 0.24817498 -0.1967546 0.040430613 -0.0003912027
-0.27736852 -0.71550965 0.3255384 0.22011489 0.049392138 -0.114094496 -0.24111076 0.07965703
-0.35579434 -0.2823378 -0.027865835 -0.4785265 -0.2458453 -0.27535143 0.04117579 0.176784
-0.005593255 0.10729585 0.11722051 -0.9250659 -0.00076238316 -0.5600262 0.06530919 -0.514692
-0.016965315 0.061014455 0.07065439 0.018803233 0.1351909 -0.19643845 -0.015295368 0.25280708
-0.48183578 0.32924956 0.04207941 -0.17501345 0.6174795 0.4953169 0.043827705 0.030396953
-0.2955879 0.15900657 -0.15832467 0.17167589 -0.27469578 0.2794315 -0.061336827 -0.18080242
0.39579743 0.012021289 -0.00362368 -0.1434921 0.08066185 0.084203444 -0.4947933 0.06453683
-0.5512085 -0.054511704 0.3618258 0.4693425 -0.8157683 -0.4258358 -0.3622164 -0.21602865
0.0075101554 0.06813061 -0.1695834 -0.034793325 0.07151305 -0.012848419 -0.5430429 -0.053710498
0.3306224 0.08738629 -0.06353527 -0.25956592 -0.6146338 -0.44087014 -0.019569907 0.2202908
-0.06608178 -0.42165208 0.126816 -0.2625833 -0.46558794 -0.3145145 -0.010774529 -0.3592298
-0.19472931 -0.3703723 0.044118878 0.14089446 -0.17268032 -0.49261194 -0.36035275 0.30735844
-0.019064285 0.29216722 0.5303488 0.011034377 -0.13692167 -1.2298585 -0.8454476 -0.32169724
0.017485028 0.111831665 -0.37011677 0.09544982 -0.36815968 -0.0017088469 0.20470968 -0.3672566
-0.025698416 -0.31717962 -0.23744562 0.077264294 -0.87907064 0.02106234 0.005390756 -0.19674659
-0.016173068 0.39105722 0.03870531 -0.31738234 0.052622445 0.123260476 0.23010089 0.47717753
0.0457587 -0.6706014 -0.25859162 -0.07602925 -0.20134705 -0.2736852 0.5432122 -0.3489045
0.05335891 -0.3984325 -0.05125274 0.64445376 -0.0018170972 0.07621355 -0.12182458 -0.3111153
-0.42458826 -0.13227715 0.043238882 0.4549163 0.026739977 -0.0027367086 -0.73282725 0.12638608
0.035937376 -0.022744833 0.068117306 0.21132337 -0.031115592 -0.22210597 0.042399064 -0.5324196
-0.038946025 -0.18566221 0.11729601 -0.23113042 -0.2031083 -0.010566016 -0.16806932 -0.36732838
00000000: 471d 2bbc 5114 1dbf f9bf 64be 5422 9dbc
00000010: 799c bb3e 04fd 9ebe 583f 3cbf 9996 c0bc
00000020: 899e 05be 030a ebbe c0f5 1cbe ebef 0cbd
00000030: be1b 113e e2c7 50be 58d6 b7bc 1837 66bf
00000040: 984e e4bd aa17 2dbc 6d83 82be 8ff6 153e
00000050: 0daf b9be 7f69 22bd 5d54 fcbd feab 75bd
00000060: b65e 6c3d 374a edbe a004 a4be 56d9 7e3d
00000070: 320f b43e f885 9f3c c944 bf3c d157 65bd
00000080: 60e3 e13d 72dd 57bf 175d 3bbf 62dd a73e
00000090: 70b9 3bbe 6e37 843c 22a9 61be 8f42 b23e
000000a0: fbf5 41be 3d1f b1be 6a44 783d 26c5 4dbd
000000b0: 8c9f 48bc 584c 0e3c 48dc 2fbf 892b 523e
000000c0: 15a4 d33e a302 27be 022a 853e 8875 1ebd
000000d0: debe 02be 7952 ac3d f4df cbbc 89e5 9fbe
000000e0: 7fce 833e e501 84bc c666 32bc ca7e 05be
000000f0: c156 e43e ad5a 11be 5187 323f a30f e4be
00000100: 3b4f f9bd 2b1e 42be 92fc aebd 3049 433c
00000110: 5206 943d 18bf 3e3c 5e26 93be 08db 033e
00000120: 5102 e33d be83 52be 0000 0ebd a23e c1be
00000130: 72cd 1abd 0e67 ea3d 9cd0 a03e 88e0 f4bc
00000140: c8ca cd3d 5222 5ebe 0e4d ff3e 514c 2dbe
00000150: 9521 7e3e 0a7a 49be 929a 253d 561a cdb9
00000160: 3f03 8ebe a42b 37bf f8ac a63e cc65 613e
00000170: 694f 4a3d 60aa e9bd bde5 76be 3a23 a33d
00000180: ad2a b6be 958e 90be e446 e4bc 6d01 f5be
00000190: dfbe 7bbe ddfa 8cbe f2a7 283d dd06 353e
000001a0: a047 b7bb edbd db3d 4f11 f03d 1ed1 6cbf
000001b0: abda 47ba e15d 0fbf d3c0 853d dbc2 03bf
000001c0: d8fa 8abc 4bea 793d 40b3 903d 3d09 9a3c
000001d0: 7c6f 0a3e 2927 49be 6c99 7abc ee6f 813e
000001e0: 2eb3 f6be 6693 a83e 765b 2c3d ba36 33be
000001f0: 2313 1e3f 2d9a fd3e ae84 333d 0803 f93c
00000200: 4c57 97be 9ed2 223e dd1f 22be cecb 2f3e
00000210: eda4 8cbe a511 8f3e 533c 7bbd 4524 39be
00000220: f6a5 ca3e f1f4 443c 437b 6dbb 98ef 12be
00000230: 0a32 a53d db72 ac3d 8c55 fdbe e32b 843d
00000240: 001c 0dbf aa47 5fbd 3b41 b93e a94d f03e
00000250: 31d6 50bf 2607 dabe 6e74 b9be 9d36 5dbe
00000260: c017 f63b 1088 8b3d 45a7 2dbe 7283 0ebd
00000270: 6f75 923d 2d82 52bc dc04 0bbf 8aff 5bbd
00000280: 5747 a93e 95f7 b23d c81e 82bd d3e5 84be
00000290: a458 1dbf bbb9 e1be 1251 a0bc e993 613e
000002a0: e255 87bd c8e2 d7be 0edc 013e 5171 86be
000002b0: 8b61 eebe 0b08 a1be a687 30bc f8ec b7be
000002c0: 1f67 47be 70a1 bdbe ffb5 343d a346 103e
000002d0: 1cd3 30be a237 fcbe 2880 b8be 165e 9d3e
000002e0: b42c 9cbc f196 953e f0c4 073f 88c9 343c
000002f0: 3235 0cbe 016c 9dbf 416f 58bf 80b5 a4be
00000300: c33c 8f3c 0008 e53d f27f bdbe 327b c33d
00000310: 6d7f bcbe 63fb dfba 6a9f 513e 0f09 bcbe
00000320: 7c85 d2bc 5e65 a2be f224 73be be3c 9e3d
00000330: c60a 61bf ee8a ac3c f0a4 b03b f077 49be
00000340: 627d 84bc a738 c83e 7689 1e3d f07f a2be
00000350: a28a 573d fd6f fc3d 919f 6b3e 9d50 f43e
00000360: 7a6d 3b3d 89ac 2bbf 1f66 84be 39b5 9bbd
00000370: ec2d 4ebe 7720 8cbe f40f 0b3f 9ca3 b2be
00000380: df8e 5a3d 58ff cbbe 65ee 51bd ecfa 243f
00000390: aa2b eeba da15 9c3d 2a7f f9bd 814a 9fbe
000003a0: a263 d9be a973 07be 411b 313d caea e83e
000003b0: cc0d db3c 5a5a 33bb 919a 3bbf 5a6b 013e
000003c0: 1233 133d 5f53 babc 1681 8b3d 2765 583e
000003d0: 20e6 febc bf6f 63be a4aa 2d3d a74c 08bf
000003e0: de85 1fbd 3c1e 3ebe e438 f03d 74ad 6cbe
000003f0: 9ffb 4fbe 151d 2dbc 5d1a 2cbe 7712 bcbe

linear2.bias f4 [256]
-0.2049706 -0.088573694 -0.18554479 -0.21588834 -0.4319996 -0.31347993 -0.14910093 -0.25938317
0.01447388 -0.08824336 -0.13281037 -0.05898551 -0.2281196 -0.1389828 0.14591818 -0.23459026
0.11531389 -0.24070144 0.1475472 0.04464025 -0.1853129 -0.10814492 -0.07240202 -0.069416545
-0.4698252 0.27600607 0.11261602 -0.029512413 -0.1757287 0.2158072 0.00065312657 0.25074592
-0.054803785 0.092525564 0.18065871 -0.17484498 -0.5463658 0.18986355 -0.13294753 -0.17064214
-0.34339082 -0.40651107 -0.14019652 -0.0017720249 -0.08225259 0.63533527 -0.35077545 0.23494829
0.28529346 -0.3359974 0.058976635 -0.25864947 -0.29727134 0.29968065 0.15088429 -0.06100445
-0.28863168 -0.35278428 0.025471378 -0.35501856 -0.101928875 -0.48081324 -0.15802884 -0.2854218
-0.02547123 0.103404015 0.0027126537 -0.01504037 -0.2416999 -0.26698786 -0.20539226 -0.044499595
-0.013417317 0.13510278 -0.11144304 0.077050634 -0.22648323 0.20543657 0.19983074 -0.044768527
-0.08672094 -0.07490665 -0.14329168 -0.15282096 -0.1157856 0.104245484 0.07264812 -0.19246045
0.0105323 -0.2765343 -0.26027364 -0.211502 -0.3589785 0.1876777 -0.079286575 -0.0497548
0.10132708 -0.069601685 -0.107599266 0.022237318 -0.06857012 -0.60215497 -0.24478297 -0.03253538
-0.13111103 -0.21232882 -0.025977211 -0.02090975 0.41289043 -0.31268948 -0.0032865223 -0.056747764
-0.034613892 -0.19535212 0.2156299 -0.18386698 0.073051594 -0.14812917 -0.152809 -0.02682534
-0.14099868 0.115037344 -0.18964505 0.010756449 0.039356317 -0.19869366 -0.28116024 0.20947185
-0.054994848 0.089901686 -0.20432709 -0.30432412 0.039992772 -0.3883814 -0.06284382 -0.037239864
-0.10421282 -0.27873662 -0.034041326 -0.03059917 0.41597554 0.5443507 -0.17553964 -0.51477194
-0.34011525 0.027965661 0.2838675 -0.13352843 0.21432161 -0.26069623 -0.25335297 -0.040420033
-0.31986246 -0.1906597 -0.1177594 0.035560142 -0.039356265 -0.18828176 0.06267915 -0.15296344
-0.24676205 0.31844822 -0.07406096 0.0003402167 0.27574188 -0.07052888 -0.180821 0.11069511
-0.12912425 -0.1378375 -0.13982812 -0.0021636803 -0.040547155 0.20671293 -0.43200764 -0.03334726
-0.07767694 -0.012207841 -0.3917728 0.43413338 0.16150679 0.19117638 -0.6230431 -0.3941411
-0.072850905 0.1492165 -0.11229913 0.025619682 0.55340767 -0.024422249 -0.44715482 -0.2688229
0.06728032 -0.53779054 -0.096343495 0.13022536 -0.054228615 -0.0879243 -7.029217e-05 0.360123
-0.044161536 -0.04841492 -0.10198039 -0.36084768 -0.16831046 -0.39110667 -0.3338678 0.08473275
0.06744924 -0.3433883 0.16116498 -0.09120662 -0.2733805 -0.6290135 0.04949827 -0.12700224
-0.16360341 -0.35821268 0.0036588893 -0.093902305 -0.38800472 0.15297642 0.116678044 -0.058299422
-0.1356654 0.14144051 0.055996284 -0.4136319 -0.015671134 -0.118646175 0.0488074 0.13534057
-0.21251006 -0.13777809 -0.07843387 -0.34377077 -0.5102353 -0.051088046 -0.30896434 -0.07867583
0.2681734 -0.20779786 -0.014258144 -0.19792452 0.027135218 -0.25206068 -0.15696342 0.20924585
-0.027534803 -0.09113116 0.094774224 -0.32453793 -0.2542467 0.06343982 -0.08309351 0.26147765
00000000: d0e3 51be 2066 b5bd 74ff 3dbe d511 5dbe
00000010: 0d2f ddbe 7180 a0be eaad 18be dfcd 84be
00000020: da23 6d3c efb8 b4bd 71ff 07be ca9a 71bd
00000030: 2f98 69be 8251 0ebe 936b 153e 6e38 70be
00000040: b029 ec3d 707a 76be 9d16 173e b2d8 363d
00000050: aac2 3dbe 157b ddbd 8347 94bd 432a 8ebd
00000060: ee8c f0be ab50 8d3e 3aa3 e63d 04c4 f1bc
00000070: 39f2 33be 90fc 5c3e 9536 2b3a c561 803e
00000080: ef79 60bd 0b7e bd3d 99fe 383e 900a 33be
00000090: a1de 0bbf 976b 423e 6623 08be d0bc 2ebe
000000a0: ecd0 afbe 3822 d0be ad8f 0fbe 4a43 e8ba
000000b0: 0c74 a8bd 55a5 223f d798 b3be 4996 703e
000000c0: fc11 923e da07 acbe 7c91 713d b46d 84be
000000d0: f333 98be be6f 993e 6981 1a3e cddf 79bd
000000e0: 88c7 93be 24a0 b4be 5aa9 d03c fec4 b5be
000000f0: 16c0 d0bd 272d f6be 50d2 21be ce22 92be
00000100: 0aa9 d0bc 7cc5 d33d c7c6 313b e26b 76bc
00000110: 2e80 77be a2b2 88be 5952 52be 3545 36bd
00000120: 4ed4 5bbc 6258 0a3e 403c e4bd b9cc 9d3d
00000130: 38eb 67be f75d 523e 6ea0 4c3e 345f 37bd
00000140: c09a b1bd a868 99bd 0ebb 12be 197d 1cbe
00000150: 0021 edbd a87e d53d 8ac8 943d 5a14 45be
00000160: ab8f 2c3c e795 8dbe 9642 85be fb93 58be
00000170: 08cc b7be 952e 403e 0061 a2bd b0cb 4bbd
00000180: 9284 cf3d 548b 8ebd 015d dcbd 092b b63c
00000190: 7e6e 8cbd d426 1abf 63a8 7abe d243 05bd
000001a0: f841 06be ba6c 59be 29ce d4bc ed4a abbc
000001b0: 6066 d33e d618 a0be b262 57bb 5870 68bd
000001c0: 4cc7 0dbd 630a 48be 16ce 5c3e a047 3cbe
000001d0: 139c 953d 2caf 17be f679 1cbe d1c0 dbbc
000001e0: f561 10be b398 eb3d 5032 42be d13b 303c
000001f0: 1734 213d 5a76 4bbe 3cf4 8fbe ca7f 563e
00000200: 4742 61bd 601e b83d 1f3b 51be 5fd0 9bbe
00000210: 76cf 233d edd9 c6be 43b4 80bd d488 18bd
00000220: 886d d5bd 91b6 8ebe eb6e 0bbd 1cab fabc
00000230: bffa d43e 915a 0b3f aac0 33be 18c8 03bf
00000240: 9623 aebe 3e18 e53c 1557 913e adbb 08be
00000250: 2077 5b3e fa79 85be 7bb7 81be 7a8f 25bd
00000260: 03c5 a3be 4c3c 43be d72b f1bd 83a7 113d
00000270: 0934 21bd efcc 40be ed5d 803d 73a2 1cbe
00000280: 31af 7cbe a50b a33e 46ad 97bd 1d5f b239
00000290: 0a2e 8d3e 7271 90bd 2429 39be 1eb4 e23d
000002a0: 2639 04be 4625 0dbe 1a2f 0fbe 88cc 0dbb
000002b0: c614 26bd 8eac 533e 1b30 ddbe 2397 08bd
000002c0: 1615 9fbd 6503 48bc 7296 c8be bb46 de3e
000002d0: 0962 253e bec3 433e c17f 1fbf ddcc c9be
000002e0: db32 95bd 36cc 183e 16fd e5bd 5ee0 d13c
000002f0: 20ac 0d3f 2b11 c8bc 7af1 e4be 28a3 89be
00000300: 44ca 893d a4ac 09bf bd4f c5bd cc59 053e
00000310: d31e 5ebd a811 b4bd d269 93b8 0b62 b83e
00000320: bae2 34bd b94e 46bd 18db d0bd 07c1 b8be
00000330: 9459 2cbe 223f c8be b8f0 aabe 5d88 ad3d
00000340: d422 8a3d 97d0 afbe 6f08 253e 89ca babd
00000350: 87f8 8bbe 0707 21bf b3be 4a3d e00c 02be
00000360: a787 27be a767 b7be fac9 6f3b da4f c0bd
00000370: 8ea8 c6be daa5 1c3e e6f4 ee3d 60cb 6ebd
00000380: dfeb 0abe c8d5 103e 5c5c 653d 8fc7 d3be
00000390: c060 80bc c4fc f2bd 45ea 473d b896 0a3e
000003a0: 3d9c 59be b315 0dbe f0a1 a0bd b902 b0be
000003b0: c89e 02bf b341 51bd 9330 9ebe cb20 a1bd
000003c0: 064e 893e f6c8 54be fe9a 69bc baac 4abe
000003d0: ad4a de3c 190e 81be 05bb 20be 8b44 563e
000003e0: ab90 e1bc f9a2 babd fd18 c23d d629 a6be
000003f0: a02c 82be bdec 813d ee2c aabd 66e0 853e

linear3.weight f4 [3, 256]
0.14855497 -0.038056422 -0.062154196 -0.6515567 -0.90839237 -0.4865596 -0.06840996 -0.99147445
0.14842923 -0.016553124 0.40332177 -0.14127976 -0.02080079 -0.13335155 0.10349777 -0.29868788
0.7837687 0.30159694 -0.077131845 0.41993898 -0.4844226 -0.35375762 0.019082982 0.018525787
-0.053603765 0.54311615 0.014433841 -0.08158354 -0.0900945 0.010538159 -0.030199664 0.40560523
-0.4695063 -0.04100791 0.08729293 -0.6533806 -0.9662068 -0.07586739 -0.066588715 -0.811231
-0.3191196 -1.7666981 -0.39648196 0.057501625 0.0110190455 1.4921054 -0.44393405 0.091127716
0.17301841 0.116622366 0.31286955 -0.143951 -0.26460776 -0.9305669 1.2047442 -0.05250674
-0.36314553 -0.0024111273 0.43584988 -0.59006745 -0.017519312 -0.97451055 -0.045500204 0.11832917
0.06232228 0.18651655 -0.07723463 0.07700945 -0.13658342 -0.05596183 0.44170144 -0.005569433
0.13197412 -0.12254757 -0.034342747 -0.055211373 -1.2794887 -0.040729407 0.07869716 -0.10247084
0.12961365 -0.23656106 -0.10556677 0.09416271 0.08035554 0.19665106 0.013521302 -0.21108001
0.30864534 0.03768989 -0.5073967 -0.26471886 -0.59726495 0.7345221 -0.07124262 -0.0011877106
1.3012737 0.04531341 0.0016150366 0.41725633 0.01531916 -0.70674807 0.35081843 0.32107627
0.060168874 0.34462652 0.28067887 0.030315612 0.061857704 -0.17053999 0.011721296 0.023222974
0.29561946 -0.021986164 0.040600955 -0.20689131 0.28583878 0.31173587 0.4432762 0.03584023
-0.025665378 0.22410983 -0.049916 0.48876107 0.6562544 -0.51926106 -0.1074361 0.012614675
-0.041652214 0.871892 -0.008902251 -1.8897206 -0.012522311 -0.5126615 -0.251015 0.019463843
0.02117757 -0.012692467 0.30630437 0.10396233 1.4854231 0.644443 -0.5670792 -1.1814836
-0.67177093 -0.023444166 0.12401116 -0.2884164 0.18251275 -0.3384892 -0.66985476 -0.01823453
-0.029994091 -0.22043659 -0.16174117 -0.017353196 -0.019526776 0.099268995 0.046485852 0.074016914
-0.08083606 0.5327234 0.10051533 0.6132116 0.08143935 0.04440105 0.35480574 0.09887035
0.064970106 0.066414 -0.12132306 0.11640074 0.43515795 0.33008716 -0.14444399 0.045394402
-0.065432705 0.027149497 0.0015290922 0.27052647 0.7403948 1.3128695 -0.3654647 -0.23566076
-0.12232333 0.16653779 0.09500888 -0.021245418 2.0935795 0.041402154 -0.72675604 1.0320234
0.40237954 -0.111526586 -0.011474949 -0.010015477 -0.014554811 -0.0054686856 -0.065327205 -0.08815426
-0.04913611 0.06799005 0.062230166 -0.08941529 0.072037034 -0.30084997 -0.46454936 0.13233812
0.10341291 -0.13596697 -0.070621945 -0.8950408 0.10105388 -0.94675386 0.019417796 -0.32897905
-0.5038541 -0.13035949 0.044563957 -0.05307996 -0.15124324 0.34524384 -0.040496673 -0.0080031855
-0.09777718 -0.02885502 0.16975793 -0.17778513 -0.30073357 0.018568655 0.08521821 0.18169414
0.03297445 0.07377611 -0.8515878 -0.35815293 -0.5997257 -0.09803922 -1.2646712 1.3312317
0.23541324 0.3782611 0.0021072386 -0.13999939 -0.18386917 -0.28355834 0.0048734387 0.22052841
-0.23433769 0.015638625 0.06564574 0.105974965 -0.03558012 -0.011318204 -0.06749848 -0.0078643765
00000000: cb1e 183e 0de1 1bbd 6695 7ebd 6bcc 26bf
00000010: 678c 68bf 571e f9be 851a 8cbd 45d1 7dbf
00000020: d5fd 173e 6b9a 87bc 3180 ce3e a4ab 10be
00000030: 6b66 aabc 4f8d 08be a4f6 d33d 9eed 98be
00000040: 11a5 483f ea6a 9a3e 4df7 9dbd 3e02 d73e
00000050: 3d06 f8be b81f b5be ea53 9c3c 64c3 973c
00000060: 9f8f 5bbd a909 0b3f eb7b 6c3c 4515 a7bd
00000070: 7783 b8bd 3ea8 2c3c 4965 f7bc 7dab cf3e
00000080: 2163 f0be e9f7 27bd a3c6 b23d f343 27bf
00000090: 5459 77bf 5d60 9bbd aa5f 88bd d6ac 4fbf
000000a0: a563 a3be 2a23 e2bf afff cabe d386 6b3d
000000b0: 3a89 343c 4ffd be3f 534b e3be 2ba1 ba3d
000000c0: bd2b 313e b5d7 ee3d 7030 a03e e467 13be
000000d0: ab7a 87be a239 6ebf 0f35 9a3f 4f11 57bd
000000e0: 36ee b9be 0104 1ebb b727 df3e a90e 17bf
000000f0: a984 8fbc 8679 79bf 6c5e 3abd 9056 f23d
00000100: a645 7f3d 32fe 3e3e 312d 9ebd 21b7 9d3d
00000110: 86dc 0bbe 3b38 65bd b126 e23e ca7f b6bb
00000120: 3924 073e 38fa fabd fbaa 0cbd 5225 62bd
00000130: 49c6 a3bf e1d3 26bd fa2b a13d 3bdc d1bd
00000140: 71b9 043e 103d 72be 6433 d8bd 61d8 c03d
00000150: 7291 a43d e55e 493e 7388 5d3c 5c25 58be
00000160: c306 9e3e b760 1a3d c0e4 01bf 3b89 87be
00000170: 5be6 18bf a409 3c3f a7e7 91bd f4ac 9bba
00000180: 2390 a63f 8e9a 393d a3af d33a 9fa2 d53e
00000190: 37fd 7a3c 71ed 34bf 799e b33e 1c64 a43e
000001a0: a373 763d e372 b03e 24b5 8f3e 7258 f83c
000001b0: 815e 7d3d 09a2 2ebe ae0a 403c 1b3e be3c
000001c0: 6f5b 973e 541c b4bc 304d 263d 51db 53be
000001d0: 7659 923e d89b 9f3e 19f5 e23e 34cd 123d
000001e0: 3340 d2bc 0c7d 653e b874 4cbd e43e fa3e
000001f0: 4a00 283f 4bee 04bf 7507 dcbd c8ad 4e3c
00000200: 839b 2abd 5034 5f3f bfda 11bc 5de2 f1bf
00000210: 612a 4dbc c93d 03bf 0a85 80be a372 9f3c
00000220: 957c ad3c 11f4 4fbc edd3 9c3e 34ea d43d
00000230: 5822 be3f 37fa 243f 1a2c 11bf db3a 97bf
00000240: 2ef9 2bbf fb0d c0bc 90f9 fd3d 50ab 93be
00000250: 9fe4 3a3e 754e adbe 9a7b 2bbf 9560 95bc
00000260: 2bb6 f5bc 21ba 61be 7a9f 25be 4a28 8ebc
00000270: 9ef6 9fbc 8b4d cb3d f367 3e3d 2e96 973d
00000280: 608d a5bd 9060 083f fbda cd3d 6ffb 1c3f
00000290: adc9 a63d e0dd 353d 19a9 b53e 8a7c ca3d
000002a0: 0c0f 853d 1004 883d 3978 f8bd 8363 ee3d
000002b0: 06cd de3e 2f01 a93e 20e9 13be 7bef 393d
000002c0: 9501 86bd 9f68 de3c d26b c83a 7282 8a3e
000002d0: 838a 3d3f 1c0c a83f 301e bbbe 0e51 71be
000002e0: a784 fabd e288 2a3e 0494 c23d df0a aebc
000002f0: 35fd 0540 4e95 293d af0c 3abf 5819 843f
00000300: b104 ce3e 0d68 e4bd 6d01 3cbc f517 24bc
00000310: 4d77 6ebc a932 b3bb 45ca 85bd 388a b4bd
00000320: f242 49bd 5e3e 8b3d 0fe5 7e3d 5d1f b7bd
00000330: 2788 933d 0209 9abe 6ad9 edbe a583 073e
00000340: 26ca d33d ed3a 0bbe 3da2 90bd 6521 65bf
00000350: 56f5 ce3d 765e 72bf 1212 9f3c f16f a8be
00000360: 95fc 00bf f57c 05be b288 363d 5f6a 59bd
00000370: 82df 1abe cdc3 b03e d7df 25bd cb1f 03bc
00000380: 673f c8bd 5d61 ecbc 06d5 2d3e 4e0d 36be
00000390: c0f9 99be 4b1d 983c e386 ae3d 070e 3a3e
000003a0: 3810 073d ee17 973d a801 5abf d25f b7be
000003b0: a087 19bf c9c8 c8bd bfe0 a1bf cd65 aa3f
000003c0: 2b10 713e 70ab c13e 9919 0a3b 005c 0fbe
000003d0: 3348 3cbe 8f2e 91be 5eb1 9f3b 33d2 613e
000003e0: 38f6 6fbe 931c 803c 4671 863d 6709 d93d
000003f0: 76bc 11bd fd6f 39bc a53c 8abd 96d9 00bc

linear3.bias f4 [3]
0.27837127 -0.341997 0.009915695
00000000: ae86 8e3e 3b1a afbe 7075 223c
