models/Env2/PDDRL_256_A5_S2_P/local_episode_1850_reward_200.000000.pt (torch, 293866 bytes, 6 tensors)

linear1.weight f4 [256, 23]
000000 5d 44 bb bd 88 44 05 3e 2f 40 82 3d 2e 06 ca bd
       -0.09143899 0.13014424 0.06359898 -0.0986446
000010 dc cf 7e be 3c 35 dd bd c8 e4 91 3d 12 78 88 3d
       -0.2488398 -0.10801169 0.07123715 0.066635266
000020 79 2d 85 bd e9 93 b0 3b 57 5f af 3c 06 83 23 be
       -0.06502814 0.005388726 0.021407766 -0.1596795
000030 2f 98 97 3d d9 1c 3c 3d 64 39 49 3d b6 ac d1 bc
       0.074020736 0.04592595 0.049126998 -0.02559505
000040 8e 07 cf b8 fb cd b9 3d e9 3b d3 bb 86 6a 57 be
       -9.871936e-05 0.09072491 -0.006446351 -0.21036729
000050 91 e5 b8 3d 1b c2 9e bd be b1 d6 3d 85 24 7c bd
       0.09028161 -0.077518664 0.104831204 -0.061558265
000060 a1 d0 98 bd cc e6 36 be 3b a0 74 be 84 8a 1f 3e
       -0.07461668 -0.1786148 -0.23889248 0.15580183
000070 c6 b6 16 be 58 04 f5 bd 49 91 2e 3d a5 0b 03 bd
       -0.1471816 -0.11963719 0.042619023 -0.031993527
000080 2f 27 10 3e 4f f4 f8 bd e8 4f b0 ba db 11 11 be
       0.14077447 -0.12155973 -0.0013451548 -0.14166968
000090 16 3d 0e be 73 1c 42 be 72 6e 44 3d ac 0f 13 3d
       -0.1389049 -0.18956165 0.04795689 0.035903618
0000a0 99 37 c8 bc d4 d4 0e 3e 66 30 01 3e 71 fc 05 3d
       -0.024440574 0.13948375 0.12616119 0.03271145
0000b0 57 28 df bc 63 37 41 be 42 0d 20 3d d0 00 a0 bc
       -0.027240915 -0.18868785 0.039075144 -0.019531637
0000c0 a0 ad d6 3d f8 84 21 3e 85 32 49 be 65 db 33 3e
       0.10482335 0.1577338 -0.19648178 0.17564161
0000d0 64 b5 d3 bd 1d 54 9c 3d 04 05 2b 39 4b 91 a5 3d
       -0.10337332 0.07633231 0.000163097 0.08084353
0000e0 ae de c1 bd 54 8b 89 bc a9 0f 36 3d 39 c7 20 3e
       -0.09466301 -0.01679007 0.04444853 0.15700997
0000f0 88 82 0a ba 86 6c 19 3e aa 40 30 bd 8d fd 5f b9
       -0.0005283733 0.14982805 -0.04303042 -0.00021361392
000100 ae 5a e3 3d c1 27 37 3e b7 2f 79 3d a0 f2 80 3d
       0.1110128 0.17886259 0.06083652 0.06296277
000110 3a 4d ac bd c3 e7 99 bd 46 5f be 3d 2b 77 e0 3d
       -0.08413167 -0.07514908 0.09295516 0.109602295
000120 cd fe 24 3d 51 d7 1a be aa 0c ec bd 40 54 1f bd
       0.04028206 -0.15121199 -0.11525853 -0.038898706
000130 04 84 f4 3b 64 51 7e 3d b3 67 1c be c5 5d 1b b9
       0.0074620266 0.06208934 -0.15273933 -0.00014816884
000140 31 23 48 3e d6 16 7a 3e 82 35 4e 3e 36 a5 83 bd
       0.19544674 0.24422774 0.20137599 -0.06427996
000150 fc 20 80 3e 79 f6 ff bb 0a 1a ea bd e0 a3 a7 bd
       0.25025165 -0.0078113643 -0.11430748 -0.081855536
000160 2d 63 df 3c e5 14 c0 bd 0a 1e 5b be 4f 76 8f bd
       0.02726897 -0.09378985 -0.21398178 -0.070049874
000170 ba 0d a4 bd 53 53 57 bd e3 0c 27 bd 8b 6e 3e be
       -0.08010431 -0.0525697 -0.040783774 -0.18596856
000180 45 82 be 3c 93 e3 5f be 2c 3c 28 3e 45 9d 2a 3e
       0.023255477 -0.21864156 0.16429204 0.16661556
000190 89 a6 d6 3d 70 5e f8 3d a2 34 14 be b7 be ff 3d
       0.10480983 0.121273875 -0.14473203 0.12487548
0001a0 ef 93 9b bd 9d d1 32 bd d3 1a a3 bd ac 2a 1e 3e
       -0.075965755 -0.043656934 -0.07964101 0.15445966
0001b0 c2 a9 e7 bc d3 cb 36 be 1e 8c 07 be f2 20 1e 3e
       -0.028279189 -0.1785119 -0.13237044 0.15442255
0001c0 39 b8 88 3d 71 02 f6 3c 7c a2 57 be 56 fe 4d be
       0.06675763 0.030030461 -0.21058077 -0.20116553
0001d0 84 64 af bd e2 8d 51 be 23 c9 22 3e e5 b6 1b be
       -0.08564094 -0.2046428 0.1589704 -0.15206487
0001e0 1b b0 cb bd a0 d5 5a be 6e 5e cb 3c 6c 44 48 3d
       -0.09945699 -0.21370554 0.024825301 0.048893377
0001f0 a0 28 85 bc 48 7e d4 bd 9c ee 24 3e a0 da 4d bd
       -0.016254723 -0.10375649 0.16106647 -0.050257325
000200 53 57 1c 3e 90 82 17 3e 97 32 15 bd 98 b1 9e 3c
       0.15267687 0.147959 -0.0364252 0.019371793
000210 88 6f 23 be 60 b5 3c 3e 37 77 79 3d 6a 1f 86 bc
       -0.15960515 0.18428564 0.060904708 -0.016372401
000220 e3 f2 83 bb b9 fb ce bd 38 48 1c 3e 68 c3 1b be
       -0.004026757 -0.10106606 0.15261924 -0.1521126
000230 ee 79 99 3d 24 a1 e7 3d a2 ef aa 3c b9 1c 5d be
       0.07493959 0.11310032 0.020866219 -0.21592988
000240 49 d5 af 3d 51 1c 33 3d 70 5d 93 bd e6 7e f2 bd
       0.08585603 0.043728177 -0.07195556 -0.1184061
000250 d1 5e 89 bd bd 50 75 bd be 34 12 3e f2 b1 1a be
       -0.06707538 -0.05989145 0.14277932 -0.15106943
000260 7b 87 04 3e d6 6e 83 bd 4e 8c 40 3d c4 6a 21 bc
       0.12942307 -0.06417625 0.047008805 -0.009852115
000270 47 5d ad bd 4d ea f2 3b d7 b7 5e bc ef 26 71 3e
       -0.08465057 0.0074131847 -0.0135936355 0.23550008
000280 9b fa 4d be 49 65 f4 bd 22 19 77 3d 88 83 4a 3b
       -0.2011513 -0.11933381 0.060326703 0.0030901153
000290 49 9b cc 3d 43 07 ee 3d 35 21 6c 3b e9 50 e1 bc
       0.09990556 0.11622479 0.0036030535 -0.027504401
0002a0 3d 59 1e be 71 68 5a 3e 77 5a a9 ba 39 99 0d 3e
       -0.15463729 0.21328904 -0.0012920637 0.13827981
0002b0 c9 f5 39 bd a5 e2 30 3e 82 66 22 be 7f e6 29 be
       -0.045400415 0.17273958 -0.15859416 -0.16591834
0002c0 5e 33 db bd 92 96 17 3b 3f d4 91 bc dd 54 33 be
       -0.10703157 0.0023130518 -0.017801402 -0.17512842
0002d0 1d d6 0d 3e c3 a3 53 be fc e0 d3 3d 6c 8d bb 3c
       0.13851209 -0.20667939 0.10345647 0.022894584
0002e0 63 23 2e 3e 6f 49 1f be 62 b7 4b be b1 98 11 3e
       0.17005686 -0.15555356 -0.19894174 0.14218403
0002f0 55 98 ea bd 18 b4 3a 3c 81 1c ff 3d 06 76 db bc
       -0.11454836 0.011395477 0.124566086 -0.026789676
000300 d4 c7 db 3d f8 cb 44 be 34 40 35 be 72 72 3f 3e
       0.107314736 -0.19218433 -0.17700273 0.18696001
000310 bf 6a 3c be 1c 90 b0 3c f0 75 1a 3b db 21 09 3e
       -0.18400095 0.021553092 0.0023568831 0.13391821
000320 1b 3d 3a 3e ec df 34 bd b8 14 2b bc 15 c8 57 bd
       0.18187372 -0.04415886 -0.010441951 -0.052681047
000330 c7 7e d5 bd b7 9e 70 bd 4f 11 2e 3e fe 7c 17 be
       -0.104245715 -0.058745112 0.1699879 -0.14793774
000340 47 4b 00 be f6 f3 af bd ce 39 21 3c 62 45 01 3c
       -0.12528716 -0.08591454 0.009840442 0.007890077
000350 52 a6 d4 3d a9 e4 b6 3d 92 ec 83 bd c9 1c 10 3e
       0.103832856 0.08930332 -0.064416066 0.1407348
000360 04 e7 85 3e 88 5c 94 bc a1 3a 14 3d 4d c5 84 3e
       0.26152813 -0.018110529 0.036188725 0.2593178
000370 f4 7a 94 3d ba 89 13 3b 45 e0 93 3d 96 13 60 bc
       0.07250014 0.0022512511 0.072205104 -0.013676545
000380 df d7 ec 3c d5 7e 3e 3e 1b d9 5a bd 59 f0 f0 bc
       0.02891153 0.1860307 -0.053429704 -0.029411482
000390 61 40 4b bc 8a 38 c6 bd 78 24 f2 bd 50 35 b9 3d
       -0.012405486 -0.09678753 -0.11823362 0.09043372
0003a0 1a a7 ab 3d bb 2e 6f be 13 91 7f bd 14 6a 35 bc
       0.083814815 -0.2335767 -0.062394213 -0.011072654
0003b0 45 b6 ad bd d2 2e 32 3e ed ce 45 be c9 6a 69 be
       -0.08482031 0.17400673 -0.19317217 -0.22794642
0003c0 a7 11 17 3d d6 a2 64 be ed 91 48 be 38 95 d8 3d
       0.03688207 -0.22327742 -0.19586916 0.10575336
0003d0 ef 81 9a 3d 80 89 0f be 16 d2 d8 bd ce d9 65 bb
       0.07544314 -0.14017296 -0.10586946 -0.0035072449
0003e0 35 71 15 3e 28 df 0b be a9 79 29 3c 3e 43 39 3e
       0.14593966 -0.13659346 0.010343947 0.18092057
0003f0 23 59 b9 3c d7 19 0d be e4 e9 3e be e4 fc 7e bd
       0.022625512 -0.13779388 -0.1864391 -0.062252894

linear1.bias f4 [256]
000000 62 f0 93 3d 6b 19 e8 3c e4 65 16 3c 55 2f fe 3d
       0.07223584 0.028332433 0.009179566 0.124113716
000010 30 e4 aa 3d 15 ad 4a 3d 8e e7 cf bd 8f 05 b4 bd
       0.083443046 0.04948147 -0.101515874 -0.08790123
000020 13 cb 1a 3e 4e 1b 44 3e 22 85 fc 3d 8d 97 bf bc
       0.15116529 0.19151041 0.123300806 -0.023387695
000030 6c 25 cb bd 4b 9a 11 3d 8d f7 90 3d ad 01 93 bd
       -0.09919247 0.035547536 0.070784666 -0.07178054
000040 e8 b9 de bd 8a 53 07 be a0 14 fb 3c 7b 63 33 be
       -0.108753026 -0.13215461 0.030649483 -0.17518418
000050 c5 84 21 3c bc 46 d3 bd 6c c7 20 3e 2b 83 9b 3d
       0.009858315 -0.10316226 0.15701073 0.07593378
000060 0b 82 d1 bd a9 e7 b0 bd 60 7a 6d 3d c5 95 b5 3d
       -0.10229882 -0.08637936 0.057978034 0.08866457
000070 f6 f9 7f 3c 61 c4 36 bd d0 ec 46 be 97 57 08 3e
       0.01562356 -0.044620875 -0.19426274 0.13314663
000080 72 a4 3c 3e e1 73 51 3b 6a c9 4b be 43 63 23 3e
       0.18422106 0.0031959938 -0.19901052 0.15955834
000090 ce 09 13 be 66 55 d4 bd 90 35 ba 3d fc eb 3f 3d
       -0.14359209 -0.10367851 0.090922475 0.04685591
0000a0 eb 95 32 be 2e 9f 19 be b5 df 53 be 2a 5f 8c bd
       -0.17440002 -0.15002128 -0.20690806 -0.068540886
0000b0 30 34 87 3d 15 11 8e 3d 74 a3 24 3e e6 59 c6 3d
       0.06601751 0.06936852 0.16077977 0.096851155
0000c0 6f 70 30 be c4 46 9e bd 80 23 a6 bc ca f1 01 be
       -0.1723039 -0.07728341 -0.0202806 -0.12689891
0000d0 e5 0a 1e 3d af 7f 5c bd ba 3e 8c 3d 73 81 0d 3e
       0.03858461 -0.053832706 0.06847902 0.13818912
0000e0 e8 bb ef 3d 1e a7 1f 3c ac 0b ce bd fe 4c 9a 3d
       0.11705762 0.009744434 -0.1006082 0.07534216
0000f0 40 2e a3 bd 33 ef e7 3c 43 e1 2c bd fa dc 73 3d
       -0.07967806 0.028312301 -0.042207014 0.05953691
000100 c2 d4 b9 bd c4 fd f2 3d 01 70 78 be 99 ed bd bb
       -0.090737835 0.11864808 -0.24261476 -0.005796146
000110 46 fd 9a 3c 50 0b 8b 3d 20 08 4f be b3 22 13 3e
       0.018919598 0.06789267 -0.20217943 0.14368705
000120 10 37 b2 3c 66 98 43 3e 8a b5 10 3e 22 0b 66 be
       0.021754771 0.19101104 0.14131752 -0.22465184
000130 3c c2 66 3d be 2f 5f bb f4 39 a2 bd 20 c2 c7 3c
       0.05633758 -0.0034055556 -0.0792121 0.024384558
000140 b9 e3 64 be 64 47 6b bc 33 54 1d be 0a 6c b1 3d
       -0.22352494 -0.014360283 -0.1536415 0.08663185
000150 32 ae 3a 3d 09 5e 3f 3e ae a9 13 be d1 cf e7 bd
       0.04557628 0.18688215 -0.14420196 -0.11318935
000160 f5 fe 95 bd e8 7c 47 3e c3 9c 20 3e 17 ab 1d bd
       -0.0732402 0.19481242 0.156848 -0.038493242
000170 f8 c3 6d 3d 63 5d 42 3e 55 52 e0 bd 8d fe f6 bd
       0.05804822 0.18980937 -0.109532036 -0.120602705
000180 89 33 85 3c 5c 72 12 be bc 28 36 3d 32 a3 7e bd
       0.016259925 -0.14301437 0.04447244 -0.062167354
000190 2d b6 62 3d 3c 07 c9 3d 4c a0 0b be 25 e2 13 3e
       0.055349518 0.09815833 -0.13635367 0.14441736
0001a0 88 13 34 be 86 68 3a be 5e 2c 46 3e 95 7f 13 3e
       -0.17585576 -0.18203935 0.19352862 0.14404137
0001b0 d6 27 d2 bd 6f d8 19 be 62 f9 5b bd d4 61 30 bd
       -0.10261504 -0.15023969 -0.053704627 -0.043062046
0001c0 c8 f7 04 be 55 b2 eb 3d 14 99 61 3d d2 b3 81 3d
       -0.12985146 0.115086235 0.055077627 0.06333126
0001d0 b5 ec 48 be 6e 13 60 3e 59 1e 9c 3d d5 cd 4d 3e
       -0.19621547 0.21882412 0.07622976 0.2009805
0001e0 18 af 86 3d ba f4 91 3d 52 66 b9 3b a8 1c 18 3e
       0.06576365 0.07126756 0.0056579495 0.14854681
0001f0 b9 04 a8 bd 87 c6 5e bd 15 61 b5 bd f3 68 20 3d
       -0.08204026 -0.05438855 -0.088564076 0.039162587
000200 90 3b 16 3e 0a bb f1 3d 05 cd 22 be 3e 10 03 be
       0.14671159 0.11803253 -0.15898521 -0.12799165
000210 8e ba 24 3c 57 97 c7 bd 77 c8 cc bc 78 48 1e be
       0.010054244 -0.09745663 -0.024997933 -0.15457332
000220 72 8d f4 bd 1f b1 10 bd 16 2d 27 be 2a f2 09 3e
       -0.11941041 -0.035325166 -0.16325793 0.13471285
000230 b4 74 0f bd 9b a7 3b be 74 f3 19 be b2 9e 31 3d
       -0.035023406 -0.18325655 -0.15034276 0.043364234
000240 82 1b f4 3c b3 41 fc bc b0 8e 1f 3d 9f 30 94 3c
       0.029798273 -0.030793047 0.038954437 0.01808959
000250 6f 7b 90 bd 1e 19 16 3c 9f 2c b5 bd d5 55 67 3e
       -0.07054793 0.009161262 -0.088464014 0.22591336
000260 16 4e 36 3d de c9 45 bd fa 16 14 3e d2 35 b3 bd
       0.044508062 -0.04828822 0.1446189 -0.087505
000270 7b d1 14 3e df ec 1f 3b 2c 5a 2b 3e 91 25 b8 3a
       0.14533035 0.002440266 0.16733617 0.0014049282
000280 76 eb 1c 3e 65 b3 31 bd 23 27 19 bd 7e 8b 3c be
       0.15324196 -0.043383975 -0.03739084 -0.18412587
000290 34 d6 4f 3d 71 fb 14 be 32 2a 0a 3c a5 36 15 be
       0.05074139 -0.14549042 0.008432912 -0.14571626
0002a0 4c 2f 5e 3d 7d 3e 3b 3e e7 76 30 be 84 03 1e 3e
       0.054244325 0.18285556 -0.17232858 0.15431029
0002b0 84 a3 71 3c b5 51 32 be fa d2 4a 3e 51 da fd 3d
       0.014748458 -0.17413981 0.19807044 0.12395156
0002c0 bc 6b 40 3d 51 2b f4 3d 77 ee d0 3d 58 6a f3 bc
       0.046977744 0.119223244 0.102017336 -0.029713795
0002d0 85 37 96 bd 04 29 1d 3e 19 93 eb 3c 14 da 04 bd
       -0.07334808 0.15347677 0.028756665 -0.032434538
0002e0 ac d9 99 bc 1e 07 8a 3d 0b 23 a0 3d d0 eb e6 3c
       -0.018780552 0.06739639 0.07819184 0.028188616
0002f0 b4 0c c1 bd 2c b0 91 3d 76 8d 7a bd 1f 0d 37 3e
       -0.09426251 0.0711368 -0.061170064 0.17876099
000300 b5 17 85 3d f2 f3 56 be 62 26 88 3c 66 b2 1b be
       0.064986624 -0.20991495 0.016619865 -0.15204772
000310 c2 d1 17 be a4 10 54 bc 90 0b 03 3d 53 15 63 3d
       -0.1482611 -0.012943421 0.03199345 0.05544026
000320 62 f1 91 3d d5 d1 29 3e 0a 3e 9e bd 5b 92 aa 3d
       0.07126118 0.16583951 -0.07726677 0.08328696
000330 13 87 2b 3e e8 98 00 3e 9e ed 0f bd d0 69 5c bd
       0.16750745 0.12558329 -0.03513872 -0.05381185
000340 52 17 05 bd ae 30 6d be 27 a2 89 bd 54 fc 31 3e
       -0.032492943 -0.23163101 -0.06720381 0.17381412
000350 61 92 41 be 4b 42 78 3d aa cd aa 3d b7 b3 32 3e
       -0.18903495 0.060610097 0.083400086 0.17451368
000360 91 ae 42 be 18 a8 fc 3d 3f 72 e5 bd 3f 9c 6a 3e
       -0.19011904 0.12336749 -0.11203431 0.22911166
000370 d9 b0 db bd 4f 61 bc bd 95 b5 f1 bd 57 a2 b8 3d
       -0.107270904 -0.09198248 -0.11802212 0.09015339
000380 bb dc e0 3d 27 10 06 3d ff 6e 10 3b 6d a8 36 bd
       0.10979601 0.032730248 0.0022038815 -0.044594217
000390 d2 6d 17 3e a4 24 0a be 8e 70 5d be 89 9d ed bd
       0.14787987 -0.1349054 -0.21624967 -0.11602313
0003a0 01 51 b6 bc ec af 47 3d 8e 84 f0 3d df 93 2c be
       -0.022255423 0.048751757 0.11744033 -0.16853283
0003b0 0a b2 dd 3d 0a da 49 3d 51 8a 1a bd ea b7 3e be
       0.10824974 0.049280204 -0.037729565 -0.18624845
0003c0 23 7e 60 3e 08 c1 29 3d 93 85 a9 3c 87 65 1e be
       0.21923117 0.041443855 0.020693576 -0.15468417
0003d0 cb c3 12 be 88 6b 11 be d2 d6 87 bd 6f 27 8c bd
       -0.14332502 -0.14201176 -0.066327706 -0.06843459
0003e0 88 d2 df 3a 10 ea 0f 3e 1d d3 16 be d4 0b 77 bb
       0.0017076293 0.14054132 -0.14728971 -0.003769626
0003f0 ef 9d 01 3e 61 a8 2c 3e 93 7f 26 be 40 50 11 3e
       0.12657903 0.16861106 -0.16259603 0.14190769

linear2.weight f4 [256, 256]
000000 ce 88 23 3d a2 23 84 bd 83 1c 08 3d 95 88 a1 3c
       0.03992539 -0.06452109 0.033230316 0.019718448
000010 12 3d 39 3d c1 42 44 bd 90 ea e4 bc 70 c7 fc 3c
       0.045224257 -0.047915224 -0.02794388 0.030856818
000020 fa c7 81 bd 74 c1 51 bd d3 f2 30 3d 62 f6 57 bd
       -0.063369706 -0.051209882 0.043200325 -0.052725203
000030 30 eb 0d bd cc 5b 25 bd 58 d6 b7 bc 0c bf b2 3c
       -0.03464812 -0.040370747 -0.022441074 0.021819614
000040 ad 8f 62 bd 42 17 61 bc f2 31 4f 3d 66 1c 30 bd
       -0.0553128 -0.013738455 0.05058474 -0.042995833
000050 0e a2 ef 3c 31 f6 89 bd be d1 65 3c 1b e8 89 3b
       0.029252078 -0.067364104 0.014027057 0.0042085773
000060 cb df 8b 3d d0 06 42 3d d3 ce 1d 3d 6c cd 21 bd
       0.068297945 0.04736978 0.03852732 -0.039502546
000070 16 dd b3 bc ee 5a 2c 3d 18 e9 60 3c f0 1e 27 3c
       -0.021956008 0.042078905 0.013727449 0.010200247
000080 7e 17 a7 bb 84 65 d0 3c 30 e2 f8 bc 32 bb 17 3d
       -0.005099236 0.025439031 -0.030381292 0.037043758
000090 76 07 7a bd ec 0e f1 bc f5 d2 57 3c 41 c1 18 3d
       -0.06104227 -0.02942606 0.013172855 0.037293676
0000a0 e2 9c ad bb 66 78 52 bd 6a 44 78 3d 26 c5 4d bd
       -0.005298243 -0.051384352 0.06061212 -0.050236844
0000b0 1d 07 c1 3c 58 4c 0e 3c bb 6f 58 3d dd 4b 4c 3d
       0.023562962 0.008685194 0.05284093 0.049877036
0000c0 a4 f3 f7 3c 2e 52 27 bd bd cb 94 bb 88 75 1e bd
       0.030267544 -0.040849857 -0.004540889 -0.038686305
0000d0 54 7c 94 3c cf 9e 8d bd f4 df cb bc a1 75 82 bc
       0.01812569 -0.06915056 -0.024887063 -0.01592523
0000e0 c4 68 41 bd 48 a6 1d 3c 43 b6 d9 bc 7f aa d5 3c
       -0.047219053 0.009622164 -0.026576167 0.026082275
0000f0 ee 48 4c 3d d4 b2 0a 3c e0 77 24 3c 70 3b 16 bd
       0.04987424 0.0084654875 0.010038346 -0.036677778
000100 f5 10 1d bd de 84 40 bd c6 83 61 bd 30 49 43 3c
       -0.03834625 -0.047001712 -0.05505731 0.011919305
000110 ed 3f db 3c 18 bf 3e 3c 79 5c af 3c 98 c4 55 3c
       0.02676388 0.01164224 0.0214064 0.01304736
000120 a5 0a d2 3c 80 c0 09 3d 5d 6a 06 bd 77 e1 7f 3c
       0.025639841 0.033630848 -0.03281628 0.01561772
000130 12 51 c0 ba 41 93 9c 3c 7f ec 36 3d 18 d2 09 bd
       -0.0014672598 0.019113185 0.044659134 -0.033647627
000140 87 23 12 3d 8a d4 89 3d d2 84 e9 3c 69 22 37 bd
       0.035678413 0.06729992 0.028505716 -0.04471055
000150 38 07 59 3b 76 0e 75 3d 0f 17 a2 3d df f5 97 bd
       0.0033115875 0.059828244 0.07914554 -0.07419943
000160 58 d3 5d bd 92 41 71 bd 6c 1e e3 b8 a4 be 21 bd
       -0.05415663 -0.058900423 -0.0001082987 -0.03948845
000170 b3 e3 15 3d 22 89 64 bc 36 d2 84 bd 9f 0e 7a bc
       0.036594104 -0.013948711 -0.06485407 -0.015262275
000180 4b 17 2c 3d 30 a9 1c 3d e4 46 e4 bc ac 24 9e 3b
       0.0420144 0.038247287 -0.027865835 0.004826149
000190 0e af ef bb dd c0 4f 3d f2 a7 28 3d 02 57 21 bd
       -0.0073145693 0.050721038 0.04117579 -0.039389618
0001a0 a0 47 b7 bb 5f f1 8a 3c b9 01 75 bd e6 b1 d7 3c
       -0.005593255 0.016960798 -0.059816096 0.026329946
0001b0 1c 21 00 bd a7 33 7e bd 85 dd 80 bd 1a ab 3b 3d
       -0.031281576 -0.06206098 -0.062922515 0.045817472
0001c0 d8 fa 8a bc a6 c8 22 bd 6a 05 ec 3c ef 15 0c 3d
       -0.016965315 -0.039742135 0.028811175 0.034200605
0001d0 5c c9 07 3c a8 1b 21 3b 6d 94 86 bd 04 ce 64 3d
       0.008287754 0.0024583135 -0.06571279 0.055860534
0001e0 34 b8 35 bd 5c 19 30 bd 6c 15 31 3d 9f 61 16 bd
       -0.044365123 -0.042992935 0.04323332 -0.036714192
0001f0 be 2e f7 3c eb 71 ca 3b ae 84 33 3d 5f cf 99 bd
       0.030173656 0.006178131 0.043827705 -0.07510256
000200 8a 5b c8 bc 56 6a e1 3c bb 27 49 bd 70 19 19 bd
       -0.024457712 0.027516525 -0.049110156 -0.037377775
000210 76 a0 15 bd 65 28 42 ba d0 e9 85 bc 67 72 26 bd
       -0.03652998 -0.0007406532 -0.016346842 -0.040636446
000220 81 c9 33 bc 21 8f 65 bd 48 10 15 bc 1f df ac bc
       -0.010973335 -0.0560447 -0.00909812 -0.021102486
000230 a6 51 a9 bb b0 53 c6 3a 76 64 58 bd 07 75 84 bd
       -0.005167204 0.0015131142 -0.052830182 -0.06467634
000240 bb cb bd bc f7 02 3b bd b7 f8 4b 3d 8d 28 17 bd
       -0.023168435 -0.045657124 0.04979774 -0.036903907
000250 5c 1b 5a 3d a7 e1 43 bd c7 63 a8 bc a6 2e 21 bd
       0.05324875 -0.04782262 -0.02055539 -0.039351128
000260 c0 17 f6 3b ec b7 61 3d c5 a9 01 3d 72 83 0e bd
       0.0075101554 0.055107042 0.031656045 -0.034793325
000270 60 fe ae bc 2d 1c a1 bd cf 09 ce 3b ea 72 27 3d
       -0.02136153 -0.07866702 0.0062877904 0.040881075
000280 75 43 d5 bc f4 bb ad 3c a1 50 99 bc 2a 5f 4f bc
       -0.026033143 0.021207787 -0.018715205 -0.012656966
000290 62 b5 72 3c 4f ae 87 3d 1a c5 1a 3d 30 b8 90 3d
       0.014813753 0.066250436 0.037785627 0.07066381
0002a0 04 2e b0 3c 65 20 40 bd a4 06 47 bd a0 3b e0 bc
       0.021506317 -0.046905894 -0.048590317 -0.027372181
0002b0 c3 59 69 bd 7b 26 25 bc 20 c6 30 bd 45 a5 c6 bc
       -0.05697037 -0.010079975 -0.043157697 -0.024248729
0002c0 00 0c e9 bb 0b b7 10 bd 4e 8f 37 bd 04 81 94 bc
       -0.007112026 -0.035330813 -0.0448144 -0.018127926
0002d0 18 bc 59 bd d9 c6 61 3d b5 ef b7 3c b6 14 1c 3d
       -0.053157896 0.055121277 0.022453168 0.03810569
0002e0 f1 f0 92 3c 93 2d 0e 3c d3 bc f6 bb 75 38 da 3c
       0.017937155 0.008677858 -0.007529834 0.026638249
0002f0 3c a5 bf 3b 99 98 0e bd a9 08 b9 bd 0f 67 37 bd
       0.005848555 -0.034813497 -0.09034855 -0.04477602
000300 0f ed 0e 3c 91 32 4d 3c 50 96 69 bd 0c 1b a2 bc
       0.008723511 0.012524263 -0.057028115 -0.019788288
000310 ec 4b 21 bc 75 7b 39 bc 19 c3 31 3d 7d 85 06 bd
       -0.009844761 -0.011320938 0.04339895 -0.032842148
000320 06 3d 29 bd e2 b8 0a 3d 72 1f 5b 3d b9 97 5a bc
       -0.041317962 0.033867724 0.053496785 -0.013341838
000330 36 97 21 3d 83 1f f2 bc f0 a4 b0 3b 6b 73 01 3b
       0.039450847 -0.029556042 0.005390756 0.0019752632
000340 9d bb f8 bc 67 b5 bd bc 53 26 e0 3c 05 0e af 3c
       -0.030362898 -0.023157788 0.027362024 0.02136899
000350 e4 bd 2a 3d 7e 24 c8 3c 95 87 eb 3c e1 2e a9 ba
       0.041685 0.024431463 0.028751174 -0.0012907648
000360 7a 6d 3b 3d 02 6b 73 bd ec 80 27 3b 61 00 3b bc
       0.0457587 -0.059428222 0.002555902 -0.011413665
000370 4a 72 f0 3a 02 c3 f8 3c 45 6a 9a 3c 2f c3 00 bd
       0.0018344608 0.030366424 0.018849501 -0.03143614
000380 ec 1e a6 3d 81 38 9c 3c 1a ca 79 bd f7 f0 f8 3c
       0.08111367 0.019069912 -0.060983755 0.030388338
000390 d4 05 3f 3d a6 0e eb bc 8d c5 a3 bb 95 94 17 bd
       0.046636418 -0.028693508 -0.004997915 -0.037006933
0003a0 e0 04 7e 3d fa e6 d9 3c 58 77 33 3d 0c ba 45 3d
       0.062016368 0.026599396 0.043814987 0.04827313
0003b0 cc 0d db 3c d0 5c c8 bc 6a b0 4a bb b9 41 4c bd
       0.026739977 -0.024458319 -0.0030927905 -0.049867366
0003c0 fa b4 70 3d 08 dd 69 bd 5f b2 9f 3d b3 d9 54 bd
       0.058766343 -0.057095557 0.077976935 -0.051965427
0003d0 30 ce 79 3c b8 42 80 bc a4 aa 2d 3d 2b 14 95 3c
       0.015246913 -0.015656814 0.042399064 0.018198093
0003e0 7b 1a cd bc 38 81 45 3d 5d 3d e3 3c 30 0c 07 3d
       -0.025037041 0.048218936 0.027739221 0.032970607
0003f0 28 75 0b 3d 00 1e 1a 3a 43 b3 8c bc cc 67 b2 bc
       0.034047276 0.0005879104 -0.017175322 -0.02177801

linear2.bias f4 [256]
000000 93 ac 86 bd d2 76 4f bd 39 90 0d 3d 43 8a 11 3d
       -0.06575885 -0.050650425 0.03456137 0.035532247
000010 68 c6 47 3d b7 6b 41 3d 59 f4 2f bd 03 be 27 bd
       0.0487732 0.047221866 -0.042957637 -0.040952694
000020 60 54 18 3d 24 ea 1d bd 07 78 7b 3d 36 b7 b8 bc
       0.03718984 -0.038553372 0.061393764 -0.0225483
000030 e0 91 30 3c 54 f5 86 3c a3 e1 8b 3c 3e 73 9e bc
       0.010776967 0.016474403 0.017075365 -0.019342061
000040 5c 70 6a 3a 1b 6d 8c 3d 6a 67 9f bc c5 5d 1e 3d
       0.00089431345 0.06856748 -0.019458491 0.038663644
000050 13 0a 9f 3c bc 1f 82 bd 38 0c de bc 61 24 41 bd
       0.019413983 -0.06353709 -0.027105436 -0.047153834
000060 b3 ba 53 bd 90 d4 9c bb f1 bf 26 3d 13 fc 9b 3c
       -0.051691722 -0.0047860816 0.040710393 0.019041097
000070 f3 41 14 bd 42 05 a4 bb 1b 93 3d 3d e8 75 30 bc
       -0.036195707 -0.0050055096 0.04628287 -0.010770299
000080 15 4c d7 3c ae 42 84 bd d9 d9 70 3d e4 66 10 3d
       0.026281396 -0.06458031 0.058801506 0.035254374
000090 82 62 6d bd 41 2b 1c 3d 98 50 8d bd 30 97 11 3d
       -0.057955272 0.038127188 -0.06900138 0.035544574
0000a0 6f 43 0d bc 10 39 da 3c 70 33 d9 3c c5 05 2c 3d
       -0.008622034 0.026638538 0.026513785 0.04199769
0000b0 08 ab 15 3c a8 a2 a8 3d 02 b6 18 ba 71 08 b9 bc
       0.009135015 0.08234149 -0.0005825461 -0.022587033
0000c0 dd bb cf bc d6 8c 79 3b 74 fb eb 3c 90 5b 67 bd
       -0.025358135 0.003807833 0.028806426 -0.056483805
0000d0 0d 6e 83 bd f6 b4 66 bc ce 06 5f 3d 9a dd da 3c
       -0.06417475 -0.01408123 0.05444985 0.026716996
0000e0 23 79 93 3d 91 fc b2 3c c7 0f c7 bc f7 e9 3a bd
       0.07200839 0.021848949 -0.024299515 -0.045633283
0000f0 31 7f 8c bd d8 16 b7 bc 40 da 69 bd bf 7b 26 bd
       -0.06860197 -0.02234976 -0.057092905 -0.040645357
000100 4c 22 3c 3d 04 8b ab 3a bf c7 34 3d 54 68 86 3b
       0.045931146 0.0013087695 0.044135805 0.0041017924
000110 39 67 d3 bb ca de 35 3d e5 e2 db 3d 23 99 2f bd
       -0.006451514 0.04440192 0.10736636 -0.042870652
000120 c2 f0 f9 3b a6 28 93 3c 71 4f 04 bd b5 d3 86 3b
       0.0076275775 0.017963719 -0.032302324 0.004114593
000130 d8 49 ef 3c a6 e5 9a 3d e9 96 61 bd 11 8c 1c 3d
       0.029210016 0.07563333 -0.05507556 0.038219515
000140 be 3f 33 ba f4 46 49 3a 48 a2 f5 3c fc 86 5b 3d
       -0.00068378064 0.00076781143 0.029984608 0.053595528
000150 da d3 4e bd 33 4c e2 3c ac 78 13 bd fb 1d 54 bd
       -0.050495006 0.027624225 -0.036003754 -0.051786404
000160 c1 bc 85 bd ad 50 3b bd ed 1d 68 3c fe af 28 3d
       -0.065301426 -0.045731235 0.014167291 0.041183464
000170 7d 6d 82 3d 40 28 19 3c 88 0e 73 bc e7 09 f5 bb
       0.063685395 0.009347975 -0.0148350075 -0.007477987
000180 41 a5 97 3a 54 f0 0f bd a2 d5 14 bd 6c 0b 42 3c
       0.0011569635 -0.035141304 -0.03633655 0.0118435435
000190 46 15 53 bd 6e fc 31 bd 6a 6a 58 3d ee d8 1b bd
       -0.05153396 -0.043453626 0.05283586 -0.038048677
0001a0 88 b8 33 3c 11 c6 3c 3d 8b 92 b4 3c 9b aa 6c bd
       0.010969289 0.04608733 0.022042533 -0.05777989
0001b0 b8 1c 00 3d 24 c2 28 bd bb 96 1e bd 98 ec 59 bc
       0.03127739 -0.041200772 -0.038717967 -0.013301037
0001c0 50 01 90 bd dd bc 97 bd 66 47 86 b9 cd f0 ab 3c
       -0.070315 -0.0740907 -0.00025611668 0.020988846
0001d0 12 af 37 bc 35 99 fa 3c fe 72 42 3d 11 8a 0b 3d
       -0.011211174 0.030590633 0.047472946 0.034067217
0001e0 b2 8d 27 3d 81 0a 37 3d 62 21 d9 bc 3c 1b d9 bb
       0.040906616 0.04468775 -0.026505176 -0.006625561
0001f0 ba 25 80 3d c4 98 80 bd ca 87 ea bc a7 ae 3e 3b
       0.06257196 -0.06279138 -0.028629202 0.00290958
000200 44 06 6e bd 44 95 75 bb 84 f6 2b bd 15 fd eb bc
       -0.058111444 -0.0037473002 -0.041983142 -0.028807202
000210 2e 87 32 3d 77 89 03 bd ab e0 0c 3d 50 85 69 3c
       0.04358595 -0.03211352 0.034393948 0.014252976
000220 ae c5 17 3d 97 37 8b bd 9c a5 5f bc 72 e3 15 3d
       0.037053756 -0.06797712 -0.013650324 0.036593862
000230 61 46 09 3d cf 73 1e 3d 25 f1 1f bd 24 bb 86 bd
       0.033514384 0.038684662 -0.039048333 -0.06578663
000240 78 0d a1 bb 71 69 8c bd 89 3c 9c b9 05 9c f9 3c
       -0.0049149357 -0.06856049 -0.0002979974 0.030469904
000250 2d e1 54 bb a5 66 50 bc 47 bd a5 3b b4 89 55 bd
       -0.0032482848 -0.012719785 0.005057964 -0.052133277
000260 4c cd 03 bd 0d d8 aa 3d 1c 6e a0 bc d5 25 38 3d
       -0.03217821 0.0834199 -0.019583754 0.044957954
000270 7d 62 05 3c 79 66 f7 bc 12 e3 8b 3c b9 1f a8 3b
       0.008141157 -0.03020023 0.017076049 0.0051307348
000280 02 80 7e bd 12 dd 4f bd 4d f5 a4 39 75 18 0a 3d
       -0.062133797 -0.05074794 0.0003146328 0.03371473
000290 6b 3a 5d 3d a1 2b 1f bc f0 cb ce bb 99 44 70 bd
       0.05401079 -0.009714992 -0.0063109323 -0.05865917
0002a0 81 e9 16 3d 7f 1b 8d bd a8 94 3d 3c 08 62 85 bc
       0.03684378 -0.0689001 0.011571087 -0.016282097
0002b0 a6 e5 46 bd ac 4b 1f 3d c6 ee 37 3c 80 0c 31 3a
       -0.048558854 0.038890526 0.011226362 0.0006753877
0002c0 e9 0b ec 3c 2c 76 0a 3d d7 a6 82 bd 2c 82 91 3c
       0.028814273 0.033804104 -0.063794784 0.017762266
0002d0 a0 03 04 3c 12 b5 03 bd e0 62 7a 3c d4 ee d5 bc
       0.008057505 -0.032155104 0.015282363 -0.026114859
0002e0 2c a7 94 3c 18 26 4a 3c cf 3f 1b bc e7 78 98 bb
       0.01814612 0.012338184 -0.009475662 -0.0046530846
0002f0 20 9a 68 bd 02 c7 2e bd 9a 08 1f 3d 3a 51 41 bd
       -0.05678761 -0.042670257 0.038826562 -0.047196604
000300 b1 9d df 3c 8d b8 04 bd c8 9f 5a bd bf 64 00 bd
       0.027296873 -0.032402564 -0.053375036 -0.03134608
000310 6d 17 c3 bb cc e5 37 bd f9 c7 b4 b9 87 50 c8 3c
       -0.0059537203 -0.044896886 -0.00034481267 0.02445246
000320 bf 87 8e bc d1 29 0f 3d 43 b1 98 3c 97 75 13 bd
       -0.017398713 0.03495199 0.018639212 -0.036000814
000330 b6 15 a7 bd 7b 5d 16 bd 98 36 3f bc ac 5b 16 3c
       -0.08158438 -0.036710244 -0.011670731 0.00917713
000340 6d f8 79 bd ed a7 2f bc bd 58 b1 3c d4 9e b6 bc
       -0.061027933 -0.010721189 0.021648759 -0.022292532
000350 82 93 f6 bc fc e2 91 3b 89 3c 37 bd 67 4c 42 bd
       -0.030099634 0.0044521075 -0.044735465 -0.047436144
000360 54 91 9c ba a2 f3 32 bd 44 7e 72 3d 61 24 82 bb
       -0.0011945167 -0.043689378 0.059202448 -0.003971622
000370 0b fc 09 bd a9 79 18 3d c7 80 c5 3c 5d ac a4 bc
       -0.033687633 0.0372254 0.024109257 -0.02010172
000380 a0 0e 24 3d 83 b4 96 bd 8f 9a b6 bc 2a 2e 47 bd
       0.04005301 -0.07358649 -0.022290496 -0.04862801
000390 d8 86 65 3d c7 51 2f bd 9b 51 05 3d c5 f0 4f 3c
       0.0560368 -0.0428026 0.03254853 0.012691681
0003a0 3e d8 8c 3c fe cf 05 bd e8 ce 55 3d 5f df 3b bd
       0.017192956 -0.03266906 0.052199274 -0.04586732
0003b0 0b f8 b0 bc 64 55 49 3d a2 4c 71 3d 45 43 1a bd
       -0.021602651 0.0491537 0.058910973 -0.03766181
0003c0 cd 74 8e 3c d7 67 f7 3c 89 72 a0 3d e2 1b 88 3d
       0.01738968 0.030200882 0.07834346 0.06645943
0003d0 2d b7 81 3d 8d b3 41 bd 6e 36 d7 bc 69 25 d3 3d
       0.06333766 -0.047290374 -0.026271071 0.1030987
0003e0 17 09 2a 3d a8 c3 72 bc dc ef ef bc 4e 48 06 3d
       0.041512575 -0.014817156 -0.029289179 0.0327838
0003f0 a5 43 96 bc 3e 6e e7 3c 6f 28 a9 bd 4a e6 91 3d
       -0.018342802 0.02825081 -0.08259665 0.07124002

linear3.weight f4 [3, 256]
000000 6f 09 27 3d d2 3a 2a bd b1 2d 39 3d 5e b5 d5 bc
       0.04078048 -0.04156 0.04520959 -0.02608746
000010 30 a7 b4 3c dc 62 46 bd a3 d7 1b 3b 02 09 07 bd
       0.022052377 -0.048434123 0.0023779653 -0.032967575
000020 96 c6 4e bd ec e6 c8 bc b8 a5 13 3d 3c 95 f7 bc
       -0.050482355 -0.024524175 0.036046714 -0.030222528
000030 d0 a6 28 bd 98 e7 2a bc 8a 48 aa bc a9 3b bc 3c
       -0.04117471 -0.010431193 -0.020786542 0.022977667
000040 bd 0f 4b 3d f5 3c b6 3d ba 76 bc 3c 06 5a 40 bd
       0.049575556 0.088983454 0.023005832 -0.046960853
000050 2d 9e 47 bd ac ed 42 bd 62 23 5d 3d 6a 44 6d 3c
       -0.048734833 -0.047589943 0.05398882 0.014481643
000060 91 5e fa 3c 04 93 59 3c a2 57 22 bd b3 1b c2 3b
       0.03056267 0.01327968 -0.039634354 0.005923712
000070 7d c7 b1 bc a4 27 fb 3c 8c 22 23 3a 00 90 d8 3b
       -0.021701569 0.03065855 0.00062231044 0.006608963
000080 a4 59 72 bb 13 a9 b5 bc b0 30 11 3d fb 3f 8a bd
       -0.00369797 -0.022175347 0.035446823 -0.067504846
000090 84 d4 a3 3c 5b f5 1e bc 51 3d 2a 3c 46 bf 3b bd
       0.019998796 -0.009702052 0.0103905955 -0.04583671
0000a0 7e 4d 3e bd 9e ea 5f bd 02 7f a1 bb d9 3c a1 bc
       -0.04646062 -0.054667108 -0.0049284706 -0.019682335
0000b0 12 69 60 3d f7 e3 06 3d 8e ae 57 bd 46 84 20 bd
       0.054787703 0.032932248 -0.052656703 -0.039188646
0000c0 bf aa 5a bc f8 3a 68 bd 34 dc ff bb 83 8b 5f bd
       -0.013346373 -0.056696862 -0.0078082327 -0.054576408
0000d0 07 62 0c bd a2 8d 30 3c 28 9d 6b 3c 33 f9 f4 bc
       -0.034273174 0.010775955 0.014380731 -0.029903984
0000e0 37 be df 3c b1 e9 dc ba 4f a0 26 bd 18 56 12 bd
       0.027312381 -0.0016854313 -0.040680226 -0.035726637
0000f0 db 5c 31 3d dc e4 06 bd 65 47 4d 3d d7 12 7c 3d
       0.043301445 -0.0329331 0.050116915 0.061541405
000100 f7 b5 13 3d 99 18 a5 bc d2 a2 9d bc 96 6a 61 3d
       0.036062207 -0.02015333 -0.019242678 0.05503329
000110 f3 93 3b bc c8 e1 cc bb fc 94 1e 3d 20 32 1b bb
       -0.011448848 -0.006252501 0.0387163 -0.0023681
000120 76 78 b9 bc 03 e8 cf 3c 9d 84 07 bd 71 c1 f8 bc
       -0.022640448 0.025379186 -0.033085454 -0.030365678
000130 c6 28 37 bd 4d ca a5 3d 16 62 84 3b a6 ab 3e bd
       -0.04471662 0.080952264 0.004040013 -0.046550415
000140 d2 d6 4d 3a 13 7a f5 3c e9 c1 8c bc f8 8d dc 3c
       0.000785214 0.029965436 -0.017182307 0.026923165
000150 e2 9a 90 3d ce a5 6e 3c 9c a6 d9 3b cf ce 82 3c
       0.070607916 0.014565898 0.006642176 0.015967755
000160 6c 86 8a 3d 95 e7 92 3c 18 05 c9 3c 5a 23 41 bd
       0.0676392 0.017932693 0.024538562 -0.047152855
000170 2e 88 42 3d 57 96 a8 bc f6 60 fd bb 72 ae b0 bc
       0.047493152 -0.0205795 -0.007732506 -0.021567557
000180 a1 f9 e7 3c ec de 6e 3d cc 96 20 3d 7c 28 24 bd
       0.028317275 0.058318064 0.03920631 -0.04007767
000190 26 3c 9f 3c 50 fe 16 bd 37 7b 0a bd fa 20 6d bd
       0.01943786 -0.036863625 -0.033808913 -0.057892777
0001a0 7d 91 e9 3c 86 c4 4f bc 6a 45 78 3d 31 8b 0c 3d
       0.028511757 -0.012681132 0.060613073 0.03431243
0001b0 6e b1 7a 3d 34 51 8a bd ee 65 9b 3c 54 bc 19 3d
       0.061204366 -0.067537695 0.018969502 0.03753312
0001c0 e5 98 8e bc ed c7 b0 3b d8 e0 a0 3c 6b 64 7c 3d
       -0.01740689 0.0053949268 0.019638464 0.061619204
0001d0 db c9 27 3d 89 a4 bd bc d0 6d 4c 3d a0 8a 2f 3d
       0.04096399 -0.023149746 0.049909413 0.042856812
0001e0 46 12 61 3c 04 8d c7 3c 56 63 43 bd 2b 31 5d bd
       0.013737267 0.024359234 -0.047702156 -0.05400197
0001f0 95 17 65 3d d6 2d 40 bd cb 16 d5 3c ab 59 48 3d
       0.055930693 -0.046918713 0.026011845 0.04891364
000200 89 b0 f2 bc b6 f2 c5 bc 09 e6 67 3b 76 49 3b bc
       -0.029625194 -0.024163585 0.0035384914 -0.011431089
000210 37 2d 1f bd e8 c0 62 bd c3 04 04 3c 10 1f 97 3b
       -0.03886148 -0.05535975 0.008057776 0.0046118572
000220 98 4f 1d bd 09 d4 17 bd fb 51 20 3d 73 13 51 3c
       -0.038405985 -0.037067447 0.039140683 0.012760985
000230 7a dd 03 bd 1d 47 a9 3d 0a 9d 8e bd 7c 4e cb bc
       -0.03219364 0.08265517 -0.069635466 -0.024817698
000240 b7 e1 24 bd ef 0b e8 bc 6b 37 e0 bc 26 2d 85 bc
       -0.04025432 -0.028326003 -0.027370175 -0.01625688
000250 0c a7 24 3d 3b 47 61 bc 96 74 02 bb 71 16 db 3c
       0.04019837 -0.013749893 -0.0019905916 0.0267441
000260 52 a1 0f bd 68 eb ec bc 21 f6 b8 3a cb 88 04 3d
       -0.035065956 -0.028920844 0.0014111438 0.03235702
000270 30 a7 30 bd 93 6d d8 bc 24 29 df 3b d5 5e 99 bc
       -0.043128192 -0.026419437 0.0068103243 -0.018721977
000280 cf 94 65 bd 62 3c 11 ba 51 ad e3 3b a0 c8 47 bd
       -0.056050118 -0.0005540309 0.006948151 -0.048775315
000290 30 70 5f bb 61 46 87 3c 78 48 e3 3c 2e b6 4f 3d
       -0.0034093969 0.016513051 0.027744517 0.05071085
0002a0 b1 16 12 bd b7 89 6a bc c0 8c 9b bb a8 39 b2 bc
       -0.03566617 -0.01431506 -0.0047470033 -0.021756008
0002b0 b0 55 09 3d 7e 02 13 bd e2 b2 b8 bc fc d1 c7 bc
       0.033528984 -0.03589105 -0.022546235 -0.02439212
0002c0 91 80 a4 3d 08 a5 5f 3c 4c 30 bf bc 78 2a 67 3d
       0.080323346 0.013650186 -0.02333846 0.056436986
0002d0 14 39 73 3d 6c be 36 bd 10 a3 f7 3b 7a ed 9a bd
       0.059380606 -0.044615194 0.0075572804 -0.07564826
0002e0 66 16 a7 bc 3f 00 36 3d 67 6e f5 3c 3f aa 0e bd
       -0.020396423 0.04443383 0.02995987 -0.034830328
0002f0 3a f8 7a 3d 03 ab 13 3d d0 67 27 bd 03 18 3f 3d
       0.061271884 0.03605176 -0.040870488 0.04665376
000300 28 46 97 3c dd 29 8e bc 00 cc 8c bb cb 5a 1f 3c
       0.01846607 -0.017353946 -0.0042967796 0.009726237
000310 42 b5 1b bb 9f 1d 24 bd cc 5e 7f bb cf 8d 90 3d
       -0.002375916 -0.04006731 -0.0038966415 0.07058298
000320 f0 18 63 bd 70 1c c9 3c b5 77 81 3c b7 ce 25 3d
       -0.055443704 0.024549693 0.015804151 0.04048034
000330 f6 5c 59 bb e0 3c 34 bc 00 c4 ae bb 55 06 23 3d
       -0.0033166981 -0.011000842 -0.0053334236 0.03980096
000340 fb e4 5a 3d 79 c0 eb bc 0c d0 8b 3c d5 42 12 bd
       0.05344103 -0.028778302 0.017066978 -0.035708267
000350 c9 d7 64 bd 66 d8 46 bc a1 94 2f bd 6d 6e 43 bd
       -0.05586985 -0.012136554 -0.042866353 -0.047712732
000360 d2 32 22 bc 61 02 b1 bc 8e 62 d2 bc 96 4a 57 3d
       -0.009899812 -0.02160758 -0.02568176 0.052561365
000370 97 a2 5c bd 0f 27 db 3c f6 be 96 bc 74 b0 17 bd
       -0.053865995 0.026752023 -0.018401604 -0.037033513
000380 aa 60 64 bc 75 e5 43 bd 23 f7 88 3d 2b a5 22 3a
       -0.013939062 -0.04782625 0.066877626 0.00062044215
000390 82 35 3d 3d 27 a8 5b 3a 9c ac 6a 3c e4 3e 11 bd
       0.046193607 0.00083792437 0.01432338 -0.035460368
0003a0 0b 94 66 3d 29 84 52 3d b2 f5 49 bd 59 c4 98 3a
       0.05629353 0.05139557 -0.04930658 0.0011655196
0003b0 d3 cf 6d bb 25 4f 24 bd d8 52 27 3c f4 b6 09 bd
       -0.0036287203 -0.04011454 0.010212623 -0.033621743
0003c0 c7 5c 5d 3d e5 4a 08 bd b6 4b 35 bd 9b f4 5e bd
       0.054043557 -0.03327455 -0.044261657 -0.054432493
0003d0 df 1f 30 bd 2c d2 7d 3d 27 48 4d 39 c5 d0 96 3d
       -0.042999145 0.061968014 0.00019577202 0.073640384
0003e0 66 4d 36 bb 23 e4 59 3c 28 88 35 3c e2 24 6a bd
       -0.002781713 0.013299021 0.011079825 -0.05716408
0003f0 ff a9 45 3d 38 96 4e 3c bd 2c 94 3b 74 7c e9 3c
       0.048257824 0.012609057 0.004521935 0.028501727

linear3.bias f4 [3]
000000 ea 55 0a 3d bf a4 ab 3d 22 16 39 bd
       0.03377334 0.08381032 -0.045187123
