models/Env2/PDDRL_256_A5_S2_P/local_episode_1050_reward_200.000000.pt (torch, 293866 bytes, 6 tensors)

linear1.weight f4 [256, 23]
0	0xbeaabbdd	-0.33346453
1	0x3c87d770	0.01658222
2	0x3e31a044	0.17346293
3	0x3e0fd4c8	0.14046013
4	0xbec55e62	-0.3854857
5	0x3d7da3aa	0.06192366
6	0x3ee36957	0.44416305
7	0xbdf229de	-0.11824392
8	0xbeeb296a	-0.45930034
9	0x3e4218ff	0.18954848
10	0x3e12a920	0.14322329
11	0xbe609ff0	-0.21936011
12	0x3c9510d2	0.018196497
13	0x3de7d046	0.11319022
14	0x3e17023c	0.14746946
15	0xbda1e1af	-0.07904374
16	0x3ca3dccb	0.020002743
17	0x3e5e45c1	0.21706297
18	0xbda747a8	-0.08167964
19	0xbda7d9e1	-0.08195854
20	0x3e539c92	0.20665196
21	0xbdce3cc2	-0.100701824
22	0x3f5b44cf	0.8565187
23	0x3e1825f6	0.14858231
24	0x3cf56f88	0.029960409
25	0x3de712a8	0.11282855
26	0xbe808d4d	-0.25107804
27	0x3dcf6b7b	0.10127922
28	0x3c2114c6	0.009831613
29	0xbe130b9c	-0.14359897
30	0x3e8b4a91	0.27205327
31	0xbcd2031f	-0.025636254
32	0x3e14867d	0.14504428
33	0x3db004ee	0.0859469
34	0x3d73d069	0.059524927
35	0x3d0a22a1	0.03372443
36	0xbe6d6e4b	-0.23186605
37	0xbedd0ecc	-0.43175352
38	0x3e10b602	0.1413193
39	0x3e1ce3f9	0.1532134
40	0x3d22f372	0.03978295
41	0x3e92690e	0.28595775
42	0x3e4aec12	0.19816616
43	0xbe697507	-0.22798549
44	0xbef89b69	-0.4855607
45	0xbfb5d7bc	-1.4206462
46	0x3e2003e5	0.15626486
47	0xbd91d0b1	-0.07119883
48	0x3e02ac50	0.12761045
49	0xbc62e6af	-0.013848945
50	0xbe469b26	-0.19395122
51	0x3deca75d	0.115553595
52	0x3d7da5be	0.061925642
53	0x3deb5f70	0.11492813
54	0x3caee4ce	0.021349337
55	0xbe134ed7	-0.14385544
56	0xbea73916	-0.3266074
57	0xbde67cbc	-0.1125426
58	0x3dd001f6	0.10156624
59	0x3e948df2	0.29014546
60	0xbdaf257a	-0.0855207
61	0x3e06d70d	0.13167973
62	0xbca8753e	-0.020563718
63	0xbddc6585	-0.10761551
64	0x3e39989e	0.18124625
65	0x3ece3569	0.40275124
66	0x3f4ea2b3	0.8071701
67	0xbe22cffe	-0.15899655
68	0xbfb5b075	-1.4194475
69	0xbe1343a2	-0.14381269
70	0x3cac3e03	0.021025663
71	0x3d176ad3	0.03696711
72	0xbd034556	-0.032048546
73	0xbe7111fd	-0.23542018
74	0xbe5119c8	-0.20419991
75	0xbe0c565b	-0.13704817
76	0xbdcb01b4	-0.09912434
77	0xbcb71f33	-0.022353744
78	0xbe62e825	-0.22158869
79	0xbd98b685	-0.07456688
80	0x3dcc8d87	0.09987932
81	0x3e2e8902	0.17044452
82	0x3e06764d	0.13131066
83	0xbe193f50	-0.14965558
84	0x3e36d3ce	0.17854235
85	0xbdb4a9c2	-0.08821441
86	0xbe3c0385	-0.18360718
87	0xbe2ef8cc	-0.17087096
88	0xbd36644d	-0.044529248
89	0xbda3c6fa	-0.07996936
90	0xbdf9c675	-0.12196056
91	0xbe17f9a6	-0.14841327
92	0xbd5f4e20	-0.054517865
93	0xbcd6977d	-0.026195282
94	0x3e7929c4	0.24332339
95	0xbee59249	-0.4483817
96	0xbda78ad2	-0.08180775
97	0xbe1684bf	-0.14699076
98	0x3e873942	0.26410872
99	0x3e54d3f9	0.20783986
100	0x3e58ff89	0.21191229
101	0x3e96d388	0.2945826
102	0x3c9d0b02	0.019170288
103	0x3e07bf7d	0.1325664
104	0xbc2c2427	-0.010506666
105	0x3e341ee6	0.17589912
106	0x3a6cfca2	0.0009040331
107	0x3ea06ab5	0.3133141
108	0xbe1afe1f	-0.15136002
109	0xbedd94b2	-0.43277508
110	0xbf013d33	-0.5048401
111	0x3dba4f9c	0.090972155
112	0x3daa050c	0.08301744
113	0x3e26ec44	0.16301066
114	0xbf987e53	-1.1913551
115	0xbe442d29	-0.19157852
116	0x3ca459f6	0.020062428
117	0x3d7a7dee	0.061155252
118	0x3e83fd73	0.25779304
119	0xbe9b2fe2	-0.3030997
120	0xbe71696d	-0.23575373
121	0xbf46d1b8	-0.77663755
122	0xbd3246b2	-0.04352445
123	0x3dfe0981	0.124041565
124	0x3cbdec46	0.023183953
125	0xbd9fa7bc	-0.07795665
126	0x3e5f255e	0.21791598
127	0xbdca6ee8	-0.09884435
128	0xbe00e08e	-0.12585661
129	0x3da189a1	0.07887579
130	0xbb37f1dd	-0.0028067746
131	0x3da98871	0.08277977
132	0x3de4247e	0.11139773
133	0x3d997e39	0.07494778
134	0x3d158d90	0.036511958
135	0xbd4d88fc	-0.050179467
136	0x3f0cf8d2	0.5506717
137	0xbf62da8c	-0.88614726
138	0x3e90cb4f	0.28280112
139	0xbdfd50db	-0.123689376
140	0xbd9bf658	-0.07615346
141	0x3e8cb239	0.27479723
142	0x3e05fa1a	0.13083687
143	0xbef47faa	-0.4775365
144	0x3df7f1ae	0.121066436
145	0x3e4cff52	0.20019272
146	0x3d7d556d	0.061849046
147	0xbec5be1c	-0.38621604
148	0xbe7f8982	-0.24954799
149	0xbe22de7d	-0.15905185
150	0x3e80207b	0.2502478
151	0xbdec3a34	-0.11534539
152	0x3e1c1f13	0.15246229
153	0xbd624899	-0.055245016
154	0xbba31b12	-0.0049775923
155	0xbdcfab54	-0.101401
156	0xbc1919ca	-0.0093445275
157	0x3ea6884c	0.3252586
158	0x3f43ce16	0.7648634
159	0x3f234477	0.63776344
160	0xbe93ce4d	-0.28868333
161	0xbf0b57ea	-0.5443102
162	0x3e22c5bc	0.15895742
163	0x3e564537	0.20924841
164	0x3e60c298	0.21949232
165	0x3e1be537	0.15224157
166	0x3bc071ee	0.0058729565
167	0xbe7a1167	-0.24420701
168	0xbd9cb1b0	-0.07651079
169	0x3ecb0f53	0.3966013
170	0xbe3dfb48	-0.18552887
171	0x3e787e9b	0.24267046
172	0xbdbc871d	-0.09205458
173	0xbce388d0	-0.027775198
174	0xbe3f403f	-0.18676852
175	0xbeb9d379	-0.36294153
176	0xba8aa240	-0.0010576919
177	0x3db94846	0.09046988
178	0x3ddc3b20	0.10753465
179	0xbe0236c3	-0.12716202
180	0x3eafc4d9	0.3432987
181	0xbf794cbd	-0.9738272
182	0xbd08694a	-0.033303536
183	0xbe87a693	-0.26494274
184	0x3ea8b5bb	0.3295115
185	0xbf10567f	-0.5638198
186	0xbeb085ed	-0.34477177
187	0x3ed2bb96	0.41158742
188	0x3d57bdb0	0.052671134
189	0x3e3509de	0.17679545
190	0x3e6980c6	0.2280303
191	0xbdee5ca5	-0.11638764
192	0x3e2e199c	0.17001957
193	0xbec116dc	-0.37712753
194	0xbeeb41e5	-0.4594871
195	0x3c6d84a3	0.014496955
196	0xbe033119	-0.12811698
197	0x3e6b086d	0.22952433
198	0xbdba27ad	-0.09089599
199	0xbd209338	-0.0392029
200	0x3dc997e2	0.098434225
201	0xbe2084f3	-0.15675716
202	0xbdc4bba3	-0.09606101
203	0x3e671dbf	0.22569941
204	0xbf014e18	-0.50509787
205	0xbeac56c9	-0.33659962
206	0x3f0911fb	0.5354306
207	0xbed110c3	-0.408331
208	0xbef58774	-0.47954905
209	0xbe2bf992	-0.16794422
210	0x3dd69d0e	0.104791746
211	0x3df4f76f	0.11961257
212	0x3e83b778	0.25725913
213	0x3d25b006	0.040451072
214	0xbe2507ab	-0.16116206
215	0x3d2e05f6	0.042486154
216	0x3e28af44	0.16473109
217	0xbd9eb036	-0.07748453
218	0x3d807fe0	0.0627439
219	0x3e590045	0.21191509
220	0xbdcfd706	-0.10148434
221	0xbe217484	-0.15767103
222	0x3d856a8b	0.06514462
223	0x3e8ee029	0.27905396
224	0x3de8cd7e	0.113673195
225	0x3ecc570d	0.39910164
226	0xbe0a179e	-0.13485572
227	0x3e9a0e94	0.30089247
228	0x3e72b7c3	0.23702912
229	0xbf475553	-0.7786457
230	0xbe3c21ec	-0.18372315
231	0x3ed3efd7	0.4139392
232	0x3e780d0b	0.24223725
233	0xbe5f0662	-0.21779779
234	0x3c41d3f4	0.011830319
235	0xbe4cb279	-0.19989957
236	0xba9232d2	-0.0011154062
237	0x3ecf403d	0.40478697
238	0xbe41677b	-0.18887131
239	0xbeb0ce1d	-0.34532252
240	0xbd4e0482	-0.050297268
241	0xbe88a4f2	-0.26688343
242	0xbc8bae78	-0.017050967
243	0x3c8bef68	0.017081931
244	0x3dbf5617	0.09342592
245	0xbf0196f0	-0.5062094
246	0xbe39ccec	-0.18144578
247	0xbd8e5025	-0.0694888
248	0x3e48ae19	0.19597663
249	0xbe28fdff	-0.16503142
250	0x3f6fd2ce	0.9368104
251	0x3f0866eb	0.5328204
252	0x3e52ca5d	0.20585008
253	0xbf119a77	-0.5687632
254	0xbd030ceb	-0.03199474
255	0x3e0cebfa	0.13761893

linear1.bias f4 [256]
0	0xbdafa4d2	-0.08576359
1	0x3e663f76	0.22485146
2	0x3e1f5ef5	0.15563567
3	0x3d3af043	0.045639288
4	0x3e4e5e92	0.20153263
5	0x3ccdde22	0.025130335
6	0xbdb40770	-0.08790481
7	0x3cc132fc	0.023583882
8	0x3e261429	0.16218628
9	0x3e9733df	0.29531762
10	0x3e09c54b	0.13454168
11	0x3cd1366f	0.025538651
12	0xbd87a31e	-0.06622909
13	0x3d61b719	0.055106256
14	0x3d612aa1	0.054972295
15	0x3e19064f	0.14943813
16	0xbe475962	-0.1946769
17	0xbe41a4e7	-0.18910562
18	0xbd80aa6e	-0.06282507
19	0xbe575002	-0.21026614
20	0xbd1edc3c	-0.03878425
21	0xbdcc953d	-0.099894024
22	0x3e8f57f9	0.27996805
23	0xbe0784b1	-0.13234212
24	0x3c8b5fa5	0.01701338
25	0xbde7ff02	-0.11327936
26	0x3de607e1	0.112319715
27	0x3c14ae16	0.009074708
28	0xbd264d88	-0.040601283
29	0xbddcbb32	-0.10777892
30	0xbe6d14a6	-0.23152408
31	0x3e1522c8	0.14564049
32	0x3e4be649	0.19912066
33	0x3ce83847	0.028347148
34	0xbdc281b9	-0.09497399
35	0x3e0b8776	0.13625893
36	0xbd84b86d	-0.06480489
37	0xbe00cd27	-0.1257826
38	0x3e09cb1a	0.13456383
39	0xbb22c7b7	-0.0024838278
40	0xbe728777	-0.23684488
41	0xbdd13447	-0.10215049
42	0xbe53dfb5	-0.20690806
43	0xbdcc50a5	-0.09976319
44	0x3dbfb25c	0.09360191
45	0x3d8e1115	0.06936852
46	0x3e828238	0.25489974
47	0xbd989d90	-0.07451928
48	0xbe607328	-0.21918929
49	0xbd181666	-0.037130736
50	0xbdaad3cb	-0.083411776
51	0xbe01f1ca	-0.12689891
52	0x3deaf2e2	0.114721075
53	0xbd5554c0	-0.052082777
54	0x3d8239b5	0.06358663
55	0x3e5f4f15	0.21807511
56	0x3a97d20d	0.0011582986
57	0xbd2bdd66	-0.04195919
58	0xbe572e34	-0.21013719
59	0xbe7f3959	-0.2492422
60	0xbddc8583	-0.10767653
61	0x3e0bad1c	0.13640255
62	0x3c81845c	0.015810184
63	0xbb60bcd9	-0.003429225
64	0xbe2a9e5c	-0.16661972
65	0x3e79d483	0.24397473
66	0xbe5082be	-0.20362374
67	0xbcd8fd5d	-0.026488
68	0xbd82ae23	-0.0638087
69	0x3d8b0b50	0.06789267
70	0xbe756b03	-0.23966603
71	0x3bb2451f	0.005440369
72	0xbe52d02e	-0.20587227
73	0x3e397a2e	0.18113014
74	0x3dda696d	0.106646396
75	0xbe897b2a	-0.2685178
76	0x3c803c37	0.015653713
77	0x3e152421	0.14564563
78	0xbe0263f5	-0.12733443
79	0xbbecc9cb	-0.007226204
80	0xbccab8e1	-0.02474636
81	0xbd19b256	-0.03752359
82	0x3c96f5bb	0.01842772
83	0x3d1c9b5c	0.0382341
84	0x3dd11cc6	0.10210566
85	0x3e94a5b1	0.29032663
86	0xbe80acc5	-0.25131813
87	0xbe692cbd	-0.22770973
88	0x3cf9c32e	0.030488577
89	0x3e3849bf	0.17996882
90	0x3e8a1575	0.26969495
91	0xbd860645	-0.065441646
92	0x3de3d22f	0.11124074
93	0x3e9c5249	0.3053153
94	0xbe9658b2	-0.29364544
95	0xbe1040fa	-0.14087287
96	0x3e01c052	0.1267102
97	0xbe67dfce	-0.22643968
98	0x3c80f382	0.015741114
99	0xbe369176	-0.17828926
100	0xbd529028	-0.05140701
101	0x3dba7334	0.091040045
102	0xbe0ba04c	-0.13635367
103	0x3e653218	0.2238239
104	0xbe425fd2	-0.18981865
105	0xbe5cf101	-0.2157631
106	0x3e665d1a	0.22496453
107	0x3e32b25c	0.17450851
108	0xbe83b727	-0.25725672
109	0xbc9422fc	-0.018083088
110	0xbdb311f3	-0.08743658
111	0xbdaeb4fe	-0.08530615
112	0xbe0fdd99	-0.14049377
113	0x3e0ee1c9	0.13953318
114	0x3da48b20	0.080343485
115	0x3ca0c208	0.019623771
116	0xbe9f5352	-0.31118256
117	0x3de7f913	0.11326804
118	0x3df0153f	0.11722802
119	0x3dc852b5	0.097814
120	0x3e4d6244	0.20057017
121	0xbce7f1f2	-0.02831361
122	0xbceb3fc7	-0.028716935
123	0x3e101ba9	0.14073052
124	0xbd5e188e	-0.054222636
125	0xbd4d9612	-0.050191946
126	0xbdd4c734	-0.103895575
127	0x3dc1c12b	0.09460672
128	0x3e2d965c	0.16951889
129	0xbc81e8c0	-0.015858054
130	0xbe133461	-0.1437545
131	0xbe006ffa	-0.12542716
132	0xbd135dc6	-0.0359781
133	0xbdaef95c	-0.08543655
134	0xbd4e2c63	-0.0503353
135	0xbe0b3ede	-0.135982
136	0xbdb4e370	-0.08832443
137	0xbd400021	-0.046875123
138	0xbe0e7c2f	-0.1391456
139	0x3e079dd6	0.13243803
140	0xbd359beb	-0.044338148
141	0xbe256f84	-0.16155821
142	0xbe02e14f	-0.12781261
143	0xbd2d8805	-0.042366046
144	0xbd4414b1	-0.047871295
145	0xbd97f890	-0.074204564
146	0x3cb4d8b9	0.022075998
147	0x3de0f2d5	0.109838165
148	0xbdf24ed6	-0.11831443
149	0xbd8cac51	-0.06868804
150	0xbdfa6312	-0.122259274
151	0x3e58c983	0.2117062
152	0x3d364e16	0.044508062
153	0xbd9285f3	-0.07154455
154	0x3cbbeee5	0.022941062
155	0xbde3117e	-0.11087321
156	0x3de150f3	0.11001768
157	0xbde050e3	-0.10952928
158	0x3dfb247d	0.12262819
159	0xbde52938	-0.111895025
160	0x3dd2683c	0.102737874
161	0xbd252c9e	-0.040325753
162	0xbdf6a91f	-0.12043976
163	0xbdb9c462	-0.0907066
164	0x3d8b90fe	0.068147644
165	0xbe216a66	-0.15763244
166	0x3d2d50af	0.042313274
167	0xbdf9272c	-0.121656746
168	0x3d9de47c	0.077095956
169	0x3e2cad5e	0.1686301
170	0x3d8e26d3	0.06940999
171	0x3dfb5249	0.12271554
172	0x3d9e2919	0.077226825
173	0xbddd9c9e	-0.10820888
174	0x3d81e860	0.0634315
175	0x3e412aa5	0.18863924
176	0xbd412b61	-0.04716051
177	0x3dc6e0d8	0.09710854
178	0x3d90d7e1	0.07072426
179	0xbdcfb1b0	-0.10141313
180	0x3c8193a3	0.015817469
181	0x3e1beb12	0.15226391
182	0x3de2be93	0.110715054
183	0xbe06f28b	-0.1317846
184	0xbdffef8f	-0.12496864
185	0xbdfc0979	-0.12306494
186	0xbbf19aba	-0.007373181
187	0xbd398aba	-0.045298316
188	0xbe0661d8	-0.13123262
189	0x3e10430f	0.14088081
190	0x3d685907	0.056725528
191	0x3e92fa05	0.28706375
192	0xbe315095	-0.17315896
193	0xbec4d441	-0.38443187
194	0x3e005c8b	0.12535302
195	0xbd98c09a	-0.07458611
196	0xbe1f2d43	-0.1554461
197	0xbcaf620b	-0.021409055
198	0xbc2de6bd	-0.010614094
199	0x3e87a2fc	0.26491535
200	0x3e27f449	0.16401781
201	0x3e3783a5	0.17921312
202	0x3c711c8a	0.014716277
203	0x3e24b2da	0.16083851
204	0x3e7295f3	0.23690014
205	0x3d5d5df1	0.054044668
206	0xbd8b159a	-0.067912295
207	0xbdc95e19	-0.09832401
208	0xbd4f1735	-0.05055924
209	0xbe48da57	-0.1961454
210	0xbdcf9909	-0.10136611
211	0x3e7f1685	0.24910934
212	0xbe60baa1	-0.21946193
213	0xbe50052d	-0.20314474
214	0x3ce9667a	0.028491247
215	0x3e5a9e7e	0.21349522
216	0xbe42ae91	-0.19011904
217	0x3e287cd0	0.16453862
218	0xbe3f5d6d	-0.18687983
219	0x3e27b375	0.16377051
220	0xbe2df80b	-0.16989152
221	0x3cab69c1	0.02092445
222	0xbe513237	-0.20429312
223	0x3ca07738	0.019588098
224	0x3d4dbf24	0.050231114
225	0xbd3206e0	-0.043463588
226	0xbd876733	-0.066114806
227	0xbd868c41	-0.0656972
228	0x3d92d48e	0.07169448
229	0xbe3fa6a0	-0.18715906
230	0xbe8e164c	-0.27751386
231	0xbe0f0e83	-0.1397038
232	0xbe0dff51	-0.13866927
233	0x3ccb7ef3	0.024840808
234	0x3cddf93f	0.027096389
235	0xbe379ac9	-0.1793014
236	0x3dddb20a	0.10824974
237	0x3e33dc73	0.17564563
238	0x3d320841	0.043464903
239	0xbdef426c	-0.11682591
240	0x3e65eb61	0.22453071
241	0x3bb1506a	0.0054111974
242	0x3dc89d76	0.09795658
243	0xbde30ca1	-0.11086393
244	0xbd8c1122	-0.06839205
245	0xbe1de18b	-0.15418069
246	0xbd87d6d2	-0.066327706
247	0xbe243e31	-0.16039349
248	0xbc1e8f1c	-0.009677675
249	0x3da4788d	0.08030806
250	0xbdffe1b4	-0.12494221
251	0xbcd4a883	-0.025959259
252	0x3e445925	0.19174631
253	0x3e13934f	0.14411663
254	0xbea86a6e	-0.328937
255	0x3e8c5127	0.27405664

linear2.weight f4 [256, 256]
0	0xbc92b2f1	-0.017907592
1	0xbf291fdd	-0.66064245
2	0xbe64d10a	-0.22345367
3	0xbc9d2254	-0.019181408
4	0x3eba010a	0.36328918
5	0xbed2b92d	-0.41156903
6	0xbf454d60	-0.7707119
7	0xbd08d126	-0.033402584
8	0xbe62e234	-0.22156602
9	0xbf12f545	-0.574055
10	0xbe543076	-0.20721611
11	0xbdd31227	-0.10306197
12	0x3e05a196	0.13049921
13	0xbe1f2b9d	-0.15543981
14	0xbcb7d658	-0.022441074
15	0xbf755e13	-0.9584667
16	0xbde44e98	-0.11147803
17	0xbc2d17aa	-0.010564724
18	0xbe8201a1	-0.25391868
19	0x3e15f68f	0.14644836
20	0xbec45cd9	-0.38352087
21	0xbd22697f	-0.03965139
22	0xbe6abcff	-0.22923659
23	0xbdfe2514	-0.12409416
24	0x3ca109a8	0.019657925
25	0xbf05359c	-0.52034926
26	0xbe380743	-0.1797152
27	0xbba836d7	-0.0051334905
28	0x3e92bd94	0.28660262
29	0xbc5b4c12	-0.013384836
30	0x3cbf44c9	0.023348229
31	0xbde554be	-0.11197804
32	0x3dbe9a6c	0.093067974
33	0xbf58f192	-0.8474361
34	0xbf263508	-0.6492467
35	0x3ea54045	0.32275596
36	0xbe7d963b	-0.2476434
37	0x3c84376e	0.016139712
38	0xbe818879	-0.25299433
39	0x3eb2428f	0.34816405
40	0xbe41f5fb	-0.1894149
41	0xbef0b822	-0.47015482
42	0x3d78446a	0.06061212
43	0xbd4dc526	-0.050236844
44	0xbad48d22	-0.0016216377
45	0x3c0e4c58	0.008685194
46	0xbf5484de	-0.8301524
47	0x3e621612	0.22078732
48	0x3ec3aaaa	0.38216144
49	0xbd503f05	-0.05084135
50	0x3e2e55d4	0.17024928
51	0xbd1e7588	-0.038686305
52	0xbe1c257e	-0.15248677
53	0xba86e1bc	-0.0010290663
54	0xbccbdff4	-0.024887063
55	0xbe97ddad	-0.29661313
56	0x3e83ce7f	0.25743482
57	0xbc8401e5	-0.016114185
58	0xbce1b51a	-0.027552176
59	0xbe1f2065	-0.15539701
60	0x3ec7c811	0.39019826
61	0xbe62c44e	-0.22145197
62	0x3f2c9b32	0.6742431
63	0xbebe8816	-0.372132
64	0xbdf94f3b	-0.12173315
65	0xbe637f9c	-0.22216648
66	0xbd60afab	-0.05485503
67	0x3c434930	0.011919305
68	0x3e1b12a3	0.15143828
69	0x3c3ebf18	0.01164224
70	0xbe2e9db6	-0.1705235
71	0x3e03db08	0.12876523
72	0x3de8a469	0.11359484
73	0xbe954766	-0.29156035
74	0xbd0e0000	-0.03466797
75	0xbec13ea2	-0.37743098
76	0xbd1acd72	-0.037793584
77	0x3e0763e2	0.13221696
78	0x3e754efc	0.23955911
79	0xbdd389b4	-0.10328999
80	0x3cd1b52a	0.025599081
81	0xbe6ffbdc	-0.2343592
82	0x3ebd675c	0.3699292
83	0xbe277164	-0.16351849
84	0x3e27e2f0	0.16395164
85	0xbec700f1	-0.38867906
86	0x3d259a92	0.040430613
87	0xbd1ce7bd	-0.03830694
88	0xbebfea37	-0.3748338
89	0xbf1efebc	-0.62107444
90	0x3e55865a	0.20852032
91	0x3e47419c	0.19458622
92	0xbd8c345d	-0.06845925
93	0xbe217c69	-0.15770115
94	0xbe661081	-0.22467233
95	0xbd94b7b9	-0.07261605
96	0xbef635bf	-0.4808788
97	0xbe97afbb	-0.2962626
98	0xbce446e4	-0.027865835
99	0xbedfbfb4	-0.43700945
100	0xbd453c19	-0.048153017
101	0xbe886c5c	-0.26645172
102	0x3d28a7f2	0.04117579
103	0x3e3b69ae	0.18302032
104	0xbbb747a0	-0.005593255
105	0x3def0487	0.116707854
106	0x3deca757	0.11555355
107	0xbf841278	-1.0318136
108	0x3ccb2479	0.024797665
109	0xbf0a5654	-0.54037976
110	0xbdaebd1b	-0.08532163
111	0xbf14630a	-0.5796362
112	0xbc8afad8	-0.016965315
113	0xbdb096cb	-0.086225115
114	0x3dd57ab2	0.10423793
115	0xbcd289d1	-0.025700482
116	0x3debb0a9	0.115083046
117	0xbe5bbd63	-0.21458964
118	0xbd9493e6	-0.07254772
119	0x3e246160	0.1605277
120	0xbf04c448	-0.51862
121	0x3db0a486	0.0862513
122	0x3d2c5b76	0.04207941
123	0xbe32cec4	-0.17461687
124	0x3f065e85	0.52487975
125	0x3edc8e98	0.4307754
126	0x3d3384ae	0.043827705
127	0x3cba1e49	0.02271952
128	0xbeb1ef9c	-0.3475312
129	0x3e18dba5	0.14927538
130	0xbda9204c	-0.08258113
131	0x3d5a021b	0.053224664
132	0xbeb7a27d	-0.35866156
133	0x3e744ee5	0.23858221
134	0xbe14e7cc	-0.14541548
135	0xbe14edab	-0.14543788
136	0x3ecf363a	0.4047106
137	0x3c44f4f1	0.012021289
138	0x3d13b83e	0.03606438
139	0xbe1dc2d5	-0.15406354
140	0x3c853cb5	0.016264299
141	0x3e508672	0.20363787
142	0xbf18ba5b	-0.59659356
143	0x3da1a1de	0.07892202
144	0xbefd8924	-0.49518692
145	0x3d79bbd7	0.060970154
146	0x3f06e6d6	0.5269598
147	0x3ecee3c9	0.4040816
148	0xbf45a26d	-0.7720097
149	0xbed06ab7	-0.40706417
150	0xbed6efa5	-0.4197971
151	0xbe6810e6	-0.22662696
152	0x3bf617c0	0.0075101554
153	0x3d8b8810	0.06813061
154	0xbe2a5bb6	-0.16636547
155	0xbd0e8372	-0.034793325
156	0xba377978	-0.0006998996
157	0xbc52822d	-0.012848419
158	0xbef33ca5	-0.47507206
159	0x3d9ef4e0	0.0776155
160	0x3da0a872	0.078446284
161	0x3d4c9569	0.049947176
162	0xbddce346	-0.107855365
163	0xbe3b7f48	-0.18310273
164	0xbf3a7cf7	-0.7284693
165	0xbea7104c	-0.3262962
166	0xbbd8692b	-0.006604334
167	0x3e7e08eb	0.2480809
168	0x3c19bf52	0.009383993
169	0xbeb4f099	-0.3533981
170	0x3dfa12ab	0.12210592
171	0xbe93ced7	-0.28868744
172	0xbecb40e9	-0.3969796
173	0xbe2dd5ab	-0.16976039
174	0xbd807b35	-0.062735
175	0xbeb48aa9	-0.3526204
176	0xbe5c827d	-0.21534152
177	0xbef6c85f	-0.48199746
178	0x3da65abe	0.081227764
179	0x3e24a83c	0.16079801
180	0xbe438e92	-0.19097355
181	0xbed93de6	-0.42430037
182	0xbec179fe	-0.37788385
183	0x3ecae799	0.3962982
184	0xbd24f857	-0.040275898
185	0x3eaa82d8	0.3330295
186	0x3f025378	0.50908613
187	0x3d164efc	0.03669642
188	0xbe2f9a95	-0.17148812
189	0xbf9aeb22	-1.2103007
190	0xbf63b6ee	-0.88951004
191	0xbea9335f	-0.33047006
192	0x3d735021	0.05940259
193	0xbd5de6a3	-0.05417503
194	0xbe9b2f70	-0.3030963
195	0x3de401b5	0.11133138
196	0xbf051d0c	-0.51997447
197	0xbd74e134	-0.059785083
198	0x3e9d941c	0.3077706
199	0xbed4ecc5	-0.4158689
200	0x3d7293d0	0.059222996
201	0xbe79b380	-0.2438488
202	0xbdd8b7e6	-0.10581951
203	0xba38e7ac	-0.0007053565
204	0xbf65513d	-0.89577085
205	0x3c9ec968	0.019383147
206	0x3bb0a4f0	0.005390756
207	0xbe5bb9a2	-0.21457532
208	0xbc847d62	-0.016173068
209	0x3ea22a80	0.3167305
210	0x3e2f5e49	0.1712581
211	0xbe642f2d	-0.22283621
212	0x3d578aa2	0.052622445
213	0x3e0b8a59	0.13626994
214	0x3e95817a	0.29200345
215	0x3e990424	0.29885972
216	0x3d3b6d7a	0.0457587
217	0xbf45771a	-0.7713486
218	0xbe8ee241	-0.27906993
219	0xbd86950a	-0.06571396
220	0xbe4e2dec	-0.20134705
221	0xbe9ecf8b	-0.31017718
222	0x3ed97c4f	0.42477652
223	0xbeba85cc	-0.36430204
224	0x3d5a8edf	0.05335891
225	0xbee34239	-0.4438646
226	0xbd46a1c7	-0.048494127
227	0x3f22362c	0.6336391
228	0xbe00cf3c	-0.12579054
229	0x3cff5630	0.031169027
230	0xbe52672d	-0.20547171
231	0xbeb7790f	-0.35834548
232	0xbeb2171a	-0.3478325
233	0xbe0773a9	-0.13227715
234	0x3d311b41	0.043238882
235	0x3ee8e929	0.45490387
236	0x3cdb0dcc	0.026739977
237	0xbe1cd227	-0.15314542
238	0xbf6b99b8	-0.9203143
239	0x3e1294a3	0.14314513
240	0x3daa4a40	0.08314943
241	0xbcba535f	-0.022744833
242	0xbc61077b	-0.013734694
243	0x3e42faf6	0.19041047
244	0x3d65fe58	0.056150764
245	0xbe059e7d	-0.1304874
246	0x3d2daaa4	0.042399064
247	0xbf129989	-0.57265526
248	0xbd1f85de	-0.038946025
249	0xbd010bea	-0.031505503
250	0x3d8c19ed	0.068408825
251	0xbe95e2f5	-0.29274717
252	0xbe35efea	-0.17767301
253	0xbc2d1d15	-0.010566016
254	0xbe592b5b	-0.21207945
255	0xbece809e	-0.40332502

linear2.bias f4 [256]
0	0xbe4f1de5	-0.20226248
1	0xbdb56620	-0.088573694
2	0xbe3ca2d3	-0.18421488
3	0xbe5a93b9	-0.21345414
4	0xbee7771a	-0.45208055
5	0xbe96256c	-0.29325426
6	0xbe1536c6	-0.14571676
7	0xbe9155b1	-0.2838569
8	0x3c9ad4a4	0.018900223
9	0xbdb4b8ef	-0.08824336
10	0xbde95a85	-0.11394218
11	0xbd61c32b	-0.055117767
12	0xbe5d6c4e	-0.21623346
13	0xbe2f9018	-0.17144811
14	0x3e0cff0d	0.13769169
15	0xbe817ccb	-0.25290522
16	0x3e0d1615	0.13777955
17	0xbe809143	-0.25110826
18	0x3e3eaaed	0.1861989
19	0x3d8e6f53	0.06954827
20	0xbe22fe5f	-0.15917347
21	0xbddbe2e1	-0.10736633
22	0xbd944783	-0.07240202
23	0xbd8e2a43	-0.069416545
24	0xbee6b229	-0.450578
25	0x3e943467	0.2894623
26	0x3dbe73e3	0.092994474
27	0xbd1acf3c	-0.03779529
28	0xbe3dee4f	-0.18547939
29	0x3e5a9caf	0.21348833
30	0x3a2b3695	0.00065312657
31	0x3e85bfb1	0.2612281
32	0xbd15733f	-0.03648686
33	0x3de9cce9	0.11416037
34	0x3e21f6d1	0.15816809
35	0xbe1dbf46	-0.15404996
36	0xbf092821	-0.53576857
37	0x3e2ebee3	0.17065005
38	0xbde8c316	-0.11365335
39	0xbe2ebcd0	-0.17064214
40	0xbeb31e12	-0.3498388
41	0xbed02238	-0.40651107
42	0xbde12a4e	-0.10994397
43	0x3c2df1bb	0.010616715
44	0xbdbfbc42	-0.09362079
45	0x3f19b4b2	0.60041344
46	0xbeb9e9e1	-0.36311248
47	0x3e779404	0.24177557
48	0x3e8d7105	0.2762529
49	0xbea169a6	-0.31525916
50	0x3d88ee01	0.06686021
51	0xbe67f0ef	-0.22650503
52	0xbe9173e4	-0.2840873
53	0x3ea04623	0.3130351
54	0x3e1a278d	0.1505415
55	0xbd878f07	-0.06619077
56	0xbe942f60	-0.28942394
57	0xbeb19b82	-0.34688956
58	0x3cf49751	0.02985731
59	0xbebc1e30	-0.3674178
60	0xbdd0c016	-0.101928875
61	0xbeea3723	-0.4574519
62	0xbe1193fb	-0.14216606
63	0xbe8f6fda	-0.28015023
64	0xbcd0a90a	-0.02547123
65	0x3e0ce511	0.13759257
66	0x3bac5cda	0.005260092
67	0xbd1b080c	-0.03784947
68	0xbe57b36f	-0.21064542
69	0xbe865641	-0.26237682
70	0xbe407721	-0.18795444
71	0xbd0c299c	-0.03421937
72	0x3d54b6bb	0.051932078
73	0x3df030c7	0.117280535
74	0xbdd197a4	-0.10234001
75	0x3d937e7e	0.07201861
76	0xbe9046b9	-0.28178957
77	0x3e4d7190	0.20062852
78	0x3e57a4bb	0.21058933
79	0xbbd62945	-0.0065356814
80	0xbd9d647c	-0.076851815
81	0xbd16f807	-0.03685763
82	0xbdf6a3c3	-0.12042954
83	0xbde19d3a	-0.11016317
84	0xbe087d59	-0.13329066
85	0x3dd2a010	0.10284436
86	0x3d9c1315	0.07620827
87	0xbe41a060	-0.18908834
88	0x3cda270a	0.026629943
89	0xbe983514	-0.29727995
90	0xbe6e93e8	-0.2329861
91	0xbe6ae7a1	-0.22939922
92	0xbeaa9751	-0.3331857
93	0x3e361623	0.17781882
94	0xbd8cced1	-0.068753846
95	0xbcfd3347	-0.03090824
96	0x3dd84d56	0.10561626
97	0xbd8e8b54	-0.069601685
98	0xbde0b4bb	-0.109719716
99	0x3d175076	0.036941968
100	0xbd8c6e7e	-0.06857012
101	0xbf18351b	-0.5945603
102	0xbe6e2baf	-0.23258851
103	0x3af14527	0.001840745
104	0xbe211f3c	-0.15734571
105	0xbe3a459f	-0.18190621
106	0x3b9bce2c	0.004754802
107	0x3c9fc41d	0.019502694
108	0x3eb2c869	0.34918526
109	0xbea94c7e	-0.3306617
110	0x3b930f31	0.004487895
111	0xbd687058	-0.056747764
112	0xbd0f36ae	-0.034964256
113	0xbe29c0bc	-0.16577429
114	0x3e3b4cad	0.18290968
115	0xbe45abf4	-0.19303876
116	0x3dcc9fc7	0.099914126
117	0xbe076ba6	-0.13224658
118	0xbe2dad46	-0.1696063
119	0xbcdbc0d1	-0.02682534
120	0xbe0bf6a8	-0.1366831
121	0x3dcdd081	0.100495346
122	0xbe1feda0	-0.1561799
123	0x3c35e326	0.01110152
124	0x3d1b657a	0.037938572
125	0xbe64aa8b	-0.22330682
126	0xbe89bab7	-0.26900265
127	0x3e3ee370	0.18641448
128	0xbdc739a9	-0.09727795
129	0x3de2e715	0.11079232
130	0xbe69afdc	-0.22820991
131	0xbe849bd9	-0.25900152
132	0x3c3ca390	0.011513606
133	0xbebca603	-0.36845407
134	0xbd3de8b9	-0.04636452
135	0xbd1888d4	-0.037239864
136	0xbdcefdaa	-0.10106976
137	0xbe974a9f	-0.2954912
138	0xbb3afe64	-0.0028532976
139	0xbcfaab1c	-0.03059917
140	0x3ebebd78	0.37253928
141	0x3f044fae	0.5168408
142	0xbe497c6a	-0.19676366
143	0xbefe382b	-0.49652228
144	0xbeae70da	-0.34070474
145	0x3d90599b	0.07048341
146	0x3e878553	0.26468906
147	0xbe02e67c	-0.12783235
148	0x3e59f754	0.21285754
149	0xbe64ef74	-0.22356969
150	0xbe75bee9	-0.23998608
151	0xbd43485c	-0.04767643
152	0xbe9ffbf2	-0.31246907
153	0xbe3ead6e	-0.18620846
154	0xbe028534	-0.12746125
155	0x3ce04bb5	0.02737985
156	0xbd213409	-0.039356265
157	0xbe3974ed	-0.1811101
158	0x3d5e00b6	0.054199897
159	0xbe243b1e	-0.16038176
160	0xbe827cba	-0.25485784
161	0x3eaff179	0.34363917
162	0xbd87cc3f	-0.06630754
163	0xbbafaebf	-0.0053614075
164	0x3e8b6621	0.27226356
165	0xbda84064	-0.082154065
166	0xbe19c67b	-0.1501712
167	0x3dd9863e	0.10621308
168	0xbe0c4521	-0.13698246
169	0xbe2fca6f	-0.17167066
170	0xbe249cd0	-0.16075444
171	0x3c2d9f53	0.010597068
172	0xbc9bee59	-0.019034551
173	0x3e64a360	0.22327948
174	0xbedc0701	-0.42974094
175	0xbca37f9e	-0.019958314
176	0xbd9f1516	-0.07767694
177	0xbc480365	-0.012207841
178	0xbecb8159	-0.39747122
179	0x3ee0c10a	0.43897277
180	0x3e2ee555	0.1707967
181	0x3e5403c9	0.20704569
182	0xbf1e52d8	-0.6184516
183	0xbec0befd	-0.37645712
184	0xbd8cd171	-0.06875885
185	0x3e0d3d96	0.13793024
186	0xbdebcbf9	-0.11513514
187	0x3b413d7d	0.0029486113
188	0x3f08e769	0.53478104
189	0xbd1538d8	-0.036431164
190	0xbee4f17a	-0.44715482
191	0xbe73fa61	-0.2382598
192	0x3d8a8d68	0.06765252
193	0xbf02ba58	-0.5106559
194	0xbdc54fbd	-0.096343495
195	0x3dfbb845	0.12291006
196	0xbd5e1ed3	-0.054228615
197	0xbdb411a8	-0.0879243
198	0xbc17afdf	-0.0092582395
199	0x3ec6c9a4	0.38825715
200	0xbd2cb6c3	-0.042166483
201	0xbd464eb9	-0.04841492
202	0xbdb15d82	-0.08660413
203	0xbea3af5e	-0.31969732
204	0xbe2a283c	-0.1661691
205	0xbecf525b	-0.4049252
206	0xbe9f2fb4	-0.31091082
207	0x3dcbcf0e	0.09951602
208	0x3d84c599	0.06483001
209	0xbea695bc	-0.32536113
210	0x3e2179fd	0.15769191
211	0xbdda801e	-0.10668968
212	0xbe9e272a	-0.30889255
213	0xbf1b89fc	-0.6075742
214	0x3d80c8b4	0.06288281
215	0xbdfd6f7a	-0.12374778
216	0xbe23087b	-0.15921204
217	0xbebef3ad	-0.37295285
218	0x3b6fc9fa	0.0036588893
219	0xbdc04fda	-0.093902305
220	0xbebe0270	-0.37111235
221	0x3e19f555	0.15034993
222	0x3e021127	0.12701856
223	0xbd6ecb60	-0.058299422
224	0xbe15a558	-0.14613855
225	0x3e25c933	0.16190033
226	0x3d589d29	0.052884255
227	0xbeda731b	-0.42665944
228	0x3ba62978	0.0050708614
229	0xbe069997	-0.13144527
230	0x3d5928cf	0.053017434
231	0x3df95538	0.12174457
232	0xbe35d6e9	-0.17757763
233	0xbdff4793	-0.124648236
234	0xbd8daa7f	-0.06917285
235	0xbea3bb18	-0.3197868
236	0xbefc4a00	-0.49275208
237	0xbd14bb94	-0.0363117
238	0xbe9052b0	-0.28188086
239	0xbd80a440	-0.06281328
240	0x3e8f4355	0.27981058
241	0xbe4be145	-0.19910152
242	0xbc699afe	-0.014258144
243	0xbe392d1f	-0.18083619
244	0x3d54f3a4	0.051990166
245	0xbe7e9f4d	-0.24865456
246	0xbe1afd99	-0.15135802
247	0x3e67d51d	0.2263989
248	0xbca48709	-0.020083921
249	0xbd6ae3e7	-0.05734625
250	0x3dfd4ace	0.123677835
251	0xbe9ab8b6	-0.30219048
252	0xbe6f3870	-0.23361373
253	0x3d2e9bc5	0.042629022
254	0xbda73164	-0.081637174
255	0x3e7363dc	0.23768562

linear3.weight f4 [3, 256]
0	0x3de3a8d0	0.11116183
1	0xbd1be10d	-0.038056422
2	0xbb862fdc	-0.0040950608
3	0xbf2cab6a	-0.6744906
4	0xbf2d208b	-0.6762778
5	0xbec44d42	-0.38340193
6	0xbd98bfd8	-0.07458466
7	0xbf5baa99	-0.85807186
8	0x3e520aee	0.20511982
9	0xbc879a6b	-0.016553124
10	0x3e0c8056	0.13720831
11	0xbe43908d	-0.1909811
12	0xbc44f012	-0.012020128
13	0xbe5f80a4	-0.21826416
14	0x3dd1ed2c	0.10250315
15	0xbe1f2988	-0.15543187
16	0x3f383dab	0.719691
17	0x3e9b49db	0.30329785
18	0xbda35aae	-0.0797628
19	0x3edf37cb	0.43597254
20	0xbee1d1c7	-0.4410536
21	0xbef79a8c	-0.48360097
22	0x3c9c53ea	0.019082982
23	0x3c97c364	0.018525787
24	0xbdf213f1	-0.1182021
25	0x3f22efec	0.6364734
26	0x3ca88f43	0.020576125
27	0x3ccdffbe	0.025146361
28	0xbdd99058	-0.106232345
29	0x3d40bba9	0.047053967
30	0xbcf76549	-0.030199664
31	0x3eedbc96	0.46432942
32	0xbf30c45a	-0.6904961
33	0xbc819145	-0.01581634
34	0x3d9613a1	0.07327963
35	0xbf3dabc0	-0.74090195
36	0xbf8679be	-1.0505903
37	0xbd882467	-0.06647568
38	0xbd4a6330	-0.049411
39	0xbf4facd6	-0.811231
40	0xbe8709be	-0.2637462
41	0xbfe2232a	-1.7666981
42	0xbe93952f	-0.28824756
43	0x3d3e8afc	0.046519265
44	0xbcbb21c9	-0.022843258
45	0x3fc041eb	1.5020117
46	0xbea0d1a5	-0.31409946
47	0x3de0ad97	0.1097061
48	0x3e863da6	0.2621891
49	0x3cbb796a	0.022885043
50	0x3eb591e7	0.35462877
51	0xbe0212a0	-0.12702417
52	0xbebf2df2	-0.3733974
53	0xbf68eb1b	-0.9098374
54	0x3f9a350f	1.2047442
55	0xbd90ffec	-0.07080063
56	0xbec7bbb0	-0.39010382
57	0x3bc48ce5	0.0059982412
58	0x3ed2d8c3	0.41181
59	0xbf23398e	-0.63759696
60	0xbc8f84a9	-0.017519312
61	0xbf738e24	-0.95138764
62	0xbd7b64c0	-0.06137538
63	0x3d7a9a62	0.061182387
64	0x3d7f45a6	0.06232228
65	0x3e907a2a	0.28218204
66	0xbd93415f	-0.07190203
67	0x3e558de6	0.20854911
68	0xbe233af9	-0.15940465
69	0xbe18e7b8	-0.14932144
70	0x3eb26e6a	0.34849864
71	0x3e0a9762	0.1353431
72	0x3e77c63b	0.24196713
73	0xbde46fc6	-0.111541316
74	0xbc82ba40	-0.015957952
75	0xbe020de7	-0.12700616
76	0xbf9467e6	-1.1594207
77	0xbcf893e5	-0.03034396
78	0x3da9fc79	0.083001085
79	0xbe118431	-0.14210583
80	0x3df2cf6e	0.1185597
81	0xbe8daead	-0.2767233
82	0xbdc5e9a1	-0.09663702
83	0x3e018e20	0.12651873
84	0x3d9d017b	0.07666298
85	0x3e005527	0.12532483
86	0x3cb48338	0.022035226
87	0xbe982783	-0.29717645
88	0x3e85504a	0.26037818
89	0x3cc07133	0.023491478
90	0xbf01941a	-0.5061661
91	0xbe480c51	-0.19535948
92	0xbf158ef3	-0.5842125
93	0x3f23f964	0.64052415
94	0xbdfe0ca8	-0.12404758
95	0xbc5497ca	-0.012975642
96	0x3fac202f	1.3447322
97	0x3d399a8e	0.04531341
98	0x3c5f0cf5	0.013613929
99	0x3ed15092	0.40881783
100	0x3c7afd37	0.01531916
101	0xbf351a0e	-0.7074288
102	0x3ef7c46d	0.48392048
103	0x3ec79ac7	0.38985273
104	0xbc3625e7	-0.011117435
105	0x3f00713c	0.5017278
106	0x3e59ee39	0.21282281
107	0x3cd253ea	0.025674779
108	0x3dac73bd	0.08420513
109	0xbe58d46e	-0.21174785
110	0x3d8a007a	0.06738372
111	0x3cbe3e1b	0.023222974
112	0x3e970be2	0.29501253
113	0xbd6d52bb	-0.057940226
114	0x3d2109bc	0.039315924
115	0xbe8f1fb3	-0.27953872
116	0x3e5f2ec5	0.21795185
117	0x3ea7bd9d	0.3276185
118	0x3ebe572a	0.37175876
119	0x3d12cd34	0.03584023
120	0x39ae4220	0.00033237133
121	0x3e92b457	0.28653213
122	0xbd623374	-0.05522485
123	0x3efbaba7	0.49154398
124	0x3f1fe9b9	0.6246601
125	0xbf060b00	-0.52360535
126	0xbdbc2398	-0.091864765
127	0xbc53c2fa	-0.012924904
128	0xbe05f8f8	-0.13083255
129	0x3f624aa0	0.8839512
130	0xbd483ac1	-0.048884157
131	0xbff0af0a	-1.8803418
132	0x3d1653e9	0.036701117
133	0xbee82b29	-0.4534543
134	0xbe845367	-0.2584488
135	0x3c9f72a3	0.019463843
136	0x3d58dde9	0.052946005
137	0x3ca97b98	0.020688817
138	0x3e67f2ed	0.22651263
139	0x3dd4ea34	0.10396233
140	0x3fcb37b8	1.5876379
141	0x3f25784b	0.6463668
142	0xbef50ae3	-0.47859868
143	0xbf9d10ed	-1.227079
144	0xbf272f00	-0.6530609
145	0xbdcba99f	-0.09944462
146	0x3e38adf8	0.18035114
147	0xbe8b5e5d	-0.2722043
148	0x3e72a6fc	0.23696512
149	0xbecf2dff	-0.4046478
150	0xbf102154	-0.56300855
151	0x3ca7e0db	0.020492962
152	0xbd99076a	-0.07472117
153	0xbe17f171	-0.14838196
154	0xbe39d777	-0.181486
155	0xb948bbcc	-0.00019143446
156	0xbc9ff69e	-0.019526776
157	0x3dce23a4	0.10065392
158	0x3d68549b	0.05672131
159	0x3e0a109d	0.134829
160	0xbda50f64	-0.08059576
161	0x3f180c8e	0.59394157
162	0x3d791d42	0.060818918
163	0x3f00a19a	0.50246584
164	0x3da0a124	0.07843235
165	0x3d1afacd	0.03783684
166	0x3ec27dd4	0.37986624
167	0x3e066b56	0.13126883
168	0xbdddb600	-0.10825729
169	0x3d9d5a4d	0.07683239
170	0xbec98f57	-0.39367172
171	0x3dec6545	0.11542753
172	0x3ee4b1af	0.44666812
173	0x3ead98ef	0.33905742
174	0xbdd42277	-0.10358136
175	0x3d728c61	0.059215907
176	0xbd860195	-0.065432705
177	0x3cde689f	0.027149497
178	0xbd66249f	-0.05618727
179	0x3e9e126d	0.30873433
180	0x3f27b249	0.65506417
181	0x3faa105f	1.3286246
182	0xbeab894c	-0.33503187
183	0xbe927cef	-0.28610942
184	0xbdfc9240	-0.123325825
185	0x3e20bdb3	0.15697365
186	0x3e28fcc4	0.16502672
187	0xbce51d00	-0.02796793
188	0x4004f86b	2.0776622
189	0x3d7ab0c8	0.061203748
190	0xbf3a0caf	-0.72675604
191	0x3f83fc4e	1.0311372
192	0x3ed6d7e9	0.419616
193	0xbdc30662	-0.09522702
194	0xbc3c016d	-0.011474949
195	0xbc1d79d7	-0.009611568
196	0xbc6e774d	-0.014554811
197	0xbbb332a9	-0.0054686856
198	0xbdc8960f	-0.097942464
199	0xbd441563	-0.04787196
200	0xbd344c05	-0.04401781
201	0x3d8b3e5e	0.06799005
202	0xbc9f5e01	-0.019454004
203	0xbd5c08b8	-0.053719252
204	0x3e01b293	0.12665777
205	0xbe9c4e55	-0.30528513
206	0xbf0a23c7	-0.5396084
207	0x3e0fcadd	0.1404223
208	0x3dc58d5b	0.09646102
209	0xbdbb78c8	-0.091538966
210	0xbdde2a39	-0.10847897
211	0xbf57aff7	-0.84252876
212	0x3d7811a3	0.060563695
213	0xbf849c32	-1.0360167
214	0x3d50fcd8	0.05102238
215	0xbeb75179	-0.35804346
216	0xbf14c98c	-0.58120036
217	0xbe7ee149	-0.24890627
218	0x3d3688b2	0.044563957
219	0xbd596a5f	-0.05307996
220	0xbe4ed99b	-0.20200197
221	0x3e887217	0.26649544
222	0xbd958ac7	-0.0730186
223	0xbc031fcb	-0.0080031855
224	0xbda94a93	-0.08266177
225	0xbdd0df82	-0.10198881
226	0x3e66ea57	0.22550331
227	0xbe2ef174	-0.17084295
228	0xbe9db2de	-0.30800527
229	0xbd9111ca	-0.07083471
230	0x3d6116f3	0.054953527
231	0x3e4474fb	0.1918525
232	0x3cdd22b3	0.026994085
233	0x3ce35f3a	0.027755369
234	0xbf4fb62e	-0.8113736
235	0xbe8b623a	-0.27223378
236	0xbf0d13db	-0.5510842
237	0xbdd8bc12	-0.105827466
238	0xbfa1fd54	-1.2655435
239	0x3fa92838	1.3215399
240	0x3e969582	0.2941094
241	0x3e7fa755	0.24966176
242	0x3b0a1999	0.0021072386
243	0xbe074ca5	-0.13212831
244	0xbe81e379	-0.2536886
245	0xbea147af	-0.31500003
246	0xbd19c7eb	-0.037544172
247	0x3e8a3de6	0.2700035
248	0xbe94c67f	-0.2905769
249	0x3cf15f5a	0.029464412
250	0xbb50fe25	-0.0031889763
251	0x3d969001	0.07351685
252	0xbc721e7d	-0.014777777
253	0xbc3939b8	-0.011305265
254	0xbe1b3e8b	-0.15160577
255	0x3bf40fc4	0.0074481685

linear3.bias f4 [3]
0	0x3e9b6c82	0.30356222
1	0xbeab8786	-0.33501834
2	0x3ccb8462	0.024843398
