models/Env1/PDDRL_256_A5_S1_P/local_episode_2750_reward_200.000000.pt (torch, 293866 bytes, 6 tensors)

linear1.weight f4 [256, 23]
000000 e8 1d 1d be 94 24 a0 bd 39 eb a2 bd 87 39 ef 3d
       -0.1534344 -0.07819477 -0.079550214 0.11680894
000010 88 c5 01 3d c2 ab 02 3d 80 cf b7 bd c5 7d 17 be
       0.03168252 0.031902082 -0.08975124 -0.14794071
000020 e8 9b 2d be 28 13 e2 3d c5 3d a0 3c b1 a0 19 3e
       -0.16954005 0.1103881 0.019560704 0.15002705
000030 26 8d 3a 3e 9a f0 b0 3d 51 af 8d bd 1e 6d 0b be
       0.18217906 0.08639641 -0.069182046 -0.13615844
000040 25 02 c0 bb a1 1d 35 3e 18 b3 09 be 0a 91 ef bc
       -0.0058596306 0.17687084 -0.13447225 -0.029243965
000050 44 81 49 be ac b1 4a bd 60 d4 0c 3e 3f 00 28 be
       -0.19678217 -0.049485847 0.1375289 -0.16406344
000060 36 06 06 3e dc ee 14 bd 9f de 4e 3e db ad 1b 3d
       0.13088307 -0.036360607 0.2020211 0.0380076
000070 c0 d3 bc bd 93 04 50 bd 55 e2 08 3d b3 0b c4 3c
       -0.092200756 -0.050785612 0.033418972 0.02393136
000080 c9 fb d2 bd 55 d2 4b 3c 04 6b f4 bd 01 46 39 3e
       -0.103019305 0.012440284 -0.11934474 0.1809311
000090 c5 c4 b6 bd 4c 1d 11 3e f2 50 2d 3b 24 01 f7 3c
       -0.089242496 0.14171332 0.0026445952 0.030151911
0000a0 d0 2b e2 bc 2a f4 82 3c 0f b3 2d be de 71 fe bc
       -0.027608782 0.015985567 -0.16962837 -0.031060155
0000b0 87 56 09 3d 40 4b 23 be 1c 68 cb bd 8d 06 2b 3e
       0.033529785 -0.15946674 -0.09931967 0.16701718
0000c0 85 0b b7 3d 05 59 c8 bd 68 13 96 bc b7 24 43 3a
       0.08937744 -0.09782604 -0.0183198 0.00074441306
0000d0 8c 05 0b be 66 d1 45 bd 1e 94 11 3e 6e 96 c9 bc
       -0.13576335 -0.0482954 0.14216658 -0.024607863
0000e0 d0 bd b3 bd 0b 23 80 3d bd f9 34 bd 40 bc 2c bd
       -0.08776438 0.06256684 -0.04418348 -0.042171717
0000f0 e4 5f 12 be 7e 1b 04 be 5e 22 6e 3d 7a 11 fc bc
       -0.14294392 -0.12901112 0.058138244 -0.030770052
000100 96 f7 54 bd f2 a6 3c be fd ee 3f 3e fe 39 0b bd
       -0.05199393 -0.1842306 0.1874351 -0.033990853
000110 c7 64 df 3d 12 0b 05 3e 21 e1 75 bd 0f f6 2a 3e
       0.10907894 0.12992504 -0.060029153 0.16695426
000120 f6 66 d6 3d 4f eb 9a bd 8e ff 14 3e 46 65 be 3d
       0.10468857 -0.07564413 0.14550611 0.0929666
000130 4f 75 9b bd e8 ca c8 3d dc 1c b9 bc 43 7a 1c 3e
       -0.07590734 0.09804326 -0.022596769 0.15281014
000140 05 5b 4a 3e 36 4e e4 bd ae 9d 34 bd cb 51 0a be
       0.19761284 -0.1114773 -0.044095688 -0.13507764
000150 16 86 df bc 1b 98 bc 3c 4d e9 45 be 65 dc 23 be
       -0.027285617 0.023021748 -0.19327278 -0.16002043
000160 4a 62 37 3e 2a 5e 09 3c c1 10 53 3c 2f 7c 50 bb
       0.17908588 0.008384267 0.012882412 -0.00318123
000170 d5 b3 3b 3c 2f bf ee bd aa c4 06 3e d3 8d 40 bd
       0.0114564495 -0.11657559 0.13160959 -0.047010254
000180 69 3e 12 be 1b a4 bf 3b 9b 21 15 bd 7a d3 9e 3a
       -0.1428162 0.0058484203 -0.036409 0.0012117468
000190 9e 6e 40 3e b5 2c 00 3e d6 23 c5 3d a3 09 b1 bd
       0.18792197 0.12517054 0.09625976 -0.08644416
0001a0 27 50 f6 bd 95 0c 4f 3e c3 75 15 3e 5f 71 aa 3d
       -0.120270066 0.20219643 0.14595704 0.08322405
0001b0 de d6 ae 3b 37 4e 18 3e 39 3b 24 be 1b f3 5c 3d
       0.0053356728 0.14873587 -0.16038217 0.05394278
0001c0 ee 2c ae 3b 85 05 1b 3e e9 54 4d be 34 da 68 3c
       0.0053154146 0.15138824 -0.20051922 0.01421218
0001d0 c5 9d c6 3c e7 14 4b be 2f e9 42 bd cc 2d 8f 3d
       0.024245152 -0.19832192 -0.047585662 0.06991157
0001e0 fc 6e 4d bd e0 68 28 be 05 41 51 3e aa 8f 4c bc
       -0.05015467 -0.16446257 0.20434959 -0.012485424
0001f0 09 2b 0e be 25 78 e3 3d 31 bd 3c 3e 1d a2 3a be
       -0.13883604 0.111069 0.18431546 -0.18225904
000200 d4 54 4b 3e 10 da cc 3d bd 92 ae bc af 51 0c 3e
       0.19856578 0.100025296 -0.021310205 0.13703035
000210 0a e3 89 3c 00 25 9e 3c 9e 2e 88 3d 93 85 e1 bc
       0.016831893 0.019304752 0.066495165 -0.027529513
000220 dc 20 35 be 1b a0 ef 3b 19 05 3b 3c a1 bf 01 3e
       -0.17688316 0.007312787 0.01141479 0.12670757
000230 2a d0 32 3e 7c 8f 72 bd 49 b0 00 3e cb 90 0d be
       0.17462221 -0.05921887 0.12567247 -0.13824765
000240 63 dc a5 bd 83 38 94 3d a6 72 97 bc 59 72 05 bd
       -0.08098676 0.07237341 -0.018487286 -0.032579754
000250 4a 21 4c be ad dd 00 be d5 c7 e2 3d be 42 41 be
       -0.19934574 -0.12584563 0.11073271 -0.18873116
000260 3c 97 ed 3c d7 e2 5c bd 22 a6 cc 3d 32 aa 1a 3e
       0.029002778 -0.05392727 0.09992625 0.15103987
000270 37 46 cc 3d ab 2a d8 3d 45 e5 95 bc 3a d7 fd 3d
       0.0997433 0.10555013 -0.0182978 0.12394567
000280 07 3d 9d 3c cf a1 88 3d 90 6d 39 be 83 25 9b bc
       0.01919414 0.066714875 -0.18108201 -0.018938785
000290 d4 a0 43 3e 1c f1 f2 3d 83 6f 86 bb 13 a7 0c 3e
       0.1910432 0.11862394 -0.0041026487 0.13735609
0002a0 19 a6 05 3e cc 7a 0b be 69 ea 04 be 67 38 14 3e
       0.13051642 -0.13621062 -0.12980045 0.14474641
0002b0 e4 dc 98 3d 88 d5 07 3a e1 fe 7f 3d 53 b6 52 3e
       0.074640065 0.000518166 0.06249893 0.20577364
0002c0 8f 76 09 3a 01 95 44 be 56 65 4a 3e 95 cb 0d be
       0.0005243802 -0.19197465 0.19765219 -0.13847192
0002d0 b7 1d 0a 3e fe 19 35 be b8 23 15 bc e9 59 df bd
       0.13487898 -0.17685696 -0.009102754 -0.10905821
0002e0 4c 7e 46 be 78 3c 07 3e 34 7e 99 bd 57 a7 b9 bd
       -0.19384116 0.13206661 -0.074947745 -0.09065121
0002f0 be 23 f7 bd f0 60 e4 3b 5e 0d ed bd 4c 92 2f be
       -0.12067364 0.0069695637 -0.11574815 -0.17145652
000300 02 42 31 3e 65 94 43 3e 6f c4 a5 3c f2 4e 1e 3e
       0.17310336 0.19099577 0.020235268 0.15459803
000310 ef 6b 72 3c 3a 57 0f 3e 45 96 4d be 33 a0 44 be
       0.014796241 0.13998118 -0.20076855 -0.19201736
000320 23 b9 22 bd 20 3c 27 3e 99 5a a0 bc 9c 07 45 3d
       -0.03972734 0.1633153 -0.01957445 0.04810296
000330 84 0d 30 3e f3 9c 3b be dc 9e 3d 3d 04 a1 f6 bd
       0.17192656 -0.1832159 0.04629408 -0.1204243
000340 93 24 02 be d4 84 38 3d 10 3a 10 3e f6 b4 a0 3d
       -0.12709264 0.04504855 0.14084649 0.078470156
000350 93 8e 6b bd e9 fa 2c 3e d8 e3 dc bd 9f 48 3e 3e
       -0.057509016 0.1689259 -0.10785645 0.1858239
000360 84 1f b8 bd 78 0e 64 3c 8a 46 06 be 0b 27 80 bd
       -0.08990386 0.013919465 -0.13112846 -0.06257447
000370 df 37 34 3d b7 bf f1 bd 10 3c f4 bd a7 9b 44 3d
       0.043998595 -0.11804145 -0.119255185 0.048000004
000380 91 d3 ce 3d 99 e2 1f be 79 a8 12 3e dc a0 0e be
       0.10098947 -0.15613784 0.1432208 -0.1392855
000390 1c 8d d0 bd de 2b 2c 3e 91 f4 b8 bc e3 cb b3 bb
       -0.101831645 0.16813609 -0.022577556 -0.0054869517
0003a0 87 bc 3e 3e 3a 28 32 bd 37 85 84 bd d0 32 23 be
       0.18626605 -0.043495394 -0.06470721 -0.15937352
0003b0 33 f0 90 3c c2 17 6e 3d 36 e1 ad bd 9a bc 00 3e
       0.01769266 0.058128126 -0.08490221 0.12571946
0003c0 c8 c6 ac bd bd 2e 54 be 62 d2 0b 3e d5 6a 1a 3e
       -0.08436352 -0.20720954 0.13654473 0.15079816
0003d0 ef a2 42 3e ed f4 18 3e 5d e5 27 bd c0 7e 87 3d
       0.19007467 0.14937182 -0.040990222 0.066159725
0003e0 b2 77 11 be f3 07 db bd 7a e0 15 3d 1b 2b 36 bd
       -0.14205816 -0.106948756 0.03659103 -0.044474702
0003f0 9c ed 46 3e 94 4e c4 3c 66 18 3f bb 49 64 51 be
       0.19426578 0.02396325 -0.002915883 -0.20448412

linear1.bias f4 [256]
000000 11 72 32 be e2 ea 12 be 93 e3 4f be ca ca fb bd
       -0.17426325 -0.14347413 -0.20301656 -0.12294538
000010 e0 bf 0f 3e f7 e8 37 be 3a ff 52 be 27 8b 35 bd
       0.14038038 -0.17959963 -0.20605174 -0.04432216
000020 ac d4 47 3e c7 a7 ca bd ed e7 45 3e be b1 5e bd
       0.19514722 -0.09895282 0.19326754 -0.054368727
000030 39 38 23 be 3e 77 71 3c b0 eb 80 3d a1 24 d7 bd
       -0.15939416 0.014737902 0.06294954 -0.10505033
000040 4d 42 da 3c ee 80 b4 3d 90 e0 f7 3c b8 f5 c5 bd
       0.026642943 0.08813654 0.030258447 -0.09666008
000050 e6 60 45 be 47 13 17 bd d2 86 13 3e 13 c9 0f 3e
       -0.19275245 -0.03688362 0.14406899 0.14041547
000060 e7 cc f4 3c 73 84 4a 3e 8f ad c4 bb a9 93 b8 bb
       0.029882861 0.19777088 -0.006002135 -0.005632837
000070 ea 78 04 3d 26 6e 21 3d 0f e3 09 be 5b bf ad bd
       0.032341875 0.039411686 -0.13465522 -0.08483764
000080 51 0a e9 3c f7 b9 0a be 41 04 8c bb a4 4a d9 3a
       0.028447302 -0.13547502 -0.004272968 0.0016578031
000090 3d 7c 3f be df da e9 3d 20 3a 46 3d 2f eb 09 3e
       -0.18699737 0.114186995 0.048395276 0.13468622
0000a0 2f c7 09 be 2d d2 3c be f2 65 06 3d 37 0d 6a bd
       -0.13454889 -0.1843955 0.032812066 -0.05714151
0000b0 bd 82 cd bd 29 bf 1e be 6e d9 1c be 4d 43 79 bd
       -0.10034702 -0.1550261 -0.15317318 -0.0608552
0000c0 55 2b b0 bd bd 00 d6 3d 31 a2 c4 bd 01 74 94 bd
       -0.08602015 0.104493596 -0.09601248 -0.072486885
0000d0 e8 de 90 bd 32 4d 3c 3a e2 14 22 3d 4e 72 25 be
       -0.07073766 0.0007183134 0.039570697 -0.16156885
0000e0 00 7d ff bd 75 76 09 3d b2 6b 92 3d 7f ac 39 be
       -0.12475014 0.033560235 0.071494475 -0.18132208
0000f0 b1 4b 14 be a4 b7 10 3e 0d 5f 8d bd 05 91 1b 3e
       -0.14481999 0.14132553 -0.06902895 0.1519204
000100 19 3f a7 bd 4b 65 30 be 47 1b 08 bc 50 30 0d 3e
       -0.08166332 -0.1722614 -0.008307285 0.13787961
000110 a2 76 4a 3c 89 65 bb 3b cc 82 02 be 84 ab 16 3d
       0.012357386 0.005718891 -0.12745208 0.036784664
000120 9c bd bf bd e1 4e 06 3d 20 ff 6c 3c 26 90 fc b9
       -0.09362337 0.03279007 0.014465123 -0.00048172585
000130 7d c0 9b bc 93 b3 f6 3d b4 31 2a 3e ce 5e 74 3c
       -0.019012684 0.1204597 0.16620523 0.014915181
000140 0d 0c 02 3e 82 7b d1 bd 17 30 46 3d 0b a7 01 3e
       0.1269991 -0.10228635 0.048385706 0.12661378
000150 4d 12 bf 3c 25 22 49 3e ed 07 f9 3c 9b 34 91 3d
       0.023324156 0.19641931 0.030399287 0.07090112
000160 b4 03 21 be ff 3c 2a 3d 2b 1d 32 be 67 de b6 bb
       -0.15724069 0.041562077 -0.17393939 -0.0055807116
000170 41 1e 18 3e 0f 6a c6 3c 27 9f f6 bd 4b 27 3d 3e
       0.14855291 0.024220495 -0.12042075 0.1847202
000180 0f 80 a9 bc 41 01 29 3e 11 6c a2 bd 73 ef 78 bd
       -0.020690946 0.16504385 -0.07930768 -0.06077523
000190 81 b0 e5 bd bf 27 7f 3c f9 24 00 3e 40 d7 66 3d
       -0.11215306 0.015573441 0.12514104 0.056357622
0001a0 63 3d 1b be 8d 7e 23 3d a3 fa eb 3d ca b2 d8 3d
       -0.15160136 0.03991561 0.115224145 0.10580976
0001b0 fd 49 17 3d 91 61 a7 bd a0 6b b8 3b db a6 50 be
       0.036935795 -0.08172906 0.0056280643 -0.2037615
0001c0 4a e0 fa 3d 9a c5 9f 3d a3 0d fe bd bc 95 16 be
       0.12249811 0.078013614 -0.12404945 -0.14705557
0001d0 dc 56 16 bd ae f1 92 3d 78 22 10 3e f0 bc a8 3d
       -0.03670393 0.07175003 0.14075649 0.08239162
0001e0 66 7c d6 3d 91 2d 85 bb d5 52 40 be c6 a0 39 3d
       0.10472946 -0.00406427 -0.18781598 0.04531934
0001f0 f4 6d 12 3e 7f 54 62 bd 73 80 05 bc 2a 95 4e be
       0.14299756 -0.055256363 -0.0081483 -0.20174089
000200 a8 0d 78 bd a3 43 e3 bd a3 bf 00 bd 3f f7 1c 3e
       -0.0605599 -0.11096885 -0.03143276 0.15328692
000210 20 95 47 3e 65 00 32 be 29 ad 58 3d 16 1c ca 3d
       0.1949048 -0.17382963 0.052899513 0.09868638
000220 77 06 9e bd d0 88 51 3e 51 87 ad 3d b8 2d a5 3d
       -0.07716077 0.20462346 0.08473075 0.08065361
000230 dc 03 23 3e 8c 28 c3 3d 06 95 ac 3c 95 45 3f be
       0.15919441 0.09529218 0.021067154 -0.18678887
000240 2c 44 c6 bd 21 b7 d8 bd 1f ab ab bb 01 2b 19 3d
       -0.096809715 -0.10581804 -0.005238905 0.037394527
000250 cf f8 71 3d a2 6d 98 bd 8c a0 90 bd b1 92 e0 bd
       0.059075173 -0.07442786 -0.07061872 -0.10965479
000260 da 7e 78 bd 70 8f 1b bc 0a c6 d9 bd 5a a9 96 3d
       -0.06066785 -0.009494647 -0.10633476 0.0735652
000270 64 3e 21 be 27 9e 1f bc c7 47 03 bd 35 ba 4e 3e
       -0.15746456 -0.009742296 -0.032050874 0.2018822
000280 5a e6 13 3e e1 70 d2 bc 92 a6 45 be 3f 8d 0c 3b
       0.14443341 -0.02568859 -0.19301823 0.0021446494
000290 18 45 2f 3e 6a dd 92 3d 25 44 50 3e 5a f0 a8 bd
       0.17116201 0.07171138 0.20338495 -0.082489684
0002a0 90 66 2c 3e 48 e2 d2 bd 89 9f 30 be f4 6c 3f bc
       0.16836 -0.10297066 -0.17248358 -0.011683691
0002b0 51 8e 90 3d 1c 78 47 3e 4a 55 37 3e ff e9 51 bd
       0.07058395 0.19479412 0.17903629 -0.051248547
0002c0 3e 81 81 bd 6a c3 91 3d 96 9c ad bd df ae 2a 3e
       -0.06323479 0.071173504 -0.08477132 0.1666827
0002d0 6b 7c 49 be 3c 5b 48 bd 1a 79 02 3e 4f 29 4e be
       -0.19676368 -0.048915133 0.12741509 -0.20132945
0002e0 9d 47 0a be 7d 5d 1e 3e 1e 06 d6 bd ae 53 25 bd
       -0.13503881 0.1546535 -0.104503855 -0.040363006
0002f0 a6 33 a2 bd cf 23 53 bd 5c 9e 82 3c c1 0a a9 bd
       -0.079200074 -0.05154782 0.015944652 -0.08254004
000300 aa 5c 07 3e fd 5e 06 3e ef 76 d8 bd 43 51 e8 3d
       0.13218942 0.13122173 -0.1056956 0.113436244
000310 de e4 53 3d 82 ab 41 3e b8 93 05 be 1f 7c d1 bd
       0.051731937 0.18913081 -0.13044631 -0.10228752
000320 3e b9 17 3e 0f a8 38 3e 2a 37 e2 bd e4 f0 36 be
       0.14816758 0.1803286 -0.11045678 -0.1786533
000330 4f af fc bd 25 a2 ba bd 1f c7 20 be cd 79 38 3e
       -0.12338125 -0.09112958 -0.15700959 0.18015213
000340 75 c1 1c bd 10 6a b9 bc d5 3b bf 3d 38 34 ed bd
       -0.038270433 -0.022633582 0.09337584 -0.115822256
000350 6c df 87 3d a8 6b d3 bd d4 25 42 be d9 9d 38 be
       0.06634411 -0.10323268 -0.18959743 -0.18028964
000360 db 19 df 3d 39 0d b9 bb 73 7b 30 3e 5b a3 2b 3d
       0.108936034 -0.005647328 0.17234592 0.041903835
000370 2b bc 91 bd 0a cb c1 3d 2e b7 92 3d bc 92 b5 bd
       -0.07115968 0.09462555 0.07163845 -0.08865878
000380 c0 e0 af bd 4e 69 16 be a9 b4 23 bd 83 21 3e be
       -0.085877895 -0.14688608 -0.039967213 -0.18567471
000390 a5 c1 1d bd fb 96 a5 3c 54 79 52 3e be f0 42 3d
       -0.038514752 0.020213595 0.20554096 0.04759287
0003a0 7c 9a d5 3d 09 6a 56 3d 15 0c 3b bb 9e 7c ce bd
       0.10429856 0.052347217 -0.0028541137 -0.100823626
0003b0 d0 1d 18 bd 9b 26 38 bd 38 7f 42 be 0e f7 41 3e
       -0.037137806 -0.044958692 -0.18993843 0.189419
0003c0 c7 c8 64 3c 2a ca 19 3e db 93 26 be 74 c8 02 3d
       0.013963885 0.15018526 -0.1626734 0.03192945
0003d0 59 f1 68 bd 8d 58 e6 bc aa 6b 26 3e 3e e4 91 bd
       -0.056870792 -0.028118396 0.16252008 -0.07123612
0003e0 ba 09 b8 3d 2d c4 53 3e f1 7d 0e 3e 74 b3 4f be
       0.0898623 0.20680304 0.1391523 -0.202833
0003f0 0d df 82 bd 7e f2 85 bd 52 5e 5a bd 5e b2 46 be
       -0.063902 -0.06540392 -0.053312607 -0.19403979

linear2.weight f4 [256, 256]
000000 80 05 79 3d c0 02 dd 3c e2 34 33 3d 2e c7 22 bd
       0.06079626 0.02697885 0.043751605 -0.039740734
000010 62 90 1a 3d 20 c6 65 3b 4e 39 67 bd 00 aa 07 3d
       0.03773535 0.0035060719 -0.056451134 0.03312111
000020 40 f8 d2 3a c0 b4 87 3c 60 ac 83 bc d8 be 03 3d
       0.0016095713 0.01656568 -0.016073406 0.032164425
000030 3a 9a 18 bd 04 e2 8b bc 9e 55 40 bd 98 d3 7a bd
       -0.037256457 -0.017075546 -0.04695665 -0.061236948
000040 90 d3 be bc bc 82 cc 3c 2a a0 4e bd 32 5b 3b bd
       -0.02329424 0.024964683 -0.050445713 -0.045741268
000050 70 bc 09 3d 8e cf 29 3d 60 99 64 3d 98 63 11 3d
       0.033626974 0.041457705 0.055810332 0.03549537
000060 2c d7 48 bd 38 a3 09 bd 04 2a b9 3c e0 c4 34 bd
       -0.04903333 -0.033602923 0.022603042 -0.044133067
000070 80 93 6c bd d0 2e 72 3d 60 92 7e 3c 50 24 48 bd
       -0.057757854 0.059126675 0.015537828 -0.048862755
000080 34 83 be bc 2c f2 89 bc a6 c0 13 bd 78 fb 46 3d
       -0.023255922 -0.01683911 -0.036072396 0.048579663
000090 f6 cb 77 bd 4c 48 b2 3c 00 36 b3 ba 60 af 7e bb
       -0.060497247 0.02176299 -0.001367271 -0.0038861856
0000a0 08 a9 08 bd 00 09 d0 ba 96 6d 54 3d 90 ef 1e 3d
       -0.033364326 -0.0015871823 0.05186232 0.038802683
0000b0 e0 df 42 3b 7a e5 0c 3d ac 4d f3 bc 84 fb 18 bd
       0.002973549 0.034398533 -0.029700123 -0.03734924
0000c0 3c 4c 5f 3d 78 e8 7b 3d e0 42 45 3d 28 c2 b8 3c
       0.054516062 0.061500996 0.04815948 0.022553518
0000d0 0c fe 9b bc 10 86 e1 3b ce 45 5a 3d 00 00 a8 3b
       -0.019042037 0.0068824366 0.053289227 0.005126953
0000e0 94 cb 2a 3d ba f5 7f bd 12 dc 68 bd 9a 03 24 3d
       0.041698053 -0.062490202 -0.0568505 0.040042497
0000f0 7a fc 15 bd e0 fc 5f 3b 28 ee cb 3c d0 35 fb 3b
       -0.036617734 0.0034177825 0.024893835 0.007666327
000100 d0 b3 18 bc ce 1e 3f 3d d0 ea c8 3b b2 09 46 bd
       -0.009320214 0.046660237 0.0061315075 -0.04834909
000110 ae f3 5e 3d 40 26 e2 3a 40 e5 f9 bc 90 f2 d8 bc
       0.05443161 0.0017253831 -0.030504823 -0.02648285
000120 5e af 15 3d ec 2d 46 bd a2 b1 28 3d f0 b1 d1 bb
       0.036544196 -0.04838364 0.04118503 -0.0063993856
000130 c8 e7 c8 bc 54 66 92 3c 98 29 f6 3c 52 1c 4c 3d
       -0.024524584 0.01787106 0.03004913 0.049831696
000140 92 55 4e bd a0 84 ca bb d8 ad 7f bc 1a 16 65 bd
       -0.050374575 -0.006180361 -0.015605412 -0.05592928
000150 2c 5e 63 bd 50 0a 48 3d c8 b4 7c bd 5a 43 08 bd
       -0.05550973 0.04883796 -0.061695844 -0.033267356
000160 d4 1f 19 3d f8 2c 8a 3c 62 bb 2d 3d 54 69 2c bd
       0.03738387 0.016867146 0.04241503 -0.042092636
000170 0e 03 7c 3d d0 b1 e5 bb 56 76 72 bd f8 8f 2c 3d
       0.06152635 -0.0070097223 -0.059194885 0.042129487
000180 84 2e a2 bc c2 cf 3d bd ac 64 82 3c cc 2e 67 3d
       -0.019797571 -0.04634071 0.015917145 0.056441113
000190 b6 a7 6c 3d 2e f0 25 bd c0 d5 5b 3d cc 7e 21 3d
       0.05777713 -0.040512256 0.053670645 0.039427564
0001a0 f4 7e 4a bd 10 52 d4 bb e0 29 bb 3b d8 de 8f 3c
       -0.04943748 -0.006479509 0.005711779 0.017562315
0001b0 60 49 a9 3c 48 e8 60 bc a2 be 5d bd 4c f3 78 3d
       0.02066487 -0.013727255 -0.05413688 0.0607789
0001c0 5a 32 1e bd 28 c3 72 3c e2 36 38 3d 14 c5 ef bc
       -0.038622238 0.014817037 0.044974215 -0.029268779
0001d0 cc 0b 17 3d 9c 6e 2d 3d 16 5a 4d bd d8 33 54 3d
       0.036876485 0.042341813 -0.05013474 0.051807255
0001e0 94 8f 1d bd 4c 1d 44 3d ea 25 11 3d e8 bf f9 3c
       -0.038467005 0.047879502 0.03543655 0.030487016
0001f0 02 ae 0e bd 54 9d 70 3d ac d4 ce 3c ca 25 41 bd
       -0.034833916 0.05874379 0.025247894 -0.04715518
000200 10 4a 8f bb 78 60 0f bc 26 84 6b bd e4 6d 21 3d
       -0.0043728426 -0.008751027 -0.057499073 0.03941144
000210 10 e4 aa 3c b4 b9 2f bd dc e2 d7 bc 48 60 09 3d
       0.020860702 -0.04290171 -0.026353292 0.033539087
000220 56 3e 5d bd 80 90 fe bc 92 0e 71 bd 52 d0 43 bd
       -0.054014526 -0.031074762 -0.058851786 -0.04780609
000230 c2 de 41 3d 90 ba 46 bc 72 43 0f 3d 08 95 ff 3c
       0.04733158 -0.012129441 0.03497643 0.031198993
000240 00 3f c8 3c b0 5f 52 bc 06 eb 39 bd b2 4b 2d 3d
       0.024444103 -0.0128401965 -0.04539015 0.042308517
000250 30 dd 80 3b 20 0a c4 3b 50 9d 00 3c 80 c7 bc 3c
       0.0039326176 0.0059826523 0.007850006 0.023044348
000260 2e 44 0c 3d d0 f1 ff bb 70 2e e8 bc 80 d0 d8 bb
       0.03424471 -0.0078108087 -0.028342456 -0.006616652
000270 70 64 a3 3c b8 25 06 3d 12 7b 3a bd b8 95 60 3c
       0.019945353 0.032750815 -0.045527525 0.013707571
000280 ee 9c 45 bd ba e2 38 3d ac 1a be 3c f8 a8 89 3c
       -0.048245363 0.0451381 0.023206078 0.016804203
000290 c8 19 b4 bc 1a 91 70 bd f2 51 22 bd 94 8c ce bc
       -0.02198495 -0.05873213 -0.03962893 -0.025213517
0002a0 44 c3 5d 3d ce 42 7c 3d 20 6b 65 3d 2a a0 2d 3d
       0.054141298 0.061587147 0.056010365 0.042389072
0002b0 da 82 5c 3d 2a 74 3b 3d f2 dd 0f 3d 98 d1 4a bd
       0.053835727 0.04576508 0.035123773 -0.04951629
0002c0 e0 08 6a 3d be b4 52 3d 3c ca 3c bd 48 09 33 3c
       0.05713737 0.0514419 -0.046091303 0.010927506
0002d0 98 86 2e 3d 8a 03 35 3d 00 e4 23 b9 24 c5 6d 3d
       0.042608827 0.04419283 -0.00015629828 0.058049336
0002e0 a6 7a 6d bd b0 7a 88 bb 80 f2 ba ba ac b4 8f bc
       -0.057978295 -0.004165016 -0.0014262944 -0.017542206
0002f0 10 97 e8 3b ac 1c 5d 3d 2c 90 76 3d 10 ba 74 bc
       0.007098086 0.05398242 0.060196087 -0.014936939
000300 96 45 0a 3d f0 af a6 bc 28 72 88 bc ce 6f 2b bd
       0.03375777 -0.020347565 -0.016655996 -0.041854672
000310 b8 73 21 bd d0 ee c0 3c 60 5a 5b bc b0 a6 16 bd
       -0.039417 0.023551375 -0.013388246 -0.03678006
000320 16 58 28 3d ec 5a 9b 3c 7a 62 52 bd a8 4b 2d 3d
       0.04109963 0.018964253 -0.051363446 0.04230848
000330 10 6a b4 3c a6 62 09 3d e0 11 dd 3c da 94 12 bd
       0.02202323 0.033541344 0.026986063 -0.035786487
000340 62 b6 00 3d 4c b9 34 bd e4 e0 2d 3d 58 79 e7 3c
       0.031423934 -0.044122025 0.0424508 0.028256103
000350 70 93 da bc 7c 42 15 bd 60 69 ae 3b d4 c3 a9 bc
       -0.026681632 -0.036440358 0.0053226203 -0.020723261
000360 d0 47 e5 3c 40 2a a2 bc 48 b8 75 bd c0 f9 9b 3b
       0.027988344 -0.019795537 -0.059990197 0.004759997
000370 f0 44 ea bc e2 ca 72 3d 62 79 2d 3d 50 3e fa 3c
       -0.028597325 0.059275515 0.042352088 0.030547291
000380 80 14 1c bd a0 61 bb 3c ec 7c f6 bc 28 c8 49 bd
       -0.038105488 0.0228737 -0.030088864 -0.04926315
000390 68 ba 76 3c 00 65 ff b9 80 83 14 bd a0 d9 82 bc
       0.015059091 -0.0004871264 -0.03625822 -0.015972912
0003a0 f8 78 7c 3c b8 4b 44 3d 40 57 58 3c a0 6a ef 3c
       0.015409701 0.047923774 0.013204396 0.029225647
0003b0 20 22 55 3d 3c 07 9d bc 6c e7 5d 3d 24 52 7c bd
       0.052034497 -0.019168489 0.05417578 -0.061601773
0003c0 28 93 83 3c 82 b3 33 bd 58 e3 39 bc b6 11 29 3d
       0.01606138 -0.043872364 -0.011345707 0.041276656
0003d0 b0 c7 6f 3c 32 6d 70 bd c8 0e 45 bc 30 ee 3d 3d
       0.014635012 -0.058697887 -0.01202745 0.04636973
0003e0 40 36 f5 bb d0 9a b2 bb b0 68 22 3d 66 cb 41 3d
       -0.0074832737 -0.005450584 0.03965062 0.047313116
0003f0 20 ee cd bc 90 15 54 3d 40 ed a8 3c 90 37 26 3c
       -0.02513796 0.051778376 0.020620942 0.010145083

linear2.bias f4 [256]
000000 08 b4 74 3c 1c 73 2c bd e0 49 af bb 4c ff ea bc
       0.014935501 -0.042101964 -0.0053493828 -0.028686188
000010 00 4a 78 3b 08 80 51 3c 52 3f 6a 3d 90 de 9f bc
       0.0037885904 0.012786873 0.057189293 -0.019515306
000020 38 05 ca bc c8 f8 10 bc 28 bd 36 3c 58 7d 2e 3c
       -0.024660692 -0.008848377 0.011153497 0.0106500015
000030 be 90 32 bd 10 88 1e 3d 88 44 02 bc dc 67 de bc
       -0.04359507 0.038703978 -0.007950909 -0.027149133
000040 08 94 8f bc da 06 47 bd f2 d3 74 3d 2c cd 47 bd
       -0.017526641 -0.04859052 0.05977244 -0.04877965
000050 70 2a 1e 3c 98 1f a9 3c 40 2b 2a bd 46 2c 79 bd
       0.009653673 0.020644948 -0.041545153 -0.060833238
000060 fe bb 44 bd b0 d4 03 3c aa a2 60 bd 08 09 6a bd
       -0.048030846 0.008046314 -0.05484263 -0.05713752
000070 b0 90 d0 3b 28 03 58 3c 12 57 4b bd a8 ac 02 bc
       0.0063649043 0.013184346 -0.049643584 -0.007975735
000080 42 ba 7b bd 60 bf 06 bb d0 e9 e3 3b ac d9 f2 3c
       -0.061456926 -0.0020560846 0.006955363 0.02964481
000090 38 06 06 bc 3e 14 77 3d c8 f6 18 bc ec 21 72 3d
       -0.008180194 0.06032204 -0.009336181 0.05911438
0000a0 80 9b d8 ba 52 f4 0f 3d d8 9b 9c bc e8 e1 90 bc
       -0.0016525835 0.03514511 -0.01911728 -0.017685845
0000b0 4e d1 17 3d e0 2a 31 3d 06 37 5e 3d d2 76 61 3d
       0.037064843 0.04325378 0.054251693 0.055044957
0000c0 90 c0 a8 bc d2 25 3d bd 24 ad 17 3d d0 82 36 3d
       -0.020599633 -0.046178646 0.037030354 0.044558346
0000d0 b8 07 07 3c 00 61 fc 3a 0a 51 01 bd 62 f8 62 bd
       0.008241586 0.0019254982 -0.031571425 -0.055412658
0000e0 54 9e 7d bd 64 fe 3d bd 58 c8 06 bc 20 13 69 bb
       -0.06191857 -0.046385184 -0.008226477 -0.0035564378
0000f0 86 8e 06 bd 98 a8 43 bc 10 cd fb 3c 4a e9 65 bd
       -0.032850765 -0.011942051 0.03073743 -0.056130685
000100 90 5d 49 bc 48 96 3c 3c 04 d0 2c bd 64 09 0d 3d
       -0.012290373 0.011510439 -0.042190567 0.034432784
000110 a0 fc ce bc 20 9d 2c bc 06 5b 01 bd 38 cb 77 bd
       -0.025266945 -0.010535508 -0.031580947 -0.06049654
000120 52 a0 2d bd 50 78 46 3c 98 c7 55 bd 34 bc 35 bd
       -0.04238922 0.012113646 -0.0521923 -0.044368938
000130 c0 b6 de ba 28 9a 03 bc 00 64 7f 3b 88 22 76 3c
       -0.001699172 -0.008032359 0.0038969517 0.015022881
000140 0c e3 ec bc 08 cf cd 3c b4 ac c5 bc a8 cd 7b bd
       -0.028916858 0.025123134 -0.024130203 -0.061475426
000150 44 51 38 3d a0 7a 9e bb 28 d4 2b bc 78 72 05 3c
       0.044999376 -0.0048363954 -0.010487594 0.008144967
000160 a0 00 b3 3c 44 e4 b0 bc 5e 20 24 bd ec 77 80 bc
       0.021850884 -0.02159322 -0.04006993 -0.015682183
000170 28 7a 6b bd ec f0 f9 3c 8a b5 13 3d 34 2a 5b 3d
       -0.057489544 0.030510388 0.0360618 0.053507045
000180 ca 3d 5d 3d 4c 95 a4 3c 1a 5c 79 3d 60 aa 5d 3d
       0.054014005 0.020090722 0.06087885 0.05411756
000190 58 4f c1 3c 2e 61 0d bd 64 e3 08 3d 00 ee b4 ba
       0.023597404 -0.034516506 0.03341998 -0.001380384
0001a0 c4 dc 81 bc 00 33 f8 bb 38 7e 47 bc 24 48 e5 3c
       -0.01585234 -0.007574439 -0.012176089 0.0279885
0001b0 60 93 9a bc b0 e6 d0 3b a8 1d 51 3d 40 24 0b bd
       -0.018869102 0.0063751563 0.051053673 -0.033970118
0001c0 98 23 14 bc 28 46 28 bd e0 9f fa bc f8 7b 88 3c
       -0.009041689 -0.04108253 -0.030593812 0.016660675
0001d0 f8 ab 78 3c d8 5d e7 3c dc 3e 1d 3d 10 ee 54 bd
       0.015177719 0.02824299 0.038390025 -0.051984847
0001e0 f2 89 72 bd 04 da 19 bd 70 a8 ed bc 28 3f b7 bc
       -0.059213586 -0.03756143 -0.029010981 -0.022368982
0001f0 40 62 32 3d 54 3e b9 bc 78 1a 65 3d 42 62 6b bd
       0.04355073 -0.022612728 0.055933446 -0.057466753
000200 b8 ac 10 bd a0 86 e2 3c 54 af 56 bd 12 ac 08 3d
       -0.035320967 0.027652085 -0.0524133 0.033367224
000210 40 06 34 bd aa ee 32 3d 60 91 57 bd 80 22 05 3c
       -0.043951273 0.04368464 -0.052628875 0.008125901
000220 68 2d d7 3c b2 98 1c 3d a4 1d e8 bc 08 ef 27 bc
       0.026266769 0.03823156 -0.028334446 -0.010249861
000230 d6 41 6f 3d 30 f0 15 bc 50 24 b2 3b 68 ce 56 3c
       0.058412395 -0.009151503 0.0054364577 0.0131107345
000240 a0 23 5b bd 02 d9 09 bd 60 25 49 3c 5c 06 14 3d
       -0.05350077 -0.03365422 0.012276977 0.036138877
000250 08 9d 25 bc 80 19 3b bd c4 fa e0 3c 6c 75 20 3d
       -0.01010824 -0.045678616 0.027463324 0.039174482
000260 34 f9 a0 bc 60 e0 93 3c f0 c0 23 3d 00 12 57 b9
       -0.01965008 0.018051326 0.03997892 -0.00020510703
000270 e0 68 2c 3b f0 2e 85 3c 00 34 13 3a 4c 10 6d 3d
       0.0026307628 0.016257733 0.00056153536 0.05787687
000280 40 e6 cc 3b e0 a1 3f 3c 36 17 22 bd 38 e0 7e bc
       0.006253034 0.011696309 -0.039572917 -0.015556388
000290 c0 ee 46 3c cc 0e 99 bc 68 4a 3f 3c a4 db aa 3c
       0.012141883 -0.018683814 0.011675455 0.020856686
0002a0 10 9d 87 bc e8 fe 2f bd 98 3f 35 bc 8a 5b 59 bd
       -0.016554385 -0.042967707 -0.011062525 -0.053065814
0002b0 9c 72 6e bd 30 c0 95 bc ac 3d 49 3d 26 32 3f bd
       -0.05821477 -0.018280119 0.04913108 -0.046678685
0002c0 5c 24 eb bc 40 ea a8 bb a4 73 20 bd 66 88 36 bd
       -0.028703861 -0.005154878 -0.039172783 -0.044563673
0002d0 38 a5 20 3d 02 59 62 3d 40 60 e9 3b 94 5d 03 3d
       0.039220065 0.055260666 0.0071220696 0.032071665
0002e0 74 0c 04 bd c0 ad ab 3c 80 0e 4a bc e0 8a 17 bc
       -0.03223844 0.020956874 -0.012332559 -0.009249419
0002f0 c0 71 6f bb 52 73 25 3d 3e 97 07 3d 68 89 42 3c
       -0.0036536306 0.04039318 0.03310322 0.0118735805
000300 d4 c6 16 3d 18 22 02 bd 06 1a 59 3d 1c 9e c6 3c
       0.03681071 -0.031770796 0.053003334 0.024245314
000310 e0 ca ce 3b 84 a1 39 3d a4 08 5f 3d c0 d0 4c 3c
       0.0063108057 0.04532005 0.0544516 0.012500942
000320 60 ef a2 3b 90 43 88 3b f0 04 bf 3b 10 11 e7 bb
       0.0049723834 0.0041584447 0.005829446 -0.0070515946
000330 38 26 be bc a8 78 c2 bc 32 90 5d bd 4e 41 01 bd
       -0.023211583 -0.023739174 -0.054092593 -0.03155642
000340 f8 49 07 3c a0 4a 08 bc 70 ce 94 3c 00 70 6a 3c
       0.008257382 -0.008318573 0.018164843 0.014308929
000350 68 5b 04 3d 00 43 67 3c c6 83 56 3d 10 11 1f 3c
       0.032313734 0.014115095 0.052371763 0.009708658
000360 8c e8 f6 bc aa a9 41 bd 0c d9 79 3d 88 77 fc 3c
       -0.030140184 -0.047280945 0.060998008 0.030818716
000370 98 e3 e8 bc 5c 56 32 3d 1c 74 e9 bc 22 25 70 3d
       -0.028428838 0.04353939 -0.028497748 0.058629163
000380 e8 18 b6 bc b4 c4 c4 3c d0 cb 48 3c 40 ac 04 3d
       -0.022228673 0.024019577 0.012255624 0.032390833
000390 b0 0a 7d bd dc 5b f1 bc 04 c8 9b 3c e0 b2 1d 3b
       -0.06177777 -0.029462747 0.019016273 0.0024062917
0003a0 94 b0 54 bd 38 d8 01 bd 28 99 60 bd ec 0c 44 3d
       -0.05192621 -0.031700343 -0.05483356 0.047863886
0003b0 a0 03 68 bd 98 d3 d7 bc 00 04 4f 3a 48 41 76 bc
       -0.056644082 -0.026346013 0.00078970194 -0.015030213
0003c0 12 63 17 3d 7c 99 dc bc 20 09 f9 bb 3e 59 49 bd
       0.036959715 -0.026928656 -0.0075999647 -0.049157374
0003d0 fc 32 31 bd e0 a2 85 3b 02 5e 22 bd e0 1a 40 3c
       -0.043261513 0.004078254 -0.039640434 0.0117251575
0003e0 2a bb 54 bd be d5 7c 3d 9c 96 bd bc 76 34 67 bd
       -0.051936306 0.061727278 -0.023143105 -0.056446515
0003f0 04 39 53 bd b0 a6 6c 3d ae 14 2b bd 10 18 df bb
       -0.051568046 0.057776153 -0.04176777 -0.0068082884

linear3.weight f4 [3, 256]
000000 04 f6 ed bc 10 39 04 bd b0 93 9e bc 80 22 29 bd
       -0.029047973 -0.03228098 -0.019357532 -0.041292667
000010 f6 f5 57 bd 58 34 66 bd d0 30 67 bc 9c 3d 25 3d
       -0.0527248 -0.056202263 -0.014110759 0.04034196
000020 8c 64 3a 3d 86 ef 78 3d f0 6c d7 bb 44 2d ef bc
       0.045506045 0.060775302 -0.0065742657 -0.029196389
000030 ba 7a 43 bd bc f5 b4 3c 84 b6 5e bd f0 24 5c bd
       -0.047724463 0.022089832 -0.05437328 -0.053746164
000040 04 48 ac bc a0 1a b0 bc 92 f5 2e 3d 6a d9 36 bd
       -0.021030433 -0.02149707 0.042714663 -0.044640936
000050 fa a0 66 bd b0 4f 20 bc 94 28 a0 3c 00 c4 c1 b8
       -0.056305863 -0.009784624 0.0195506 -9.239465e-05
000060 82 7b 43 3d e0 ee 16 bb 8c bc 5d bd 00 c4 52 bc
       0.047725208 -0.0023030564 -0.05413489 -0.012864113
000070 c0 54 70 3c 92 5f 5a bd ec 6b 79 bd d8 b6 1e bd
       0.0146686435 -0.0533138 -0.060893938 -0.038748592
000080 04 0c 7a bd 9c cb 1b 3d 10 2f 2f bc 78 72 7c 3c
       -0.061046615 0.038035974 -0.010692373 0.015408151
000090 2e 59 71 3d a0 42 b2 3b 90 8a 94 3b fa 9e 3d bd
       0.05892294 0.005440071 0.0045331195 -0.04629419
0000a0 40 20 74 bc 58 be 54 3d b6 de 19 bd 40 38 5e 3b
       -0.014900267 0.05193934 -0.03756591 0.003390804
0000b0 aa 79 43 3d 40 be 10 bc 7c da e3 3c ac 8b a0 bc
       0.04772345 -0.008834422 0.027814142 -0.01959785
0000c0 84 35 f9 3c e0 a2 48 bc 9a bc 10 bd 60 cb bf bb
       0.030421026 -0.012245864 -0.035336114 -0.0058531016
0000d0 10 8a 01 3c 5a 41 25 bd cc 24 d1 bc d6 e7 64 3d
       0.007906452 -0.040345527 -0.025530241 0.05588516
0000e0 0c d8 ec 3c 50 b3 8f 3b bc 63 8e 3c 00 5c f4 bb
       0.028911613 0.0043853894 0.017381541 -0.0074572563
0000f0 94 28 7a 3d f0 db 77 3d 00 b3 77 bb a8 3e 5e 3c
       0.061073855 0.060512483 -0.0037795901 0.013564743
000100 60 e5 3b 3b e6 64 4a bd 80 e0 7e 3c 08 2e 5b bc
       0.0028670654 -0.04941263 0.015556455 -0.013377674
000110 c8 7f fe 3c 18 91 5b bd 96 e1 5b 3d 9c a5 19 3d
       0.03106679 -0.05360517 0.053681932 0.037511453
000120 80 72 a9 bc 08 d3 44 bd 98 1b c1 bc ac e7 b3 bc
       -0.02068448 -0.048052818 -0.023572728 -0.021961056
000130 f0 96 69 3c 3e 56 7a bd 90 ce 16 3c 4a 69 0b 3d
       0.014257178 -0.061117403 0.009204522 0.03403596
000140 fa 16 38 3d 20 d7 e5 bc ac 8d 52 bd 64 f6 b4 3c
       0.044943787 -0.028056681 -0.05140464 0.022090144
000150 00 ce f1 3a 4c 4f d9 bc 60 fd 78 bd c8 5c 83 3c
       0.0018448234 -0.02652707 -0.060788512 0.016035452
000160 b8 82 fe 3c 42 e7 42 bd a0 f2 5b 3d 14 28 38 bd
       0.031068191 -0.047583826 0.053698182 -0.044960096
000170 d0 87 3e bc 20 21 28 bd a4 c9 c6 bc 54 41 0e bd
       -0.01162906 -0.041047215 -0.024266072 -0.03473027
000180 9e 5f 14 bd cc 2c d7 bc ac 04 c1 bc 4c 9f 85 bc
       -0.036224 -0.026266478 -0.023561798 -0.01631131
000190 c0 5d 04 3d c0 01 9a bb b8 a5 70 3c 6a 44 11 bd
       0.03231597 -0.0046999156 0.014687948 -0.035465635
0001a0 f4 d2 95 bc 1c 0e 4e bd 0a fe 4b bd c6 20 1a 3d
       -0.018289067 -0.050306424 -0.049802817 0.03762891
0001b0 82 d7 38 bd 40 a4 5e 3b 6e 63 14 3d f8 6b 2f bd
       -0.0451274 0.0033972412 0.036227636 -0.042827576
0001c0 54 21 76 bd fa 85 3e bd 00 ed 5f ba 4c 2b 77 3d
       -0.060090378 -0.04651449 -0.00085420907 0.060344025
0001d0 2c a6 2a 3d 30 4c 1d bd 20 35 9d bb 72 cf 48 bd
       0.04166238 -0.038402736 -0.0047975928 -0.04902596
0001e0 a0 b5 4a bc 04 5c b1 3c 00 c0 3a b8 02 19 45 bd
       -0.012372404 0.021650322 -4.452467e-05 -0.048119552
0001f0 56 20 28 bd 8a 80 3c 3d f2 a7 3d bd ba 07 66 bd
       -0.041046463 0.046021022 -0.046302743 -0.056159712
000200 b4 bd db 3c 90 76 f5 3b 96 b0 77 bd f4 99 77 bd
       0.026823856 0.0074909404 -0.06047114 -0.060449556
000210 c4 b0 e9 3c 5a d9 22 bd a8 91 57 3c 18 95 70 bc
       0.028526671 -0.039758064 0.013157286 -0.014683984
000220 ac 92 bf 3c 18 6e e5 3c b4 48 6a bd 4c cb 67 bd
       0.023385368 0.028006598 -0.05719824 -0.056590363
000230 36 10 6f 3d c8 e5 bc 3c ea 8f 7f bd fa 1b 68 bd
       0.05836507 0.023058787 -0.062393107 -0.056667306
000240 62 13 46 3d a2 7d 47 bd 60 26 e0 3c 6a d4 23 3d
       0.04835833 -0.048703797 0.027362049 0.039997496
000250 20 41 f6 3b d0 00 70 bc ca 06 30 bd da bd 52 bd
       0.0075150877 -0.014648631 -0.042975225 -0.051450588
000260 8a 70 24 bd ea 70 0f bd 00 76 ab 3c 0a cb 20 bd
       -0.040146388 -0.035019793 0.02093029 -0.039256133
000270 48 8d ed bc bc 38 61 3d 50 33 85 bc 88 20 20 bc
       -0.028998032 0.054985747 -0.01625982 -0.009773381
000280 ec 9c 4b bd 8e cb 37 bd 68 6b c0 bc c0 ca 98 ba
       -0.0497102 -0.04487186 -0.023488715 -0.0011657104
000290 ae a5 5d bd cc 76 8e 3c 8c 4a 04 bd d2 95 32 3d
       -0.054113083 0.017390631 -0.032297656 0.04359991
0002a0 24 aa 58 3d fa 6d 2e 3d d0 cb a6 3c 80 70 7b ba
       0.052896634 0.04258535 0.020360857 -0.0009591654
0002b0 d8 9c 30 bc fc 5e c3 3c 9c e4 89 3c c0 2a c7 bb
       -0.010779582 0.023849003 0.016832642 -0.0060780942
0002c0 98 72 26 bc b8 df 81 bc 32 df 0f bd 88 24 46 3c
       -0.010159157 -0.015853748 -0.035124965 0.012093671
0002d0 28 ed 6a bc f0 a5 68 3d 1c 92 ef 3c 84 23 c8 bc
       -0.014338769 0.056798875 0.029244475 -0.024430998
0002e0 08 4b 11 3d 58 86 11 3d e0 a6 3d bd 68 14 7f 3d
       0.035471946 0.03552851 -0.046301723 0.06227532
0002f0 4c c1 da 3c 70 de d0 3c ce 41 7a 3d 44 20 d0 3c
       0.0267035 0.025496691 0.061097912 0.02540601
000300 54 44 17 bd 08 25 36 bd 48 8f 11 3c 4a 18 4e 3d
       -0.036930397 -0.04446891 0.008884259 0.050316133
000310 60 cc 40 3c 3e a7 4a 3d b4 c4 aa 3c a8 50 4f bd
       0.011767477 0.0494759 0.020845748 -0.05061403
000320 0e 80 05 3d 7c 83 2d 3d 28 75 08 3d 30 c8 e6 3b
       0.032592826 0.04236172 0.033314854 0.007042907
000330 a2 2c 5e 3d 04 90 c7 3c 70 c7 7b bd 40 60 06 3b
       0.054241784 0.024360664 -0.061469495 0.0020504147
000340 80 db c0 3b ae b7 7e 3d 58 96 44 bc b4 24 22 3d
       0.0058855414 0.06218689 -0.011998735 0.039585784
000350 b4 4c be bc 30 f4 4a 3d b6 54 5d bd 40 4e 86 ba
       -0.023229934 0.04954928 -0.054035865 -0.0010246709
000360 5a 8d 42 bd 18 0c c4 bc c0 cc 53 bb 28 90 ef bc
       -0.047498085 -0.023931548 -0.0032318085 -0.029243544
000370 80 c2 78 ba ea bf 21 bd 80 1f 63 3a 0c 0f 86 3c
       -0.0009489432 -0.039489664 0.00086640567 0.016364597
000380 02 14 00 bd c0 0a d3 3b 00 1e 74 3d a8 d0 39 bc
       -0.03126908 0.0064404905 0.059598923 -0.011341251
000390 46 1c 15 bd 4c d1 db 3c dc b5 05 3d d4 70 e5 3c
       -0.036403917 0.026833199 0.032644138 0.028007902
0003a0 dc 75 d9 3c 14 23 36 bd 22 b8 07 3d 3c 11 13 3d
       0.026545458 -0.044467047 0.033134587 0.035905108
0003b0 76 18 0a bd 3e 71 2c bd 58 f7 1a bd 88 d1 61 bd
       -0.033714734 -0.042100184 -0.03783354 -0.055131465
0003c0 e0 9c 11 bc 4e ca 30 3d 42 47 57 bd aa 86 28 3d
       -0.0088875 0.043161683 -0.05255819 0.04114405
0003d0 b0 e8 a3 bc 40 c8 77 3d 64 1c ba 3c b0 36 30 3c
       -0.020008415 0.060493708 0.022718616 0.010755226
0003e0 20 d1 07 bd bc 1b fd bc 66 8f 0f 3d ae 92 39 bd
       -0.03315842 -0.030897014 0.035048865 -0.0453059
0003f0 e0 72 51 bc 72 45 05 bd 5e f3 1a bd 00 ab 74 3c
       -0.012783736 -0.03253693 -0.03782975 0.014933348

linear3.bias f4 [3]
000000 b4 e8 7d 3d 78 d6 a0 3c 26 8a 24 bd
       0.0619895 0.019633517 -0.04017081
