models/Env1/PDDRL_256_A5_S1_P/local_episode_1350_reward_200.000000.pt (torch, 293866 bytes, 6 tensors)

linear1.weight f4 [256, 23]
-0.36950603 0.06042744 -0.09321156 -0.30568135 -0.34403187 -0.2494389 -0.008054901 0.146651
0.043285392 0.14254104 0.10552685 -0.03464663 0.2703876 0.19961862 0.15550838 -0.042145487
0.009714175 0.07251863 0.04649125 -0.2150377 0.26728958 0.14169994 0.45039797 -0.038047038
-0.04326261 -0.17226894 -0.23721881 0.15540181 -0.16316733 -0.15334891 0.009753419 -0.060562424
0.13390985 -0.12764347 -0.008782445 -0.15684842 -0.15530477 -0.18353699 0.06841578 0.06640929
0.0055099083 0.17820427 0.1684522 0.27869457 -0.010264787 -0.19454178 -0.049005195 -0.08395567
0.097157866 0.1342668 -0.26528144 0.09777639 -0.19443788 -0.017657321 -0.058428884 0.03565153
-0.16284803 -0.11171182 -0.06253627 0.058533978 -0.060015555 0.10878446 -0.09130402 -0.07420413
0.012032546 0.10806878 0.03874162 0.3223657 -0.17151141 -0.176996 0.13431534 0.20017332
0.15880613 -0.21714067 -0.17647733 -0.059186652 0.07616689 0.07212247 -0.15025987 0.010046867
0.20454624 0.18408588 0.19213265 -0.12285471 0.19658951 -0.10096441 -0.23224036 -0.22969095
-0.10827416 -0.8369304 0.8004995 -0.7023104 -0.04038615 0.0350533 0.08231091 -0.07017483
0.024341349 -0.11938507 0.22984895 0.22966276 0.20820916 0.121790096 -0.12968826 0.13924345
-0.13722083 -0.04443836 0.020712342 0.1886299 -0.0012837097 -0.21314013 -0.118671484 0.12316303
0.49950254 0.7943146 -0.9235232 -0.16119978 -0.14981525 -0.25768307 0.122159004 -0.14169239
-0.13187927 -0.3177795 -0.064316034 0.03497847 -0.087623805 -0.21925355 0.1375863 0.026492678
0.19400443 0.21557856 0.10234837 0.18175618 0.019861795 0.3058788 0.18430217 0.62337285
-1.0545456 -0.43202922 0.12593448 -0.1363867 0.10865061 0.13586625 0.048523244 -0.22256869
0.049425885 0.031186976 -0.10309559 -0.15692005 -0.11830393 -0.1299792 0.06794823 -0.19444771
0.07199645 -0.11305865 0.0082958145 -0.056828436 -0.1643304 -0.07001189 -0.15040195 0.263749
-0.25605297 -0.27991 -0.028854439 -0.08734847 0.06690101 0.103768446 -0.012686342 -0.06938622
-0.2021897 0.17676781 0.018005304 0.17239743 -0.041276257 0.15174353 -0.19598193 -0.23443861
-0.17350799 -0.1600095 -0.163309 -0.26684383 0.10397062 -0.65013325 -0.14948213 -0.077729754
0.13429667 -0.21397392 -0.2608662 0.12625687 -0.11100948 -0.026714621 0.05708064 -0.07550722
0.054005943 -0.26465034 -0.2466182 0.1459934 -0.21340358 -0.015921885 -0.043789007 0.10752821
0.15603839 -0.06193437 -0.018859385 -0.06540973 -0.16253626 -0.1580239 0.13857915 -0.25517148
-0.21356064 -0.15891033 -0.035013955 -0.022816408 0.074603975 0.03813178 -0.13506705 0.07689139
0.20281795 -0.08636173 -0.055480916 0.1654053 -0.00217081 -0.107215434 -0.0452616 -0.14250813
-0.06985009 0.09124962 -0.12737986 -0.101880185 0.07333676 -0.2544506 -0.092427604 0.11688287
0.10815792 -0.2065432 -0.03514185 0.01610575 -0.059019495 0.19933875 -0.16717184 -0.2035282
0.06223555 -0.19949917 -0.17063765 0.13076906 0.10113357 -0.11704904 -0.07807936 0.023669243
0.17180884 -0.11085061 0.03647179 0.20647329 0.047569208 -0.10870743 -0.17297012 -0.09155016
00000000: e52f bdbe c382 773d b4e5 bebd 4482 9cbe
00000010: f224 b0be e96c 7fbe b4f8 03bc ae2b 163e
00000020: 064c 313d 47f6 113e 761e d83d a0e9 0dbd
00000030: 3e70 8a3e d368 4c3e 973d 1f3e bfa0 2cbd
00000040: 3428 1f3c a684 943d 9c6d 3e3d d832 5cbe
00000050: 2eda 883e ca19 113e 909a e63e 36d7 1bbd
00000060: 2234 31bd 4567 30be 7de9 72be a721 1f3e
00000070: 5615 27be 7f07 1dbe cecc 1f3c 4e10 78bd
00000080: aa1f 093e f8b4 02be 3fe4 0fbc df9c 20be
00000090: 3708 1fbe 1ff1 3bbe 931d 8c3d 9801 883d
000000a0: 768c b43b 2e7b 363e bc7e 2c3e 0eb1 8e3e
000000b0: a32d 28bc f635 47be acb9 48bd f3f0 abbd
000000c0: b4fa c63d 3c7d 093e f8d2 87be fd3e c83d
000000d0: b91a 47be 16a6 90bc 2053 6fbd 5707 123d
000000e0: a2c1 26be 2bc9 e4bd 0413 80bd 53c1 6f3d
000000f0: dfd2 75bd 63ca de3d 9afd babd 56f8 97bd
00000100: 2824 453c 2a53 dd3d 88af 1e3d 1e0d a53e
00000110: b0a0 2fbe 703e 35be f689 093e 3cfa 4c3e
00000120: 139e 223e 205a 5ebe 79b6 34be b46d 72bd
00000130: 63fd 9b3d f2b4 933d b9dd 19be 9d9b 243c
00000140: 9274 513e 0281 3c3e 6cbe 443e 409b fbbd
00000150: c34e 493e 6ec6 cebd 6bd0 6dbe 1b34 6bbe
00000160: d8be ddbd 1241 56bf 89ed 4c3f 9dca 33bf
00000170: f36b 25bd 0d94 0f3d 9f92 a83d d2b7 8fbd
00000180: 8267 c73c 2980 f4bd 865d 6b3e b72c 6b3e
00000190: c834 553e 166d f93d 00cd 04be d695 0e3e
000001a0: 9e83 0cbe ff04 36bd eeac a93c 3228 413e
000001b0: 2642 a8ba 6841 5abe 090a f3bd e63c fc3d
000001c0: ccbe ff3e 3458 4b3f 046c 6cbf 8e11 25be
000001d0: 2b69 19be 09ef 83be 802e fa3d cf17 11be
000001e0: 5c0b 07be ffb3 a2be 20b8 83bd 9645 0f3d
000001f0: 1c74 b3bd 0184 60be 6ce3 0c3e 2c07 d93c
00000200: 19a9 463e a0c0 5c3e 069c d13d 4b1e 3a3e
00000210: 34b5 a23c 259c 9c3e b5b9 3c3e 5d95 1f3f
00000220: 5afb 86bf ef32 ddbe f8f4 003e f5a8 0bbe
00000230: 3684 de3d 8620 0b3e 4fc0 463d 0ce9 63be
00000240: cc72 4a3d d47b ff3c c823 d3bd a6af 20be
00000250: 5549 f2bd 4419 05be 7128 8b3d 4d1d 47be
00000260: e072 933d 4b8b e7bd 2beb 073c efc4 68bd
00000270: 3a46 28be 6562 8fbd f802 1abe 1c0a 873e
00000280: 6019 83be 5d50 8fbe 2560 ecbc c1e3 b2bd
00000290: 6603 893d 8d84 d43d 60da 4fbc 5d1a 8ebd
000002a0: d10a 4fbe 9f02 353e dc7f 933c f488 303e
000002b0: 4b11 29bd a862 1b3e 7daf 48be ad10 70be
000002c0: 14ac 31be 88d9 23be 793a 27be c19f 88be
000002d0: 8cee d43d 226f 26bf d811 19be c730 9fbd
000002e0: 1185 093e fb1b 5bbe 4190 85be 7b49 013e
000002f0: f058 e3bd 9fd8 dabc 64cd 693d 88a3 9abd
00000300: 5635 5d3d 4080 87be 7b89 7cbe 4b7f 153e
00000310: 7886 5abe 9d6e 82bc 1a5c 33bd c037 dc3d
00000320: 87c8 1f3e e5ae 7dbd ff7e 9abc 89f5 85bd
00000330: e86f 26be 04d1 21be b1e7 0d3e d6a5 82be
00000340: a4af 5abe 64b9 22be cb6a 0fbd 7ae9 babc
00000350: f8c9 983d 1230 1c3d 044f 0abe 3c79 9d3d
00000360: 82af 4f3e 6bde b0bd f53f 63bd 0260 293e
00000370: 2644 0ebb c493 dbbd 3a64 39bd a7ed 11be
00000380: 900d 8fbd 15e1 ba3d de6f 02be 8fa6 d0bd
00000390: 9531 963d 5947 82be af4a bdbd 4960 ef3d
000003a0: e681 dd3d 1080 53be e7f0 0fbd 35f0 833c
000003b0: 6dbe 71bd 751f 4c3e 182f 2bbe b269 50be
000003c0: b4ea 7e3d 8349 4cbe a3bb 2ebe 53e8 053e
000003d0: 1e1f cf3d 68b7 efbd 12e8 9fbd 00e6 c13c
000003e0: a8ee 2f3e a505 e3bd 7263 153d bc6d 533e
000003f0: eed7 423d 00a2 debd 141f 31be a67e bbbd

linear1.bias f4 [256]
0.07801458 0.04124377 -0.056709632 0.077745 0.12134212 0.09007697 -0.1235801 -0.15405573
0.10989394 0.12086126 0.14820226 -0.010997967 -0.09919247 0.0649654 0.070784666 -0.03224537
-0.13564156 -0.1916295 0.008196022 -0.19091673 -0.026847163 -0.081970975 0.16793336 0.063863836
-0.101421215 -0.07822759 -0.018986804 -0.011361623 0.033253722 -0.061496504 -0.20041381 0.13314663
0.15673001 0.038533416 -0.1776297 0.07794411 -0.23514198 -0.098088704 -0.0021166948 0.024603657
-0.16013281 -0.16738324 -0.20690806 -0.068540886 0.05946069 0.06936852 0.15989128 0.076114655
-0.1886128 -0.07728341 -0.10089875 -0.12689891 -0.03974907 -0.07807881 0.06847902 0.14775999
0.123561405 -0.008528266 -0.10670247 0.017308874 -0.15490271 -0.04328892 -0.042207014 -0.06764095
-0.13737606 0.11864808 -0.25522482 -0.005796146 -0.053976014 0.06789267 -0.21288025 0.12644334
-0.10462543 0.1650462 0.12959568 -0.20780595 0.05454064 -0.0036452212 -0.07920223 -0.07432211
-0.20464446 -0.018114202 -0.13889462 0.067226954 0.043767385 0.18209253 -0.12634312 -0.124766186
-0.09012869 0.14500418 0.09355682 0.00043045334 0.049238287 0.153286 -0.19629352 -0.25163755
-0.0124749 -0.12574877 0.04447244 -0.09089146 0.09010054 0.040671393 -0.13635367 0.12519616
-0.17585576 -0.1990738 0.13587147 0.14794758 -0.20932336 -0.13311273 -0.07823357 -0.05647255
-0.12985146 0.04832434 0.02467231 -0.0149300145 -0.22979918 0.08062915 0.117430046 0.090760365
0.10014011 0.0950043 -0.0065893736 0.17055796 -0.0010176151 -0.12046939 -0.088564076 0.009458732
0.16742545 0.07253667 -0.08472168 -0.10893213 0.04178944 -0.02311501 -0.07523898 -0.17547025
-0.14392595 -0.068229556 -0.16325793 0.14093964 -0.02900774 -0.17192015 -0.21238305 0.015440019
-0.042925987 -0.03187081 0.00043332216 -0.0043492494 -0.022536952 -0.10528462 -0.1871856 0.09399538
0.044508062 -0.04828822 -0.021052513 -0.087505 0.16694675 -0.093477376 0.16381133 -0.05804435
0.14102054 -0.033477727 -0.10575246 -0.19927366 0.008060395 -0.21425655 0.008432912 -0.13129039
0.10505164 0.16179538 -0.16718884 0.09920972 0.0026006405 -0.15698856 0.12994719 0.07743225
0.044387307 0.09666004 0.058013797 0.0038733142 -0.052254524 0.111274794 -0.030229386 -0.07126528
-0.07831903 0.026357388 0.012040293 -0.010132131 -0.14327854 0.026027014 -0.08256698 0.06556555
0.005442557 -0.25756758 0.016619865 -0.1732819 -0.17166151 -0.045643963 -0.048437133 0.10325095
0.10818146 0.08759112 -0.046777923 0.05878371 0.16230185 0.057792533 -0.03513872 -0.04016224
-0.044632997 -0.216242 -0.024989149 0.14302912 -0.18903495 0.048117653 0.10165206 0.19948286
-0.19011904 0.049107946 -0.11857979 0.15702164 -0.13564737 -0.05897162 -0.1949443 0.1257249
0.03600927 -0.07974961 0.004339104 -0.02107054 0.09458951 -0.14989217 -0.32861298 -0.17096487
-0.09891953 0.05718287 0.04068307 -0.16853283 0.10824974 0.054562308 -0.030227795 -0.1823682
0.10395547 0.048658777 -0.0035769513 -0.17656106 -0.21047938 -0.18073934 -0.066327706 -0.13259737
0.002976556 0.08463714 -0.12012643 -0.080372445 0.18481989 0.1777902 -0.2718687 0.051339705
00000000: 1cc6 9f3d 3aef 283d 5c48 68bd c538 9f3d
00000010: 3882 f83d 467a b83d 9017 fdbd c9c0 1dbe
00000020: 1310 e13d 1c86 f73d 55c2 173e d130 34bc
00000030: 6c25 cbbd 940c 853d 8df7 903d b913 04bd
00000040: 9fe5 0abe 863a 44be 9c48 063c ad7f 43be
00000050: 95ee dbbc 66e0 a7bd b9f6 2b3e 0bcb 823d
00000060: edb5 cfbd c935 a0bd 378a 9bbc 1a26 3abc
00000070: 0e35 083d c2e3 7bbd 4739 4dbe 9757 083e
00000080: d57d 203e 37d5 1d3d 8fe4 35be 29a1 9f3d
00000090: 0fc9 70be bbe2 c8bd 3fb8 0abb 9c8d c93c
000000a0: dbf9 23be 8366 2bbe b5df 53be 2a5f 8cbd
000000b0: 0d8d 733d 1511 8e3d 8aba 233e 00e2 9b3d
000000c0: b723 41be c446 9ebd 01a4 cebd caf1 01be
000000d0: eccf 22bd c8e7 9fbd ba3e 8c3d 654e 173e
000000e0: c30d fd3d 24ba 0bbc d386 dabd 57cb 8d3c
000000f0: d19e 1ebe b94f 31bd 43e1 2cbd 5787 8abd
00000100: 4fac 0cbe c4fd f23d d4ac 82be 99ed bdbb
00000110: f415 5dbd 500b 8b3d 48fd 59be 5d7a 013e
00000120: dc45 d6bd df01 293e bbb4 043e 15cb 54be
00000130: 0266 5f3d aae4 6ebb c734 a2bd 3136 98bd
00000140: 518e 51be 3c64 94bc 643a 0ebe 49ae 893d
00000150: 6e45 333d 7776 3a3e 1760 01be 6a85 ffbd
00000160: 6495 b8bd fa7b 143e b89a bf3d 78ae e139
00000170: 16ae 493d 01f7 1c3e 2b01 49be a3d6 80be
00000180: 8663 4cbc 49c4 00be bc28 363d 4d25 babd
00000190: a286 b83d 0c97 263d 4ca0 0bbe 6c33 003e
000001a0: 8813 34be 01da 4bbe e421 0b3e 927f 173e
000001b0: dd58 56be b44e 08be ec38 a0bd c34f 67bd
000001c0: c8f7 04be beef 453d 961d ca3c 059d 74bc
000001d0: 7a50 6bbe e520 a53d 2a7f f03d 92e0 b93d
000001e0: 4216 cd3d 9d91 c23d aceb d7bb bfa6 2e3e
000001f0: 7f61 85ba a8b8 f6bd 1561 b5bd ccf8 1a3c
00000200: 9471 2b3e 1b8e 943d 8f82 adbd cf17 dfbd
00000210: 672b 2b3d b05b bdbc e516 9abd 79ae 33be
00000220: 5361 13be f0bb 8bbd 162d 27be 7b52 103e
00000230: a4a1 edbc d60b 30be f17a 59be 22f8 7c3c
00000240: 29d3 2fbd f78a 02bd 842f e339 2684 8ebb
00000250: 6a9f b8bc 769f d7bd 95ad 3fbe a680 c03d
00000260: 164e 363d dec9 45bd 5276 acbc d235 b3bd
00000270: 17f4 2a3e 1171 bfbd 28be 273e eabf 6dbd
00000280: b067 103e f11f 09bd bf94 d8bd 650e 4cbe
00000290: bf0f 043c 1266 5bbe 322a 0a3c fd70 06be
000002a0: 5025 d73d b0ad 253e 8d33 2bbe 772e cb3d
000002b0: 826f 2a3b 9cc1 20be e010 053e cd94 9e3d
000002c0: 77cf 353d b3f5 c53d e09f 6d3d 6ed7 7d3b
000002d0: d708 56bd 0ae4 e33d 9ea3 f7bc 88f3 91bd
000002e0: ba65 a0bd 73eb d73c a644 453c 3d01 26bc
000002f0: 9cb7 12be 9b36 d53c e018 a9bd 3b47 863d
00000300: 7a57 b23b e6df 83be 6226 883c cf70 31be
00000310: 09c8 2fbe 2af5 3abd 0466 46bd 3c75 d33d
00000320: 3e8e dd3d f962 b33d 359a 3fbd 30c7 703d
00000330: 7532 263e ddb7 6c3d 9eed 0fbd 2981 24bd
00000340: 17d1 36bd 8b6e 5dbe 0bb6 ccbc 3a76 123e
00000350: 6192 41be 0417 453d f52e d03d 3c45 4c3e
00000360: 91ae 42be 6a25 493d f6d9 f2bd 48ca 203e
00000370: 25e7 0abe 3a8c 71bd 7b9f 47be 07be 003e
00000380: 757e 133d c353 a3bd 0b2f 8e3b 209c acbc
00000390: 25b8 c13d 557d 19be f63f a8be 6a11 2fbe
000003a0: 5396 cabd 9638 6a3d 4aa3 263d df93 2cbe
000003b0: 0ab2 dd3d ba7c 5f3d 48a0 f7bc bbbe 3abe
000003c0: 9be6 d43d 6d4e 473d 496b 6abb 6ccc 34be
000003d0: e887 57be bc13 39be d2d6 87bd 9bc7 07be
000003e0: 5312 433b 3d56 ad3d d904 f6bd 4f9a a4bd
000003f0: 6d41 3d3e a20e 363e 6032 8bbe 9549 523d

linear2.weight f4 [256, 256]
-0.26908568 -0.055296294 0.043431833 0.030177679 -0.9439841 -0.5708255 0.01857773 0.1473831
-0.07839048 -0.014200706 0.024171188 -0.64138436 -0.03464812 -0.25558406 -0.022441074 -0.78151274
-0.14498712 0.09230894 -0.06743032 -0.042995833 0.0700838 -0.036216967 0.013833016 0.12263185
0.24408604 0.051127303 0.30548668 -0.09042627 -0.02384425 0.039140504 0.029592074 0.010200247
0.012116753 -0.86132056 -0.5221251 0.064697556 0.11064449 0.21912813 0.021353552 0.035663612
-0.07309983 -0.15859507 0.06061212 -0.050236844 0.15396991 0.008685194 -0.24507701 0.053801335
-0.06272042 -0.040849857 -0.06857586 -0.038686305 -0.17285638 -0.22394471 -0.024887063 -0.8399566
0.03472277 -0.03787036 -0.026182868 -0.08971647 0.08622065 0.22573166 0.010038346 0.0039346814
-0.16454719 -0.047001712 -0.050560277 0.011919305 0.04902103 0.01164224 0.09544542 -1.0462712
-0.19580264 0.057595268 -0.015692154 0.021612559 -0.005026394 0.2018029 0.27229297 -0.030640347
-0.6492058 -0.06459323 0.041604117 -0.13136287 -0.012627557 -0.25370356 0.058977097 0.07587652
-0.035334952 0.006536683 -0.14474745 -0.10639534 -0.08494397 0.030275792 -0.26528144 -0.23461914
-0.049176715 0.059191033 -0.027865835 -0.37878767 -0.19899587 0.07332319 0.04117579 -0.11875756
-0.005593255 -0.08552658 -0.090073355 0.048066545 -0.18731114 -0.13005401 -0.81373775 0.21637197
-0.016965315 -0.13889909 0.21699603 0.008022107 0.018499939 0.14886308 -0.15334357 0.012074117
-0.71238065 -0.08143987 0.08212947 -0.0075986004 0.10914817 0.02140083 0.043827705 -0.23300615
-0.42916852 0.056628883 0.42240813 -0.052150458 0.13600059 -0.046190746 0.0020943433 -0.045367975
-0.028590696 -0.23603736 -0.00909812 -0.44500768 -0.0024841353 0.26655653 -0.035200294 -0.6998597
-0.69716847 -0.10667894 0.08533877 -0.089695044 -0.42537743 0.14103913 -0.5370341 -0.25500643
0.0075101554 0.055107042 0.08900952 -0.034793325 0.06299302 -0.027140416 -0.013789877 0.1734151
-0.0101713985 0.031876303 0.117638856 0.041496277 0.16225736 -0.27303436 0.037785627 0.030268364
-0.36326864 -0.2318807 -0.08212638 -0.12836154 -0.07222593 -0.034187615 0.14948927 -0.45069048
0.002692178 -0.049203843 0.3192002 -0.15898257 -0.056756563 0.045849804 -0.55193126 -0.5101635
-0.028628752 -0.016889073 -0.16506454 -0.02657279 0.06491925 -0.036017347 -0.11283609 0.023363886
-0.0046361387 0.11568782 -0.057028115 -0.07189807 -0.04054074 0.064183004 0.030543327 -1.0782027
-0.4463117 -0.04930621 -0.036664706 -0.047423333 -0.11837077 0.25801006 0.005390756 0.033258352
-0.03134136 0.09895284 0.062531784 0.59693813 0.041685 -0.54797256 2.436082e-05 -0.123631455
0.0457587 -0.028860912 0.14850126 -0.20755859 -0.115409456 -0.3810076 -0.29092765 -1.4746629
-0.012287108 -0.14284977 0.2702676 0.08952124 -0.46351367 -0.02247791 -0.094336726 -0.014894436
0.218393 0.022887498 -0.39464197 0.04827313 0.026739977 -0.11001709 -0.55075455 -0.055019293
0.5707808 -0.033921905 0.029389968 -0.6175345 -0.013927655 0.19233353 0.042399064 0.07084774
-0.018487018 0.10212483 0.22187394 -0.009784486 0.054774515 0.020897012 -0.0049518044 -0.018302761
00000000: 99c5 89be 5e7e 62bd 94e5 313d 2e37 f73c
00000010: f1a8 71bf 9f21 12bf 5330 983c 98eb 163e
00000020: 308b a0bd 14aa 68bc a802 c63c c431 24bf
00000030: 30eb 0dbd eadb 82be 58d6 b7bc 3811 48bf
00000040: 8177 14be 780c bd3d e818 8abd 661c 30bd
00000050: 1888 8f3d 3e58 14bd e0a3 623c 6826 fb3d
00000060: b1f1 793e dd6a 513d c068 9c3e 6931 b9bd
00000070: 0455 c3bc cb51 203d 146b f23c f01e 273c
00000080: 5885 463c 817f 5cbf fea9 05bf 2780 843d
00000090: 9499 e23d 2063 603e a5ed ae3c 0214 123d
000000a0: 5db5 95bd bf66 22be 6a44 783d 26c5 4dbd
000000b0: 4aaa 1d3e 584c 0e3c 78f5 7abe ca5e 5c3d
000000c0: 9073 80bd 2e52 27bd 8071 8cbd 8875 1ebd
000000d0: 4301 31be c351 65be f4df cbbc 6507 57bf
000000e0: 7739 0e3d f31d 1bbd 747d d6bc 45bd b7bd
000000f0: 7494 b03d 3326 673e e077 243c 80ee 803b
00000100: 0f7f 28be de84 40bd 4b18 4fbd 3049 433c
00000110: 47ca 483d 18bf 3e3c e378 c33d 37ec 85bf
00000120: 7d80 48be 04e9 6b3d d58c 80bc d20c b13c
00000130: 73b4 a4bb 6ba5 4e3e fc69 8b3e 7701 fbbc
00000140: 5a32 26bf 7549 84bd 1469 2a3d fd83 06be
00000150: d0e3 4ebc 6fe5 81be f891 713d 2665 9b3d
00000160: 62bb 10bd ac31 d63b ad38 14be cde5 d9bd
00000170: 1bf7 adbd f004 f83c f8d2 87be 0040 70be
00000180: 866d 49bd 4c72 723d e446 e4bc 75f0 c1be
00000190: 93c5 4bbe 782a 963d f2a7 283d 2a37 f3bd
000001a0: a047 b7bb 8f28 afbd 6178 b8bd 6de1 443d
000001b0: 7ece 3fbe e12c 05be 1e51 50bf 9d90 5d3e
000001c0: d8fa 8abc 903b 0ebe 3534 5e3e 286f 033c
000001d0: 2f8d 973c 906f 183e 1906 1dbe 84d2 453c
000001e0: 945e 36bf f2c9 a6bd 7f33 a83d aefd f8bb
000001f0: 1389 df3d cb50 af3c ae84 333d 2a99 6ebe
00000200: fabb dbbe b0f3 673d e145 d83e b89b 55bd
00000210: bd43 0b3e 8232 3dbd 4041 093b c5d3 39bd
00000220: 0937 eabc c7b3 71be 4810 15bc 0cd8 e3be
00000230: e0cc 22bb 197a 883e 2f2e 10bd 012a 33bf
00000240: a279 32bf 7d7a dabd 18c6 ae3d 09b2 b7bd
00000250: 12cb d9be 906c 103e 117b 09bf 3490 82be
00000260: c017 f63b ecb7 613d a04a b63d 7283 0ebd
00000270: 7c02 813d 9455 debc f0ee 61bc ba93 313e
00000280: f0a5 26bc ba90 023d a4ec f03d 00f8 293d
00000290: cb26 263e 29cb 8bbe 1ac5 1a3d 5cf5 f73c
000002a0: 59fe b9be 2272 6dbe e031 a8bd 3571 03be
000002b0: 30eb 93bd 5008 0cbd b713 193e e7c0 e6be
000002c0: 406f 303b f889 49bd 356e a33e 54cc 22be
000002d0: 9279 68bd 01cd 3b3d 5e4b 0dbf 139a 02bf
000002e0: d886 eabc f45a 8abc ae06 29be 2eaf d9bc
000002f0: 62f4 843d ed86 13bd 9c16 e7bd 9f65 bf3c
00000300: c0ea 97bb bced ec3d 5096 69bd 4c3f 93bd
00000310: 0c0e 26bd 6172 833d 0036 fa3c 8c02 8abf
00000320: f882 e4be 4ff5 49bd bb2d 16bd f83e 42bd
00000330: 606c f2bd e519 843e f0a4 b03b e939 083d
00000340: cc5f 00bd c9a7 ca3d aa10 803d f0d0 183f
00000350: e4bd 2a3d ee47 0cbf 765a cc37 7d32 fdbd
00000360: 7a6d 3b3d b86d ecbc b710 183e 3d8a 54be
00000370: cb5b ecbd 6e13 c3be 78f4 94be c1c1 bcbf
00000380: de4f 49bc 3647 12be 8460 8a3e e956 b73d
00000390: aa51 edbe 9823 b8bc 9d33 c1bd cb07 74bc
000003a0: 6aa2 5f3e 907e bb3c 830e cabe 0cba 453d
000003b0: cc0d db3c a450 e1bd 40fe 0cbf e95b 61bd
000003c0: b11e 123f b2f1 0abd 3bc3 f03c be16 1ebf
000003d0: d230 64bc 15f3 443e a4aa 2d3d 9f18 913d
000003e0: 1672 97bc d326 d13d ec32 633e 1c4f 20bc
000003f0: 3e5b 603d 3630 ab3c bf42 a2bb acef 95bc

linear2.bias f4 [256]
-0.15217151 -0.07171123 0.057454888 -0.023938205 0.0873487 -0.007504349 -0.22947219 -0.058432512
-0.04089098 -0.24274358 0.12913202 -0.046763327 -0.1466275 0.14154474 -0.30541527 -0.13047107
-0.05316523 -0.06650692 -0.07334724 -0.02493562 -0.10912605 -0.055382982 0.07156771 0.09628914
0.03985334 -0.11209848 0.028589517 -0.057332966 -0.09655071 -0.43430743 0.049523022 -0.038030572
0.0029108885 0.021330163 0.008838017 -0.06032982 -0.093338564 0.054974005 -0.32485557 -0.22742619
-0.1622488 -0.009967512 -0.03029866 0.08656321 0.10331665 0.12926973 -0.009834491 -0.040703256
-0.11475903 -0.021042502 0.0009500774 -0.08636795 -0.050400276 -0.0370178 0.17602386 0.0150856115
-0.02457133 -0.11591815 -0.05881574 -0.14437209 -0.33253092 -0.08833058 -0.101654075 -0.06879662
0.005414672 -0.01850855 -0.074479595 -0.020516673 -0.043071494 0.13483056 -0.12864369 -0.08267451
-0.22453134 -0.03586737 -0.07693409 -0.030217936 -0.056075223 -0.018033221 0.032091822 0.08240379
0.0682764 -0.13288808 -0.002699947 0.022868754 -0.16716035 -0.067840815 -0.044057384 -0.08899192
-0.12339544 -0.28234506 -0.049609102 -0.036964133 0.11285839 0.008392063 -0.15079854 -0.10873269
0.02899161 -0.05030957 -0.062002547 -0.11239846 -0.13369526 -0.25911793 -0.04088798 -0.052050617
-0.011064862 0.02755199 -0.12721965 0.08134219 0.09040087 -0.08831076 -0.00862509 0.040912002
-0.0945099 0.12787336 -0.2561239 -0.08378358 -0.029780589 -0.09283469 -0.03292469 0.07581103
0.04529709 -0.004594264 -0.04434225 0.0042407927 -0.053130973 -0.068033285 -0.0638811 -0.02219838
-0.19276482 -0.20069943 -0.060007237 0.10699264 -0.0736523 -0.19284433 -0.090710916 -0.034607667
0.08614844 0.023368528 0.05099826 -0.1168353 0.31135762 0.04268715 -0.084893614 -0.19334261
-0.013366519 -0.07503524 -0.009656747 0.11797131 0.080045044 -0.020033557 -0.00317293 0.107676245
-0.15045162 -0.012267151 -0.16103345 0.0055264668 0.11404339 -0.04901471 0.016836075 -0.20709185
-0.13062327 -0.07343184 0.26385686 -0.102388114 0.005151956 -0.04123265 -0.03501465 -0.09826373
0.064778715 -0.15903598 -0.3619758 -0.05219636 -0.102788985 0.014263489 -0.26721638 -0.026182834
-0.11942838 0.09360338 -0.05066572 -0.013906925 -0.020154905 -0.17134936 -0.12454431 -0.07074761
-0.11588107 0.073569804 0.12616801 -0.0367315 -0.03621977 0.190884 0.009579024 -0.2249122
0.16347863 -0.054084018 -0.066447735 -0.079580046 -0.04533145 -0.081540994 -0.0020395173 0.028395196
-0.03208015 -0.039626673 0.0023893393 0.043163173 -0.24536805 -0.067923896 -0.035780445 0.109722026
0.045719095 -0.030115098 0.013659979 -0.029167894 -0.22646312 -0.21437486 -0.086892426 -0.074962005
-0.014098605 -0.07745217 0.02203157 -0.051831115 -0.023764709 0.15605453 -0.0059267427 0.09325788
-0.054770194 -0.17040727 -0.19890283 -0.067053236 0.020943446 -0.23322308 -0.0010902365 -0.06508593
0.010930563 -0.2861581 0.024137432 -0.12203032 -0.04484183 -0.31754482 0.012638074 -0.010878904
0.04445409 0.02626091 -0.19586237 -0.19648582 0.018851848 0.110434495 -0.21881995 0.119103454
0.029193044 -0.2562058 -0.053596538 -2.7513684e-05 -0.048238736 0.041017916 -0.17597881 -0.233056
00000000: d9d2 1bbe 56dd 92bd d155 6b3d 0e1a c4bc
00000010: e0e3 b23d 0be7 f5bb c2fa 6abe ee56 6fbd
00000020: 4d7d 27bd c691 78be 2f3b 043e e78a 3fbd
00000030: 8525 16be 1bf1 103e 645f 9cbe 359a 05be
00000040: c9c3 59bd c834 88bd 1437 96bd c945 ccbc
00000050: 7a7d dfbd 44d9 62bd 1792 923d 3e33 c53d
00000060: 413d 233d e393 e5bd 9034 ea3c f9d5 6abd
00000070: 61bc c5bd 8b5d debe a7d8 4a3d f2c5 1bbd
00000080: 9bc4 3e3b 98bc ae3c 54cd 103c 671c 77bd
00000090: 4a28 bfbd 6c2c 613d 7853 a6be 69e2 68be
000000a0: 8d24 26be c74e 23bc e534 f8bc 0d48 b13d
000000b0: ae97 d33d 495f 043e d820 21bc 75b8 26bd
000000c0: c806 ebbd 5361 acbc 9d0e 793a aee1 b0bd
000000d0: 8570 4ebd fa9f 17bd 993f 343e a429 773c
000000e0: d049 c9bc 7f66 edbd c6e8 70bd 47d6 13be
000000f0: 7e41 aabe aae6 b4bd 0330 d0bd 3ee5 8cbd
00000100: 906d b13b 3e9f 97bc c288 98bd 9512 a8bc
00000110: bc6b 30bd 0611 0a3e 2cbb 03be 4151 a9bd
00000120: 8beb 65be aae9 12bd 9f8f 9dbd 9b8b f7bc
00000130: 22af 65bd 68ba 93bc b772 033d 51c3 a83d
00000140: 7fd4 8b3d d013 08be 98f1 30bb 4157 bb3c
00000150: 152c 2bbe 20f0 8abd 8475 34bd 6541 b6bd
00000160: c0b6 fcbd 888f 90be ea32 4bbd b467 17bd
00000170: 4d22 e73d dd7e 093c ef6a 1abe 3faf debd
00000180: d07f ed3c 6811 4ebd 62f6 7dbd 2a31 e6bd
00000190: 69e7 08be 1bab 84be 287a 27bd 0733 55bd
000001a0: 6549 35bc b6b4 e13c de45 02be bc96 a63d
000001b0: 1724 b93d 46dc b4bd 4050 0dbc 5893 273d
000001c0: 688e c1bd 3cf1 023e ac22 83be ba96 abbd
000001d0: 6cf6 f3bc 1d20 bebd 0adc 06bd d042 9b3d
000001e0: 7189 393d 7b8b 96bb 38a0 35bd 59f6 8a3b
000001f0: dd9f 59bd 0955 8bbd 18d4 82bd 61d9 b5bc
00000200: 2464 45be 2784 4dbe 26ca 75bd f51e db3d
00000210: 04d7 96bd fc78 45be a5c6 b9bd c5c0 0dbd
00000220: 986e b03d 5b6f bf3c 8de3 503d 5947 efbd
00000230: 446a 9f3e b9d8 2e3d b4dc adbd 9bfb 45be
00000240: 3eff 5abc 13ac 99bd 5537 1ebc f19a f13d
00000250: a8ee a33d 6a1d a4bc eff0 4fbb 5d85 dc3d
00000260: fd0f 1abe 29fc 48bc f4e5 24be 5d17 b53b
00000270: 958f e93d a6c3 48bd cfeb 893c e30f 54be
00000280: 1bc2 05be 6f63 96bd 3f18 873e dcb0 d1bd
00000290: bdd1 a83b 91e3 28bd 866b 0fbd 7f3e c9bd
000002a0: b4aa 843d 54da 22be e454 b9be dacb 55bd
000002b0: 0883 d2bd 69b1 693c 96d0 88be 627d d6bc
000002c0: de96 f4bd 21b3 bf3d dc86 4fbd dfd9 63bc
000002d0: e61b a5bc 3576 2fbe 1611 ffbd 1fe4 90bd
000002e0: 0e53 edbd c4ab 963d 3032 013e c573 16bd
000002f0: 2e5b 14bd 1877 433e 57f1 1c3c 624f 66be
00000300: f166 273e 3487 5dbd c015 88bd ddfa a2bd
00000310: 78ad 39bd f7fe a6bd 6ca9 05bb 0b9d e83c
00000320: 7a66 03bd 944f 22bd 7696 1c3b decb 303d
00000330: c341 7bbe af1b 8bbd 848e 12bd f1b5 e03d
00000340: f243 3b3d f0b3 f6bc 1bce 5f3c 82f1 eebc
00000350: f3e5 67be 1585 5bbe a8f4 b1bd ae85 99bd
00000360: d6fd 66bc 3e9f 9ebd 8d7b b43c dd4c 54bd
00000370: 35ae c2bc c2cc 1f3e 1f35 c2bb fdfd be3d
00000380: b656 60bd 3e7f 2ebe 2fad 4bbe 3553 89bd
00000390: 9791 ab3c 08d2 6ebe 44e6 8eba c64b 85bd
000003a0: 1b16 333c 5183 92be ddbb c53c 08eb f9bd
000003b0: 11ac 37bd 3c95 a2be ed0f 4f3c 6e3d 32bc
000003c0: 7e15 363d 1f21 d73c 2590 48be 9433 49be
000003d0: 316f 9a3c 7b2b e23d 5612 60be 83ec f33d
000003e0: 4026 ef3c 682d 83be 0b88 5bbd 30cd e6b7
000003f0: fb95 45bd 6702 283d ca33 34be 3ba6 6ebe

linear3.weight f4 [3, 256]
1.6574696 -0.037481718 1.3688109 0.0057237884 0.2661684 -0.021065896 0.027159406 -0.032952163
-0.08053379 0.13170482 0.2090946 -0.035285093 -0.536302 1.059982 -2.2935991 -0.16305326
0.049953867 -0.0565615 -0.036030073 0.035478555 -0.6808685 -0.03426515 0.1459143 0.05071729
0.020228177 -0.04942367 -0.039875846 -0.27663824 0.16362116 -0.8924391 -0.049116436 0.004519795
-0.15654552 -0.0011645738 -0.0030303018 -0.16259414 -0.007857145 -0.15112436 0.79042476 -0.25616157
-0.7647518 -0.069122076 0.004266955 0.09414201 -0.19393435 -0.03779836 -0.03026645 -0.04173974
-0.20151685 -0.043388143 -0.2885991 -0.040940944 0.028925678 0.11268891 0.27260894 -0.017508686
-0.029972062 -0.3919286 0.35145646 -0.18443498 -0.44321817 -0.07365308 0.7475876 0.012284776
-0.09395532 -0.13095267 0.022762518 0.015902214 -0.0031378176 0.097456954 -0.67074496 -0.06077787
-0.119487055 0.15856624 -0.053756177 -0.051389776 0.23185714 0.0040132217 0.059681278 0.020696336
0.44679523 -0.0660776 -0.026204083 -0.012683104 0.39099044 -0.18671677 -0.012702599 0.058130212
0.1313008 -0.70247626 -0.8810979 -0.9922075 -0.22154246 -0.03208626 2.5144274 0.034243315
0.20622055 0.058318064 0.041412685 1.0415846 0.31997928 -0.9770926 -0.24411257 0.035515673
0.031014042 -0.019941138 0.04863949 0.22912155 -0.027798686 -0.035537392 0.9657587 0.06191868
-0.029381141 0.88488126 -0.08795537 -0.013455419 0.035627402 -0.28485134 0.3449132 0.18240622
0.019919636 -1.2441099 -0.021687003 -0.068863 0.26536456 -0.41855645 0.0072142608 0.04113593
-0.11535768 -0.026518874 0.036748417 -0.016486077 -0.123185374 -0.4526341 -0.14157198 0.007820398
-0.38933215 -1.751719 -0.20058985 0.037126713 -0.17587426 0.12888671 -0.026008796 -0.6110246
-0.17464995 -0.03238094 -0.027022036 -0.15973893 0.42135793 -0.016979424 0.0020641685 0.08813564
0.41556928 -0.025016105 0.5369629 0.014212278 0.16344725 0.97564894 0.62860876 -0.24815316
-0.08425185 -0.017039794 0.82272476 -0.06126231 0.19824246 0.30700102 0.0090170875 0.027096871
-0.15044808 -0.037076242 -1.2408334 -0.06586916 0.09989885 -0.013580109 -0.2363581 -0.029442007
0.2998959 0.85930926 -0.017278148 0.09963361 0.015331084 0.2508463 0.015675725 -0.43914607
-0.70650345 0.1069495 0.3250328 -0.040274143 0.15370925 0.7772391 -1.3760599 0.057531808
0.11951048 -0.08193408 -0.028072858 -0.009362071 0.021083683 -0.027118757 -0.029060427 0.42082512
-0.022123892 -0.2674695 0.0030961067 -0.063704185 0.236351 -0.024506684 0.06446288 -0.14210765
0.3004683 0.01106208 0.6528062 -0.032613844 0.28738025 -0.52876186 -0.03147134 -0.030351626
-0.032455273 -0.037992 0.10508723 -0.042780906 -0.063230366 2.0560992 -0.006522601 0.026510473
0.14994259 -1.0017571 -0.24516006 -0.0023778025 0.04661507 0.2883702 0.023012277 -0.16571105
0.048124235 0.10701253 -0.019808576 -0.056410644 0.63665193 -2.1523347 -0.044619296 -0.4838777
0.6978209 -0.013179086 -0.8594523 -2.0781586 -0.014371303 0.11296339 -0.35609475 -0.11114259
0.020001324 -0.10341949 -0.022490334 -0.08743759 0.20722549 -0.1945307 0.53627324 -0.08652636
00000000: f727 d43f 6e86 19bd 3235 af3f 9e8e bb3b
00000010: 3947 883e 6392 acbc 677d de3c d9f8 06bd
00000020: e6ee a4bd a1dd 063e e51c 563e 1a87 10bd
00000030: 164b 09bf 7dad 873f 54ca 12c0 6ff7 26be
00000040: 6d9c 4c3d 08ad 67bd 4594 13bd f651 113d
00000050: 664d 2ebf 9d59 0cbd 8f6a 153e efbc 4f3d
00000060: 90b5 a53c 7970 4abd db54 23bd 87a3 8dbe
00000070: 4e8c 273e e476 64bf 512e 49bd ca1a 943b
00000080: 784d 20be 9da4 98ba 0798 46bb 147f 26be
00000090: 41bb 00bc 58c0 1abe 4759 4a3f 9c27 83be
000000a0: c6c6 43bf e08f 8dbd d0d1 8b3b 87cd c03d
000000b0: ba96 46be 74d2 1abd 59f1 f7bc 4af7 2abd
000000c0: 6f5a 4ebe c4b7 31bd 43c3 93be b1b1 27bd
000000d0: 8bf5 ec3c 71c9 e63d 6693 8b3e 606e 8fbc
000000e0: f887 f5bc deaa c8be 1af2 b33e 86dc 3cbe
000000f0: 7eed e2be 6dd7 96bd e761 3f3f 1646 493c
00000100: a66b c0bd 7518 06be 7678 ba3c 5c45 823c
00000110: d8a3 4dbb 8397 c73d f1b5 2bbf 37f2 78bd
00000120: a1b5 f4bd 305f 223e 702f 5cbd 167e 52bd
00000130: f56b 6d3e 5881 833b 5b74 743d 5d8b a93c
00000140: 58c2 e43e b153 87bd f2a9 d6bc cbcc 4fbc
00000150: e62f c83e ae32 3fbe 901e 50bc f219 6e3d
00000160: b873 063e 7cd5 33bf a28f 61bf 5001 7ebf
00000170: 07dc 62be e26c 03bd 61ec 2040 b842 0c3d
00000180: 7b2b 533e ecde 6e3d 59a0 293d a552 853f
00000190: 53d4 a33e be22 7abf a5f8 79be e278 113d
000001a0: 2911 fe3c 995b a3bc 343a 473d d79e 6a3e
000001b0: 12ba e3bc a88f 11bd f63b 773f 719e 7d3d
000001c0: b8b0 f0bc 9487 623f f221 b4bd 1e74 5cbc
000001d0: 0aee 113d 09d8 91be 7798 b03e b2c8 3a3e
000001e0: 812e a33c fe3e 9fbf f1a8 b1bc 0b08 8dbd
000001f0: dddd 873e 084d d6be 9b65 ec3b 267e 283d
00000200: a640 ecbd 1c3e d9bc 8285 163d cf0d 87bc
00000210: 9d48 fcbd a8bf e7be 3ff8 10be 2021 003c
00000220: 8b56 c7be 5438 e0bf 6d67 4dbe 2e12 183d
00000230: 6218 34be e1fa 033e 6610 d5bc 1c6c 1cbf
00000240: 70d7 32be e0a1 04bd 515d ddbc 9a92 23be
00000250: 3abc d73e 6f18 8bbc 0047 073b 7580 b43d
00000260: 7fc5 d43e 93ee ccbc 6776 093f 9dda 683c
00000270: b75e 273e 21c4 793f 81ec 203f dd1b 7ebe
00000280: 3c8c acbd 0a97 8bbc 179e 523f 30ee 7abd
00000290: 1200 4b3e 3d2f 9d3e 68bc 133c 42fa dd3c
000002a0: 100f 1abe 42dd 17bd a1d3 9ebf 69e6 86bd
000002b0: c597 cc3d 1b7f 5ebc dc07 72be 5d30 f1bc
000002c0: f58b 993e b1fb 5b3f e78a 8dbc b50c cc3d
000002d0: 3a2f 7b3c ed6e 803e 616a 803c c1d7 e0be
000002e0: 69dd 34bf 5708 db3d b36a a63e 80f6 24bd
000002f0: f565 1d3e 24f9 463f bb22 b0bf 79a6 6b3d
00000300: e9c1 f43d 0ecd a7bd 0df9 e5bc 5f63 19bc
00000310: b0b7 ac3c 2828 debc 2210 eebc 6476 d73e
00000320: 2a3d b5bc c3f1 88be 0de8 4a3b 5777 82bd
00000330: ff05 723e 3ec2 c8bc 1d05 843d ab84 11be
00000340: fbd6 993e ba3d 353c 4f1e 273f 1896 05bd
00000350: 8123 933e f05c 07bf 18e8 00bd f9a3 f8bc
00000360: d2ef 04bd 809d 1bbd f937 d73d 083b 2fbd
00000370: ec7e 81bd 2197 0340 8bbb d5bb 7e2c d93c
00000380: 8d8a 193e 9439 80bf 3d0b 7bbe e8d4 1bbb
00000390: 72ef 3e3d 42a5 933e 3e84 bc3c 28b0 29be
000003a0: eb1d 453d 6329 db3d 9845 a2bc d90e 67bd
000003b0: 9ffb 223f dabf 09c0 b9c2 36bd d1be f7be
000003c0: 64a4 323f 18ed 57bc 1105 5cbf 8d00 05c0
000003d0: 9d75 6bbc 5a59 e73d 0d52 b6be ba9e e3bd
000003e0: d1d9 a33c 99cd d3bd a63d b8bc 7b12 b3bd
000003f0: eb32 543e 0e33 47be 3449 093f bb34 b1bd

linear3.bias f4 [3]
0.19928353 -0.081569254 0.105749294
00000000: fb10 4c3e c80d a7bd 1693 d83d
