models/Env3/SAC_256_A5_S3_P/local_episode_150_reward_200.000000.pt (torch, 296992 bytes, 6 tensors)

trunk.0.weight f4 [256, 23]
0	0xbd4981e6	-0.049196146
1	0x3d93acbe	0.07210682
2	0xbd825f48	-0.0636583
3	0xbe3a9665	-0.18221433
4	0xbcbdf19d	-0.0231865
5	0x3d2f47eb	0.042793196
6	0x3d9c281e	0.07624839
7	0xbdf4eabe	-0.11958836
8	0x3e354353	0.17701463
9	0xbe174a6d	-0.14774485
10	0x3cfca9b1	0.030842634
11	0xbcf2c2d7	-0.029633923
12	0xbdabe42e	-0.08393131
13	0xbe1c08b8	-0.15237701
14	0xbdd0d17a	-0.101962045
15	0xbc7fcf95	-0.015613456
16	0xbd7ebc8c	-0.06219153
17	0xbcbc8abe	-0.023015376
18	0xbd67d472	-0.056599088
19	0x3c5ebb77	0.0135945
20	0xbd583635	-0.05278607
21	0x3dee48cb	0.11634978
22	0xbd133130	-0.03593558
23	0xbe0c6f4d	-0.13714333
24	0xbdfacb47	-0.12245803
25	0x3d17105e	0.036880843
26	0xbe2f3bc8	-0.17112648
27	0xbdd0398e	-0.10167228
28	0xbe5c9fa9	-0.2154528
29	0xbe3d2408	-0.18470776
30	0xbdd46dc4	-0.10372499
31	0x3d262547	0.040562894
32	0x3dc066d2	0.093946114
33	0x3e2fe101	0.17175676
34	0x3da20e6b	0.07912906
35	0xbcd59fb4	-0.026077129
36	0x3e06123c	0.13092893
37	0x3de9e18d	0.114199735
38	0xbb880912	-0.004151472
39	0x3daa16b6	0.08305113
40	0x3d2d045e	0.042240493
41	0xbcfd3ba5	-0.03091223
42	0xbe14a17e	-0.1451473
43	0xbe54018b	-0.20703714
44	0x3e0ea7ec	0.13931245
45	0xbdc0bee5	-0.0941141
46	0xbd29ba3d	-0.041437376
47	0x3d92b587	0.0716353
48	0x3c16f7ce	0.009214355
49	0xbc88ad03	-0.01668406
50	0xbd8922f4	-0.0669612
51	0xbdda1a73	-0.10649576
52	0xbda520d6	-0.080629036
53	0x3e3615fa	0.17781821
54	0x3b98bcff	0.004661202
55	0x3c9298e4	0.01789517
56	0x3e227974	0.15866643
57	0x3dadc888	0.08485514
58	0x3d5e821b	0.054323297
59	0xbe14086b	-0.14456336
60	0xbc8fd6ce	-0.017558482
61	0x3e6961d4	0.22791225
62	0xbce14ac5	-0.027501473
63	0x3d283e9c	0.041075334
64	0xbdfb853c	-0.12281272
65	0xbe348738	-0.17629707
66	0xbd8cc2b1	-0.06873072
67	0xbdbfc192	-0.093630925
68	0xbdcd4733	-0.10023346
69	0x3e2e276d	0.17007227
70	0x3d90dc65	0.07073287
71	0xbd1ff3c2	-0.039050825
72	0xbd192f94	-0.03739889
73	0xbd6393f5	-0.055561025
74	0x3d39e389	0.04538301
75	0x3d5c158a	0.05373148
76	0xbc9f7b92	-0.019468103
77	0xbcf3c198	-0.029755399
78	0xbc26139c	-0.010136511
79	0xbdde150e	-0.108438596
80	0xbd8c2f76	-0.0684499
81	0xbdd82118	-0.10553187
82	0xbc80579b	-0.015666774
83	0xbdba7313	-0.0910398
84	0xbddd259e	-0.107981905
85	0x3d70c46e	0.05878108
86	0xbdb3a377	-0.08771413
87	0xbd2578db	-0.04039846
88	0xbdc0b245	-0.09409002
89	0xbd522fa7	-0.051314976
90	0xbc8aa9e8	-0.01692672
91	0xbd8c5304	-0.068517715
92	0xbe198893	-0.14993505
93	0xbe205f08	-0.15661252
94	0xbd8318c9	-0.06401212
95	0xbc5eceda	-0.013599122
96	0xbd8ffe7e	-0.070309624
97	0x3c956426	0.018236231
98	0x3d24fa52	0.040277787
99	0x3c3773f3	0.011197078
100	0xbb090699	-0.0020908474
101	0x3bb0b6b7	0.005392875
102	0xbe94be6a	-0.29051524
103	0xbeaa9a3d	-0.333208
104	0xbd07da3f	-0.03316712
105	0x3db76941	0.089556225
106	0x3dd1cab5	0.102437414
107	0x3d2e54c7	0.04256132
108	0xbd74afec	-0.059738085
109	0xbda6bea1	-0.08141828
110	0x3c883d54	0.016630806
111	0xbd4f0270	-0.050539434
112	0x3e0bfbe0	0.13670301
113	0xbdce0831	-0.10060156
114	0xbe233b27	-0.15940534
115	0xbe3bf00a	-0.18353286
116	0xbe35e567	-0.17763291
117	0xbd35dd6a	-0.04440061
118	0xbd690217	-0.05688676
119	0x3ccc7705	0.024959097
120	0xbc569c00	-0.013098717
121	0x3d39b99b	0.045343023
122	0x3e1dd262	0.15412286
123	0x3bf3aafd	0.007436155
124	0xbe03e46f	-0.12880109
125	0xbdcefa97	-0.1010639
126	0xbd533ec0	-0.051573515
127	0xbc93e8e7	-0.018055392
128	0xbd5b89b7	-0.053598132
129	0x3dcca9a4	0.09993294
130	0xbd72dfd6	-0.059295498
131	0xbe53451b	-0.2063183
132	0x3d26d38d	0.040729094
133	0xbe018ead	-0.12652083
134	0xbd7a88cd	-0.06116562
135	0x3ddd0f24	0.107939035
136	0x3dd89672	0.1057557
137	0x3bf9f7c4	0.007628413
138	0x3c8f43aa	0.01748832
139	0xbd1d5304	-0.038409248
140	0xbdb66017	-0.089050464
141	0xbe20f04d	-0.15716667
142	0xbe4eea84	-0.20206648
143	0xbd102bc7	-0.035198
144	0x3d22cd80	0.03974676
145	0xbdf88ab9	-0.12135834
146	0xbe0fde4e	-0.14049646
147	0xbe12f534	-0.1435135
148	0xbe178702	-0.14797595
149	0xbe8d0059	-0.27539328
150	0xbe81b3c3	-0.2533246
151	0xbe8089df	-0.25105187
152	0x3e311f75	0.17297156
153	0x3e2d5ea2	0.16930631
154	0x3d71a26e	0.058992796
155	0x3d6e856d	0.058232713
156	0x3e3a8963	0.18216471
157	0x3d913122	0.070894495
158	0x3d1a6750	0.037696183
159	0x3d3cdcd9	0.046109054
160	0xbce9ff95	-0.028564254
161	0x3e37cfb9	0.17950334
162	0x3e47e6f9	0.19521703
163	0xbccfc88b	-0.025364181
164	0xbd9bccb3	-0.07607403
165	0xbe8a196d	-0.26972523
166	0xbdc95c60	-0.09832072
167	0xbe3dfc05	-0.18553169
168	0xba99685e	-0.0011704077
169	0xbe2a4aae	-0.1663005
170	0xbd990b45	-0.074728526
171	0x3d8eab48	0.06966263
172	0xbddd1a6e	-0.10796057
173	0xbdceb54f	-0.100931756
174	0xbe9dd21a	-0.30824357
175	0xbcdfb972	-0.027310107
176	0x3d608e20	0.05482304
177	0x3d9aab2c	0.0755218
178	0x3e08ec77	0.13371454
179	0x3d0dec71	0.034649316
180	0x3d7e7832	0.062126346
181	0x3d83adfc	0.06429669
182	0x3cb14fbd	0.021644467
183	0xbb45826a	-0.0030137547
184	0xbdff08c3	-0.12452843
185	0x399abec8	0.00029515312
186	0xbd88632f	-0.06659543
187	0xbd5bae10	-0.053632796
188	0xbe748dc6	-0.23882207
189	0xbd555536	-0.052083217
190	0xbd20f35c	-0.039294586
191	0xbb00e497	-0.00196675
192	0x3d16e903	0.03684331
193	0xbd3c0b99	-0.045909498
194	0x3c93b771	0.018031808
195	0xbd4a4aff	-0.049387928
196	0xbdcb797d	-0.099352814
197	0xbc68c0ac	-0.014206093
198	0xbc7f9c59	-0.015601241
199	0x3d21ae86	0.03947308
200	0xbe2b32a3	-0.16718535
201	0xbd756eee	-0.059920244
202	0xbe071c3e	-0.13194367
203	0x3d9e3c53	0.0772635
204	0x3ce96f06	0.028495323
205	0x3d03815e	0.032105796
206	0xbd52fa32	-0.051508136
207	0xbd15f5a9	-0.036611233
208	0x3d3cd758	0.046103805
209	0xbd6dbe27	-0.05804267
210	0xb639e72c	-2.7701708e-06
211	0xbd880b63	-0.06642797
212	0xbd4dd32d	-0.05025022
213	0xbd6a93fe	-0.057270043
214	0xbd2050f6	-0.03913971
215	0x3cf8e3f8	0.030382141
216	0xbd221611	-0.039571825
217	0xbd4fc552	-0.05072529
218	0xbd8b3e14	-0.0679895
219	0xbb8d177c	-0.004305778
220	0x3c8b511d	0.017006451
221	0x3d935455	0.071938194
222	0xbd3c5f22	-0.045989163
223	0xbd8e7961	-0.06956745
224	0xbb780239	-0.0037843122
225	0x3d80dcc5	0.062921084
226	0xbb845d35	-0.0040394315
227	0xbd143e65	-0.036192317
228	0x3aa4db2f	0.0012577529
229	0xbe15ff13	-0.14648084
230	0xbd358e4c	-0.044325158
231	0xbe8bb439	-0.27285936
232	0xbd9d3eba	-0.0767798
233	0x3e824099	0.2543991
234	0x3d611ffd	0.054962147
235	0x3db060d1	0.08612216
236	0xbdba3788	-0.09092623
237	0xbcccd0c6	-0.025001895
238	0xbe07bed7	-0.13256393
239	0xbd0a9640	-0.033834696
240	0x3e202641	0.15639593
241	0x3e7b29f6	0.24527726
242	0x3d87f841	0.066391475
243	0xbe052527	-0.13002454
244	0xbcd05756	-0.02543227
245	0x3ca14f93	0.019691264
246	0x3d88c746	0.066786334
247	0xbd44c164	-0.048035994
248	0xbdc7813f	-0.097414486
249	0xbc958745	-0.018252978
250	0x3d6b6cee	0.05747693
251	0xbd03c72f	-0.03217238
252	0x3d2c3a15	0.04204758
253	0xbc43f5e4	-0.01196048
254	0xbdf0442c	-0.11731753
255	0xbd679947	-0.05654266

trunk.0.bias f4 [256]
0	0x3bc83c89	0.006110732
1	0xbe06b47f	-0.13154791
2	0x3e0a5947	0.13510619
3	0x3c4d33d8	0.012524568
4	0xbcc79dc0	-0.024367213
5	0xbcdb2181	-0.026749374
6	0xbb84f3ec	-0.004057398
7	0x3d7bab24	0.06144251
8	0xbcc70be6	-0.024297666
9	0xbce9a9ef	-0.028523413
10	0xbd92bd07	-0.0716496
11	0xbd3c14de	-0.045918338
12	0xbdcd6908	-0.10029799
13	0x3cd0e038	0.02549754
14	0xbc82126d	-0.015877927
15	0xbccc1565	-0.024912545
16	0x3e66a2c4	0.22523028
17	0x3e0f1a02	0.13974765
18	0xbcd4a0b6	-0.02595554
19	0x3deb0a5b	0.114765845
20	0xbc9ac9c5	-0.01889504
21	0xbcea4874	-0.028599001
22	0xbdc320f4	-0.0952777
23	0xbd83fb91	-0.06444467
24	0xbcbbbd6d	-0.022917474
25	0x3df87fca	0.12133749
26	0xbd15ae71	-0.036543313
27	0xbd242d16	-0.04008206
28	0xbcf10a3a	-0.029423822
29	0x3dbe5f37	0.092955045
30	0x3c9917b8	0.018688068
31	0xbd1cc7bc	-0.03827642
32	0xbcbbdb96	-0.022931855
33	0xbc8c2a32	-0.017109964
34	0x3d25ff09	0.040526424
35	0xbd0e77d4	-0.034782246
36	0x00000000	0.0
37	0xbd1b3796	-0.037894808
38	0xbca4e6ad	-0.020129526
39	0x00000000	0.0
40	0xbcc9671c	-0.0245853
41	0xbcb9670d	-0.022632146
42	0xbd14827d	-0.036257256
43	0xbcc2af41	-0.023765208
44	0x3e0105e4	0.12599903
45	0x3c9a8ac1	0.018864991
46	0xbb9db827	-0.0048132124
47	0xbc99d124	-0.018776484
48	0xbd753c15	-0.05987175
49	0xbc8080ac	-0.015686356
50	0x00000000	0.0
51	0xbc820e9d	-0.015876109
52	0xbc9d49c1	-0.019200208
53	0x00000000	0.0
54	0x3e2e340e	0.17012045
55	0xbc703f9a	-0.014663601
56	0xbd170541	-0.036870245
57	0xbd8f7512	-0.07004751
58	0xbca539d7	-0.020169182
59	0x3d319a62	0.04336012
60	0xbd81d566	-0.06339531
61	0x3d112731	0.035437766
62	0xbccf9c34	-0.025343038
63	0x3b9f4c5f	0.004861399
64	0xbd4a80f4	-0.049439386
65	0x00000000	0.0
66	0xbc831641	-0.016001822
67	0xbdfa4aa5	-0.122212686
68	0xbc81e4c8	-0.015856162
69	0xbcc791aa	-0.02436145
70	0x3ade0d99	0.0016941308
71	0xbbe6c2d9	-0.0070422706
72	0x3e7a9265	0.24469908
73	0x3d350669	0.044195566
74	0x3a825c00	0.0009945631
75	0xbc819c59	-0.015821623
76	0xbd8e5f55	-0.06951777
77	0xbc9dab4d	-0.019246722
78	0xbc15c759	-0.0091417665
79	0xbcb5ef65	-0.022208879
80	0xbc1dd22e	-0.00963263
81	0xbc30b8db	-0.0107862605
82	0x3a67d46e	0.0008843605
83	0x3c262ccf	0.010142519
84	0xbcd2d516	-0.025736373
85	0xbc7494d3	-0.014928061
86	0x00000000	0.0
87	0x3dcf8b6a	0.10134013
88	0x3e03c785	0.1286908
89	0x3ea339f7	0.3188016
90	0x3e3cf90a	0.18454376
91	0xbc4c6b48	-0.01247675
92	0x3d803e8f	0.06261932
93	0xbce1dd71	-0.027571412
94	0xbcd3d5e3	-0.025858825
95	0x3e051daa	0.12999597
96	0xbb852e1a	-0.0040643336
97	0xbc81ef07	-0.015861047
98	0xbcc3021d	-0.023804719
99	0x3c511dcf	0.012763455
100	0x3e143a26	0.14475307
101	0xbcb64b92	-0.022252832
102	0xbcc1e5f7	-0.023669226
103	0xbd6a1a1c	-0.057153806
104	0x3c1169cf	0.008875324
105	0x3df1ad32	0.118006125
106	0x3e2788ae	0.16360733
107	0x3dc700a9	0.09716923
108	0xbc6e5b51	-0.014548139
109	0x3c0e16c0	0.008672416
110	0x3dbedf1e	0.093199
111	0xbd81bbe3	-0.06334665
112	0x00000000	0.0
113	0x3d763afb	0.060114842
114	0x3d8945ad	0.06702743
115	0xbcbf6802	-0.023365024
116	0xbcf32f20	-0.029685557
117	0xbcf3c193	-0.02975539
118	0x3d6ade48	0.05734089
119	0xbcc75476	-0.024332266
120	0x3d1f3b35	0.038874824
121	0xbc7fb2d8	-0.0156066045
122	0x3cc9e333	0.02464447
123	0xbcfaa2f9	-0.03059529
124	0xbcb10d32	-0.021612737
125	0xbc49f31c	-0.012326028
126	0x3a39c12f	0.00070859765
127	0xbca63888	-0.020290628
128	0xbd8ae87b	-0.067826234
129	0xbc855422	-0.01627547
130	0xbccd606b	-0.02507039
131	0xbcb3d18d	-0.021950508
132	0xbd3be0f4	-0.04586883
133	0xbce43715	-0.027858296
134	0xbd312ed0	-0.043257535
135	0x3e5f4851	0.2180493
136	0x3d5225e3	0.051305663
137	0xbd13b846	-0.03606441
138	0xbc898ecf	-0.01679173
139	0xbd0fed2d	-0.035138298
140	0x3edebe60	0.4350462
141	0x3e0ac136	0.13550267
142	0xbc9b2bdc	-0.018941812
143	0xbcaff20c	-0.021477722
144	0x3e2f0da4	0.17095047
145	0x3c33ff1d	0.010986117
146	0xbd5a0b2a	-0.053233303
147	0xbd21bd5d	-0.03948723
148	0xbd2e52b4	-0.04255934
149	0xbceb629c	-0.028733544
150	0x00000000	0.0
151	0x3af18d2d	0.0018428914
152	0x3d8e9192	0.06961359
153	0x3dc95b30	0.09831846
154	0xbc7e58ea	-0.015524128
155	0xbd43c9a3	-0.047799718
156	0x3dd0924a	0.101841524
157	0xbc5c0196	-0.0134281125
158	0xbc0cfb37	-0.008604816
159	0x3e13dc50	0.14439511
160	0x3d3a2ae8	0.045451075
161	0x3c89873f	0.016788123
162	0xbcaf6f23	-0.021415299
163	0x3d955e73	0.072934054
164	0x00000000	0.0
165	0xbd44f27b	-0.04808281
166	0x3c669d15	0.014075537
167	0xbcbef2f7	-0.023309214
168	0x3e6907cd	0.22756882
169	0xbbbb76eb	-0.0057209632
170	0xbccee8b3	-0.025257444
171	0x3d06f9c6	0.032953046
172	0xbc81ddd2	-0.015852842
173	0x3e3cb79c	0.18429416
174	0xbd31c4cc	-0.04340057
175	0xbca635da	-0.02028935
176	0xbd150173	-0.036378335
177	0xbcc386ab	-0.023867926
178	0x3dc7dc58	0.09758824
179	0xbcbeb3ef	-0.023279158
180	0xbd033c5a	-0.032039978
181	0xbc764807	-0.015031821
182	0x3c0920eb	0.008369665
183	0x3e491b9f	0.19639443
184	0x3e03b324	0.12861305
185	0x3e2a480f	0.1662905
186	0xbd11fe02	-0.03564263
187	0xbb9bded6	-0.0047567887
188	0x3e3e0a53	0.18558626
189	0xbcd8a817	-0.026447339
190	0x3dc9a240	0.098454
191	0xbcc26cd0	-0.023733526
192	0x3d01c5ef	0.031682905
193	0xbcc7e828	-0.024402693
194	0x3db581a5	0.08862618
195	0x3e2020cd	0.15637513
196	0x3d83fb38	0.064444005
197	0x3dfa3d5a	0.12218733
198	0xbd3445b6	-0.044011794
199	0x3dd4ea1a	0.10396214
200	0x3e27a5a3	0.16371779
201	0x00000000	0.0
202	0xbd12d1eb	-0.035844725
203	0xbc519301	-0.012791396
204	0xbcbd690c	-0.02312138
205	0xbc81f0f3	-0.015861964
206	0x3b9d3437	0.0047974843
207	0xbcc7a20d	-0.024369264
208	0xbd03b2df	-0.032153007
209	0x3cdb5914	0.026775874
210	0x3e56c620	0.20974016
211	0xbcb6c8db	-0.022312572
212	0xbbabed08	-0.005246762
213	0x3db77bd2	0.08959164
214	0x3db565dd	0.088573195
215	0xbc290848	-0.010316916
216	0xbd3baaf1	-0.04581732
217	0xbb89c9e6	-0.0042049764
218	0x00000000	0.0
219	0x3e289b7b	0.16465561
220	0xbaab680d	-0.0013077274
221	0xbda0ecfc	-0.07857701
222	0x3e769cf3	0.24083309
223	0xbd1cbed3	-0.03826792
224	0xbca5d530	-0.020243257
225	0xbdda6117	-0.1066305
226	0x3cc07e1d	0.023497635
227	0x3e560eb2	0.20904043
228	0xbc9592a7	-0.018258406
229	0x3c25b9b5	0.010115077
230	0x3a97f5c6	0.0011593632
231	0x3e17a414	0.14808685
232	0xbcd80a64	-0.026372142
233	0x3dcbc20c	0.09949121
234	0x3ec09f18	0.3762138
235	0xbc821795	-0.015880385
236	0xbcb4d2ef	-0.022073237
237	0xbb737803	-0.003715039
238	0xbd166fd1	-0.03672773
239	0xbc45914c	-0.012058567
240	0x00000000	0.0
241	0xbcb3fdf6	-0.021971684
242	0xbc76c272	-0.015061008
243	0x3d01d654	0.03169854
244	0x3cd501cc	0.026001833
245	0x3ded8b4e	0.11598836
246	0xbc902ae2	-0.017598573
247	0xbcde49db	-0.027134826
248	0xbd72ab88	-0.059245616
249	0x3d579a68	0.052637488
250	0xbcf5c799	-0.030002402
251	0xbc1ed6e1	-0.009694786
252	0xbd7ae5c7	-0.06125429
253	0xbc266c2c	-0.010157626
254	0xbd5c1e47	-0.053739812
255	0xbce57f81	-0.0280149

trunk.2.weight f4 [256, 256]
0	0xbdc0b2fa	-0.09409137
1	0x3c484d8e	0.012225522
2	0xbc715340	-0.014729321
3	0xbd740aae	-0.059580497
4	0xbd2244a5	-0.039616246
5	0xbc79416f	-0.0152133545
6	0x3d3267f9	0.043556187
7	0xbd41c5da	-0.047307827
8	0x3e0b1aae	0.13584396
9	0x3b8b96b4	0.0042599086
10	0xbb3e6a88	-0.0029055197
11	0xbda22f24	-0.079191476
12	0xbc134895	-0.008989473
13	0xbd825a92	-0.06364931
14	0xbc46dd32	-0.012137698
15	0xbdc8dd4c	-0.09807834
16	0xbd6ccfa5	-0.057815213
17	0xbd0c6703	-0.034277927
18	0xbd31c52a	-0.04340092
19	0xbe340a8c	-0.17582148
20	0xbdd5adbc	-0.10433528
21	0x3d7925c9	0.06082705
22	0x3d5857cf	0.052818116
23	0x3caceeda	0.021109987
24	0xbc097c31	-0.008391426
25	0x3c74b60a	0.01493598
26	0xbd9ee705	-0.07758907
27	0xbd3d2f2c	-0.046187565
28	0x3dcc485a	0.099747375
29	0xbd991802	-0.07475282
30	0xbd8bc18c	-0.068240255
31	0xbd047e5f	-0.03234708
32	0x3d089dc0	0.033353567
33	0xbdafae25	-0.08578137
34	0x3bdb6c9d	0.0066962973
35	0x3d15bf00	0.036559105
36	0x3a66e7d0	0.00088083465
37	0xbbb8c565	-0.0056387656
38	0x3dc23f26	0.09484701
39	0x3c9e19e8	0.019299462
40	0x3dfed0b7	0.12442153
41	0x3d11f3ff	0.035633083
42	0xbde5a1c2	-0.112124935
43	0x3de16731	0.1100601
44	0x3dd121a8	0.102114975
45	0x3b854339	0.0040668515
46	0xbd523671	-0.05132145
47	0xbaf2ab15	-0.0018514121
48	0x3d093f79	0.033507798
49	0xbd8bba1c	-0.06822607
50	0xbdb17523	-0.0866492
51	0xbddca492	-0.10773577
52	0xbccfee99	-0.025382327
53	0xbdf18188	-0.11792284
54	0x3d14cc50	0.03632766
55	0x3d83d828	0.06437713
56	0x3d0e0038	0.034668177
57	0x3d1e1898	0.038597673
58	0xbd8bb092	-0.068207875
59	0xbdcee9a3	-0.101031564
60	0xbddcbda3	-0.10778358
61	0xbd6af930	-0.05736655
62	0xbe03db22	-0.12876561
63	0xbd85ab22	-0.065267816
64	0xba20163c	-0.0006106829
65	0x3db86fe4	0.090057164
66	0x3d2452ef	0.040118154
67	0x3b336e82	0.00273791
68	0x3d5e5b2a	0.05428616
69	0xbcdec07e	-0.027191397
70	0xbdd3eb00	-0.10347557
71	0x3d487f8a	0.048949756
72	0xbd334a3e	-0.043771975
73	0x3d2c52ad	0.042071033
74	0xbd034f25	-0.0320579
75	0x3d1a21ea	0.03763
76	0xbd5861bd	-0.052827585
77	0x3baae0d1	0.0052147885
78	0xbd5723fe	-0.05252456
79	0x3db36e3c	0.0876126
80	0xbd919bd8	-0.07109803
81	0xbd9d1932	-0.07670821
82	0x3d4bdaa0	0.049769044
83	0xbbd6e064	-0.006557511
84	0x3d8e2835	0.06941263
85	0xbd0d026d	-0.03442614
86	0x3d4f23b6	0.050571166
87	0xbd866ba3	-0.06563499
88	0xbe093d79	-0.13402356
89	0xbdafb178	-0.08578771
90	0x3c91b41f	0.017786084
91	0xbe03609e	-0.12829825
92	0x3d2407cf	0.04004651
93	0x3c175b15	0.009238024
94	0xbcb208f7	-0.02173279
95	0xbe1eee4f	-0.15520595
96	0xbcc7796a	-0.024349887
97	0x3b4e7488	0.0031502564
98	0xbb640f3c	-0.003479912
99	0xbd0002c2	-0.03125263
100	0xbc4a0c2a	-0.012332002
101	0xbd147d0a	-0.03625206
102	0xbd83baf1	-0.064321406
103	0xbd13e752	-0.036109276
104	0x3db5ba81	0.088734634
105	0xbd014c20	-0.03156674
106	0xbd5fd590	-0.05464703
107	0xbda30437	-0.07959788
108	0xbddeb223	-0.10873821
109	0xbdc77687	-0.09739404
110	0xbd60e874	-0.054909185
111	0xbc7142cf	-0.014725401
112	0x3d56b755	0.052420933
113	0xbd1852b3	-0.037188243
114	0x3e21a8c8	0.15787041
115	0xba9f0432	-0.0012131988
116	0x3c4ae707	0.012384183
117	0xbc5ac51a	-0.013352657
118	0x3dace082	0.08441259
119	0xbd9ba231	-0.07599295
120	0xbc07b38e	-0.008282555
121	0xbc1f9e32	-0.009742307
122	0x3db457df	0.088058226
123	0xbcc8e885	-0.024524936
124	0xbb94c8f9	-0.0045405594
125	0xbbd6e493	-0.00655801
126	0xbc6a6908	-0.014307268
127	0xbd43267e	-0.04764413
128	0x3d0d67dc	0.034522876
129	0xbcc1e5e4	-0.02366919
130	0xbd1e02d3	-0.038576912
131	0x3c507faf	0.012725755
132	0x3ccf9f25	0.02534444
133	0xbbc7bc53	-0.006095448
134	0xbd3b24b7	-0.04568931
135	0xbd03acef	-0.032147344
136	0x3cee425c	0.029084377
137	0xbc937cbb	-0.018003812
138	0x3d2cef9e	0.042220704
139	0x3c9ee24e	0.01939502
140	0xbdc29eec	-0.09502968
141	0xbd2cbe10	-0.042173445
142	0xbcae5259	-0.0212795
143	0xbdcaf1bf	-0.09909391
144	0xbd06a6e3	-0.032874
145	0x3d457188	0.048203975
146	0xbd95eb71	-0.073202975
147	0xbd074a2d	-0.033029724
148	0x3cb9c3db	0.022676399
149	0xbd5215bf	-0.05129027
150	0x3dc32c96	0.095299885
151	0xbcb67fcf	-0.02227774
152	0xbd093b9c	-0.033504114
153	0x3e12186b	0.14267127
154	0xbc894288	-0.016755357
155	0xbd7301e3	-0.05932797
156	0x3dac922a	0.08426316
157	0x3c9eaa11	0.019368203
158	0x3bfc6886	0.00770289
159	0x3bbd853d	0.0057837055
160	0xbdc6134b	-0.096716486
161	0xbd999274	-0.07498637
162	0xbc4cc87e	-0.012498973
163	0xbd0c80ce	-0.034302525
164	0x3cdd94d6	0.02704851
165	0xbd11eef0	-0.03562826
166	0x3d62da87	0.055384185
167	0xbc23eafa	-0.010004753
168	0xbe27044c	-0.16310233
169	0x3cb54b7c	0.02213072
170	0xbd0bdc00	-0.034145355
171	0xbc1af1f4	-0.0094571
172	0xbdbb8e68	-0.09158021
173	0xbdbc23f3	-0.09186544
174	0x3d54f4af	0.05199116
175	0x3bc22774	0.0059251133
176	0x3db59a5f	0.088673346
177	0x3d285850	0.041099846
178	0xbba2debd	-0.0049704
179	0x3db683a2	0.08911826
180	0x3bc0e2ce	0.005886412
181	0xbcf7517a	-0.030190218
182	0xbdd93dc0	-0.10607481
183	0xbcf9c3be	-0.030488845
184	0xbdb8643f	-0.090034954
185	0xbdd308ec	-0.10304436
186	0x3d889981	0.066699035
187	0xbc9fe9de	-0.019520696
188	0xb866295a	-5.4874785e-05
189	0x3d51676b	0.051124018
190	0xbd103d41	-0.035214666
191	0xbdb4f7d8	-0.08836335
192	0x3dd0b4e1	0.1019075
193	0x3c6307cc	0.013856839
194	0x3cbdd971	0.023174973
195	0xbd9cb830	-0.076523185
196	0xbd7e4797	-0.062079992
197	0x3d338de8	0.043836504
198	0x3d3142fe	0.04327678
199	0xbde2000c	-0.11035165
200	0xbc0e09a9	-0.008669295
201	0x3bb402b8	0.005493488
202	0xbdb43ee3	-0.08801057
203	0x3e1015e8	0.14070857
204	0xbb53d677	-0.0032323876
205	0x3c048558	0.008088432
206	0xbcad8f3d	-0.021186465
207	0xbd07432a	-0.033023037
208	0x3c7dfb74	0.015501846
209	0xbd883647	-0.066509776
210	0xbd783e1a	-0.0606061
211	0xb9a0d311	-0.00030674835
212	0xbdcd8657	-0.10035389
213	0xbc041cdf	-0.008063524
214	0xbdad68ee	-0.084672794
215	0xbdc52428	-0.09626037
216	0xbdade168	-0.084902585
217	0x3c7568ee	0.0149786305
218	0x3d79a407	0.060947444
219	0x3cce5796	0.025188249
220	0xbdf28161	-0.11841083
221	0xbd94db0b	-0.07268342
222	0xbc1466a8	-0.009057678
223	0xbe22dcfa	-0.15904608
224	0xbd44e697	-0.04807147
225	0xbdd70c73	-0.105004214
226	0x3ba97310	0.005171187
227	0xba7a447d	-0.0009546949
228	0xbdc96046	-0.09832816
229	0xbd8d06df	-0.06886076
230	0xbc9e6859	-0.019336866
231	0xbcd33257	-0.02578084
232	0xbd35ca82	-0.04438258
233	0x3db47e5a	0.08813162
234	0x3be0e080	0.0068627
235	0x3d455cd8	0.048184246
236	0x3cf17f64	0.02947969
237	0x3cba4d9d	0.022742087
238	0xbc50b1cb	-0.012737702
239	0x3dd00e4a	0.101589754
240	0x3c43646a	0.011925796
241	0x3dbe4629	0.09290726
242	0x3d166cb1	0.03672475
243	0xbda94a1a	-0.08266087
244	0xbd6215d3	-0.055196594
245	0xbbb6c322	-0.005577461
246	0xbd29197c	-0.04128407
247	0x3d31c45e	0.04340016
248	0xbe019611	-0.12654902
249	0xbd4bef1d	-0.049788583
250	0x3d6659d0	0.056237996
251	0xbce46240	-0.02787888
252	0x3d10bc9a	0.035336114
253	0x3d90944a	0.07059534
254	0xbdfc3ddc	-0.12316486
255	0x3ddfb534	0.10923234

trunk.2.bias f4 [256]
0	0xbd9323bf	-0.071845524
1	0xbd302bc9	-0.043010507
2	0x3d170e06	0.03687861
3	0xbd7bfef5	-0.061522443
4	0xbe3714be	-0.17879006
5	0xbc64e639	-0.013970905
6	0xbd852342	-0.065008655
7	0xbdb19d76	-0.086726114
8	0xbd40534b	-0.046954434
9	0xbdf0c605	-0.11756519
10	0x3e70c1d3	0.23511438
11	0xbdb84ea5	-0.08999375
12	0xbd5cc555	-0.053899128
13	0xbd6bc1a0	-0.057557702
14	0xbc53bf1d	-0.012923983
15	0xbdb35fde	-0.087585196
16	0xbdbe61d6	-0.092960045
17	0x3f296d44	0.6618235
18	0xbdbb87e5	-0.09156779
19	0xbd1c5ff2	-0.038177438
20	0xbdb0cff7	-0.08633416
21	0xbd4100a3	-0.047119748
22	0x3e8a2726	0.26982993
23	0xbddcdced	-0.10784326
24	0x3e35adcb	0.17742078
25	0x3eed4a3c	0.463457
26	0xbc4d0061	-0.012512297
27	0xbd4488ac	-0.047981903
28	0x3f2463a5	0.64214545
29	0xbdc9c508	-0.09852034
30	0x3e6ebaa4	0.23313385
31	0xbd695434	-0.056965068
32	0xbde3c483	-0.11121466
33	0xbd5c70fe	-0.053818695
34	0xbdef1276	-0.11673443
35	0xbcbe29e8	-0.023213342
36	0xbd927c2c	-0.0715259
37	0x3dfd5d47	0.12371307
38	0x3ea95400	0.330719
39	0xbd284ca7	-0.041088726
40	0x3ee01ed8	0.43773532
41	0x3e885ae5	0.26631847
42	0x3e5cb753	0.21554308
43	0xbd2486dc	-0.040167674
44	0x3d94d2b2	0.072667494
45	0x3e2434d5	0.16035779
46	0xbdd46c32	-0.10372199
47	0xbda5e98e	-0.08101188
48	0xbcf57797	-0.029964251
49	0x3ee7b682	0.4525643
50	0xbd3d024e	-0.046144776
51	0xbd4c9d86	-0.049954914
52	0x3e55f221	0.20893146
53	0x3d2505d4	0.04028876
54	0x3ec2dbea	0.38058406
55	0xbd753db2	-0.05987329
56	0xbd052878	-0.032509297
57	0xbdd1923e	-0.102329716
58	0xbdf706a1	-0.12061811
59	0xbd70849b	-0.058720212
60	0xbce31005	-0.0277176
61	0x3e44a50a	0.19203582
62	0xbd38c0b1	-0.04510564
63	0xbd7c754d	-0.061635304
64	0xbd2e348a	-0.042530574
65	0xbde562c3	-0.11200478
66	0x3d937dfe	0.072017655
67	0xbd353293	-0.044237684
68	0x3ee44dfa	0.4459074
69	0x3ed36600	0.41288757
70	0xbd183bad	-0.037166286
71	0x3ead8558	0.33890796
72	0xbd545564	-0.051839247
73	0xbd1cebb4	-0.03831072
74	0xbd9aed4c	-0.07564792
75	0x3de5bf17	0.11218088
76	0x3c8b0339	0.01696931
77	0xbd384721	-0.04498971
78	0x3d3bbefc	0.045836434
79	0xbd9c8f47	-0.076445155
80	0xbceee1d8	-0.029160425
81	0x3de9548f	0.113930814
82	0xbd61b75f	-0.055106517
83	0xbd676d47	-0.0565007
84	0x3e956b0a	0.29183227
85	0x3dd232b9	0.10263581
86	0xbdbe92be	-0.093053326
87	0x3e380ed4	0.17974406
88	0x3ce1b7ec	0.027553521
89	0x3cc7b964	0.024380393
90	0x3e2c86de	0.16848323
91	0xbd0c2268	-0.0342125
92	0x3e2c990a	0.16855255
93	0x3e97ab59	0.29622915
94	0x3e18b99c	0.14914554
95	0xbe149f7c	-0.14513963
96	0xbeb950b1	-0.36194375
97	0xbd7bc053	-0.06146271
98	0xbd5c7345	-0.053820867
99	0x3ee0fbdb	0.4394215
100	0x3e979e61	0.2961302
101	0xbd9823eb	-0.07428726
102	0xbd1fbe29	-0.03899971
103	0xbd8ddf39	-0.06927342
104	0xbd9dc326	-0.07703237
105	0xbd8a1f2f	-0.06744229
106	0xbd86771e	-0.065656886
107	0xbcd78f9d	-0.026313597
108	0xbc0543c3	-0.008133831
109	0xbdb24cb2	-0.08706035
110	0xbd190070	-0.037353933
111	0xbd2fc995	-0.042916853
112	0xbd59c851	-0.053169552
113	0xbe5392a6	-0.2066141
114	0x3d72c005	0.059265155
115	0xbd947394	-0.07248607
116	0x3d91843d	0.071053006
117	0x3dbc5935	0.091967024
118	0x3e15c63e	0.14626405
119	0x3d775f52	0.06039364
120	0xbd28c592	-0.041204043
121	0xbd9146d6	-0.07093589
122	0xbe374c1f	-0.17900132
123	0xbd981505	-0.07425884
124	0x3da8a0cf	0.08233797
125	0xbd1a7286	-0.037706874
126	0x3e072716	0.13198504
127	0xbd596685	-0.053076286
128	0xbd5caa00	-0.053873062
129	0x3e418907	0.18899928
130	0x3f3481c4	0.70510507
131	0x3e07782a	0.13229433
132	0xbd25783f	-0.04039788
133	0xbcda0f13	-0.026618516
134	0xbdb461fc	-0.088077515
135	0xbe9aa3d7	-0.30203125
136	0xbd567a6f	-0.052362856
137	0xbd1b9e9d	-0.037993062
138	0x3ceee274	0.029160716
139	0xbcf77513	-0.030207193
140	0x3e6f61a8	0.23377097
141	0xbdb372bb	-0.087621175
142	0xbd7b11e8	-0.061296374
143	0xbdd442e5	-0.103643216
144	0x3daf541a	0.08560963
145	0xbd88e8e9	-0.06685049
146	0xbd73c314	-0.059512213
147	0xbdc225b1	-0.09479845
148	0xbd93733f	-0.07199716
149	0xbd5919e5	-0.05300321
150	0x3d53e6c2	0.05173374
151	0x3da7d3b2	0.081946746
152	0xbdc3dfa6	-0.09564142
153	0xbdaab93a	-0.083361104
154	0xbd9dc84f	-0.077042215
155	0xbdc077fa	-0.09397884
156	0xbd1cac1d	-0.038250078
157	0x3dd08ebe	0.10183476
158	0xbd34b42d	-0.04411714
159	0xbd74e5b2	-0.059789367
160	0x3eb60190	0.35548067
161	0xbd8aad1e	-0.06771301
162	0xbe1b1f30	-0.15148616
163	0xbd09b523	-0.03362001
164	0x3ea351df	0.318984
165	0xbd7722b8	-0.060335845
166	0x3dd96d4c	0.1061655
167	0xbd1e6b9d	-0.038676847
168	0x3dc7a495	0.097481884
169	0xbd5dbbd9	-0.054134224
170	0xbd94e5c1	-0.072703846
171	0x3e258429	0.16163696
172	0x3dbb7b0b	0.09154328
173	0xbd896be2	-0.0671003
174	0xbd11858d	-0.035527755
175	0xbe07eae7	-0.13273202
176	0xbbffa4c2	-0.007801623
177	0x3dcedc74	0.10100642
178	0xbd1dcb27	-0.03852382
179	0x3ee51461	0.4474211
180	0x3dc1abd2	0.094566
181	0x3cda2768	0.026630118
182	0xbd760958	-0.060067505
183	0xbd8afefe	-0.06786917
184	0xbd7a8a32	-0.06116695
185	0xbd19a9de	-0.037515514
186	0xbda3c2d5	-0.07996146
187	0xbc7d5e51	-0.015464381
188	0xbd6672d8	-0.056261867
189	0x3f17913b	0.5920598
190	0x3f09d5cf	0.5384187
191	0x3cac2a16	0.021016162
192	0xbda0d9c9	-0.07854039
193	0x3e076acf	0.13224338
194	0x3e4924af	0.196429
195	0xbc9e9223	-0.019356793
196	0xbd31f4db	-0.043446403
197	0x3d0bc54e	0.03412371
198	0xbd3610a3	-0.04444946
199	0xbd5597c5	-0.05214669
200	0xbd893b0c	-0.067007154
201	0xbde67edc	-0.11254665
202	0x3db2efa9	0.08737118
203	0xbdbca3a2	-0.09210898
204	0xbd8e452e	-0.06946789
205	0xbcb4be86	-0.022063505
206	0xbd8b1955	-0.06791941
207	0xbd06bfa5	-0.03289761
208	0xbd453aea	-0.048151888
209	0xbca1b95e	-0.01974171
210	0x3e66def1	0.22545983
211	0xbd5fca82	-0.054636486
212	0xbe985342	-0.2975102
213	0x3e974a07	0.29548666
214	0x3daff070	0.08590782
215	0xbe8ac80d	-0.27105752
216	0x3adcc751	0.0016844069
217	0xbd312234	-0.04324551
218	0x3e738755	0.23782094
219	0xbd28cacc	-0.041209027
220	0xbd3b000e	-0.04565435
221	0x3edf011d	0.43555537
222	0xbd565d82	-0.05233527
223	0xbe421aec	-0.18955582
224	0x3e0bf899	0.13669051
225	0xbd7ee733	-0.062232208
226	0xbde9cbcc	-0.11415824
227	0xbdd95542	-0.10611965
228	0xbdac6e4e	-0.084194764
229	0xbdc024f6	-0.0938205
230	0xbd24b69e	-0.04021322
231	0xbdb87d8a	-0.0900832
232	0xbd252120	-0.040314794
233	0xbce6ab5b	-0.02815788
234	0xbd1c9d8e	-0.038236193
235	0xbd67dde7	-0.056608107
236	0x3e2b04ba	0.16701022
237	0xbd33f8d7	-0.043938484
238	0xbd52c693	-0.051458906
239	0xbdc107e8	-0.09425336
240	0x3f18f906	0.5975498
241	0xbe0121d2	-0.12610558
242	0xbd3dd933	-0.046349715
243	0xbe3e1439	-0.18562402
244	0x3e60f396	0.2196792
245	0x3e05fc43	0.13084511
246	0x3cc4ccee	0.0240235
247	0xbb5e2d3c	-0.0033901474
248	0x3f218d96	0.6310667
249	0xbd382e52	-0.04496605
250	0xbd4d28a3	-0.050087582
251	0xbd93d7d4	-0.072189
252	0xbdd80695	-0.105481304
253	0x3e1b00b0	0.15136981
254	0xbdb058a5	-0.086106576
255	0xbda563bc	-0.080756634

trunk.4.weight f4 [6, 256]
0	0xbd0fa46e	-0.03506892
1	0x3c90029c	0.01757937
2	0xbd28d687	-0.041220214
3	0xbcca1f06	-0.024672996
4	0xbc05adbc	-0.008159097
5	0xbc885101	-0.016640188
6	0xbdb03752	-0.086043015
7	0xbd83ccb9	-0.06435532
8	0xbcc8206e	-0.024429526
9	0xbd95aae3	-0.07307985
10	0xbcb98fd9	-0.0226516
11	0xbcab8982	-0.020939592
12	0xbd8223c5	-0.06354479
13	0xbdcae6ed	-0.09907327
14	0x3ca08dce	0.019598868
15	0xbc8ba924	-0.017048426
16	0x3d1c245c	0.038120613
17	0x3de3d51e	0.11124633
18	0xbd99ac73	-0.07503595
19	0xbd8ef669	-0.06980593
20	0xbbe90077	-0.007110651
21	0xbd313e65	-0.043272395
22	0x3b9d1b6b	0.0047945282
23	0xbcd3cb9e	-0.025853928
24	0x3c9f3b68	0.019437507
25	0x3dbb3f7a	0.091429666
26	0xb8aad526	-8.145934e-05
27	0xbc9faf06	-0.019492637
28	0x3e3852a0	0.18000269
29	0x3c04d588	0.00810755
30	0x3c457563	0.012051913
31	0xb995118d	-0.0002843257
32	0xbcb024e7	-0.021501971
33	0xbc45d53e	-0.012074767
34	0xbd5e397f	-0.05425405
35	0x3ca0719a	0.01958542
36	0x3cab8f28	0.020942286
37	0x3d8f0a46	0.069843814
38	0x3c550588	0.013001807
39	0xbd166bf4	-0.036724046
40	0x3d20e0db	0.03927694
41	0x3bbe9d3e	0.0058170846
42	0x3c96b91f	0.01839882
43	0x3a5b668e	0.0008369469
44	0x3a62e09e	0.00086546864
45	0xb758c727	-1.2920972e-05
46	0xbc85dc87	-0.016340507
47	0xbc862678	-0.016375765
48	0xbb9f5a66	-0.0048630713
49	0x3d43f996	0.047845446
50	0x3d8e4c9b	0.06948205
51	0xbd01792a	-0.03160969
52	0x3c342190	0.01099433
53	0x3b8f681e	0.0043764254
54	0x3d243cc5	0.040097017
55	0xbda02b6d	-0.07820783
56	0x3d7c287f	0.061562058
57	0xbd4ca417	-0.049961176
58	0xbdafc0b8	-0.0858168
59	0xbd07f008	-0.033187896
60	0x3c0347cd	0.008012724
61	0x3ced34ea	0.028955895
62	0xbc7adc73	-0.015311348
63	0x3caf228f	0.021378784
64	0x3c357eef	0.011077627
65	0x3cc9fd97	0.024657054
66	0x3cb91772	0.022594187
67	0x3c0820da	0.008308614
68	0x3d500cd8	0.0507935
69	0x3d8aeb4e	0.06783162
70	0xbd84c3aa	-0.064826325
71	0x3da03a19	0.07823581
72	0x3d9d7635	0.07688562
73	0xbccf143e	-0.025278207
74	0x3c964818	0.018344924
75	0x3cb835ab	0.022486528
76	0xbd060421	-0.03271878
77	0xbc87ee29	-0.016593056
78	0xba25b5a2	-0.0006321316
79	0xbad44bf1	-0.0016196949
80	0xbca5e0a0	-0.020248711
81	0x3d1aa902	0.037758835
82	0xbd85727b	-0.06515976
83	0x3d9c10e8	0.07620412
84	0x3b7ca152	0.0038548303
85	0x3a01aa05	0.00049462944
86	0x3cc0894f	0.023502974
87	0x3c28ff34	0.010314751
88	0x3ce917ae	0.028453674
89	0x3ba8c602	0.0051505575
90	0xb9cfc39a	-0.0003962785
91	0x3cc4287e	0.02394509
92	0x37f5c2fc	2.9297073e-05
93	0x3be0d850	0.006861724
94	0xbc64cf8b	-0.013965498
95	0xbd22e62c	-0.03977029
96	0xbd79a305	-0.060946483
97	0x3aa83abb	0.0012834886
98	0x3cda88ad	0.0266765
99	0x3d427158	0.047471374
100	0x3cd7940f	0.026315717
101	0xbc181110	-0.009281412
102	0x3c2896da	0.010289872
103	0xbbe93726	-0.00711717
104	0xbd538a36	-0.05164548
105	0xbc427029	-0.011867561
106	0x3cc353d4	0.023843683
107	0xbcc1dbc8	-0.02366437
108	0xbbf98b4f	-0.007615484
109	0xbc8592dc	-0.01630538
110	0xbd8a6099	-0.06756706
111	0x3cc6ea49	0.024281638
112	0xbd4a1252	-0.049333878
113	0xbd69e347	-0.057101514
114	0x3bb22dae	0.0054375743
115	0xbd5ffa0a	-0.054681815
116	0xbbe7c93b	-0.007073549
117	0xbbf82614	-0.0075728986
118	0x3d2cf920	0.04222977
119	0xbc9a6abd	-0.018849725
120	0xbd81e89b	-0.06343194
121	0xbc268f75	-0.010166039
122	0x3bdc6235	0.0067255744
123	0xbcc3542e	-0.023843851
124	0xbc07c472	-0.008286582
125	0x3d150056	0.036377273
126	0x39cec9f8	0.0003944186
127	0xbc93b958	-0.018032715
128	0x3d311a45	0.043237943
129	0x3d127789	0.03575853
130	0x3e62af73	0.22137241
131	0x3c2d29ef	0.01056908
132	0xbcd2ba99	-0.025723742
133	0xbc7b2182	-0.015327813
134	0x3bddfee2	0.006774769
135	0xbda1d9d1	-0.07902873
136	0xbc83f0c8	-0.016106024
137	0xbd5d22fb	-0.053988438
138	0x3d87d440	0.0663228
139	0xbc4c9e8c	-0.012488972
140	0x3cb48f21	0.022040905
141	0xbd9f1738	-0.077681005
142	0xbb92b7b9	-0.004477468
143	0x3bbc1306	0.0057395725
144	0x3a26feb3	0.00063703506
145	0xbc974568	-0.018465713
146	0xbcc9d32a	-0.024636824
147	0x3b30fbba	0.002700551
148	0xbd1e150d	-0.038594294
149	0x3c75bef8	0.014999144
150	0x3d9fc1fd	0.07800672
151	0x3c931dfa	0.01795863
152	0xbd60bfa5	-0.054870266
153	0xbd874826	-0.06605558
154	0xbc40e86b	-0.011774163
155	0xbcf8e0ce	-0.030380633
156	0xbd0561bd	-0.032563914
157	0xbca35df2	-0.019942258
158	0xbc55307f	-0.013012051
159	0xbda03439	-0.07822461
160	0x3d4f69fc	0.050638184
161	0xbd0db383	-0.034595024
162	0x3d245eb7	0.04012939
163	0xb8c7ac64	-9.52117e-05
164	0x3cda509f	0.026649771
165	0xbbbf38a2	-0.0058356086
166	0xbc839781	-0.016063454
167	0x3c85e489	0.016344326
168	0xbbbb2a97	-0.005711864
169	0xbc58a981	-0.013224007
170	0xbca948c1	-0.020664575
171	0x3ccf3559	0.025293993
172	0xbb416e79	-0.002951531
173	0x3d1bcb02	0.0380354
174	0xbc86e51b	-0.016466668
175	0xbbfcdb96	-0.0077166064
176	0xbb2f5d43	-0.002675847
177	0x3cec60e5	0.028854797
178	0x3d746de1	0.0596751
179	0x3d255797	0.040366735
180	0xbd2412d5	-0.040057022
181	0x3c9c3dec	0.019072495
182	0xbdbbd4a8	-0.0917142
183	0xbdbe4b5b	-0.09291717
184	0xbda5c886	-0.080948874
185	0xbdd0de00	-0.10198593
186	0xbd194996	-0.037423693
187	0xbcdba27b	-0.026810875
188	0xbb60a03d	-0.0034275197
189	0x3ddfc30e	0.109258756
190	0x3dc0b832	0.094101325
191	0x3bee1087	0.007265154
192	0xbd3e6ac9	-0.046488557
193	0xbbc96a22	-0.006146685
194	0x3d108525	0.035283227
195	0xbd7895b4	-0.060689643
196	0x3cd99b9d	0.02656346
197	0xbb2c4340	-0.0026285201
198	0xbb1c67cd	-0.002386558
199	0xbd2a13cb	-0.041522782
200	0x3d09a36d	0.03360312
201	0xbcabb52c	-0.020960413
202	0x3d413ed2	0.04717905
203	0xbcb47476	-0.02202819
204	0xbbbee226	-0.005825299
205	0x3d008cc7	0.031384256
206	0xbd8b0aec	-0.067891926
207	0xb815141d	-3.55431e-05
208	0x3bf849dc	0.007577164
209	0xbd3cb4f6	-0.046071015
210	0xbb00798e	-0.0019603702
211	0xbd002437	-0.031284537
212	0xbd0721ce	-0.032991223
213	0x3c49c0f3	0.012314069
214	0x3cf77b5d	0.030210191
215	0xbd1fb143	-0.03898741
216	0xbc143023	-0.00904468
217	0x3d6bf79f	0.057609197
218	0x3bb74ec5	0.005594107
219	0x3d863904	0.065538436
220	0xbced5e11	-0.028975518
221	0x3d05940e	0.0326119
222	0xbd7ef6b0	-0.06224698
223	0xbd60aa9f	-0.054850217
224	0xbd6ca8cc	-0.057778165
225	0xbd91b53d	-0.071146466
226	0x3be64ee4	0.0070284475
227	0xbb29a6bf	-0.0025886742
228	0x3c1a9636	0.009435227
229	0xbd1d2905	-0.038369197
230	0xbd146176	-0.03622576
231	0xbc35ee65	-0.011104201
232	0xbd413b18	-0.047175497
233	0xbd942f6b	-0.07235607
234	0xbcd4de63	-0.025984949
235	0xbd633e00	-0.05547905
236	0x3a8c6a88	0.0010712901
237	0xbcd3e7aa	-0.025867302
238	0x3d39e4bb	0.04538415
239	0xbb7fc836	-0.0039029247
240	0x3debbadf	0.11510252
241	0x3c34432f	0.011002346
242	0xbd12ab91	-0.03580815
243	0xbd7ac1b4	-0.061219886
244	0x3d4dd2d3	0.050249886
245	0xbabb078a	-0.0014269215
246	0x3b6fdb9b	0.00365994
247	0x3d00f5db	0.031484466
248	0x3e05f7cf	0.13082813
249	0xbba3bd5e	-0.0049969396
250	0xbd27e92f	-0.040993866
251	0xbca88d79	-0.020575272
252	0x3cce0ee7	0.02515359
253	0xbb78235b	-0.003786287
254	0xbde30595	-0.11085049
255	0xbdb5378a	-0.08848484

trunk.4.bias f4 [6]
0	0x3f41528e	0.75516593
1	0xbe1e83fe	-0.15480039
2	0x3e6d1798	0.23153532
3	0xbef2e779	-0.47442225
4	0x3cef36a5	0.029200861
5	0xbf02a258	-0.51028967
