models/Env3/SAC_256_A5_S3_P/local_episode_2150_reward_200.000000.pt (torch, 297002 bytes, 6 tensors)

trunk.0.weight f4 [256, 23]
00000000: e681 49bd beac 933d 485f 82bd 6596 3abe
00000010: 9df1 bdbc eb47 2f3d 1e28 9c3d beea f4bd
00000020: 5343 353e 6d4a 17be b1a9 fc3c d7c2 f2bc
00000030: 2ee4 abbd b808 1cbe 7ad1 d0bd 95cf 7fbc
00000040: 8cbc 7ebd be8a bcbc 72d4 67bd 77bb 5e3c
00000050: 3536 58bd cb48 ee3d 3031 13bd ec84 b1be
00000060: 5385 9abe 2ff2 96bd a526 55be 1cd9 ecbd
00000070: 765c 5cbe 64e6 44be b588 04bd 9f73 de3d
00000080: 8ea3 163e ff98 373e e060 993d 2d84 ae3c
00000090: e381 093e a043 fc3d 23c0 763d 25ed a83d
000000a0: 6ae2 b9bc ae8f 0dbe e84f 93be 6ae2 313c
000000b0: d08e 463e 5525 cebd ed04 4dbd cc8a 143d
000000c0: 3868 2fbd fc26 74bd 49a2 dcbd 2119 e2bd
000000d0: 8daa a2bd 0648 343e 7428 9bbc e38d 8037
000000e0: 8609 ab3d 4310 8cbc f47a 86bd 7dfb 4fbe
000000f0: aa66 8abd eb5a 3a3e fb04 60bd 820e cdbc
00000100: 96d1 2dbe e5fc 56be cc7b 81be d64c 70be
00000110: 1e97 1dbe bf97 293e 84c7 803d a0d1 46bd
00000120: 773d 2bbd edd7 78bd 2bfc 323d 6cd0 443d
00000130: 1a39 debc 147a 10bd 6f00 8bbc 907a e9bd
00000140: 4f41 91bd a668 d9bd 343e 80bc cad5 b8bd
00000150: 3d75 d9bd 046d 7f3d c1be b3bd d19d 47bd
00000160: 2aac cfbd 0802 3dbd 255d cabc 192a a7bd
00000170: 9388 19be 085f 20be c918 83bd dace 5ebc
00000180: 7efe 8fbd 2664 953c 52fa 243d f373 373c
00000190: 9906 09bb b7b6 b03b 6abe 94be 3d9a aabe
000001a0: 3fda 07bd 4169 b73d b5ca d13d c754 2e3d
000001b0: ecaf 74bd a1be a6bd 543d 883c 7002 4fbd
000001c0: e0fb 0b3e 3108 cebd 273b 23be 0af0 3bbe
000001d0: 67e5 35be 6add 35bd 1702 69bd 0577 cc3c
000001e0: 009c 56bc 9bb9 393d 62d2 1d3e fdaa f33b
000001f0: 6fe4 03be 97fa cebd c03e 53bd e7e8 93bc
00000200: b789 5bbd a4a9 cc3d d6df 72bd 1b45 53be
00000210: 8dd3 263d ad8e 01be cd88 7abd 240f dd3d
00000220: 7296 d83d c4f7 f93b 45f4 d63b 2186 8abd
00000230: 534c e2bd 176f 1fbe 9bb4 45be a681 c6bc
00000240: cf7a 373d 4401 0dbe 783c 25be 60c3 27be
00000250: 6ddb 29be 327c 9bbe 48aa 96be 438b 97be
00000260: 4e57 1c3e 42db 153e f931 203c 6c51 1a3d
00000270: 2875 273e db03 593d ff9d ed3c 3b60 3b3d
00000280: ee75 6ebd 8b7e 0b3e 5f28 e23d abe7 6ebd
00000290: 7add f8bd cb06 9abe 6b2e 1ebe d791 59be
000002a0: 3e59 80bc 074b 3cbe 0904 fcbd 1d58 043c
000002b0: f1cb 21be 8202 2dbe cde4 babe c4e8 56bc
000002c0: 10a1 033e 05f4 0f3e b1eb 293e 2551 a6bd
000002d0: 408e 183c d452 613d 104a e6bc 23f4 42bd
000002e0: c308 ffbd c8be 9a39 2f63 88bd 10ae 5bbd
000002f0: c68d 74be 3655 55bd 5cf3 20bd 97e4 00bb
00000300: 03e9 163d 990b 3cbd 71b7 933c ff4a 4abd
00000310: 7d79 cbbd acc0 68bc 599c 7fbc 86ae 213d
00000320: a332 2bbe ee6e 75bd 3e1c 07be 533c 9e3d
00000330: 066f e93c 5e81 033d 32fa 52bd ec03 57bd
00000340: 4092 f73c 3066 97bd 3522 82bc 7f92 a8bd
00000350: b770 87bd 25d1 95bd 465f 61bd a68e 6d3c
00000360: 6424 63bd d569 88bd 42c5 abbd 9162 a5bc
00000370: f045 933a 4d9a 653d 446d 7dbd 6900 afbd
00000380: 9f1c a1bc 26ab 403d 0634 a3bc 9969 a6bc
00000390: 7a9d 6fbc 9542 26be 7a04 8dbd dfd0 b7be
000003a0: 9bb3 45be 64cb 3c3e f2f5 a5bb 09bd 013d
000003b0: 473b 34bc 6550 08bd 9da4 15be 4755 10bd
000003c0: 2df9 3a3e d499 8d3e 4d92 eb3c f04d 1ebe
000003d0: 6d48 c1bd d007 0bbd 455a a83d 1182 73be
000003e0: 9c3d 69be fd1d 0cbe c3bb dd3d e0f7 5d3d
000003f0: 9793 0cba e4f5 43bc 2c44 f0bd 4799 67bd
-0.049196146 0.07210682 -0.0636583 -0.18221433 -0.0231865 0.042793196 0.07624839 -0.11958836
0.17701463 -0.14774485 0.030842634 -0.029633923 -0.08393131 -0.15237701 -0.101962045 -0.015613456
-0.06219153 -0.023015376 -0.056599088 0.0135945 -0.05278607 0.11634978 -0.03593558 -0.34671724
-0.30179843 -0.073704116 -0.20815523 -0.11564848 -0.21519646 -0.19228512 -0.032356936 0.10861897
0.14710829 0.17929457 0.074891806 0.02130326 0.13428454 0.12317586 0.06024183 0.08248357
-0.02269097 -0.1382434 -0.287719 0.010857204 0.19390416 -0.10065714 -0.050053526 0.03626518
-0.042824 -0.05960749 -0.10773141 -0.11039949 -0.07942686 0.176056 -0.018940188 1.532486e-05
0.08351426 -0.017097598 -0.0656642 -0.20310779 -0.06757863 0.18198745 -0.05469225 -0.025031332
-0.16974482 -0.20994909 -0.25289762 -0.2346681 -0.15389678 0.16561793 0.062880546 -0.048539758
-0.041806664 -0.060752798 0.043697517 0.04805033 -0.027126838 -0.035272673 -0.01696798 -0.1140033
-0.07092535 -0.10615663 -0.01565466 -0.09025152 -0.106180646 0.062359825 -0.08776618 -0.04873449
-0.101402596 -0.046144515 -0.024702618 -0.08162326 -0.14993505 -0.15661252 -0.06401212 -0.013599122
-0.070309624 0.018236231 0.040277787 0.011197078 -0.0020908474 0.005392875 -0.29051524 -0.333208
-0.03316712 0.089556225 0.102437414 0.04256132 -0.059738085 -0.08141828 0.016630806 -0.050539434
0.13670301 -0.10060156 -0.15940534 -0.18353286 -0.17763291 -0.04440061 -0.05688676 0.024959097
-0.013098717 0.045343023 0.15412286 0.007436155 -0.12880109 -0.1010639 -0.051573515 -0.018055392
-0.053598132 0.09993294 -0.059295498 -0.2063183 0.040729094 -0.12652083 -0.06116562 0.107939035
0.1057557 0.007628413 0.006559881 -0.06763864 -0.11049714 -0.15569721 -0.19307177 -0.024231743
0.044794854 -0.13770014 -0.16136348 -0.16383123 -0.1658761 -0.3036819 -0.2942679 -0.29598436
0.15267679 0.14634421 0.009777539 0.037675306 0.16353285 0.052982192 0.029006002 0.04574607
-0.058217935 0.13622491 0.110428564 -0.058326405 -0.12151618 -0.30083308 -0.15447395 -0.2124704
-0.015667554 -0.18387996 -0.12305457 0.0080776485 -0.15800454 -0.16895488 -0.36502686 -0.013117019
0.12854409 0.1405793 0.16593815 -0.08120946 0.009311259 0.05501063 -0.028111488 -0.04759611
-0.12452843 0.00029515312 -0.06659543 -0.053632796 -0.23882207 -0.052083217 -0.039294586 -0.00196675
0.03684331 -0.045909498 0.018031808 -0.049387928 -0.099352814 -0.014206093 -0.015601241 0.03947308
-0.16718535 -0.059920244 -0.13194367 0.0772635 0.028495323 0.032105796 -0.051508136 -0.052493975
0.030221105 -0.073925376 -0.015885452 -0.08231067 -0.066132955 -0.07315282 -0.0550225 0.014499342
-0.055454627 -0.06660811 -0.08387233 -0.020188602 0.0011236053 0.056055356 -0.061871782 -0.08545
-0.019666968 0.04703822 -0.019922268 -0.020314025 -0.014624948 -0.16236337 -0.068856195 -0.35901543
-0.19306795 0.18436962 -0.0050647194 0.03167442 -0.011000461 -0.033279795 -0.14613576 -0.035237577
0.18259116 0.27656424 0.028756285 -0.15459418 -0.09437642 -0.033942997 0.082203425 -0.23780085
-0.22777408 -0.13683315 0.10826828 0.05419147 -0.0005362569 -0.01196048 -0.11731753 -0.05654266

trunk.0.bias f4 [256]
00000000: 893c c83b 0b39 6dbe 2c13 f83d 7f01 f33b
00000010: c09d c7bc 8121 dbbc 4477 f1bc e615 533d
00000020: e60b c7bc 0fe3 35bd 6229 f9bd de14 3cbd
00000030: 30a5 12be e608 9fbb 6d12 82bc 1aee 12bd
00000040: 0535 823e ca92 ae3d b6a0 d4bc 0b83 2d3e
00000050: 4873 0ebd 7448 eabc baaf cbbd 91fb 83bd
00000060: 6dbd bbbc 5f11 8c3d 71ae 15bd 162d 24bd
00000070: 3a0a f1bc 8092 1c3d 8ba9 1b3c bcc7 1cbd
00000080: 5ee1 20bd 322a 8cbc b5da e1bb d477 0ebd
00000090: 0000 0000 9637 1bbd ade6 a4bc 0000 0000
000000a0: 1c67 c9bc 0d67 b9bc aa40 7dbd 41af c2bc
000000b0: 179a d73d c18a 9a3c cc8a a9bc 24d1 99bc
000000c0: 153c 75bd ac80 80bc 0000 0000 9d0e 82bc
000000d0: c149 9dbc 0000 0000 871e 043e 9a3f 70bc
000000e0: 4105 17bd e3bd 02be d739 a5bc 678f e33c
000000f0: bf61 ddbd 7172 bc3d 349c cfbc fa6d 9dbc
00000100: f480 4abd 0000 0000 4116 83bc e668 0dbe
00000110: c8e4 81bc 2b26 1fbd 990d de3a 6bcd bbbc
00000120: ec02 963e 1e1b 973c 7031 4cbd 599c 81bc
00000130: 4b67 91bd 4dab 9dbc f7e0 2ebd 65ef b5bc
00000140: 2ed2 1dbc dbb8 30bc 6ed4 673a c0c6 8abc
00000150: 16d5 d2bc d394 74bc 591c 82bc 8d72 0f3e
00000160: 8672 d33d 1e6f 913e c5b5 2c3e 44ef 0abd
00000170: 40b5 6e3d c8dc 1bbd 6d7f 5abd 0e6b 633e
00000180: 2e68 a3bc 07ef 81bc 9142 88bc 5f65 fd3a
00000190: 4433 fc3d 91f9 9bbd f7e5 c1bc db2d 2c3c
000001a0: a99f e5bb 380b c63d 2629 933e 6e19 a83d
000001b0: 515b 6ebc 4c4b df3c 38b6 f23c 1b00 dabd
000001c0: 0000 0000 72fe 993d aa27 053d edc1 20bd
000001d0: 202f f3bc 93c1 f3bc 86e4 6bbc 3b4f d7bd
000001e0: a157 22bc d8b2 7fbc 744f b03d a19b 39bd
000001f0: d594 19bd 1cf3 49bc 2fc1 393a 8838 a6bc
00000200: 95ca d4bd 4291 67bd 6b60 cdbc 8016 0bbd
00000210: f4e0 3bbd 1537 e4bc d02e 31bd a685 273e
00000220: ce50 1a3b 46b8 13bd cf8e 89bc 2ded 0fbd
00000230: 0763 123f 4d75 4e3d dc2b 9bbc 0cf2 afbc
00000240: aed5 703e a5a5 98bd 4717 c2bd b2cb 62bd
00000250: e863 b1bd 9c62 ebbc 0000 0000 b4f9 e939
00000260: 0749 7a3d ead4 7f3d f502 b9bc a3c9 43bd
00000270: 5c71 5f3d 9601 5cbc 37fb 0cbc 50dc 133e
00000280: 602a d33c 168d 40bd 236f afbc e966 533c
00000290: 0000 0000 7bf2 44bd 37e5 ecba f7f2 bebc
000002a0: d792 973e 691e 8bbd bc82 28bd 42fc 553a
000002b0: d2dd 81bc 5aa3 1d3e 4ed2 98bd da35 a6bc
000002c0: 7301 15bd ab86 c3bc 0678 033e efb3 bebc
000002d0: c04a 44bd 0748 76bc eb20 093c 284e 723e
000002e0: 3ff4 8e3d 68bf 2c3e 02fe 11bd 6c12 a9bc
000002f0: cfdd 503e 17a8 d8bc 92d9 833d d06c c2bc
00000300: 6a5f cfbc 28e8 c7bc 7085 993b 204f 573e
00000310: b685 4a3d 6d68 c33d b645 34bd bb70 9a3d
00000320: 8cb6 fe3d 0000 0000 949f a2bd 0193 51bc
00000330: 0c69 bdbc f3f0 81bc 3d7d b9bc 64df 24bd
00000340: dfb2 03bd bc48 afbc cb06 2b3e d672 1cbd
00000350: fe17 adbc c6f4 963d 0d54 7c3d 4808 29bc
00000360: f1aa 3bbd 47a2 3abd 0000 0000 5657 793e
00000370: 0d68 abba db3b babd 9796 8d3e d3be 1cbd
00000380: 30d5 a5bc 9f4d ecbd 4a52 9a3b 27fe 363e
00000390: a792 95bc ca95 b1bb 5260 25bd 8321 eb3d
000003a0: 640a d8bc 307a 963d bc97 d93e 9517 82bc
000003b0: efd2 b4bc e103 97bc f2bc 4bbd 4c91 45bc
000003c0: 0000 0000 95f9 63bd 72c2 76bc ae86 cd3c
000003d0: cc01 d53c 22c0 253c 5d6b f2bc db49 debc
000003e0: 9c07 dfbd 1ace 343d 99c7 f5bc e1d6 1ebc
000003f0: aba1 adbd 2c6c 26bc c305 00be 00ce 33bd
0.006110732 -0.23166291 0.12113032 0.00741595 -0.024367213 -0.026749374 -0.029475816 0.051534556
-0.024297666 -0.044405993 -0.12166096 -0.045918338 -0.14320827 -0.0048533557 -0.015877927 -0.035871603
0.25431076 0.085240915 -0.02595554 0.1694452 -0.03477791 -0.028599001 -0.099456266 -0.06444467
-0.022917474 0.06839251 -0.036543313 -0.04008206 -0.029423822 0.03822565 0.009500871 -0.03827642
-0.039277427 -0.017109964 -0.006892527 -0.034782246 0.0 -0.037894808 -0.020129526 0.0
-0.0245853 -0.022632146 -0.061829247 -0.023765208 0.10527437 0.018864991 -0.020696066 -0.018776484
-0.05987175 -0.015686356 0.0 -0.015876109 -0.019200208 0.0 0.1290227 -0.014663601
-0.036870245 -0.12767749 -0.020169182 0.02777834 -0.10809659 0.092015155 -0.025343038 -0.01921748
-0.049439386 0.0 -0.016001822 -0.13809547 -0.015856162 -0.03885476 0.0016941308 -0.0229251
0.29299104 0.018445548 -0.049851835 -0.015821623 -0.0709978 -0.019246722 -0.042695012 -0.022208879
-0.00963263 -0.0107862605 0.0008843605 -0.016940475 -0.025736373 -0.014928061 -0.015882658 0.14008541
0.10324578 0.28405088 0.16866215 -0.033919588 0.058278322 -0.03805235 -0.05334418 0.22208807
-0.019947138 -0.015861047 -0.016633304 0.0019332579 0.12314466 -0.076159604 -0.023669226 0.01050898
-0.0070075584 0.096701086 0.2874233 0.08207975 -0.014548139 0.027257584 0.029627904 -0.10644551
0.0 0.07519235 0.03250853 -0.039247442 -0.029685557 -0.02975539 -0.014397746 -0.10513159
-0.009908588 -0.0156066045 0.086089045 -0.045314435 -0.037495453 -0.012326028 0.00070859765 -0.020290628
-0.10390202 -0.056535013 -0.02507039 -0.033957005 -0.04586883 -0.027858296 -0.043257535 0.16359577
0.0023546699 -0.03606441 -0.01679173 -0.035138298 0.57182354 0.050404835 -0.018941812 -0.021477722
0.23519012 -0.07453469 -0.09477096 -0.05537004 -0.08661634 -0.028733544 0.0 0.00044627266
0.0611048 0.06245891 -0.022584418 -0.047799718 0.054551467 -0.0134281125 -0.008604816 0.14439511
0.025777042 -0.04700955 -0.021415299 0.012902954 0.0 -0.04808281 -0.0018073682 -0.023309214
0.29604217 -0.0679291 -0.041140303 0.00081628945 -0.015852842 0.15394345 -0.074619874 -0.02028935
-0.036378335 -0.023867926 0.12838754 -0.023279158 -0.04792285 -0.015031821 0.008369665 0.23662627
0.0698018 0.1686989 -0.03564263 -0.020638667 0.20397113 -0.026447339 0.064379826 -0.023733526
-0.025314052 -0.024402693 0.0046850964 0.21026278 0.049443923 0.09541402 -0.044011794 0.07541033
0.12437162 0.0 -0.07940593 -0.012791396 -0.02312138 -0.015861964 -0.022642726 -0.040252104
-0.032153007 -0.021396987 0.1670181 -0.038195454 -0.021129604 0.073709056 0.061603595 -0.010316916
-0.04581732 -0.045564916 0.0 0.24349722 -0.0013077274 -0.09093448 0.27653953 -0.03826792
-0.020243257 -0.115382425 0.0047095167 0.17870389 -0.018258406 -0.0054194676 -0.04037506 0.11481001
-0.026372142 0.07347524 0.42498577 -0.015880385 -0.022073237 -0.018434467 -0.04974074 -0.012058567
0.0 -0.05565794 -0.015061008 0.025088634 0.026001833 0.010116609 -0.02959221 -0.027134826
-0.10890123 0.044141866 -0.030002402 -0.009694786 -0.08478101 -0.010157626 -0.12502198 -0.04389763

trunk.2.weight f4 [256, 256]
00000000: fab2 c0bd 8e4d 483c 4053 71bc ae0a 74bd
00000010: a544 22bd 6f41 79bc f967 323d dac5 41bd
00000020: ae1a 0b3e b496 8b3b 886a 3ebb 242f a2bd
00000030: 9548 13bc 925a 82bd 32dd 46bc 4cdd c8bd
00000040: a5cf 6cbd 0367 0cbd 2ac5 31bd 8c0a 34be
00000050: bcad d5bd c925 793d cf57 583d daee ac3c
00000060: 317c 09bc 0ab6 743c 05e7 9ebd 2c2f 3dbd
00000070: 5a48 cc3d 0218 99bd 8cc1 8bbd 5f7e 04bd
00000080: c09d 083d 25ae afbd b9dc db3c 00bf 153d
00000090: d0e7 663a 65c5 b8bb 263f c23d e819 9e3c
000000a0: b7d0 fe3d fff3 113d c2a1 e5bd 3167 e13d
000000b0: a821 d13d 3943 853b 7136 52bd 15ab f2ba
000000c0: 793f 093d 1cba 8bbd 2375 b1bd 92a4 dcbd
000000d0: 99ee cfbc 8881 f1bd 50cc 143d 28d8 833d
000000e0: 3800 0e3d 9818 1e3d 92b0 8bbd a3e9 cebd
000000f0: a3bd dcbd 30f9 6abd 22db 03be 22ab 85bd
00000100: 3c16 20ba e46f b83d ef52 243d 826e 333b
00000110: 2a5b 5e3d 7ec0 debc 00eb d3bd 8a7f 483d
00000120: 3e4a 33bd 42e1 1f3d 254f 03bd ea21 1a3d
00000130: bd61 58bd d1e0 aa3b fe23 57bd 3c6e b33d
00000140: d89b 91bd 3219 9dbd a0da 4b3d 64e0 d6bb
00000150: 3528 8e3d 6d02 0dbd b623 4f3d a36b 86bd
00000160: 793d 09be 78b1 afbd 1fb4 913c 9e60 03be
00000170: cf07 243d 155b 173c f708 b2bc 4fee 1ebe
00000180: 6a79 c7bc 8874 4e3b 3c0f 64bb c202 00bd
00000190: 2a0c 4abc 0a7d 14bd f1ba 83bd a237 84bd
000001a0: 81ba b53d 204c 01bd 90d5 5fbd 5f8b c3bd
000001b0: 23b2 debd 44fe d2bd 74e8 60bd cf42 71bc
000001c0: 55b7 563d b352 18bd c8a8 213e 3204 9fba
000001d0: 07e7 4a3c 1ac5 5abc 82e0 ac3d 31a2 9bbd
000001e0: 8eb3 07bc 329e 1fbc df57 b43d 85e8 c8bc
000001f0: f9c8 94bb 93e4 d6bb 0869 6abc 7e26 43bd
00000200: dc67 0d3d e4e5 c1bc d302 1ebd af7f 503c
00000210: 259f cf3c 53bc c7bb b724 3bbd 13da 60bd
00000220: 5c42 ee3c bb7c 93bc 9eef 2c3d 4ee2 9e3c
00000230: 6477 f9bd 64cc 6dbd 5952 aebc bff1 cabd
00000240: e3a6 06bd 8871 453d 71eb 95bd 2d4a 07bd
00000250: dbc3 b93c bf15 52bd 962c c33d cf7f b6bc
00000260: 9c3b 09bd a7ab ea3d 8842 89bc e301 73bd
00000270: 2a92 ac3d 11aa 9e3c 8668 fc3b 3d85 bd3b
00000280: 4b13 c6bd 7492 99bd 7ec8 4cbc ce80 0cbd
00000290: d694 dd3c f0ee 11bd 87da 623d faea 23bc
000002a0: bb02 1dbe 7c4b b53c 00dc 0bbd f4f1 1abc
000002b0: 688e bbbd f323 bcbd aff4 543d 7427 c23b
000002c0: 5f9a b53d 5058 283d 8d9d 90bb a283 b63d
000002d0: cee2 c03b 7a51 f7bc c03d d9bd bec3 f9bc
000002e0: 3f64 b8bd bf64 cbbd 8199 883d dee9 9fbc
000002f0: 5a29 66b8 6b67 513d 317d b4bc d8f7 b4bd
00000300: e1b4 d03d cc07 633c 71d9 bd3c 067d cbbd
00000310: 9747 7ebd e88d 333d fe42 313d 0c00 e2bd
00000320: a909 0ebc b802 b43b e33e b4bd e815 103e
00000330: 77d6 53bb 5885 043c 3d8f adbc 2a43 07bd
00000340: 74fb 7d3c 4736 88bd 1a3e 78bd 11d3 a0b9
00000350: 5786 cdbd df1c 04bc ee68 adbd 2824 c5bd
00000360: 68e1 adbd ee68 753c 07a4 793d f933 b33c
00000370: 6181 f2bd 0bdb 94bd a866 14bc fadc 22be
00000380: 97e6 44bd 730c d7bd 1073 a93b 7d44 7aba
00000390: 4660 c9bd df06 8dbd 5968 9ebc 5732 d3bc
000003a0: 82ca 35bd 5a7e b43d 6023 dfbc d85c 453d
000003b0: 647f f13c 9d4d ba3c cbb1 50bc 4a0e d03d
000003c0: 6a64 433c 2946 be3d b16c 163d 1a4a a9bd
000003d0: d315 62bd 1ef4 69bc 7c19 29bd 5ec4 313d
000003e0: 1196 01be 1def 4bbd d059 663d 4062 e4bc
000003f0: 9abc 103d 4a94 903d dc3d fcbd 34b5 df3d
-0.09409137 0.012225522 -0.014729321 -0.059580497 -0.039616246 -0.0152133545 0.043556187 -0.047307827
0.13584396 0.0042599086 -0.0029055197 -0.079191476 -0.008989473 -0.06364931 -0.012137698 -0.09807834
-0.057815213 -0.034277927 -0.04340092 -0.17582148 -0.10433528 0.06082705 0.052818116 0.021109987
-0.008391426 0.01493598 -0.07758907 -0.046187565 0.099747375 -0.07475282 -0.068240255 -0.03234708
0.033353567 -0.08578137 0.026838647 0.036559105 0.00088083465 -0.0056387656 0.09484701 0.019299462
0.12442153 0.035633083 -0.112124935 0.1100601 0.102114975 0.0040668515 -0.05132145 -0.0018514121
0.033507798 -0.06822607 -0.0866492 -0.10773577 -0.025382327 -0.11792284 0.03632766 0.06437713
0.034668177 0.038597673 -0.068207875 -0.101031564 -0.10778358 -0.05736655 -0.12876561 -0.065267816
-0.0006106829 0.090057164 0.040118154 0.00273791 0.05428616 -0.027191397 -0.10347557 0.048949756
-0.043771975 0.039033182 -0.0320579 0.03763 -0.052827585 0.0052147885 -0.05252456 0.0876126
-0.07109803 -0.07670821 0.049769044 -0.006557511 0.06941263 -0.03442614 0.050571166 -0.06563499
-0.13402356 -0.08578771 0.017786084 -0.12829825 0.04004651 0.009238024 -0.02173279 -0.15520595
-0.024349887 0.0031502564 -0.003479912 -0.03125263 -0.012332002 -0.03625206 -0.064321406 -0.064559236
0.088734634 -0.03156674 -0.05464703 -0.09548067 -0.10873821 -0.103024036 -0.054909185 -0.014725401
0.052420933 -0.037188243 0.15787041 -0.0012131988 0.012384183 -0.013352657 0.08441259 -0.07599295
-0.008282555 -0.009742307 0.088058226 -0.024524936 -0.0045405594 -0.00655801 -0.014307268 -0.04764413
0.034522876 -0.02366919 -0.038576912 0.012725755 0.02534444 -0.006095448 -0.04568931 -0.05489547
0.029084377 -0.018003812 0.042220704 0.01939502 -0.12180975 -0.05805625 -0.0212795 -0.09909391
-0.032874 0.048203975 -0.073202975 -0.033029724 0.022676399 -0.05129027 0.095299885 -0.02227774
-0.033504114 0.11458521 -0.016755357 -0.05932797 0.08426316 0.019368203 0.00770289 0.0057837055
-0.096716486 -0.07498637 -0.012498973 -0.034302525 0.02704851 -0.03562826 0.055384185 -0.010004753
-0.15333073 0.02213072 -0.034145355 -0.0094571 -0.09158021 -0.09186544 0.05199116 0.0059251133
0.088673346 0.041099846 -0.0044133128 0.08911826 0.005886412 -0.030190218 -0.10607481 -0.030488845
-0.090034954 -0.09931325 0.066699035 -0.019520696 -5.4874785e-05 0.051124018 -0.022032352 -0.08836335
0.1019075 0.013856839 0.023174973 -0.09935956 -0.062079992 0.043836504 0.04327678 -0.11035165
-0.008669295 0.005493488 -0.08801057 0.14070857 -0.0032323876 0.008088432 -0.021186465 -0.033023037
0.015501846 -0.066509776 -0.0606061 -0.00030674835 -0.10035389 -0.008063524 -0.084672794 -0.09626037
-0.084902585 0.0149786305 0.060947444 0.021875368 -0.11841083 -0.07268342 -0.009057678 -0.15904608
-0.04807147 -0.105004214 0.005171187 -0.0009546949 -0.09832816 -0.06886076 -0.019336866 -0.02578084
-0.04438258 0.08813162 -0.027238548 0.048184246 0.02947969 0.022742087 -0.012737702 0.101589754
0.011925796 0.09290726 0.03672475 -0.08266087 -0.055196594 -0.0142793935 -0.04128407 0.04340016
-0.12654902 -0.049788583 0.056237996 -0.02787888 0.035336114 0.07059534 -0.12316486 0.10923234

trunk.2.bias f4 [256]
00000000: 32bb cabd 1f3c 5ebd 961d 003e 53a8 b4bd
00000010: 0cd7 80be 72e4 473e 7baa a5bd 39ff cebd
00000020: 893f 9abd 049b 38be bb0f 2b3e c570 13be
00000030: 0405 06be 33ef b6bd 22e4 81bd c6e6 06be
00000040: db44 02be 603e 723f 840d 97bd 0766 a7bd
00000050: 7869 85bd b976 8ebd be2d 403e f956 2fbe
00000060: 6873 de3d b094 273f c246 d4bd 66cb 82bd
00000070: ab57 733f 89d5 39be c6f1 fc3d 6f3c b5bd
00000080: 791a 2dbe 93bf 8ebd ed9c 36be 1fee bdbd
00000090: f4d0 debd ff00 df3d 297e fc3e 7343 92bd
000000a0: c396 ff3e 0436 db3d cb17 033e 9051 93bd
000000b0: f909 83bd 1d47 b1bc 9d81 22be 8e0e 2cbe
000000c0: 3db6 12be 4e59 343f 30bd 02be ea95 a63d
000000d0: 0747 023e 5e73 c9bd 11e4 c23e 9d0a a2bd
000000e0: a05c 4cbd 5764 2cbe d4c9 1bbe 86c9 98bd
000000f0: 37c6 80bd c8e1 393e 32cd 47be cbc1 9ebd
00000100: 8a34 2ebd 505e 30be 1635 3fbd 7afc 2abe
00000110: 8114 243f 59c5 1f3f ad3b 18bd 929a b13e
00000120: afb9 dfbd 43e6 8ebd 7c74 bbbd de31 73bc
00000130: 66a8 bcbd 0044 20be 0b24 873d 8ea3 d6bd
00000140: 499b 8abe fa5f 3f3d a7e6 07be 2b1f 83bd
00000150: 4605 3b3e fd22 9d3b ee19 dfbd 2fbc d63d
00000160: 9cec 88bd 9941 9ebc c7ac 743e 6822 0cbd
00000170: 3f67 b63d ea0b 593d 24a7 10bd 284b 35be
00000180: 28fd e6be 5e67 9ebd 82c0 b2bd fbbf a23e
00000190: 44fa 063f 05b5 0fbe 66cc 60bd 26d6 6fbe
000001a0: e05d b3bd 2f1f 8abd 9b68 e7bd 17b1 47be
000001b0: 0cd2 f8bd a8d3 d2bd b250 a3bd e434 7dbd
000001c0: ca88 cbbd b5f3 cebe c301 053e ae15 a6bd
000001d0: 716f b03c cb54 bd3d 7ec7 933d 07a1 a8bc
000001e0: 1465 90bd b463 01be a81e 74be 06bd cbbd
000001f0: fad0 94bc bc80 5bbd 1b2c 493d 8566 59bd
00000200: 4a38 10be 0b7d c13d 36df 853f bb91 353e
00000210: 5672 c6bd d671 68be fc61 b4bd 7f87 ddbe
00000220: 0fb8 b0bd bef8 81bd ba22 92bd f6d3 a73c
00000230: efd7 9c3d 1981 f4bd 359d d1bd 0517 39be
00000240: 27b9 77bc 252f 6dbd adfb fabd 9914 78be
00000250: 0384 e2bd a6a2 b8bd 200a b13d 8af5 36be
00000260: 7695 5abe e886 59bd 9816 08be 33d7 9ebd
00000270: c623 c63d cd83 ac3e eaa7 02be 5b34 1cbe
00000280: 9981 9d3e 4e34 abbd 6725 2bbe f8ef 0bbe
00000290: 20f1 de3e 4f8a 45be c12e f73d 2d44 90bd
000002a0: be9c 96bd ef17 96bd 98c8 afbc 6ef5 583c
000002b0: 3046 38bd 2050 c0bd 1a53 7bbd 72be 27be
000002c0: 8d7b 62be 2098 883c f338 d8bd 9e4c 2f3f
000002d0: a977 163e 5891 84bd 5809 76bd fefe 8abd
000002e0: 50e6 c1bc c85a 8cbd 1830 12be 67ab 39bd
000002f0: b437 afbd 10c5 5e3f 0bd3 443f 47cb 4dbd
00000300: 5120 8bbd e820 f53d 388c 903e 7557 10bd
00000310: 3903 73bd b02b ca3d 1d71 a9bd bdee 483c
00000320: dcd6 bf3d 77ae 33be 48f5 b03c df3c 053e
00000330: f125 ebbd a46d 1bbd efae 13be b1cd 47bd
00000340: db2a f6bd 1429 25bd a569 f23d 923d dcbd
00000350: 98b1 dbbe 75b4 bf3e 8e01 09bc 5450 d8be
00000360: 97b0 e4bd bf24 babd cb53 f63e 2cd9 69bd
00000370: 0e00 3bbd af0e eb3e 2512 41be 2f95 a3be
00000380: 04c6 983c f7af 0cbe ab6d 6cbe 3436 06be
00000390: 977c 20be 95db d5bd 9a75 f5bd c1f3 bcbd
000003a0: 582f 66bd 1864 34bd f7dc 18be bb33 87bc
000003b0: c980 783e d7f8 33bd 80ea 89bd e807 c1bd
000003c0: 1890 613f 87a2 4ebe 3b95 a1bd e27a 51be
000003d0: 4d35 793e 4f31 253e 9273 cbbd 5786 b0bc
000003e0: dbe7 733f 483c 79bd 7ed4 6abd a1a4 0fbe
000003f0: 90d7 15be ec38 db3e 141a 43be d737 fabd
-0.09898986 -0.054256555 0.12511286 -0.08821168 -0.25164068 0.19520739 -0.08089157 -0.101072736
-0.075316496 -0.18027884 0.1670522 -0.14398487 -0.13087851 -0.089323424 -0.06342341 -0.1317397
-0.12721579 0.94626427 -0.07375625 -0.08173757 -0.06514257 -0.06956238 0.1876745 -0.17123021
0.10861856 0.65461254 -0.103650585 -0.063864514 0.95055646 -0.18147863 0.12350802 -0.088494174
-0.1690463 -0.06970134 -0.178333 -0.092739336 -0.108796984 0.10888862 0.49315003 -0.07141771
0.4991971 0.10703662 0.12802045 -0.07193291 -0.063983865 -0.021640355 -0.15869756 -0.16802427
-0.14327331 0.7044877 -0.12767482 0.081340626 0.12722407 -0.09836458 0.38064626 -0.079121806
-0.04989302 -0.16835152 -0.1521371 -0.074603125 -0.062878065 0.18152535 -0.1951187 -0.07751807
-0.042530574 -0.17223477 -0.046681486 -0.16697875 0.64093786 0.62410504 -0.037166286 0.3468824
-0.10924088 -0.06977513 -0.09153077 -0.014843432 -0.09211807 -0.1565094 0.065986715 -0.10480414
-0.27071598 0.04672239 -0.1327158 -0.06402429 0.1826373 0.0047954307 -0.108936176 0.10485112
-0.06685755 -0.019318389 0.23894034 -0.0342125 0.089064114 0.052989878 -0.035315648 -0.17704451
-0.45115018 -0.077345595 -0.08728124 0.31787094 0.52725625 -0.14033897 -0.05488243 -0.23421535
-0.087581396 -0.06744229 -0.11299249 -0.19501148 -0.12149438 -0.102942765 -0.07974376 -0.06181802
-0.099382 -0.4042031 0.12988953 -0.08109604 0.021537514 0.092446886 0.072157845 -0.020584596
-0.07050529 -0.1263569 -0.2383982 -0.09948163 -0.018166054 -0.053589568 0.049114328 -0.053076286
-0.14083973 0.09447678 1.0458744 0.17731373 -0.096897766 -0.22699675 -0.088077515 -0.43267438
-0.086288564 -0.06346272 -0.0713553 0.020486813 0.076583736 -0.11938686 -0.10235063 -0.18075188
-0.015119827 -0.05790629 -0.122550346 -0.24226607 -0.110603355 -0.09015398 0.08644509 -0.17867103
-0.21346077 -0.053107172 -0.13289869 -0.0775589 0.09674792 0.33694306 -0.12759367 -0.15254347
0.30762938 -0.08359586 -0.16713487 -0.1366576 0.4354334 -0.19291042 0.120694645 -0.070442535
-0.07354115 -0.07328784 -0.021457955 0.013242109 -0.04498881 -0.09390283 -0.06135855 -0.16381243
-0.22117443 0.016674101 -0.10557737 0.68476284 0.14694084 -0.064730346 -0.060067505 -0.06786917
-0.023669392 -0.06853253 -0.14276159 -0.045329478 -0.085555464 0.87019444 0.76884526 -0.05024269
-0.06793273 0.11969167 0.28231978 -0.035239656 -0.059329245 0.09871614 -0.08273528 0.012263951
0.09367153 -0.17547022 0.021601334 0.13011502 -0.11481846 -0.03794636 -0.144222 -0.048780147
-0.12019893 -0.04032238 0.11836556 -0.10753931 -0.4290893 0.37442365 -0.008362187 -0.42248785
-0.11166494 -0.0908904 0.48110804 -0.057091877 -0.04565435 0.4590964 -0.18854578 -0.31949756
0.018649109 -0.13739 -0.2308871 -0.13106614 -0.15672527 -0.104422726 -0.11985321 -0.0922618
-0.056197494 -0.04404077 -0.14928041 -0.01650416 0.24267878 -0.043938484 -0.067341805 -0.09425336
0.88110495 -0.20179187 -0.078897916 -0.20457032 0.24336739 0.16132091 -0.09934153 -0.021548433
0.9527566 -0.060848504 -0.057331555 -0.14027645 -0.14633012 0.42816865 -0.19052917 -0.12217682

trunk.4.weight f4 [6, 256]
00000000: bcf0 2cbd 9b89 6bbb e931 8abc 5fe7 ad3c
00000010: 6a3e c4bd 098a 02bd 23b0 8fbd 6860 4cbd
00000020: da79 e8bc 7bbf b1bd 60a0 69bd 8484 53bd
00000030: df3e 70bd e6d8 89bd aada 04bd bb91 bbbc
00000040: bbf9 9cbd 1727 243e 5c54 acbd cc69 97bd
00000050: 1a66 7f3d 2a7c 02bd 1c0c 103c c326 b6bc
00000060: 65ce bdbc 56f8 50bb e35c ecbd 03e0 10bd
00000070: 8b71 4e3e 9da7 c6bd a84c 0ebd 4cd6 b63c
00000080: 0da5 fd3c c902 e5bc 938b f1bc 2930 83bd
00000090: 43af 223c 6572 b1bb 3ced d43a 9457 9bbd
000000a0: 7142 823c b953 a0bc 39e1 d6bd 5560 5b3a
000000b0: ef03 263d 85df 94bd c76e 46bd 8cf1 42bc
000000c0: b6b8 b6bc 7f01 d23c 4192 54bb 3696 93bb
000000d0: fa11 87bb dc99 d8bb 7ce2 8cbd 5d88 38bd
000000e0: 2c35 3e3d 6991 a3bd d494 f0bd 4fc3 8dbc
000000f0: e393 b63b fa9b 9ebc 0870 02bd 6836 b43b
00000100: ef7e 353c a512 01bd 82cd a9bc 1f4b afbb
00000110: 2eb1 013c 4816 933d aac3 84bd 942b fc3c
00000120: cede a93c 26a7 09bc e15a 213b 1b2c 0cbb
00000130: 96bd e0bd 84f2 1dbc e7a0 3bbc f348 8cba
00000140: b5cb 83bd 453b 3f3d c82d 89bc 5bd4 863d
00000150: 0b71 90bc c985 b9bc fe52 213d 7e10 eb3c
00000160: 512f 903c 2bcc dabc ae21 cbbb 7e28 c43c
00000170: 80a0 be3c c6af d33a 8ae1 6abd 19db 59bc
00000180: c929 723c 3c30 6fbc 12ee 79ba 8d0b 743c
00000190: 6b53 fb3c 3b3e dcbb 4667 d63c a765 223b
000001a0: f910 9abd 2970 42bc e6dd b1bc adba 9e3b
000001b0: b4b4 70bc 2bd7 03bd add2 a7bd 5c09 4a3c
000001c0: 7c7f d0bd c2ff b4bc 2e35 adbc 32d4 81bd
000001d0: fd0f 98bc 0ca0 a8bb 5ad0 1fbd 7be5 5bbc
000001e0: c503 c9bd c993 c6bc 0118 273b 74cf a0bc
000001f0: 413d 5cbd 2fe7 a73c abea c6bc 58b9 93bc
00000200: ef1b 0e3c 51b3 9dbd 67d7 763e bbbe 64bd
00000210: 28b2 723c b261 9dbc e2fe dd3b e9ff 0abd
00000220: 33f5 a53c 22b7 8dbd b0a4 b2bd 402c b43c
00000230: a066 f43c 4417 9fbd df28 d6bc 016a 83bc
00000240: 42fa 37bd 435b a23b e54b 9dbb c753 aabc
00000250: 13cf 62bc a4b5 b1ba 5b08 6cbc 1240 653b
00000260: 93bb 59bc bb71 2abd 153b db3b 99bd 3fbd
00000270: 70ef 9e3c 48f7 d9bc dab1 863c d43f b5bd
00000280: 231c 32bd 90c1 4ebd ff06 013d 23d8 a1bd
00000290: f1f9 883c 0d69 bfbd 9222 973b 7696 7cbc
000002a0: 4235 063c 7eb7 04bd 73fb fd3c a5e9 b73c
000002b0: 2df2 5ebc 685c 0b3d e0d7 263a 861a 10bc
000002c0: 0bfb 6f3d ba7a 9dbc 1289 dabc efff 4e3d
000002d0: 053a e83b e7f7 b93b a8d4 bbbd 5b4b bebd
000002e0: 0c90 bdbc c2ee d4bd b37b 0bbd 07d7 8bbc
000002f0: d86e c0bc 479b 063d 1be7 1a3d 57f3 c2bc
00000300: 1a41 af3b 2eee 82bc 5707 a9bb 6a87 37bd
00000310: 99d9 2d3d 92c1 a9bb a528 4b3c 899d 42bc
00000320: 0fbc d33a cb62 17bb 45e9 2cbc 5530 15bd
00000330: 1f02 37bc 39fb 7d3c 5b26 86bd b566 82bc
00000340: b76a 05bc b222 91bd 80e9 d43c a0e2 09bd
00000350: 67ef c53c bd56 563c 98ec 2cbd f31e a5bc
00000360: 5b5c 313d 416f 233c 01b2 983c 4e64 4b3d
00000370: 115e edbc d073 88bc ff88 80bd 3c20 dd3c
00000380: 7d45 39bd 44b6 0dbd 6ca5 993b 79c7 dbbc
00000390: f231 c9bb 6880 debc d2d5 37bd c47b a73c
000003a0: e42e 00bd 6e50 67bd d0e9 eabc a051 2cbd
000003b0: 3787 153c aae7 d3bc 7fae f13c 36c8 7fbb
000003c0: 45b6 153e d34f 8abd 712f 00bd c490 68bd
000003d0: b033 15bc 3217 8139 d861 3b3c 2793 05be
000003e0: 9b29 203e 26f9 aabc 10da 63bc 4860 21bc
000003f0: 6f31 23bc f7e5 58bc d450 5fbd b1a2 81bd
-0.04222177 -0.0035940174 -0.016869502 0.02122849 -0.09582217 -0.03186992 -0.07016017 -0.049896628
-0.028378416 -0.086791 -0.05703771 -0.05164005 -0.05865371 -0.06730823 -0.032435097 -0.022896638
-0.0766482 0.16030537 -0.08414528 -0.07393226 0.06235323 -0.031856693 0.00879195 -0.02223528
-0.023169706 -0.00318863 -0.11541154 -0.035369884 0.201605 -0.096999384 -0.034741074 0.022318982
0.030962491 -0.02795543 -0.0294855 -0.0640567 0.009929481 -0.005415248 0.0016245018 -0.075850636
0.015900822 -0.019571172 -0.104921766 0.00083685416 0.040531095 -0.072691955 -0.04844549 -0.01189841
-0.022304874 0.025635479 -0.0032435807 -0.0045039905 -0.004122016 -0.0066101383 -0.06879136 -0.04505192
0.046437427 -0.07986719 -0.11747137 -0.017305044 0.0055718287 -0.019361485 -0.031845123 0.00549965
0.011077627 -0.03151192 -0.020727877 -0.0053495313 0.007915778 0.07181984 -0.064826325 0.030782498
0.020736124 -0.008401668 0.0024620818 -0.0021388594 -0.10973661 -0.00964034 -0.011451936 -0.0010702893
-0.064353384 0.046687383 -0.016745463 0.06583472 -0.017632028 -0.022646802 0.03938579 0.028694388
0.017600687 -0.026708683 -0.0061990833 0.02394509 0.023269892 0.0016150407 -0.057343997 -0.013296866
0.01478047 -0.014598902 -0.00095340714 0.014895332 0.030679425 -0.0067212856 0.026172291 0.0024779828
-0.075227685 -0.011867561 -0.021712255 0.004844031 -0.0146915205 -0.032187622 -0.0819448 0.012331333
-0.10180566 -0.022094611 -0.021143522 -0.06339301 -0.018562311 -0.005146032 -0.03901706 -0.013421412
-0.09815172 -0.024240391 0.0025496485 -0.019630171 -0.053769354 0.02049598 -0.02428182 -0.018032715
0.008673652 -0.077002175 0.24105607 -0.055845957 0.014812984 -0.019211624 0.006774769 -0.03393546
0.020258522 -0.069196954 -0.08722818 0.021993756 0.029834092 -0.077681094 -0.026142536 -0.016041758
-0.0449164 0.004954727 -0.004800307 -0.020791901 -0.013843316 -0.0013558161 -0.014406289 0.0034980816
-0.01328935 -0.041612368 0.0066903927 -0.046811674 0.019401282 -0.02660717 0.016442228 -0.08850065
-0.043483865 -0.050477564 0.031500813 -0.07902553 0.016720744 -0.09346209 0.0046122754 -0.015416732
0.008191409 -0.032401554 0.03100369 0.022450278 -0.013607544 0.034023672 0.00063645653 -0.008795386
0.058589023 -0.01922356 -0.026676688 0.050537046 0.0070869946 0.005675304 -0.0917142 -0.09291717
-0.023139976 -0.10397102 -0.034053516 -0.017070306 -0.023490354 0.032862928 0.037818056 -0.023797674
0.005348337 -0.015982714 -0.0051583457 -0.044806875 0.042443845 -0.005180546 0.012399827 -0.01187838
0.0016154068 -0.0023099657 -0.010553663 -0.036423046 -0.011169939 0.015501791 -0.065502845 -0.015918115
-0.008143119 -0.07086696 0.025990248 -0.033663392 0.024162007 0.013082203 -0.04221782 -0.02015636
0.043300968 0.0099752555 0.018639566 0.049656205 -0.028975518 -0.016656786 -0.0627613 0.02699291
-0.045232285 -0.03459765 0.0046889093 -0.026828514 -0.006139987 -0.027160838 -0.04488165 0.020444758
-0.03129472 -0.056473188 -0.028675944 -0.04207003 0.009126476 -0.025867302 0.029502152 -0.0039029247
0.14620312 -0.067535065 -0.031295244 -0.056778684 -0.009106562 0.0002462208 0.011436902 -0.13044415
0.15640871 -0.020870756 -0.013906971 -0.009849615 -0.009960516 -0.013238422 -0.054520443 -0.06329859

trunk.4.bias f4 [6]
00000000: e9cc 903f 58bc c8be f2f8 813e 99c9 8cbf
00000010: 583f 62bf 0e28 293e
1.1312534 -0.39206195 0.25385243 -1.0999023 -0.88377905 0.16519186
