models/Env3/SAC_256_A5_S3_P/local_episode_1150_reward_200.000000.pt (torch, 297002 bytes, 6 tensors)

trunk.0.weight f4 [256, 23]
000000 e6 81 49 bd be ac 93 3d 48 5f 82 bd 65 96 3a be
       -0.049196146 0.07210682 -0.0636583 -0.18221433
000010 9d f1 bd bc eb 47 2f 3d 1e 28 9c 3d be ea f4 bd
       -0.0231865 0.042793196 0.07624839 -0.11958836
000020 53 43 35 3e 6d 4a 17 be b1 a9 fc 3c d7 c2 f2 bc
       0.17701463 -0.14774485 0.030842634 -0.029633923
000030 2e e4 ab bd b8 08 1c be 7a d1 d0 bd 95 cf 7f bc
       -0.08393131 -0.15237701 -0.101962045 -0.015613456
000040 8c bc 7e bd be 8a bc bc 72 d4 67 bd 77 bb 5e 3c
       -0.06219153 -0.023015376 -0.056599088 0.0135945
000050 35 36 58 bd cb 48 ee 3d 30 31 13 bd ec 84 b1 be
       -0.05278607 0.11634978 -0.03593558 -0.34671724
000060 53 85 9a be 2f f2 96 bd a5 26 55 be 1c d9 ec bd
       -0.30179843 -0.073704116 -0.20815523 -0.11564848
000070 76 5c 5c be 64 e6 44 be b5 88 04 bd 9f 73 de 3d
       -0.21519646 -0.19228512 -0.032356936 0.10861897
000080 8e a3 16 3e ff 98 37 3e e0 60 99 3d 2d 84 ae 3c
       0.14710829 0.17929457 0.074891806 0.02130326
000090 e3 81 09 3e a0 43 fc 3d 23 c0 76 3d 25 ed a8 3d
       0.13428454 0.12317586 0.06024183 0.08248357
0000a0 6a e2 b9 bc ae 8f 0d be e8 4f 93 be 6a e2 31 3c
       -0.02269097 -0.1382434 -0.287719 0.010857204
0000b0 d0 8e 46 3e 55 25 ce bd ed 04 4d bd cc 8a 14 3d
       0.19390416 -0.10065714 -0.050053526 0.03626518
0000c0 38 68 2f bd fc 26 74 bd 49 a2 dc bd 21 19 e2 bd
       -0.042824 -0.05960749 -0.10773141 -0.11039949
0000d0 8d aa a2 bd 06 48 34 3e 74 28 9b bc e3 8d 80 37
       -0.07942686 0.176056 -0.018940188 1.532486e-05
0000e0 86 09 ab 3d 43 10 8c bc f4 7a 86 bd 7d fb 4f be
       0.08351426 -0.017097598 -0.0656642 -0.20310779
0000f0 aa 66 8a bd eb 5a 3a 3e fb 04 60 bd 82 0e cd bc
       -0.06757863 0.18198745 -0.05469225 -0.025031332
000100 96 d1 2d be e5 fc 56 be cc 7b 81 be d6 4c 70 be
       -0.16974482 -0.20994909 -0.25289762 -0.2346681
000110 1e 97 1d be bf 97 29 3e 84 c7 80 3d a0 d1 46 bd
       -0.15389678 0.16561793 0.062880546 -0.048539758
000120 77 3d 2b bd ed d7 78 bd 2b fc 32 3d 6c d0 44 3d
       -0.041806664 -0.060752798 0.043697517 0.04805033
000130 1a 39 de bc 14 7a 10 bd 6f 00 8b bc 90 7a e9 bd
       -0.027126838 -0.035272673 -0.01696798 -0.1140033
000140 4f 41 91 bd a6 68 d9 bd 34 3e 80 bc ca d5 b8 bd
       -0.07092535 -0.10615663 -0.01565466 -0.09025152
000150 3d 75 d9 bd 04 6d 7f 3d c1 be b3 bd d1 9d 47 bd
       -0.106180646 0.062359825 -0.08776618 -0.04873449
000160 2a ac cf bd 08 02 3d bd 25 5d ca bc 19 2a a7 bd
       -0.101402596 -0.046144515 -0.024702618 -0.08162326
000170 93 88 19 be 08 5f 20 be c9 18 83 bd da ce 5e bc
       -0.14993505 -0.15661252 -0.06401212 -0.013599122
000180 7e fe 8f bd 26 64 95 3c 52 fa 24 3d f3 73 37 3c
       -0.070309624 0.018236231 0.040277787 0.011197078
000190 99 06 09 bb b7 b6 b0 3b 6a be 94 be 3d 9a aa be
       -0.0020908474 0.005392875 -0.29051524 -0.333208
0001a0 3f da 07 bd 41 69 b7 3d b5 ca d1 3d c7 54 2e 3d
       -0.03316712 0.089556225 0.102437414 0.04256132
0001b0 ec af 74 bd a1 be a6 bd 54 3d 88 3c 70 02 4f bd
       -0.059738085 -0.08141828 0.016630806 -0.050539434
0001c0 e0 fb 0b 3e 31 08 ce bd 27 3b 23 be 0a f0 3b be
       0.13670301 -0.10060156 -0.15940534 -0.18353286
0001d0 67 e5 35 be 6a dd 35 bd 17 02 69 bd 05 77 cc 3c
       -0.17763291 -0.04440061 -0.05688676 0.024959097
0001e0 00 9c 56 bc 9b b9 39 3d 62 d2 1d 3e fd aa f3 3b
       -0.013098717 0.045343023 0.15412286 0.007436155
0001f0 6f e4 03 be 97 fa ce bd c0 3e 53 bd e7 e8 93 bc
       -0.12880109 -0.1010639 -0.051573515 -0.018055392
000200 b7 89 5b bd a4 a9 cc 3d d6 df 72 bd 1b 45 53 be
       -0.053598132 0.09993294 -0.059295498 -0.2063183
000210 8d d3 26 3d ad 8e 01 be cd 88 7a bd 24 0f dd 3d
       0.040729094 -0.12652083 -0.06116562 0.107939035
000220 72 96 d8 3d c4 f7 f9 3b 45 f4 d6 3b 21 86 8a bd
       0.1057557 0.007628413 0.006559881 -0.06763864
000230 53 4c e2 bd 17 6f 1f be 9b b4 45 be a6 81 c6 bc
       -0.11049714 -0.15569721 -0.19307177 -0.024231743
000240 cf 7a 37 3d 44 01 0d be 78 3c 25 be 60 c3 27 be
       0.044794854 -0.13770014 -0.16136348 -0.16383123
000250 6d db 29 be 32 7c 9b be 48 aa 96 be 43 8b 97 be
       -0.1658761 -0.3036819 -0.2942679 -0.29598436
000260 4e 57 1c 3e 42 db 15 3e f9 31 20 3c 6c 51 1a 3d
       0.15267679 0.14634421 0.009777539 0.037675306
000270 28 75 27 3e db 03 59 3d ff 9d ed 3c 3b 60 3b 3d
       0.16353285 0.052982192 0.029006002 0.04574607
000280 ee 75 6e bd 8b 7e 0b 3e 5f 28 e2 3d ab e7 6e bd
       -0.058217935 0.13622491 0.110428564 -0.058326405
000290 7a dd f8 bd cb 06 9a be 6b 2e 1e be d7 91 59 be
       -0.12151618 -0.30083308 -0.15447395 -0.2124704
0002a0 3e 59 80 bc 07 4b 3c be 09 04 fc bd 1d 58 04 3c
       -0.015667554 -0.18387996 -0.12305457 0.0080776485
0002b0 f1 cb 21 be 82 02 2d be cd e4 ba be c4 e8 56 bc
       -0.15800454 -0.16895488 -0.36502686 -0.013117019
0002c0 10 a1 03 3e 05 f4 0f 3e b1 eb 29 3e 25 51 a6 bd
       0.12854409 0.1405793 0.16593815 -0.08120946
0002d0 40 8e 18 3c d4 52 61 3d 10 4a e6 bc 23 f4 42 bd
       0.009311259 0.05501063 -0.028111488 -0.04759611
0002e0 c3 08 ff bd c8 be 9a 39 2f 63 88 bd 10 ae 5b bd
       -0.12452843 0.00029515312 -0.06659543 -0.053632796
0002f0 c6 8d 74 be 36 55 55 bd 5c f3 20 bd 97 e4 00 bb
       -0.23882207 -0.052083217 -0.039294586 -0.00196675
000300 03 e9 16 3d 99 0b 3c bd 71 b7 93 3c ff 4a 4a bd
       0.03684331 -0.045909498 0.018031808 -0.049387928
000310 7d 79 cb bd ac c0 68 bc 59 9c 7f bc 86 ae 21 3d
       -0.099352814 -0.014206093 -0.015601241 0.03947308
000320 a3 32 2b be ee 6e 75 bd 3e 1c 07 be 53 3c 9e 3d
       -0.16718535 -0.059920244 -0.13194367 0.0772635
000330 06 6f e9 3c 5e 81 03 3d 32 fa 52 bd ec 03 57 bd
       0.028495323 0.032105796 -0.051508136 -0.052493975
000340 40 92 f7 3c 30 66 97 bd 35 22 82 bc 7f 92 a8 bd
       0.030221105 -0.073925376 -0.015885452 -0.08231067
000350 b7 70 87 bd 25 d1 95 bd 46 5f 61 bd a6 8e 6d 3c
       -0.066132955 -0.07315282 -0.0550225 0.014499342
000360 64 24 63 bd d5 69 88 bd 42 c5 ab bd 91 62 a5 bc
       -0.055454627 -0.06660811 -0.08387233 -0.020188602
000370 f0 45 93 3a 4d 9a 65 3d 44 6d 7d bd 69 00 af bd
       0.0011236053 0.056055356 -0.061871782 -0.08545
000380 9f 1c a1 bc 26 ab 40 3d 06 34 a3 bc 99 69 a6 bc
       -0.019666968 0.04703822 -0.019922268 -0.020314025
000390 7a 9d 6f bc 95 42 26 be 7a 04 8d bd df d0 b7 be
       -0.014624948 -0.16236337 -0.068856195 -0.35901543
0003a0 9b b3 45 be 64 cb 3c 3e f2 f5 a5 bb 09 bd 01 3d
       -0.19306795 0.18436962 -0.0050647194 0.03167442
0003b0 47 3b 34 bc 65 50 08 bd 9d a4 15 be 47 55 10 bd
       -0.011000461 -0.033279795 -0.14613576 -0.035237577
0003c0 2d f9 3a 3e d4 99 8d 3e 4d 92 eb 3c f0 4d 1e be
       0.18259116 0.27656424 0.028756285 -0.15459418
0003d0 6d 48 c1 bd d0 07 0b bd 45 5a a8 3d 11 82 73 be
       -0.09437642 -0.033942997 0.082203425 -0.23780085
0003e0 9c 3d 69 be fd 1d 0c be c3 bb dd 3d e0 f7 5d 3d
       -0.22777408 -0.13683315 0.10826828 0.05419147
0003f0 97 93 0c ba e4 f5 43 bc 2c 44 f0 bd 47 99 67 bd
       -0.0005362569 -0.01196048 -0.11731753 -0.05654266

trunk.0.bias f4 [256]
000000 89 3c c8 3b 0b 39 6d be 2c 13 f8 3d 7f 01 f3 3b
       0.006110732 -0.23166291 0.12113032 0.00741595
000010 c0 9d c7 bc 81 21 db bc 44 77 f1 bc e6 15 53 3d
       -0.024367213 -0.026749374 -0.029475816 0.051534556
000020 e6 0b c7 bc 0f e3 35 bd 62 29 f9 bd de 14 3c bd
       -0.024297666 -0.044405993 -0.12166096 -0.045918338
000030 19 cf d4 bd e6 08 9f bb 6d 12 82 bc 1a ee 12 bd
       -0.10391063 -0.0048533557 -0.015877927 -0.035871603
000040 6d aa 49 3e ca 92 ae 3d b6 a0 d4 bc 0b 83 2d 3e
       0.19693919 0.085240915 -0.02595554 0.1694452
000050 48 73 0e bd 74 48 ea bc ba af cb bd 91 fb 83 bd
       -0.03477791 -0.028599001 -0.099456266 -0.06444467
000060 6d bd bb bc 5f 11 8c 3d 71 ae 15 bd 16 2d 24 bd
       -0.022917474 0.06839251 -0.036543313 -0.04008206
000070 3a 0a f1 bc 2e 04 78 3d 8b a9 1b 3c bc c7 1c bd
       -0.029423822 0.06055086 0.009500871 -0.03827642
000080 5e e1 20 bd 32 2a 8c bc 8f 1f fb 3c d4 77 0e bd
       -0.039277427 -0.017109964 0.030654697 -0.034782246
000090 00 00 00 00 96 37 1b bd ad e6 a4 bc 00 00 00 00
       0.0 -0.037894808 -0.020129526 0.0
0000a0 1c 67 c9 bc 0d 67 b9 bc aa 40 7d bd 41 af c2 bc
       -0.0245853 -0.022632146 -0.061829247 -0.023765208
0000b0 17 9a d7 3d c1 8a 9a 3c cc 8a a9 bc 24 d1 99 bc
       0.10527437 0.018864991 -0.020696066 -0.018776484
0000c0 15 3c 75 bd ac 80 80 bc 00 00 00 00 9d 0e 82 bc
       -0.05987175 -0.015686356 0.0 -0.015876109
0000d0 c1 49 9d bc 00 00 00 00 62 50 11 3e 9a 3f 70 bc
       -0.019200208 0.0 0.1419082 -0.014663601
0000e0 41 05 17 bd e3 bd 02 be d7 39 a5 bc 14 d0 30 3d
       -0.036870245 -0.12767749 -0.020169182 0.04316719
0000f0 bf 61 dd bd 71 72 bc 3d 34 9c cf bc fa 6d 9d bc
       -0.10809659 0.092015155 -0.025343038 -0.01921748
000100 f4 80 4a bd 00 00 00 00 41 16 83 bc e6 68 0d be
       -0.049439386 0.0 -0.016001822 -0.13809547
000110 c8 e4 81 bc 2b 26 1f bd 99 0d de 3a 6b cd bb bc
       -0.015856162 -0.03885476 0.0016941308 -0.0229251
000120 6e 11 9c 3e 0c a0 c9 3c 70 31 4c bd 59 9c 81 bc
       0.30482048 0.02461245 -0.049851835 -0.015821623
000130 4b 67 91 bd 4d ab 9d bc f7 e0 2e bd 65 ef b5 bc
       -0.0709978 -0.019246722 -0.042695012 -0.022208879
000140 2e d2 1d bc db b8 30 bc 6e d4 67 3a c0 c6 8a bc
       -0.00963263 -0.0107862605 0.0008843605 -0.016940475
000150 16 d5 d2 bc d3 94 74 bc 59 1c 82 bc 24 b6 1f 3e
       -0.025736373 -0.014928061 -0.015882658 0.15596825
000160 86 72 d3 3d 1e 6f 91 3e c5 b5 2c 3e 44 ef 0a bd
       0.10324578 0.28405088 0.16866215 -0.033919588
000170 40 b5 6e 3d c8 dc 1b bd 6d 7f 5a bd c0 eb 45 3e
       0.058278322 -0.03805235 -0.05334418 0.19328213
000180 2e 68 a3 bc 07 ef 81 bc 91 42 88 bc 5f 65 fd 3a
       -0.019947138 -0.015861047 -0.016633304 0.0019332579
000190 44 33 fc 3d 91 f9 9b bd f7 e5 c1 bc aa a7 65 3c
       0.12314466 -0.076159604 -0.023669226 0.014017025
0001a0 a9 9f e5 bb 38 0b c6 3d 26 29 93 3e 6d 54 93 3d
       -0.0070075584 0.096701086 0.2874233 0.07193837
0001b0 51 5b 6e bc f7 dd c7 3c 38 b6 f2 3c d1 2a d0 bd
       -0.014548139 0.024397833 0.029627904 -0.101644166
0001c0 00 00 00 00 b7 10 a5 3d aa 27 05 3d ed c1 20 bd
       0.0 0.08059829 0.03250853 -0.039247442
0001d0 20 2f f3 bc 93 c1 f3 bc 86 e4 6b bc 3b 4f d7 bd
       -0.029685557 -0.02975539 -0.014397746 -0.10513159
0001e0 14 c4 c3 3b d8 b2 7f bc b1 9b e6 3d a1 9b 39 bd
       0.005974302 -0.0156066045 0.112601645 -0.045314435
0001f0 d5 94 19 bd 1c f3 49 bc 2f c1 39 3a 88 38 a6 bc
       -0.037495453 -0.012326028 0.00070859765 -0.020290628
000200 95 ca d4 bd 45 2a 4b bd 6b 60 cd bc 80 16 0b bd
       -0.10390202 -0.04960086 -0.02507039 -0.033957005
000210 f4 e0 3b bd 15 37 e4 bc d0 2e 31 bd 36 57 34 3e
       -0.04586883 -0.027858296 -0.043257535 0.17611393
000220 ce 50 1a 3b 46 b8 13 bd cf 8e 89 bc 2d ed 0f bd
       0.0023546699 -0.03606441 -0.01679173 -0.035138298
000230 13 a5 16 3f 2b 2d 7c 3d dc 2b 9b bc 0c f2 af bc
       0.58845633 0.061566513 -0.018941812 -0.021477722
000240 ae d5 70 3e a5 a5 98 bd 47 17 c2 bd b2 cb 62 bd
       0.23519012 -0.07453469 -0.09477096 -0.05537004
000250 e8 63 b1 bd 9c 62 eb bc 00 00 00 00 b4 f9 e9 39
       -0.08661634 -0.028733544 0.0 0.00044627266
000260 07 49 7a 3d d9 0e b0 3d f5 02 b9 bc a3 c9 43 bd
       0.0611048 0.08596582 -0.022584418 -0.047799718
000270 5c 71 5f 3d 96 01 5c bc 37 fb 0c bc 50 dc 13 3e
       0.054551467 -0.0134281125 -0.008604816 0.14439511
000280 60 2a d3 3c 16 8d 40 bd 23 6f af bc e9 66 53 3c
       0.025777042 -0.04700955 -0.021415299 0.012902954
000290 00 00 00 00 7b f2 44 bd 37 e5 ec ba f7 f2 be bc
       0.0 -0.04808281 -0.0018073682 -0.023309214
0002a0 d8 06 92 3e 69 1e 8b bd bc 82 28 bd 43 35 56 3c
       0.28520846 -0.0679291 -0.041140303 0.013074222
0002b0 d2 dd 81 bc 5a a3 1d 3e 39 3b 95 bd da 35 a6 bc
       -0.015852842 0.15394345 -0.072866865 -0.02028935
0002c0 73 01 15 bd ab 86 c3 bc b8 e4 f2 3d ef b3 be bc
       -0.036378335 -0.023867926 0.11860031 -0.023279158
0002d0 c0 4a 44 bd 07 48 76 bc eb 20 09 3c 95 47 73 3e
       -0.04792285 -0.015031821 0.008369665 0.23757775
0002e0 3f f4 8e 3d a7 97 1b 3e 02 fe 11 bd 6c 12 a9 bc
       0.0698018 0.1519457 -0.03564263 -0.020638667
0002f0 43 e5 62 3e 17 a8 d8 bc 6c 97 8b 3d d0 6c c2 bc
       0.22157769 -0.026447339 0.06815991 -0.023733526
000300 6a 5f cf bc 28 e8 c7 bc 70 85 99 3b a5 89 7c 3e
       -0.025314052 -0.024402693 0.0046850964 0.24661882
000310 b6 85 4a 3d 6d 68 c3 3d b6 45 34 bd bb 70 9a 3d
       0.049443923 0.09541402 -0.044011794 0.07541033
000320 8c b6 fe 3d 00 00 00 00 94 9f a2 bd 01 93 51 bc
       0.12437162 0.0 -0.07940593 -0.012791396
000330 0c 69 bd bc f3 f0 81 bc 3d 7d b9 bc 64 df 24 bd
       -0.02312138 -0.015861964 -0.022642726 -0.040252104
000340 df b2 03 bd bc 48 af bc cb 06 2b 3e db c8 b6 bc
       -0.032153007 -0.021396987 0.1670181 -0.022312572
000350 fe 17 ad bc c6 f4 96 3d 0d 54 7c 3d 48 08 29 bc
       -0.021129604 0.073709056 0.061603595 -0.010316916
000360 f1 aa 3b bd 47 a2 3a bd 00 00 00 00 56 57 79 3e
       -0.04581732 -0.045564916 0.0 0.24349722
000370 0d 68 ab ba db 3b ba bd 3c 07 94 3e d3 be 1c bd
       -0.0013077274 -0.09093448 0.2891177 -0.03826792
000380 30 d5 a5 bc 9f 4d ec bd 4a 52 9a 3b 27 fe 36 3e
       -0.020243257 -0.115382425 0.0047095167 0.17870389
000390 a7 92 95 bc ca 95 b1 bb df fa f0 bc 83 21 eb 3d
       -0.018258406 -0.0054194676 -0.0294165 0.11481001
0003a0 64 0a d8 bc 30 7a 96 3d 1d 0c d3 3e 95 17 82 bc
       -0.026372142 0.07347524 0.4122018 -0.015880385
0003b0 ef d2 b4 bc e1 03 97 bc f2 bc 4b bd 4c 91 45 bc
       -0.022073237 -0.018434467 -0.04974074 -0.012058567
0003c0 00 00 00 00 95 f9 63 bd 72 c2 76 bc ae 86 cd 3c
       0.0 -0.05565794 -0.015061008 0.025088634
0003d0 cc 01 d5 3c 3b 86 f7 3c 5d 6b f2 bc db 49 de bc
       0.026001833 0.030215373 -0.02959221 -0.027134826
0003e0 9c 07 df bd 1a ce 34 3d 99 c7 f5 bc e1 d6 1e bc
       -0.10890123 0.044141866 -0.030002402 -0.009694786
0003f0 ab a1 ad bd 2c 6c 26 bc c3 05 00 be 00 ce 33 bd
       -0.08478101 -0.010157626 -0.12502198 -0.04389763

trunk.2.weight f4 [256, 256]
000000 fa b2 c0 bd 8e 4d 48 3c 40 53 71 bc ae 0a 74 bd
       -0.09409137 0.012225522 -0.014729321 -0.059580497
000010 a5 44 22 bd 6f 41 79 bc f9 67 32 3d da c5 41 bd
       -0.039616246 -0.0152133545 0.043556187 -0.047307827
000020 ae 1a 0b 3e b4 96 8b 3b 88 6a 3e bb 24 2f a2 bd
       0.13584396 0.0042599086 -0.0029055197 -0.079191476
000030 95 48 13 bc 92 5a 82 bd 32 dd 46 bc 4c dd c8 bd
       -0.008989473 -0.06364931 -0.012137698 -0.09807834
000040 a5 cf 6c bd 03 67 0c bd 2a c5 31 bd 8c 0a 34 be
       -0.057815213 -0.034277927 -0.04340092 -0.17582148
000050 bc ad d5 bd c9 25 79 3d cf 57 58 3d da ee ac 3c
       -0.10433528 0.06082705 0.052818116 0.021109987
000060 31 7c 09 bc 0a b6 74 3c 05 e7 9e bd 2c 2f 3d bd
       -0.008391426 0.01493598 -0.07758907 -0.046187565
000070 5a 48 cc 3d 02 18 99 bd 8c c1 8b bd 5f 7e 04 bd
       0.099747375 -0.07475282 -0.068240255 -0.03234708
000080 c0 9d 08 3d 25 ae af bd b9 dc db 3c 00 bf 15 3d
       0.033353567 -0.08578137 0.026838647 0.036559105
000090 d0 e7 66 3a 65 c5 b8 bb 26 3f c2 3d e8 19 9e 3c
       0.00088083465 -0.0056387656 0.09484701 0.019299462
0000a0 b7 d0 fe 3d ff f3 11 3d c2 a1 e5 bd 31 67 e1 3d
       0.12442153 0.035633083 -0.112124935 0.1100601
0000b0 a8 21 d1 3d 39 43 85 3b 71 36 52 bd 15 ab f2 ba
       0.102114975 0.0040668515 -0.05132145 -0.0018514121
0000c0 79 3f 09 3d 1c ba 8b bd 23 75 b1 bd 92 a4 dc bd
       0.033507798 -0.06822607 -0.0866492 -0.10773577
0000d0 99 ee cf bc 88 81 f1 bd 50 cc 14 3d 28 d8 83 3d
       -0.025382327 -0.11792284 0.03632766 0.06437713
0000e0 38 00 0e 3d 98 18 1e 3d 92 b0 8b bd a3 e9 ce bd
       0.034668177 0.038597673 -0.068207875 -0.101031564
0000f0 a3 bd dc bd 30 f9 6a bd 22 db 03 be 22 ab 85 bd
       -0.10778358 -0.05736655 -0.12876561 -0.065267816
000100 3c 16 20 ba e4 6f b8 3d ef 52 24 3d 82 6e 33 3b
       -0.0006106829 0.090057164 0.040118154 0.00273791
000110 2a 5b 5e 3d 7e c0 de bc 00 eb d3 bd 8a 7f 48 3d
       0.05428616 -0.027191397 -0.10347557 0.048949756
000120 3e 4a 33 bd aa ef 60 3d 25 4f 03 bd ea 21 1a 3d
       -0.043771975 0.05491606 -0.0320579 0.03763
000130 bd 61 58 bd d1 e0 aa 3b fe 23 57 bd 3c 6e b3 3d
       -0.052827585 0.0052147885 -0.05252456 0.0876126
000140 d8 9b 91 bd 32 19 9d bd a0 da 4b 3d 64 e0 d6 bb
       -0.07109803 -0.07670821 0.049769044 -0.006557511
000150 35 28 8e 3d 6d 02 0d bd b6 23 4f 3d a3 6b 86 bd
       0.06941263 -0.03442614 0.050571166 -0.06563499
000160 79 3d 09 be 78 b1 af bd 1f b4 91 3c 9e 60 03 be
       -0.13402356 -0.08578771 0.017786084 -0.12829825
000170 cf 07 24 3d 15 5b 17 3c f7 08 b2 bc 4f ee 1e be
       0.04004651 0.009238024 -0.02173279 -0.15520595
000180 6a 79 c7 bc 88 74 4e 3b 3c 0f 64 bb c2 02 00 bd
       -0.024349887 0.0031502564 -0.003479912 -0.03125263
000190 2a 0c 4a bc 0a 7d 14 bd f1 ba 83 bd d8 60 47 bd
       -0.012332002 -0.03625206 -0.064321406 -0.04867634
0001a0 81 ba b5 3d 20 4c 01 bd 90 d5 5f bd 37 04 a3 bd
       0.088734634 -0.03156674 -0.05464703 -0.07959788
0001b0 23 b2 de bd 44 fe d2 bd 74 e8 60 bd cf 42 71 bc
       -0.10873821 -0.103024036 -0.054909185 -0.014725401
0001c0 55 b7 56 3d b3 52 18 bd c8 a8 21 3e 32 04 9f ba
       0.052420933 -0.037188243 0.15787041 -0.0012131988
0001d0 07 e7 4a 3c 1a c5 5a bc 82 e0 ac 3d 31 a2 9b bd
       0.012384183 -0.013352657 0.08441259 -0.07599295
0001e0 8e b3 07 bc 32 9e 1f bc df 57 b4 3d 85 e8 c8 bc
       -0.008282555 -0.009742307 0.088058226 -0.024524936
0001f0 f9 c8 94 bb 93 e4 d6 bb 08 69 6a bc 7e 26 43 bd
       -0.0045405594 -0.00655801 -0.014307268 -0.04764413
000200 dc 67 0d 3d e4 e5 c1 bc d3 02 1e bd af 7f 50 3c
       0.034522876 -0.02366919 -0.038576912 0.012725755
000210 25 9f cf 3c 53 bc c7 bb b7 24 3b bd ae cb 1f bd
       0.02534444 -0.006095448 -0.04568931 -0.039012603
000220 5c 42 ee 3c bb 7c 93 bc 9e ef 2c 3d 4e e2 9e 3c
       0.029084377 -0.018003812 0.042220704 0.01939502
000230 35 f0 d8 bd 10 be 2c bd 59 52 ae bc bf f1 ca bd
       -0.10592691 -0.042173445 -0.0212795 -0.09909391
000240 e3 a6 06 bd 88 71 45 3d 71 eb 95 bd 2d 4a 07 bd
       -0.032874 0.048203975 -0.073202975 -0.033029724
000250 db c3 b9 3c bf 15 52 bd 96 2c c3 3d cf 7f b6 bc
       0.022676399 -0.05129027 0.095299885 -0.02227774
000260 9c 3b 09 bd 6f 99 05 3e 88 42 89 bc e3 01 73 bd
       -0.033504114 0.13046812 -0.016755357 -0.05932797
000270 2a 92 ac 3d 11 aa 9e 3c 86 68 fc 3b 3d 85 bd 3b
       0.08426316 0.019368203 0.00770289 0.0057837055
000280 4b 13 c6 bd 74 92 99 bd 7e c8 4c bc ce 80 0c bd
       -0.096716486 -0.07498637 -0.012498973 -0.034302525
000290 d6 94 dd 3c f0 ee 11 bd 87 da 62 3d fa ea 23 bc
       0.02704851 -0.03562826 0.055384185 -0.010004753
0002a0 29 bf 0c be 7c 4b b5 3c 00 dc 0b bd f4 f1 1a bc
       -0.13744797 0.02213072 -0.034145355 -0.0094571
0002b0 68 8e bb bd f3 23 bc bd af f4 54 3d 74 27 c2 3b
       -0.09158021 -0.09186544 0.05199116 0.0059251133
0002c0 5f 9a b5 3d 50 58 28 3d 8d 9d 90 bb a2 83 b6 3d
       0.088673346 0.041099846 -0.0044133128 0.08911826
0002d0 ce e2 c0 3b 7a 51 f7 bc c0 3d d9 bd be c3 f9 bc
       0.005886412 -0.030190218 -0.10607481 -0.030488845
0002e0 3f 64 b8 bd bf 64 cb bd 81 99 88 3d de e9 9f bc
       -0.090034954 -0.09931325 0.066699035 -0.019520696
0002f0 5a 29 66 b8 6b 67 51 3d 31 7d b4 bc d8 f7 b4 bd
       -5.4874785e-05 0.051124018 -0.022032352 -0.08836335
000300 e1 b4 d0 3d cc 07 63 3c 71 d9 bd 3c cf f5 aa bd
       0.1019075 0.013856839 0.023174973 -0.083476655
000310 97 47 7e bd e8 8d 33 3d fe 42 31 3d 0c 00 e2 bd
       -0.062079992 0.043836504 0.04327678 -0.11035165
000320 a9 09 0e bc b8 02 b4 3b e3 3e b4 bd e8 15 10 3e
       -0.008669295 0.005493488 -0.08801057 0.14070857
000330 77 d6 53 bb 58 85 04 3c 3d 8f ad bc 2a 43 07 bd
       -0.0032323876 0.008088432 -0.021186465 -0.033023037
000340 74 fb 7d 3c 47 36 88 bd 1a 3e 78 bd 11 d3 a0 b9
       0.015501846 -0.066509776 -0.0606061 -0.00030674835
000350 57 86 cd bd df 1c 04 bc ee 68 ad bd 28 24 c5 bd
       -0.10035389 -0.008063524 -0.084672794 -0.09626037
000360 68 e1 ad bd ee 68 75 3c 07 a4 79 3d f9 33 b3 3c
       -0.084902585 0.0149786305 0.060947444 0.021875368
000370 61 81 f2 bd 0b db 94 bd a8 66 14 bc fa dc 22 be
       -0.11841083 -0.07268342 -0.009057678 -0.15904608
000380 97 e6 44 bd 73 0c d7 bd 10 73 a9 3b 7d 44 7a ba
       -0.04807147 -0.105004214 0.005171187 -0.0009546949
000390 46 60 c9 bd df 06 8d bd 59 68 9e bc 57 32 d3 bc
       -0.09832816 -0.06886076 -0.019336866 -0.02578084
0003a0 82 ca 35 bd 5a 7e b4 3d 45 0d 3a bc d8 5c 45 3d
       -0.04438258 0.08813162 -0.011355703 0.048184246
0003b0 64 7f f1 3c 9d 4d ba 3c cb b1 50 bc 4a 0e d0 3d
       0.02947969 0.022742087 -0.012737702 0.101589754
0003c0 6a 64 43 3c 29 46 be 3d b1 6c 16 3d 1a 4a a9 bd
       0.011925796 0.09290726 0.03672475 -0.08266087
0003d0 d3 15 62 bd 1e f4 69 bc 7c 19 29 bd 5e c4 31 3d
       -0.055196594 -0.0142793935 -0.04128407 0.04340016
0003e0 11 96 01 be 1d ef 4b bd d0 59 66 3d 40 62 e4 bc
       -0.12654902 -0.049788583 0.056237996 -0.02787888
0003f0 9a bc 10 3d 4a 94 90 3d dc 3d fc bd 34 b5 df 3d
       0.035336114 0.07059534 -0.12316486 0.10923234

trunk.2.bias f4 [256]
000000 fa 33 aa bd 1f 3c 5e bd 34 75 a3 3d f5 fe 7b bd
       -0.08310695 -0.054256555 0.07981339 -0.061522443
000010 85 d5 51 be 66 5e 93 3d 7b aa a5 bd 39 ff ce bd
       -0.20491607 0.071957394 -0.08089157 -0.101072736
000020 89 3f 9a bd 6d 57 28 be a8 d5 37 3e 24 a6 09 be
       -0.075316496 -0.164396 0.17952597 -0.13442284
000030 58 d8 d8 bd 33 ef b6 bd de b9 42 bd c8 23 e9 bd
       -0.10588139 -0.089323424 -0.047540538 -0.11383778
000040 5a 05 e1 bd 24 ad 67 3f 72 64 d3 bd 92 f0 73 bd
       -0.10987349 0.90498567 -0.10321893 -0.059555598
000050 64 ed 44 bd 84 ca 83 bd 33 1f 71 3e 62 13 1f be
       -0.048077956 -0.06435111 0.23547058 -0.15534738
000060 7d 98 1f 3e ee 4a 29 3f f0 21 b9 bd 66 cb 82 bd
       0.15585513 0.6612996 -0.09039676 -0.063864514
000070 40 e6 69 3f 63 3c 38 be e3 50 5c 3e 6f 3c b5 bd
       0.9136696 -0.17991786 0.21515231 -0.088494174
000080 b4 42 1e be 93 bf 8e bd ed 9c 36 be 54 8d 07 bd
       -0.15455133 -0.06970134 -0.178333 -0.033093765
000090 5f 82 eb bd ff 00 df 3d b8 2c df 3e 73 43 92 bd
       -0.11499476 0.10888862 0.43588805 -0.07141771
0000a0 5c 38 e2 3e b8 12 0b 3e ba ae 2c 3e 90 51 93 bd
       0.44183624 0.1358136 0.16863528 -0.07193291
0000b0 f9 09 83 bd 1d 47 b1 bc 05 3e 12 be 1a cb 2a be
       -0.063983865 -0.021640355 -0.14281471 -0.1667904
0000c0 0a 79 be bd 87 b2 32 3f a9 02 d9 bd f8 2d 10 3e
       -0.0930043 0.6980366 -0.105962105 0.14080036
0000d0 61 5b 3b 3e b1 91 5a bd f3 b7 d9 3e 9d 0a a2 bd
       0.18296577 -0.0533616 0.42523155 -0.079121806
0000e0 f4 18 1d bd 0e 27 1c be a1 06 f7 bd 86 c9 98 bd
       -0.038353875 -0.15249273 -0.12061811 -0.074603125
0000f0 be 7d 62 bd 4e 27 3f 3e dd 55 9b bd cb c1 9e bd
       -0.0552957 0.18667337 -0.075847365 -0.07751807
000100 8a 34 2e bd 00 5c f6 bd 16 35 3f bd c3 6a 86 bd
       -0.042530574 -0.12029266 -0.046681486 -0.06563332
000110 56 9b 19 3f ac 77 1b 3f ad 3b 18 bd 64 d8 e9 3e
       0.6000265 0.6072948 -0.037166286 0.45672905
000120 7f 9e ce bd 13 40 5c bd 4c ed 9a bd b2 12 4d 3d
       -0.100888245 -0.053772043 -0.07564792 0.050066657
000130 04 bd c8 bd 00 44 20 be 69 7a a8 3d 8e a3 d6 bd
       -0.09801677 -0.1565094 0.08226473 -0.10480414
000140 37 0a 84 be f5 39 ef 3d b9 62 e1 bd 2b 1f 83 bd
       -0.25789043 0.11680976 -0.11005158 -0.06402429
000150 ba 63 7a 3e 0b 20 a9 3c ee 19 df bd 9c 5a 1d 3e
       0.24452105 0.020645162 -0.108936176 0.15366596
000160 d8 ca 50 bd 91 12 16 bc 98 9c 33 3e 68 22 0c bd
       -0.050974697 -0.0091597 0.17540205 -0.0342125
000170 42 19 71 3e 34 76 4d 3e e6 6b 89 3c 01 cd cc bd
       0.23544791 0.20064622 0.016775083 -0.10000039
000180 5f db de be 53 c0 7b bd 1c a4 92 bd 5b 03 b3 3e
       -0.43526742 -0.06146271 -0.07160208 0.34963498
000190 81 b8 04 3f 05 b5 0f be 29 be 1f bd 95 44 45 be
       0.5184403 -0.14033897 -0.03899971 -0.19264443
0001a0 3f d5 c8 bd 2f 1f 8a bd 65 e2 c6 bd 17 b1 47 be
       -0.098062985 -0.06744229 -0.0971115 -0.19501148
0001b0 8a 5c bd bd a8 d3 d2 bd 70 00 19 bd 7d 26 3c bd
       -0.09246166 -0.102942765 -0.037353933 -0.045935143
0001c0 39 df a1 bd 22 7c 9e be df c2 61 3d ae 15 a6 bd
       -0.079039045 -0.3095408 0.055117484 -0.08109604
0001d0 94 3b 19 3d 87 99 6b 3d b0 7c ae 3d 28 2f bf 3b
       0.037410334 0.057519462 0.08519876 0.005834479
0001e0 14 65 90 bd 9e 2d d8 bd a8 1e 74 be 06 bd cb bd
       -0.07050529 -0.10555576 -0.2383982 -0.09948163
0001f0 d2 bf c5 3c bc 80 5b bd 78 57 a5 3d 85 66 59 bd
       0.024139319 -0.053589568 0.08073324 -0.053076286
000200 7c 51 f3 bd 44 c0 e7 3d d9 73 7f 3f 19 db 1b 3e
       -0.11880776 0.11315969 0.99786144 0.15220298
000210 ce d3 91 bd 3f 2e 58 be fc 61 b4 bd 7f 87 dd be
       -0.07120477 -0.21111391 -0.088077515 -0.43267438
000220 53 59 5a bd 32 e4 42 bd 59 3a 16 bd ac 84 b3 3b
       -0.053307842 -0.047580905 -0.03667674 0.005478462
000230 ef d7 9c 3d 19 81 f4 bd 35 9d d1 bd f4 cb 30 be
       0.076583736 -0.11938686 -0.10235063 -0.17265302
000240 19 fc 65 3d 4d fa c8 bd ad fb fa bd 1a 18 66 be
       0.056148622 -0.09813366 -0.122550346 -0.22470132
000250 7a 39 cf bd a6 a2 b8 bd 8f 32 3b 3c 00 74 87 bd
       -0.10118385 -0.09015398 0.011425628 -0.06613922
000260 48 0e 3a be 87 93 d8 bd 0d a6 ef bd 0e 0c a5 bd
       -0.1816951 -0.105750136 -0.117015935 -0.0805894
000270 b7 3e 9a 3d 75 61 5b 3e 3a 54 c6 bd 00 d6 dd bd
       0.07531493 0.21423896 -0.09684034 -0.10831833
000280 e7 f7 b4 3e 4e 34 ab bd 67 25 2b be f8 ef 0b be
       0.35345384 -0.08359586 -0.16713487 -0.1366576
000290 46 bc e8 3e 08 0c 34 be 3b ea 16 3e 2d 44 90 bd
       0.4545614 -0.17582715 0.1473779 -0.070442535
0002a0 b9 0d f0 3b 5d 00 54 bd c5 7c 80 bd eb f1 ac 3d
       0.0073258546 -0.05175816 -0.06273798 0.0844458
0002b0 98 6f ee bc 20 50 c0 bd 49 6a 3a bd 72 be 27 be
       -0.029105946 -0.09390283 -0.045511518 -0.16381243
0002c0 7d 3b 52 be e7 88 d8 3d f3 38 d8 bd b7 94 28 3f
       -0.20530505 0.10572987 -0.10557737 0.6585192
0002d0 cf 9b 2d 3e 58 91 84 bd 58 09 76 bd fe fe 8a bd
       0.16953968 -0.064730346 -0.060067505 -0.06786917
0002e0 8b f4 88 3c 46 b8 5a bd 96 d7 0a be 67 ab 39 bd
       0.01671817 -0.053398393 -0.13558802 -0.045329478
0002f0 b4 37 af bd a6 32 57 3f 85 0d 38 3f 69 33 dc bc
       -0.085555464 0.8406166 0.7189563 -0.026879983
000300 51 20 8b bd 04 c8 d1 3d 54 aa 5f 3e 23 92 9e bc
       -0.06793273 0.10243228 0.21842319 -0.019356793
000310 db f4 31 bd ab aa 26 3d 31 68 d6 bd c5 97 55 bd
       -0.043446403 0.040690105 -0.10469092 -0.05214669
000320 eb 2e 14 bc 37 77 15 be f6 be 6e 3d 76 9d 9f 3d
       -0.009044389 -0.14596258 0.058287583 0.07793705
000330 3a 49 be bd a4 6d 1b bd 92 4f e6 bd b1 cd 47 bd
       -0.092913106 -0.03794636 -0.112456456 -0.048780147
000340 73 1c b5 bd 5d ea 11 bd 2a 4f 35 3e 02 52 a3 bd
       -0.08843317 -0.035623897 0.1770598 -0.07974626
000350 98 b1 db be ac 06 d4 3e 12 fa b3 3c e9 99 cd be
       -0.4290893 0.4141134 0.021969829 -0.40156487
000360 95 79 93 bd 86 9d 99 bd dd 44 ed 3e 2c d9 69 bd
       -0.07200924 -0.07500748 0.463416 -0.057091877
000370 0e 00 3b bd b8 b9 d1 3e 06 6b bb bd 59 e0 8a be
       -0.04565435 0.40962005 -0.091512725 -0.2712429
000380 da b0 7b 3d 81 ba 94 bd ab 6d 6c be 34 36 06 be
       0.061447956 -0.07262135 -0.2308871 -0.13106614
000390 97 7c 20 be 95 db d5 bd 51 b3 c6 bd 6f 04 d9 bd
       -0.15672527 -0.104422726 -0.09702171 -0.10596549
0003a0 58 2f 66 bd 5b ab e6 bc e8 41 d7 bd bb 33 87 bc
       -0.056197494 -0.02815788 -0.105106175 -0.01650416
0003b0 5c 72 78 3e d7 f8 33 bd 80 ea 89 bd e8 07 c1 bd
       0.24262375 -0.043938484 -0.067341805 -0.09425336
0003c0 d5 ed 59 3f 4e 02 4b be 3b 95 a1 bd e2 7a 51 be
       0.8512853 -0.19825098 -0.078897916 -0.20457032
0003d0 80 56 a0 3e 62 70 ec 3d e5 ec aa bd 53 69 cf 3c
       0.31315994 0.11544873 -0.08345965 0.025318777
0003e0 e4 64 68 3f 48 3c 79 bd 7e d4 6a bd 5e ef 58 bd
       0.90778947 -0.060848504 -0.057331555 -0.052962653
0003f0 95 06 d8 bd 67 97 6a 3e a4 fe 22 be a9 70 ce bd
       -0.105481304 0.22909318 -0.1591745 -0.10080082

trunk.4.weight f4 [6, 256]
000000 b6 c4 d7 bc 9b 89 6b bb 04 d1 c0 3b 06 1f ca bc
       -0.026338916 -0.0035940174 0.0058842916 -0.024672996
000010 b1 4f ef bd 74 c2 bb bc 23 b0 8f bd 68 60 4c bd
       -0.11685122 -0.02291987 -0.07016017 -0.049896628
000020 da 79 e8 bc cb 45 d2 bd da c2 f6 3c 6a 23 1d bd
       -0.028378416 -0.10267218 0.03012221 -0.03836385
000030 72 21 36 bc e6 d8 89 bd f2 a4 87 bc 7a 47 1e bc
       -0.011116372 -0.06730823 -0.016558144 -0.009660596
000040 82 dd 8e bd 34 2a 3a 3e 95 ea d3 bd 5e 02 74 bd
       -0.06975843 0.18180162 -0.10347477 -0.05957257
000050 98 51 d4 bb 29 e9 5a 3b 09 9b c4 3c 87 2d d0 bb
       -0.0064794533 0.0033403134 0.023999708 -0.0063530835
000060 90 5f 28 bc eb 72 89 3c d9 62 38 bd 03 e0 10 bd
       -0.01027669 0.01677843 -0.045016143 -0.035369884
000070 c5 4c 59 3e 54 6c 83 bd af ec d0 bc 4c d6 b6 3c
       0.21220692 -0.06417146 -0.025503485 0.022318982
000080 97 4c d2 3b c9 02 e5 bc 93 8b f1 bc 1e 12 80 3b
       0.0064178216 -0.02795543 -0.0294855 0.0039084097
000090 06 65 ff bb 65 72 b1 bb 4b 3f 90 3c 94 57 9b bd
       -0.0077940254 -0.005415248 0.017608305 -0.075850636
0000a0 b0 3f ec 3c 4e 23 25 bb 08 d7 d0 3b 55 60 5b 3a
       0.028838962 -0.0025198045 0.00637329 0.00083685416
0000b0 ef 03 26 3d 85 df 94 bd 06 7e 05 bd 94 43 69 3c
       0.040531095 -0.072691955 -0.03259089 0.014237303
0000c0 3e 5b 18 bd ac a2 3b 3c d4 8e d6 3c e9 38 d3 bc
       -0.03719639 0.011452358 0.026191153 -0.025783973
0000d0 d2 7f dd 3c f9 51 b6 bc 4b 1a 74 3c 5d 88 38 bd
       0.027038489 -0.022255884 0.014898847 -0.04505192
0000e0 8f d1 55 3d 72 0a 83 bd b8 c0 af bd 4f c3 8d bc
       0.052201804 -0.06398477 -0.0858168 -0.017305044
0000f0 93 60 f6 ba 57 2f 6d bb aa 8b 15 3d 68 36 b4 3b
       -0.0018797092 -0.0036191547 0.036510147 0.00549965
000100 ef 7e 35 3c fd 2c 62 bc 82 cd a9 bc 01 b3 d2 bc
       0.011077627 -0.013804671 -0.020727877 -0.025720121
000110 f5 29 87 3c 57 8b 2f 3d aa c3 84 bd 87 f0 2c 3d
       0.016499499 0.042857494 -0.064826325 0.042221572
000120 0d d5 ed 3c d4 88 7b bc 18 48 96 3c b2 23 20 3b
       0.029032255 -0.015352447 0.018344924 0.0024435339
000130 c1 12 a3 bd 84 f2 1d bc 07 90 71 3a f3 48 8c ba
       -0.079625614 -0.00964034 0.0009214882 -0.0010702893
000140 98 00 89 bb cf e6 9e 3c ea 5b 45 bd 5b d4 86 3d
       -0.004180979 0.019397167 -0.04818336 0.06583472
000150 ff 7e c2 3c 1c 48 e1 bb fe 52 21 3d 08 27 63 3c
       0.023742197 -0.006875051 0.03938579 0.013864286
000160 17 29 e1 3a 7d 8f 52 3c ff 79 c6 3b 7e 28 c4 3c
       0.0017178383 0.012851593 0.0060570235 0.02394509
000170 d6 05 ae ba 62 92 8a 3d 7c a5 8a bd 4f 2e bb bc
       -0.0013276886 0.067662016 -0.06769845 -0.02284923
000180 28 7e 90 ba bb 3a a8 3a 08 50 bd 3c 44 8e 3d 3d
       -0.0011023926 0.0012834886 0.023109451 0.046278253
000190 57 78 1e 3d 3b 3e dc bb da 96 28 3c f9 ed 81 bc
       0.038688984 -0.0067212856 0.010289872 -0.015860545
0001a0 7c 39 59 bd 29 70 42 bc 6d 4d bf bb ad ba 9e 3b
       -0.053033337 -0.011867561 -0.0058380873 0.004844031
0001b0 61 8c 1e 3c 2b d7 03 bd 99 60 8a bd 93 aa 68 bb
       0.009677024 -0.032187622 -0.06756706 -0.003550206
0001c0 e9 76 8a bd de ad bb bb 88 7d 93 3c 32 d4 81 bd
       -0.067609616 -0.0057275137 0.018004194 -0.06339301
0001d0 16 fe 01 bd 24 a6 aa bc 3c 70 74 bd 70 3e 6a bd
       -0.031736456 -0.020831175 -0.059677348 -0.05718845
0001e0 c5 03 c9 bd b2 e1 0e bd 01 18 27 3b 74 cf a0 bc
       -0.09815172 -0.03488321 0.0025496485 -0.019630171
0001f0 72 79 0a bd 2f e7 a7 3c 20 ee cf bc 58 b9 93 bc
       -0.033807226 0.02049598 -0.025382102 -0.018032715
000200 8a 01 04 3c 66 21 bb bb ba 53 78 3e d4 40 00 bc
       0.008057008 -0.0057107685 0.24250689 -0.007827956
000210 40 d6 00 bd 41 bf 0f bd e2 fe dd 3b e9 ff 0a bd
       -0.031454325 -0.035094503 0.006774769 -0.03393546
000220 ea 32 11 3d a3 a7 62 bd 5c a1 0e 3d 02 65 28 bd
       0.035448946 -0.055335652 0.034821853 -0.041111954
000230 a0 66 f4 3c 44 17 9f bd df 28 d6 bc de a1 c4 bb
       0.029834092 -0.077681094 -0.026142536 -0.0060007414
000240 cc 0b 28 3c 5d 80 d8 bc e5 4b 9d bb 47 c4 ac bc
       0.010256719 -0.026428396 -0.004800307 -0.021089686
000250 9c a4 c3 bc a4 b5 b1 ba a6 17 6c 3d 11 27 19 3c
       -0.023882203 -0.0013558161 0.05763974 0.009347693
000260 96 80 95 3c b8 35 7a bd f1 9b 16 bc 13 e7 96 bb
       0.018249791 -0.061086386 -0.009192453 -0.004605183
000270 5b 4c 88 3c ab 21 12 bd 7b ab 1a 3d 24 bf ab bc
       0.016637972 -0.03567664 0.037761193 -0.020965166
000280 a6 19 69 bd 90 c1 4e bd ff 06 01 3d 23 d8 a1 bd
       -0.056909226 -0.050477564 0.031500813 -0.07902553
000290 ec ae 41 3b c2 3e af bd f7 7e 03 3c 76 96 7c bc
       0.0029553724 -0.08556892 0.008025876 -0.015416732
0002a0 de c4 f8 bc 90 48 5f bd dc ba 65 37 59 c4 94 3b
       -0.030367311 -0.05451256 1.369297e-05 0.004540008
0002b0 e1 95 f1 bc 68 5c 0b 3d a0 99 43 3c 86 1a 10 bc
       -0.029490413 0.034023672 0.0119384825 -0.008795386
0002c0 8c 42 30 3d fb 90 ed bd 12 89 da bc de 08 5d 3d
       0.043032214 -0.115999185 -0.026676688 0.053963535
0002d0 81 e3 d1 3b e7 f7 b9 3b a8 d4 bb bd 5b 4b be bd
       0.0064052944 0.005675304 -0.0917142 -0.09291717
0002e0 ea 70 8a 3c 26 57 b0 bd 9d 34 c2 bc 07 d7 8b bc
       0.016899545 -0.08610372 -0.023706729 -0.017070306
0002f0 d8 6e c0 bc b1 b0 be 3d 9f 2d a7 3d 10 c7 92 3c
       -0.023490354 0.09311045 0.081629984 0.017917186
000300 1a 41 af 3b c4 95 0c bd 13 b1 ff 3c b4 95 78 bd
       0.005348337 -0.034322515 0.031212365 -0.060689643
000310 9d 9b d9 3c 45 7c 91 bd de ec 78 bc cb 13 2a bd
       0.02656346 -0.07103781 -0.015193192 -0.041522782
000320 d4 7d 24 bc 39 24 8f bc 62 3c c1 39 6a d6 6e bc
       -0.010039765 -0.017473327 0.00036856817 -0.0145774875
000330 eb 1f 3d bd 39 fb 7d 3c fc 30 0a bd b5 66 82 bc
       -0.046173017 0.015501791 -0.03373812 -0.015918115
000340 f9 6a 05 bc 26 c2 7d bd 1b 97 5d 3d 69 68 83 3c
       -0.00814318 -0.061952733 0.054099184 0.016040998
000350 67 ef c5 3c a9 ed 9b 3c 23 25 ab 3b 74 b4 42 bc
       0.024162007 0.019034224 0.005222933 -0.011883844
000360 6a a8 60 3d 27 d2 d3 3c f1 eb 27 3c 4e 64 4b 3d
       0.054848112 0.025857044 0.010249124 0.049656205
000370 11 5e ed bc ad b2 51 bc ec 79 bc bd c4 f5 c6 bc
       -0.028975518 -0.012798947 -0.09202942 -0.024287112
000380 29 a5 75 bb ce 4f 86 bc 6c a5 99 3b 79 c7 db bc
       -0.0037482476 -0.016395476 0.0046889093 -0.026828514
000390 f2 31 c9 bb 68 80 de bc 42 33 63 bd 17 12 dd bc
       -0.006139987 -0.027160838 -0.055468805 -0.026986165
0003a0 e4 2e 00 bd 6b 2f 94 bd 0e 7c 00 bd a0 51 2c bd
       -0.03129472 -0.07235607 -0.031368308 -0.04207003
0003b0 5f 29 af 3c aa e7 d3 bc 7f ae f1 3c 36 c8 7f bb
       0.021382032 -0.025867302 0.029502152 -0.0039029247
0003c0 aa 70 1c 3e c3 a3 99 bc 71 2f 00 bd c4 90 68 bd
       0.15277353 -0.018754845 -0.031295244 -0.056778684
0003d0 0e 07 89 3c 5c 44 ad bb e6 da db 3c 60 2c 0a be
       0.016726997 -0.00528769 0.026837777 -0.1349349
0003e0 a6 a0 35 3e 26 f9 aa bc 10 da 63 bc 2b 75 76 3c
       0.17737064 -0.020870756 -0.013906971 0.015042583
0003f0 e7 0e ce 3c 83 df 0a bd a2 ed 1c bd ce 05 c9 bd
       0.02515359 -0.033904564 -0.03831256 -0.0981556

trunk.4.bias f4 [6]
000000 bd 86 88 3f ec 12 a4 be a4 4f 92 3e a0 38 47 bf
       1.0666119 -0.32045686 0.28576386 -0.7782078
000010 47 2a b2 be 37 e6 08 3e
       -0.3479788 0.1336907
