models/Env3/SAC_256_A5_S3_P/local_episode_2550_reward_200.000000.pt (torch, 297002 bytes, 6 tensors)

trunk.0.weight f4 [256, 23]
00000000: e681 49bd beac 933d 485f 82bd 6596 3abe
00000010: 9df1 bdbc eb47 2f3d 1e28 9c3d beea f4bd
00000020: 5343 353e 6d4a 17be b1a9 fc3c d7c2 f2bc
00000030: 2ee4 abbd b808 1cbe 7ad1 d0bd 95cf 7fbc
00000040: 8cbc 7ebd be8a bcbc 72d4 67bd 77bb 5e3c
00000050: 3536 58bd cb48 ee3d 3031 13bd ec84 b1be
00000060: 5385 9abe 2ff2 96bd a526 55be 1cd9 ecbd
00000070: 765c 5cbe 64e6 44be b588 04bd 9f73 de3d
00000080: 8ea3 163e ff98 373e e060 993d 2d84 ae3c
00000090: e381 093e a043 fc3d 23c0 763d 25ed a83d
000000a0: 6ae2 b9bc ae8f 0dbe e84f 93be 6ae2 313c
000000b0: d08e 463e 5525 cebd ed04 4dbd cc8a 143d
000000c0: 3868 2fbd fc26 74bd 49a2 dcbd 2119 e2bd
000000d0: 8daa a2bd 0648 343e 7428 9bbc e38d 8037
000000e0: 8609 ab3d 4310 8cbc f47a 86bd 7dfb 4fbe
000000f0: aa66 8abd eb5a 3a3e fb04 60bd 820e cdbc
00000100: 96d1 2dbe e5fc 56be cc7b 81be d64c 70be
00000110: 1e97 1dbe bf97 293e 84c7 803d a0d1 46bd
00000120: 773d 2bbd edd7 78bd 2bfc 323d 6cd0 443d
00000130: 1a39 debc 147a 10bd 6f00 8bbc 907a e9bd
00000140: 4f41 91bd a668 d9bd 343e 80bc cad5 b8bd
00000150: 3d75 d9bd 046d 7f3d c1be b3bd d19d 47bd
00000160: 2aac cfbd 0802 3dbd 255d cabc 192a a7bd
00000170: 9388 19be 085f 20be c918 83bd dace 5ebc
00000180: 7efe 8fbd 2664 953c 52fa 243d f373 373c
00000190: 9906 09bb b7b6 b03b 6abe 94be 3d9a aabe
000001a0: 3fda 07bd 4169 b73d b5ca d13d c754 2e3d
000001b0: ecaf 74bd a1be a6bd 543d 883c 7002 4fbd
000001c0: e0fb 0b3e 3108 cebd 273b 23be 0af0 3bbe
000001d0: 67e5 35be 6add 35bd 1702 69bd 0577 cc3c
000001e0: 009c 56bc 9bb9 393d 62d2 1d3e fdaa f33b
000001f0: 6fe4 03be 97fa cebd c03e 53bd e7e8 93bc
00000200: b789 5bbd a4a9 cc3d d6df 72bd 1b45 53be
00000210: 8dd3 263d ad8e 01be cd88 7abd 240f dd3d
00000220: 7296 d83d c4f7 f93b 45f4 d63b 2186 8abd
00000230: 534c e2bd 176f 1fbe 9bb4 45be a681 c6bc
00000240: cf7a 373d 4401 0dbe 783c 25be 60c3 27be
00000250: 6ddb 29be 327c 9bbe 48aa 96be 438b 97be
00000260: 4e57 1c3e 42db 153e f931 203c 6c51 1a3d
00000270: 2875 273e db03 593d ff9d ed3c 3b60 3b3d
00000280: ee75 6ebd 8b7e 0b3e 5f28 e23d abe7 6ebd
00000290: 7add f8bd cb06 9abe 6b2e 1ebe d791 59be
000002a0: 3e59 80bc 074b 3cbe 0904 fcbd 1d58 043c
000002b0: f1cb 21be 8202 2dbe cde4 babe c4e8 56bc
000002c0: 10a1 033e 05f4 0f3e b1eb 293e 2551 a6bd
000002d0: 408e 183c d452 613d 104a e6bc 23f4 42bd
000002e0: c308 ffbd c8be 9a39 2f63 88bd 10ae 5bbd
000002f0: c68d 74be 3655 55bd 5cf3 20bd 97e4 00bb
00000300: 03e9 163d 990b 3cbd 71b7 933c ff4a 4abd
00000310: 7d79 cbbd acc0 68bc 599c 7fbc 86ae 213d
00000320: a332 2bbe ee6e 75bd 3e1c 07be 533c 9e3d
00000330: 066f e93c 5e81 033d 32fa 52bd ec03 57bd
00000340: 4092 f73c 3066 97bd 3522 82bc 7f92 a8bd
00000350: b770 87bd 25d1 95bd 465f 61bd a68e 6d3c
00000360: 6424 63bd d569 88bd 42c5 abbd 9162 a5bc
00000370: f045 933a 4d9a 653d 446d 7dbd 6900 afbd
00000380: 9f1c a1bc 26ab 403d 0634 a3bc 9969 a6bc
00000390: 7a9d 6fbc 9542 26be 7a04 8dbd dfd0 b7be
000003a0: 9bb3 45be 64cb 3c3e f2f5 a5bb 09bd 013d
000003b0: 473b 34bc 6550 08bd 9da4 15be 4755 10bd
000003c0: 2df9 3a3e d499 8d3e 4d92 eb3c f04d 1ebe
000003d0: 6d48 c1bd d007 0bbd 455a a83d 1182 73be
000003e0: 9c3d 69be fd1d 0cbe c3bb dd3d e0f7 5d3d
000003f0: 9793 0cba e4f5 43bc 2c44 f0bd 4799 67bd
-0.049196146 0.07210682 -0.0636583 -0.18221433 -0.0231865 0.042793196 0.07624839 -0.11958836
0.17701463 -0.14774485 0.030842634 -0.029633923 -0.08393131 -0.15237701 -0.101962045 -0.015613456
-0.06219153 -0.023015376 -0.056599088 0.0135945 -0.05278607 0.11634978 -0.03593558 -0.34671724
-0.30179843 -0.073704116 -0.20815523 -0.11564848 -0.21519646 -0.19228512 -0.032356936 0.10861897
0.14710829 0.17929457 0.074891806 0.02130326 0.13428454 0.12317586 0.06024183 0.08248357
-0.02269097 -0.1382434 -0.287719 0.010857204 0.19390416 -0.10065714 -0.050053526 0.03626518
-0.042824 -0.05960749 -0.10773141 -0.11039949 -0.07942686 0.176056 -0.018940188 1.532486e-05
0.08351426 -0.017097598 -0.0656642 -0.20310779 -0.06757863 0.18198745 -0.05469225 -0.025031332
-0.16974482 -0.20994909 -0.25289762 -0.2346681 -0.15389678 0.16561793 0.062880546 -0.048539758
-0.041806664 -0.060752798 0.043697517 0.04805033 -0.027126838 -0.035272673 -0.01696798 -0.1140033
-0.07092535 -0.10615663 -0.01565466 -0.09025152 -0.106180646 0.062359825 -0.08776618 -0.04873449
-0.101402596 -0.046144515 -0.024702618 -0.08162326 -0.14993505 -0.15661252 -0.06401212 -0.013599122
-0.070309624 0.018236231 0.040277787 0.011197078 -0.0020908474 0.005392875 -0.29051524 -0.333208
-0.03316712 0.089556225 0.102437414 0.04256132 -0.059738085 -0.08141828 0.016630806 -0.050539434
0.13670301 -0.10060156 -0.15940534 -0.18353286 -0.17763291 -0.04440061 -0.05688676 0.024959097
-0.013098717 0.045343023 0.15412286 0.007436155 -0.12880109 -0.1010639 -0.051573515 -0.018055392
-0.053598132 0.09993294 -0.059295498 -0.2063183 0.040729094 -0.12652083 -0.06116562 0.107939035
0.1057557 0.007628413 0.006559881 -0.06763864 -0.11049714 -0.15569721 -0.19307177 -0.024231743
0.044794854 -0.13770014 -0.16136348 -0.16383123 -0.1658761 -0.3036819 -0.2942679 -0.29598436
0.15267679 0.14634421 0.009777539 0.037675306 0.16353285 0.052982192 0.029006002 0.04574607
-0.058217935 0.13622491 0.110428564 -0.058326405 -0.12151618 -0.30083308 -0.15447395 -0.2124704
-0.015667554 -0.18387996 -0.12305457 0.0080776485 -0.15800454 -0.16895488 -0.36502686 -0.013117019
0.12854409 0.1405793 0.16593815 -0.08120946 0.009311259 0.05501063 -0.028111488 -0.04759611
-0.12452843 0.00029515312 -0.06659543 -0.053632796 -0.23882207 -0.052083217 -0.039294586 -0.00196675
0.03684331 -0.045909498 0.018031808 -0.049387928 -0.099352814 -0.014206093 -0.015601241 0.03947308
-0.16718535 -0.059920244 -0.13194367 0.0772635 0.028495323 0.032105796 -0.051508136 -0.052493975
0.030221105 -0.073925376 -0.015885452 -0.08231067 -0.066132955 -0.07315282 -0.0550225 0.014499342
-0.055454627 -0.06660811 -0.08387233 -0.020188602 0.0011236053 0.056055356 -0.061871782 -0.08545
-0.019666968 0.04703822 -0.019922268 -0.020314025 -0.014624948 -0.16236337 -0.068856195 -0.35901543
-0.19306795 0.18436962 -0.0050647194 0.03167442 -0.011000461 -0.033279795 -0.14613576 -0.035237577
0.18259116 0.27656424 0.028756285 -0.15459418 -0.09437642 -0.033942997 0.082203425 -0.23780085
-0.22777408 -0.13683315 0.10826828 0.05419147 -0.0005362569 -0.01196048 -0.11731753 -0.05654266

trunk.0.bias f4 [256]
00000000: 893c c83b 0b39 6dbe 2c13 f83d 7f01 f33b
00000010: c09d c7bc 8121 dbbc 4477 f1bc e615 533d
00000020: e60b c7bc 0fe3 35bd 6229 f9bd de14 3cbd
00000030: 30a5 12be e608 9fbb 6d12 82bc 1aee 12bd
00000040: 0aec 863e ca92 ae3d b6a0 d4bc 0b83 2d3e
00000050: 4873 0ebd 7448 eabc baaf cbbd 91fb 83bd
00000060: 6dbd bbbc 5f11 8c3d 71ae 15bd 162d 24bd
00000070: 3a0a f1bc 8092 1c3d 8ba9 1b3c bcc7 1cbd
00000080: 5ee1 20bd 322a 8cbc b5da e1bb d477 0ebd
00000090: 0000 0000 9637 1bbd ade6 a4bc 0000 0000
000000a0: 1c67 c9bc 0d67 b9bc aa40 7dbd 41af c2bc
000000b0: 179a d73d c18a 9a3c cc8a a9bc 24d1 99bc
000000c0: 153c 75bd ac80 80bc 0000 0000 9d0e 82bc
000000d0: c149 9dbc 0000 0000 e9ea 063e 9a3f 70bc
000000e0: 4105 17bd e3bd 02be d739 a5bc b87f 5c3c
000000f0: bf61 ddbd 7172 bc3d 349c cfbc fa6d 9dbc
00000100: f480 4abd 0000 0000 4116 83bc e668 0dbe
00000110: c8e4 81bc 2b26 1fbd 990d de3a 6bcd bbbc
00000120: ec02 963e 8680 063d 7031 4cbd 599c 81bc
00000130: 4b67 91bd 4dab 9dbc f7e0 2ebd 65ef b5bc
00000140: 2ed2 1dbc dbb8 30bc 6ed4 673a c0c6 8abc
00000150: 16d5 d2bc d394 74bc 591c 82bc 8d72 0f3e
00000160: 8672 d33d 1e6f 913e c5b5 2c3e 44ef 0abd
00000170: 40b5 6e3d c8dc 1bbd 6d7f 5abd fa83 613e
00000180: 2e68 a3bc 07ef 81bc 9142 88bc 5f65 fd3a
00000190: 4433 fc3d 91f9 9bbd f7e5 c1bc eeaf 253c
000001a0: a99f e5bb 380b c63d 2629 933e dc6e b63d
000001b0: 515b 6ebc 7cb9 523d 38b6 f23c 1b00 dabd
000001c0: 0000 0000 72fe 993d aa27 053d edc1 20bd
000001d0: 202f f3bc 93c1 f3bc 1e0f f8bc 3b4f d7bd
000001e0: a157 22bc d8b2 7fbc cf65 b13d a19b 39bd
000001f0: d594 19bd 1cf3 49bc 2fc1 393a 8838 a6bc
00000200: 95ca d4bd 4291 67bd 6b60 cdbc 8016 0bbd
00000210: f4e0 3bbd 1537 e4bc d02e 31bd c85e 163e
00000220: ce50 1a3b 46b8 13bd cf8e 89bc 2ded 0fbd
00000230: 8787 123f 6c51 7d3d dc2b 9bbc 0cf2 afbc
00000240: aed5 703e a5a5 98bd 4717 c2bd b2cb 62bd
00000250: e863 b1bd 9c62 ebbc 0000 0000 b4f9 e939
00000260: 0749 7a3d b858 8b3d f502 b9bc a3c9 43bd
00000270: 5c71 5f3d 9601 5cbc 37fb 0cbc 50dc 133e
00000280: 602a d33c 168d 40bd 236f afbc e966 533c
00000290: 0000 0000 7bf2 44bd 37e5 ecba f7f2 bebc
000002a0: 15ff 8e3e 691e 8bbd bc82 28bd cec9 75bc
000002b0: d2dd 81bc 5aa3 1d3e 4ed2 98bd da35 a6bc
000002c0: 7301 15bd ab86 c3bc 5b50 c93d efb3 bebc
000002d0: c04a 44bd 0748 76bc eb20 093c 1ea0 6f3e
000002e0: 3ff4 8e3d a7b3 183e 02fe 11bd 6c12 a9bc
000002f0: cfdd 503e 17a8 d8bc 92d9 833d d06c c2bc
00000300: 6a5f cfbc 28e8 c7bc 7085 993b 6d0c 463e
00000310: b685 4a3d 6d68 c33d b645 34bd bb70 9a3d
00000320: 8cb6 fe3d 0000 0000 949f a2bd 0193 51bc
00000330: 0c69 bdbc f3f0 81bc 3d7d b9bc 64df 24bd
00000340: dfb2 03bd bc48 afbc cb06 2b3e d672 1cbd
00000350: fe17 adbc c6f4 963d 0d54 7c3d 4808 29bc
00000360: f1aa 3bbd 47a2 3abd 0000 0000 5657 793e
00000370: 0d68 abba db3b babd 9796 8d3e d3be 1cbd
00000380: 30d5 a5bc 9f4d ecbd 4a52 9a3b 27fe 363e
00000390: a792 95bc ca95 b1bb 88c1 8bbd 8321 eb3d
000003a0: 640a d8bc 307a 963d 3221 e33e 9517 82bc
000003b0: efd2 b4bc e103 97bc f2bc 4bbd 4c91 45bc
000003c0: 0000 0000 95f9 63bd 72c2 76bc ae86 cd3c
000003d0: cc01 d53c 68a6 92bb 5d6b f2bc db49 debc
000003e0: 9c07 dfbd 1ace 343d 99c7 f5bc e1d6 1ebc
000003f0: aba1 adbd 2c6c 26bc c305 00be 00ce 33bd
0.006110732 -0.23166291 0.12113032 0.00741595 -0.024367213 -0.026749374 -0.029475816 0.051534556
-0.024297666 -0.044405993 -0.12166096 -0.045918338 -0.14320827 -0.0048533557 -0.015877927 -0.035871603
0.2635196 0.085240915 -0.02595554 0.1694452 -0.03477791 -0.028599001 -0.099456266 -0.06444467
-0.022917474 0.06839251 -0.036543313 -0.04008206 -0.029423822 0.03822565 0.009500871 -0.03827642
-0.039277427 -0.017109964 -0.006892527 -0.034782246 0.0 -0.037894808 -0.020129526 0.0
-0.0245853 -0.022632146 -0.061829247 -0.023765208 0.10527437 0.018864991 -0.020696066 -0.018776484
-0.05987175 -0.015686356 0.0 -0.015876109 -0.019200208 0.0 0.13175549 -0.014663601
-0.036870245 -0.12767749 -0.020169182 0.013458185 -0.10809659 0.092015155 -0.025343038 -0.01921748
-0.049439386 0.0 -0.016001822 -0.13809547 -0.015856162 -0.03885476 0.0016941308 -0.0229251
0.29299104 0.032837413 -0.049851835 -0.015821623 -0.0709978 -0.019246722 -0.042695012 -0.022208879
-0.00963263 -0.0107862605 0.0008843605 -0.016940475 -0.025736373 -0.014928061 -0.015882658 0.14008541
0.10324578 0.28405088 0.16866215 -0.033919588 0.058278322 -0.03805235 -0.05334418 0.22023001
-0.019947138 -0.015861047 -0.016633304 0.0019332579 0.12314466 -0.076159604 -0.023669226 0.010112746
-0.0070075584 0.096701086 0.2874233 0.089078635 -0.014548139 0.051446423 0.029627904 -0.10644551
0.0 0.07519235 0.03250853 -0.039247442 -0.029685557 -0.02975539 -0.030280646 -0.10513159
-0.009908588 -0.0156066045 0.086619966 -0.045314435 -0.037495453 -0.012326028 0.00070859765 -0.020290628
-0.10390202 -0.056535013 -0.02507039 -0.033957005 -0.04586883 -0.027858296 -0.043257535 0.14684594
0.0023546699 -0.03606441 -0.01679173 -0.035138298 0.5723805 0.061845228 -0.018941812 -0.021477722
0.23519012 -0.07453469 -0.09477096 -0.05537004 -0.08661634 -0.028733544 0.0 0.00044627266
0.0611048 0.06804031 -0.022584418 -0.047799718 0.054551467 -0.0134281125 -0.008604816 0.14439511
0.025777042 -0.04700955 -0.021415299 0.012902954 0.0 -0.04808281 -0.0018073682 -0.023309214
0.27928987 -0.0679291 -0.041140303 -0.015001727 -0.015852842 0.15394345 -0.074619874 -0.02028935
-0.036378335 -0.023867926 0.0982978 -0.023279158 -0.04792285 -0.015031821 0.008369665 0.23400924
0.0698018 0.14912282 -0.03564263 -0.020638667 0.20397113 -0.026447339 0.064379826 -0.023733526
-0.025314052 -0.024402693 0.0046850964 0.19340678 0.049443923 0.09541402 -0.044011794 0.07541033
0.12437162 0.0 -0.07940593 -0.012791396 -0.02312138 -0.015861964 -0.022642726 -0.040252104
-0.032153007 -0.021396987 0.1670181 -0.038195454 -0.021129604 0.073709056 0.061603595 -0.010316916
-0.04581732 -0.045564916 0.0 0.24349722 -0.0013077274 -0.09093448 0.27653953 -0.03826792
-0.020243257 -0.115382425 0.0047095167 0.17870389 -0.018258406 -0.0054194676 -0.068240225 0.11481001
-0.026372142 0.07347524 0.44361264 -0.015880385 -0.022073237 -0.018434467 -0.04974074 -0.012058567
0.0 -0.05565794 -0.015061008 0.025088634 0.026001833 -0.0044754036 -0.02959221 -0.027134826
-0.10890123 0.044141866 -0.030002402 -0.009694786 -0.08478101 -0.010157626 -0.12502198 -0.04389763

trunk.2.weight f4 [256, 256]
00000000: fab2 c0bd 8e4d 483c 4053 71bc ae0a 74bd
00000010: a544 22bd 6f41 79bc f967 323d dac5 41bd
00000020: ae1a 0b3e b496 8b3b 886a 3ebb 242f a2bd
00000030: 9548 13bc 925a 82bd 32dd 46bc 4cdd c8bd
00000040: a5cf 6cbd 0367 0cbd 2ac5 31bd 8c0a 34be
00000050: bcad d5bd c925 793d cf57 583d daee ac3c
00000060: 317c 09bc 0ab6 743c 05e7 9ebd 2c2f 3dbd
00000070: 5a48 cc3d 0218 99bd 8cc1 8bbd 5f7e 04bd
00000080: c09d 083d 25ae afbd b9dc db3c 00bf 153d
00000090: d0e7 663a 65c5 b8bb 263f c23d e819 9e3c
000000a0: b7d0 fe3d fff3 113d c2a1 e5bd 3167 e13d
000000b0: a821 d13d 3943 853b 7136 52bd 15ab f2ba
000000c0: 793f 093d 1cba 8bbd 2375 b1bd 92a4 dcbd
000000d0: 99ee cfbc 8881 f1bd 50cc 143d 28d8 833d
000000e0: 3800 0e3d 9818 1e3d 92b0 8bbd a3e9 cebd
000000f0: a3bd dcbd 30f9 6abd 22db 03be 22ab 85bd
00000100: 3c16 20ba e46f b83d ef52 243d 826e 333b
00000110: 2a5b 5e3d 7ec0 debc 00eb d3bd 8a7f 483d
00000120: 3e4a 33bd 42e1 1f3d 254f 03bd ea21 1a3d
00000130: bd61 58bd d1e0 aa3b fe23 57bd 3c6e b33d
00000140: d89b 91bd 3219 9dbd a0da 4b3d 64e0 d6bb
00000150: 3528 8e3d 6d02 0dbd b623 4f3d a36b 86bd
00000160: 793d 09be 78b1 afbd 1fb4 913c 9e60 03be
00000170: cf07 243d 155b 173c f708 b2bc 4fee 1ebe
00000180: 6a79 c7bc 8874 4e3b 3c0f 64bb c202 00bd
00000190: 2a0c 4abc 0a7d 14bd f1ba 83bd a237 84bd
000001a0: 81ba b53d 204c 01bd 90d5 5fbd 5f8b c3bd
000001b0: 23b2 debd 44fe d2bd 74e8 60bd cf42 71bc
000001c0: 55b7 563d b352 18bd c8a8 213e 3204 9fba
000001d0: 07e7 4a3c 1ac5 5abc 82e0 ac3d 31a2 9bbd
000001e0: 8eb3 07bc 329e 1fbc df57 b43d 85e8 c8bc
000001f0: f9c8 94bb 93e4 d6bb 0869 6abc 7e26 43bd
00000200: dc67 0d3d e4e5 c1bc d302 1ebd af7f 503c
00000210: 259f cf3c 53bc c7bb b724 3bbd 13da 60bd
00000220: 5c42 ee3c bb7c 93bc 9eef 2c3d 4ee2 9e3c
00000230: 6477 f9bd 64cc 6dbd 5952 aebc bff1 cabd
00000240: e3a6 06bd 8871 453d 71eb 95bd 2d4a 07bd
00000250: dbc3 b93c bf15 52bd 962c c33d cf7f b6bc
00000260: 9c3b 09bd a7ab ea3d 8842 89bc e301 73bd
00000270: 2a92 ac3d 11aa 9e3c 8668 fc3b 3d85 bd3b
00000280: 4b13 c6bd 7492 99bd 7ec8 4cbc ce80 0cbd
00000290: d694 dd3c f0ee 11bd 87da 623d faea 23bc
000002a0: bb02 1dbe 7c4b b53c 00dc 0bbd f4f1 1abc
000002b0: 688e bbbd f323 bcbd aff4 543d 7427 c23b
000002c0: 5f9a b53d 5058 283d 8d9d 90bb a283 b63d
000002d0: cee2 c03b 7a51 f7bc c03d d9bd bec3 f9bc
000002e0: 3f64 b8bd bf64 cbbd 8199 883d dee9 9fbc
000002f0: 5a29 66b8 6b67 513d 317d b4bc d8f7 b4bd
00000300: e1b4 d03d cc07 633c 71d9 bd3c 067d cbbd
00000310: 9747 7ebd e88d 333d fe42 313d 0c00 e2bd
00000320: a909 0ebc b802 b43b e33e b4bd e815 103e
00000330: 77d6 53bb 5885 043c 3d8f adbc 2a43 07bd
00000340: 74fb 7d3c 4736 88bd 1a3e 78bd 11d3 a0b9
00000350: 5786 cdbd df1c 04bc ee68 adbd 2824 c5bd
00000360: 68e1 adbd ee68 753c 07a4 793d f933 b33c
00000370: 6181 f2bd 0bdb 94bd a866 14bc fadc 22be
00000380: 97e6 44bd 730c d7bd 1073 a93b 7d44 7aba
00000390: 4660 c9bd df06 8dbd 5968 9ebc 5732 d3bc
000003a0: 82ca 35bd 5a7e b43d 6023 dfbc d85c 453d
000003b0: 647f f13c 9d4d ba3c cbb1 50bc 4a0e d03d
000003c0: 6a64 433c 2946 be3d b16c 163d 1a4a a9bd
000003d0: d315 62bd 1ef4 69bc 7c19 29bd 5ec4 313d
000003e0: 1196 01be 1def 4bbd d059 663d 4062 e4bc
000003f0: 9abc 103d 4a94 903d dc3d fcbd 34b5 df3d
-0.09409137 0.012225522 -0.014729321 -0.059580497 -0.039616246 -0.0152133545 0.043556187 -0.047307827
0.13584396 0.0042599086 -0.0029055197 -0.079191476 -0.008989473 -0.06364931 -0.012137698 -0.09807834
-0.057815213 -0.034277927 -0.04340092 -0.17582148 -0.10433528 0.06082705 0.052818116 0.021109987
-0.008391426 0.01493598 -0.07758907 -0.046187565 0.099747375 -0.07475282 -0.068240255 -0.03234708
0.033353567 -0.08578137 0.026838647 0.036559105 0.00088083465 -0.0056387656 0.09484701 0.019299462
0.12442153 0.035633083 -0.112124935 0.1100601 0.102114975 0.0040668515 -0.05132145 -0.0018514121
0.033507798 -0.06822607 -0.0866492 -0.10773577 -0.025382327 -0.11792284 0.03632766 0.06437713
0.034668177 0.038597673 -0.068207875 -0.101031564 -0.10778358 -0.05736655 -0.12876561 -0.065267816
-0.0006106829 0.090057164 0.040118154 0.00273791 0.05428616 -0.027191397 -0.10347557 0.048949756
-0.043771975 0.039033182 -0.0320579 0.03763 -0.052827585 0.0052147885 -0.05252456 0.0876126
-0.07109803 -0.07670821 0.049769044 -0.006557511 0.06941263 -0.03442614 0.050571166 -0.06563499
-0.13402356 -0.08578771 0.017786084 -0.12829825 0.04004651 0.009238024 -0.02173279 -0.15520595
-0.024349887 0.0031502564 -0.003479912 -0.03125263 -0.012332002 -0.03625206 -0.064321406 -0.064559236
0.088734634 -0.03156674 -0.05464703 -0.09548067 -0.10873821 -0.103024036 -0.054909185 -0.014725401
0.052420933 -0.037188243 0.15787041 -0.0012131988 0.012384183 -0.013352657 0.08441259 -0.07599295
-0.008282555 -0.009742307 0.088058226 -0.024524936 -0.0045405594 -0.00655801 -0.014307268 -0.04764413
0.034522876 -0.02366919 -0.038576912 0.012725755 0.02534444 -0.006095448 -0.04568931 -0.05489547
0.029084377 -0.018003812 0.042220704 0.01939502 -0.12180975 -0.05805625 -0.0212795 -0.09909391
-0.032874 0.048203975 -0.073202975 -0.033029724 0.022676399 -0.05129027 0.095299885 -0.02227774
-0.033504114 0.11458521 -0.016755357 -0.05932797 0.08426316 0.019368203 0.00770289 0.0057837055
-0.096716486 -0.07498637 -0.012498973 -0.034302525 0.02704851 -0.03562826 0.055384185 -0.010004753
-0.15333073 0.02213072 -0.034145355 -0.0094571 -0.09158021 -0.09186544 0.05199116 0.0059251133
0.088673346 0.041099846 -0.0044133128 0.08911826 0.005886412 -0.030190218 -0.10607481 -0.030488845
-0.090034954 -0.09931325 0.066699035 -0.019520696 -5.4874785e-05 0.051124018 -0.022032352 -0.08836335
0.1019075 0.013856839 0.023174973 -0.09935956 -0.062079992 0.043836504 0.04327678 -0.11035165
-0.008669295 0.005493488 -0.08801057 0.14070857 -0.0032323876 0.008088432 -0.021186465 -0.033023037
0.015501846 -0.066509776 -0.0606061 -0.00030674835 -0.10035389 -0.008063524 -0.084672794 -0.09626037
-0.084902585 0.0149786305 0.060947444 0.021875368 -0.11841083 -0.07268342 -0.009057678 -0.15904608
-0.04807147 -0.105004214 0.005171187 -0.0009546949 -0.09832816 -0.06886076 -0.019336866 -0.02578084
-0.04438258 0.08813162 -0.027238548 0.048184246 0.02947969 0.022742087 -0.012737702 0.101589754
0.011925796 0.09290726 0.03672475 -0.08266087 -0.055196594 -0.0142793935 -0.04128407 0.04340016
-0.12654902 -0.049788583 0.056237996 -0.02787888 0.035336114 0.07059534 -0.12316486 0.10923234

trunk.2.bias f4 [256]
00000000: 32bb cabd 8566 88bd f4f6 073e 1787 cebd
00000010: 0cd7 80be f4e3 583e 7baa a5bd 39ff cebd
00000020: 893f 9abd 049b 38be 5fc6 2a3e c570 13be
00000030: 0405 06be 33ef b6bd 22e4 81bd c6e6 06be
00000040: db44 02be 2b03 713f 17a2 9abd 0766 a7bd
00000050: b996 213d f2fd aebd 7f1f 743e f956 2fbe
00000060: fa90 d93d c59c 193f c82e 06be 66cb 82bd
00000070: a200 753f 14c3 5cbe 8b8e 9e3d 6f3c b5bd
00000080: 1ff7 35be 93bf 8ebd ed9c 36be 3352 efbc
00000090: 9ea0 a8bd ff00 df3d 415c 013f 7343 92bd
000000a0: aa97 f43e d2b5 533e 3a09 463e bfd8 b3bd
000000b0: f909 83bd 0026 2cbd 9d81 22be 8e0e 2cbe
000000c0: a882 35be 14e8 353f 30bd 02be 0fbc 673d
000000d0: 8a31 c63d 5e73 c9bd 3573 e83e 9d0a a2bd
000000e0: a05c 4cbd 5764 2cbe d4c9 1bbe 86c9 98bd
000000f0: d208 9bbd c8e1 393e d8d1 55be cbc1 9ebd
00000100: 8a34 2ebd 5269 ffbd 4355 d83b 34c8 13be
00000110: 4327 303f 6822 123f ad3b 18bd ba06 a53e
00000120: afb9 dfbd 43e6 8ebd 7c74 bbbd de31 73bc
00000130: 275f 80bd 0044 20be ad00 d53d 8ea3 d6bd
00000140: 0bbd 92be 0430 653d 1d0d 10be 64a6 a3bd
00000150: 14c8 193e 00ad adbc ee19 dfbd a495 ba3d
00000160: 9cec 88bd 9941 9ebc a563 853e 3d83 49bd
00000170: 3f67 b63d 9a96 673d 24a7 10bd 284b 35be
00000180: 28fd e6be 5e67 9ebd 82c0 b2bd fbbf a23e
00000190: 4c02 0e3f 88c7 febd 66cc 60bd 26d6 6fbe
000001a0: 9189 0cbe 2f1f 8abd 9b68 e7bd 17b1 47be
000001b0: 0cd2 f8bd a8d3 d2bd b250 a3bd e434 7dbd
000001c0: ca88 cbbd f287 dabe ed77 ad3d ae15 a6bd
000001d0: 716f b03c 0f54 a13d f003 853d 07a1 a8bc
000001e0: 1e1d a6bd 4915 18be a81e 74be 06bd cbbd
000001f0: fad0 94bc bc80 5bbd 4e43 e93d 170a 5fbd
00000200: 4a38 10be 0b7d c13d c2b2 863f 805f 5f3e
00000210: 3fa8 d3bd 8c50 80be fc61 b4bd 7f87 ddbe
00000220: 9e1c cebd bef8 81bd ba22 92bd 8276 243d
00000230: efd7 9c3d 1981 f4bd 359d d1bd 0517 39be
00000240: 4e7d 673d 8588 e0bc 19c2 49bd 9914 78be
00000250: 0384 e2bd a6a2 b8bd b6ef 243e 8897 2bbe
00000260: e157 61be abd6 89bd 9816 08be abab 8cbd
00000270: daf9 913d 0117 c33e eaa7 02be 8372 41be
00000280: b49d 8b3e 4e34 abbd 6725 2bbe f8ef 0bbe
00000290: 1e89 ef3e eb6b 78be 5101 d93d 2d44 90bd
000002a0: be9c 96bd ef17 96bd cd18 d83c 6ef5 583c
000002b0: bac2 63bd 2050 c0bd 1a53 7bbd 72be 27be
000002c0: 8d7b 62be 1d3c bf3d 9a5c f8bc 944f 2c3f
000002d0: bc68 593e 5891 84bd 5809 76bd fefe 8abd
000002e0: ce15 fcbc 6bbe 94bd ae73 22be 67ab 39bd
000002f0: b437 afbd d11d 603f 578a 453f 47cb 4dbd
00000300: 5120 8bbd 1464 0a3e a497 9f3e 7557 10bd
00000310: 3903 73bd 2d38 d93d b4a1 5abd 12fc 413d
00000320: 918d e33c 77ae 33be 48f5 b03c 1ce0 143e
00000330: f125 ebbd 2f11 6abd 2c06 9abd b1cd 47bd
00000340: db2a f6bd 1429 25bd 034b 063e 923d dcbd
00000350: 98b1 dbbe 78b8 bd3e 8e01 09bc d333 b2be
00000360: 97b0 e4bd bf24 babd 5035 f63e cf73 95bd
00000370: 0e00 3bbd 89bf f43e 2512 41be 2f95 a3be
00000380: 04c6 983c f7af 0cbe ab6d 6cbe 3436 06be
00000390: 977c 20be 95db d5bd 9a75 f5bd f246 c5bc
000003a0: 582f 66bd 1864 34bd f7dc 18be bb33 87bc
000003b0: 5d77 6d3e d7f8 33bd 80ea 89bd e807 c1bd
000003c0: c8fc 5f3f 82a4 86be 3b95 a1bd e27a 51be
000003d0: ca1c 813e 465c 403e 9273 cbbd b08e 38bd
000003e0: 0173 723f 5525 9dbd 7ed4 6abd c2e8 4bbe
000003f0: 90d7 15be 6eb3 d13e 141a 43be 4a5c 0cbe
-0.09898986 -0.06660179 0.13277799 -0.1008436 -0.25164068 0.21180707 -0.08089157 -0.101072736
-0.075316496 -0.18027884 0.16677235 -0.14398487 -0.13087851 -0.089323424 -0.06342341 -0.1317397
-0.12721579 0.9414546 -0.075504474 -0.08173757 0.03945038 -0.0854453 0.2384014 -0.17123021
0.10623355 0.60004836 -0.13103783 -0.063864514 0.9570409 -0.21558791 0.07742032 -0.088494174
-0.1777005 -0.06970134 -0.178333 -0.029214 -0.0823376 0.10888862 0.50531393 -0.07141771
0.4777196 0.20674828 0.19339457 -0.087815754 -0.063983865 -0.042028427 -0.15869756 -0.16802427
-0.17725623 0.7105725 -0.12767482 0.05657583 0.096774176 -0.09836458 0.45400396 -0.079121806
-0.04989302 -0.16835152 -0.1521371 -0.074603125 -0.07570042 0.18152535 -0.2088083 -0.07751807
-0.042530574 -0.1247126 0.006601961 -0.1443184 0.6880991 0.5708375 -0.037166286 0.32231694
-0.10924088 -0.06977513 -0.09153077 -0.014843432 -0.06268149 -0.1565094 0.104005195 -0.10480414
-0.28659853 0.055953994 -0.14067502 -0.07990721 0.1501773 -0.021200657 -0.108936176 0.09110573
-0.06685755 -0.019318389 0.26052585 -0.049197424 0.089064114 0.05654011 -0.035315648 -0.17704451
-0.45115018 -0.077345595 -0.08728124 0.31787094 0.55472255 -0.12440401 -0.05488243 -0.23421535
-0.13724352 -0.06744229 -0.11299249 -0.19501148 -0.12149438 -0.102942765 -0.07974376 -0.06181802
-0.099382 -0.42681843 0.0847014 -0.08109604 0.021537514 0.07877361 0.06494892 -0.020584596
-0.081110224 -0.1485187 -0.2383982 -0.09948163 -0.018166054 -0.053589568 0.113897905 -0.05445298
-0.14083973 0.09447678 1.0523303 0.21813774 -0.10334825 -0.25061452 -0.088077515 -0.43267438
-0.10064052 -0.06346272 -0.0713553 0.04015208 0.076583736 -0.11938686 -0.10235063 -0.18075188
0.056515984 -0.027408848 -0.04925737 -0.24226607 -0.110603355 -0.09015398 0.16107067 -0.16757023
-0.2200618 -0.06730398 -0.13289869 -0.068686806 0.071277335 0.38103488 -0.12759367 -0.18891339
0.27268755 -0.08359586 -0.16713487 -0.1366576 0.467843 -0.24259917 0.10595954 -0.070442535
-0.07354115 -0.07328784 0.026379013 0.013242109 -0.055605628 -0.09390283 -0.06135855 -0.16381243
-0.22117443 0.093376376 -0.030317593 0.67308927 0.21231359 -0.064730346 -0.060067505 -0.06786917
-0.030772116 -0.07262882 -0.15864441 -0.045329478 -0.085555464 0.87545496 0.77164215 -0.05024269
-0.06793273 0.1351474 0.3117038 -0.035239656 -0.059329245 0.10606418 -0.05337687 0.047359534
0.027777465 -0.17547022 0.021601334 0.14538616 -0.11481846 -0.057145294 -0.075207084 -0.048780147
-0.12019893 -0.04032238 0.13114552 -0.10753931 -0.4290893 0.370548 -0.008362187 -0.34805164
-0.11166494 -0.0908904 0.4808755 -0.07297479 -0.04565435 0.4780238 -0.18854578 -0.31949756
0.018649109 -0.13739 -0.2308871 -0.13106614 -0.15672527 -0.104422726 -0.11985321 -0.02408168
-0.056197494 -0.04404077 -0.14928041 -0.01650416 0.23190065 -0.043938484 -0.067341805 -0.09425336
0.8749509 -0.26297385 -0.078897916 -0.20457032 0.25217277 0.187852 -0.09934153 -0.045057952
0.9470673 -0.07673136 -0.057331555 -0.19913009 -0.14633012 0.40957206 -0.19052917 -0.1370708

trunk.4.weight f4 [6, 256]
00000000: bcf0 2cbd 4f0d 9bbc 4f7f a03b 2519 2d3d
00000010: 6a3e c4bd 88a3 aebc 23b0 8fbd 6860 4cbd
00000020: da79 e8bc 7bbf b1bd 946a 40bd 8484 53bd
00000030: df3e 70bd e6d8 89bd aada 04bd bb91 bbbc
00000040: bbf9 9cbd b95f 1e3e bfd0 acbd cc69 97bd
00000050: 6e93 213c 7adb 82bc e8ad fd3b c326 b6bc
00000060: 1a8c ed3b fbb8 e3ba 3584 d6bd 03e0 10bd
00000070: f652 4b3e 43a9 0abd b921 3dbd 4cd6 b63c
00000080: c343 973c c902 e5bc 938b f1bc 528b ab3b
00000090: 238f ab3c 6572 b1bb 212f 813a 9457 9bbd
000000a0: ab76 843c 304c 29bd f333 ecbd 9f83 76bc
000000b0: ef03 263d 6550 a5bd c76e 46bd 8cf1 42bc
000000c0: 0bbb 05bc 47c7 0b3c 4192 54bb 7738 bbbc
000000d0: 8e8f aebb dc99 d8bb 5370 14bd 5d88 38bd
000000e0: 2c35 3e3d 6991 a3bd d494 f0bd 4fc3 8dbc
000000f0: 72bf 3ebd fa9b 9ebc 7f84 7cbd 6836 b43b
00000100: ef7e 353c f3d3 0f3c 5bc4 9cbd 3c87 37bd
00000110: 7109 c6bb b660 683d aac3 84bd bec7 443d
00000120: cede a93c 26a7 09bc e15a 213b 1b2c 0cbb
00000130: ba3f 0cbe 84f2 1dbc 6ee0 0dbb f348 8cba
00000140: d852 a4bd 9034 133d 88ba 31bc 3a9b 4c3d
00000150: 2c87 e5bb f5a9 42bd fe52 213d 24ad 843b
00000160: 512f 903c 2bcc dabc 7e34 fabc 50c1 99bb
00000170: 80a0 be3c 00be 3f3d 8ae1 6abd 19db 59bc
00000180: c929 723c 3c30 6fbc 12ee 79ba 8d0b 743c
00000190: 1118 153d c26d 85bc 4667 d63c a765 223b
000001a0: c7a5 90bd 2970 42bc e6dd b1bc adba 9e3b
000001b0: b4b4 70bc 2bd7 03bd add2 a7bd 5c09 4a3c
000001c0: 7c7f d0bd dea2 7abc f82e 01bd 32d4 81bd
000001d0: fd0f 98bc 075e 7f3b 17cd 29bd 7be5 5bbc
000001e0: e992 afbd d91f 77bd 0118 273b 74cf a0bc
000001f0: 413d 5cbd 2fe7 a73c d1ac 3abd a344 4ebd
00000200: ef1b 0e3c 51b3 9dbd 0c0c 7c3e cd7e 53bc
00000210: 120a 483c 0d3e 48bd e2fe dd3b e9ff 0abd
00000220: 9812 993c 22b7 8dbd b0a4 b2bd 9b55 513c
00000230: a066 f43c 4417 9fbd df28 d6bc 016a 83bc
00000240: 0883 67bb df71 6d3b 0657 a6bd c753 aabc
00000250: 13cf 62bc a4b5 b1ba 69ad 8cba 6642 de3b
00000260: 2497 42bd b9c3 a6bd 153b db3b a302 3cbd
00000270: 1527 a83c ef81 16bb dab1 863c 257b 98bd
00000280: 2808 e2bc 90c1 4ebd ff06 013d 23d8 a1bd
00000290: 88f7 dd3b 3d39 c0bd b823 86bc 7696 7cbc
000002a0: 4235 063c 7eb7 04bd a360 d6bb a5e9 b73c
000002b0: ce3a 25bd 685c 0b3d e0d7 263a 861a 10bc
000002c0: 0bfb 6f3d 5539 84bc 69b8 48bd 7566 493d
000002d0: bfb9 023c e7f7 b93b a8d4 bbbd 5b4b bebd
000002e0: b76d fabc 74d0 dbbd 38db 94bc 07d7 8bbc
000002f0: d86e c0bc fa71 9f3c 1ee4 fd3c 57f3 c2bc
00000300: 1a41 af3b 2f87 cdbc f61f 68bc 6a87 37bd
00000310: 99d9 2d3d fbbb 7abc afe2 cd3c a361 ec3a
00000320: 9618 b7bb cb62 17bb 45e9 2cbc 068e 043b
00000330: 1f02 37bc 449e 8b3c 8d85 46b9 b566 82bc
00000340: b76a 05bc b222 91bd 05b0 ab3c a0e2 09bd
00000350: 67ef c53c bac3 6a3c 98ec 2cbd 37d2 64bc
00000360: 5b5c 313d 416f 233c 861d 18bc 215f 0a3d
00000370: 115e edbc 2368 193d ff88 80bd 3c20 dd3c
00000380: 7d45 39bd 44b6 0dbd 6ca5 993b 79c7 dbbc
00000390: f231 c9bb 6880 debc d2d5 37bd c264 de3c
000003a0: e42e 00bd 6e50 67bd d0e9 eabc a051 2cbd
000003b0: 3bd5 2cbd aae7 d3bc 7fae f13c 36c8 7fbb
000003c0: baa5 0b3e c179 99bd 712f 00bd c490 68bd
000003d0: f020 24bc 9b19 bebc d861 3b3c c174 25be
000003e0: 591f 0f3e 2b8a 16bd 10da 63bc 089b 60bc
000003f0: 6f31 23bc 4953 e6bb d450 5fbd aa77 7bbd
-0.04222177 -0.018927244 0.004897989 0.042260308 -0.09582217 -0.021318212 -0.07016017 -0.049896628
-0.028378416 -0.086791 -0.04697664 -0.05164005 -0.05865371 -0.06730823 -0.032435097 -0.022896638
-0.0766482 0.15466203 -0.08438253 -0.07393226 0.00986181 -0.015973795 0.0077416785 -0.02223528
0.0072493674 -0.0017373854 -0.10474435 -0.035369884 0.19855866 -0.033852827 -0.04617474 0.022318982
0.018464928 -0.02795543 -0.0294855 0.005235114 0.020942276 -0.005415248 0.0009855964 -0.075850636
0.016169867 -0.041332424 -0.11533346 -0.015046029 0.040531095 -0.08071975 -0.04844549 -0.01189841
-0.00816227 0.008531398 -0.0032435807 -0.022854073 -0.0053271716 -0.0066101383 -0.036239933 -0.04505192
0.046437427 -0.07986719 -0.11747137 -0.017305044 -0.046569295 -0.019361485 -0.061649796 0.00549965
0.011077627 0.00877856 -0.07654639 -0.044806704 -0.006043606 0.056732856 -0.064826325 0.04804205
0.020736124 -0.008401668 0.0024620818 -0.0021388594 -0.13696185 -0.00964034 -0.0021648663 -0.0010702893
-0.08023614 0.0359388 -0.010847695 0.049952723 -0.007004639 -0.047525365 0.03938579 0.0040489603
0.017600687 -0.026708683 -0.030542608 -0.004692234 0.023269892 0.046812057 -0.057343997 -0.013296866
0.01478047 -0.014598902 -0.00095340714 0.014895332 0.036399905 -0.016287688 0.026172291 0.0024779828
-0.070628695 -0.011867561 -0.021712255 0.004844031 -0.0146915205 -0.032187622 -0.0819448 0.012331333
-0.10180566 -0.01529762 -0.031538934 -0.06339301 -0.018562311 0.0038965957 -0.041455355 -0.013421412
-0.08572943 -0.060333107 0.0025496485 -0.019630171 -0.053769354 0.02049598 -0.045574967 -0.050358426
0.008673652 -0.077002175 0.2461397 -0.01290865 0.012209432 -0.0488873 0.006774769 -0.03393546
0.018685624 -0.069196954 -0.08722818 0.012776758 0.029834092 -0.077681094 -0.026142536 -0.016041758
-0.0035325903 0.0036231203 -0.08122067 -0.020791901 -0.013843316 -0.0013558161 -0.0010732833 0.0067828177
-0.04750742 -0.081428 0.0066903927 -0.045900952 0.020526448 -0.002296563 0.016442228 -0.07445363
-0.02759178 -0.050477564 0.031500813 -0.07902553 0.006773893 -0.09385917 -0.016374454 -0.015416732
0.008191409 -0.032401554 -0.0065422817 0.022450278 -0.040339284 0.034023672 0.00063645653 -0.008795386
0.058589023 -0.01614062 -0.049003992 0.049169976 0.007978856 0.005675304 -0.0917142 -0.09291717
-0.030569894 -0.10733119 -0.018170938 -0.017070306 -0.023490354 0.019463528 0.030992564 -0.023797674
0.005348337 -0.025088875 -0.014167776 -0.044806875 0.042443845 -0.015303607 0.025132505 0.0018034469
-0.0055876477 -0.0023099657 -0.010553663 0.0020226254 -0.011169939 0.01704324 -0.00018932503 -0.015918115
-0.008143119 -0.07086696 0.020957956 -0.033663392 0.024162007 0.014328891 -0.04221782 -0.013966135
0.043300968 0.0099752555 -0.009284383 0.03378213 -0.028975518 0.03745283 -0.0627613 0.02699291
-0.045232285 -0.03459765 0.0046889093 -0.026828514 -0.006139987 -0.027160838 -0.04488165 0.027147654
-0.03129472 -0.056473188 -0.028675944 -0.04207003 -0.04219554 -0.025867302 0.029502152 -0.0039029247
0.13637438 -0.07493926 -0.031295244 -0.056778684 -0.010017619 -0.023205569 0.011436902 -0.1615782
0.13976802 -0.03675286 -0.013906971 -0.013708837 -0.009960516 -0.0070289713 -0.054520443 -0.061393417

trunk.4.bias f4 [6]
00000000: f86e 943f 2748 c5be b4d8 8a3e 99c9 8cbf
00000010: 013d 05bf 7213 5f3e
1.1596365 -0.3853161 0.27118456 -1.0999023 -0.5204621 0.21784762
