models/Env1/DDPG_256_A5_S1_P/local_episode_1800_reward_200.000000.pt (torch, 293866 bytes, 6 tensors)

linear1.weight f4 [256, 23]
000000 ff d9 a8 bd 97 04 0c 3e 8f 8a 8d 3d bf e8 b3 bd
       -0.082447045 0.13673626 0.069111936 -0.08784627
000010 ae 3c 71 be 99 75 c5 bd 86 45 ad 3d 96 fc a1 3d
       -0.23558304 -0.096415706 0.08460526 0.07909505
000020 b6 4f 57 bd 6b e1 93 3c 0f 9d 07 3d 7d 6c 19 be
       -0.052566253 0.018051824 0.033108767 -0.14982791
000030 8d 8a b4 3d 16 cb 7a 3d 71 1c 86 3d f0 5b 69 bc
       0.08815489 0.061228834 0.065483935 -0.014243111
000040 57 52 40 3c db f1 d3 3d bc 93 dd 3b 46 7c 48 be
       0.011738381 0.10348865 0.006761996 -0.19578657
000050 e5 02 15 3e cf 26 00 be 9d 14 e6 3d 2d 59 ff bc
       0.14551885 -0.12514804 0.112344004 -0.031170452
000060 e4 30 37 bd 12 af 1a be 19 42 57 be 27 dd 3d 3e
       -0.04472436 -0.15105847 -0.21021308 0.18541394
000070 d2 27 f4 bd 19 7f b8 bd 22 a1 94 3d 60 7d 9e ba
       -0.119216576 -0.09008617 0.07257296 -0.0012091808
000080 2b 4d 30 3e 5d b5 b9 bd 93 40 00 3d e7 3f d8 bd
       0.17216937 -0.090677954 0.031311583 -0.105590634
000090 33 22 d5 bd a2 5e 20 be 58 88 a3 3d 54 c5 8d 3d
       -0.104069136 -0.156611 0.0798499 0.06922403
0000a0 c6 c4 02 3c 42 61 2f 3e d9 ed 22 3e ff f6 9b 3d
       0.007981485 0.17126945 0.15911044 0.0761547
0000b0 ea 94 74 3c 0c dc 22 be ec a6 84 3d 6f a0 88 3a
       0.014928082 -0.15904254 0.0647715 0.001042379
0000c0 00 8b fc 3d 42 ab 3b 3e ae 8e 29 be 26 e8 51 3e
       0.123312 0.18327048 -0.16558334 0.20498714
0000d0 5c e8 9f bd 14 50 cc 3d 0c ad c4 3c 70 52 db 3d
       -0.07807991 0.09976211 0.024008296 0.10709083
0000e0 f3 b2 86 bd 09 b9 38 3c 91 e2 8f 3d 4d 8c 3e 3e
       -0.065771006 0.011274585 0.07025636 0.18608208
0000f0 ea 11 00 3d e1 1b 36 3e 40 83 6a bc 3d 7b 02 3d
       0.031267084 0.17784072 -0.014313519 0.03185581
000100 6f ef 16 3e b9 af 5c 3e 60 d2 01 3e 1f fb 0d 3d
       0.14739774 0.21551408 0.12677908 0.034663316
000110 f0 88 72 bd ea 96 ee bd 3f 78 49 3d 5b 9a 88 3d
       -0.059212625 -0.11649878 0.04918694 0.06670066
000120 19 0b 11 bc 24 71 4a be 4f ac 24 be 3a 90 b3 bd
       -0.008852744 -0.19769722 -0.16081356 -0.087677434
000130 b0 1d 28 bd 47 30 23 3c 0c 2d 51 be 06 3d 47 bd
       -0.041043937 0.009960241 -0.2042734 -0.04864218
000140 3f f4 0e 3e 4a 84 47 3e 90 ea 1c 3e ef ab f1 bd
       0.1396036 0.19484058 0.15323853 -0.11800372
000150 f2 e2 4c 3e 9b 65 86 bd 1e 58 27 be 12 00 0e be
       0.20008448 -0.065623485 -0.16342208 -0.13867214
000160 1a 88 11 3b 42 f1 b5 bd 82 64 19 be d3 5d e1 bd
       0.0022206367 -0.08883907 -0.14979747 -0.11004224
000170 32 df a3 bd cb 42 86 bd 95 d3 5e bd ec bb 43 be
       -0.080015555 -0.065557085 -0.054401 -0.19114655
000180 6b 7e a4 3c 4c 42 60 be e6 56 25 3e 11 2d 26 3e
       0.020079812 -0.2190029 0.1614643 0.16228129
000190 4c dd d3 3d b7 47 fa 3d 95 98 10 be 69 82 04 3e
       0.103449434 0.1222071 -0.14120705 0.12940373
0001a0 cc 9f a2 bd 7c df 30 bd 5c e2 94 bd 5f 8d 26 3e
       -0.07940635 -0.04318188 -0.07269737 0.16264866
0001b0 6b e2 7c bc ad c0 30 be 0d 53 fe bd 46 d3 26 3e
       -0.015434842 -0.17261 -0.124181844 0.16291532
0001c0 a1 c5 07 3e 59 07 44 3d 3a 53 4c be cd 72 3d be
       0.13258983 0.04785857 -0.19953623 -0.18500824
0001d0 cb 6d a0 bd 5d 23 48 be e2 d5 2f 3e 2a af 0d be
       -0.07833441 -0.1954474 0.17171434 -0.13836351
0001e0 8b bb ae bd b1 8c 4a be 83 23 20 3d f2 ac 79 3d
       -0.08531865 -0.19780232 0.039096367 0.06095595
0001f0 e4 54 31 bb bd ea b4 bd 12 4c 33 3e dc 79 0c bd
       -0.0027058655 -0.08833835 0.17509487 -0.0342959
000200 47 50 2d 3e 1a 24 26 3e f7 b3 bd bc cb 82 16 3d
       0.16925155 0.16224709 -0.023157103 0.036745828
000210 66 02 14 be 4d e2 4d 3e a2 02 a2 3d 9c d9 11 3c
       -0.1445404 0.20105858 0.079106584 0.00890198
000220 6f b3 9c bc 2f e0 bd bd e4 3f 3e 3e 9b 7f f0 bd
       -0.01912853 -0.09271275 0.1857906 -0.11743089
000230 ad e5 de 3d 30 95 14 3e 94 ce 60 3d fb 6d 3a be
       0.10883651 0.14510036 0.05488451 -0.18206017
000240 9b 57 f0 3d dd e2 93 3d 80 13 4a bd 4f 99 c7 bd
       0.117354594 0.07221005 -0.049335003 -0.09746038
000250 4e 1b 1c bd 4f 2f 17 bd bd 79 2b 3e 3b a3 03 be
       -0.038111977 -0.03691035 0.16745658 -0.12855236
000260 78 9b 17 3e b2 7b 44 bd 0b 00 80 3d a2 a8 61 3c
       0.148054 -0.047969528 0.06250008 0.013773115
000270 76 d5 84 bd b3 1d 17 3d 53 ae ca bb 3b 00 6d 3e
       -0.06486027 0.036893558 -0.006185332 0.23144619
000280 9e d7 34 be 88 42 d5 bd b8 3a 8f 3d 19 ce 40 3c
       -0.17660376 -0.104130805 0.069936216 0.0117678875
000290 b2 1e e8 3d a4 0f 06 3e ea fa 95 3c 39 d8 43 bc
       0.1133398 0.13091904 0.018308122 -0.011953407
0002a0 de 8a 13 be 4b 03 67 3e 86 56 4b 3c 0d a6 1f 3e
       -0.14408442 0.2255985 0.0124107655 0.15590687
0002b0 ca c8 f7 bc e6 c0 3d 3e 27 20 17 be 5d 1d 19 be
       -0.03024711 0.18530616 -0.14758359 -0.14952607
0002c0 b4 5d b9 bd 4b d9 97 3c 06 3c 3b bb c2 e1 20 be
       -0.090510756 0.01853623 -0.0028569712 -0.1571112
0002d0 75 ac 23 3e f3 a1 1d be b0 8c b5 3d 1f ba fb 3c
       0.15983756 -0.1539381 0.08864725 0.030728398
0002e0 a6 4e 1b 3e 58 c0 34 be 52 9b 5d be 1b b6 03 3e
       0.15166721 -0.17651498 -0.21641281 0.12862436
0002f0 48 13 03 be da ea 6b b9 e5 ee e8 3d f3 d7 25 bd
       -0.12800324 -0.00022498835 0.113736905 -0.04048915
000300 d1 c8 bc 3d 9f 0f 56 be 72 e2 45 be 82 02 37 3e
       0.0921799 -0.20904396 -0.19324663 0.1787205
000310 de 4b 44 be be 88 5a 3c 71 ed 76 bc 33 79 ec 3d
       -0.19169566 0.013338266 -0.015071259 0.115465544
000320 f6 23 2a 3e 3e ea 81 bd 19 86 e0 bc 9a 25 92 bd
       0.1661528 -0.06343506 -0.027407693 -0.07136078
000330 5d 60 e3 bd 66 de 58 bd 1b c1 26 3e 11 d0 53 be
       -0.11102364 -0.05294647 0.16284601 -0.2068484
000340 1b 60 3c be 47 63 12 be ba ae 4a bd f1 3d 58 bd
       -0.18396036 -0.14295684 -0.04948304 -0.052793447
000350 9f 1c 30 3d 0d 0c ed 3c 5d d9 00 be 88 d8 a2 3d
       0.042996045 0.02893641 -0.12582918 0.07951456
000360 2c 42 4d 3e 7f ab 9f bd af d3 ad bc 7c a2 4d 3e
       0.20044774 -0.07796382 -0.021219103 0.20081514
000370 58 a2 6e 3c fc 68 71 bd bc d4 3e 3c 0b 86 9c bd
       0.014565073 -0.05893801 0.0116473995 -0.07642754
000380 78 30 01 bd 26 96 00 3e 24 c8 e8 bd 6b 62 63 bd
       -0.031540364 0.12557277 -0.11366299 -0.05551378
000390 ce 08 69 bc 73 18 21 be af 4a bd bd 49 60 ef 3d
       -0.014223291 -0.15731983 -0.092427604 0.11688287
0003a0 e6 81 dd 3d 10 80 53 be e7 f0 0f bd 35 f0 83 3c
       0.10815792 -0.2065432 -0.03514185 0.01610575
0003b0 6d be 71 bd 75 1f 4c 3e 18 2f 2b be b2 69 50 be
       -0.059019495 0.19933875 -0.16717184 -0.2035282
0003c0 b4 ea 7e 3d 83 49 4c be a3 bb 2e be 53 e8 05 3e
       0.06223555 -0.19949917 -0.17063765 0.13076906
0003d0 1e 1f cf 3d 68 b7 ef bd 12 e8 9f bd 00 e6 c1 3c
       0.10113357 -0.11704904 -0.07807936 0.023669243
0003e0 a8 ee 2f 3e a5 05 e3 bd 72 63 15 3d bc 6d 53 3e
       0.17180884 -0.11085061 0.03647179 0.20647329
0003f0 ee d7 42 3d 00 89 23 be b2 1e 50 be b8 4c a3 bd
       0.047569208 -0.1597023 -0.2032421 -0.07973617

linear1.bias f4 [256]
000000 e1 1b ae 3d 3b e7 67 3d 00 d9 25 3d a8 08 97 3d
       0.08501411 0.056617003 0.04049015 0.07374698
000010 2a e8 b0 3d db df 79 3d 76 2d 99 bd d3 b1 94 bd
       0.08638032 0.0610045 -0.07479374 -0.0726048
000020 92 ea 0a 3e 08 00 05 3e 55 c2 17 3e fe 84 3f bd
       0.13566044 0.12988293 0.14820226 -0.04675769
000030 6c 25 cb bd fd 22 15 3d 8d f7 90 3d 7f 30 0f bb
       -0.09919247 0.03641032 0.070784666 -0.0021848974
000040 ba 38 2d be 72 f8 0f bd 31 23 34 3d 7b 63 33 be
       -0.1691617 -0.035149045 0.043978874 -0.17518418
000050 8e fc db 3a 1d 87 8a bd b9 f6 2b 3e 8b f6 af 3d
       0.0016783641 -0.06764052 0.16793336 0.08591946
000060 b1 89 7c bd 77 81 4f bd bd 6c 03 3d 5f 65 5d 3d
       -0.06165475 -0.050660577 0.032086123 0.054051753
000070 0e 35 08 3d 40 68 19 bd b4 f9 3c be 97 57 08 3e
       0.033253722 -0.037452936 -0.18454629 0.13314663
000080 7a b2 29 3e 6c 10 7e 3d 44 f9 2c be 4d 4e 37 3e
       0.1657199 0.06202738 -0.16891962 0.17900963
000090 a6 b0 06 be 66 55 d4 bd 01 c2 3c 3d ce f3 37 3d
       -0.13153324 -0.10367851 0.046083454 0.044910245
0000a0 51 f1 0c be e3 6c 14 be b5 df 53 be 2a 5f 8c bd
       -0.1376393 -0.14494662 -0.20690806 -0.068540886
0000b0 bb 53 90 3d 15 11 8e 3d cd b8 41 3e 69 e3 cd 3d
       0.0704722 0.06936852 0.18918152 0.10053141
0000c0 81 e4 38 be c4 46 9e bd b6 35 be bc ca f1 01 be
       -0.18055917 -0.07728341 -0.02321897 -0.12689891
0000d0 aa 10 52 3d 6b 4c a9 bc ba 3e 8c 3d 46 c4 00 3e
       0.051285423 -0.020666322 0.06847902 0.12574872
0000e0 a3 30 fd 3d 15 df 37 3b cb 55 bc bd 80 7f 89 3d
       0.12362792 0.0028056551 -0.09196051 0.06713772
0000f0 d4 9e fe bd c0 a8 36 3c 43 e1 2c bd a1 31 22 3d
       -0.12432638 0.011148632 -0.042207014 0.03959811
000100 b6 e3 ec bd c4 fd f2 3d d2 53 46 be 99 ed bd bb
       -0.1156687 0.11864808 -0.19367912 -0.005796146
000110 c7 9c 3b bb 50 0b 8b 3d e7 36 45 be 73 d6 a5 3d
       -0.0028627382 0.06789267 -0.19259225 0.080975436
000120 c2 50 d5 bc df 01 29 3e ce 16 0e 3e a6 53 53 be
       -0.026039485 0.1650462 0.13875887 -0.20637378
000130 e0 18 a5 3d 7f 15 ab 3c a8 9b 22 bd e6 d8 97 3a
       0.08061385 0.020884274 -0.039699227 0.0011585027
000140 4a 94 3c be 31 ee 1c 3d ee d2 08 be 4b ca c5 3d
       -0.18415943 0.038313095 -0.13361713 0.09657725
000150 72 d0 6d 3d e0 0f 6a 3e 20 ed fc bd c2 fc ad bd
       0.058060117 0.22857618 -0.123499155 -0.08495475
000160 64 95 b8 bd 4a 33 4f 3e ae c0 0e 3e 28 e2 2e bd
       -0.09012869 0.20234409 0.13940689 -0.04269615
000170 c5 0a d9 3c 7b ba 26 3e 50 3b 34 be 7b 25 01 be
       0.026494393 0.16282074 -0.17600751 -0.12611954
000180 c9 0a 33 3d 49 c4 00 be bc 28 36 3d 4e ba bc bc
       0.043711457 -0.12574877 0.04447244 -0.023038056
000190 b0 8c 07 3e 54 c4 02 3e 4c a0 0b be 7f d5 18 3e
       0.13237262 0.12770206 -0.13635367 0.14925192
0001a0 88 13 34 be 60 83 0f be d0 d3 28 3e cf eb 1b 3e
       -0.17585576 -0.1401496 0.1648705 0.15226673
0001b0 ea 92 21 be 0a b8 f1 bd e5 1c f2 bd d3 bb 30 bd
       -0.157787 -0.11802681 -0.118219174 -0.043147873
0001c0 c8 f7 04 be 57 31 b1 3d df 1d f1 3d 3d f3 94 3d
       -0.12985146 0.08651989 0.117732756 0.072729565
0001d0 ba 06 35 be cc 7e 5e 3e 5c 84 ee 3d 1a 65 0e 3e
       -0.17678347 0.21728057 0.11646339 0.13905755
0001e0 e2 f1 95 3d cd 58 18 3e 98 98 8a 3b 56 5f 39 3e
       0.07321526 0.14877625 0.0042296164 0.18102774
0001f0 19 a6 57 bd 0b 0f 72 bd 15 61 b5 bd b1 62 65 3d
       -0.052648637 -0.059096377 -0.088564076 0.056002323
000200 e6 84 35 3e 0e 15 b5 3d 83 cc 0d be 2c e9 93 bd
       0.17726478 0.088419065 -0.13847546 -0.072222084
000210 e4 1a 44 3d 1a f4 6c bd 60 f0 03 bd 3f e0 24 be
       0.047877207 -0.05784998 -0.03221166 -0.16101168
000220 c0 5a 8e bd f1 92 a6 3b 16 2d 27 be 67 b7 36 3e
       -0.06950903 0.0050834347 -0.16325793 0.178434
000230 6a e3 3d 3d b6 af c1 bd 9c 4b 2f be 4e 59 4f bc
       0.046359457 -0.09457342 -0.17118686 -0.012655569
000240 08 dd 8d 3c 1e a8 87 bc 4e 99 a1 3d 9d 9b c1 3d
       0.01731731 -0.016559657 0.07890569 0.09453509
000250 de 50 1c bd bb 0b 30 bd f2 c4 1e be 04 18 36 3e
       -0.03816306 -0.042979937 -0.15504816 0.17782599
000260 16 4e 36 3d de c9 45 bd 9d cf f6 3d d2 35 b3 bd
       0.044508062 -0.04828822 0.12051318 -0.087505
000270 4b c0 22 3e 88 a2 99 bd 88 a8 2c 3e e4 09 4e ba
       0.15893666 -0.075017035 0.16861165 -0.000785975
000280 b0 67 10 3e 10 55 45 3b a5 e2 91 bd 88 60 30 be
       0.14102054 0.0030110516 -0.07123307 -0.17224324
000290 20 b6 8d 3d 29 04 38 be 32 2a 0a 3c 20 5a f7 bd
       0.06919503 -0.17970337 0.008432912 -0.12077737
0002a0 e8 d1 8a 3d a8 a7 38 3e 99 86 15 be e9 db 38 3e
       0.06778318 0.18032706 -0.14602126 0.18052639
0002b0 5a 65 5a 3d 91 8b 0a be 37 b6 20 3e 90 8a 18 3e
       0.053319313 -0.13529803 0.1569451 0.14896607
0002c0 61 52 67 3d e6 bb eb 3d 9c f3 d0 3d fe 4b 91 bc
       0.056475047 0.11510448 0.10202715 -0.017736431
0002d0 c0 af 14 bd 88 ba f4 3d 02 70 e2 ba a9 1b 99 3c
       -0.03630042 0.119496405 -0.0017275813 0.018689947
0002e0 c5 96 f5 ba 31 16 9c 3d e3 74 89 3d 72 35 4d 3d
       -0.001873695 0.0762142 0.067117475 0.050099798
0002f0 bb 7b 21 bd 7f 56 6e 3d 70 7d a2 bd 02 02 18 3e
       -0.03942464 0.058187958 -0.079340816 0.14844516
000300 ea 3b 23 3c a8 35 41 be 62 26 88 3c b3 75 02 be
       0.009963015 -0.18868124 0.016619865 -0.12740211
000310 8b 91 0b be 22 fc 24 bd 5e fa 9b 3d 24 61 88 3d
       -0.13629739 -0.040279515 0.07616113 0.06659153
000320 aa 7e ec 3d 4a 25 48 3e 94 e0 93 bd f3 6f 94 3d
       0.11547597 0.19545475 -0.07220569 0.07247915
000330 99 d7 4b 3e a6 fe 8c 3d 9e ed 0f bd 49 c4 84 bc
       0.19906463 0.06884508 -0.03513872 -0.016206877
000340 8d d2 eb bc 91 a5 3c be f1 25 90 bc 40 7b 37 3e
       -0.028786922 -0.18422534 -0.017596217 0.1791811
000350 61 92 41 be 49 72 09 3d 53 06 e8 3d 72 5b 33 3e
       -0.18903495 0.033556256 0.11329331 0.17515352
000360 91 ae 42 be a2 c3 77 3d df 58 84 bd 98 af 27 3e
       -0.19011904 0.060489304 -0.06462263 0.16375577
000370 d5 b0 db bd c4 7c f7 bc 0b 51 db bd ae 63 15 3e
       -0.107270874 -0.03021086 -0.10708817 0.14588806
000380 ba 22 b9 3d 34 53 eb bc c4 43 c0 3c f7 bd 36 3c
       0.09039827 -0.028726198 0.023469813 0.01115369
000390 1b 45 e6 3d f4 20 0d be e7 bb 32 be a3 75 14 be
       0.112436496 -0.13782102 -0.17454492 -0.14498
0003a0 1b 78 b9 bc 96 38 6a 3d b6 b8 c4 3d df 93 2c be
       -0.022640279 0.05718287 0.09605543 -0.16853283
0003b0 0a b2 dd 3d 5f 12 ff 3d de 0a 7e 3c 3f d0 2e be
       0.10824974 0.12454676 0.015505521 -0.17071627
0003c0 25 57 1a 3e 9e 52 90 3c 93 4c 70 3c f4 ae a0 bd
       0.15072306 0.01761752 0.014666694 -0.0784587
0003d0 8b d7 1d be a3 ec 75 bd d2 d6 87 bd 0f 68 5f bd
       -0.15414254 -0.060040127 -0.066327706 -0.054542597
0003e0 ed c1 26 3d c1 46 22 3e a4 6a 17 be b5 47 8b bd
       0.040712286 0.15847303 -0.14786774 -0.068007864
0003f0 a7 51 00 3e 2e a0 3f 3e 12 e7 44 be a9 8d 6a 3d
       0.12531148 0.18713447 -0.19228771 0.057264004

linear2.weight f4 [256, 256]
000000 71 f5 f9 3c 5e 7e 62 bd ae 01 0a 3d 50 5d 52 bc
       0.030512543 -0.055296294 0.033693008 -0.01283963
000010 4f 8f 26 3d fa 09 3c bd b3 07 3b bd b4 99 b5 3c
       0.040664013 -0.045907952 -0.04566164 0.022168018
000020 09 c0 68 bd 5a 06 59 bd a8 02 c6 3c 07 b9 22 bd
       -0.056823764 -0.052984573 0.024171188 -0.039727237
000030 30 eb 0d bd cc 51 bc bc 58 d6 b7 bc d9 8f de 3c
       -0.03464812 -0.022988223 -0.022441074 0.027168201
000040 be de 7a bd 60 2a 6d bc 0b f8 3f 3d 66 1c 30 bd
       -0.06124758 -0.014475435 0.04686741 -0.042995833
000050 e5 66 f1 3c 3e 58 14 bd e0 a3 62 3c 7c eb f8 bc
       0.02946801 -0.036216967 0.013833016 -0.030385725
000060 a5 f4 15 3d 90 82 42 3d ff 48 09 3d 13 49 1e bd
       0.036610264 0.047487795 0.03351688 -0.038643908
000070 04 55 c3 bc ab 33 0b 3d 18 e9 60 3c f0 1e 27 3c
       -0.02384425 0.03398482 0.013727449 0.010200247
000080 58 85 46 3c c6 cf b2 3c 1b 9f 12 bd 4e 48 07 3d
       0.012116753 0.02182759 -0.035796266 0.03302794
000090 c2 55 77 bd ec 0e f1 bc e6 1d 63 3c 48 74 12 3d
       -0.06038452 -0.02942606 0.013862109 0.035755426
0000a0 38 84 20 bc 82 66 41 bd 6a 44 78 3d 26 c5 4d bd
       -0.009797148 -0.0472169 0.06061212 -0.050236844
0000b0 83 5b c9 3b 58 4c 0e 3c a4 2e 4c 3d 27 25 fb 3c
       0.0061449423 0.008685194 0.049849167 0.030657364
0000c0 41 0d 03 3d 2e 52 27 bd 4d e1 89 bc 88 75 1e bd
       0.03199506 -0.040849857 -0.016831065 -0.038686305
0000d0 73 34 99 bb 7e 8d 8c bd f4 df cb bc 96 49 72 bc
       -0.004675442 -0.06862925 -0.024887063 -0.014788052
0000e0 2a 7c 1a bd b7 dc 44 3c af cd c4 bc c2 dd 41 3c
       -0.03771607 0.012015513 -0.024023859 0.011832656
0000f0 33 2c 42 3d 3b 61 60 3c e0 77 24 3c 9e 07 3b bd
       0.047405433 0.013695057 0.010038346 -0.04566156
000100 f9 5b 00 bd de 84 40 bd 0a 19 6c bd 30 49 43 3c
       -0.031337712 -0.047001712 -0.057641067 0.011919305
000110 81 8f 81 3c 18 bf 3e 3c a8 bf 98 3c 71 2b 01 3c
       0.015815498 0.01164224 0.018646076 0.007883892
000120 88 a2 28 3d 04 e9 6b 3d 00 00 0e bd b0 90 3c 3c
       0.041170627 0.057595268 -0.03466797 0.011509106
000130 a8 f1 d1 bc 1e 3e d8 3c b5 9b 05 3d 49 cf 11 bd
       -0.025627926 0.026396807 0.032619197 -0.035598073
000140 c2 33 ff 3c 53 00 4b 3d 14 69 2a 3d 7a 9a 4e bd
       0.03115261 0.049560856 0.041604117 -0.05044029
000150 d0 e3 4e bc fa e5 4a 3d dc d7 70 3d a8 fc 3a bd
       -0.012627557 0.04953573 0.05879961 -0.045651108
000160 62 bb 10 bd 92 41 71 bd 37 9c 47 3b aa 5b 2e bd
       -0.035334952 -0.058900423 0.0030458102 -0.042567886
000170 83 a5 1c 3d 40 be 09 3c eb 51 90 bd 01 21 94 bc
       0.03824378 0.008407176 -0.070468746 -0.018082144
000180 da 13 29 3d 4c 72 72 3d e4 46 e4 bc 2a 6b 4c bd
       0.041278698 0.059191033 -0.027865835 -0.049906887
000190 96 f8 37 bb f0 10 4e 3d f2 a7 28 3d 64 f1 13 bd
       -0.0028071753 0.05030912 0.04117579 -0.03611888
0001a0 a0 47 b7 bb 80 63 fe 3c 1f 0c 6b bd 44 22 a6 3c
       -0.005593255 0.031053305 -0.057384606 0.020280011
0001b0 e5 55 3e bd da e9 80 bd 82 a0 74 bd 81 ef 39 3d
       -0.046468634 -0.06294604 -0.059723385 0.045394424
0001c0 d8 fa 8a bc 00 a7 34 bd 66 5f 14 3d 61 49 04 3b
       -0.016965315 -0.044104576 0.03622379 0.0020185339
0001d0 7a 71 e8 3b 96 c7 59 3c b6 a1 4e bd 5e 64 54 3d
       0.0070936056 0.013292214 -0.05044719 0.05185353
0001e0 e6 69 35 bd 86 b2 3c bd 38 57 7c 3d 24 03 3e bd
       -0.044290446 -0.04606869 0.061606616 -0.046389714
0001f0 14 71 f8 3c d4 fb fb 3b ae 84 33 3d 98 b4 87 bd
       0.030327357 0.0076899324 0.043827705 -0.066262424
000200 20 91 10 bd b0 f3 67 3d 37 63 29 bd b8 9b 55 bd
       -0.035294652 0.056628883 -0.041354384 -0.052150458
000210 59 7d 2a bd a0 30 98 3c 40 41 09 3b 08 05 0a bd
       -0.041623447 0.018577874 0.0020943433 -0.033696204
000220 df bc 10 bc f0 91 69 bd 48 10 15 bc 4d 42 94 bc
       -0.008834093 -0.057023942 -0.00909812 -0.01809802
000230 05 ee 0d 3b 43 54 b5 3c 2d c0 27 bd 66 db 6a bd
       0.0021656763 0.022134906 -0.040954757 -0.05733814
000240 4c cf dc bc 1c df 5e bd 60 54 3f 3d 91 f8 08 bd
       -0.026954316 -0.054411992 0.046711326 -0.033440176
000250 25 37 55 bb f6 bd 49 bd b8 00 88 bc 8b 20 27 bd
       -0.003253409 -0.049253426 -0.016601905 -0.04080252
000260 c0 17 f6 3b ec b7 61 3d ff 43 cc 3c 72 83 0e bd
       0.0075101554 0.055107042 0.024934767 -0.034793325
000270 e2 06 27 bd 94 55 de bc f0 ee 61 bc 45 88 11 3d
       -0.04077805 -0.027140416 -0.013789877 0.035530347
000280 f0 a5 26 bc ba 90 02 3d c4 28 ac bc b0 5c 42 bc
       -0.0101713985 0.031876303 -0.021015532 -0.011862919
000290 1a f2 1b 3d 2c 96 2b 3d 1a c5 1a 3d 5c f5 f7 3c
       0.038072683 0.041891262 0.037785627 0.030268364
0002a0 f4 0b 85 3b e7 71 6c bd 9e 1a 43 bd db d6 b7 bc
       0.004060263 -0.057725813 -0.047632806 -0.022441318
0002b0 7e 81 52 bd 50 08 0c bd 81 8e 32 bd ef 53 d3 bc
       -0.051393025 -0.034187615 -0.043592934 -0.025796859
0002c0 40 6f 30 3b 35 84 7c bd 5c 81 37 bd f3 d2 a1 bc
       0.002692178 -0.06164952 -0.0448011 -0.019753909
0002d0 be ce 08 bd f4 35 4b 3d f0 31 40 3d 9e 45 1b 3d
       -0.03340029 0.049612 0.046922624 0.03790819
0002e0 96 72 7e 3c 98 0e 8f bc 25 fd 19 bc 42 f6 b3 3c
       0.015530249 -0.017463014 -0.009398733 0.02196801
0002f0 5e 0e 24 bd 58 3f e1 bc 72 65 62 bd 16 f4 39 bd
       -0.040052764 -0.027496025 -0.055272527 -0.045398794
000300 c0 ea 97 bb c4 50 60 3b 50 96 69 bd 99 c3 c4 bc
       -0.0046361387 0.0034227828 -0.057028115 -0.02401905
000310 3f 22 92 bc b0 21 6c 3c a4 b6 94 3c 06 32 b0 bc
       -0.017838595 0.014412329 0.018153496 -0.021508228
000320 ee 8e 19 bd 03 79 08 3d 78 24 54 3d c7 3a 1e bd
       -0.037489824 0.03331853 0.05179259 -0.038630273
000330 2b 33 2a 3d c3 19 0a bd f0 a4 b0 3b fa 8b 18 3c
       0.041552704 -0.033715975 0.005390756 0.009310717
000340 cc 5f 00 bd f3 97 26 bd f0 a9 f6 3c d3 1c 11 3b
       -0.03134136 -0.040672254 0.03011033 0.0022142425
000350 e4 bd 2a 3d fa 42 57 3d be d3 5e ba b0 24 01 bb
       0.041685 0.05255411 -0.000850018 -0.0019705705
000360 7a 6d 3b 3d b8 6d ec bc 74 06 a7 bb 70 59 97 bc
       0.0457587 -0.028860912 -0.005097205 -0.018475264
000370 40 73 f0 3a 8c d8 16 3d 3d 1e 81 3c 6e e9 00 bd
       0.0018344894 0.03682761 0.015761489 -0.031472616
000380 a8 79 6e 3d a4 c8 c4 3c 0c 23 79 bd 89 48 e0 3b
       0.05822149 0.024021454 -0.06082444 0.0068445844
000390 04 2c 23 3d 25 6e 07 bd 6e 3a f1 bb 74 cd bd bc
       0.0398369 -0.033064026 -0.0073617017 -0.023169257
0003a0 2a e1 91 3c 90 7e bb 3c 3b bf 2b 3d 0c ba 45 3d
       0.017807562 0.022887498 0.04193042 0.04827313
0003b0 cc 0d db 3c c5 a6 66 bd 8b 87 16 bd a0 1f 7b bd
       0.026739977 -0.056311388 -0.036750358 -0.061309457
0003c0 96 88 51 3d b2 f1 0a bd 99 de 05 3d 10 f8 4b bd
       0.05115565 -0.033921905 0.03268299 -0.049797118
0003d0 7c b7 d6 3b ad 27 cc bc a4 aa 2d 3d 33 73 a1 3c
       0.0065526348 -0.024921263 0.042399064 0.019708252
0003e0 5a 20 ca bc 34 d4 52 3d 70 4b 13 3d 4d 72 33 3d
       -0.02467363 0.051471904 0.035960615 0.043810178
0003f0 3e 5b 60 3d 80 37 d0 3b 66 09 a7 bc 88 d1 d4 bc
       0.054774515 0.0063542724 -0.020390224 -0.025978819

linear2.bias f4 [256]
000000 97 48 85 bd e0 a8 76 bd 74 18 06 3d ee 56 02 3d
       -0.06507986 -0.060219646 0.032738164 0.031821184
000010 65 f5 1a bc 8b a6 47 3d 3e 7d 0d bc fa 9d 97 bc
       -0.009457921 0.048742812 -0.008635817 -0.018507946
000020 2c b3 e1 3c 2d 77 6c bd 07 2a db 3b 6c 6f fb bc
       0.027551256 -0.057730842 0.0066883597 -0.030692779
000030 e0 91 30 3c 54 f5 86 3c 27 86 34 3d d2 81 c6 bc
       0.010776967 0.016474403 0.04407325 -0.024231825
000040 36 6e b4 bc 18 96 66 bc e1 f1 5e bd 70 e7 4d bc
       -0.022025209 -0.014073871 -0.054429892 -0.012567386
000050 fb 32 a9 3c e2 4a 40 bd 38 0c de bc 6c 57 2e bd
       0.020654192 -0.046946414 -0.027105436 -0.04256384
000060 78 5e 01 bd aa 75 78 bb 25 d1 08 3d ed 71 83 3c
       -0.031584233 -0.003791193 0.03340258 0.016045535
000070 34 63 44 bd d3 7b 1d 3b 98 1c 37 3d e8 75 30 bc
       -0.04794617 0.0024030104 0.044705003 -0.010770299
000080 2e 83 0a 3d aa 36 7c bd ad eb d3 3c 97 52 11 3d
       0.03381651 -0.06157557 0.025869215 0.035479154
000090 9d 8e 8f bd 6b 94 e7 3c 4f 05 6d bd ee c3 22 3d
       -0.07009623 0.028269013 -0.05786639 0.039737634
0000a0 5e 2d 82 bb 33 16 d6 3c ae d7 74 bc 5f 92 2a 3d
       -0.0039726933 0.026133632 -0.014944 0.041643497
0000b0 08 ab 15 3c 0e 89 5e 3d a1 94 37 3c 0f dc a3 bc
       0.009135015 0.054329924 0.0112048695 -0.020002393
0000c0 29 31 91 bc 0c 3c 03 3c 12 92 15 3d c4 e5 ba bc
       -0.017723637 0.008009922 0.036516257 -0.022814639
0000d0 2e 68 4b bd f7 76 a5 3c ce 06 5f 3d 55 15 a7 3c
       -0.0496599 0.020198328 0.05444985 0.020395914
0000e0 31 cc c8 bb ab ed 99 3c 51 1f 7c bc b3 ab 81 bd
       -0.006127857 0.018790087 -0.015388326 -0.06331577
0000f0 76 e4 7f bd e3 8b 84 bd 50 44 1d 3c 74 39 8a 3c
       -0.062473737 -0.06471994 0.0095988065 0.016873099
000100 1b e7 2b 3d c3 59 31 3b d8 d5 34 3d 80 73 b6 3b
       0.041968446 0.0027061559 0.04414925 0.005567968
000110 12 0b d3 bb d4 12 a6 3d 30 2c 46 3d 8a 25 09 bd
       -0.0064405287 0.0810906 0.048381984 -0.033483066
000120 cf cb cc 3c 15 3c 5b 3c 00 44 aa bc e2 f4 02 3a
       0.024999527 0.013381024 -0.020784378 0.0004995597
000130 09 82 b1 3c 28 32 4e 3c 4b 04 21 bd f7 23 47 3d
       0.02166845 0.0125852 -0.039310735 0.048618283
000140 c8 5e 2e 3d d4 2f fd 3c 07 e1 1a 3d 5b 7c 7c 3d
       0.04257086 0.030906595 0.03781226 0.061642032
000150 f6 83 2a bd 75 c2 91 3d 47 3f aa bc 94 1f 42 bd
       -0.041629754 0.07117168 -0.020782126 -0.047393396
000160 78 94 54 bd 16 c1 45 bd 7f 77 ae 3c ec 23 61 3d
       -0.051899403 -0.048279844 0.021297215 0.0549659
000170 4c 64 35 3d c8 9d 0a 3d 67 fb 5c bc 9b 2b 70 3d
       0.044285104 0.03384188 -0.013487673 0.058635335
000180 2c ef c3 3b 54 f0 0f bd 87 41 00 bd 65 fb 02 3c
       0.0059794392 -0.035141304 -0.03131249 0.007994507
000190 69 df 39 bd b5 ee 26 bd 7d 62 70 3d 46 e1 82 bb
       -0.045379076 -0.040754993 0.058687676 -0.00399414
0001a0 eb 13 2f 3c 20 14 fd 3c ff 40 82 3d 3a 39 6c bd
       0.010685901 0.030893385 0.06360053 -0.057671763
0001b0 75 2e 08 3d 37 29 60 bd 43 03 3b bd 98 ec 59 bc
       0.03324743 -0.054726806 -0.045657407 -0.013301037
0001c0 36 79 83 bd 78 7e 78 bd 1c 2d 99 bb 76 fd 77 bd
       -0.064196035 -0.060667485 -0.004674567 -0.060544454
0001d0 48 63 31 bc 26 c3 f0 3c b1 13 2d 3d f2 5d 4f 3c
       -0.010826893 0.029389929 0.042255107 0.012656676
0001e0 65 84 2c 3d c9 6d 8c 3d 70 e9 30 bc 59 55 b0 bb
       0.04211845 0.06856877 -0.010797843 -0.005381268
0001f0 c0 86 51 3b 7a 59 33 bd 96 0b d8 bc b3 03 bb 3c
       0.0031971186 -0.043786503 -0.026372712 0.022828912
000200 0f c5 3e bd 1e 4c bb 3c 36 96 fb bc 43 14 13 3d
       -0.04657465 0.022863444 -0.030711275 0.035907995
000210 46 31 36 3d b8 0b fb bc 37 d9 0a 3d 50 85 69 3c
       0.044480585 -0.030645236 0.03389856 0.014252976
000220 c6 d9 80 3d b0 3b 5a bd 8d bd 5f 3d 48 1c c9 3d
       0.06291537 -0.05327958 0.05462413 0.09819847
000230 89 de 1f 3d 74 18 bd bc dd 2e 8b bd 1f cf 9d bd
       0.039030585 -0.02308295 -0.06796048 -0.07705521
000240 22 c2 30 ba 42 a9 46 bd 06 c6 8d bb 3a 40 25 3d
       -0.0006742795 -0.04850126 -0.0043265847 0.040344454
000250 8b 93 d9 bc a6 cc 75 3b 33 ff 42 3c 1f 59 34 bd
       -0.026559612 0.0037506013 0.011901665 -0.044030305
000260 1f ae 06 bd 65 e1 5e 3d 0b 9b 0c 3b d8 9f 30 3d
       -0.0328809 0.05441417 0.0021454717 0.04312119
000270 60 04 30 3c be e1 d5 bc 14 15 3a 3d 91 d2 3e 3b
       0.010743231 -0.026108619 0.045430258 0.0029117207
000280 6c a2 59 bd 88 86 46 bd b6 7c 1c bb ac fb 09 3d
       -0.053133413 -0.048468143 -0.0023878044 0.03368728
000290 88 b5 5f 3d e6 24 09 3d f0 cb ce bb 66 80 7f bd
       0.05461648 0.033482455 -0.0063109323 -0.06237831
0002a0 fa 39 16 3d fc 66 8e bd a8 94 3d 3c 08 62 85 bc
       0.036676385 -0.069532365 0.011571087 -0.016282097
0002b0 b0 a2 58 bd 0d d9 50 3d d0 1d 69 3c 7d 76 08 bc
       -0.052889526 0.050988246 0.014228299 -0.008329031
0002c0 42 92 3e bd 2c 76 0a 3d 70 d8 af bc 42 ef 68 3c
       -0.0465262 0.033804104 -0.02146551 0.0142172
0002d0 24 02 8e 3c b6 30 1a bd b2 91 83 3c 90 4c 30 bd
       0.017335005 -0.03764411 0.016060684 -0.043041766
0002e0 5d 8c c5 3c c0 c3 6c 3b d8 3c 1c 3d 56 a4 5d bb
       0.024114782 0.0036127418 0.038143963 -0.0033819876
0002f0 07 7a 34 bc 25 2b 25 bd d7 7f c6 3b a8 df 2d bd
       -0.011015422 -0.04032435 0.00605772 -0.042449623
000300 65 71 ad 3c 9d e8 12 bd c8 9f 5a bd 84 4b e7 bc
       0.021172235 -0.03586637 -0.053375036 -0.02823425
000310 84 f3 86 bc 1c 1f 13 bd d0 40 8b 3c fb 7f 70 3d
       -0.01647354 -0.03591834 0.016998678 0.0587158
000320 3f 33 70 bc 11 d4 47 3d 26 30 34 3d 5b e4 9a bc
       -0.0146606555 0.048786227 0.04399123 -0.018907716
000330 30 0d 84 bd 15 74 21 bd 30 5f b6 bb 95 d8 ad 3b
       -0.06447828 -0.039417345 -0.0055655465 0.0053053596
000340 74 4a 71 bd 3a 8b 20 bc 32 ac 23 3d 09 a6 b4 bc
       -0.058908895 -0.009798819 0.03995914 -0.022051828
000350 c9 34 f0 bc 00 fc 19 3b 75 f0 3e bd 4b 5c 3f bd
       -0.029322045 0.002349615 -0.046616036 -0.046718877
000360 04 65 77 bb ec 21 63 bd 8e d9 9a 3d 94 88 c7 3c
       -0.003774942 -0.055452272 0.075610265 0.024357118
000370 55 49 12 bd c1 db 16 3d 5e 0a cc 3c 10 b4 88 bc
       -0.035714466 0.036830667 0.024907287 -0.016687423
000380 c7 f2 19 3d 8f 9d 90 bd 8a 92 e1 bb ac 2f 57 bd
       0.037585046 -0.07061302 -0.006883924 -0.052535698
000390 d8 86 65 3d 3d a7 49 bd 44 38 0f 3d 9c 1c 08 3d
       0.0560368 -0.049231756 0.03496577 0.03323041
0003a0 41 bb 47 3c 3f c6 06 bd e8 ce 55 3d 90 cc 1f bd
       0.012190641 -0.032903906 0.052199274 -0.039013445
0003b0 90 ad 3a bc ea 41 52 3d a2 4c 71 3d 59 32 1a bd
       -0.01139392 0.05133239 0.058910973 -0.03764567
0003c0 b8 f0 b4 3c 97 7b f8 3c a7 1a 5e 3d 29 78 01 3d
       0.02208744 0.03033237 0.054224636 0.031608734
0003d0 94 a0 2f 3d c2 cb 41 bd df 7f f0 bc 58 18 5b 3d
       0.04287775 -0.04731346 -0.029357849 0.053490013
0003e0 df f9 49 3d 4c 1c 99 bb 17 51 e9 bc 4e 48 06 3d
       0.04931056 -0.0046725627 -0.02848105 0.0327838
0003f0 99 61 d1 bb e3 ac df 3c 78 63 81 bd 4e 75 aa 3c
       -0.0063898084 0.027304118 -0.063178 0.020807888

linear3.weight f4 [3, 256]
000000 38 60 ca 3c 53 af 29 bd ee 8f 68 3d 14 01 e0 bc
       0.024704084 -0.041426968 0.056777887 -0.027344264
000010 37 25 46 bb de 36 57 bd 71 d1 59 3c 4d a4 09 bd
       -0.0030234584 -0.05254256 0.013294564 -0.033603955
000020 5c cd 4c bd 24 63 9e bc b6 07 a5 3c bd 5a ee bc
       -0.050000533 -0.019334383 0.020145278 -0.029096002
000030 d0 a6 28 bd 98 e7 2a bc f0 96 65 bc 4e 24 d8 3c
       -0.04117471 -0.010431193 -0.014013037 0.026384499
000040 95 de 7d 3d c0 3a 6a 3b 7b e8 c9 3c 3b 55 55 bd
       0.06197985 0.0035740584 0.024646988 -0.052083235
000050 63 6a 43 bd a0 7f 42 bd 62 23 5d 3d 74 01 da 3c
       -0.04770888 -0.047484994 0.05398882 0.026612021
000060 82 67 65 3d a2 f3 b8 3c c8 f2 23 bd 4f 8e 16 3c
       0.056006916 0.02257711 -0.040026456 0.009189202
000070 4f 2e 9b bc 1c 7f 3e 3d a4 0f 4b 3d 00 90 d8 3b
       -0.01894298 0.04650794 0.049575463 0.006608963
000080 30 ee ba bc 83 3e ac bc 4d 42 53 3d 79 00 6a bd
       -0.022818655 -0.021025902 0.0515769 -0.057129357
000090 10 a7 ac 3c 84 57 1e 3d 8f 0d 46 3c 40 89 4d 3c
       0.021075755 0.03865768 0.012088194 0.01254493
0000a0 91 49 0e bd 9e ea 5f bd 1e 89 85 3d cb 9f b1 3b
       -0.034738127 -0.054667108 0.06520294 0.00542066
0000b0 12 69 60 3d a4 4a 10 3d 38 25 64 bd 20 8a 1b bd
       0.054787703 0.035227433 -0.055699557 -0.037973523
0000c0 bd bb d8 3a e0 6b 2c bd de 57 32 3d d1 0e 44 ba
       0.0016535443 -0.042095065 0.043540828 -0.00074790145
0000d0 04 d6 00 3c 2c ca 91 3d 28 9d 6b 3c c2 04 0e bd
       0.007863525 0.07118639 0.014380731 -0.034672506
0000e0 e5 bb aa bc bd c3 90 3a 12 61 21 bd 9a 11 24 bd
       -0.020841548 0.0011044663 -0.039399214 -0.04005585
0000f0 5e 79 e8 bb 08 ae 02 bd 47 82 62 3d 62 99 5c 3e
       -0.007094546 -0.03190425 0.055300023 0.21542886
000100 2a 42 1f 3d e4 76 a9 bc 7e 6e 95 bc 93 56 29 3d
       0.03888146 -0.020686574 -0.018241163 0.04134233
000110 9c 67 36 bc 75 a4 cc 3d 24 6f 9d bc 20 32 1b bb
       -0.011133101 0.09992305 -0.019218035 -0.0023681
000120 d3 d5 e7 bc bb 04 e3 3c 5c 80 08 bd 6d 52 ce bc
       -0.028300202 0.027712217 -0.033325538 -0.025185788
000130 c6 28 37 bd 04 f5 e5 3c e2 8d 91 3b a6 e0 43 bd
       -0.04471662 0.028070934 0.0044419626 -0.047821663
000140 96 10 8b bc 6a d1 39 3d 0e 1b 6f bd b5 83 84 3d
       -0.016975682 0.04536573 -0.05837541 0.064704336
000150 2c cf 57 3d 26 99 9a 3c bc 91 7f bb 27 fc 05 3d
       0.05268781 0.018871855 -0.0038996777 0.032711174
000160 d6 3e 4f 3d 4a 9d 93 3c 0e a8 28 3c 2c b9 35 bd
       0.050597034 0.018019337 0.010293974 -0.044366047
000170 0c f8 3d bd b4 b6 0d bd c1 19 6b 3c 86 17 87 3d
       -0.046379134 -0.034598067 0.014349402 0.065962836
000180 3f fa 07 3d ec de 6e 3d f7 dd 74 3d 77 b5 e4 bc
       0.033197638 0.058318064 0.059781995 -0.02791856
000190 38 00 07 3d b0 f3 e5 bc 74 95 06 bd 81 c2 57 bc
       0.032959193 -0.0280703 -0.032857373 -0.013168932
0001a0 64 aa 3f 3d e1 51 80 3d f7 8f 45 3d d0 60 22 3d
       0.046793357 0.06265617 0.048233 0.03964311
0001b0 a0 06 4c 3d 87 c7 0d bd 5b 17 ae 3c 54 bc 19 3d
       0.049811006 -0.034614112 0.021251371 0.03753312
0001c0 2c 4a 00 bd 0d d1 42 3b 79 0a b0 3c d8 22 56 bd
       -0.031320736 0.0029726655 0.021489369 -0.052279323
0001d0 de c9 27 3d 9f dc ae bc 00 80 5b 3d df 1a 38 3d
       0.040964 -0.021345435 0.053588867 0.0449475
0001e0 b3 dd e5 3c 5c fc 48 3d 56 63 43 bd 00 e8 5c bd
       0.028059816 0.049068794 -0.047702156 -0.05393219
0001f0 5c 2c e8 3c d1 cb 5f bd 18 bb 9b 3c ae 27 84 3d
       0.028341465 -0.054637734 0.019010112 0.06452881
000200 4b 91 4e 3c 22 e8 c2 bc ab f0 df 3c f0 52 8a 3d
       0.012607883 -0.02379233 0.02733644 0.067541
000210 a9 95 04 bd 91 75 62 bd 32 d9 46 3c 10 1f 97 3b
       -0.03236929 -0.0552879 0.012136744 0.0046118572
000220 49 9b 18 bd 35 d0 6e bd d4 1b 38 3d 14 d6 a2 3c
       -0.037257466 -0.05830403 0.044948414 0.019877471
000230 7f 3d e2 bc f6 02 49 3d 15 4b 6a 3c 52 91 cf bc
       -0.027617214 0.04907509 0.0143001275 -0.025337849
000240 e1 b0 2a bd d8 8c 01 bd 5e a3 e3 bc bf fb 94 bc
       -0.04167259 -0.03162846 -0.02778786 -0.018186448
000250 e2 ec 32 3d 26 1a 69 bc ad 81 53 3c 0d 90 2a 3d
       0.04368294 -0.014227426 0.012909335 0.041641284
000260 92 22 cb bc 72 3a ed bc fe 59 2c 3d ad cb 2e 3d
       -0.024796758 -0.028958533 0.04207801 0.04267471
000270 88 a5 30 bd 47 90 64 bc 80 e9 b1 3c 37 ab 92 bc
       -0.043126613 -0.013950414 0.021717787 -0.017903907
000280 5e 98 65 bd 60 c9 64 bb 0e 14 34 3c 6f fd 43 bd
       -0.05605351 -0.0034910068 0.01099111 -0.047849115
000290 40 30 09 bb cd 14 0d 3d 78 48 e3 3c a6 7c 5c 3d
       -0.00209333 0.034443665 0.027744517 0.05382981
0002a0 52 ff 11 bd 3a 1c 27 bb c0 8c 9b bb a8 39 b2 bc
       -0.035643883 -0.0025499002 -0.0047470033 -0.021756008
0002b0 64 ad 14 3d 56 41 35 bd 0c 4b d1 bc fc d1 c7 bc
       0.03629817 -0.044251762 -0.02554848 -0.02439212
0002c0 28 e9 67 3c 08 a5 5f 3c fe 28 35 bd 99 8d 67 3d
       0.01415471 0.013650186 -0.044228546 0.056531522
0002d0 ce 4d 73 3d f6 c8 09 bd ac d2 e6 3c 92 df 46 bd
       0.059400372 -0.033638917 0.028176628 -0.048553057
0002e0 ff b1 75 bc d0 c9 c0 bc c9 ca 82 3c dc b7 05 bd
       -0.014996051 -0.023533732 0.015965836 -0.032646045
0002f0 48 13 8a 3d 65 4d 24 3d 7e 6d 28 bd 6a a4 70 3d
       0.06741959 0.04011287 -0.041120045 0.058750547
000300 c4 01 01 3d 1c 30 56 bc 00 cc 8c bb d0 34 1f 3c
       0.031495824 -0.013072994 -0.0042967796 0.009717181
000310 a0 86 1b bb 8a 97 46 bd 15 9f e8 bc ec 14 72 3d
       -0.0023731366 -0.048484363 -0.028396169 0.059101984
000320 5e ee 16 bd 1b 70 00 3b 8c e7 5f 3d 1c cd 75 3d
       -0.03684842 0.001959807 0.05466418 0.06001006
000330 98 83 b4 bb 08 55 10 bc 7a e4 04 3c d0 3a 75 3d
       -0.0055088513 -0.0088093355 0.008111114 0.05987054
000340 98 1e 26 3d dd d9 eb bc a9 15 08 3d a1 c6 13 bd
       0.04055652 -0.028790409 0.03322378 -0.0360781
000350 c0 39 66 bd fd 2d 26 b9 db b2 40 bd 91 b7 46 bd
       -0.05620742 -0.00015848126 -0.04704557 -0.048514906
000360 49 25 f7 bb 3a 15 a7 bc e0 31 2e bc 95 9a d8 ba
       -0.0075422865 -0.020395864 -0.010632008 -0.0016525561
000370 77 35 52 bd 65 52 29 3d 1b 3b cc bb 60 33 78 3b
       -0.05132052 0.041338343 -0.006232632 0.0037872419
000380 8c bd 40 bc 3c db 1f bd fc bf 76 3d cc c7 f2 3b
       -0.0117639415 -0.039027438 0.060241684 0.0074090715
000390 82 35 3d 3d 6b eb a4 3b 39 23 82 3c 4a b5 0c bd
       0.046193607 0.005032947 0.015885936 -0.03435258
0003a0 c5 62 70 3d e8 c9 10 3d b2 f5 49 bd 3a 15 56 3a
       0.058687944 0.035348803 -0.04930658 0.0008166615
0003b0 ce 13 38 3c 00 3a 22 bd d8 52 27 3c 0a 36 43 bd
       0.011235191 -0.039606094 0.010212623 -0.047658958
0003c0 c7 88 88 3d 4f ea 0a bd a0 af 78 bc 53 67 5b bd
       0.06666713 -0.03391486 -0.015178591 -0.053565335
0003d0 d8 04 30 bd 2c d2 7d 3d 88 6f b1 3b 64 c0 6b 3d
       -0.04297337 0.061968014 0.005414907 0.057556525
0003e0 97 12 9a 39 80 62 94 bb a0 31 13 3c e2 24 6a bd
       0.0002938702 -0.0045283437 0.0089839995 -0.05716408
0003f0 37 78 4e 3d 66 60 10 3d 52 87 70 ba 5e aa 7d 3c
       0.050407615 0.035248183 -0.0009175438 0.015482513

linear3.bias f4 [3]
000000 9d 17 cd 3c af 13 09 3d a2 84 2f bd
       0.025035674 0.033466037 -0.042851098
