models/Env2/TD3_256_A5_S2_P/local_episode_1800_reward_200.000000.pt (torch, 293866 bytes, 6 tensors)

linear1.weight f4 [256, 23]
-0.10217951 0.11713061 0.051294766 -0.1015998 -0.25087947 -0.11182752 0.07144676 0.062762745
-0.07140401 -0.0005679136 0.015169766 -0.16723746 0.07060453 0.041315775 0.047545116 -0.034084264
-0.008458901 0.08578441 -0.007161789 -0.21324682 0.10633592 -0.120454706 0.09137357 0.017095532
0.0044259797 -0.10053055 -0.1591574 0.23660678 -0.06822664 -0.039745275 0.12084242 0.04294032
0.2139601 -0.045709934 0.07331697 -0.0629565 -0.06295247 -0.112420455 0.121849254 0.11064298
0.053626228 0.21883152 0.202004 0.114823066 -0.030010901 -0.109599136 0.023815336 -0.039023295
0.086432435 0.14673539 -0.20719476 0.16502094 -0.113035984 0.068451665 -0.006260127 0.07572774
-0.10146141 -0.023995275 0.03546027 0.15044609 -0.0039528864 0.14294493 -0.047666535 -0.003008677
0.10765605 0.17564951 0.04636917 0.055558603 -0.09839339 -0.12389411 0.041260738 0.057824202
-0.010306288 -0.1944339 -0.15659626 -0.083744615 -0.05391405 0.0017548824 -0.2118867 -0.05169803
0.13253106 0.1889211 0.14772235 -0.124756806 0.19404477 -0.07366561 -0.17455699 -0.14715295
-0.0026857143 -0.096190766 -0.12983505 -0.11503509 -0.06940047 -0.05614475 -0.04651673 -0.17954247
0.03415964 -0.20569438 0.17437331 0.17213555 0.10717122 0.127907 -0.13353471 0.1330628
-0.07470813 -0.03947966 -0.06724919 0.16910192 -0.010624934 -0.16843921 -0.11802246 0.16979532
0.089605905 0.002014209 -0.1994064 -0.18595727 -0.077205144 -0.18977085 0.17546298 -0.13118267
-0.07712905 -0.18517826 0.047319368 0.06736349 0.006567209 -0.07948162 0.184127 -0.028205315
0.1758758 0.16734177 -0.013516442 0.041254077 -0.1439057 0.20602657 0.08543762 -0.02409347
-0.01742862 -0.08276086 0.16987771 -0.12975276 0.0947697 0.1285572 0.03801003 -0.19582322
0.10788952 0.06450521 -0.055810962 -0.10283006 -0.04431962 -0.042984918 0.16224849 -0.13289289
0.14457437 -0.049237277 0.06282965 0.011278234 -0.073073015 0.024899445 -0.011110742 0.16440704
-0.1911658 -0.120990515 0.05333173 -0.00978495 0.093578205 0.11392659 0.0025720745 -0.027952839
-0.16370942 0.20253368 -0.01111879 0.1315488 -0.06209337 0.15901633 -0.17333472 -0.17539588
-0.1141418 -0.0008872325 -0.023634586 -0.17780343 0.1368065 -0.21172829 0.058919784 0.009732892
0.13508064 -0.19277 -0.22902127 0.1168984 -0.14299007 -0.015622621 0.10082057 -0.05059513
0.08415521 -0.2175366 -0.20157892 0.171406 -0.19960523 0.0024917966 -0.025372688 0.10256163
0.15360063 -0.07549968 -0.0430089 -0.087757505 -0.09609884 -0.07576118 0.1515233 -0.19845931
-0.17326996 -0.13127847 -0.03777965 -0.04116855 0.053342987 0.03935452 -0.11596315 0.08963394
0.21033043 -0.06728335 -0.0114594055 0.21090655 0.02452207 -0.048527196 0.02149785 -0.067183584
-0.021396661 0.13630202 -0.10296535 -0.0727445 0.002178503 -0.147012 0.025500393 0.23835827
0.2263455 -0.10023844 0.08164308 0.13640264 0.056058124 0.30769032 -0.06372303 -0.10822301
0.15573357 -0.11135157 -0.074544 0.23267055 0.20737045 -0.009266945 0.031459507 0.13711163
0.28661454 -0.0026985086 0.0020816776 0.23028049 0.15599105 -0.17514268 -0.21851896 -0.09357467
00000000: 7e43 d1bd 2ce2 ef3d 761a 523d 8e13 d0bd
00000010: 4673 80be d405 e5bd ae52 923d c189 803d
00000020: 443c 92bd 09e0 14ba 9c8a 783c 4c40 2bbe
00000030: 1c99 903d bb3a 293d abbe 423d f19b 0bbd
00000040: 3497 0abc bdaf af3d 71ad eabb 605d 5abe
00000050: a6c6 d93d f5b0 f6bd 1122 bb3d ee0b 8c3c
00000060: cf07 913b f6e2 cdbd 28fa 22be 0c49 723e
00000070: 69ba 8bbd f1cb 22bd 3b7c f73d 30e2 2f3d
00000080: 5b18 5b3e 573a 3bbd 3527 963d 56ef 80bd
00000090: 39ed 80bd b23c e6bd 1a8c f93d c998 e23d
000000a0: 2da7 5b3d 5f15 603e 23da 4e3e 5b28 eb3d
000000b0: 6cd9 f5bc 8375 e0bd 6118 c33c e4d6 1fbd
000000c0: 7d03 b13d cd41 163e dd2a 54be 40fb 283e
000000d0: 697f e7bd 6330 8c3d c021 cdbb 2517 9b3d
000000e0: 00cb cfbd bd91 c4bc ca3e 113d 8a0e 1a3e
000000f0: 3787 81bb 2860 123e fc3d 43bd 392d 45bb
00000100: c67a dc3d 77dd 333e 99ed 3d3d 6b91 633d
00000110: 7982 c9bd 32bc fdbd 0501 293d 12d9 6c3d
00000120: b4db 28bc ae19 47be c55a 20be 4c82 abbd
00000130: fbd4 5cbd 1504 e63a d4f8 58be 50c1 53bd
00000140: 39b6 073e 8874 413e 8744 173e 7f80 ffbd
00000150: acb3 463e ffdd 96bd 11bf 32be 43af 16be
00000160: cf02 30bb aaff c4bd 7bf3 04be 8497 ebbd
00000170: d521 8ebd 0af8 65bd 5488 3ebd fbd9 37be
00000180: fbea 0b3d 8ca1 52be eb8e 323e 4d44 303e
00000190: 967c db3d 0dfa 023e 53bd 08be 9d41 083e
000001a0: 9300 99bd 6db5 21bd f1b9 89bd 0e29 2d3e
000001b0: 3414 2ebc 547b 2cbe c2b5 f1bd d3de 2d3e
000001c0: 4d83 b73d d200 043b 3131 4cbe 956b 3ebe
000001d0: bb1d 9ebd 4a53 42be 91ac 333e c054 06be
000001e0: d6f5 9dbd 5f9f 3dbe f4d1 413d dff5 893d
000001f0: be31 d73b 42c7 a2bd ca8b 3c3e d50e e7bc
00000200: c918 343e a45b 2b3e 1174 5dbc 09fa 283d
00000210: 045c 13be a1f8 523e ebf9 ae3d ab5f c5bc
00000220: 77c6 8ebc 877e a9bd 6cf4 2d3e e8dd 04be
00000230: 9e16 c23d 80a4 033e 68b0 1b3d e285 48be
00000240: 2ef5 dc3d 4f1b 843d 099a 64bd 9198 d2bd
00000250: 7d88 35bd f410 30bd 7824 263e 1315 08be
00000260: 4e0b 143e 07ad 49bd d5ac 803d 58c8 383c
00000270: 4ea7 95bd ecf9 cb3c d409 36bc 525a 283e
00000280: f8c0 43be e0c9 f7bd 5f72 5a3d 0e51 20bc
00000290: eea5 bf3d 5852 e93d 4090 283b 5afd e4bc
000002a0: 71a3 27be fd64 4f3e 962b 36bc bbb4 063e
000002b0: 9e55 7ebd 2dd5 223e a87e 31be fa9a 33be
000002c0: 2dc3 e9bd 2a95 68ba 529d c1bc 1a12 36be
000002d0: 0117 0c3e 4dcf 58be df55 713d b576 1f3c
000002e0: 9452 0a3e 8065 45be 8d84 6abe 6e68 ef3d
000002f0: fd6b 12be 06f6 7fbc 047b ce3d d73c 4fbd
00000300: 9159 ac3d eac1 5ebe b46a 4ebe 0e85 2f3e
00000310: 5065 4cbe 694d 233b 62da cfbc d50b d23d
00000320: 7c49 1d3e 949f 9abd 1a2a 30bd 35ba b3bd
00000330: 78cf c4bd ad28 9bbd ed28 1b3e eb38 4bbe
00000340: ae6d 31be dd6d 06be d6be 1abd 5aa0 28bd
00000350: 2d7e 5a3d 3532 213d 177e edbd 0092 b73d
00000360: dc60 573e dacb 89bd 3bc0 3bbc e3f7 573e
00000370: 82e2 c83c 74c4 46bd 421c b03c 8c97 89bd
00000380: 0d48 afbc c292 0b3e 7fdf d2bd 12fb 94bd
00000390: 37c5 0e3b 508a 16be 33e6 d03c 3114 743e
000003a0: 1dc7 673e d049 cdbd 7d34 a73d 22ad 0b3e
000003b0: 349d 653d 9689 9d3e 3881 82bd 07a4 ddbd
000003c0: 9f78 1f3e 4b0c e4bd 86aa 98bd 3041 6e3e
000003d0: eb58 543e 62d4 17bc afdb 003d fe66 0c3e
000003e0: 24bf 923e 76d9 30bb c16c 083b a6ce 6b3e
000003f0: 1ebc 1f3e 9a58 33be 6fc3 5fbe 14a4 bfbd

linear1.bias f4 [256]
0.06599051 0.10465789 0.0033295625 0.069194995 0.09430872 0.06928943 -0.08578724 -0.0947114
0.1230909 0.1407143 0.23349302 -0.060948208 -0.09919247 0.017231958 0.070784666 -0.015592654
-0.1121489 -0.08671591 -0.0034064548 -0.18429396 -0.004660872 -0.08754223 0.15703748 0.06569365
-0.03531118 -0.08255261 0.024290975 0.043359727 0.016496863 -0.021956798 -0.18893395 0.13314663
0.1657199 0.029004063 -0.17067613 0.13912538 -0.15708052 -0.10367851 0.0030891858 0.05586991
-0.1701431 -0.17676343 -0.20690806 -0.068540886 0.08787059 0.06936852 0.18196717 0.09050441
-0.193049 -0.07726472 -0.015140615 -0.12689891 0.044406727 -0.035621546 0.06847902 0.16053775
0.11001629 0.020826994 -0.044480693 0.07794126 -0.07300279 0.005817493 -0.042207014 0.008365827
-0.11327361 0.11864808 -0.19110206 -0.005796146 0.019734653 0.06789267 -0.20067848 0.07359081
-0.047722895 0.15572993 0.21659556 -0.1892829 0.11294986 0.008493726 -0.058922544 -0.027413124
-0.15421693 0.0068634395 -0.12232845 0.050262664 0.09697712 0.19324192 -0.13874602 -0.041837674
-0.091347516 0.19610193 0.12061441 -0.05239684 0.08427955 0.14807147 -0.18420097 -0.13020122
0.023539033 -0.14534661 0.04447244 -0.014374087 0.11933329 0.13108118 -0.13635367 0.12497487
-0.17585576 -0.10688998 0.16525467 0.16451344 -0.15901737 -0.13943268 -0.13032842 -0.051564272
-0.12985146 0.08261421 0.094439894 0.033345863 -0.19420235 0.18852265 0.09499751 0.1303387
0.089431934 0.119226836 0.0009379423 0.18574627 -0.0847288 -0.07003725 -0.088564076 0.046151727
0.17128207 0.07428799 -0.15307073 -0.048744924 -0.00426117 -0.060587816 -0.07185823 -0.17062622
-0.092541575 0.0064247283 -0.16325793 0.13021386 0.01495024 -0.09181912 -0.1895926 0.0019692325
0.0122768525 -0.029659845 0.060205072 0.10257826 -0.06867481 -0.015798742 -0.148414 0.14725678
0.044508062 -0.03184759 0.07788289 -0.087505 0.19050315 -0.0663393 0.16111411 -0.0052785473
0.1616895 0.031138105 -0.07825575 -0.16583276 0.090390645 -0.15318318 0.008432962 -0.12676208
0.09538783 0.18021604 -0.16530274 0.18227904 0.08899021 -0.17511885 0.1265833 0.12377349
0.04302357 0.14144371 0.08473917 0.006098417 -0.06423943 0.1307866 0.015746688 0.012682744
-0.02635936 0.10907169 0.030837562 0.0664207 -0.09280407 0.031163389 -0.07998985 0.10978675
0.000923282 -0.1614281 0.016619865 -0.13947508 -0.16513893 -0.025228187 0.062198717 0.07148085
0.1152181 0.14406328 -0.061326873 0.07547986 0.19619806 0.070661664 -0.03513872 -0.03217175
-0.037129134 -0.19932348 -0.047248412 0.13455065 -0.1792785 0.052622713 0.092845894 0.14678036
-0.19011904 0.050857108 -0.08889321 0.14482196 -0.11809745 -0.007015285 -0.12784068 0.1328865
0.07177636 -0.033032637 0.022974955 0.017939286 0.106976606 -0.13286008 -0.20042534 -0.16806343
-0.026766859 0.107133605 0.14480922 -0.16853283 0.10824974 0.06028212 -0.03684016 -0.15505415
0.16257532 0.017801965 -0.009460134 -0.13783447 -0.12993823 -0.07522051 -0.066327706 -0.10647212
0.019497354 0.14836113 -0.09955117 -0.027235718 0.12531148 0.17736971 -0.2140569 0.09626205
00000000: 0826 873d e056 d63d ca34 5a3b 1bb6 8d3d
00000010: ee24 c13d 9ee7 8d3d 38b1 afbd 0df8 c1bd
00000020: 1517 fc3d 6917 103e cb18 6f3e d4a4 79bd
00000030: 6c25 cbbd 092a 8d3c 8df7 903d 5578 7fbc
00000040: 53ae e5bd 1c98 b1bd d43e 5fbb 8eb7 3cbe
00000050: 3aba 98bb 5749 b3bd 6fce 203e 648a 863d
00000060: 75a2 10bd 5811 a9bd defd c63c f899 313d
00000070: 6e24 873c bede b3bc e777 41be 9757 083e
00000080: 7ab2 293e ee99 ed3c b9c5 2ebe e276 0e3e
00000090: b7d9 20be 6655 d4bd f073 4a3b d9d7 643d
000000a0: fe39 2ebe 7901 35be b5df 53be 2a5f 8cbd
000000b0: 7ff5 b33d 1511 8e3d 9a55 3a3e 605a b93d
000000c0: a3ae 45be f73c 9ebd 5810 78bc caf1 01be
000000d0: d4e3 353d e6e7 11bd ba3e 8c3d 0264 243e
000000e0: 3850 e13d 5f9d aa3c 6331 36bd ab9f 9f3d
000000f0: 7d82 95bd aba0 be3b 43e1 2cbd d210 093c
00000100: fffb e7bd c4fd f23d 42b0 43be 99ed bdbb
00000110: 91aa a13c 500b 8b3d a97e 4dbe c7b6 963d
00000120: 1579 43bd ab77 1f3e 3acb 5d3e 60d3 41be
00000130: 4252 e73d 4529 0b3c c458 71bd 7d91 e0bc
00000140: 0beb 1dbe b4e6 e03b 5787 fabd 39e0 4d3d
00000150: f19b c63d 36e1 453e 7013 0ebe fb5d 2bbd
00000160: 6814 bbbd f2ce 483e b004 f73d 129e 56bd
00000170: c29a ac3d 0ca0 173e 2e9f 3cbe 7853 05be
00000180: eed4 c03c bed5 14be bc28 363d 4a81 6bbc
00000190: 0365 f43d 253a 063e 4ca0 0bbe d3f2 ff3d
000001a0: 8813 34be 22e9 dabd 8538 293e 3676 283e
000001b0: 73d5 22be 71c7 0ebe d074 05be 0f35 53bd
000001c0: c8f7 04be a431 a93d b469 c13d ac95 083d
000001d0: fbdc 46be 150c 413e 0e8e c23d 8277 053e
000001e0: 1728 b73d 332d f43d 3ee0 753a 4534 3e3e
000001f0: 4b86 adbd b16f 8fbd 1561 b5bd 9809 3d3d
00000200: 9164 2f3e 4d24 983d 93be 1cbe c2a8 47bd
00000210: 49a1 8bbb ee2a 78bd 682a 93bd a4b8 2ebe
00000220: 7086 bdbd 8786 d23b 162d 27be c856 053e
00000230: daf1 743c aa0b bcbd 9024 42be 3d0e 013b
00000240: da24 493c 34f9 f2bc 9899 763d 8d14 d23d
00000250: 61a5 8cbd 5d6c 81bc d7f9 17be 7bca 163e
00000260: 164e 363d 9e72 02bd 1181 9f3d d235 b3bd
00000270: 4213 433e e6dc 87bd 19fb 243e aaf7 acbb
00000280: ef91 253e 5715 ff3c 8d44 a0bd 10d0 29be
00000290: bb1e b93d 0ddc 1cbe 682a 0a3c ebcd 01be
000002a0: b25a c33d 8e8a 383e 1f45 29be 5ba7 3a3e
000002b0: 8040 b63d 5b52 33be 0d9f 013e f57c fd3d
000002c0: 7c39 303d 9fd6 103e bb8b ad3d 3bd5 c73b
000002d0: f68f 83bd ecec 053e 33ff 803c 49cb 4f3c
000002e0: 96ef d7bc fa60 df3d 0e9f fc3c 9307 883d
000002f0: 0f10 bebd 5d4a ff3c b8d1 a3bd e0d7 e03d
00000300: 6808 723a 684d 25be 6226 883c 8ed2 0ebe
00000310: 2e1a 29be 58ab cebc 15c4 7e3d 8d64 923d
00000320: 78f7 eb3d 5385 133e e331 7bbd 2f95 9a3d
00000330: 25e8 483e 10b7 903d 9eed 0fbd 86c6 03bd
00000340: b814 18bd 741b 4cbe 8d87 41bd a5c7 093e
00000350: c894 37be ea8a 573d fd25 be3d 974d 163e
00000360: 91ae 42be 8b4f 503d a50d b6bd 354c 143e
00000370: 13dd f1bd 7ae0 e5bb abe8 02be 6613 083e
00000380: 7cff 923d 3b4d 07bd f935 bc3c 69f5 923c
00000390: 8d16 db3d 790c 08be 4d3c 4dbe d218 2cbe
000003a0: 2c46 dbbc dd68 db3d de48 143e df93 2cbe
000003b0: 0ab2 dd3d 62ea 763d b5e5 16bd 84c6 1ebe
000003c0: 257a 263e 6dd5 913c aefe 1abc 7b24 0dbe
000003d0: 870e 05be 360d 9abd d2d6 87bd 0e0e dabd
000003e0: eab8 9f3c fbeb 173e 7ce1 cbbd 711d dfbc
000003f0: a751 003e 68a0 353e bb31 5bbe 0a25 c53d

linear2.weight f4 [256, 256]
0.049679033 -0.07338119 0.054943666 -0.0374683 0.050747562 -0.072842635 -0.016944852 0.07337101
-0.02824448 -0.037338704 0.013274849 -0.018898755 -0.03464812 -0.023411335 -0.022441074 0.053578224
-0.056290857 0.008629897 0.068000324 -0.040978655 0.05072434 -0.054032676 0.021427939 -0.005501475
0.060481664 0.053066406 0.050558094 -0.019971265 -0.0072173937 0.053080633 0.004649387 0.010200247
0.012116753 0.043266844 -0.011404159 0.05468896 -0.036710292 -0.02942606 0.030408407 0.0045859283
0.01106047 -0.077393666 0.06061212 -0.050236844 0.029958496 0.008685194 0.06756418 0.05420509
0.05020263 -0.040854085 0.006649953 -0.038686305 0.018485954 -0.047553238 -0.024887074 0.009837842
-0.0011964426 0.040000834 -0.0059855646 0.03436011 0.07002588 0.042229597 0.010038346 -0.03531725
-0.01002735 -0.047001712 -0.070703104 0.011919305 0.043785628 0.01164224 0.011063677 -0.006241618
0.07078544 0.049228307 -0.046543416 0.027482385 -0.018224759 0.008515373 0.01652878 -0.01749862
0.079663254 0.07321776 0.04676668 -0.029104901 -0.018136686 0.06358634 0.059655324 -0.012222983
-0.035334952 -0.07112832 0.025391554 -0.029908113 0.04605399 0.012799544 -0.044157956 0.0057528634
0.06442595 0.061657313 -0.027865835 -0.039320257 0.019160923 0.031507373 0.04117579 -0.02106034
-0.005593255 0.053981747 -0.0346805 0.040663436 -0.03887708 -0.043494035 -0.059611764 0.067510925
-0.016965315 -0.026892332 0.052355688 0.027713671 0.024173727 0.039313316 -0.03276525 0.07438675
-0.052688617 -0.026907478 0.05746867 -0.07558398 0.02613432 0.028723698 0.043827705 -0.06161097
-0.012097633 0.056758482 -0.030069353 -0.022874134 -0.023665924 0.0064325393 0.0035040958 -0.03671739
0.013629248 -0.033771764 -0.00909812 0.006378895 0.018628428 0.042013086 -0.022221353 -0.035380784
-0.04826235 -0.03436425 0.07019591 -0.01616131 -0.017407024 -0.03151258 -0.02549023 -0.015478539
0.0075101554 0.039045952 0.041949473 -0.034793325 -0.038056657 -0.024954282 -0.013789877 0.061987508
0.010818912 0.028690934 0.00079755957 0.0076845977 0.036944766 0.069882005 0.037785552 0.009778226
0.022780163 -0.037500527 -0.034825232 -0.0010326827 -0.013003158 -0.024745524 -0.023336176 -0.0030293947
0.00020607412 -0.08005279 -0.061361857 0.0032747423 -0.027124321 0.03515205 0.030237569 0.061275713
0.036351573 -0.014009453 0.014175371 0.012211742 -0.0134313125 -0.016224353 -0.04151526 -0.020520369
-0.00093310984 0.025697747 -0.057028115 -0.01106813 -0.0045509147 0.031226657 0.049241275 -0.0006057778
-0.013892102 0.05727108 0.071218885 -0.012430882 0.06600237 -0.008927888 0.005390756 0.022467094
-0.03134136 -0.061373573 0.05211083 -0.012945651 0.031733304 0.07342505 0.014026219 0.021333696
0.0457587 -0.03711075 0.018833417 -0.009807698 0.019046104 0.038967434 0.039995383 -0.008101643
0.053525772 0.04147929 -0.043095276 0.028649583 0.06148549 -0.016151004 0.014742865 -0.018934475
0.009149713 0.0635686 0.06533053 0.04827313 0.026739977 -0.041563794 -0.051308077 -0.03901632
0.065467015 -0.03401014 0.04865605 -0.03056298 0.02497252 0.0011117669 0.042399064 0.024503296
-0.015374998 0.07467359 0.04357169 0.06466983 0.054774515 8.9733785e-06 -0.03551537 -0.016325029
00000000: 3e7c 4b3d e148 96bd 9c0c 613d 5c78 19bd
00000010: addc 4f3d 852e 95bd eecf 8abc 8a43 963d
00000020: f860 e7bc 78f0 18bd c17e 593c 90d1 9abc
00000030: 30eb 0dbd 21c9 bfbc 58d6 b7bc d774 5b3d
00000040: 3e91 66bd 6964 0d3c c143 8b3d 3cd9 27bd
00000050: 53c4 4f3d 5e51 5dbd a589 af3c b845 b4bb
00000060: 9fbb 773d 295c 593d 0116 4f3d c79a a3bc
00000070: e37f ecbb 146b 593d e359 983b f01e 273c
00000080: 5885 463c 9338 313d 82d8 3abc 8801 603d
00000090: 885d 16bd ec0e f1bc 0d1b f93c 8e45 963b
000000a0: f936 353c 9280 9ebd 6a44 783d 26c5 4dbd
000000b0: 856b f53c 584c 0e3c 175f 8a3d 2806 5e3d
000000c0: 46a1 4d3d 9d56 27bd d9e7 d93b 8875 1ebd
000000d0: db6f 973c 2fc7 42bd fadf cbbc e62e 213c
000000e0: f4d1 9cba ead7 233d 8e22 c4bb 30bd 0c3d
000000f0: bb69 8f3d f1f8 2c3d e077 243c d2a8 10bd
00000100: c149 24bc de84 40bd cacc 90bd 3049 433c
00000110: 8f58 333d 18bf 3e3c 6d44 353c 7d86 ccbb
00000120: f5f7 903d 9fa3 493d 4fa4 3ebd bd22 e13c
00000130: 174c 95bc 1084 0b3c 5d67 873c 4459 8fbc
00000140: 7d26 a33d 31f3 953d 6b8e 3f3d 676d eebc
00000150: 6393 94bc 8e39 823d 2459 743d e842 48bc
00000160: 62bb 10bd baab 91bd f301 d03c dc01 f5bc
00000170: 1ca3 3c3d 2eb5 513c f9de 34bd 8482 bc3b
00000180: c1f1 833d 618c 7c3d e446 e4bc 470e 21bd
00000190: 5ef7 9c3c e00d 013d f2a7 283d bc86 acbc
000001a0: a047 b7bb f71b 5d3d 240d 0ebd b48e 263d
000001b0: 933d 1fbd cd26 32bd 772b 74bd 2b43 8a3d
000001c0: d8fa 8abc 4f4d dcbc eb72 563d c807 e33c
000001d0: fb07 c63c 0007 213d db34 06bd 1558 983d
000001e0: 05d0 57bd 126d dcbc 4564 6b3d c6cb 9abd
000001f0: a417 d63c f64d eb3c ae84 333d c95b 7cbd
00000200: 2735 46bc 957b 683d 0154 f6bc 8962 bbbc
00000210: 0adf c1bc 0dc8 d23b f9a4 653b f964 16bd
00000220: 364d 5f3c 4354 0abd 4810 15bc 0d06 d13b
00000230: a59a 983c ea15 2c3d 8e09 b6bc 71eb 10bd
00000240: beae 45bd 87c1 0cbd e0c2 8f3d b964 84bc
00000250: 2d99 8ebc 5613 01bd e3d0 d0bc b399 7dbc
00000260: c017 f63b a6ee 1f3d 36d3 2b3d 7283 0ebd
00000270: 4ce1 1bbd ec6c ccbc f0ee 61bc 9de6 7d3d
00000280: ce41 313c 4009 eb3c 5113 513a 14cf fb3b
00000290: 6553 173d 4c1e 8f3d 06c5 1a3d da34 203c
000002a0: 779d ba3c 279a 19bd e7a4 0ebd 155b 87ba
000002b0: 330b 55bc 20b7 cabc 822b bfbc cf88 46bb
000002c0: 9a15 5839 b8f2 a3bd 9256 7bbd 0f9d 563b
000002d0: d333 debc 99fb 0f3d c7b4 f73c 3efc 7a3d
000002e0: 63e5 143d e887 65bc d13f 683c c213 483c
000002f0: 020f 5cbc efe8 84bc e80b 2abd 551a a8bc
00000300: f19b 74ba 1584 d23c 5096 69bd 1a57 35bc
00000310: d71f 95bb 0ccf ff3c 38b1 493d 0fcd 1eba
00000320: b39b 63bc 1495 6a3d 35db 913d e6aa 4bbc
00000330: 402c 873d 4746 12bc f0a4 b03b e90c b83c
00000340: cc5f 00bd db62 7bbd 2a72 553d ff19 54bc
00000350: c8fa 013d df5f 963d 3ace 653c 01c4 ae3c
00000360: 7a6d 3b3d 7101 18bd 8a48 9a3c 78b0 20bc
00000370: 9306 9c3c 519c 1f3d 33d2 233d c1bc 04bc
00000380: d73d 5b3d 30e6 293d ac84 30bd 88b2 ea3c
00000390: 36d8 7b3d 1c4f 84bc 0f8c 713c 791c 9bbc
000003a0: aee8 153c 4130 823d 03cc 853d 0cba 453d
000003b0: cc0d db3c cc3e 2abd 6b28 52bd 94cf 1fbd
000003c0: 9213 863d 374e 0bbd 914b 473d 375f fabc
000003d0: 2c93 cc3c b5b8 913a a4aa 2d3d 23bb c83c
000003e0: 6ae7 7bbc 78ee 983d 3a78 323d 9e71 843d
000003f0: 3e5b 603d 5e8c 1637 9178 11bd 11bc 85bc

linear2.bias f4 [256]
-0.042881038 -0.05157577 0.03306867 0.030348325 -0.0114594605 0.047063757 -0.030900618 -0.006487606
0.0742213 -0.057734504 0.0073241643 -0.03068305 0.010776967 0.016474403 0.056318168 -0.02166109
-0.019708311 -0.015924545 -0.053990316 0.003242822 0.020153584 -0.04801117 -0.027105436 -0.04256384
-0.052635044 -0.0033367013 0.03250858 0.01628059 -0.03350645 -0.0066687837 0.047922574 -0.010770299
0.07258816 -0.062249802 0.02623634 0.041760933 -0.05071345 0.032352004 -0.0573091 0.0354801
-0.004377945 0.076259084 -0.0014146698 0.043250762 0.045999967 0.049524285 0.01015679 -0.020830728
-0.01982525 0.007834473 0.026267346 -0.050406065 -0.05664494 0.014895166 0.05444985 0.027738951
0.027355134 0.019403799 -0.006555263 -0.04604029 -0.011922397 -0.0584066 -0.014595059 -0.046121005
0.058133032 0.037325524 0.061723012 0.033369612 0.011698472 0.052208308 0.048382837 -0.017781986
0.029814404 0.014195686 -0.021839244 0.002000331 0.044246264 -0.003053442 -0.0412526 0.065273724
0.048825674 0.0072838706 0.03681325 0.05338048 -0.042663697 0.05358262 -0.020855436 -0.04780988
-0.01726404 -0.049247976 0.021259496 0.055639677 0.025842724 0.07443753 -0.026388336 0.050008137
-0.001926751 -0.035141304 -0.049890198 0.015686821 -0.045426097 -0.041324012 0.05391783 0.0032680614
0.004740945 0.046050515 0.05164301 -0.062043153 0.029122781 -0.045167226 -0.04551231 0.023147061
-0.06207016 -0.065782055 -0.0031005603 -0.061245587 -0.010826893 0.03001778 0.042375773 0.013641536
0.039836604 0.035620607 -0.010797843 -0.005906045 0.0005350959 0.0018318505 -0.027547866 0.0054881433
-0.046558127 0.017603373 -0.03944745 -0.028752243 0.043786757 -0.03145681 0.03327279 -0.0023125808
0.052547395 -0.054873943 0.0021795519 0.050682902 0.0446066 -0.036250867 -0.054761928 -0.06645441
0.0030771326 -0.04850126 -0.00064105814 0.05826794 -0.027681865 0.0037559667 0.0057537165 -0.043868862
-0.027243426 0.052805703 0.005339101 0.043147184 0.010743231 -0.032966092 0.014267298 0.0027801807
-0.053133413 -0.051939804 -0.0029406347 0.029293615 0.054752946 0.0024764175 -0.016235327 -0.06182133
0.03145713 -0.061963625 0.022215497 0.025925366 -0.052045636 0.050097838 0.0114771165 0.022470208
-0.025427932 0.03165454 -0.038136438 0.015100374 0.017335005 -0.014194837 0.011165885 -0.046035387
0.028766861 0.04836096 0.026917117 0.0001506488 -0.061298113 -0.04293873 0.0058387574 -0.040628023
0.023837438 -0.03531856 -0.053375036 -0.026108073 -0.01647354 -0.03591834 0.01640925 0.04946718
-0.015666308 0.047619976 0.013409875 -0.028600182 -0.06509454 -0.039453592 -0.007356121 -0.00016401749
-0.057754923 -0.011055407 0.021205695 -0.017749332 -0.03024974 0.006608522 -0.044054832 -0.04727065
-0.0037646613 -0.057593327 0.10405971 -0.019718036 -0.022218646 0.036328893 0.0056136767 -0.011890454
0.03852428 -0.06971432 0.009020288 -0.05191503 0.056020454 -0.046174712 0.035788536 0.05413718
0.012611717 -0.0309535 0.052199274 -0.04009463 -0.014057481 0.06602347 0.058910973 -0.037264038
0.04370466 0.03463909 0.10530483 0.02953223 0.04287775 -0.02993304 -0.02888982 0.053489864
0.048929762 -0.005948946 0.0067182877 0.0327838 -0.0041070497 0.030506799 -0.079639226 0.023082694
00000000: 07a4 2fbd 1d41 53bd 0473 073d 0d9d f83c
00000010: 76c0 3bbc edc5 403d 4b23 fdbc fc95 d4bb
00000020: 5601 983d 047b 6cbd 8bff ef3b 055b fbbc
00000030: e091 303c 54f5 863c e1ad 663d 9972 b1bc
00000040: 5373 a1bc 3174 82bc f324 5dbd 8685 543b
00000050: 2119 a53c 5ca7 44bd 380c debc 6c57 2ebd
00000060: d897 57bd 8fac 5abb b727 053d df5e 853c
00000070: 0f3e 09bd d085 dabb 764a 443d e875 30bc
00000080: 1aa9 943d a6f9 7ebd 98ed d63c 830d 2b3d
00000090: e8b8 4fbd 8983 043d f2bc 6abd 9553 113d
000000a0: dd74 8fbb b92d 9c3d 716c b9ba b627 313d
000000b0: 766a 3c3d fad9 4a3d aa68 263c 34a5 aabc
000000c0: 9068 a2bc 295c 003c 9e2e d73c 9776 4ebd
000000d0: 8604 68bd db0a 743c ce06 5f3d cc3c e33c
000000e0: e017 e03c b7f4 9e3c 88cd d6bb be94 3cbd
000000f0: 2856 43bc c23b 6fbd 1d20 6fbc 61e9 3cbd
00000100: e71c 6e3d a6e2 183d 45d1 7c3d 93ae 083d
00000110: f3aa 3f3c 61d8 553d 152d 463d 87ab 91bc
00000120: 563d f43c 0695 683c 37e8 b2bc fc17 033b
00000130: 923b 353d 421c 48bb 7cf8 28bd 3bae 853d
00000140: 6efd 473d 89ad ee3b 7ec9 163d 7da5 5a3d
00000150: 21c0 2ebd 7379 5b3d 05d9 aabc 4bd4 43bd
00000160: 516d 8dbc 3fb8 49bd 6528 ae3c 6ee6 633d
00000170: 1fb4 d33c b472 983d 5a2c d8bc 55d5 4c3d
00000180: 098b fcba 54f0 0fbd aa59 4cbd a681 803c
00000190: b710 3abd 5e43 29bd f1d8 5c3d f92c 563b
000001a0: ee59 9b3b 779f 3c3d 9f87 533d f620 7ebd
000001b0: e692 ee3c 4501 39bd 1e6b 3abd e89e bd3c
000001c0: 483d 7ebd beb8 86bd c532 4bbb a7dc 7abd
000001d0: 4863 31bc d9e7 f53c 3892 2d3d c080 5f3c
000001e0: b52b 233d eae6 113d 70e9 30bc 7f87 c1bb
000001f0: ae45 0c3a b41a f03a 10ac e1bc e2d5 b33b
00000200: bcb3 3ebd f334 903c a693 21bd d389 ebbc
00000210: be59 333d dbd8 00bd 0d49 083d ab8e 17bb
00000220: f03b 573d 80c3 60bd d0d6 0e3b e098 4f3d
00000230: 69b5 363d ca7b 14bd 0b4e 60bd 4019 88bd
00000240: b8a9 493b 42a9 46bd af0c 28ba 5daa 6e3d
00000250: 14c5 e2bc aa26 763b ac89 bc3b d6af 33bd
00000260: 9b2d dfbc cb4a 583d a0f3 ae3b 1abb 303d
00000270: 6004 303c 7407 07bd 63c1 693c b133 363b
00000280: 6ca2 59bd d5be 54bd aab7 40bb 2af9 ef3c
00000290: a044 603d 644b 223b f3ff 84bc 5d38 7dbd
000002a0: 31d9 003d 92cd 7dbd 46fd b53c 6f61 d43c
000002b0: ce2d 55bd 6433 4d3d 840a 3c3c 7113 b83c
000002c0: 3d4e d0bc 31a8 013d f434 1cbd 8f67 773c
000002d0: 2402 8e3c 7691 68bc 1ef1 363c 9a8f 3cbd
000002e0: 7ba8 eb3c 2416 463d 4981 dc3c 7bf7 1d39
000002f0: bb13 7bbd 86e0 2fbd 0c53 bf3b 9269 26bd
00000300: bb46 c33c 32aa 10bd c89f 5abd 99e0 d5bc
00000310: 84f3 86bc 1c1f 13bd b16c 863c 199e 4a3d
00000320: a156 80bc 2a0d 433d 18b5 5b3c ee4a eabc
00000330: 4950 85bd 179a 21bd 9e0b f1bb 1cfc 2bb9
00000340: 6d90 6cbd bd21 35bc 91b7 ad3c 0c67 91bc
00000350: 4ece f7bc 4d8c d83b d772 34bd de9e 41bd
00000360: 89b8 76bb fbe6 6bbd 421d d53d b887 a1bc
00000370: e103 b6bc 9bcd 143d eff2 b73b 2ed0 42bc
00000380: a3cb 1d3d 62c6 8ebd d4c9 133c dba4 54bd
00000390: b475 653d b221 3dbd 0097 123d f3be 5d3d
000003a0: 60a1 4e3c 3292 fdbc e8ce 553d 443a 24bd
000003b0: 5951 66bc 5037 873d a24c 713d 2da2 18bd
000003c0: a803 333d b8e1 0d3d 0faa d73d 93ed f13c
000003d0: 94a0 2f3d 2236 f5bc 58aa ecbc 3018 5b3d
000003e0: 936a 483d 60ef c2bb 1525 dc3b 4e48 063d
000003f0: 6e94 86bb 65e9 f93c e419 a3bd eb17 bd3c

linear3.weight f4 [3, 256]
0.025767663 -0.041560113 0.058511212 -0.025532857 -0.00078753417 -0.036630906 -0.0076186014 -0.043030977
-0.07052501 -0.01930042 0.021675428 -0.02793047 -0.04117471 -0.010431193 -0.035263255 0.028618231
0.06374126 0.0035733979 0.026199242 -0.051843707 -0.04692728 -0.046452794 0.05398882 0.026612021
0.038432904 0.024243543 -0.039134935 0.01231049 -0.043736145 0.04814107 0.013153887 0.006608963
-0.040910836 -0.020221394 0.053588185 -0.053339995 0.031052258 0.032608785 0.01376296 0.040205866
-0.03300407 -0.09881953 -0.013397423 0.0059593036 0.07619426 0.035835896 -0.052805353 -0.03737437
-0.019170182 -0.04143671 0.049520593 -0.049640797 -0.018153908 0.008565098 0.014380731 -0.03203527
-0.02084107 0.0032178394 -0.038494453 -0.053939763 -0.043147724 -0.030709157 0.035030954 0.055088013
0.03511119 -0.03828797 -0.01753466 0.02077831 -0.0108129205 0.038300946 -0.019218035 -0.011056465
-0.016533913 0.029649781 -0.032302 -0.020644967 -0.08676736 0.028070934 0.0054270225 -0.043264557
-0.037752938 0.02519546 -0.055378713 0.026617251 0.051873036 0.01982131 -0.0034863974 0.034401916
0.037920162 0.01904037 0.01116538 -0.06232622 -0.046379134 -0.053969845 -0.0041800085 -0.18683037
0.014748453 0.058318064 0.064121455 -0.025509305 0.03444984 -0.027790762 -0.032022193 -0.09979199
0.027740415 -0.012364255 0.027948806 0.038916156 0.028730681 -0.06023386 0.02271231 0.053036936
-0.030840663 0.019969676 0.023301132 -0.051972374 0.040964 -0.019707445 0.055356685 0.04805552
0.00810798 0.14120701 -0.047702156 -0.053806167 0.0130633665 -0.07656794 0.030087657 0.04471905
-0.027280336 -0.023554964 0.013257919 -0.011274219 -0.03188195 -0.05453425 0.014395531 0.0046118572
-0.035799965 -0.057794783 0.023003688 0.017777849 -0.0485446 0.04907509 -0.05293131 -0.024005614
-0.04254595 -0.03162846 -0.02631456 -0.01770895 0.04492231 -0.014224194 -0.007072603 0.043214712
-0.045096923 -0.027776994 0.020265037 0.04453207 -0.043126613 -0.032498658 0.0018903047 -0.017446462
-0.05605351 0.0120954355 0.012103553 -0.045794874 -0.008267164 0.0133767035 0.027744517 0.055597242
-0.033530954 -0.023057844 -0.041347392 -0.044814877 0.03707873 -0.043282498 -0.022919735 -0.024383008
0.01382064 0.075011835 -0.044323154 0.089640655 0.059400372 -0.05435249 0.008941642 -0.04560558
-0.035551477 -0.081096545 -0.004432083 -0.02989931 0.048351966 0.042475294 -0.034352187 0.059410322
-0.07070814 -0.010438334 -0.0042967796 0.009713613 -0.0023731366 -0.048484363 -0.02788729 0.037732773
-0.036086746 0.0029822302 0.021482391 0.041623525 -0.004585679 -0.007005914 -0.012224633 0.04085645
0.04121791 -0.02780654 0.012451365 -0.03567784 -0.054325648 -0.020702543 -0.04352911 -0.04766065
-0.005673834 -0.0195728 -0.074854195 -0.11005083 -0.06822008 0.043776482 -0.00960334 -0.044275757
-0.010312384 -0.037463646 -0.03480388 0.0079540545 0.046193607 0.007799735 0.015833396 -0.052635618
0.060368527 0.03693457 -0.04930658 0.0016347057 -0.0084181195 -0.059318725 0.010212623 -0.046600755
0.06868344 -0.03303115 -0.055084422 -0.051441077 -0.04297337 0.087971896 0.00975684 0.057556525
0.002161702 -0.003401056 -0.008732772 -0.05716408 0.052061733 0.0358554 -0.00040519892 0.016980078
00000000: b516 d33c f03a 2abd 74a9 6f3d 482a d1bc
00000010: 8672 4eba 4a0a 16bd 76a5 f9bb 4041 30bd
00000020: 6b6f 90bd ea1b 9ebc ab90 b13c 71ce e4bc
00000030: d0a6 28bd 98e7 2abc 3470 10bd c870 ea3c
00000040: c78a 823d ab2f 6a3b cb9f d63c 115a 54bd
00000050: d236 40bd 4945 3ebd 6223 5d3d 7401 da3c
00000060: d26b 1d3d 659a c63c f44b 20bd f0b1 493c
00000070: ac24 33bd 922f 453d 6783 573c 0090 d83b
00000080: 1f92 27bd 56a7 a5bc 497f 5b3d 0a7b 5abd
00000090: 4e61 fe3c ca90 053d 0a7e 613c e8ae 243d
000000a0: 472f 07bd e561 cabd dd80 5bbc 4346 c33b
000000b0: bc0b 9c3d a9c8 123d 6d4a 58bd de15 19bd
000000c0: c90a 9dbc 8ab9 29bd 1bd6 4a3d 2654 4bbd
000000d0: 81b7 94bc a054 0c3c 289d 6b3c 6a37 03bd
000000e0: e4ba aabc 63e2 523b 5cac 1dbd f1ef 5cbd
000000f0: abbb 30bd c591 fbbc 9e7c 0f3d f8a3 613d
00000100: c0d0 0f3d d9d3 1cbd d9a4 8fbc 4637 aa3c
00000110: ad28 31bc 74e1 1c3d 246f 9dbc 2d26 35bc
00000120: 2172 87bc 19e4 f23c 1a4f 04bd a21f a9bc
00000130: 16b3 b1bd 04f5 e53c 2ad5 b13b 2d36 31bd
00000140: d3a2 1abd b666 ce3c cad4 62bd 6c0c da3c
00000150: d278 543d 4d60 a23c 0b7c 64bb 06e9 0c3d
00000160: 2c52 1b3d 8dfa 9b3c ffee 363c c749 7fbd
00000170: 0cf8 3dbd 7c0f 5dbd 74f8 88bb 7650 3fbe
00000180: 7fa3 713c ecde 6e3d 1c52 833d e4f8 d0bc
00000190: 471b 0d3d 74a9 e3bc b429 03bd be5f ccbd
000001a0: de3f e33c 7293 4abc e5f4 e43c 8c66 1f3d
000001b0: 9b5c eb3c c8b7 76bd 2b0f ba3c 423d 593d
000001c0: 8fa5 fcbc 7297 a33c 04e2 be3c fce0 54bd
000001d0: dec9 273d 8271 a1bc b1bd 623d ddd5 443d
000001e0: 55d7 043c 9298 103e 5663 43bd db63 5cbd
000001f0: bb07 563c a7cf 9cbd 647a f63c 532b 373d
00000200: 037b dfbc 57f6 c0bc be37 593c 80b7 38bc
00000210: a696 02bd 4e5f 5fbd 3cdb 6b3c 101f 973b
00000220: fca2 12bd 39ba 6cbd 3b72 bc3c daa2 913c
00000230: b4d6 46bd f602 493d 80ce 58bd 6ca7 c4bc
00000240: a944 2ebd d88c 01bd a291 d7bc 5c12 91bc
00000250: 7500 383d 980c 69bc 4bc1 e7bb e901 313d
00000260: 8db7 38bd 948c e3bc dd02 a63c 4367 363d
00000270: 88a5 30bd 501d 05bd 1ac4 f73a e2eb 8ebc
00000280: 5e98 65bd ef2b 463c fb4d 463c 6893 3bbd
00000290: 0073 07bc f629 5b3c 7848 e33c efb9 633d
000002a0: c157 09bd cee3 bcbc e25b 29bd ce8f 37bd
000002b0: dedf 173d fd48 31bd 2bc2 bbbc e0be c7bc
000002c0: f76f 623c ce9f 993d 328c 35bd 8595 b73d
000002d0: ce4d 733d b7a0 5ebd f77f 123c ebcc 3abd
000002e0: 6d9e 11bd f215 a6bd 023b 91bb 66ef f4bc
000002f0: b60c 463d 93fa 2d3d e1b4 0cbd 3d58 733d
00000300: 6ecf 90bd 8c05 2bbc 00cc 8cbb d925 1f3c
00000310: a086 1bbb 8a97 46bd e373 e4bc ae8d 1a3d
00000320: b2cf 13bd 8571 433b d7fb af3c 6e7d 2a3d
00000330: 7743 96bb de91 e5bb d449 48bc 1859 273d
00000340: 1cd4 283d 8aca e3bc cf00 4c3c ed22 12bd
00000350: 9284 5ebd 6198 a9bc 944b 32bd d037 43bd
00000360: 92eb b9bb 2357 a0bc 284d 99bd 5462 e1bd
00000370: f8b6 8bbd f84e 333d 5457 1dbc 7f5a 35bd
00000380: 46f5 28bc 7b73 19bd 838e 0ebd b951 023c
00000390: 8235 3d3d eb94 ff3b 0ab5 813c 7298 57bd
000003a0: fd44 773d b448 173d b2f5 49bd 9f43 d63a
000003b0: 27ec 09bc 31f8 72bd d852 273c 6fe0 3ebd
000003c0: e7a9 8c3d ac4b 07bd 34a0 61bd e1b3 52bd
000003d0: d804 30bd 9c2a b43d 27db 1f3c 64c0 6b3d
000003e0: 57ab 0d3b 40e4 5ebb e713 0fbc e224 6abd
000003f0: af3e 553d 1ddd 123d e170 d4b9 ce19 8b3c

linear3.bias f4 [3]
0.0054588947 0.04773666 -0.04297904
00000000: 87e0 b23b 8487 433d ca0a 30bd
