models/Env3/PDDRL_256_A5_S3_P/local_episode_1100_reward_200.000000.pt (torch, 293866 bytes, 6 tensors)

linear1.weight f4 [256, 23]
000000 64 2d 7d 3d 01 62 b5 3c 83 36 c4 3c ac 22 94 be
       0.061810866 0.022141458 0.023951774 -0.28932703
000010 af 56 bd be bf f1 05 3e 65 5a 32 3e 01 fa 11 3e
       -0.36980197 0.130805 0.17417295 0.14255525
000020 0e b1 ca 3c 2b 17 4a bc 08 1d 4e be 22 9a e8 be
       0.02474263 -0.012334625 -0.20128262 -0.45430094
000030 b6 5c e5 bc 3f 59 24 3d 6d fc e3 3d 54 c8 b0 bd
       -0.02799831 0.040124174 0.11132131 -0.086319596
000040 e2 7a 12 bc 1a a8 c7 3d f7 32 e0 bd 8d c6 2f be
       -0.00894043 0.0974886 -0.10947221 -0.17165585
000050 e2 90 99 3f 4f 34 c3 be 69 5c a0 3d 5d 36 91 be
       1.199734 -0.38125846 0.07830126 -0.28361788
000060 db 81 21 bf a8 01 f8 be 1a 6b 06 bf d3 d8 db 3e
       -0.6308877 -0.48438764 -0.52507174 0.4293886
000070 6c 8c 01 be a2 88 8d bd a5 12 80 3d a9 22 e8 3c
       -0.12651223 -0.06910826 0.06253556 0.02833684
000080 49 88 b8 3d cb 05 84 be 2b 0e 89 3d 25 b9 ba bd
       0.09010369 -0.2578567 0.066921555 -0.09117345
000090 f2 09 94 bc cc 8a 38 3d 9b be 7e 3e af f2 39 3e
       -0.018071149 0.045054242 0.24877398 0.18158983
0000a0 54 11 0f 3e b9 b7 b8 3e 7c ed 29 3e 28 0f 8a 3e
       0.13971454 0.3607767 0.165945 0.26964688
0000b0 4b 0d 8e bd cb f8 b6 be d1 15 0c 3c a0 3c a2 bd
       -0.06936129 -0.3573669 0.008550123 -0.079217196
0000c0 18 f2 7c 3e cf 55 a5 3e fb 69 39 be 31 a7 f7 3c
       0.24701726 0.3229203 -0.18106835 0.03023109
0000d0 27 c7 80 be 7b 28 61 3c 01 86 1d be 6a 2c f6 3a
       -0.2515194 0.013742561 -0.1538315 0.0018781547
0000e0 c1 d6 2c be 95 c1 c7 bd 4b 5a c9 bd d8 53 08 3e
       -0.16878797 -0.0975372 -0.09831675 0.13313234
0000f0 ca 74 e0 3d 19 bb 11 3e ac 1c 9a bc 4d 67 f2 bc
       0.10959776 0.14231528 -0.0188125 -0.029590273
000100 09 ff dd 3b a5 e1 82 3e fc 0f 07 3e 26 3b 93 3e
       0.0067747873 0.25562778 0.13189691 0.28756064
000110 bb c9 81 bf 0f 5a 29 bd 58 c4 7f bb 56 1d 6e 3d
       -1.0139688 -0.041345652 -0.0039026942 0.058133446
000120 b0 8c d6 3d fb 7c e7 3c 4d b5 df 3d 35 e5 f3 bd
       0.10476053 0.028257838 0.10923252 -0.11908952
000130 ec 09 39 bd 05 ae 0d 3d 9f 84 28 be b2 45 0c 3c
       -0.045175478 0.034589786 -0.16456841 0.0085615385
000140 01 91 e7 3d 76 42 38 3e ab 08 de 3d 1a 02 2a bd
       0.11306954 0.17994103 0.10841497 -0.04150591
000150 b9 77 21 3e d1 18 bb 3c 2b c0 2f bc c7 4c 50 be
       0.15768327 0.022838982 -0.010726969 -0.20341788
000160 87 d0 e8 3d ed 02 cd be d2 dd 9c bf 61 be 11 bd
       0.113678984 -0.40041295 -1.2255194 -0.03558195
000170 61 40 08 3d 45 98 76 bd cd 19 4a be df 2b 42 be
       0.03326452 -0.06020381 -0.19736405 -0.18962048
000180 ce af b4 3e 4a b5 ae 3c 66 48 90 3e 85 c8 86 3e
       0.35290378 0.02132668 0.28180236 0.2632486
000190 b0 1e 13 3e b5 11 6e 3d 5c 46 b1 be 74 79 2b bd
       0.14367175 0.058122355 -0.34623992 -0.041863874
0001a0 19 ba e9 bd 59 10 10 be 31 6b c3 be d3 37 0f bb
       -0.114124484 -0.14068736 -0.38167718 -0.0021853342
0001b0 5e 77 d0 bd a8 62 8e be d9 86 f0 3c 0d 5d 4a 3e
       -0.101790175 -0.27809644 0.029361175 0.19762059
0001c0 66 58 4a 3f 5a 50 05 bd 0a d6 2e bf be 27 1c be
       0.79041135 -0.032547332 -0.6829535 -0.15249535
0001d0 45 e0 b1 be 21 f7 0c be ce 3b 70 3e ce 5a af bd
       -0.34741417 -0.13766147 0.23460314 -0.085622415
0001e0 a6 2a 24 bf 58 34 b2 be c5 80 21 3e b2 d4 ff 3d
       -0.64127576 -0.3480556 0.15771778 0.1249174
0001f0 5c da ce bc 4c 62 49 be 19 80 1d 3e c0 60 26 bc
       -0.025250606 -0.19666404 0.15380897 -0.010154903
000200 5a 27 38 3d a6 92 a7 3c 6a c2 e4 bd cd 69 4d 3a
       0.044959404 0.02045567 -0.11169894 0.0007835895
000210 bf 9b 02 3d 99 f1 94 3e 29 87 ea bd e1 dd 4a 3e
       0.031886812 0.29090574 -0.11451561 0.19811203
000220 b8 53 3b bf ed ac ee be 44 1f a8 3e b3 06 4a be
       -0.7317462 -0.46616307 0.32836354 -0.19729118
000230 8a f1 88 3e e9 5e 38 3e 2e 75 7e 3b 7e 0f 8e bb
       0.2674678 0.18004955 0.0038827169 -0.004335343
000240 77 42 97 3e 4a e6 ee bc fe 8c 90 3d 92 f3 f0 bc
       0.29542896 -0.029162545 0.07058142 -0.029413018
000250 1b e7 d8 bd 7e ed 25 be 20 be 24 3e 5d 85 29 be
       -0.10590955 -0.16203877 0.16088152 -0.1655478
000260 f1 86 84 be 7e fd 61 be bc cc c1 bd 05 fa e4 bd
       -0.25884202 -0.22069356 -0.09462878 -0.111805
000270 ee fd 9e 3c 99 61 37 3d 5f 97 71 3e d4 67 68 3f
       0.019408192 0.04477081 0.235929 0.9078343
000280 c7 02 ca be 10 92 bd 3c b8 ee 7e be ea 30 cc bd
       -0.39455244 0.023140937 -0.24895751 -0.09970267
000290 72 65 3a 3d 7e 81 b5 3d b8 00 43 3e 5f 57 92 3d
       0.045506902 0.08862589 0.19043243 0.07145571
0002a0 d1 b8 de be b6 ba 94 3e 8a af f3 3d c9 17 09 3e
       -0.4350038 0.290487 0.11898716 0.1338798
0002b0 4c 76 24 be f2 89 6c 3e e4 f8 fe be b9 9e b3 be
       -0.16060752 0.23099497 -0.49799263 -0.35082033
0002c0 64 e7 9f be c1 b0 a8 be d3 1e 7f be e5 61 a6 bd
       -0.31231225 -0.32947353 -0.24914102 -0.08124141
0002d0 07 b6 b3 3e 6e 57 b7 3c a4 5a 19 bc 35 7b af 3e
       0.35099813 0.022380557 -0.009359989 0.34273687
0002e0 55 1d 47 3e 3b dc 4c bd e9 48 9a be 6e d8 5b 3e
       0.19444783 -0.050014716 -0.3013375 0.2146928
0002f0 d4 d9 49 bd d5 27 6b bd 6c 9f 40 3c ca 6d 78 bd
       -0.049280003 -0.057411034 0.011756759 -0.060651578
000300 f5 dc 17 be d7 05 9e be d0 7a d9 be c1 aa 22 3e
       -0.14830382 -0.3086383 -0.4247651 0.1588545
000310 d5 b4 3e be e9 3a 18 3d e0 1a a9 3e 04 70 c6 3d
       -0.1862367 0.037165556 0.33028316 0.09689334
000320 4c 9e 2e 3e 4e 01 9f 3d d9 2a 40 bd 1e d5 a1 bd
       0.17052573 0.07763921 -0.046915863 -0.07901977
000330 d1 fd a0 be 62 49 58 bf fd 1a 0b 3f c3 0b c5 be
       -0.31443647 -0.84486973 0.54338056 -0.38485536
000340 b2 0c 9a bd 84 4e 8c bd b9 36 5f bd 28 ed 2b be
       -0.07521953 -0.06850913 -0.054495547 -0.16789687
000350 b2 ea 61 3e 64 03 93 3e 6f cc 15 be c1 c4 31 3e
       0.22062185 0.28713524 -0.14628766 0.17360212
000360 ab c8 00 3e 2d 15 57 bb 9d 13 c2 3d b4 2a 0e bb
       0.12576549 -0.0032819018 0.09476397 -0.0021692934
000370 f5 9d 17 be 50 31 ca be 59 e9 79 bc b1 ae 99 be
       -0.1480635 -0.39490747 -0.015253388 -0.3001609
000380 f1 4e d7 be 0e a7 d4 bd ff 91 d9 bd 7e dc 8b 3e
       -0.42052415 -0.10383426 -0.1062355 0.2731666
000390 af 67 d0 be e4 57 09 bf 27 43 09 be f1 96 4d 3e
       -0.40704104 -0.53649735 -0.13404523 0.20077111
0003a0 ac e4 c0 3d e8 33 2e be 46 27 a1 bd 36 b4 0f bb
       0.09418616 -0.17011988 -0.07868819 -0.0021927482
0003b0 b8 4c 45 3e 89 86 07 3e 75 63 78 bd 1c 25 b3 bd
       0.19267547 0.13234915 -0.060641725 -0.087473124
0003c0 85 06 02 3e ed 02 76 be ab ad 22 be 28 42 81 3e
       0.126978 -0.24024554 -0.15886562 0.25245786
0003d0 e5 be 27 bc 49 07 2d be 7a b1 ee bb b5 a5 97 3e
       -0.010238384 -0.1689731 -0.0072843404 0.29618612
0003e0 f8 48 eb 3e f6 9e 4d be c4 e4 1a bf 13 5f fb 3e
       0.45954108 -0.2008017 -0.6050532 0.49095973
0003f0 f5 58 dc bd 75 06 9b be 05 2c 1a bf f0 a4 3d be
       -0.10759155 -0.30278364 -0.6022342 -0.1851995

linear1.bias f4 [256]
000000 fd 7a 25 3e 17 56 ea 3d 1d d4 46 3e c1 2a aa bc
       0.16160198 0.114422016 0.19416852 -0.02077234
000010 f0 f5 da 3e 47 d0 19 3e 6a a5 c7 bd 37 c4 70 bd
       0.4276576 0.15020858 -0.09748347 -0.058780875
000020 7f 4d ef bd d1 16 be 3e 7d be 2e 3e f3 eb d2 bd
       -0.11684703 0.37126783 0.17064853 -0.1029891
000030 22 8f eb bd a9 7d c0 bd 34 75 62 3d a4 86 2c 3e
       -0.1150191 -0.09398968 0.055287555 0.16848236
000040 6c 79 4b be d8 59 f1 be 46 ac 50 3d c1 da 63 be
       -0.19870538 -0.47138858 0.050945543 -0.22251417
000050 e5 9f 0c 3c e4 63 39 bd ff 17 82 3e 56 c5 80 bd
       0.008583044 -0.04526128 0.25408933 -0.06287639
000060 d4 50 8d bd c0 8d 45 bd fe 59 2f bd 75 91 a3 bd
       -0.06900182 -0.048230886 -0.042810433 -0.07986728
000070 3a 7e 88 bb d7 8d 04 3d 21 c0 ef bd 5f 32 b8 3d
       -0.004165438 0.03236183 -0.117065676 0.089939825
000080 3f 33 16 3e 88 64 e4 3d 31 6a 30 be 55 5c 4e 3e
       0.14667986 0.11151987 -0.17228009 0.2015241
000090 ed a9 3f bd ba 66 6f be 30 4d 9a 3d 93 a5 90 3e
       -0.046792913 -0.23379031 0.075342536 0.28251323
0000a0 ba a0 7f be 2a 77 54 3c b5 df 53 be 09 9b ac bd
       -0.24963656 0.012967864 -0.20690806 -0.08428008
0000b0 fb 7c fe 3d 15 11 8e 3d 1c 3f 8e 3d 1b 3c 5a be
       0.12426182 0.06936852 0.06945631 -0.21311991
0000c0 b2 e7 90 be fa d3 cf bd ae 04 d3 bd ca f1 01 be
       -0.2830177 -0.10147853 -0.10303627 -0.12689891
0000d0 fa 43 4f 3e 4c 53 ce 3c b7 7b 18 3e 60 da b5 3e
       0.20240775 0.025186203 0.14890943 0.3551817
0000e0 f5 80 03 3e 84 21 ea 3d 92 9a 34 bd 4c 30 66 bd
       0.12842162 0.11432174 -0.044092722 -0.056198403
0000f0 7e a0 38 bd a7 75 69 3e ff da 9b bd f6 ba f1 3d
       -0.045074932 0.22798787 -0.076101296 0.11803238
000100 48 63 47 be 65 35 60 3e 3a 56 79 be 99 f7 68 3d
       -0.19471467 0.21895368 -0.24349299 0.056876753
000110 d6 ff 76 3e 50 0b 8b 3d e6 3f 0b bf ca eb 32 3e
       0.24121031 0.06789267 -0.54394376 0.17472759
000120 0f f9 98 be 62 32 19 be bd 5b b4 bc fc 19 0c be
       -0.29877517 -0.14960626 -0.0220164 -0.13681787
000130 df e6 90 3e b8 16 c0 3c 87 2f 34 bd 61 76 90 3d
       0.2830114 0.023448333 -0.043990638 0.07053829
000140 05 04 5f be 87 77 09 3e 40 ce e5 bd 93 1b 62 3e
       -0.21778877 0.13424502 -0.1122098 0.22080831
000150 68 25 8e 3c 13 d0 54 3e 2a 5e 92 be 1b 99 66 be
       0.017351821 0.20782499 -0.28587466 -0.22519343
000160 a8 4f f4 bd 1c 24 c9 3e 73 7c 98 3e c3 6a c2 bd
       -0.11929256 0.39285362 0.29782447 -0.094930194
000170 71 df 32 3e 6a 2f 03 3d 17 72 5f be 29 f0 7e be
       0.17468049 0.03202764 -0.21820866 -0.24896301
000180 b6 91 d2 3d 47 f4 bb 3d f0 a8 58 3e 59 d0 9c bd
       0.102816984 0.091774516 0.21158195 -0.07656927
000190 21 2f 03 3c 01 14 c0 bc 4c a0 0b be cc ef 8b 3e
       0.008006842 -0.023447039 -0.13635367 0.27331388
0001a0 ff 7a 54 be b1 db a5 bd 28 c0 70 3e 4c 6d 0e 3f
       -0.20750044 -0.080985434 0.23510802 0.55635524
0001b0 d5 fb 33 be 73 60 bb bd 98 22 bc bc e4 ed 41 be
       -0.17576535 -0.091492556 -0.022965714 -0.18938404
0001c0 c8 f7 04 be 73 75 2e 3e 01 fc 66 3d 8e 14 20 be
       -0.12985146 0.17036991 0.056392673 -0.15632841
0001d0 d6 72 3f be 07 cc 9d 3e 7b 28 00 3d ee 5d 1b 3e
       -0.1869615 0.30819723 0.031288605 0.1517255
0001e0 11 e8 26 3f de 25 29 3e 09 26 19 3e 4e 97 73 be
       0.65197855 0.16518351 0.14955916 -0.23788187
0001f0 b3 e3 e0 bc 9a a3 93 be a3 40 d3 bd 63 7a 06 3f
       -0.027452325 -0.28835756 -0.10315063 0.525305
000200 2e 90 58 3e 52 9b 95 3e 4e fd b4 bc 8e 26 32 3c
       0.2114875 0.29220062 -0.022093441 0.01087345
000210 bb da 00 be ce 90 2c bd 47 ff d0 3b 38 36 cd bd
       -0.12583439 -0.042130284 0.0063780877 -0.10020107
000220 c2 a2 50 be 6e 2e 1a be 18 4b 2b be 74 e4 1e 3e
       -0.20374587 -0.15056774 -0.16727865 0.15516835
000230 6e f1 c0 3d 84 96 11 be 69 aa 59 be 2e c5 ae 3c
       0.09421049 -0.14217573 -0.21256413 0.021334257
000240 ed f4 82 3e e8 ec 8b bd 7c 80 88 3d ca 5d 00 3e
       0.2557749 -0.06832296 0.066651314 0.12535778
000250 4e d7 66 3e bf ef 31 3e 65 7b 44 be 12 b8 6b 3e
       0.2254307 0.17376612 -0.19187696 0.23019436
000260 16 4e 36 3d a1 d1 a1 bd a8 2e 7a 3e a5 e8 dc bd
       0.044508062 -0.07901312 0.2443186 -0.10786561
000270 d6 0d 4a 3e 55 12 ff bc a7 c5 86 3d 0e 09 b9 bd
       0.1973184 -0.031136671 0.06580668 -0.0903493
000280 fd 4b e4 3d f3 b9 b9 3d cd 03 58 bd ca 96 95 3c
       0.11147306 0.0906867 -0.052738 0.018260378
000290 f2 be a1 bd e2 b2 5c be 19 be ed bb 45 c7 23 bd
       -0.07897748 -0.21552613 -0.0072553274 -0.03998496
0002a0 81 f3 ce 3e dd 9b de 3d 7b 18 9d bd 6e 4b ad 3e
       0.40420154 0.10869572 -0.07670685 0.3384661
0002b0 da 8e 22 3e 03 43 9c be e5 84 b4 3d 5b 3e 46 3e
       0.15874806 -0.30519876 0.0881441 0.19359724
0002c0 aa 11 88 3e 63 b5 cd bd ab a3 13 3e 11 34 05 bc
       0.26575977 -0.100443624 0.14417903 -0.008130089
0002d0 df 74 05 be 65 aa f7 3e 46 4c 02 3e 29 dc 89 bd
       -0.13032864 0.48372188 0.12724409 -0.06731445
0002e0 b7 03 f7 3c c7 ad 07 3b e0 45 06 be 0d b6 32 3e
       0.030153139 0.0020702945 -0.13112593 0.1745226
0002f0 aa 5a 12 be 3d fa c9 3c 46 b0 82 bd 68 43 94 3e
       -0.14292398 0.024655456 -0.06381278 0.28957677
000300 5f eb b5 3d cd 5a 78 be cd 0e 47 3a 16 0f 1d 3e
       0.08882784 -0.24253388 0.0007593453 0.15337786
000310 20 f1 44 be 0f 93 cb 3d bd 52 7a be 62 56 03 3f
       -0.19232607 0.099401586 -0.24445625 0.51303685
000320 5d 24 da 3d 20 0d b3 3d 2d ca be 3d b7 6b 4d 3e
       0.10651467 0.08742738 0.09315906 0.20060621
000330 73 d8 49 3f 40 42 b6 3d 03 27 7a bd 0b 46 0d be
       0.788459 0.08899355 -0.06107236 -0.1379625
000340 25 98 71 3e 57 1b 2c bd d8 0c f8 3d b6 f5 ed 3e
       0.23593195 -0.04201826 0.12111825 0.46476525
000350 4b 73 30 be 0e b6 a4 be dc 4e b2 3e 51 ea 4a 3e
       -0.17231481 -0.32170147 0.3482579 0.19815947
000360 91 ae 42 be 71 ed 8e 3c 0b 03 61 be 51 56 92 3e
       -0.19011904 0.017447205 -0.21973817 0.2858148
000370 00 99 e6 be d5 01 5e be 53 85 a0 be a6 75 ed 3e
       -0.45038605 -0.21680386 -0.31351718 0.4637882
000380 f4 97 94 3e a5 f3 1e bd 6c 3b f1 3d 40 11 07 3d
       0.2902218 -0.038806576 0.11778912 0.032975435
000390 0e 52 ce 3d b5 54 49 be 1d 65 c2 be ce c0 8c be
       0.100742444 -0.1966122 -0.37967768 -0.27490848
0003a0 ce e3 8b 3c 6c 36 a7 bd 3c 1f c1 3e 47 bc 3d be
       0.0170764 -0.08164677 0.37719142 -0.18528853
0003b0 0a b2 dd 3d 6e e2 2d be 00 e0 41 3e 75 05 e5 be
       0.10824974 -0.16980907 0.18933105 -0.44730726
0003c0 6f 40 e2 3d 48 36 44 3e 32 dc d6 3d 58 ef 9c 3d
       0.11047446 0.19161332 0.10491218 0.07662839
0003d0 7c d9 4f bd ed bb c1 be 6e 93 27 bb b8 28 8c be
       -0.05074452 -0.37838688 -0.0025570053 -0.27374816
0003e0 1a ea b8 3d 1c bd df bd 90 46 47 be 15 d8 d0 be
       0.09029026 -0.109247416 -0.19460511 -0.40789858
0003f0 f5 f6 3b 3e 86 ab af 3d da 92 01 bf c3 56 48 3d
       0.18355925 0.085776374 -0.506147 0.048910867

linear2.weight f4 [256, 256]
000000 f1 ac ba bc 0b 33 13 bd 15 5b d0 bc 3c 51 c6 be
       -0.022787543 -0.03593735 -0.025434056 -0.38733852
000010 f2 80 aa 3d 73 b6 e1 be b3 23 8c 3b a7 7b 03 3d
       0.083253756 -0.4408451 0.0042767166 0.032100346
000020 29 3d 13 bc b3 9f f2 3d 3a 43 82 3e 37 70 2b bd
       -0.00898675 0.118468665 0.25441915 -0.041855063
000030 94 34 9f bc 41 62 9c 3e 84 f7 18 bd 40 91 44 be
       -0.01943425 0.30543712 -0.037345424 -0.19196033
000040 e3 08 26 bd 08 a2 8d be e3 36 a3 3d 69 d0 b9 bc
       -0.04053582 -0.27662683 0.07969453 -0.022682386
000050 c0 43 9b 3c 0e d4 a7 bd 7a 3f 92 3d 1c 79 ad be
       0.018953204 -0.08194743 0.071410134 -0.33881462
000060 90 fd 15 bc 16 f8 58 3c 29 76 95 bc 7a bc d1 bc
       -0.009154692 0.013242742 -0.01824482 -0.025602568
000070 56 79 19 3e 2e 29 aa bc eb da fb bb ee 99 a4 3c
       0.14987692 -0.02077159 -0.007686009 0.02009293
000080 be e4 11 39 fe 21 f3 be ba f2 82 3a 85 1d 8f bd
       0.0001391349 -0.4748687 0.0009990551 -0.06988052
000090 92 86 df bd e6 c5 c3 bd 0f 07 2f be cf 2b f6 be
       -0.10914339 -0.095592305 -0.17092536 -0.48080298
0000a0 af f7 d4 3d fd cd 1e be 6a 44 78 3d 26 c5 4d bd
       0.103988044 -0.15508266 0.06061212 -0.050236844
0000b0 82 4a 46 3e 58 4c 0e 3c 23 22 04 3e f2 b4 2b 3d
       0.1936436 0.008685194 0.12903647 0.04192061
0000c0 86 01 4e 3d 2e 52 27 bd 6e c2 1d bf 88 75 1e bd
       0.05029442 -0.040849857 -0.616248 -0.038686305
0000d0 98 d9 81 3e f6 7c 78 be 2f 65 f4 bd 7b 32 48 3e
       0.25361323 -0.24266419 -0.11933362 0.19550507
0000e0 1e cf 1f be 2c 71 eb be 76 a5 26 be 36 84 2f 3a
       -0.15606353 -0.4598478 -0.16274056 0.0006695421
0000f0 3e 5a a5 bd ff 0b e6 3d eb 20 43 bc 11 f5 dd 3e
       -0.08073853 0.11232757 -0.011909704 0.43351033
000100 6f de c5 be 84 a6 d5 3c 3b f0 0a bf e9 47 13 3e
       -0.38646266 0.026080377 -0.5427281 0.143829
000110 90 58 96 3e 18 bf 3e 3c fa 74 1c 3e e1 67 9a be
       0.29364443 0.01164224 0.15278998 -0.30157378
000120 4e 9f 09 be a9 36 34 3d 60 35 b9 be 07 bf 57 be
       -0.13439676 0.04399744 -0.36173534 -0.21068965
000130 27 4b b9 be 66 b2 17 3d 9f 2d 2c 3e b9 2c 77 be
       -0.3619015 0.03703537 0.16814278 -0.24138154
000140 9a bf 1c bd 0c ee ef be 01 9a 00 3e 3b 7e 36 be
       -0.038268663 -0.46861303 0.12558748 -0.1782159
000150 8e 39 3a bf f8 9c 65 3e f7 6e 07 bf 33 46 a1 bd
       -0.7274407 0.2242316 -0.52903694 -0.078747176
000160 bd 18 bd bc 10 e4 eb bd 40 63 16 bd 2b 80 84 be
       -0.023083085 -0.11518109 -0.036715746 -0.25879034
000170 fd 86 b8 3d ff 93 44 3e 83 2c 78 3d d9 00 15 3e
       0.09010122 0.19197081 0.060589325 0.14551105
000180 dd 3c 0f be b3 de 3c 3e 92 18 75 bd 19 91 03 be
       -0.13988061 0.18444328 -0.059837885 -0.12848319
000190 22 2d 44 3e 61 2a 93 3d f2 a7 28 3d 3c da 1f bd
       0.19157842 0.071858175 0.04117579 -0.039026484
0001a0 a0 47 b7 bb d0 8b a0 be da f3 90 bc 9f 3b 03 be
       -0.005593255 -0.31356668 -0.017694402 -0.12815712
0001b0 f0 c2 47 bd 62 ff 08 3e 4e 29 04 3d 91 41 65 3e
       -0.04876989 0.13378671 0.032265954 0.22388293
0001c0 d8 fa 8a bc 11 4f 8b 3e 3e f3 83 3b e6 1c 75 3d
       -0.016965315 0.2720876 0.0040267995 0.059842013
0001d0 3c 59 93 3d ec e5 a0 bb fb 95 87 3d 53 33 21 bf
       0.071947545 -0.0049102213 0.066204034 -0.6296894
0001e0 bb e4 15 bf c1 9d e3 3d f9 57 6d 3d 4e 54 11 be
       -0.5855214 0.111140735 0.057945225 -0.14192316
0001f0 42 aa 81 3d 7c 04 60 bd 28 c8 0e 3d 22 70 fc be
       0.06331302 -0.054691777 0.034858853 -0.493043
000200 50 97 98 be a9 e6 01 be 66 cc 40 be 37 ac bf be
       -0.29802942 -0.12685646 -0.18827972 -0.37436077
000210 a7 44 c5 be 0b 6d c0 be 43 d8 32 3d 10 18 7f be
       -0.3852894 -0.37583193 0.043663274 -0.24911523
000220 72 ee a9 be 7b 0a 8d be 48 10 15 bc 2a ca ca bd
       -0.33189732 -0.27547058 -0.00909812 -0.09901841
000230 a5 41 4c bb d8 3f ff bd c2 21 32 be 24 a4 11 bd
       -0.0031167057 -0.12463349 -0.1739569 -0.035556927
000240 b5 53 c4 bc af 61 26 bf f4 1f 87 be 39 c8 ba 3e
       -0.023965696 -0.64992803 -0.26391566 0.36480883
000250 24 28 ea 3d e8 d7 1f 3e 56 2b e3 bd 0e f8 5f be
       0.114334375 0.15609705 -0.1109225 -0.21871969
000260 c0 17 f6 3b 0e bc 4b 3d 89 a1 7b bd 4d 02 14 bd
       0.0075101554 0.04973989 -0.06143335 -0.036135007
000270 d4 dd 44 be 06 22 d2 3e 7c e5 48 bd 37 d7 04 be
       -0.19225246 0.41041583 -0.04904698 -0.12972723
000280 bf b2 ab bc 05 03 90 be 98 8c 5b 3d 20 8e 62 be
       -0.020959256 -0.28127304 0.053600878 -0.22124529
000290 43 7d 63 3e dd fa 91 3e 13 68 1b 3d c9 4f 5c 3e
       0.22215752 0.28511706 0.03794105 0.2151481
0002a0 e0 6e b6 bd 7e 65 97 3d 15 10 4b bf 88 bd 86 bc
       -0.089078665 0.07392405 -0.79321414 -0.016447797
0002b0 e4 a5 01 3e 3f 18 2d 3e 21 51 18 3d a4 e8 1e be
       0.12660939 0.1690378 0.037186746 -0.15518433
0002c0 65 fa 30 be cd 84 d4 be a1 4d a4 bc 99 9d 63 bd
       -0.17283018 -0.4150757 -0.020056548 -0.05557022
0002d0 ed b1 48 3e fe 45 a3 3d f1 02 a1 be 84 46 a6 bd
       0.19599123 0.07972334 -0.31447557 -0.081189185
0002e0 c8 75 61 3e a5 fb a5 bc 43 d5 db 3d 57 82 dc bd
       0.22017586 -0.020261595 0.10734036 -0.10767048
0002f0 fa 72 3a 3e f5 99 3a 3e 9c 9c 9c 3d 9d 60 33 3e
       0.18207923 0.18222792 0.07647058 0.17517324
000300 89 fa a2 3e 94 9b 19 3e 50 96 69 bd 83 51 0b 3e
       0.31831768 0.15000755 -0.057028115 0.13605313
000310 0f 11 89 be aa 1d a8 3d b8 02 84 3e 9a 94 bb be
       -0.26770827 0.08208783 0.25783324 -0.36636811
000320 bf 44 d2 bd bf 95 87 3c a6 81 88 be d7 35 90 be
       -0.102670185 0.016550897 -0.26661414 -0.28166077
000330 ac e9 02 be db bb 3f be f0 a4 b0 3b 78 17 4e bc
       -0.12784451 -0.18724005 0.005390756 -0.012578838
000340 23 51 0b be e0 2e 87 3e da 4b 30 3e d4 14 ee be
       -0.1360517 0.2640295 0.17216435 -0.46500266
000350 21 85 2b 3e 98 e6 54 3d 0f c3 95 3c 16 0c e3 3d
       0.16750003 0.051977724 0.018281488 0.110862896
000360 7a 6d 3b 3d ed ef 52 3e 38 5e 8c be 36 7c 29 be
       0.0457587 0.20599337 -0.27415633 -0.16551289
000370 b5 9b bd 3d 5b a1 ab 3e 0c 1e e8 3d f1 36 54 bc
       0.092582144 0.33521542 0.11333856 -0.012952552
000380 41 90 4d 3e 40 c5 07 3f a8 13 b1 3d 2b 5b 1a bc
       0.2007456 0.53035355 0.08646327 -0.00942115
000390 d6 d3 3d 3e 12 0f 19 3c cf d5 81 be de 62 bf 3e
       0.1853784 0.009341972 -0.25358436 0.37380117
0003a0 cd d3 88 3d 01 87 5a be 82 4a 46 be 36 09 5d 3d
       0.06681023 -0.21340562 -0.1936436 0.053963862
0003b0 cc 0d db 3c 89 89 a4 bd ee f5 49 bd fe 24 a6 3b
       0.026739977 -0.08034045 -0.049306802 0.005070328
0003c0 2d 58 9c 3e 46 9d c7 3d 3f 0d 3b bb 56 d9 fd 3d
       0.30536023 0.097467944 -0.002854183 0.12394969
0003d0 b5 da 3d be 44 bc 7d be a4 ff 6d 3d d2 12 b2 3e
       -0.18540461 -0.24778849 0.058105126 0.34779984
0003e0 72 56 49 be da 13 e6 3d d5 1b 29 3e 94 2c cb 3d
       -0.19661883 0.11234255 0.16514523 0.09920612
0003f0 86 0d 59 3c 69 4a 00 be cc 06 35 be 07 b6 8d 3d
       0.013247853 -0.12528385 -0.17678374 0.069194846

linear2.bias f4 [256]
000000 6f c6 ee bd 60 45 86 be 2c b3 5d 3e 55 c4 28 3d
       -0.11658942 -0.26224804 0.2165038 0.04120286
000010 e8 d8 8f 3d 81 13 40 bd 6e 30 d1 3d 86 95 1c be
       0.070237935 -0.0468936 0.10214315 -0.15291414
000020 25 4f e5 bd 5a ac b5 be 5d 12 1a bc ec 9c 47 bd
       -0.11196736 -0.35483056 -0.009403792 -0.048733637
000030 87 a7 62 be 37 b2 b1 3d 4a d7 d0 3c b1 d0 69 be
       -0.22134219 0.0867657 0.025493283 -0.22833516
000040 0a 93 51 bd 7a 5e 5d bd ad f2 26 3c f9 8a 97 bd
       -0.051165618 -0.054045178 0.010189694 -0.07399554
000050 2a 25 30 b9 1a 66 10 be 9f 9a 80 bd 13 dc 42 be
       -0.00016798513 -0.14101449 -0.06279492 -0.19029264
000060 06 10 99 3d 8c bb 70 3d 4a 7d be bc b3 5c ad bc
       0.07473759 0.05877261 -0.023253102 -0.021162366
000070 1a 7c 5a be 3f 6f d8 bd a1 f1 da 3d 0f ac 39 3d
       -0.21336403 -0.105680935 0.10690618 0.045330103
000080 4d f3 0b be 55 08 ba bd 71 76 a7 3c 46 8b 51 be
       -0.1366703 -0.090836205 0.02044222 -0.20463285
000090 ba 1b d0 bd ce 4e a9 3b 82 d3 b6 bd d3 1d f2 bd
       -0.101615384 0.005166865 -0.08927061 -0.11822095
0000a0 65 98 29 bd 63 6f fe 3d c4 86 32 be 1e 1d 3e 3d
       -0.0414051 0.12423589 -0.17434222 0.046414487
0000b0 e8 c3 88 bc 78 86 d6 bd 5a 88 a6 bc 08 69 a8 bd
       -0.016694978 -0.10474867 -0.02032869 -0.08223158
0000c0 c0 4e 13 3d 84 27 ee bc e5 2a 13 3e 61 3c 83 be
       0.035963774 -0.029071577 0.14371832 -0.25632003
0000d0 29 0c 10 be 63 43 ed bd 9a 39 7c 3c 50 71 16 bd
       -0.14067139 -0.115851186 0.015394593 -0.036729157
0000e0 56 15 24 bd 65 09 6e bc 66 08 00 bd 07 5a 82 bd
       -0.04005941 -0.014528607 -0.03125801 -0.063648276
0000f0 10 4e 20 be 74 01 4c bc 47 95 1c be f2 1d 52 be
       -0.15654778 -0.012451518 -0.1529132 -0.20519236
000100 00 3e d4 bc 78 53 56 be 07 33 9c 3d b1 e2 0e 3d
       -0.02590847 -0.20930278 0.0762692 0.03488416
000110 5e 60 2c be 24 25 a3 bb 27 af d6 3b 03 ab bd bd
       -0.16833636 -0.0049787927 0.0065516415 -0.092611335
000120 d9 ba 52 bc 49 af 2f be 50 0b 1b be 3f f2 9a 3c
       -0.012861931 -0.1715671 -0.15141034 0.01891434
000130 66 7f 5b be a5 4b 05 be f3 bb 72 be e4 d1 53 be
       -0.21435317 -0.13017137 -0.2370451 -0.20685536
000140 e5 bd f7 bd 0d 57 4b 3e 30 88 0d bd d6 9c 08 3d
       -0.120967664 0.19857426 -0.034553707 0.033352695
000150 44 29 1b be 20 2b 94 bc 3f 91 50 3d b8 fc 4a 3e
       -0.1515246 -0.01808697 0.050919767 0.19822967
000160 ea 53 d3 bd 3f ff 8e bb d6 cf 66 bd 65 8a bd 3c
       -0.1031874 -0.004363924 -0.05635055 0.02313728
000170 2d 29 ed bd 4f 89 9b 3c b4 49 d0 bd 78 b5 c4 be
       -0.11580119 0.018986372 -0.10170308 -0.384197
000180 84 2d cf 3d af b1 7a bd 72 ae 4f bd 53 f0 00 3e
       0.10116103 -0.06120461 -0.050703473 0.12591676
000190 3c 2e 87 bd a9 f0 a5 3d 29 55 30 be 44 f9 9c bd
       -0.066006154 0.08102543 -0.17219986 -0.07664731
0001a0 47 6c 91 bc 38 d8 e9 3d 04 09 2f bc f8 5c 95 3d
       -0.017751826 0.114181936 -0.010683302 0.07293123
0001b0 bd 4a ea 3c 0c 58 e9 3d 9e 74 97 3c 4b 6e 39 bd
       0.028600091 0.11393747 0.018488225 -0.0452712
0001c0 23 2e 61 be ae 1c c0 bd c7 44 0f bc b1 cf f2 3c
       -0.21990256 -0.0938047 -0.008744425 0.02964005
0001d0 dd 2d e9 3d 2f 83 ef 3c 24 9b 65 be 38 7c 74 3e
       0.11385701 0.029237358 -0.22422463 0.2387551
0001e0 72 8b c2 3c 99 02 1f 3e 0c 2d 74 3d 5b 1f 4a bd
       0.023748133 0.15528335 0.059613273 -0.04934631
0001f0 7d de 0a be 24 ce ad be 21 a7 3f 3d bf cb 47 3e
       -0.13561435 -0.33946335 0.046790246 0.19511317
000200 39 c7 b2 be ab b0 73 be d4 77 59 3b a2 08 34 3c
       -0.3491762 -0.23797862 0.0033182995 0.010988386
000210 d0 a6 82 bd 87 76 33 bd 8f cf 60 bc 62 d8 1f bd
       -0.06379473 -0.04381421 -0.013721361 -0.039024718
000220 c2 e9 2b be 57 ce 34 be 90 ed f0 b8 73 16 b6 bd
       -0.1678839 -0.17656837 -0.00011488341 -0.088910006
000230 f5 7c 87 3c 99 f9 d3 3d b7 c2 c9 bd dd 6a 0e be
       0.016539076 0.10350341 -0.09851592 -0.13907953
000240 e0 61 69 be 2f 5d 39 bd 8a 24 97 bc da 89 0b be
       -0.22791243 -0.045254882 -0.01845004 -0.13626805
000250 da d3 86 bd cd e5 f9 bc 9c 11 0b bd 0c 5d 9e bd
       -0.06583376 -0.030505085 -0.03395234 -0.07732591
000260 77 40 ff bc 8b 14 05 3d 2c 4c 6f bd 34 b5 0d 3e
       -0.031158669 0.032490294 -0.058422253 0.13838655
000270 87 cd 6b 3d b7 7a 75 bd 38 b9 09 be 66 6a 59 be
       0.057569053 -0.059931483 -0.13449562 -0.21231994
000280 4e d6 65 be 7c f4 a7 bd 87 36 ff bd 14 15 89 be
       -0.22445032 -0.082009286 -0.12461572 -0.26773894
000290 5d 3c 6a be fb 1a 70 bd dc 4a 8f bd 31 a4 0c bc
       -0.2287459 -0.05861948 -0.069967 -0.008584068
0002a0 d4 53 67 be 9b 24 ea bd 93 17 07 3d 2c 13 82 3e
       -0.22590572 -0.11432763 0.032981467 0.25405252
0002b0 69 95 8b bd 6b 36 ab 3b 4b 2e c1 bd 70 26 a3 bd
       -0.06815607 0.005224993 -0.09432658 -0.07966316
0002c0 5a 09 b7 be 84 42 8b bc 97 c8 b4 bd 1b eb 97 bd
       -0.35749322 -0.01699949 -0.08827322 -0.0741789
0002d0 d8 37 39 3e 28 46 b4 3d fd f8 38 3d f2 72 b6 bd
       0.18087709 0.08802444 0.04515933 -0.08908643
0002e0 6c a6 43 3c d0 d6 f1 3d 4b e4 8c bd 37 11 65 be
       0.011941534 0.1180855 -0.06879481 -0.22369848
0002f0 fc 04 94 be 94 f5 0e 3d 08 63 b8 bd 1f 46 3c be
       -0.28910053 0.03490217 -0.09003264 -0.18386124
000300 be ce 0c bd 26 65 a7 be 78 0a a3 bd 1d 4e c5 3c
       -0.034376852 -0.32694358 -0.07960981 0.024085099
000310 c5 38 4b bd c2 0c 96 bd b2 ee 12 3d 2a 3d 51 3e
       -0.049614687 -0.07326652 0.03587217 0.20433488
000320 91 7b cb bc 70 4f f9 bd 6c 9b d6 bb 67 86 5b be
       -0.024839194 -0.121733546 -0.0065492895 -0.21437989
000330 99 83 0b bf f2 8d 68 be 9e 5c a1 bc 8b e0 99 bd
       -0.5449768 -0.22710398 -0.019697484 -0.07513531
000340 64 72 c7 bd c6 0d 4a 3d a8 68 32 be 01 3c 1f bd
       -0.09738615 0.04932954 -0.17422736 -0.038875584
000350 69 af 34 3d dd c5 23 bd 62 96 8c bd 5c dd 0c 3c
       0.044112597 -0.03998362 -0.06864621 0.008597698
000360 fb f9 de bd d4 fa e0 bd 91 c2 08 be ce 94 94 3d
       -0.10887524 -0.10985342 -0.13355471 0.07254945
000370 15 9d 4d bd 85 3b c0 3d 10 4e bc bd 69 07 44 3d
       -0.050198633 0.093863524 -0.09194577 0.04785863
000380 13 d1 c3 3d 97 66 a9 bd b6 c9 cc bd a5 54 c8 3c
       0.09561362 -0.082715206 -0.09999411 0.024454424
000390 3c 33 9a be d4 45 75 be ff 16 ef bb 91 9f 35 be
       -0.30117214 -0.23952419 -0.0072964425 -0.17736651
0003a0 0e ef 73 bd 82 ea 0e be 3e 5a 24 bd 06 cb 8b be
       -0.059554152 -0.13956645 -0.040125124 -0.27303332
0003b0 3e e4 90 bd 90 19 78 bb 23 8c 66 3d 78 73 4f be
       -0.07074784 -0.0037857033 0.05628599 -0.20258892
0003c0 07 d3 8e bc 6d 85 86 be af 98 1a be 90 24 4d be
       -0.01743461 -0.2627367 -0.15097307 -0.20033479
0003d0 0f 71 36 3e 7d 6d 8d be 63 07 3a bd 37 e6 11 3e
       0.17816566 -0.27622595 -0.0454172 0.14247976
0003e0 bd 89 09 3d b4 53 05 3e cb 2e 54 be 2a b4 9a bc
       0.033578623 0.13020211 -0.20720975 -0.018884737
0003f0 ba ef 8d 3d ed 27 ab 3c 25 75 be 3d 78 93 8f 3c
       0.0693049 0.020893062 0.09299687 0.017526373

linear3.weight f4 [3, 256]
000000 ca 78 4f 3e 97 d4 5f be e3 9b cd 3e 1e f4 51 3f
       0.20260921 -0.2185844 0.40157995 0.8201312
000010 e4 ec 98 3e 96 3c b8 be e0 8c 2a be 59 d6 ad 3e
       0.29868233 -0.35983723 -0.16655302 0.33952597
000020 c7 c0 07 be 3a 76 3a bf 49 6b c6 bd b7 4a 94 bc
       -0.13257132 -0.7283665 -0.09688432 -0.018102033
000030 e2 bd 00 3e c9 b6 9a 3d 48 52 f6 bb 78 c7 dc 3e
       0.12572435 0.07554395 -0.007517133 0.43120933
000040 b5 09 8b 3d 31 75 90 b8 61 13 75 3e 4d 4d c0 bd
       0.06788961 -6.888284e-05 0.23933174 -0.09389744
000050 b1 42 b1 bc 30 72 83 bd 88 11 dd 3c 41 92 08 be
       -0.021638246 -0.06418264 0.026985899 -0.13337041
000060 cc 49 95 3f cc ce 7a 3c 28 15 35 be a1 76 bd 3c
       1.1663146 0.015308093 -0.17683852 0.023127856
000070 1b 01 56 be 0d d3 06 bd 0b 70 81 bd 9c 45 a3 3c
       -0.20898859 -0.032916117 -0.063201986 0.019930653
000080 6f d1 69 bf 8f b1 b1 bc 4a 16 fa 3e da 1d 74 be
       -0.91335195 -0.021691112 0.4884513 -0.23839512
000090 84 9e 11 3c 19 db 47 3d 28 0e 40 bc 8a b2 ca bc
       0.008887891 0.048792932 -0.011722125 -0.024743337
0000a0 f2 de ab bc ff 3c e1 3d 5c 0b 16 3f 3f 5f 1c bd
       -0.020980332 0.10997962 0.58611083 -0.03817677
0000b0 c5 1b 85 3d d2 ed 0f 3e 20 7f 14 bd 9a e1 fa 3d
       0.06499437 0.14055565 -0.03625405 0.12250061
0000c0 44 0a fe 3d 6a bc aa bc b6 c0 b8 3d 37 2f f9 be
       0.12404302 -0.020841796 0.09021132 -0.48668835
0000d0 7b cf cd 3d 62 69 4f bd 4f 48 8e 36 b9 69 0d 3f
       0.100493394 -0.05063761 4.2403476e-06 0.55239445
0000e0 8b 7c 53 be 11 0d 68 bc 23 89 05 bd 4b e2 b9 bc
       -0.20652978 -0.0141632715 -0.032601487 -0.022690913
0000f0 42 7b c5 3d 6b 15 a7 3e 45 f3 cf 3e 78 45 d1 3e
       0.0964265 0.32633528 0.40615287 0.40873313
000100 16 8d 8e 3d 2a 61 d8 3d da 61 4c 3f a4 c3 9d 3d
       0.06960504 0.105654076 0.7983681 0.07703331
000110 0b e5 9a 3e e1 dc 3c 3c 25 b9 de 3d 62 ca 4a 3d
       0.3025287 0.011527271 0.10875157 0.049509414
000120 7d 2b 9a 3c 42 72 03 3f ae 9b 49 be 01 df d0 3e
       0.018819565 0.5134622 -0.19688293 0.40795138
000130 20 95 4b bf 79 cc 64 bb 3d f8 3d be 50 1a 6b be
       -0.7952442 -0.0034911914 -0.18551727 -0.22959256
000140 8e 79 14 3e 8f ce f4 bd eb b9 98 3d 8f 66 1c 3f
       0.14499494 -0.119534604 0.07457336 0.6109399
000150 d9 e5 0b bc d0 8b 17 be 9f 44 24 be fd 3e 62 3e
       -0.008538687 -0.14799428 -0.16041802 0.2209434
000160 a0 4c 9c 3e be 2f b1 3d b7 71 0e 3e 8e c5 5a bc
       0.3052721 0.08651684 0.13910566 -0.013352765
000170 ad 36 87 be ad c1 ea 3c 09 a3 8d bc a7 a9 1f 3f
       -0.26408902 0.028656805 -0.017289655 0.62368244
000180 ca 85 c8 3f 52 83 8c 3d 2d 2f 35 3d 5c e9 81 bd
       1.5665829 0.06860985 0.044234443 -0.06343338
000190 b6 82 7c 3c b2 e9 c9 3d 35 3b 6e be ef df 2e bd
       0.015412023 0.09859027 -0.23264773 -0.04269403
0001a0 cc cc a8 3e 9f 76 ec 3b 8d 44 83 3e 94 69 08 3e
       0.32968748 0.007216289 0.25638238 0.13321525
0001b0 79 9e 53 3f cf f4 cc ba 55 75 1d 3f 62 ec 59 3d
       0.82663685 -0.0015636923 0.6150716 0.053203948
0001c0 7d fb 51 bc c8 0b cb 3e 2a f5 09 3e 67 c9 17 be
       -0.012816307 0.39657426 0.13472429 -0.14822923
0001d0 c1 0e 9a be fc 3d 66 3e cd e6 14 bf 50 7f 7d 3d
       -0.3008938 0.22484583 -0.58164674 0.061888993
0001e0 e8 4f 18 3c e6 01 21 be 05 88 ab 3c a3 0d d0 be
       0.009296395 -0.1572338 0.020938883 -0.40635404
0001f0 be 56 29 bf 8d 7e 9a be 2a c7 c9 3e 4b 4e a3 3e
       -0.66147983 -0.30174676 0.39409763 0.3189567
000200 c2 bb 2d bd 83 ff 95 be cd 84 6e 3c 84 bb cd 3e
       -0.042415388 -0.29296502 0.014558029 0.40182126
000210 38 ca f9 bd f9 3b 7b bd a2 47 2a 3e 51 db d5 bb
       -0.12196773 -0.06133649 0.16628888 -0.0065263887
000220 e1 67 f1 be 29 06 35 be 7b 7c df 3e 2f 63 04 be
       -0.47149566 -0.17678131 0.4364966 -0.1292846
000230 73 bf 45 bc 5e 2d 80 3e 15 51 23 bd 4e 0a 27 3c
       -0.012069571 0.25034612 -0.039872248 0.010195328
000240 01 6a 18 bf c6 a0 e2 3e be f5 0f bc a4 f3 43 3f
       -0.5953675 0.44263285 -0.008786617 0.7654364
000250 d7 53 ca 3e ac 86 6c bc ff ac d2 b9 6c 85 aa 3c
       0.3951709 -0.014436405 -0.00040183213 0.020815574
000260 ec 12 70 3d 65 25 43 bc 1f 09 23 3c 35 5b 03 3f
       0.058611795 -0.011910771 0.009950905 0.51311046
000270 0e fd e9 bd 8d 65 e7 bc d0 d3 10 be b3 6d f4 bd
       -0.114252195 -0.028246665 -0.141433 -0.11934986
000280 31 02 83 be 49 be 0c be 10 f9 01 bf 29 d4 94 bd
       -0.2558761 -0.13744463 -0.50770664 -0.07267029
000290 54 cf 28 3f fb 60 6f bf 28 7b 88 be 72 b0 9d 3d
       0.6594136 -0.93507355 -0.2665646 0.0769967
0002a0 3e df 21 bf 01 cf 5b 3c be 72 93 be 34 88 b9 3f
       -0.63231266 0.013416053 -0.2879848 1.4494691
0002b0 ef 61 4f 3f d0 5e dd 3e 14 c8 3e bc cd 36 80 3c
       0.8100881 0.432364 -0.011644382 0.015651131
0002c0 a7 af d2 3d 80 ff 0b 3d f9 5c bd bc ec 6d 05 3c
       0.10287409 0.03417921 -0.023115622 0.008143883
0002d0 4a 34 77 3e 37 d1 12 bd bf c0 87 3d 15 b9 b0 bd
       0.2414104 -0.035844054 0.0662856 -0.086290516
0002e0 10 f5 63 3d 0d b1 fe be f1 f1 08 3f b4 f8 66 bf
       0.05565363 -0.49744454 0.53494173 -0.9022324
0002f0 0c 8b 91 be 59 8f fc 3d 32 66 f3 be b0 62 2f 3f
       -0.28426397 0.12332029 -0.47538906 0.6850996
000300 00 2c b0 be 89 6a 32 3c 6e 55 2e 3c 0b 89 19 3f
       -0.3440857 0.010889658 0.010640485 0.59974736
000310 92 09 01 3c 53 40 15 bc 09 c0 b6 bd 0e 43 50 3f
       0.007875817 -0.009109574 -0.089233465 0.8135232
000320 f5 cc 02 bf 5f fe 54 bc a2 2b a3 3b 06 b4 aa 3d
       -0.5109399 -0.0130001 0.0049795667 0.08335118
000330 8c ba 9d be 59 60 23 bf 0b 1e eb 3b 5b 65 f9 3b
       -0.30806386 -0.6381889 0.0071752123 0.0076109595
000340 34 81 65 3f 68 07 30 bd 60 30 3d be bd e0 e4 bc
       0.89650273 -0.042975813 -0.18475485 -0.027939195
000350 d0 ba 09 bf 2e 06 1f 3c 6b 0b 1e bd 97 11 cb bc
       -0.5380068 0.009706063 -0.038585108 -0.02478866
000360 ac 7b ed 3d 90 7d 08 bd cf 7c 40 bc fa 09 82 3d
       0.11595854 -0.03332287 -0.011748507 0.06349559
000370 1b 81 60 bd 94 34 8d 3e 0a af 0a 3f 34 01 d5 3d
       -0.054810625 0.27579176 0.5417334 0.1040062
000380 4c 57 21 3e 21 75 8e bd 62 73 16 bf 1e 14 25 3d
       0.15755957 -0.06955934 -0.5876981 0.04030239
000390 e4 b6 33 3f b5 e8 85 3d 3f d3 12 3c 2f cf ea bd
       0.70200944 0.06538526 0.008961498 -0.114652984
0003a0 3f 46 3c 3f 48 3c 83 3b be b8 d6 be b5 0d 00 bf
       0.7354469 0.004004989 -0.41937822 -0.50020915
0003b0 0a 0e 3a 3f bd 9c 13 bf 4b 3a 75 3e f6 8c 52 bf
       0.7267767 -0.5766104 0.23948018 -0.8224634
0003c0 88 a5 4c 3f 0c b2 b2 bc 4d ab 39 bf c5 1e eb be
       0.7994008 -0.021813415 -0.7252701 -0.45921913
0003d0 0b be 83 be b8 44 11 be 75 55 e1 bd 84 09 7a 3f
       -0.2573093 -0.1418637 -0.11002628 0.9767077
0003e0 4a 46 52 3a 38 ec 90 3f 1f 32 e4 be 55 ba 25 bd
       0.0008021338 1.1322088 -0.4456949 -0.040460903
0003f0 dd 38 2d 3e c9 ea c5 3e 30 ab 04 3f 1c f4 45 3d
       0.16916223 0.3865569 0.5182371 0.048328504

linear3.bias f4 [3]
000000 6a 44 30 3d e2 f9 4d bd 73 01 1c be
       0.043033995 -0.050287135 -0.15234928
