models/Env3/PDSRL_256_A5_S3_P/local_episode_2600_reward_200.000000.pt (torch, 297564 bytes, 8 tensors)

fc0.weight f4 [256, 23]
0.015539643 -0.07887063 0.018839626 -0.036441397 0.025736311 -0.06940428 -0.06001759 0.007910441
-0.073593214 -0.07622863 0.00087457313 -0.054237753 -0.058026962 -0.04634325 -0.04577445 0.012661901
-0.084706955 -0.029143905 0.032100834 -0.06639809 0.061557837 -0.012788132 -0.009678395 -0.057671215
0.009101392 0.00929644 0.013636177 -0.057366792 -0.052331988 0.0024491027 -0.040004637 -0.04337908
-0.03478663 -0.0137909595 -0.06744464 0.0010616571 -0.0924468 -0.06781196 -0.014631956 -0.0022245317
-0.034057178 -0.084528744 0.019414207 -0.025334358 0.015363688 -0.027030239 0.023052044 0.009054195
0.010208725 -0.06602958 -0.040424194 -0.06567549 -0.026929999 -0.09529694 -0.057190023 -0.038127057
-0.06917775 -0.009922708 -0.05228846 -0.012203338 0.025243951 -0.008862631 -0.01679547 -0.05568431
-0.052581232 -0.07428312 -0.018399157 0.040186547 -0.008119959 -0.020623667 0.01298006 -0.022883117
0.026259461 0.048556704 -0.06464933 -0.038354356 -0.056210726 0.021557402 0.030047689 -0.10936552
-0.0044175494 0.008669902 -0.013854194 -0.07363358 -0.04486547 -0.0061563547 0.013580601 -0.08800122
-0.12238851 -0.08818234 -0.009952504 -0.10998686 0.43388385 0.032965664 -0.12130442 0.14905381
0.1818149 -0.04308639 -0.4326622 -0.27498862 0.14874128 0.28534245 -0.20932142 -0.32724884
-0.07745523 0.037932023 0.10710456 -0.25361466 -0.040324 0.10451024 0.05323572 -0.057147857
0.07207005 -0.10104026 -0.056474097 -0.022007503 -0.017354878 -0.0041106534 -0.07194068 0.026567925
-0.063338354 -0.062316336 0.03570826 -0.074471936 0.00366818 -0.0125089595 0.016861299 -0.08431551
-0.054235384 0.028644409 -0.058732618 -0.07683314 -0.06197593 -0.006384724 -0.022700964 -0.041172985
-0.00552487 -0.077217005 -0.014932775 -0.0036348922 0.004403926 0.017237486 -0.066308565 -0.09093014
-0.015636047 -0.039841652 0.06659293 -0.041850407 0.015595702 -0.025768781 -0.005619761 -0.042717025
-0.003544374 0.044071082 0.016222619 -0.045192923 -0.0590127 -0.025569197 -0.013411306 -0.0019458053
-0.023600457 0.16130374 0.101977386 -0.06384855 0.11223963 0.30652243 0.10411701 0.012786112
0.09217427 0.09854058 -0.34733528 -0.8420055 -0.34854156 -0.11685243 -0.05948429 -0.11570578
0.07122142 -0.05312117 0.13058496 0.10383694 -0.04102071 -0.30692893 0.12518832 0.235839
0.21916932 -0.16029638 -0.051029295 0.20516501 -0.08909871 -0.012628849 -0.082391545 -0.07026472
-0.10074602 -0.09707011 -0.09729638 -0.09943528 -0.040001888 0.07722819 0.22662266 0.07882063
0.13947825 0.28174973 -0.016444983 -0.17886928 -0.13765182 -0.025054162 0.041412637 -0.19528398
-0.06314789 -0.14046474 -0.022932926 0.018868031 0.1111884 0.079174146 -0.008041871 -0.018492857
0.15726502 -0.21914949 -0.3846981 -0.5937809 0.19560002 0.49012798 0.20315419 0.15778385
0.12435273 -0.075925745 0.1607317 -0.46587002 0.36529076 -0.2884363 0.08878587 0.013516924
-0.030136693 0.31172568 -0.19788799 -0.020096947 -0.052919984 -0.16988079 -0.2251574 -0.07949937
-0.11586427 -0.0018236187 0.09832958 0.17255688 0.27362767 0.1704786 -0.04984 -0.16393113
-0.24942268 0.011638605 -1.0922526 0.2918373 0.33102384 -0.010390053 -0.102271184 0.04654493
00000000: fd99 7e3c ed86 a1bd 8f55 9a3c 9343 15bd
00000010: f5d4 d23c d523 8ebd 01d5 75bd cb9a 013c
00000020: 0ab8 96bd c21d 9cbd 9c43 653a 6828 5ebd
00000030: aead 6dbd 6bd2 3dbd fd7d 3bbd dd73 4f3c
00000040: d77a adbd 33bf eebc 2a7c 033d b9fb 87bd
00000050: 1224 7c3d 5085 51bc 2292 1ebc a738 6cbd
00000060: 011e 153c 1850 183c 466a 5f3c 71f9 6abd
00000070: 115a 56bd 2081 203b e7db 23bd 43ae 31bd
00000080: 6d7c 0ebd 7af3 61bc 6a20 8abd 4d27 8b3a
00000090: bf54 bdbd ffe0 8abd dfba 6fbc 73c9 11bb
000000a0: 8a7f 0bbd 681d adbd 8b0a 9f3c 008a cfbc
000000b0: fab7 7b3c 856e ddbc a4d7 bc3c 0c58 143c
000000c0: 7f42 273c 843a 87bd d793 25bd df80 86bd
000000d0: 4d9c dcbc 0b2b c3bd 1640 6abd 1e2b 1cbd
000000e0: 10ad 8dbd db92 22bc 6d2c 56bd 82f0 47bc
000000f0: 67cc ce3c 9234 11bc a796 89bc 3b15 64bd
00000100: 6b5f 57bd c021 98bd d4b9 96bc a69a 243d
00000110: 9409 05bc f7f2 a8bc 51aa 543c 6075 bbbc
00000120: 151e d73c 65e3 463d de66 84bd 7519 1dbd
00000130: 383d 66bd 2699 b03c 9226 f63c 08fb dfbd
00000140: 17c1 90bb 340c 0e3c b4fc 62bc 34cd 96bd
00000150: dbc4 37bd 3fbb c9bb 2b81 5e3c fc39 b4bd
00000160: d4a6 fabd f198 b4bd d40f 23bc ca40 e1bd
00000170: 0626 de3e 0107 073d 746e f8bd 90a1 183e
00000180: af2d 3a3e 5b7b 30bd e685 ddbe 4fcb 8cbe
00000190: a24f 183e 6818 923e 5b58 56be 298d a7be
000001a0: d9a0 9ebd 9c5e 1b3d a359 db3d c8d9 81be
000001b0: c72a 25bd 7709 d63d b30d 5a3d df13 6abd
000001c0: 7699 933d 32ee cebd 6251 67bd 1449 b4bc
000001d0: d12b 8ebc a9b2 86bb a355 93bd faa4 d93c
000001e0: 8ab7 81bd 6a3f 7fbd d342 123d be84 98bd
000001f0: d965 703b 61f2 4cbc b520 8a3c 9cad acbd
00000200: ec25 5ebd aea7 ea3c 9d91 70bd b15a 9dbd
00000210: 79da 7dbd f236 d1bb 5ff7 b9bc 01a5 28bd
00000220: f809 b5bb f323 9ebd 99a8 74bc 5f37 6ebb
00000230: cf4e 903b a135 8d3c c9cc 87bd 9539 babd
00000240: 2b17 80bc 0031 23bd e061 883d 556b 2bbd
00000250: 1e85 7f3c 0d19 d3bc f925 b8bb 0cf8 2ebd
00000260: ba48 68bb e183 343d 4ce5 843c 371c 39bd
00000270: 4db7 71bd 7e76 d1bc 18bb 5bbc 640a ffba
00000280: bf55 c1bc cf2c 253e 85d9 d03d 07c3 82bd
00000290: e4dd e53d 82f0 9c3e 4d3b d53d d77c 513c
000002a0: ddc5 bc3d a5cf c93d eed5 b1be ac8d 57bf
000002b0: 0a74 b2be 5450 efbd cda5 73bd 27f7 ecbd
000002c0: 89dc 913d 9595 59bd 10b8 053e 76a8 d43d
000002d0: 5505 28bd ca25 9dbe 5e31 003e c77f 713e
000002e0: ec6d 603e bc24 24be 1804 51bd c716 523e
000002f0: 6279 b6bd 3be9 4ebc e6bc a8bd f3e6 8fbd
00000300: ee53 cebd b2cc c6bd 5343 c7bd b9a4 cbbd
00000310: 05d9 23bd d029 9e3d c50f 683e b66c a13d
00000320: 63d3 0e3e 8041 903e a1b7 86bc 8229 37be
00000330: 99f4 0cbe 633e cdbc 4ca0 293d 86f8 47be
00000340: ae53 81bd fdd5 0fbe d5dd bbbc 2191 9a3c
00000350: beb6 e33d 0e26 a23d 0dc2 03bc 557e 97bc
00000360: 150a 213e b968 60be 26f7 c4be 0602 18bf
00000370: 5f4b 483e 0ef2 fa3e a707 503e 1792 213e
00000380: a5ac fe3d f57e 9bbd da96 243e 8486 eebe
00000390: 6407 bb3e ecad 93be 5ed5 b53d 1776 5d3c
000003a0: 3ae1 f6bc 829a 9f3e 26a3 4abe 5aa2 a4bc
000003b0: a0c2 58bd 3bf5 2dbe a98f 66be 91d0 a2bd
000003c0: 3f4a edbd 7d06 efba 0561 c93d c0b2 303e
000003d0: ed18 8c3e f191 2e3e 0725 4cbd 90dd 27be
000003e0: a968 7fbe d9af 3e3c efce 8bbf b36b 953e
000003f0: f57b a93e 0a3b 2abc 8e73 d1bd e6a5 3e3d

fc0.bias f4 [256]
0.07685428 0.06431717 0.06961452 0.055104814 0.4016205 0.07236559 0.08320269 0.3324476
0.19795704 -0.0010629485 -0.16675627 0.14630339 0.08572393 0.09118326 -0.014170251 0.228246
-0.2558279 0.07332515 0.06840369 0.46374264 -0.35720468 0.0625401 0.059422188 -0.039757382
0.45954812 0.08611752 0.7415056 0.39109173 -0.5749277 0.063958675 0.07895946 0.37311682
0.08923853 0.31396723 0.4844481 0.4471157 0.07340831 0.60798204 0.07305922 0.071101494
0.252095 0.19892146 0.38884896 0.029382419 0.06375668 0.7230775 0.14598839 0.086221255
0.18692347 0.17509107 0.00031803525 0.21215099 0.08319536 -0.03151914 0.66802377 0.07303731
-0.10436231 0.31535298 0.089312255 -0.20760258 0.22776876 0.06758955 -0.10629082 -0.075026594
0.46838054 0.06340501 0.07963153 0.42969218 0.6278719 -0.27621186 0.1837224 -0.22513577
0.3038462 0.34993005 0.55046874 0.08373633 0.5560557 0.07320538 0.015218236 0.08767181
0.080628164 0.09679294 0.7859402 0.06884201 0.3159975 0.47806916 0.040136307 -0.021978982
0.20450051 0.07821435 0.08663682 0.4281677 0.084175594 0.20167594 0.24196856 -0.082991146
0.07368577 -0.4345127 0.014920045 0.08622366 -0.37287804 -0.3916654 0.37128896 -0.2065438
0.088717684 0.031365823 0.06358403 0.3883407 0.46119758 0.07182556 -0.10222256 0.07955713
0.19964987 -0.39007854 0.14933114 0.021947863 0.14269672 0.07629175 0.07897565 0.3573371
0.48672938 -0.055032242 0.113671415 0.08731987 0.2535882 0.13888627 0.4004197 -0.5111856
0.03212096 -0.30312377 -0.07229076 0.5345928 0.06831072 0.033861388 0.14826466 0.07035218
0.0841216 0.061978992 0.08635219 0.07676345 0.15312088 0.12210358 -0.6237404 0.06855496
0.4708616 0.06577937 0.4521412 0.07847794 0.07014841 0.0864211 0.069594525 0.07000238
0.6071253 -0.07743837 0.084252134 0.4414768 0.21135044 0.37338942 -0.09840822 0.08146887
0.28722593 0.07600951 0.06851782 -0.03038834 0.5137381 -0.07388485 0.088012084 0.31479886
0.31468156 0.060665727 0.06487065 0.08413525 -0.2356768 -0.31523705 0.5425992 0.08679631
0.10466642 -0.2674306 0.06909399 0.0828807 -0.066771425 0.08437547 0.17589527 -0.123876326
0.06943921 0.08157299 0.35065562 -0.033110574 -0.1328329 0.27869305 0.20126763 -0.32627827
0.06668692 0.056977734 0.37856874 -0.03248744 0.3707801 0.43123546 -0.23845978 0.31738162
-0.021590682 0.0849877 0.48036882 0.015688963 0.0769839 0.21206439 0.052569423 0.07665523
-0.1706259 0.0765451 -0.21277568 0.06114949 0.075293764 0.27140945 -0.077971175 0.0627386
-0.03142287 0.08551294 -0.11459115 0.17419624 0.084500365 0.067014374 0.23725185 0.3359296
0.2655507 0.06769048 0.43725199 0.06336217 0.060305405 0.081860766 0.53855664 0.07023811
0.1 0.07442801 0.021402448 0.33937392 0.18237813 0.07692477 0.08675796 0.1
0.07117172 0.062382028 0.0778251 0.07942867 0.06431431 0.93802947 -0.16902508 0.20363767
0.080227 0.26452047 0.21801452 -0.19945736 0.0700044 0.068000786 0.0756652 0.06914665
00000000: c765 9d3d b8b8 833d 0f92 8e3d 96b5 613d
00000010: 34a1 cd3e 6934 943d 2c66 aa3d 9236 aa3e
00000020: 40b5 4a3e a252 8bba 28c2 2abe 8ed0 153e
00000030: 0790 af3d 4abe ba3d 572a 68bc 52b9 693e
00000040: e0fb 82be 7f2b 963d 3c17 8c3d ad6f ed3e
00000050: 88e3 b6be 0615 803d ae64 733d a3d8 22bd
00000060: e449 eb3e 625e b03d 50d3 3d3f 2d3d c83e
00000070: 762e 13bf c4fc 823d 7fb5 a13d 2b09 bf3e
00000080: b1c2 b63d 50c0 a03e 9509 f83e 59ec e43e
00000090: 1957 963d b6a4 1b3f 13a0 953d a99d 913d
000000a0: 9912 813e 11b2 4b3e 3617 c73e 66b3 f03c
000000b0: dd92 823d 9b1b 393f fb7d 153e c594 b03d
000000c0: de68 3f3e 134b 333e f8bd a639 1c3e 593e
000000d0: 5462 aa3d 371a 01bd 9b03 2b3f 9694 953d
000000e0: e8bb d5bd f275 a13e 58e9 b63d c595 54be
000000f0: 373c 693e 646c 8a3d 00af d9bd 8ba7 99bd
00000100: 93cf ef3e 7cda 813d db15 a33d 9d00 dc3e
00000110: 36bc 203f a46b 8dbe ba21 3c3e fe89 66be
00000120: bb91 9b3e 082a b33e 85eb 0c3f f47d ab3d
00000130: ab59 0e3f b4ec 953d e855 793c 478d b33d
00000140: 6120 a53d 603b c63d 6033 493f 0afd 8c3d
00000150: 6dca a13e 7bc5 f43e f865 243d 440d b4bc
00000160: 9568 513e d82e a03d a56e b13d cc38 db3e
00000170: 4164 ac3d 2384 4e3e 9bc6 773e 43f7 a9bd
00000180: 91e8 963d 7378 debe 3473 743c 0896 b03d
00000190: dfe9 bebe 5e88 c8be 9619 be3e 3880 53be
000001a0: 9eb1 b53d 7379 003d 5838 823d 98d4 c63e
000001b0: 1722 ec3e 4719 933d 105a d1bd d9ee a23d
000001c0: 0471 4c3e 60b8 c7be 43ea 183e 01cc b33c
000001d0: 171f 123e d93e 9c3d fcbd a13d e3f4 b63e
000001e0: 9834 f93e 7d69 61bd 8fcc e83d c3d4 b23d
000001f0: 50d6 813e 3438 0e3e d003 cd3e 0fdd 02bf
00000200: 4591 033d 0a33 9bbe 2e0d 94bd 13db 083f
00000210: 7ee6 8b3d 3db2 0a3d b1d2 173e ce14 903d
00000220: f247 ac3d afdd 7d3d 6bd9 b03d 2836 9d3d
00000230: b8cb 1c3e 7111 fa3d 73ad 1fbf 8b66 8c3d
00000240: c614 f13e 56b7 863d 0d7f e73e 0bb9 a03d
00000250: f8a9 8f3d 8cfd b03d 9387 8e3d 685d 8f3d
00000260: 906c 1b3f 0298 9ebd 628c ac3d 3f09 e23e
00000270: 406c 583e e62c bf3e 408a c9bd 27d9 a63d
00000280: 470f 933e e0aa 9b3d 1253 8c3d f8f0 f8bc
00000290: 5784 033f f150 97bd ae3f b43d 512d a13e
000002a0: f11d a13e a07c 783d e7da 843d 1a4f ac3d
000002b0: 4255 71be c066 a1be c8e7 0a3f 44c2 b13d
000002c0: 595b d63d aaec 88be 2681 8d3d 5bbd a93d
000002d0: 75bf 88bd 0ccd ac3d e41d 343e dfb2 fdbd
000002e0: 2536 8e3d bd0f a73d 2289 b33e f49e 07bd
000002f0: 5905 08be dbb0 8e3e 1a19 4e3e f20d a7be
00000300: 2793 883d 7c61 693d c3d3 c13e 8d11 05bd
00000310: e4d6 bd3e e5ca dc3e cd2e 74be d87f a23e
00000320: f1de b0bc 080e ae3d e7f2 f53e 2486 803c
00000330: bca9 9d3d 6827 593e 0953 573d 6bfd 9c3d
00000340: 8eb8 2ebe adc3 9c3d dee1 59be e377 7a3d
00000350: 9e33 9a3d 2ef6 8a3e 5aaf 9fbd 187d 803d
00000360: 44b5 00bd 6921 af3d c4ae eabd 8060 323e
00000370: 870e ad3d d53e 893d 26f2 723e f7fe ab3e
00000380: 43f6 873e 4ea1 8a3d 7edf df3e 06c4 813d
00000390: cd02 773d 9ea6 a73d d9de 093f 00d9 8f3d
000003a0: cdcc cc3d b66d 983d 3054 af3c 6bc2 ad3e
000003b0: 55c1 3a3e bc8a 9d3d 28ae b13d cdcc cc3d
000003c0: 7bc2 913d 4c84 7f3d c462 9f3d 80ab a23d
000003d0: 39b7 833d b322 703f e914 2dbe 6586 503e
000003e0: 0e4e a43d 3a6f 873e 333f 5f3e 8d3e 4cbe
000003f0: 785e 8f3d ff43 8b3d 5bf6 9a3d c29c 8d3d

fc1.weight f4 [256, 256]
0.008492001 -0.007726127 0.00041442981 -0.053710323 -0.057362918 -0.03586008 0.006348631 0.19409609
0.025531275 -0.4509828 -0.28454387 0.113130175 0.001664322 -0.009982369 -0.38108298 0.0066074
-0.467461 0.05550005 -0.014368074 -0.5378309 -0.6690036 -0.03272067 -0.42235184 -0.117033646
-0.072410144 0.044014324 0.0835031 0.052493393 0.02071562 -0.089797266 0.0058827223 -0.2985295
0.016649049 0.20426296 -0.09600951 0.0010836481 0.04819112 0.10084287 0.019442914 -0.012490986
-0.20750806 0.0021264015 -0.13451259 -0.20985404 -0.054443978 0.14118198 -0.57391375 -0.061011802
-0.10939496 -0.15384813 -0.0816971 -0.5331382 0.061863728 0.10251016 -0.25242445 -0.018552039
-0.24000375 0.04072416 -0.0014592985 -0.34036124 0.021514345 0.0013606205 -0.74790126 -0.46426606
-0.032154966 -0.07817368 0.046187744 -0.03409562 -0.22854948 -0.14896013 -0.42946565 0.17480205
-0.11735864 -0.34600452 -0.028866922 0.18988955 0.025968848 -0.023015982 0.008220928 -0.041387662
-0.05782108 -0.48118615 -0.58960336 0.07711376 -0.011463535 -0.12037491 -0.37800133 0.0625854
-0.37489846 -0.053977557 0.043399103 -0.03442602 -0.017061874 -0.04001928 -0.5798157 -0.52772325
0.06981635 0.22053327 -0.21000516 -0.030875614 -0.027725313 -0.073525034 -0.07425786 -0.013115847
0.0176659 0.012853525 -0.056368772 0.0095436685 -0.39933982 -0.005883785 -0.11175875 -0.010229878
-0.18166542 -0.6083371 -0.022930348 0.14060055 0.08129691 0.04284653 0.015867596 -0.17484674
-0.03594195 -0.1733074 -0.13494149 0.027926639 -0.23065686 -0.21504895 0.063189164 0.14915706
-0.34105828 -0.6768229 0.16459629 0.1540988 -0.0446096 -0.077706665 0.014484718 -0.01640146
0.004574053 -0.07505308 -0.024535852 0.004924791 0.1976819 -0.008476296 -0.07135252 0.039934717
-0.17477894 -0.13165687 -0.45932418 0.024257999 -0.05622403 -0.0027436179 0.039495774 0.016301623
0.33249348 -0.4170007 0.044902496 -0.5253733 -0.7090653 -0.1368557 -0.09263718 0.04347107
-0.027050683 -0.02070228 0.031010034 0.08583463 -0.5456005 0.09599856 0.045753174 -0.16855718
0.1609534 0.032676496 -0.0007345479 0.02081877 0.23000288 -0.3658976 -0.37057376 -0.022848176
0.25026363 -0.41007224 0.05847331 0.01701882 -0.027177308 0.012166195 0.11690332 -0.07802054
-0.011833267 -0.038122226 -0.4755539 0.08743518 -0.31513813 -0.115304664 -0.0993732 -0.3701213
-0.048328657 -0.075902246 -0.06506737 0.12846501 -0.1757197 -0.34045208 -0.11699768 -0.17207262
-0.018182645 0.019753745 -0.06352598 -0.7785044 0.006196626 -0.103927284 -0.08619633 -0.07663984
-0.1806621 0.028946403 -0.8391035 0.006235968 -0.11482456 -0.15165037 -0.13781786 -0.005962078
-0.23698291 -0.010892101 -0.094992064 0.17157367 -0.0091751395 -0.062492814 -0.0074186632 -0.20528863
-0.121042356 0.017459618 -0.19071783 0.22828564 -0.0032065837 0.008611996 -0.55329263 -0.057472445
0.03849198 0.058298137 -0.19796978 -0.5188968 -0.45538825 0.039525554 0.042442948 -0.0538921
-0.061150465 -0.012655305 0.045614038 -0.05492986 -0.059722897 -0.08777469 -0.32399487 0.053173702
0.038062565 -0.16490714 0.26262614 -0.68314284 0.016903985 0.035565585 0.030240513 -0.014091047
00000000: 0922 0b3c 732b fdbb d447 d939 5bff 5bbd
00000010: 61f5 6abd 05e2 12bd 2d08 d03b 20c1 463e
00000020: f726 d13c 38e7 e6be bcaf 91be cbb0 e73d
00000030: 6125 da3a 178d 23bc 4f1d c3be e382 d83b
00000040: 0c57 efbe 0554 633d 1268 6bbc 49af 09bf
00000050: d243 2bbf 1c06 06bd 803e d8be 56af efbd
00000060: c54b 94bd 5d48 343d ac03 ab3d 5003 573d
00000070: ceb3 a93c a1e7 b7bd dac3 c03b dcd8 98be
00000080: 9663 883c 4f2a 513e a2a0 c4bd 3209 8e3a
00000090: 0d64 453d b586 ce3d bf46 9f3c fea6 4cbc
000000a0: fe7c 54be 195b 0b3b abbd 09be fae3 56be
000000b0: a600 5fbd 0292 103e 03ec 12bf 83e7 79bd
000000c0: 770a e0bd 5d8a 1dbe cf50 a7bd bf7b 08bf
000000d0: d264 7d3d d9f0 d13d c73d 81be 72fa 97bc
000000e0: 8bc3 75be 60ce 263d ef45 bfba d443 aebe
000000f0: da3e b03c d956 b23a 7576 3fbf 48b4 edbe
00000100: edb4 03bd 8619 a0bd 5c2f 3d3d d9a7 0bbd
00000110: e008 6abe 0189 18be ece2 dbbe 4fff 323e
00000120: ba59 f0bd 8127 b1be 537a ecbc 6872 423e
00000130: 9fbc d43c 038c bcbc 12b1 063c 1c86 29bd
00000140: ccd5 6cbd 085e f6be 3ff0 16bf d2ed 9d3d
00000150: 8dd1 3bbc 1f87 f6bd 6489 c1be c62c 803d
00000160: b1f2 bfbe 9217 5dbd 42c3 313d 4c02 0dbd
00000170: 58c5 8bbc 42eb 23bd cd6e 14bf df18 07bf
00000180: e0fb 8e3d 79d3 613e 980b 57be dbee fcbc
00000190: 3220 e3bc 4b94 96bd 8114 98bd d9e3 56bc
000001a0: 14b8 903c 9797 523c f1e2 66bd 0c5d 1c3c
000001b0: 4576 ccbe c4cc c0bb c6e1 e4bd 389b 27bc
000001c0: 8006 3abe fbbb 1bbf 6dd8 bbbc 97f9 0f3e
000001d0: ff7e a63d d87f 2f3d c3fc 813c 060b 33be
000001e0: de37 13bd 7f77 31be 1a2e 0abe 68c6 e43c
000001f0: 5031 6cbe cb35 5cbe 5269 813d a1bc 183e
00000200: 319f aebe 4444 2dbf ee8b 283e 13cc 1d3e
00000210: 8eb8 36bd ac24 9fbd 5051 6d3c 5b5c 86bc
00000220: f0e1 953b 6eb5 99bd 69ff c8bc 2460 a13b
00000230: 206d 4a3e 2ae0 0abc 4521 92bd 9692 233d
00000240: 40f9 32be 0fd1 06be 8a2c ebbe b6b8 c63c
00000250: 2b4b 66bd 45ce 33bb 52c6 213d fb8a 853c
00000260: 963c aa3e 1e81 d5be aeeb 373d dd7e 06bf
00000270: 4e85 35bf e723 0cbe 90b8 bdbd b80e 323d
00000280: 6599 ddbc d497 a9bc c108 fe3c 11ca af3d
00000290: 79ac 0bbf e59a c43d ae67 3b3d 419a 2cbe
000002a0: f8d0 243e cad7 053d ad8e 40ba 208c aa3c
000002b0: e085 6b3e ee56 bbbe d8bb bdbe 192c bbbc
000002c0: 8e22 803e fdf4 d1be b681 6f3d 0d6b 8b3c
000002d0: f2a2 debc b854 473c 026b ef3d 3cc9 9fbd
000002e0: 52e0 41bc 0d26 1cbd cd7b f3be 3711 b33d
000002f0: c959 a1be da24 ecbd 2d84 cbbd 8a80 bdbe
00000300: 45f4 45bd a372 9bbd 0b42 85bd 558c 033e
00000310: ddef 33be bc4f aebe 7b9c efbd ce33 30be
00000320: c5f3 94bc 9bd2 a13c e919 82bd 104c 47bf
00000330: 110d cb3b d4d7 d4bd b487 b0bd 59f5 9cbd
00000340: 7cff 38be 0221 ed3c 7dcf 56bf 1757 cc3b
00000350: 2429 ebbd 3c4a 1bbe 2020 0dbe 895d c3bb
00000360: a6ab 72be c874 32bc 338b c2bd 02b1 2f3e
00000370: 5353 16bc 77f8 7fbd 4218 f3bb 2f37 52be
00000380: 0ee5 f7bd 7907 8f3c 894b 43be b6c3 693e
00000390: 8c25 52bb 5419 0d3c 96a4 0dbf 3a68 6bbd
000003a0: c4a9 1d3d 07ca 6e3d 97b8 4abe 6cd6 04bf
000003b0: a628 e9be 8ce5 213d a8d8 2d3d f6bd 5cbd
000003c0: e978 7abd 3258 4fbc c9d5 3a3d 22fe 60bd
000003d0: ff9f 74bd 37c3 b3bd a8e2 a5be abcc 593d
000003e0: 7ee7 1b3d 6bdd 28be ef76 863e 73e2 2ebf
000003f0: 3a7a 8a3c 38ad 113d f4ba f73c 23de 66bc

fc1.bias f4 [256]
0.17462015 0.41595596 -0.046568442 0.010996257 -0.56584555 0.14099391 0.0789081 0.0043937215
0.16845518 0.2214154 0.11466056 0.011110529 0.06839643 0.047190037 0.043320086 0.11393166
0.11905264 -0.0543514 0.15416774 -0.016223654 -0.019023629 0.05315489 -0.13367052 -0.028256768
-0.29326054 0.03615406 -0.040707 -0.043737635 0.042770956 -0.16160223 0.09534799 0.358157
0.021404043 0.22704722 0.04965795 0.310912 -0.2791929 -0.1712171 0.044187594 -0.11319203
0.026171308 0.052733827 0.28031558 0.129703 0.049459316 -0.00396489 -0.22127984 0.022949051
-0.031779435 0.1232799 -0.24907242 0.043428697 0.38914812 0.016903358 0.06406711 0.09460288
-0.020580765 0.025727224 -0.17728595 0.56002873 -0.13676661 -0.164369 0.23290601 -0.4323461
0.06352831 0.117735624 -0.054398865 -0.16190976 -0.035320945 -0.20876022 2.190705 0.2608708
0.070594855 0.09273551 0.030308692 0.06964247 0.30720446 1.0503833 0.048696868 0.05798529
0.050876107 0.2891677 -0.008249195 0.05573686 -0.059032943 0.050132986 -0.382404 -0.028898599
0.24205352 -0.06542443 0.017941859 0.03457662 0.013401216 0.06019992 -0.015167083 -0.2239333
0.018429501 0.03153046 -0.04265848 0.25301576 0.034598373 0.2487331 0.21615387 -0.3140974
0.044922277 0.06121589 0.0012193203 -0.04712271 -0.10572107 -0.1391241 0.04716257 -0.044307668
0.4280906 -0.30132708 -0.08351443 0.13489881 0.39453146 0.14579394 0.17894712 -0.10521718
-0.033254262 0.29213363 0.18066233 -0.24474056 -0.18363062 0.0746054 -0.057112675 0.23852597
0.060499202 0.06728287 -0.06836014 0.38559887 -0.22239876 0.18957552 0.18284164 -0.1021905
0.12285843 -0.15993977 0.03538372 0.16658378 -0.25121707 0.04339608 0.33482435 0.07144713
-0.015799673 0.0120449755 0.0010535825 0.098510385 0.09906292 -0.016327627 -0.17189518 0.04987311
0.043295808 -0.16442904 0.044492573 0.022064263 -0.02574691 -0.13226746 -0.01638275 0.05875139
-0.19698678 -0.069170006 -0.00308609 0.07011792 0.091419734 -0.17218831 -0.1673737 0.12867062
-0.026267469 -0.015075801 0.039150555 0.014254875 0.038768202 -0.004227212 0.50752985 0.0253001
-0.040601693 -0.18370579 0.23395643 0.15828077 0.11220099 0.09873693 0.059333082 -0.033367578
0.01644797 0.23309754 -0.036291905 0.055183828 0.07238922 0.08975391 -0.030441586 0.019389091
0.29819718 -0.19998392 -0.046041813 0.05257445 0.08566571 0.14638172 0.08359816 0.17786439
0.07367521 -0.2414003 0.031216769 -0.03205681 0.15753764 0.04148372 0.032597464 0.054024983
0.1272413 -0.22106946 0.010929974 0.123046584 0.22631028 0.10520562 -0.12177245 -0.9042139
-0.033250105 -0.2851893 0.06310774 -0.08988285 0.21115579 0.029900456 0.04859361 0.18659346
0.14327875 -0.05960931 -0.1733666 0.14536586 0.01789077 0.03999503 0.11977959 0.10046874
0.0058847885 0.23357347 0.17934112 -0.017942667 0.5937191 -0.051077463 0.033923425 0.30905885
-0.22001095 0.05347107 0.035448562 -0.011169397 0.042910602 -0.12142092 0.03770925 0.026752912
-0.10871451 -0.19129933 -0.084806524 0.12299022 0.093930356 -0.5521433 0.028024439 0.20527226
00000000: a0cf 323e 2ef8 d43e 8dbe 3ebd a529 343c
00000010: 41db 10bf b560 103e 929a a13d 35f9 8f3b
00000020: 847f 2c3e b8ba 623e 28d3 ea3d f008 363c
00000030: 6d13 8c3d 574a 413d 6770 313d 0155 e93d
00000040: dfd1 f33d 939f 5ebd 26de 1d3e 78e7 84bc
00000050: 71d7 9bbc f1b8 593d ede0 08be bd7a e7bc
00000060: 3f26 96be 4816 143d 62bc 26bd 3c26 33bd
00000070: 9930 2f3d 0e7b 25be cf45 c33d 5b60 b73e
00000080: 8857 af3c 117f 683e 2266 4b3d dc2f 9f3e
00000090: 5ff2 8ebe 8953 2fbe 0dfe 343d 39d1 e7bd
000000a0: 3665 d63c 6dff 573d 8685 8f3e ddd0 043e
000000b0: da95 4a3d e8eb 81bb 2f97 62be a6ff bb3c
000000c0: 272b 02bd 2c7a fc3d d70c 7fbe 4ae2 313d
000000d0: 6c3e c73e e978 8a3c 9e35 833d 28bf c13d
000000e0: fe98 a8bc e6c1 d23c 738a 35be 0b5e 0f3f
000000f0: 8c0c 0cbe 5950 28be ea7e 6e3e 785c ddbe
00000100: 211b 823d 601f f13d 58d1 5ebd accb 25be
00000110: b2ac 10bd 3dc5 55be 8334 0c40 dc90 853e
00000120: 0994 903d 1dec bd3d ef49 f83c b6a0 8e3d
00000130: e749 9d3e f672 863f 5e76 473d fc81 6d3d
00000140: 7763 503d ca0d 943e a227 07bc 554c 643d
00000150: 87cc 71bd 3f58 4d3d 75ca c3be c1bc ecbc
00000160: e1dc 773e 3efd 85bd cefa 923c 37a0 0d3d
00000170: c690 5b3c 3194 763d 5b7f 78bc c54e 65be
00000180: 77f9 963c 1526 013d a9ba 2ebd 488b 813e
00000190: 06b7 0d3d e4b3 7e3e 7157 5d3e 60d1 a0be
000001a0: 6c00 383d 83bd 7a3d 9ad1 9f3a be03 41bd
000001b0: 4a84 d8bd 8c76 0ebe 8a2d 413d f57b 35bd
000001c0: b12e db3e 8b47 9abe 9d09 abbd ea22 0a3e
000001d0: 0700 ca3e 024b 153e ea3d 373e 1b7c d7bd
000001e0: 9f35 08bd 8a92 953e 8cff 383e 459d 7abe
000001f0: aa09 3cbe b7ca 983d fbee 69bd 2740 743e
00000200: 03ce 773d 9acb 893d 6700 8cbd 376d c53e
00000210: 80bc 63be 1620 423e d73a 3b3e 4149 d1bd
00000220: 339d fb3d 40c7 23be 85ee 103d f094 2a3e
00000230: 869f 80be 17c0 313d 196e ab3e df52 923d
00000240: 516e 81bc 4a58 453c 5d18 8a3a d0bf c93d
00000250: 80e1 ca3d 84c1 85bc 4a05 30be bf47 4c3d
00000260: f256 313d 1660 28be d83d 363d 1dc0 b43c
00000270: 2feb d2bc 1f71 07be 1e35 86bc 4ca5 703d
00000280: e7b6 49be 01a9 8dbd 0040 4abb fc99 8f3d
00000290: 453a bb3d 2252 30be 0364 2bbe 3bc2 033e
000002a0: e02e d7bc 7e00 77bc 555c 203d 478d 693c
000002b0: 68cb 1e3d 6d84 8abb 7aed 013f 2842 cf3c
000002c0: f64d 26bd 5f1d 3cbe 4692 6f3e 5b14 223e
000002d0: a2c9 e53d 9636 ca3d 3f07 733d 71ac 08bd
000002e0: e5bd 863c 1fb1 6e3e d2a6 14bd 7008 623d
000002f0: cd40 943d e6d0 b73d a260 f9bc dfd5 9e3c
00000300: 4dad 983e 96c8 4cbe 5796 3cbd 4e58 573d
00000310: 8171 af3d 17e5 153e 8335 ab3d 1522 363e
00000320: 07e3 963d a431 77be 4fba ff3c 004e 03bd
00000330: 8c51 213e d5ea 293d eb84 053d 4d49 5d3d
00000340: 8b4b 023e 0860 62be a213 333c d9ff fb3d
00000350: e2bd 673e 0b76 d73d d663 f9bd 907a 67bf
00000360: 4331 08bd 5504 92be a13e 813d 8014 b8bd
00000370: 3939 583e cdf1 f43c 180a 473d 5b12 3f3e
00000380: aab7 123e e428 74bd 0487 31be cada 143e
00000390: aa8f 923c d4d1 233d 004f f53d 8ec2 cd3d
000003a0: 2fd5 c03b e22d 6f3e 33a5 373e 80fc 92bc
000003b0: fafd 173f 9a36 51bd 4af3 0a3d f63c 9e3e
000003c0: 8d4a 61be 7b04 5b3d 8332 113d d9ff 36bc
000003d0: 07c3 2f3d 88ab f8bd 0475 1a3d ec28 db3c
000003e0: b7a5 debd f9e3 43be 0baf adbd 4ce2 fb3d
000003f0: 8f5e c03d 4359 0dbf 8293 e53c e432 523e

last_fc.weight f4 [3, 256]
0.74723506 0.5180959 -0.07656076 -0.012051687 -0.1285655 -0.3106405 -0.1539404 -0.04702261
0.11841206 -0.006655659 -0.0799872 -0.32320285 -0.64720184 0.1304619 0.013860488 -0.50423026
-0.10823693 -0.05415089 0.0097754225 -0.20354575 -0.069300674 0.025722846 0.14785236 0.5648872
-0.41660836 -0.059763975 -0.26440656 -0.117442906 -0.6954639 -0.039915238 0.054417748 0.03366026
0.10406237 -0.056902457 -0.015915949 -0.07522689 0.06300562 0.075894 0.050057083 -0.01207016
-0.003305092 -0.036211204 -0.037602305 -0.24633658 0.00064328365 0.06885222 0.1039103 -0.18599601
-0.17849907 0.32839698 -0.25580442 -0.4056455 0.208952 0.16554026 -0.103546634 -0.46536812
0.08301443 -0.14405845 0.08995251 -0.22357374 0.21560279 -0.1886411 0.39154544 -0.038902715
0.009422249 -0.32743868 -0.056883153 -0.011443318 -0.3488596 0.045269467 0.06617699 -0.2862884
0.13248609 0.08304606 0.020681748 -0.13444592 -0.15276031 0.04948044 0.0045266417 0.017603304
-0.39269885 0.092176296 0.036080163 0.011275323 0.42943978 -0.006710286 -0.057817526 -0.22530192
0.19151732 -0.25902647 0.03592587 0.011795749 -0.70183086 0.01449821 0.013467399 -0.21829386
0.024580523 0.016265728 -0.2889372 -0.078749284 -0.11107311 -0.0135207 0.30942413 -0.07941772
-0.6778999 -0.03638565 -0.15138043 -0.052213468 0.027725605 -0.12791283 0.09251188 0.003928027
-0.13936056 -0.26073816 0.6378967 0.3412523 0.024835797 -0.013942494 0.07835487 0.22015327
-0.17224352 0.10518701 0.0043248 -0.28784364 0.020750182 -0.24294019 -0.28720826 -0.04213663
0.050165337 -0.004645643 0.12369181 0.62787384 -0.06422786 0.5886891 -0.081183605 0.094435185
-0.10168454 -0.055285726 -0.00401883 -0.08246287 0.15270565 -0.028646437 0.13396546 0.15397952
-0.0470637 -0.58012563 -0.07890214 0.11535516 0.7049624 -0.43458217 0.021463396 0.004332638
-0.2554934 -0.3720127 -0.10504497 -0.06870192 -0.07034893 0.12563989 -0.15605366 0.13097571
-0.108599424 -0.23338945 0.037981313 -0.027238883 0.50840783 -0.086146526 -0.32109532 -0.0007756458
0.37722713 0.08241947 -0.046767943 -0.26046282 0.03708453 -0.19159815 -0.07181696 0.20021376
-0.34458965 -0.021890054 0.19216794 0.30695143 -0.16653806 -0.3866068 -0.017480096 -0.11597646
-0.022680659 0.07911157 -0.13001318 -0.4598874 0.14799438 -0.2601335 -0.091945164 -0.12488703
0.08055911 0.0814054 -0.041633736 -0.004322678 -0.045756623 0.09135259 0.15827961 -0.2723134
-0.4166851 0.25179127 0.3348884 0.119254634 -0.054544233 -0.08034126 0.017897215 0.13272598
0.06380068 0.031862248 0.0013627606 0.071427286 -0.037938442 -0.060791954 -0.0030359114 -0.006964771
-0.11007611 0.060403123 0.018552408 -0.45622572 0.17710467 0.0014537176 -0.007132961 0.09024605
0.09564637 0.06638978 -0.26610395 0.14408071 0.05923626 -0.98857373 -0.14740452 -0.66957337
0.10129715 -0.14670222 0.087224744 -0.006230237 -0.039946396 -0.066404045 -0.012564658 0.018267285
0.08224118 -0.017737173 0.010069367 -0.4989308 -0.30363747 -0.46782318 -0.0064534494 0.015579263
-0.21897565 -0.3226608 0.002163111 -0.1799554 0.044943586 -0.05721891 -2.5827072e-05 -2.8995875e-05
00000000: cc4a 3f3f efa1 043f e3cb 9cbd 7074 45bc
00000010: ada6 03be 460c 9fbe 8da2 1dbe c89a 40bd
00000020: 0682 f23d b717 dabb 54d0 a3bd d87a a5be
00000030: 05af 25bf ce97 053e 1a17 633c 3c15 01bf
00000040: 53ab ddbd 53cd 5dbd 1829 203c 4c6e 50be
00000050: 83ed 8dbd b8b8 d23c 9c66 173e 739c 103f
00000060: b14d d5be 12cb 74bd 4c60 87be e885 f0bd
00000070: ec09 32bf 297e 23bd 25e5 5e3d 57df 093d
00000080: a71e d53d 8d12 69bd 2a62 82bc 8e10 9abd
00000090: 1709 813d 506e 9b3d a808 4d3d ecc1 45bc
000000a0: 3e9a 58bb 3352 14bd e004 1abd a83f 7cbe
000000b0: 09a2 283a 6502 8d3d ecce d43d bd75 3ebe
000000c0: 76c8 36be a623 a83e ccf8 82be c4b0 cfbe
000000d0: 83f7 553e 6383 293e 4210 d4bd bb44 eebe
000000e0: 7803 aa3d 0f84 13be 0639 b83d 84f0 64be
000000f0: fac6 5c3e 222b 41be a578 c83e 7458 1fbd
00000100: c75f 1a3c 0ba6 a7be 4ffe 68bd c17c 3bbc
00000110: ba9d b2be 7a6c 393d cd87 873d 6594 92be
00000120: 6faa 073e 0d14 aa3d c56c a93c 31ac 09be
00000130: 336d 1cbe 00ac 4a3d 3954 943b ce34 903c
00000140: d30f c9be edc6 bc3d cbc8 133d 22bc 383c
00000150: 88df db3e f5e1 dbbb 12d2 6cbd 8cb5 66be
00000160: 1e1d 443e 1e9f 84be 0127 133d f542 413c
00000170: 30ab 33bf e689 6d3c 5ea6 5c3c 6d88 5fbe
00000180: 185d c93c b43f 853c 94ef 93be 4e47 a1bd
00000190: 4c7a e3bd ed85 5dbc d76c 9e3e c2a5 a2bd
000001a0: d98a 2dbf 1f09 15bd 7903 1bbe cadd 55bd
000001b0: cf20 e33c 95fb 02be de76 bd3d aeb6 803b
000001c0: 89b4 0ebe 797f 85be 334d 233f 9fb8 ae3e
000001d0: 7174 cb3c 0f6f 64bc 8578 a03d dc6f 613e
000001e0: 9b60 30be 496c d73d 0db7 8d3b 3e60 93be
000001f0: 49fc a93c 50c5 78be f60c 93be 7597 2cbd
00000200: 2b7a 4d3d 7a3a 98bb 2252 fd3d 57bc 203f
00000210: e589 83bd 54b4 163f 9743 a6bd 3c67 c13d
00000220: fc3f d0bd 4973 62bd 64b0 83bb 4be2 a8bd
00000230: df5e 1c3e efab eabc 3e2e 093e cfac 1d3e
00000240: dec5 40bd 1d83 14bf 7297 a1bd 533f ec3d
00000250: 6a78 343f 8e81 debe 01d4 af3c cdf8 8d3b
00000260: 08d0 82be 7378 bebe d121 d7bd 98b3 8cbd
00000270: 1a13 90bd bea7 003e 88cc 1fbe 7f1e 063e
00000280: 6069 debd a5fd 6ebe 4b92 1b3d 1424 dfbc
00000290: 0427 023f 976d b0bd 9b66 a4be b554 4bba
000002a0: ea23 c13e 8acb a83d be8f 3fbd 625b 85be
000002b0: f3e5 173d 4e32 44be c514 93bd d604 4d3e
000002c0: 0e6e b0be c552 b3bc acc7 443e bd28 9d3e
000002d0: f488 2abe 54f1 c5be 6b32 8fbc 1185 edbd
000002e0: cacc b9bc 3f05 a23d 2d22 05be 5c76 ebbe
000002f0: d78b 173e 3830 85be bf4d bcbd c5c4 ffbd
00000300: 2dfc a43d e0b7 a63d 2388 2abd 40a5 8dbb
00000310: 4c6b 3bbd 1117 bb3d 0d14 223e a96c 8bbe
00000320: c057 d5be c9ea 803e 7e76 ab3e c63b f43d
00000330: c669 5fbd f589 a4bd 2e9d 923c 52e9 073e
00000340: eea9 823d fd81 023d a89e b23a 7848 923d
00000350: 5765 1bbd fc00 79bd 24f6 46bb bc38 e4bb
00000360: 956f e1bd 4469 773d 38fb 973c 6b96 e9be
00000370: ed5a 353e ab8a be3a 9dbb e9bb ecd2 b83d
00000380: 3ee2 c33d 5df7 873d c73e 88be e589 133e
00000390: b8a1 723d 2b13 7dbf 36f1 16be 2969 2bbf
000003a0: e174 cf3d 1b39 16be e3a2 b23d 0427 ccbb
000003b0: d59e 23bd d8fe 87bd ffdb 4dbc 46a5 953c
000003c0: 106e a83d 8c4d 91bc fcf9 243c dc73 ffbe
000003d0: 5f76 9bbe 8586 efbe 7577 d3bb 2a40 7f3c
000003e0: 273b 60be cc33 a5be fbc2 0d3b 3a46 38be
000003f0: c416 383d 605e 6abd 37a7 d8b7 2b3c f3b7

last_fc.bias f4 [3]
-0.044368662 -0.06494669 -0.015679732
00000000: eabb 35bd c502 85bd c872 80bc

last_fc_log_std.weight f4 [3, 256]
0.46401933 0.4116157 0.018739343 -0.02183881 -0.05676305 0.0839301 0.01969054 -0.019808423
0.05917473 0.042192746 0.0025152918 0.24599509 0.16529334 0.1006736 0.008909529 0.15259968
0.19709213 0.015589309 -0.022432432 0.027229052 -0.04900252 0.026029246 -0.05997088 0.6613506
0.0855504 -0.015490018 0.024480134 0.06814165 0.15192473 -0.025419084 0.038192987 0.05355209
0.10811401 -0.04303593 -0.038300343 -0.03637578 0.056315858 0.0011445907 0.044621203 0.1434598
0.05087494 -0.049383096 -0.023570139 0.038796682 0.009537485 0.03219739 0.03770459 -0.0069297566
-0.091289304 0.20734988 0.11835679 -0.09115739 0.13928598 -0.0019327753 0.030063165 0.121255256
0.09616438 -0.1307796 0.012333698 0.0066782087 0.011640042 -0.075229555 0.27343193 0.06951179
-0.030920012 0.045831062 -0.09722578 0.025818484 0.12197043 -0.026231281 -0.21293816 -0.17832801
0.07790505 -0.027857434 0.028659282 -0.04769583 -0.025273982 0.038834263 4.1790357e-05 0.08618312
-0.047031708 0.13731752 0.046480034 -0.021529207 0.37677127 0.08425165 -0.039773144 -0.12818311
0.14869688 -0.089513645 0.03918622 -0.0011526723 0.25552884 0.10712893 -0.0092045 0.03847755
0.040876124 -0.046455782 0.109321445 0.07433648 -0.02901558 0.030813694 0.24182722 -0.0065648067
0.25648347 -0.031290222 0.037319303 -0.08453212 -0.011010615 -0.037536915 0.0050775604 0.045539662
0.017743401 0.048734557 0.19055702 0.20208384 0.035414714 -0.0010347178 0.085479125 0.08217156
-0.07525624 0.06071887 0.0069628474 -0.04157058 -0.071066484 0.6076479 0.24262789 -0.0807271
-0.025735818 -0.01878806 -0.020335581 0.25907433 -0.052440926 0.38005978 -0.015174038 0.34315434
0.02182996 -0.019707318 -0.041809738 0.0152442055 0.08486842 -0.045668274 0.1712502 0.11335645
0.023086125 0.024178432 -0.17273931 0.1477732 0.24190381 -0.023170905 0.06490996 -0.0075148866
0.0008835313 0.26403713 -0.0024037506 -0.018451212 0.032628592 -0.18690427 -0.051558208 0.116472304
-0.03371358 0.06750141 0.04000953 0.006133526 0.47500417 0.036555618 0.10778299 -0.08295198
0.069611646 0.15590902 0.037317626 -0.017562535 -0.010354968 0.15550189 0.0021678442 0.15292804
0.11426319 -0.021625383 0.07759952 0.062190443 0.08030484 0.11141271 0.035213917 -0.042018116
-0.045860507 0.033185776 -0.06381472 -0.10042929 0.056935664 0.08403194 0.011119014 -0.035402466
0.10650317 -0.009980497 -0.019348463 -0.0009827253 -0.041766074 0.14516823 0.2124404 0.041798428
0.057680223 0.26286817 -0.0686978 -0.13878907 -0.02066901 -0.07165853 0.07572381 0.1334883
0.018989401 0.008894452 -0.008029362 0.034993935 -0.016721925 -0.083739795 0.025760118 0.010057886
-0.031795207 0.04510704 0.054887667 0.15921897 0.12507893 -0.006477972 -0.025164815 -0.17730372
0.028407667 0.013520113 0.07425991 0.12442078 0.28731996 0.25852048 -0.0046067745 0.17288281
0.04595935 -0.12157256 -0.0037293644 -0.040645503 -0.07643529 0.010088481 0.024890158 -0.013541143
0.022518208 0.023825472 -0.012090868 0.20145297 -0.02310019 0.004438763 -0.004169043 0.0074714287
0.22226319 0.25681224 0.012549236 -0.22143216 0.03722154 -0.025948958 0.492579 -0.005051762
00000000: f193 ed3e 4bbf d23e 4083 993c 4ee7 b2bc
00000010: 5f80 68bd 8be3 ab3d 0e4e a13c 4645 a2bc
00000020: 3461 723d 4dd2 2c3d 98d7 243b 23e6 7b3e
00000030: a842 293e f62d ce3d 46f9 113c 1743 1c3e
00000040: 85d2 493e 4d6a 7f3c 38c4 b7bc 760f df3c
00000050: deb6 48bd 493b d53c 07a4 75bd 464e 293f
00000060: 0c35 af3d d8c9 7dbc 908a c83c d98d 8b3d
00000070: 2892 1b3e af3b d0bc 4070 1c3d 7059 5b3d
00000080: e16a dd3d 7146 30bd d2e0 1cbd c5fe 14bd
00000090: 75ab 663d 1706 963a b9c4 363d 20e7 123e
000000a0: 3e62 503d ee45 4abd 2a16 c1bc 45e9 1e3d
000000b0: 1d43 1c3c 69e1 033d 2170 1a3d 0313 e3bb
000000c0: e3f5 babd 8753 543e 0b65 f23d bab0 babd
000000d0: fca0 0e3e 2d55 fdba 0747 f63c ad54 f83d
000000e0: d5f1 c43d 16eb 05be 4713 4a3c e0d4 da3b
000000f0: e0b5 3e3c f411 9abd 45ff 8b3e 335c 8e3d
00000100: f74b fdbc 5ab9 3b3d 4f1e c7bd 4981 d33c
00000110: a2cb f93d fce2 d6bc 760c 5abe 9e9b 36be
00000120: af8c 9f3d 4635 e4bc dfc6 ea3c b45c 43bd
00000130: 620b cfbc ad10 1f3d 0e48 2f38 c780 b03d
00000140: 52a4 40bd f79c 0c3e d961 3e3d 055e b0bc
00000150: 2ae8 c03e 218c ac3d 2ae9 22bd 6f42 03be
00000160: ff43 183e ee52 b7bd bb81 203d 4415 97ba
00000170: add4 823e 6a66 db3d 79ce 16bc a39a 1d3d
00000180: b96d 273d 6b48 3ebd ece3 df3d b93d 983d
00000190: 15b2 edbc 006d fc3c 8ea1 773e 971d d7bb
000001a0: cd51 833e 2d2a 00bd 20dc 183d 2d1f adbd
000001b0: de65 34bc 4fc0 19bd aa61 a63b cc87 3a3d
000001c0: 9c5a 913c e39d 473d 6121 433e 11ef 4e3e
000001d0: 050f 113d 5e9f 87ba ae0f af3d 9049 a83d
000001e0: f21f 9abd 5ab4 783d 9928 e43b ea45 2abd
000001f0: 4e8b 91bd d08e 1b3f 7273 783e 4054 a5bd
00000200: ecd3 d2bc 6be9 99bc ce96 a6bc 64a5 843e
00000210: 4ccc 56bd 3297 c23e 879c 78bc edb1 af3e
00000220: bfd4 b23c 3e71 a1bc b040 2bbd d5c2 793c
00000230: 7fcf ad3d a80e 3bbd 365c 2f3e 6d27 e83d
00000240: 1d1f bd3c d911 c63c 93e2 30be dc51 173e
00000250: a2b5 773e e9d0 bdbc 83ef 843d 703f f6bb
00000260: c89c 673a e02f 873e 3e88 1dbb ff26 97bc
00000270: 8fa5 053d d563 3fbe b32e 53bd 0889 ee3d
00000280: 4017 0abd 2e3e 8a3d 08e1 233d bffb c83b
00000290: bf33 f33e 58bb 153d 54bd dc3d bae2 a9bd
000002a0: 8d90 8e3d 9da6 1f3e 5eda 183d 4edf 8fbc
000002b0: e2a7 29bc e33b 1f3e 6412 0e3b 2b99 1c3e
000002c0: d202 ea3d b727 b1bc 7fec 9e3d 68bb 7e3d
000002d0: dd76 a43d 592c e43d 783c 103d 301b 2cbd
000002e0: 3ad8 3bbd cfed 073d 4bb1 82bd dfad cdbd
000002f0: 5f35 693d f018 ac3d 862c 363c 2d02 11bd
00000300: 561e da3d 3d85 23bc ab80 9ebc cace 80ba
00000310: e712 2bbd fba6 143e fa89 593e d434 2b3d
00000320: 1942 6c3d a896 863e 6fb1 8cbd b91e 0ebe
00000330: 0e52 a9bc b5c1 92bd 1615 9b3d 28b1 083e
00000340: a98f 9b3c 09ba 113c 968d 03bc cd55 0f3d
00000350: 6bfc 88bc c57f abbd e206 d33c d5c9 243c
00000360: b13b 02bd 29c2 383d e4d1 603d 4c0a 233e
00000370: b114 003e 2b45 d4bb 7126 cebc 1b8f 35be
00000380: 32b7 e83c 7783 5d3c 9415 983d 52d0 fe3d
00000390: 9a1b 933e cc5c 843e 6df4 96bb 3108 313e
000003a0: df3f 3c3d 09fb f8bd 5a68 74bb e67b 26bd
000003b0: 1b8a 9cbd 284a 253c 72e6 cb3c acdb 5dbc
000003c0: 1b78 b83c a32d c33c c718 46bc b049 4e3e
000003d0: 9c3c bdbc 0b73 913b 789c 88bb e3d2 f43b
000003e0: f698 633e e57c 833e 509b 4d3c 1dbf 62be
000003f0: 9d75 183d e992 d4bc 5133 fc3e 4089 a5bb

last_fc_log_std.bias f4 [3]
-2.252935 -2.1950457 -2.103194
00000000: 1630 10c0 a17b 0cc0 bb9a 06c0
