models/Env3/PDSRL_256_A5_S3_P/local_episode_3350_reward_200.000000.pt (torch, 297564 bytes, 8 tensors)

fc0.weight f4 [256, 23]
0	0x3c7e99fd	0.015539643
1	0xbda186ed	-0.07887063
2	0x3c9a558f	0.018839626
3	0xbd154393	-0.036441397
4	0x3cd2d4f5	0.025736311
5	0xbd8e23d5	-0.06940428
6	0xbd75d501	-0.06001759
7	0x3c019acb	0.007910441
8	0xbd96b80a	-0.073593214
9	0xbd9c1dc2	-0.07622863
10	0x3a65439c	0.00087457313
11	0xbd5e2868	-0.054237753
12	0xbd6dadae	-0.058026962
13	0xbd3dd26b	-0.04634325
14	0xbd3b7dfd	-0.04577445
15	0x3c4f73dd	0.012661901
16	0xbdad7ad7	-0.084706955
17	0xbceebf33	-0.029143905
18	0x3d037c2a	0.032100834
19	0xbd87fbb9	-0.06639809
20	0x3d7c2412	0.061557837
21	0xbc518550	-0.012788132
22	0xbc1e9222	-0.009678395
23	0xbd6c38a7	-0.057671215
24	0x3c151e01	0.009101392
25	0x3c185018	0.00929644
26	0x3c5f6a46	0.013636177
27	0xbd6af971	-0.057366792
28	0xbd565a11	-0.052331988
29	0x3b208120	0.0024491027
30	0xbd23dbe7	-0.040004637
31	0xbd31ae43	-0.04337908
32	0xbd0e7c6d	-0.03478663
33	0xbc61f37a	-0.0137909595
34	0xbd8a206a	-0.06744464
35	0x3a8b274d	0.0010616571
36	0xbdbd54bf	-0.0924468
37	0xbd8ae0ff	-0.06781196
38	0xbc6fbadf	-0.014631956
39	0xbb11c973	-0.0022245317
40	0xbd0b7f8a	-0.034057178
41	0xbdad1d68	-0.084528744
42	0x3c9f0a8b	0.019414207
43	0xbccf8a00	-0.025334358
44	0x3c7bb7fa	0.015363688
45	0xbcdd6e85	-0.027030239
46	0x3cbcd7a4	0.023052044
47	0x3c14580c	0.009054195
48	0x3c27427f	0.010208725
49	0xbd873a84	-0.06602958
50	0xbd2593d7	-0.040424194
51	0xbd8680df	-0.06567549
52	0xbcdc9c4d	-0.026929999
53	0xbdc32b0b	-0.09529694
54	0xbd6a4016	-0.057190023
55	0xbd1c2b1e	-0.038127057
56	0xbd8dad10	-0.06917775
57	0xbc2292db	-0.009922708
58	0xbd562c6d	-0.05228846
59	0xbc47f082	-0.012203338
60	0x3ccecc67	0.025243951
61	0xbc113492	-0.008862631
62	0xbc8996a7	-0.01679547
63	0xbd64153b	-0.05568431
64	0xbd575f6b	-0.052581232
65	0xbd9821c0	-0.07428312
66	0xbc96b9d4	-0.018399157
67	0x3d249aa6	0.040186547
68	0xbc050994	-0.008119959
69	0xbca8f2f7	-0.020623667
70	0x3c54aa51	0.01298006
71	0xbcbb7560	-0.022883117
72	0x3cd71e15	0.026259461
73	0x3d46e365	0.048556704
74	0xbd8466de	-0.06464933
75	0xbd1d1975	-0.038354356
76	0xbd663d38	-0.056210726
77	0x3cb09926	0.021557402
78	0x3cf62692	0.030047689
79	0xbddffb08	-0.10936552
80	0xbb90c117	-0.0044175494
81	0x3c0e0c34	0.008669902
82	0xbc62fcb4	-0.013854194
83	0xbd96cd34	-0.07363358
84	0xbd37c4db	-0.04486547
85	0xbbc9bb3f	-0.0061563547
86	0x3c5e812b	0.013580601
87	0xbdb439fc	-0.08800122
88	0xbdfaa6d4	-0.12238851
89	0xbdb498f1	-0.08818234
90	0xbc230fd4	-0.009952504
91	0xbde140ca	-0.10998686
92	0x3e836c1e	0.25668424
93	0x3d3249e6	0.043527506
94	0x3e1e3674	0.1545046
95	0x3e262468	0.16224825
96	0x3d454d77	0.04816958
97	0x3c71e162	0.014763208
98	0xbf0c3d18	-0.5478072
99	0xbe92c928	-0.28669095
100	0x3d603e96	0.054747187
101	0x3e957e17	0.2919776
102	0xbe9a41f8	-0.30128455
103	0xbe6b39f0	-0.2297132
104	0xbde3350a	-0.11094101
105	0x3d1eab9e	0.038737886
106	0x3e1dd97f	0.15415
107	0xbe58f46c	-0.2118699
108	0xbded7a11	-0.11595548
109	0x3c5c9582	0.01346338
110	0x3d843004	0.06454471
111	0x3df2ebe4	0.11861399
112	0x3eeb8801	0.460022
113	0x3d007161	0.031358127
114	0xbe27cd99	-0.16387023
115	0xbcb44914	-0.022007503
116	0xbc8e2bd1	-0.017354878
117	0xbb86b2a9	-0.0041106534
118	0xbd9355a3	-0.07194068
119	0x3cd9a4fa	0.026567925
120	0xbd81b78a	-0.063338354
121	0xbd7f3f6a	-0.062316336
122	0x3d1242d3	0.03570826
123	0xbd9884be	-0.074471936
124	0x3b7065d9	0.00366818
125	0xbc4cf261	-0.0125089595
126	0x3c8a20b5	0.016861299
127	0xbdacad9c	-0.08431551
128	0xbd5e25ec	-0.054235384
129	0x3ceaa7ae	0.028644409
130	0xbd70919d	-0.058732618
131	0xbd9d5ab1	-0.07683314
132	0xbd7dda79	-0.06197593
133	0xbbd136f2	-0.006384724
134	0xbcb9f75f	-0.022700964
135	0xbd28a501	-0.041172985
136	0xbbb509f8	-0.00552487
137	0xbd9e23f3	-0.077217005
138	0xbc74a899	-0.014932775
139	0xbb6e375f	-0.0036348922
140	0x3b904ecf	0.004403926
141	0x3c8d35a1	0.017237486
142	0xbd87ccc9	-0.066308565
143	0xbdba3995	-0.09093014
144	0xbc80172b	-0.015636047
145	0xbd233100	-0.039841652
146	0x3d8861e0	0.06659293
147	0xbd2b6b55	-0.041850407
148	0x3c7f851e	0.015595702
149	0xbcd3190d	-0.025768781
150	0xbbb825f9	-0.005619761
151	0xbd2ef80c	-0.042717025
152	0xbb6848ba	-0.003544374
153	0x3d3483e1	0.044071082
154	0x3c84e54c	0.016222619
155	0xbd391c37	-0.045192923
156	0xbd71b74d	-0.0590127
157	0xbcd1767e	-0.025569197
158	0xbc5bbb18	-0.013411306
159	0xbaff0a64	-0.0019458053
160	0xbcc155bf	-0.023600457
161	0x3e856989	0.2605708
162	0x3d496e66	0.04917755
163	0xbecb43c3	-0.39700136
164	0x3de57e3b	0.11205717
165	0x3e8125fe	0.25224298
166	0x3e1f3c50	0.15550351
167	0x3cf917c6	0.030406844
168	0x3cd26afa	0.025685776
169	0xbbad89f7	-0.0052959877
170	0xbecf1fbd	-0.40453902
171	0xbf6feb18	-0.937181
172	0x3df56e0c	0.119838804
173	0xbda94473	-0.08265009
174	0x3d529b92	0.051417895
175	0x3c24e946	0.010065382
176	0x3e165306	0.14680108
177	0xbd2b8f27	-0.041884568
178	0x3d84180a	0.064498976
179	0xbd32d9f3	-0.043664884
180	0xbe618e30	-0.22026896
181	0x3de7eff3	0.113250636
182	0x3e4a2a2a	0.19742647
183	0x3eb6c024	0.35693467
184	0x3dfa9fd0	0.12237513
185	0xbd637628	-0.055532604
186	0xbcbffff2	-0.023437474
187	0x3db75f68	0.08953744
188	0xbdab0ece	-0.08352433
189	0xbe167e16	-0.14696535
190	0xbd8446b3	-0.06458797
191	0xbc6f5e9d	-0.01460996
192	0xbe14d09f	-0.14532708
193	0xbd973f63	-0.07385137
194	0xbe13f095	-0.14447244
195	0xbe8ef70b	-0.27922854
196	0xbd7a127c	-0.061052784
197	0x3dc98d1b	0.09841367
198	0x3e2ff329	0.17182602
199	0x3e21eaea	0.15812269
200	0x3e857048	0.26062226
201	0x3eb4c16e	0.35303825
202	0x3d82b39e	0.063819155
203	0xbe58b972	-0.21164492
204	0xbe94b7a3	-0.29046354
205	0xbd59d618	-0.05318269
206	0xbbf93781	-0.0076054935
207	0xbe3bcf7e	-0.1834087
208	0xbdf9269c	-0.12165567
209	0xbe8520cb	-0.26001582
210	0xbe16931b	-0.14704554
211	0x3dc3e5a7	0.09565287
212	0x3e9ee860	0.31036663
213	0x3c4c3f8b	0.012466322
214	0x3cb0d645	0.021586547
215	0xbdd64ccb	-0.10463866
216	0x3e14e4fd	0.14540477
217	0xbeb1e315	-0.34743562
218	0xbeef8d86	-0.4678766
219	0xbf4629ba	-0.7740742
220	0x3e131872	0.14364794
221	0x3f002f06	0.5007175
222	0x3e4173f6	0.18891892
223	0x3e099076	0.13434014
224	0x3dbd5ce1	0.09246231
225	0x3da3d6ba	0.0799994
226	0x3d84d437	0.06485789
227	0xbe1eb92d	-0.15500326
228	0x3ea9b8dc	0.3314885
229	0xbea7e95a	-0.3279522
230	0x3c1f6bf4	0.009730328
231	0x3e04ae73	0.12957172
232	0x3d5c4600	0.053777695
233	0x3e100798	0.14065397
234	0x3d24e5cc	0.040258214
235	0xbd34c14b	-0.04412965
236	0x3d4c6cca	0.049908437
237	0xbe195134	-0.14972383
238	0xbe9c7d54	-0.30564368
239	0xbd272e1e	-0.040815465
240	0xbe08105f	-0.13287495
241	0xbe1bcc45	-0.15214641
242	0x3db1968b	0.08671292
243	0x3e2187c6	0.1577445
244	0x3e0d7506	0.13814172
245	0x3e7f661d	0.24941297
246	0xbd5fee8b	-0.05467085
247	0xbe69228b	-0.22767083
248	0xbe3b4056	-0.18286261
249	0xbdd52a7c	-0.10408494
250	0xbf8f20d8	-1.1181898
251	0x3e9e2fa0	0.3089571
252	0x3ee4b544	0.44669545
253	0xba88ae12	-0.0010427854
254	0xbdc8ad8b	-0.09798726
255	0xbb852fb1	-0.004064523

fc0.bias f4 [256]
0	0x3d9d65c7	0.07685428
1	0x3d83b8b8	0.06431717
2	0x3d8e920f	0.06961452
3	0x3d61b596	0.055104814
4	0x3f03ab60	0.5143337
5	0x3d943469	0.07236559
6	0x3daa662c	0.08320269
7	0x3ed1987c	0.4093665
8	0x3e2de944	0.16983515
9	0xbde8b051	-0.11361755
10	0xbe52ef2f	-0.20599054
11	0x3e5514d1	0.20808722
12	0x3daf9007	0.08572393
13	0x3dbabe4a	0.09118326
14	0x3d8955c0	0.06705809
15	0x3e888e31	0.26670983
16	0xbe7bb968	-0.24582446
17	0x3d962b7f	0.07332515
18	0x3d8c173c	0.06840369
19	0x3f005e79	0.50144154
20	0xbecbac64	-0.3977996
21	0x3d801506	0.0625401
22	0x3de4ca4e	0.11171399
23	0xbd9d03ef	-0.07666766
24	0x3f00a4bc	0.50251365
25	0x3db05e62	0.08611752
26	0x3f498146	0.7871288
27	0x3e8f56ac	0.27995813
28	0xbf2372a0	-0.6384678
29	0xbd26fbb0	-0.04076737
30	0x3da1b57f	0.07895946
31	0x3ec908bb	0.39264473
32	0x3db6c2b1	0.08923853
33	0x3efc23fc	0.49246204
34	0x3e8a0d67	0.2696335
35	0x3eb0dbf4	0.3454281
36	0x3d965719	0.07340831
37	0x3f2f0351	0.68364435
38	0x3d95a013	0.07305922
39	0x3d919da9	0.071101494
40	0x3e8b7be2	0.27242953
41	0x3e53cff2	0.20684794
42	0x3f0f07d1	0.558713
43	0x3da7e290	0.0819751
44	0x3d8292dd	0.06375668
45	0x3f4bae08	0.79562426
46	0x3d82faa4	0.06395462
47	0x3db094c5	0.086221255
48	0x3d105944	0.03524138
49	0x3e2663d7	0.16249023
50	0x3dbf89ee	0.0935248
51	0x3e995caf	0.29953524
52	0x3daa6254	0.08319536
53	0xbd028411	-0.03186423
54	0x3f3873ee	0.72051895
55	0x3d959496	0.07303731
56	0x3d432c4f	0.047649678
57	0x3ec32735	0.3811585
58	0x3db6e958	0.089312255
59	0xbe894214	-0.26808226
60	0x3e71f050	0.23626828
61	0x3d8a6c64	0.06758955
62	0xbe27b24b	-0.16376607
63	0xbd68589e	-0.056725137
64	0x3eebaa71	0.46028474
65	0xbe390291	-0.18067385
66	0x3da315db	0.07963153
67	0x3f02234f	0.50835127
68	0x3f5aee77	0.8552012
69	0xbeace7fd	-0.33770743
70	0x3e282f36	0.1642426
71	0xbe59da2e	-0.21274635
72	0x3e9581b1	0.2920051
73	0x3e889a78	0.2668035
74	0x3f21b9ee	0.6317433
75	0x3e8c4d4f	0.27402732
76	0x3f115326	0.567675
77	0x3d95ecb4	0.07320538
78	0x3c7955e8	0.015218236
79	0x3db38d47	0.08767181
80	0x3da52061	0.080628164
81	0x3dcccf8d	0.10000525
82	0x3f61aa67	0.8815064
83	0x3d8cfd0a	0.06884201
84	0x3ea26d83	0.31724176
85	0x3f09cd42	0.53828824
86	0x3d9d7312	0.076879635
87	0xbc8c8e11	-0.017157586
88	0x3d669b81	0.056300644
89	0x3da02ed8	0.07821435
90	0x3db16ea5	0.08663682
91	0x3ed6bf7f	0.41942975
92	0x3dac6441	0.084175594
93	0x3e2b86b2	0.16750601
94	0x3e967c0d	0.29391518
95	0xbdb33418	-0.087501705
96	0x3d96e891	0.07368577
97	0xbee64f02	-0.44982153
98	0xbd019c17	-0.031643
99	0x3db09608	0.08622366
100	0xbec5815e	-0.38575262
101	0xbed2aba3	-0.41146573
102	0x3f04b90c	0.5184486
103	0xbea741f4	-0.32667506
104	0x3db5b19e	0.088717684
105	0x3d6c6a94	0.05771883
106	0x3d823858	0.06358403
107	0x3f1c3b87	0.6102833
108	0x3eeb744e	0.4598717
109	0x3d931947	0.07182556
110	0xbe62197b	-0.22080033
111	0x3da2eed9	0.07955713
112	0x3e96a387	0.29421636
113	0xbed02f8f	-0.40661284
114	0x3e798975	0.24368842
115	0x3b0ca438	0.0021460187
116	0x3e515438	0.20442283
117	0x3d9c3ed9	0.07629175
118	0x3da1bdfc	0.07897565
119	0x3efcdf5a	0.49389154
120	0x3f36e459	0.7144218
121	0x3df7aaa0	0.12093091
122	0x3de8cc8f	0.113671415
123	0x3db2d4c3	0.08731987
124	0x3eb244ba	0.3481806
125	0x3e7e83fc	0.24855036
126	0x3ecfcd64	0.40586388
127	0xbf276e75	-0.6540292
128	0xbdd19ac9	-0.10234601
129	0xbea3af49	-0.3196967
130	0xbe3d883e	-0.18509004
131	0x3f094b7d	0.5363081
132	0x3d8be67e	0.06831072
133	0x3d0ab23d	0.033861388
134	0x3dffedd9	0.12496538
135	0x3d9014ce	0.07035218
136	0x3dac47f2	0.0841216
137	0x3d7dddaf	0.061978992
138	0x3db0d96b	0.08635219
139	0x3d9d3628	0.07676345
140	0x3e83a673	0.25712928
141	0x3dee432f	0.11633908
142	0xbf0b356f	-0.5437841
143	0x3d8c668b	0.06855496
144	0x3ef7f9f3	0.48432884
145	0x3d82e714	0.06391731
146	0x3edca4d1	0.43094495
147	0x3da0b90b	0.07847794
148	0x3d8fa9f8	0.07014841
149	0x3db0fd8c	0.0864211
150	0x3d8e8793	0.069594525
151	0x3d8f5d68	0.07000238
152	0x3f36a974	0.71352315
153	0xbe081e92	-0.13292912
154	0x3dac8c62	0.084252134
155	0x3f289c2e	0.6586331
156	0x3e84c196	0.25928944
157	0x3ee7de12	0.45286614
158	0xbdc98a40	-0.09840822
159	0x3da6d927	0.08146887
160	0x3eda003d	0.42578307
161	0x3d9baae0	0.07600951
162	0x3d8c5312	0.06851782
163	0xbd70f7e9	-0.058830176
164	0x3f0b37a6	0.5438179
165	0xbe2a6c9a	-0.1664299
166	0x3db43fae	0.088012084
167	0x3ea9caf9	0.33162668
168	0x3ec87776	0.3915364
169	0x3d787ca0	0.060665727
170	0x3d84dae7	0.06487065
171	0x3dac4f1a	0.08413525
172	0xbe919781	-0.284359
173	0xbed511c9	-0.41615131
174	0x3f018708	0.50596666
175	0x3db1c244	0.08679631
176	0x3dd65b59	0.10466642
177	0xbea59397	-0.32339165
178	0x3d8d8126	0.06909399
179	0x3da9bd5b	0.0828807
180	0xbe1ffd7f	-0.15624045
181	0x3daccd0c	0.08437547
182	0x3d68a08d	0.05679374
183	0xbd98cee1	-0.07461334
184	0x3d8e3625	0.06943921
185	0x3da70fbd	0.08157299
186	0x3ea447f8	0.32086158
187	0xbd079ef4	-0.033110574
188	0xbe1e993e	-0.15488145
189	0x3eae3bb0	0.34029913
190	0x3e3ed96b	0.18637626
191	0xbeaec9fc	-0.34138477
192	0x3d889327	0.06668692
193	0x3d69617c	0.056977734
194	0x3edd12a6	0.4317829
195	0x3cbaa085	0.02278162
196	0x3ee8feee	0.45506996
197	0x3edda464	0.43289483
198	0xbec2cb76	-0.38045853
199	0x3edf6847	0.43634245
200	0xbcb0def1	-0.021590682
201	0x3dae0e08	0.0849877
202	0x3f0b5131	0.54420763
203	0x3d7a7aab	0.06115214
204	0x3d9da9bc	0.0769839
205	0x3e68fc6d	0.22752543
206	0x3d575309	0.052569423
207	0x3d9cfd6b	0.07665523
208	0xbdd11684	-0.10209373
209	0x3d9cc3ad	0.0765451
210	0xbe8e6b9a	-0.27816468
211	0x3d7a77e3	0.06114949
212	0x3e5fd7ca	0.2185966
213	0x3e8641f7	0.26222202
214	0xbe1b7cab	-0.15184276
215	0x3d807d18	0.0627386
216	0xbd04cc4c	-0.032421395
217	0x3daf2169	0.08551294
218	0xbded96a4	-0.11600998
219	0x3e72b5e7	0.23702203
220	0x3dad0e87	0.084500365
221	0x3d893ed5	0.067014374
222	0x3ea17cfa	0.31540662
223	0x3f00c6c0	0.5030327
224	0x3ed9fc5b	0.42575344
225	0x3d8aa14e	0.06769048
226	0x3f0591bf	0.52175516
227	0x3dd7cbe5	0.10536937
228	0x3d7702cd	0.060305405
229	0x3da7a69e	0.081860766
230	0x3f15271e	0.58262813
231	0x3d8fd900	0.07023811
232	0x3dcccccd	0.1
233	0x3d986db6	0.07442801
234	0xbd0db95a	-0.034600593
235	0x3ecb690c	0.39728582
236	0x3e12fd0b	0.1435434
237	0x3d9d8abc	0.07692477
238	0x3db1ae28	0.08675796
239	0x3dcccccd	0.1
240	0x3d91c27b	0.07117172
241	0x3d7f844c	0.062382028
242	0x3d9f62c4	0.0778251
243	0x3da2ab80	0.07942867
244	0x3d83b739	0.06431431
245	0x3f87d9e3	1.0613369
246	0xbe7d6666	-0.24746093
247	0x3e6a0e96	0.22857127
248	0x3da44e0e	0.080227
249	0x3ecdfdf4	0.40232813
250	0x3ddafe9b	0.106930934
251	0xbe3caf44	-0.18426234
252	0x3d8f5e78	0.0700044
253	0x3d8b43ff	0.068000786
254	0x3d9af65b	0.0756652
255	0x3d8d9cc2	0.06914665

fc1.weight f4 [256, 256]
0	0x3c0b2209	0.008492001
1	0xbbfd2b73	-0.007726127
2	0x39d947d4	0.00041442981
3	0xbd5bff5b	-0.053710323
4	0xbd6af561	-0.057362918
5	0xbd12e205	-0.03586008
6	0x3bd0082d	0.006348631
7	0x3e46c120	0.19409609
8	0x3cd126f7	0.025531275
9	0xbee6e738	-0.4509828
10	0xbe91afbc	-0.28454387
11	0x3de7b0cb	0.113130175
12	0x3ada2561	0.001664322
13	0xbc238d17	-0.009982369
14	0xbec31d4f	-0.38108298
15	0x3bd882e3	0.0066074
16	0xbeef570c	-0.467461
17	0x3d635405	0.05550005
18	0xbc6b6812	-0.014368074
19	0xbf09af49	-0.5378309
20	0xbf2b43d2	-0.6690036
21	0xbd06061c	-0.03272067
22	0xbed83e80	-0.42235184
23	0xbdefaf56	-0.117033646
24	0xbd944bc5	-0.072410144
25	0x3d34485d	0.044014324
26	0x3dab03ac	0.0835031
27	0x3d570350	0.052493393
28	0x3ca9b3ce	0.02071562
29	0xbdb7e7a1	-0.089797266
30	0x3bc0c3da	0.0058827223
31	0xbe98d8dc	-0.2985295
32	0x3c886396	0.016649049
33	0x3e512a4f	0.20426296
34	0xbdc4a0a2	-0.09600951
35	0x3a8e0932	0.0010836481
36	0x3d45640d	0.04819112
37	0x3dce86b5	0.10084287
38	0x3c9f46bf	0.019442914
39	0xbc4ca6fe	-0.012490986
40	0xbe547cfe	-0.20750806
41	0x3b0b5b19	0.0021264015
42	0xbe09bdab	-0.13451259
43	0xbe56e3fa	-0.20985404
44	0xbd5f00a6	-0.054443978
45	0x3e109202	0.14118198
46	0xbf12ec03	-0.57391375
47	0xbd79e783	-0.061011802
48	0xbde00a77	-0.10939496
49	0xbe1d8a5d	-0.15384813
50	0xbda750cf	-0.0816971
51	0xbf087bbf	-0.5331382
52	0x3d7d64d2	0.061863728
53	0x3dd1f0d9	0.10251016
54	0xbe813dc7	-0.25242445
55	0xbc97fa72	-0.018552039
56	0xbe75c38b	-0.24000375
57	0x3d26ce60	0.04072416
58	0xbabf45ef	-0.0014592985
59	0xbeae43d4	-0.34036124
60	0x3cb03eda	0.021514345
61	0x3ab256d9	0.0013606205
62	0xbf3f7675	-0.74790126
63	0xbeedb448	-0.46426606
64	0xbd03b4ed	-0.032154966
65	0xbda01986	-0.07817368
66	0x3d3d2f5c	0.046187744
67	0xbd0ba7d9	-0.03409562
68	0xbe6a08e0	-0.22854948
69	0xbe188901	-0.14896013
70	0xbedbe2ec	-0.42946565
71	0x3e32ff4f	0.17480205
72	0xbdf059ba	-0.11735864
73	0xbeb12781	-0.34600452
74	0xbcec7a53	-0.028866922
75	0x3e427268	0.18988955
76	0x3cd4bc9f	0.025968848
77	0xbcbc8c03	-0.023015982
78	0x3c06b112	0.008220928
79	0xbd29861c	-0.041387662
80	0xbd6cd5cc	-0.05782108
81	0xbef65e08	-0.48118615
82	0xbf16f03f	-0.58960336
83	0x3d9dedd2	0.07711376
84	0xbc3bd18d	-0.011463535
85	0xbdf6871f	-0.12037491
86	0xbec18964	-0.37800133
87	0x3d802cc6	0.0625854
88	0xbebff2b1	-0.37489846
89	0xbd5d1792	-0.053977557
90	0x3d31c342	0.043399103
91	0xbd0d024c	-0.03442602
92	0xbc8bc558	-0.017061874
93	0xbd23eb42	-0.04001928
94	0xbf146ecd	-0.5798157
95	0xbf0718df	-0.52772325
96	0x3d8efbe0	0.06981635
97	0x3e61d379	0.22053327
98	0xbe570b98	-0.21000516
99	0xbcfceedb	-0.030875614
100	0xbce32032	-0.027725313
101	0xbd96944b	-0.073525034
102	0xbd981481	-0.07425786
103	0xbc56e3d9	-0.013115847
104	0x3c90b814	0.0176659
105	0x3c529797	0.012853525
106	0xbd66e2f1	-0.056368772
107	0x3c1c5d0c	0.0095436685
108	0xbecc7645	-0.39933982
109	0xbbc0ccc4	-0.005883785
110	0xbde4e1c6	-0.11175875
111	0xbc279b38	-0.010229878
112	0xbe3a0680	-0.18166542
113	0xbf1bbbfb	-0.6083371
114	0xbcbbd86d	-0.022930348
115	0x3e0ff997	0.14060055
116	0x3da67eff	0.08129691
117	0x3d2f7fd8	0.04284653
118	0x3c81fcc3	0.015867596
119	0xbe330b06	-0.17484674
120	0xbd1337de	-0.03594195
121	0xbe31777f	-0.1733074
122	0xbe0a2e1a	-0.13494149
123	0x3ce4c668	0.027926639
124	0xbe6c3150	-0.23065686
125	0xbe5c35cb	-0.21504895
126	0x3d816952	0.063189164
127	0x3e18bca1	0.14915706
128	0xbeae9f31	-0.34105828
129	0xbf2d4444	-0.6768229
130	0x3e288bee	0.16459629
131	0x3e1dcc13	0.1540988
132	0xbd36b88e	-0.0446096
133	0xbd9f24ac	-0.077706665
134	0x3c6d5150	0.014484718
135	0xbc865c5b	-0.01640146
136	0x3b95e1f0	0.004574053
137	0xbd99b56e	-0.07505308
138	0xbcc8ff69	-0.024535852
139	0x3ba16024	0.004924791
140	0x3e4a6d20	0.1976819
141	0xbc0ae02a	-0.008476296
142	0xbd922145	-0.07135252
143	0x3d239296	0.039934717
144	0xbe32f940	-0.17477894
145	0xbe06d10f	-0.13165687
146	0xbeeb2c8a	-0.45932418
147	0x3cc6b8b6	0.024257999
148	0xbd664b2b	-0.05622403
149	0xbb33ce45	-0.0027436179
150	0x3d21c652	0.039495774
151	0x3c858afb	0.016301623
152	0x3eaa3c96	0.33249348
153	0xbed5811e	-0.4170007
154	0x3d37ebae	0.044902496
155	0xbf067edd	-0.5253733
156	0xbf35854e	-0.7090653
157	0xbe0c23e7	-0.1368557
158	0xbdbdb890	-0.09263718
159	0x3d320eb8	0.04347107
160	0xbcdd9965	-0.027050683
161	0xbca997d4	-0.02070228
162	0x3cfe08c1	0.031010034
163	0x3dafca11	0.08583463
164	0xbf0bac79	-0.5456005
165	0x3dc49ae5	0.09599856
166	0x3d3b67ae	0.045753174
167	0xbe2c9a41	-0.16855718
168	0x3e24d0f8	0.1609534
169	0x3d05d7ca	0.032676496
170	0xba408ead	-0.0007345479
171	0x3caa8c20	0.02081877
172	0x3e6b85e0	0.23000288
173	0xbebb56ee	-0.3658976
174	0xbebdbbd8	-0.37057376
175	0xbcbb2c19	-0.022848176
176	0x3e80228e	0.25026363
177	0xbed1f4fd	-0.41007224
178	0x3d6f81b6	0.05847331
179	0x3c8b6b0d	0.01701882
180	0xbcdea2f2	-0.027177308
181	0x3c4754b8	0.012166195
182	0x3def6b02	0.11690332
183	0xbd9fc93c	-0.07802054
184	0xbc41e052	-0.011833267
185	0xbd1c260d	-0.038122226
186	0xbef37bcd	-0.4755539
187	0x3db31137	0.08743518
188	0xbea159c9	-0.31513813
189	0xbdec24da	-0.115304664
190	0xbdcb842d	-0.0993732
191	0xbebd808a	-0.3701213
192	0xbd45f445	-0.048328657
193	0xbd9b72a3	-0.075902246
194	0xbd85420b	-0.06506737
195	0x3e038c55	0.12846501
196	0xbe33efdd	-0.1757197
197	0xbeae4fbc	-0.34045208
198	0xbdef9c7b	-0.11699768
199	0xbe3033ce	-0.17207262
200	0xbc94f3c5	-0.018182645
201	0x3ca1d29b	0.019753745
202	0xbd8219e9	-0.06352598
203	0xbf474c10	-0.7785044
204	0x3bcb0d11	0.006196626
205	0xbdd4d7d4	-0.103927284
206	0xbdb087b4	-0.08619633
207	0xbd9cf559	-0.07663984
208	0xbe38ff7c	-0.1806621
209	0x3ced2102	0.028946403
210	0xbf56cf7d	-0.8391035
211	0x3bcc5717	0.006235968
212	0xbdeb2924	-0.11482456
213	0xbe1b4a3c	-0.15165037
214	0xbe0d2020	-0.13781786
215	0xbbc35d89	-0.005962078
216	0xbe72aba6	-0.23698291
217	0xbc3274c8	-0.010892101
218	0xbdc28b33	-0.094992064
219	0x3e2fb102	0.17157367
220	0xbc165353	-0.0091751395
221	0xbd7ff877	-0.062492814
222	0xbbf31842	-0.0074186632
223	0xbe52372f	-0.20528863
224	0xbdf7e50e	-0.121042356
225	0x3c8f0779	0.017459618
226	0xbe434b89	-0.19071783
227	0x3e69c3b6	0.22828564
228	0xbb52258c	-0.0032065837
229	0x3c0d1954	0.008611996
230	0xbf0da496	-0.55329263
231	0xbd6b683a	-0.057472445
232	0x3d1da9c4	0.03849198
233	0x3d6eca07	0.058298137
234	0xbe4ab897	-0.19796978
235	0xbf04d66c	-0.5188968
236	0xbee928a6	-0.45538825
237	0x3d21e58c	0.039525554
238	0x3d2dd8a8	0.042442948
239	0xbd5cbdf6	-0.0538921
240	0xbd7a78e9	-0.061150465
241	0xbc4f5832	-0.012655305
242	0x3d3ad5c9	0.045614038
243	0xbd60fe22	-0.05492986
244	0xbd749fff	-0.059722897
245	0xbdb3c337	-0.08777469
246	0xbea5e2a8	-0.32399487
247	0x3d59ccab	0.053173702
248	0x3d1be77e	0.038062565
249	0xbe28dd6b	-0.16490714
250	0x3e8676ef	0.26262614
251	0xbf2ee273	-0.68314284
252	0x3c8a7a3a	0.016903985
253	0x3d11ad38	0.035565585
254	0x3cf7baf4	0.030240513
255	0xbc66de23	-0.014091047

fc1.bias f4 [256]
0	0x3e32cfa0	0.17462015
1	0x3eeca739	0.4622133
2	0xbe047393	-0.12934713
3	0x3c3429a5	0.010996257
4	0xbf302c82	-0.68817914
5	0x3a9531fd	0.0011382696
6	0x3de00b2a	0.109396294
7	0xbd52f1e4	-0.051500216
8	0x3d8e2f28	0.06942588
9	0x3eca27d9	0.39483526
10	0x3bebbd27	0.0071941796
11	0xbbe8b8b4	-0.0071020965
12	0x3d216cb3	0.039410304
13	0x3c8b1ab2	0.016980503
14	0x3d317067	0.043320086
15	0x3de95501	0.11393166
16	0x3d81d9c8	0.063403666
17	0xbe19c09c	-0.15014881
18	0x3e379d25	0.1793104
19	0x3d8c5468	0.06852037
20	0x3c8912af	0.016732542
21	0x3d59b8f1	0.05315489
22	0xbdde5a3b	-0.10857054
23	0xbdbe6843	-0.0929723
24	0xbe96263f	-0.29326054
25	0x3d141648	0.03615406
26	0xbd26bc62	-0.040707
27	0xbd33263c	-0.043737635
28	0x3ce69af6	0.028150063
29	0xbe95e1cd	-0.29273835
30	0x3e0f12cb	0.13972013
31	0x3e751354	0.23933154
32	0x3de82d1c	0.11336729
33	0x3e8677bb	0.26263222
34	0x3d4b6622	0.04965795
35	0x3e84ad09	0.25913265
36	0xbef11c92	-0.4709211
37	0xbda652e2	-0.081212774
38	0xbd978d3b	-0.073999844
39	0xbe042922	-0.12906316
40	0x3cd66536	0.026171308
41	0x3d57ff6d	0.052733827
42	0x3e3ab258	0.18232095
43	0x3dd1a355	0.10236231
44	0x3d4a95da	0.049459316
45	0x3cb18d37	0.021673782
46	0xbe931d55	-0.28733316
47	0x3d623aa5	0.05523171
48	0xbd022b27	-0.031779435
49	0x3d460318	0.048342794
50	0xbe7f0cd7	-0.24907242
51	0x3d31e24a	0.043428697
52	0x3e974151	0.2954202
53	0xbc7362f1	-0.014855132
54	0x3d428b55	0.04749616
55	0x3da13984	0.07872298
56	0xbdd9ce0e	-0.10635005
57	0x3d86b9b4	0.06578389
58	0xbe9cd618	-0.3063209
59	0x3efc82ce	0.49318546
60	0xbe8f4c8d	-0.2798809
61	0xbe8e6289	-0.2780955
62	0x3e8f826b	0.2802919
63	0xbef9c885	-0.48785797
64	0x3d821b21	0.06352831
65	0x3df11f60	0.117735624
66	0xbe523908	-0.20529568
67	0xbeaa6abb	-0.33284554
68	0xbd10acb2	-0.035320945
69	0xbe529f8a	-0.20568672
70	0x401147fe	2.270019
71	0x3e94e966	0.2908432
72	0xbd9c60ba	-0.07635637
73	0xbb1cab98	-0.0023905989
74	0x3cf849ef	0.030308692
75	0x3e489884	0.1958943
76	0x3e8145b8	0.25248504
77	0x3f8910be	1.0708234
78	0x3d47765e	0.048696868
79	0xbd5d6226	-0.05404868
80	0x3d506377	0.050876107
81	0x3ea8ef7b	0.3299521
82	0xbc0727a2	-0.008249195
83	0x3d644c55	0.05573686
84	0xbd71cc87	-0.059032943
85	0xbddf8cc8	-0.10915524
86	0xbea593a0	-0.3233919
87	0x3d10558e	0.03523784
88	0x3e705425	0.23469599
89	0xbd85fd3e	-0.06542443
90	0x3c92face	0.017941859
91	0x3d0da037	0.03457662
92	0x3d8de268	0.06927949
93	0x3d769431	0.06019992
94	0xbe74d267	-0.23908387
95	0xbe654ec5	-0.2239333
96	0x3c96f977	0.018429501
97	0x3d93bd68	0.07213861
98	0xbd2ebaa9	-0.04265848
99	0x3e3046b1	0.17214467
100	0xb8820432	-6.1996645e-05
101	0x3e20936b	0.15681235
102	0x3e9a857c	0.30179965
103	0xbec35fc6	-0.38159007
104	0x3d3c9181	0.0460372
105	0x3d7abd83	0.06121589
106	0x3da3b6dc	0.07993862
107	0xbdd6764f	-0.10471784
108	0xbe6b3e2c	-0.22972935
109	0xbe8ac718	-0.2710502
110	0xbc0c177d	-0.008550522
111	0xbd357bf5	-0.044307668
112	0x3eae29c1	0.3401623
113	0xbe3733fb	-0.17890923
114	0xbdcb9054	-0.09939638
115	0x3e5b1127	0.21393262
116	0x3f119240	0.56863785
117	0x3e84d4b1	0.2594352
118	0x3e865d58	0.2624309
119	0xbe439ee7	-0.19103585
120	0xbd7ab9f4	-0.061212495
121	0x3e345ddc	0.1761393
122	0x3e085912	0.13315228
123	0xbe929214	-0.28627074
124	0xbec030d4	-0.37537253
125	0x3d712503	0.058873188
126	0xbd69eefb	-0.057112675
127	0x3e700a76	0.2344149
128	0x3e1adb5c	0.15122741
129	0x3d89cb9a	0.06728287
130	0xbdbb8b3b	-0.091574155
131	0x3ea87cc5	0.32907692
132	0xbe5c3431	-0.21504284
133	0x3db71140	0.08938837
134	0xbc8450eb	-0.016151866
135	0xbdd14941	-0.1021905
136	0x3dfb9d33	0.12285843
137	0xbe4fcc58	-0.20292795
138	0x3d10ee85	0.03538372
139	0x3df8e603	0.12153246
140	0xbe9a8e06	-0.3018648
141	0x3d31c017	0.04339608
142	0x3ea6217e	0.32447428
143	0x3d9252df	0.07144713
144	0xbe543224	-0.20722252
145	0x3c45584a	0.0120449755
146	0xbcbfa02e	-0.02339181
147	0x3d935717	0.071943454
148	0x3dcae180	0.09906292
149	0xbd03edc7	-0.032209184
150	0xbed7e154	-0.421641
151	0x3d4c47bf	0.04987311
152	0x3d3156f2	0.043295808
153	0xbe38a3a2	-0.18031171
154	0x3d363dd8	0.044492573
155	0x3e053e5c	0.1301207
156	0x3dbf56ee	0.093427524
157	0xbe07711f	-0.13226746
158	0xbdcd85a6	-0.10035257
159	0x3cff0247	0.031129016
160	0xbe2d4d7c	-0.16924089
161	0xbd9836f3	-0.07432356
162	0xbda77f35	-0.0817856
163	0x3d8f99fc	0.07011792
164	0x3dbb3a45	0.091419734
165	0xbeb5140f	-0.35366866
166	0xbe3ba76a	-0.18325582
167	0x3d8d4308	0.06897551
168	0xbcd72ee0	-0.026267469
169	0xbc77007e	-0.015075801
170	0xbd06dc29	-0.032924805
171	0x3ce63f2f	0.0281063
172	0x3d1ecb68	0.038768202
173	0xbdcb3b59	-0.09923429
174	0x3ef93d15	0.48679414
175	0x3ccf4228	0.0253001
176	0xbd96d457	-0.07364719
177	0xbe21e6bf	-0.15810679
178	0x3e30c822	0.17263845
179	0x3e0e5930	0.1390121
180	0x3dba6c86	0.091027305
181	0x3d8f024b	0.06982859
182	0x3e1631ea	0.14667478
183	0xbe440bc1	-0.19145109
184	0x3d14399a	0.036187746
185	0x3e0d0fd0	0.13775563
186	0xbd14a6d2	-0.036291905
187	0x3d620870	0.055183828
188	0x3df3da47	0.119068675
189	0x3db7d0e6	0.08975391
190	0xbd217130	-0.039414585
191	0x3c9ed5df	0.019389091
192	0x3eb76e09	0.35826138
193	0xbe69f3fb	-0.22846977
194	0xbad0602a	-0.00158978
195	0x3d57584e	0.05257445
196	0x3e079738	0.13241279
197	0x3e15e517	0.14638172
198	0x3d83f494	0.06443134
199	0x3e2280c2	0.1586943
200	0x3d96e307	0.07367521
201	0xbe772921	-0.24136783
202	0x3deaab94	0.11458507
203	0xbdb842eb	-0.089971386
204	0x3e7f89f0	0.24954963
205	0xbe1e871d	-0.15481229
206	0x3d0584eb	0.032597464
207	0x3e0267ba	0.12734881
208	0xbda1e064	-0.07904127
209	0xbe470f99	-0.19439544
210	0xbd9a39da	-0.075305656
211	0x3de8db82	0.11369993
212	0x3e9ff447	0.31241056
213	0x3d9a61d3	0.0753819
214	0xbdd7cd30	-0.10537183
215	0xbf7d6c75	-0.9899362
216	0xbe7983e9	-0.24366726
217	0xbe9d5c9b	-0.30734715
218	0x3cd19199	0.025582122
219	0xbdb81480	-0.08988285
220	0x3dc55e96	0.096371815
221	0x3cf4f1cd	0.029900456
222	0x3d470a18	0.04859361
223	0x3e3f125b	0.18659346
224	0x3e2d343f	0.16914462
225	0xbe44a8f9	-0.19205083
226	0xbe742bde	-0.23844859
227	0x3e36d4ce	0.17854616
228	0x3de20858	0.11036748
229	0x3d23d1d4	0.03999503
230	0x3d791a43	0.06081606
231	0x3daeba05	0.08531574
232	0xbe2562a5	-0.16150911
233	0x3e835c4a	0.25656348
234	0x3e512972	0.20425966
235	0xbc92fc80	-0.017942667
236	0x3f36e71c	0.71446395
237	0xbe1d14c5	-0.15339954
238	0x3d0af34a	0.033923425
239	0x3e825479	0.25455073
240	0xbe99c147	-0.3003027
241	0x3d5b047b	0.05347107
242	0x3ca0b012	0.019615207
243	0xbc36ffd9	-0.011169397
244	0x3cde342e	0.02712449
245	0xbe29d1ef	-0.1658399
246	0x3d1a7504	0.03770925
247	0x3cdb28ec	0.026752912
248	0xbddea5b7	-0.10871451
249	0xbe725570	-0.23665404
250	0x3d11db50	0.035609543
251	0x3da69278	0.081334054
252	0x3e5bf72b	0.21481006
253	0xbf2f6e75	-0.6852792
254	0x3bde1ca0	0.0067783147
255	0x3e89fc75	0.26950422

last_fc.weight f4 [3, 256]
0	0x3f3f4acc	0.74723506
1	0x3f0f678f	0.5601739
2	0xbd5ef7e2	-0.05443562
3	0xbc457470	-0.012051687
4	0xbe452f4c	-0.19256324
5	0xbeaee0a9	-0.34155777
6	0xbd031139	-0.031998847
7	0x3da08cb9	0.07839341
8	0x3d92a6d2	0.07160725
9	0x3e849ce2	0.25900942
10	0x3dec8992	0.11549677
11	0xbdd69741	-0.10478068
12	0xbf313b82	-0.69231427
13	0x3e161008	0.14654553
14	0x3c63171a	0.013860488
15	0xbf01153c	-0.50423026
16	0xbdf31ad3	-0.11870351
17	0x3c81c187	0.015839351
18	0xbb7456a9	-0.0037283099
19	0xbe01bfd3	-0.12670831
20	0xbd410c8f	-0.047131117
21	0x3cd2b8b8	0.025722846
22	0x3e49ef09	0.19720091
23	0x3eea9372	0.45815617
24	0xbed54db1	-0.41660836
25	0xbd74cb12	-0.059763975
26	0xbe87604c	-0.26440656
27	0xbdf085e8	-0.117442906
28	0xbf1cac99	-0.61200863
29	0x3baff3fc	0.0053696614
30	0x3cd7e37a	0.026353586
31	0x3da7ceee	0.081937656
32	0x3e8e6941	0.27814677
33	0xbd7bd2fd	-0.06148051
34	0xbc82622a	-0.015915949
35	0xbdb7e369	-0.08978922
36	0xbc02f33d	-0.007992563
37	0x3cd0d587	0.025492443
38	0x3c9975aa	0.018732864
39	0xbc9646db	-0.018344333
40	0xbb589a3e	-0.003305092
41	0xbd145233	-0.036211204
42	0xbdefbf8f	-0.11706459
43	0xbe7ce7a1	-0.24697734
44	0x3a28a209	0.00064328365
45	0x3d376a13	0.044778895
46	0x3d9503cf	0.07276117
47	0xbd46dbb1	-0.048549358
48	0xbe36c876	-0.17849907
49	0x3d431435	0.047626693
50	0xbe82f8cc	-0.25580442
51	0xbecfb0c4	-0.4056455
52	0x3ebf5627	0.37370417
53	0x3e091eef	0.13390706
54	0xbdc8dce8	-0.098077595
55	0xbee63864	-0.44964898
56	0xbde1e6fb	-0.11030384
57	0xbd1fb744	-0.038993135
58	0x3da53bea	0.08068068
59	0xbe3f5e22	-0.18688253
60	0x3e307991	0.17233874
61	0xbdc43ee6	-0.095823094
62	0x3e620123	0.22070746
63	0x3dbc0be2	0.09181954
64	0x3c1a5fc7	0.009422249
65	0xbea7a60b	-0.32743868
66	0x3aa2a58c	0.0012408956
67	0xbcd70418	-0.02624707
68	0xbeb29dba	-0.3488596
69	0xbe41f853	-0.18942384
70	0x3ccc7e2e	0.02496251
71	0x3e109328	0.14118636
72	0x3c187b87	0.009306795
73	0x3d8b20b6	0.067933485
74	0x3ca96cc5	0.020681748
75	0x3d3c4dbe	0.04597258
76	0xbdc062c3	-0.09393837
77	0x3d9ff01c	0.07809469
78	0x3b945439	0.0045266417
79	0xbe1d42e4	-0.15357548
80	0xbec90fd3	-0.39269885
81	0x3e0dff74	0.13866979
82	0x3d13c8cb	0.036080163
83	0x3c38bc22	0.011275323
84	0x3edbdf88	0.42943978
85	0xbd9833cb	-0.07431754
86	0xbc8f2dde	-0.017477926
87	0xbdddbece	-0.10827409
88	0x3e2f238e	0.17103407
89	0xbe849f1e	-0.25902647
90	0x3d132701	0.03592587
91	0x3c4142f5	0.011795749
92	0xbe3145e4	-0.17311817
93	0x3c6d89e6	0.01449821
94	0x3d25fa7e	0.04052209
95	0xbe5f886d	-0.21829386
96	0x3cc95d18	0.024580523
97	0xbe16d0ba	-0.1472806
98	0xbe93ef94	-0.2889372
99	0x3e18eedb	0.14934866
100	0xbe0269ae	-0.12735626
101	0x3d19a3fe	0.03750991
102	0x3e99ee14	0.30064452
103	0xbd68f98b	-0.056878608
104	0xbf2a0bbc	-0.66424155
105	0xbd15091f	-0.03638565
106	0xbe0dc72c	-0.1384551
107	0xbdd61e5d	-0.1045501
108	0xbe4b969d	-0.19881673
109	0xbeeca843	-0.46222124
110	0x3cffb1b3	0.031212663
111	0x3b80b6ae	0.003928027
112	0xbe1533fb	-0.1457061
113	0xbe11e7d9	-0.14248599
114	0x3f1f3e9b	0.62204903
115	0x3efbcfa6	0.4918186
116	0x3d1da578	0.03848788
117	0xbb1f4be2	-0.0024306704
118	0xbd979950	-0.07402289
119	0x3dfd3e50	0.12365401
120	0xbebf116b	-0.37317976
121	0x3d7c4672	0.06159062
122	0xbce98fe5	-0.028510997
123	0xbf1bbf8a	-0.6083914
124	0x3d87acc9	0.06624753
125	0xbe688722	-0.22707799
126	0xbe930cf6	-0.28720826
127	0xbd24c9de	-0.040231578
128	0x3dd9dc6e	0.10637747
129	0xbb983a7a	-0.004645643
130	0xbdc09fa0	-0.09405446
131	0x3f062045	0.5239299
132	0xbdf0fbc5	-0.11766771
133	0x3ea7b5cc	0.32755888
134	0xbd9123c1	-0.07086898
135	0x3dc1673c	0.094435185
136	0xbdd03ffc	-0.10168454
137	0xbc9387b9	-0.018009054
138	0xbb83b064	-0.00401883
139	0xbda2ebcd	-0.07955132
140	0x3e7365fa	0.2376937
141	0xbceaabef	-0.028646437
142	0x3e2a492e	0.16629478
143	0x3e1daccf	0.15397952
144	0xbe09ee0f	-0.13469718
145	0xbf14831d	-0.58012563
146	0xbe24fdaa	-0.1611239
147	0x3da07d82	0.07836439
148	0x3f34786a	0.7049624
149	0xbed66165	-0.4187118
150	0xbe5554ef	-0.20833181
151	0x3b8df8cd	0.004332638
152	0xbe82d008	-0.2554934
153	0xbeb656da	-0.35613137
154	0xbdd721d1	-0.10504497
155	0xbd97e076	-0.074158594
156	0xbdbc444a	-0.091927126
157	0x3e00a7be	0.12563989
158	0xbdaa479f	-0.08314442
159	0x3d5dbb27	0.05413356
160	0x3e12ec24	0.14347893
161	0xbdef1443	-0.116737865
162	0x3da2a2bb	0.079411946
163	0xbcdf2414	-0.027238883
164	0x3f022704	0.50840783
165	0xbd8ce0b1	-0.06878794
166	0xbe9c4568	-0.30521703
167	0xbe060d9f	-0.13091134
168	0x3ec123ea	0.37722713
169	0x3da8cb8a	0.08241947
170	0xbed3911b	-0.41321644
171	0xbe9c8cdb	-0.30576214
172	0x3d17e5f3	0.03708453
173	0xbe375948	-0.17905152
174	0xbd7dd5eb	-0.061971586
175	0x3e4d04d6	0.20021376
176	0xbe8a4c24	-0.27011216
177	0xbd2498cc	-0.04018478
178	0xbd31762c	-0.043325588
179	0x3e76198b	0.24033181
180	0xbe1fc532	-0.15602568
181	0xbec545f6	-0.38529938
182	0xbdb80fb7	-0.08987372
183	0x3dc95904	0.098314315
184	0xbd108a5c	-0.0352882
185	0x3d98a456	0.074532196
186	0xbe05222d	-0.13001318
187	0xbeeb765c	-0.4598874
188	0x3d855b26	0.06511526
189	0xbe853038	-0.2601335
190	0xbd85a2d1	-0.065251954
191	0xbdffc4c5	-0.12488703
192	0x3d7a7068	0.061142355
193	0x3e04de23	0.12975363
194	0xb995eaba	-0.0002859438
195	0xbb8da540	-0.004322678
196	0x3c824049	0.015899794
197	0x3dbb1711	0.09135259
198	0x3dc4d8fc	0.09611699
199	0xbe89ce7b	-0.26915345
200	0xbed557c0	-0.4166851
201	0x3e709e50	0.23497891
202	0x3d9cc9af	0.076556556
203	0x3ea8af69	0.32946327
204	0xbc14b1d7	-0.009075603
205	0xbdb97a67	-0.090565495
206	0x3c929d2e	0.017897215
207	0x3e1d1cf1	0.15343072
208	0x3b0b5ffe	0.0021266933
209	0xbc94164b	-0.018077036
210	0x3cf990e0	0.03046459
211	0x3d380a3d	0.04493164
212	0xbbc92669	-0.006138612
213	0xbd14c05d	-0.036316264
214	0xbdae2cdb	-0.08504649
215	0xbcaa6b50	-0.020803124
216	0xbda3c343	-0.079962276
217	0x3e0e6dcf	0.13909076
218	0xbe049bc3	-0.12950043
219	0xbee9966b	-0.45622572
220	0x3e1e7c86	0.1547719
221	0x3abe8aab	0.0014537176
222	0xbbe9bb9d	-0.007132961
223	0x3db8d2ec	0.09024605
224	0x3d9a738c	0.0754157
225	0x3da1ff75	0.07910053
226	0xbe5fa758	-0.2184118
227	0x3dc92e5d	0.09823296
228	0xbe6e4f8f	-0.23272537
229	0xbf7d132b	-0.98857373
230	0xbe06970a	-0.13143554
231	0xbf267637	-0.6502413
232	0x3cb4d4f1	0.022074195
233	0xbdf249a5	-0.11830453
234	0x3e53edef	0.20696233
235	0xbbcc2704	-0.006230237
236	0xbd6a64a4	-0.057224885
237	0xbc054935	-0.00813513
238	0xbc4ddbff	-0.012564658
239	0x3e1230b4	0.14276391
240	0x3dbbe281	0.091740616
241	0xbc914d8c	-0.017737173
242	0xbbbb63ad	-0.0057186694
243	0xbeff73dc	-0.4989308
244	0x3e76ee21	0.24114276
245	0xbd9afeb7	-0.07568114
246	0xbbd37775	-0.0064534494
247	0x3c7f402a	0.015579263
248	0xbe603b27	-0.21897565
249	0xbe8dd884	-0.2770425
250	0xbcd39055	-0.025825659
251	0xbe6c66ad	-0.23086043
252	0x3d63c868	0.055611044
253	0xbce24439	-0.027620422
254	0xbca6c718	-0.020358607
255	0xbcd61b21	-0.026135983

last_fc.bias f4 [3]
0	0xbcf5c518	-0.030001208
1	0xbdf46522	-0.11933352
2	0x3d856588	0.06513506

last_fc_log_std.weight f4 [3, 256]
0	0x3eed93f1	0.46401933
1	0x3ec69e1e	0.3879251
2	0xbc50249b	-0.01270404
3	0xbcb2e74e	-0.02183881
4	0x3db15296	0.0865833
5	0x3dcbbae1	0.09947754
6	0x3c1b89b3	0.009493279
7	0xbbaaeb05	-0.005216005
8	0x3c7812f6	0.015141239
9	0x3e1125d7	0.14174591
10	0xb9cce703	-0.0003908203
11	0x3c22b8d6	0.009931764
12	0x3e651945	0.22372921
13	0x3defcebb	0.117093526
14	0x3c11f946	0.008909529
15	0x3e1c4317	0.15259968
16	0x3e126ecf	0.14300083
17	0x3ca9b7b5	0.020717481
18	0x3aef14d2	0.0018240458
19	0xbd111d14	-0.03542812
20	0xbca57740	-0.020198464
21	0x3cd53b49	0.026029246
22	0x3eae7fa7	0.34081766
23	0x3ec9d434	0.3941971
24	0x3daf350c	0.0855504
25	0xbc7dc9d8	-0.015490018
26	0x3cc88a90	0.024480134
27	0x3d8b8dd9	0.06814165
28	0x3e1c5377	0.15266214
29	0x3d075fdb	0.0330504
30	0x3cd80f08	0.026374355
31	0x3cd7eba8	0.026357487
32	0x3e45f5ab	0.19331996
33	0xbb4e17d3	-0.0031447306
34	0xbd1ce0d2	-0.038300343
35	0x3c6813ba	0.014164859
36	0x3cdb6bfa	0.026784886
37	0x3d40b952	0.047051735
38	0x3bcdd436	0.006281401
39	0x3e16fda9	0.14745201
40	0x3d50623e	0.05087494
41	0xbd4a45ee	-0.049383096
42	0xbe124bfc	-0.14286798
43	0x3d1a6ac0	0.03769946
44	0x3c1c431d	0.009537485
45	0xbc88f202	-0.01671696
46	0x3d5a2ed0	0.0532673
47	0x3c5271b2	0.01284449
48	0xbdbaf5e3	-0.091289304
49	0x3cb78679	0.022402989
50	0x3df2650b	0.11835679
51	0xbdbab0ba	-0.09115739
52	0x3e92f265	0.28700557
53	0xbb25b530	-0.0025284998
54	0x3d8339c4	0.06407502
55	0x3e0c3514	0.13692123
56	0xbd5eb97c	-0.05437611
57	0xbc3aaa6c	-0.011393171
58	0xbcd08474	-0.025453784
59	0x3d468807	0.04846957
60	0xbde622e2	-0.11237122
61	0x3db5fc1f	0.08885979
62	0x3dc4f16b	0.09616359
63	0x3d98ad27	0.07454901
64	0xbcfd4bf7	-0.030920012
65	0x3d3bb95a	0.045831062
66	0xbcc8b05f	-0.024498163
67	0xbc3d938b	-0.0115708215
68	0x3df9cba2	0.12197043
69	0xbcd85e33	-0.026412105
70	0xbe16f003	-0.14739995
71	0x3d38e589	0.045140777
72	0xbbea282c	-0.007145902
73	0x3d8efe4e	0.069820985
74	0x3ceac6df	0.028659282
75	0xbdbc855d	-0.092051245
76	0xbcde03d3	-0.027101433
77	0x3cc4efea	0.024040181
78	0x382f480e	4.1790357e-05
79	0xbc8c1221	-0.017098488
80	0xbd40a452	-0.047031708
81	0x3ddd812a	0.10815652
82	0x3d3e61d9	0.046480034
83	0xbcb05e05	-0.021529207
84	0x3ec0e82a	0.37677127
85	0x3e33a3d0	0.17542958
86	0x3d030430	0.031986415
87	0x3d355cd7	0.044277992
88	0x3e3cc4c1	0.1843443
89	0xbdb752ee	-0.089513645
90	0x3d2081bb	0.03918622
91	0xba971544	-0.0011526723
92	0xbe17ef9d	-0.14837499
93	0x3ddb666a	0.10712893
94	0x3d442838	0.047889918
95	0x3d1d9aa3	0.03847755
96	0x3d276db9	0.040876124
97	0x3c6c6d7a	0.014430398
98	0x3ddfe3ec	0.109321445
99	0x3de0262d	0.109447815
100	0x3abd6ca2	0.0014451931
101	0xba8570c1	-0.0010180698
102	0x3def2059	0.11676092
103	0x3d3d28f3	0.04618163
104	0x3e966fe6	0.29382247
105	0xbd002a2d	-0.031290222
106	0x3d2446da	0.04010663
107	0x3db14d50	0.08657324
108	0x3cf5cfe6	0.03000636
109	0x3ee3e8de	0.445136
110	0x3caa3e7e	0.020781752
111	0x3d3a87cc	0.045539662
112	0xbc496873	-0.012292969
113	0xbabf11f0	-0.0014577489
114	0x3e535caa	0.20640817
115	0x3e5571a7	0.20844136
116	0x3c86fd06	0.016478073
117	0xbb88a81d	-0.0041704313
118	0xbc53794b	-0.0129073365
119	0x3d33eea9	0.043928776
120	0x3e607598	0.21919858
121	0x3ccb6589	0.02482869
122	0x3c93f7e4	0.01806254
123	0x3d805bef	0.06267535
124	0x3dec524c	0.115391344
125	0x3f1added	0.6049488
126	0x3e787372	0.24262789
127	0x3cc74438	0.024324521
128	0x3d3a7244	0.04551913
129	0xbc99e96b	-0.01878806
130	0x3ce139d4	0.027493395
131	0x3e4fdcbf	0.20299052
132	0xbd9eb051	-0.077484734
133	0x3ea0b34e	0.313868
134	0x3b047052	0.002020855
135	0x3eafb1ed	0.34315434
136	0x3cb2d4bf	0.02182996
137	0x3bbae282	0.0057032714
138	0xbd2b40b0	-0.041809738
139	0x3d2bb7f6	0.041923486
140	0x3d890c0d	0.06691752
141	0xbd3b0ea8	-0.045668274
142	0x3e62956f	0.22127317
143	0x3de8276d	0.11335645
144	0x3e00f1c1	0.12592222
145	0x3cc611d9	0.024178432
146	0x3d398afc	0.04529856
147	0x3da9db8e	0.0829383
148	0x3e77b5a2	0.24190381
149	0xbbf6dd92	-0.0075337375
150	0x3d8f9b13	0.07012
151	0xbbf63f70	-0.0075148866
152	0x3a679cc8	0.0008835313
153	0x3e8f5086	0.27991122
154	0xbb1d883e	-0.0024037506
155	0xbd0235a2	-0.03178943
156	0xb912cd72	-0.0001400018
157	0xbe3f63d5	-0.18690427
158	0x3ceac50f	0.028658418
159	0x3de67c80	0.11254215
160	0x3dadd95d	0.084887244
161	0x3dbac80e	0.09120189
162	0x3c543d1c	0.012954023
163	0x3bc8fbbf	0.006133526
164	0x3ef333bf	0.47500417
165	0x3cd928d4	0.026508726
166	0x3dbc40b7	0.09192031
167	0xbc9e3b04	-0.01931525
168	0x3d8e908d	0.069611646
169	0x3e1fa69d	0.15590902
170	0xbdbb0444	-0.09131673
171	0x3c13287e	0.008981822
172	0xbc29a7e2	-0.010354968
173	0x3db2762c	0.08713946
174	0xbd82d735	-0.06388704
175	0x3e1c992b	0.15292804
176	0x3ea6744d	0.32510605
177	0xbca634ab	-0.020288786
178	0xbdb22f44	-0.087004215
179	0x3d435121	0.047684792
180	0x3dbb0f0d	0.0913373
181	0x3e0dfa43	0.13864999
182	0x3d561ada	0.0522717
183	0x3d859d6a	0.06524165
184	0xbc542244	-0.012947623
185	0x3d22303f	0.039596792
186	0xbd82b14b	-0.06381472
187	0xbdcdaddf	-0.10042929
188	0xbb352015	-0.002763753
189	0x3dac18f0	0.08403194
190	0x3d25ac19	0.04044733
191	0xbd11022d	-0.035402466
192	0x3d635b86	0.055507205
193	0x3d38760d	0.045034457
194	0x3c22f0e0	0.009945124
195	0xba80ceca	-0.0009827253
196	0x3c30c5cc	0.010789346
197	0x3e14a6fb	0.14516823
198	0x3e1e3fc0	0.15454006
199	0x3cb5e272	0.022202704
200	0x3d6c4219	0.057680223
201	0x3e48737b	0.19575302
202	0x3cb121ad	0.021622503
203	0x3da1b242	0.07895328
204	0x3e1e7d26	0.15477428
205	0xbd720ff8	-0.05909726
206	0x3d9b1516	0.07572381
207	0x3e2567e9	0.1615292
208	0x3c7f9638	0.01559978
209	0x3c7c4cf4	0.015399206
210	0x3c80f301	0.015740873
211	0x3d04fe48	0.032469064
212	0xbd01cee1	-0.031691436
213	0x3c8f2a45	0.01747621
214	0x3d225d5e	0.039639823
215	0x3d46cc92	0.048534937
216	0x3db6dc49	0.08928735
217	0x3d0eb366	0.034839056
218	0xbd68d0f9	-0.056839917
219	0x3e230a4c	0.15921897
220	0x3dcdfc64	0.10057905
221	0xbbd4452b	-0.006477972
222	0xbcce2671	-0.025164815
223	0xbe358f1b	-0.17730372
224	0x3cf655fb	0.030070296
225	0x3e31990a	0.17343536
226	0xbe192518	-0.14955556
227	0x3d998251	0.07495559
228	0x3c4a487e	0.012346385
229	0x3e845ccc	0.25852048
230	0x3d19824a	0.03747777
231	0x3e201937	0.15634619
232	0x3d59d1ee	0.05317872
233	0xbe965013	-0.29357967
234	0x3e215376	0.15754494
235	0xbd267be6	-0.040645503
236	0xbd3ab609	-0.04558376
237	0x3cf5d6b6	0.030009609
238	0x3ccbe672	0.024890158
239	0x3c10234a	0.008797476
240	0x3cad5914	0.02116064
241	0x3cc32da3	0.023825472
242	0x3b65c576	0.0035060323
243	0x3e4e49b0	0.20145297
244	0xbe5b0bfc	-0.2139129
245	0x3e52149f	0.20515679
246	0xbb889c78	-0.004169043
247	0x3bf4d2e3	0.0074714287
248	0x3e6398f6	0.22226319
249	0x3e8d9882	0.27655417
250	0xbd4f3a67	-0.050592806
251	0xbdea958d	-0.11454306
252	0x3d6f24e8	0.058384806
253	0xbcbbb938	-0.022915468
254	0x3f055d5c	0.5209558
255	0xbcf39316	-0.029733222

last_fc_log_std.bias f4 [3]
0	0xc01b13f3	-2.4230926
1	0xc00d299c	-2.2056646
2	0xc0069ffe	-2.1035151
