models/Env3/PDSRL_256_A5_S3_P/local_episode_1000_reward_200.000000.pt (torch, 297564 bytes, 8 tensors)

fc0.weight f4 [256, 23]
000000 fd 99 7e 3c ed 86 a1 bd 8f 55 9a 3c 93 43 15 bd
       0.015539643 -0.07887063 0.018839626 -0.036441397
000010 f5 d4 d2 3c d5 23 8e bd 01 d5 75 bd cb 9a 01 3c
       0.025736311 -0.06940428 -0.06001759 0.007910441
000020 0a b8 96 bd c2 1d 9c bd 9c 43 65 3a 68 28 5e bd
       -0.073593214 -0.07622863 0.00087457313 -0.054237753
000030 ae ad 6d bd 6b d2 3d bd fd 7d 3b bd dd 73 4f 3c
       -0.058026962 -0.04634325 -0.04577445 0.012661901
000040 d7 7a ad bd 33 bf ee bc 2a 7c 03 3d b9 fb 87 bd
       -0.084706955 -0.029143905 0.032100834 -0.06639809
000050 12 24 7c 3d 50 85 51 bc 22 92 1e bc a7 38 6c bd
       0.061557837 -0.012788132 -0.009678395 -0.057671215
000060 01 1e 15 3c 18 50 18 3c 46 6a 5f 3c 71 f9 6a bd
       0.009101392 0.00929644 0.013636177 -0.057366792
000070 11 5a 56 bd 20 81 20 3b e7 db 23 bd 43 ae 31 bd
       -0.052331988 0.0024491027 -0.040004637 -0.04337908
000080 6d 7c 0e bd 7a f3 61 bc 6a 20 8a bd 4d 27 8b 3a
       -0.03478663 -0.0137909595 -0.06744464 0.0010616571
000090 bf 54 bd bd ff e0 8a bd df ba 6f bc 73 c9 11 bb
       -0.0924468 -0.06781196 -0.014631956 -0.0022245317
0000a0 8a 7f 0b bd 68 1d ad bd 8b 0a 9f 3c 00 8a cf bc
       -0.034057178 -0.084528744 0.019414207 -0.025334358
0000b0 fa b7 7b 3c 85 6e dd bc a4 d7 bc 3c 0c 58 14 3c
       0.015363688 -0.027030239 0.023052044 0.009054195
0000c0 7f 42 27 3c 84 3a 87 bd d7 93 25 bd df 80 86 bd
       0.010208725 -0.06602958 -0.040424194 -0.06567549
0000d0 4d 9c dc bc 0b 2b c3 bd 16 40 6a bd 1e 2b 1c bd
       -0.026929999 -0.09529694 -0.057190023 -0.038127057
0000e0 10 ad 8d bd db 92 22 bc 6d 2c 56 bd 82 f0 47 bc
       -0.06917775 -0.009922708 -0.05228846 -0.012203338
0000f0 67 cc ce 3c 92 34 11 bc a7 96 89 bc 3b 15 64 bd
       0.025243951 -0.008862631 -0.01679547 -0.05568431
000100 6b 5f 57 bd c0 21 98 bd d4 b9 96 bc a6 9a 24 3d
       -0.052581232 -0.07428312 -0.018399157 0.040186547
000110 94 09 05 bc f4 c9 6c bc b6 04 9d 3c 55 db 88 bc
       -0.008119959 -0.014452446 0.019167285 -0.016706148
000120 9b 5d 05 3d 47 9c 60 3d d0 be 62 bd 8b 87 02 bd
       0.032559972 0.054836538 -0.055357754 -0.031867545
000130 cf c6 4c bd d9 2a e7 3c bd 75 15 3d 30 25 d0 bd
       -0.049994286 0.028218674 0.036489237 -0.10163343
000140 07 73 5e 3b 06 5f 85 3c 48 91 d8 bb ce 7b 88 bd
       0.0033943073 0.016280662 -0.0066091157 -0.06664239
000150 68 e6 1b bd 06 80 12 3a 93 8b a5 3c e6 d2 a6 bd
       -0.03806153 0.0005588535 0.020208156 -0.081456944
000160 a8 28 ed bd 06 10 c1 bd 03 b8 6f bb a3 90 d4 bd
       -0.1158002 -0.09426884 -0.0036578185 -0.1037915
000170 d5 08 a6 3e ee b0 f2 bd 39 5b 8f be 50 b7 74 3d
       0.32428613 -0.11850153 -0.27999285 0.059745133
000180 be e1 2f 3e 4c c8 df bd 1b 48 19 be e3 19 8b 3c
       0.17175958 -0.109268755 -0.14968912 0.016980117
000190 4d 65 2f 3e ce 10 c0 3d 9b 3f 40 be 7a ab c7 be
       0.17128487 0.09378205 -0.18774264 -0.38998014
0001a0 9c 1d 09 be d8 ac d1 3d ac 4e e1 3d 01 0c 30 be
       -0.13390201 0.102380455 0.110013336 -0.17192079
0001b0 af 31 c1 bd 4b 5b ea bc 2f de 18 bd b3 f4 8b 3d
       -0.094333045 -0.028607985 -0.037321266 0.06833782
0001c0 c9 2e 87 3d 3d a4 ca bc 86 66 70 3d 14 49 b4 bc
       0.066007204 -0.024736518 0.058691524 -0.022007503
0001d0 d1 2b 8e bc a9 b2 86 bb a3 55 93 bd fa a4 d9 3c
       -0.017354878 -0.0041106534 -0.07194068 0.026567925
0001e0 8a b7 81 bd 6a 3f 7f bd d3 42 12 3d be 84 98 bd
       -0.063338354 -0.062316336 0.03570826 -0.074471936
0001f0 d9 65 70 3b 61 f2 4c bc b5 20 8a 3c 9c ad ac bd
       0.00366818 -0.0125089595 0.016861299 -0.08431551
000200 ec 25 5e bd ae a7 ea 3c 9d 91 70 bd b1 5a 9d bd
       -0.054235384 0.028644409 -0.058732618 -0.07683314
000210 79 da 7d bd f2 36 d1 bb 5f f7 b9 bc 01 a5 28 bd
       -0.06197593 -0.006384724 -0.022700964 -0.041172985
000220 f8 09 b5 bb f3 23 9e bd 99 a8 74 bc 5f 37 6e bb
       -0.00552487 -0.077217005 -0.014932775 -0.0036348922
000230 cf 4e 90 3b a1 35 8d 3c c9 cc 87 bd 95 39 ba bd
       0.004403926 0.017237486 -0.066308565 -0.09093014
000240 2b 17 80 bc 00 31 23 bd e0 61 88 3d 55 6b 2b bd
       -0.015636047 -0.039841652 0.06659293 -0.041850407
000250 1e 85 7f 3c 0d 19 d3 bc f9 25 b8 bb 0c f8 2e bd
       0.015595702 -0.025768781 -0.005619761 -0.042717025
000260 ba 48 68 bb e1 83 34 3d 4c e5 84 3c 37 1c 39 bd
       -0.003544374 0.044071082 0.016222619 -0.045192923
000270 4d b7 71 bd 7e 76 d1 bc 18 bb 5b bc 64 0a ff ba
       -0.0590127 -0.025569197 -0.013411306 -0.0019458053
000280 bf 55 c1 bc c7 ce 52 3e b7 15 eb 3d 67 e7 40 be
       -0.023600457 0.20586692 0.11478751 -0.18838273
000290 73 1c 99 bc 45 88 fb 3d b2 c7 0b 3e 92 91 6c 3d
       -0.018690323 0.12281851 0.13650396 0.057756014
0002a0 fc 00 75 3d 5c 1a b2 bc 2b e2 d8 bd 63 45 f1 be
       0.059815392 -0.021741085 -0.10590013 -0.4712325
0002b0 78 43 cb be 23 d4 17 be 6a 01 8a bd fc da e1 bc
       -0.39699912 -0.14827017 -0.06738551 -0.02757024
0002c0 a2 0e 31 3e a2 31 3d bd 13 40 0c 3d 96 ef fe 3d
       0.17290738 -0.04618991 0.034240793 0.12448041
0002d0 67 4f c2 bd cb 4a e0 bb 0d 13 f3 3d 88 bb 84 3e
       -0.09487801 -0.0068448535 0.11868868 0.25924325
0002e0 fd c7 dc 3b a5 3e 0f bd e6 28 67 bc 42 01 8e 3c
       0.0067377076 -0.03497185 -0.014108872 0.017334584
0002f0 d8 3b 3e bd bd 2f 0d bd 66 b2 8e bd 12 fe 50 bd
       -0.04644379 -0.034469355 -0.069676206 -0.05102355
000300 73 1b a3 bc af bf 68 bb 0d ac 94 bd 20 ca f7 bc
       -0.01991055 -0.0035514643 -0.072593786 -0.030247748
000310 e9 8b cf bc 4e 04 1d bb df 82 20 3c 31 fa fe bc
       -0.025335269 -0.0023958865 0.009796827 -0.03112516
000320 e5 38 23 bd 3e bd ce 3c 0e 92 2b 3d c3 bb 3d bd
       -0.03984918 0.025236722 0.041887335 -0.04632164
000330 25 fa f2 3c a8 85 12 bc a4 8e 22 bc a1 5b 22 be
       0.029660294 -0.008942999 -0.0099217035 -0.15855266
000340 2c 44 d1 3b 49 3a 89 be 79 81 66 be 33 16 8c bd
       0.0063863005 -0.2680228 -0.22510327 -0.06840172
000350 5b b2 35 3e 72 ae 48 3d f8 27 08 bd d6 a3 82 bd
       0.17743818 0.04899449 -0.033241242 -0.063789055
000360 9b c9 13 3e be 9a 5d be ee f9 a2 be a7 4a cd be
       0.14432375 -0.2164106 -0.31831306 -0.40096018
000370 98 3f cf 3a e0 aa 8f 3e 3a 42 32 3e ff 8b 8b 3d
       0.0015811799 0.28060055 0.17408076 0.068138115
000380 d4 19 26 3e c0 b2 07 3c bd a1 d8 3d 83 94 c0 3e
       0.1622079 0.008282363 0.10577724 0.37613305
000390 fc 72 b4 3e 29 dc 19 bd cb fb 82 3d 9f 53 bf 3d
       0.35243976 -0.037563477 0.06395682 0.09342121
0003a0 cc 8e 42 be d8 03 a2 3d 73 95 88 bc 8d c5 56 3d
       -0.18999785 0.079108894 -0.016672825 0.052434493
0003b0 41 1b 52 3c e6 44 c1 bd 37 bd 82 be ff be 2d bd
       0.012823881 -0.094369695 -0.25534984 -0.042418476
0003c0 95 40 de bd a0 d3 04 be 6d 29 eb 3c bd df c2 3c
       -0.10852162 -0.12971354 0.028706277 0.023788327
0003d0 42 b2 71 3e 41 48 bc 3d 65 62 02 3e da 1a 17 bd
       0.23603156 0.09193469 0.12732847 -0.036890842
0003e0 02 26 8a 3b d0 30 e3 bd 4d e1 b3 be f9 f2 59 3e
       0.0042159567 -0.110932946 -0.35132828 0.21284093
0003f0 d8 61 db 3e 39 6f 21 bd 6c a1 3e be 26 ac f0 bd
       0.42848086 -0.03941271 -0.18616265 -0.11751585

fc0.bias f4 [256]
000000 c7 65 9d 3d b8 b8 83 3d 0f 92 8e 3d a5 51 7c 3d
       0.07685428 0.06431717 0.06961452 0.0616013
000010 ae 24 4e 3e 69 34 94 3d 2c 66 aa 3d 73 3c 96 3e
       0.2013118 0.07236559 0.08320269 0.29342994
000020 4d c1 aa 3d ed a2 12 3d a5 ba 46 bd f6 66 1d 3d
       0.083376504 0.03579991 -0.04851784 0.03842827
000030 07 90 af 3d 4a be ba 3d 38 53 28 be a9 c5 f1 bb
       0.08572393 0.09118326 -0.16437995 -0.0073782993
000040 21 68 c0 3d 7f 2b 96 3d 3c 17 8c 3d 98 5c 82 3e
       0.09394861 0.07332515 0.06840369 0.25461268
000050 77 b1 32 be 06 15 80 3d 31 1d 01 3e 8b ab 0f 3e
       -0.1745051 0.0625401 0.12608792 0.14030282
000060 bd eb 8c 3e 62 5e b0 3d 20 a6 e6 3e a7 a7 b1 3e
       0.27523604 0.08611752 0.45048618 0.3469822
000070 4b d6 37 be 40 6f 13 3e 7f b5 a1 3d b6 4f cc 3e
       -0.1795284 0.14397907 0.07895946 0.39904565
000080 b1 c2 b6 3d 3b 1c 2a 3e 83 7e d6 3e 70 3d 38 3e
       0.08923853 0.16612332 0.41893396 0.17992187
000090 19 57 96 3d 9d a9 9c 3e 13 a0 95 3d a9 9d 91 3d
       0.07340831 0.30598155 0.07305922 0.071101494
0000a0 9f 39 66 3e bc 15 c1 3d e4 eb 8c 3e 75 df 13 3e
       0.22482918 0.09427974 0.2752372 0.14440711
0000b0 5c 38 b0 3d ef 61 a8 3e 98 f1 ee 3d c5 94 b0 3d
       0.086045 0.32887217 0.11667174 0.086221255
0000c0 b4 69 18 3e 91 07 73 3e d4 04 61 3e 58 00 c1 3d
       0.14884073 0.23733355 0.21974498 0.09423894
0000d0 54 62 aa 3d 62 8c e8 3c 35 66 c0 3e 96 94 95 3d
       0.08319536 0.028387252 0.37577978 0.07303731
0000e0 ba e1 4e bd fa 5f a7 3e 58 e9 b6 3d d0 bf ff bd
       -0.05050824 0.32690412 0.089312255 -0.12487757
0000f0 75 ba 94 3e 64 6c 8a 3d f4 92 fe 3c c6 a8 30 bd
       0.29048505 0.06758955 0.031075932 -0.043129705
000100 bb 43 96 3e 12 41 19 3e db 15 a3 3d 27 6e 39 3e
       0.2934855 0.14966229 0.07963153 0.18108426
000110 2d 6c f9 3e 0e 9e dd bd 8b 34 64 3e cf 90 80 bd
       0.48715344 -0.10821162 0.22285669 -0.0627762
000120 15 dc b0 3e 5a 17 2d 3e e9 e4 ac 3e 3c 35 67 3d
       0.3454291 0.16903439 0.33768395 0.056447253
000130 7a 24 60 3e b4 ec 95 3d e8 55 79 3c 47 8d b3 3d
       0.21888915 0.07320538 0.015218236 0.08767181
000140 61 20 a5 3d c1 da 26 3d 1b 17 ce 3e 0a fd 8c 3d
       0.080628164 0.040735964 0.40252003 0.06884201
000150 6b fc 54 3e 0b 2e a5 3e 49 35 03 3e 09 89 10 3b
       0.20799415 0.3226169 0.12813295 0.0022054336
000160 55 cc ac 3d d8 2e a0 3d a5 6e b1 3d d1 f3 8c 3e
       0.08437411 0.07821435 0.08663682 0.27529767
000170 41 64 ac 3d f4 e5 5b 3e 6b e5 ef bb 8c 2d 01 3d
       0.084175594 0.21474439 -0.00732105 0.031537578
000180 91 e8 96 3d e5 94 6c be 70 6c 5d 3d 08 96 b0 3d
       0.07368577 -0.23103674 0.054058492 0.08622366
000190 1a 39 db bc d5 fa 54 bd 3f 89 cd 3e c2 86 17 3e
       -0.026760627 -0.051997025 0.40143773 0.147975
0001a0 9e b1 b5 3d 1e 7a 68 3d 3c b8 a2 3d dc 5a 75 3e
       0.088717684 0.056757085 0.07945296 0.23960441
0001b0 68 99 c0 3e 47 19 93 3d 6f 56 a3 bd d9 ee a2 3d
       0.3761704 0.07182556 -0.0797547 0.07955713
0001c0 c9 0f d5 3d 94 e6 9f be 84 ba 2e 3e 17 39 28 3e
       0.104034014 -0.31230605 0.17063338 0.16428028
0001d0 d5 96 1f 3e d9 3e 9c 3d fc bd a1 3d 40 ea 7e 3e
       0.15584882 0.07629175 0.07897565 0.24894047
0001e0 32 c5 a3 3e 73 24 67 be 8f cc e8 3d c3 d4 b2 3d
       0.31986386 -0.22572498 0.113671415 0.08731987
0001f0 bd 55 27 3e 96 64 98 3e ed 7f c1 3e 5c b4 6f be
       0.163413 0.2976424 0.37792912 -0.23408645
000200 ed 0b 1d 3d b3 51 f5 bd 34 db 16 3d 89 7c a3 3e
       0.03834145 -0.119784735 0.036830142 0.3193095
000210 7e e6 8b 3d 3d b2 0a 3d fc ff a2 3d ce 14 90 3d
       0.06831072 0.033861388 0.079589814 0.07035218
000220 f2 47 ac 3d af dd 7d 3d 6b d9 b0 3d 28 36 9d 3d
       0.0841216 0.061978992 0.08635219 0.07676345
000230 a6 08 41 3d 57 d9 be 3d 3c 1e b8 be 8b 66 8c 3d
       0.04712739 0.09318798 -0.35960567 0.06855496
000240 6d c2 d6 3e d6 be ae 3d 5a cc c3 3e 0b b9 a0 3d
       0.4194521 0.08532493 0.38241845 0.07847794
000250 f8 a9 8f 3d 8c fd b0 3d 93 87 8e 3d 7b da af 3d
       0.07014841 0.0864211 0.069594525 0.08586594
000260 44 4f 91 3e b0 10 d5 3d cd cc cc 3d 1b 32 46 3e
       0.28380787 0.104035735 0.1 0.19355051
000270 28 47 11 3e 06 59 94 3e 40 8a c9 bd 58 26 b7 3d
       0.141873 0.2897417 -0.09840822 0.0894286
000280 3c 90 a3 3d e0 aa 9b 3d 12 53 8c 3d 07 c5 de 3d
       0.07986495 0.07600951 0.06851782 0.10877424
000290 f0 cf a6 3e 26 3f 62 bd ae 3f b4 3d 76 d3 26 3e
       0.3258052 -0.055236004 0.088012084 0.16291603
0002a0 21 80 37 3e a0 7c 78 3d e7 da 84 3d 1a 4f ac 3d
       0.17919971 0.060665727 0.06487065 0.08413525
0002b0 4c d8 03 bd 24 34 01 be 64 ff a1 3e 44 c2 b1 3d
       -0.0321887 -0.12617546 0.3164016 0.08679631
0002c0 59 5b d6 3d 40 de b7 bd 26 81 8d 3d 5b bd a9 3d
       0.10466642 -0.08977938 0.06909399 0.0828807
0002d0 b3 6b 38 bc 0c cd ac 3d c8 e7 62 3e 1e 1f a1 bd
       -0.011256146 0.08437547 0.2215873 -0.07867263
0002e0 25 36 8e 3d bd 0f a7 3d 9b 6e a3 3e af 26 8d bc
       0.06943921 0.08157299 0.31920323 -0.01723036
0002f0 25 e9 8c bd 46 83 a0 3e cd cc cc 3d e5 86 24 bc
       -0.06880406 0.31350154 0.1 -0.010041927
000300 27 93 88 3d 7c 61 69 3d 06 25 76 3e b8 4d 9c bd
       0.06668692 0.056977734 0.24037561 -0.07632011
000310 99 ad d9 3d 56 bd b0 3e 1e a8 2c be 67 86 a4 3d
       0.10628814 0.34519452 -0.16861007 0.08033448
000320 f1 de b0 bc 08 0e ae 3d 6d 5a db 3e 20 27 0f bc
       -0.021590682 0.0849877 0.42842427 -0.0087373555
000330 bc a9 9d 3d f1 2f 74 3e 6a bf 8b 3d 6b fd 9c 3d
       0.0769839 0.23846413 0.06823619 0.07665523
000340 de 1e 20 3d ad c3 9c 3d fc 73 e8 bc e3 77 7a 3d
       0.039091937 0.0765451 -0.028375618 0.06114949
000350 56 8b 35 3e 42 3d 59 3e e8 32 ec bd 18 7d 80 3d
       0.17728934 0.21214774 -0.11533147 0.0627386
000360 14 9b 76 3d 69 21 af 3d 15 1d 3a 3d 49 c7 f8 3d
       0.060206488 0.08551294 0.04543789 0.121473856
000370 87 0e ad 3d d5 3e 89 3d 18 e7 9e 3d 52 66 56 3e
       0.084500365 0.067014374 0.077589214 0.2093747
000380 20 dc 85 3d 4e a1 8a 3d 5e 44 8a 3e 03 71 68 bd
       0.06536126 0.06769048 0.27005285 -0.0567484
000390 8c fa 9b 3d 9e a6 a7 3d 30 b0 be 3e 00 d9 8f 3d
       0.076161474 0.081860766 0.37243795 0.07023811
0003a0 cd cc cc 3d b6 6d 98 3d 19 73 64 3e d3 ce d8 3d
       0.1 0.07442801 0.22309531 0.105863236
0003b0 02 81 6f 3e bc 8a 9d 3d 28 ae b1 3d cd cc cc 3d
       0.23389056 0.07692477 0.08675796 0.1
0003c0 7b c2 91 3d 4c 84 7f 3d c4 62 9f 3d 80 ab a2 3d
       0.07117172 0.062382028 0.0778251 0.07942867
0003d0 a9 37 a4 3d 34 96 d8 3e 8e a8 04 be b8 a9 af 3d
       0.08018429 0.42302096 -0.12954924 0.08577293
0003e0 0e 4e a4 3d 20 37 d0 3d 9c fd 24 3e 6e 0c 43 bd
       0.080227 0.10166764 0.1611237 -0.047619276
0003f0 78 5e 8f 3d ff 43 8b 3d 5b f6 9a 3d c2 9c 8d 3d
       0.0700044 0.068000786 0.0756652 0.06914665

fc1.weight f4 [256, 256]
000000 09 22 0b 3c 73 2b fd bb d4 47 d9 39 5b ff 5b bd
       0.008492001 -0.007726127 0.00041442981 -0.053710323
000010 31 c2 6e bc 05 e2 12 bd 2d 08 d0 3b 3c 0c a9 3d
       -0.014572666 -0.03586008 0.006348631 0.08254287
000020 c9 ef 37 3c a5 74 d7 be 1b 6f a2 bd 7d 75 e1 3d
       0.011226603 -0.4208118 -0.07931348 0.11008737
000030 61 25 da 3a 17 8d 23 bc 30 2b 8d bd 7f 0f e7 3d
       0.001664322 -0.009982369 -0.06893003 0.112822525
000040 af 86 d9 be 05 54 63 3d 12 68 6b bc 54 f0 8e be
       -0.42485568 0.05550005 -0.014368074 -0.2791773
000050 08 03 0f bf 1c 06 06 bd e9 9c dd bd 21 26 9b bc
       -0.55864 -0.03272067 -0.10820944 -0.01893908
000060 cc 6e ce bd 5d 48 34 3d a3 4e 2f 3e 25 1f 88 3d
       -0.100797266 0.044014324 0.17119841 0.06646565
000070 e4 d3 de 3d be 66 8e be da c3 c0 3b 32 c3 94 be
       0.10880259 -0.2781276 0.0058827223 -0.29055172
000080 96 63 88 3c 01 12 a2 3d 0f 32 a2 bb f6 2f 4c 3e
       0.016649049 0.0791359 -0.004949815 0.1994017
000090 0d 64 45 3d ef 23 79 bd bf 46 9f 3c fe a6 4c bc
       0.04819112 -0.060825285 0.019442914 -0.012490986
0000a0 dc da 73 be fb d1 ff bc 1d 4b a7 3d f0 00 f4 bd
       -0.23813957 -0.031228056 0.081686236 -0.11914241
0000b0 a6 00 5f bd 67 88 e7 3e 3c 41 26 bf 83 e7 79 bd
       -0.054443978 0.45221254 -0.6494329 -0.061011802
0000c0 37 d2 80 be 58 97 85 3d 7b 95 b5 3c a2 64 fe be
       -0.2516038 0.06523007 0.022166004 -0.49686152
0000d0 d2 64 7d 3d c9 f6 03 3d 7a a1 e4 3c 72 fa 97 bc
       0.061863728 0.032217775 0.02790903 -0.018552039
0000e0 3a d3 24 be d5 84 26 be ef 45 bf ba 6f c5 6c be
       -0.16096202 -0.16261609 -0.0014592985 -0.2312219
0000f0 a1 17 20 3d d9 56 b2 3a 24 94 fc be d4 5f d7 be
       0.039085034 0.0013606205 -0.49331772 -0.420653
000100 38 a2 86 bb 7d 88 7e 3e 5c 2f 3d 3d 7a 21 fd 3c
       -0.0041086935 0.24856754 0.046187744 0.030899752
000110 42 3e f5 3d 4b cc 12 be 3b f9 0e bf 3e 3b f7 3d
       0.11974765 -0.14335744 -0.55849046 0.120718464
000120 f9 24 c6 bd 0b 2d 71 be 2c f9 ed bc 18 08 1c 3e
       -0.09675021 -0.23552339 -0.029049478 0.15237463
000130 c5 ea 91 bc 03 8c bc bc 12 b1 06 3c 1c 86 29 bd
       -0.017812142 -0.023015982 0.008220928 -0.041387662
000140 cc d5 6c bd df fc 79 be 11 4a 00 bf d2 ed 9d 3d
       -0.05782108 -0.24412869 -0.50113016 0.07711376
000150 a9 cf 8a 3e 55 65 c8 3d 61 27 bf be f9 ec 1d 3d
       0.27111557 0.097849526 -0.3733473 0.038556073
000160 10 bc 0c be 92 17 5d bd 42 c3 31 3d 0d 2d 34 be
       -0.13743615 -0.053977557 0.043399103 -0.1759531
000170 58 c5 8b bc 7e 4b fd bb c4 0e e5 be 45 49 19 bf
       -0.017061874 -0.0077299466 -0.44737828 -0.59877425
000180 e0 fb 8e 3d a4 97 27 3e a5 11 4b be db ee fc bc
       0.06981635 0.1636644 -0.1983095 -0.030875614
000190 de 97 fb 3d 91 16 6a 3d 9e 79 d8 3d 24 64 ef 3d
       0.12284826 0.057150427 0.10570072 0.11689022
0001a0 14 b8 90 3c 7d 61 12 3d f1 e2 66 bd 9c 51 d2 3d
       0.0176659 0.035737503 -0.056368772 0.10269472
0001b0 b3 97 98 be c4 cc c0 bb 8e 5c ab bd 38 9b 27 bc
       -0.29803237 -0.005883785 -0.08367263 -0.010229878
0001c0 82 f2 90 be e4 c2 75 bf 04 91 51 be 85 18 dd 3d
       -0.2831002 -0.96000504 -0.20465475 0.10795692
0001d0 8a ac 6d 3d d8 7f 2f 3d c3 fc 81 3c 6c f6 00 bf
       0.058025874 0.04284653 0.015867596 -0.5037601
0001e0 25 41 b9 3d cb 2b 9b be 1a 2e 0a be 68 c6 e4 3c
       0.090456285 -0.3030685 -0.13494149 0.027926639
0001f0 ab e2 7f be 0e 5f 33 3d 86 80 8d 3d e8 72 90 3d
       -0.2498881 0.043791823 0.069092795 0.07053167
000200 00 30 ae be ea 5e 24 bf e0 be 2f 3d ce 29 af 3d
       -0.34020996 -0.6420733 0.042906642 0.085528955
000210 8e b8 36 bd ac 24 9f bd 50 51 6d 3c 5b 5c 86 bc
       -0.0446096 -0.077706665 0.014484718 -0.01640146
000220 f0 e1 95 3b 6e b5 99 bd 69 ff c8 bc 24 60 a1 3b
       0.004574053 -0.07505308 -0.024535852 0.004924791
000230 71 40 1d bd 2a e0 0a bc b5 dc bf bc 96 92 23 3d
       -0.038391534 -0.008476296 -0.023420671 0.039934717
000240 8c 41 38 bd 35 18 34 be 6d 0e 3c be b6 b8 c6 3c
       -0.044984385 -0.17587359 -0.18364878 0.024257999
000250 2b 4b 66 bd 45 ce 33 bb 52 c6 21 3d fb 8a 85 3c
       -0.05622403 -0.0027436179 0.039495774 0.016301623
000260 34 f7 b6 3e 87 85 20 bf ae eb 37 3d dd 7e 06 bf
       0.35735476 -0.62703747 0.044902496 -0.5253733
000270 ee 9d c7 be 7a 56 08 3d 90 b8 bd bd b8 0e 32 3d
       -0.38987678 0.033285595 -0.09263718 0.04347107
000280 65 99 dd bc d4 97 a9 bc c1 08 fe 3c f8 92 d2 3d
       -0.027050683 -0.02070228 0.031010034 0.10281938
000290 14 43 69 be 6e ed 03 bd ae 67 3b 3d 43 e8 eb bd
       -0.22779495 -0.032208852 0.045753174 -0.1151891
0002a0 18 8e 92 3d ca d7 05 3d ad 8e 40 ba 20 8c aa 3c
       0.071560085 0.032676496 -0.0007345479 0.02081877
0002b0 38 b3 70 3e 66 72 27 be 41 0f 25 be 19 2c bb bc
       0.23505867 -0.16352233 -0.161191 -0.022848176
0002c0 8e 22 80 3e c3 70 b6 be b6 81 6f 3d 0d 6b 8b 3c
       0.25026363 -0.35632905 0.05847331 0.01701882
0002d0 6d 55 d9 3d b8 54 47 3c a8 d8 34 3e a0 10 d1 3c
       0.10611997 0.012166195 0.17660773 0.025520623
0002e0 52 e0 41 bc 0d 26 1c bd 2a c2 d3 be 37 11 b3 3d
       -0.011833267 -0.038122226 -0.41359073 0.08743518
0002f0 0b b8 70 3d c2 da 01 bd ae ec 75 bd 45 60 13 be
       0.058769267 -0.031702764 -0.06004017 -0.14392193
000300 45 f4 45 bd a3 72 9b bd 16 73 e4 bd 91 ae c5 3d
       -0.048328657 -0.075902246 -0.111547634 0.096524365
000310 f3 7b c0 bd f6 e3 74 be 0a ba 58 3e 2d 22 3c 3d
       -0.093986414 -0.23915085 0.21164718 0.04593103
000320 c5 f3 94 bc 9b d2 a1 3c e3 4e b6 3d 8f 7e e4 be
       -0.018182645 0.019753745 0.08901765 -0.44627807
000330 11 0d cb 3b db 77 7a be b4 87 b0 bd 59 f5 9c bd
       0.006196626 -0.24459784 -0.08619633 -0.07663984
000340 7c 4e 3e be 02 21 ed 3c be f8 2e bf 17 57 cc 3b
       -0.18584627 0.028946403 -0.683483 0.006235968
000350 52 d6 98 bd eb 6e e9 3c df ae 4c 3d 89 5d c3 bb
       -0.07462753 0.028495273 0.049971458 -0.005962078
000360 a2 d3 0f 3e c8 74 32 bc af ae 87 be 99 af 2f 3e
       0.14045575 -0.010892101 -0.2650046 0.17156829
000370 53 53 16 bc 77 f8 7f bd 42 18 f3 bb a1 5b b8 be
       -0.0091751395 -0.062492814 -0.0074186632 -0.36007407
000380 0a 86 0a 3d 79 07 8f 3c dd 3e 64 be 78 27 f0 3d
       0.033819236 0.017459618 -0.22289605 0.11726278
000390 8c 25 52 bb 54 19 0d 3c 96 a4 0d bf 3a 68 6b bd
       -0.0032065837 0.008611996 -0.55329263 -0.057472445
0003a0 c4 a9 1d 3d 07 ca 6e 3d 99 cf da bd d8 c8 b5 be
       0.03849198 0.058298137 -0.10684127 -0.35504794
0003b0 90 72 b7 be 8c e5 21 3d a8 d8 2d 3d f6 bd 5c bd
       -0.35829592 0.039525554 0.042442948 -0.0538921
0003c0 e9 78 7a bd 32 58 4f bc c9 d5 3a 3d 22 fe 60 bd
       -0.061150465 -0.012655305 0.045614038 -0.05492986
0003d0 ff 9f 74 bd f0 ef 42 be a2 3b cc be ab cc 59 3d
       -0.059722897 -0.19036841 -0.39889246 0.053173702
0003e0 7e e7 1b 3d e3 f2 a5 be 3e ef ba 3e 74 1b 39 bf
       0.038062565 -0.3241187 0.36510652 -0.72307515
0003f0 3a 7a 8a 3c 38 ad 11 3d f4 ba f7 3c 23 de 66 bc
       0.016903985 0.035565585 0.030240513 -0.014091047

fc1.bias f4 [256]
000000 0d 2e 5b 3e 14 06 8f 3e 6b 45 d5 3c 0b f9 2e 3d
       0.21404286 0.27934325 0.026034078 0.042717975
000010 32 28 eb bd ff e2 0e 3e 10 ae 57 3e 75 a5 63 bd
       -0.11482276 0.1395378 0.21062493 -0.055577714
000020 42 e0 16 3e a5 46 22 3e 4f 6b 2c 3e 2d fc fb bc
       0.14733985 0.15847261 0.1683781 -0.030759895
000030 ce a9 ad 3d fc 89 98 3d 67 70 31 3d 01 55 e9 3d
       0.08479653 0.074481934 0.043320086 0.11393166
000040 38 de e7 3d d6 16 8a 3c 9b 49 6a 3e 9f fa ce 3a
       0.11321682 0.016856592 0.22879641 0.0015791244
000050 e8 d8 fa 3d f1 b8 59 3d b0 e5 0a bc 6f df bb bd
       0.12248403 0.05315489 -0.008477613 -0.09173476
000060 69 f0 7f be 48 16 14 3d 4a 62 cb bc 88 70 b9 bc
       -0.24994053 0.03615406 -0.024827141 -0.022636667
000070 cf b5 a3 3d 65 dc 93 3b 5f 17 4b 3e 60 bc a5 3e
       0.079936616 0.004512357 0.19833134 0.3237028
000080 4d ea 2c 3d 49 b7 83 3e 22 66 4b 3d ac f9 ca 3e
       0.042215634 0.25725773 0.04965795 0.3964361
000090 75 e4 7c be 0c a1 2b be 00 0f e8 3d 19 4b c7 bd
       -0.24696524 -0.16760653 0.11330986 -0.097311206
0000a0 36 65 d6 3c 6d ff 57 3d 7d 7c cc 3d fd 59 ef 3d
       0.026171308 0.052733827 0.09984682 0.11687086
0000b0 8e d1 85 3d 69 da 5a 3d 45 b4 9a bd ec 3e a3 3c
       0.0653411 0.05343095 -0.07553915 0.019927464
0000c0 37 3c 89 3d 57 f4 83 3d 5d 2d 8a bc 4a e2 31 3d
       0.06700938 0.064430885 -0.016867334 0.043428697
0000d0 70 60 80 3e bd 46 19 3e 63 14 9a 3d 95 62 05 3e
       0.25073576 0.14968391 0.0752342 0.13025887
0000e0 09 fa 2a 3e 59 4d 80 3d 13 bb 3b 3b b5 32 a6 3e
       0.16696943 0.06264753 0.002864544 0.3246056
0000f0 de 76 5f 3d e7 ce ba bd e0 ed 8d 3e 9b 84 ca bb
       0.05455672 -0.09121495 0.27720547 -0.0061803586
000100 21 1b 82 3d b2 88 03 3e c0 3c 5e 3d 9e bb 07 3e
       0.06352831 0.12845114 0.054257154 0.13255164
000110 b2 ac 10 bd f9 c3 2b be f1 94 c9 3f fa f3 9f 3e
       -0.035320945 -0.16773976 1.5748578 0.31240827
000120 d4 08 f4 bd 1d 4f 4c 3e 87 13 3d 3d 48 fa 20 3e
       -0.11915746 0.19952054 0.0461612 0.15720475
000130 ce 9b 71 3e 60 8f 84 3f 5e 76 47 3d e7 e9 2e 3e
       0.23594591 1.0356255 0.048696868 0.17081414
000140 77 63 50 3d 51 ed 8a 3e a2 27 07 bc 55 4c 64 3d
       0.050876107 0.27134183 -0.008249195 0.05573686
000150 57 14 94 3c f8 fd 7e 3e 9e 30 1c be 50 be cf 3d
       0.018076105 0.24901569 -0.15252921 0.10143721
000160 69 cf 4c 3e 05 f6 5f 3d ce fa 92 3c 37 a0 0d 3d
       0.20000996 0.054677982 0.017941859 0.03457662
000170 bb 64 91 ba 31 94 76 3d 42 aa 1c 3e c5 4e 65 be
       -0.0011092642 0.06019992 0.15299323 -0.2239333
000180 4f 75 0c 3d da 89 7d bd a9 ba 2e bd eb 01 63 3e
       0.03429156 -0.061899044 -0.04265848 0.221687
000190 f3 e7 b7 3d d7 f9 a6 3e 25 8d c7 3e d1 f9 9d bd
       0.08979788 0.32612488 0.38974872 -0.07713664
0001a0 a0 bf 01 3e 83 bd 7a 3d 19 a0 fe 3c 4b a2 0b 3c
       0.12670755 0.06121589 0.0310822 0.00852258
0001b0 27 a4 d0 bd 75 01 de 3d fc 08 47 3e e7 e2 e8 bc
       -0.101875596 0.10840122 0.19437021 -0.028428508
0001c0 10 66 ac 3e 13 2a 45 be 3a 2d 87 3d 59 da 5b 3d
       0.33671618 -0.19254331 0.06600423 0.05367503
0001d0 65 94 23 3e cb 17 45 3e 15 7f a5 3e c1 3e bd 3d
       0.15974577 0.19247358 0.32323518 0.09240485
0001e0 f4 79 f7 3c 7c b4 7f 3e 42 67 f1 3d 5e d9 55 bd
       0.030209519 0.24971193 0.11787273 -0.05220925
0001f0 7e 23 0d bc c4 49 17 3d 31 e2 28 bd ce 50 d0 3d
       -0.008614419 0.036935583 -0.041231338 0.10171662
000200 b7 76 01 3e 9a cb 89 3d 5b d0 23 bd 5c 02 a9 3e
       0.12642942 0.06728287 -0.039993625 0.33009613
000210 c8 14 a6 3c 94 69 67 3e 55 ee 46 3e 0b 90 12 bd
       0.020273581 0.22598869 0.19426854 -0.0357819
000220 be 11 0e 3e cb 1b a5 3b 85 ee 10 3d 3f 02 9a 3d
       0.13873956 0.0050387136 0.03538372 0.0751996
000230 26 33 20 be 17 c0 31 3d 93 06 62 3e af a5 a7 3d
       -0.15644512 0.04339608 0.2207282 0.081858985
000240 df 4a 98 3b 4a 58 45 3c 6b 6b 00 3e 18 8d b1 3d
       0.004647597 0.0120449755 0.12540977 0.086694896
000250 73 ef 09 3e 84 c1 85 bc 15 93 47 3d bf 47 4c 3d
       0.13470249 -0.016327627 0.048724253 0.04987311
000260 f2 56 31 3d b7 b1 01 be 38 9c 3a 3d 8b 77 e5 3c
       0.043295808 -0.12665449 0.045559138 0.028011104
000270 c8 1f ae 3d f1 d6 7e 3a 7a ce b3 3d 4c a5 70 3d
       0.085021555 0.000972136 0.08779617 0.05875139
000280 a7 98 30 be dd 73 fa bd 3e 7a 83 3e fc 99 8f 3d
       -0.17245732 -0.122291304 0.256792 0.07011792
000290 6b 9f 9e 3d 15 1f 94 b7 77 07 b1 bd 45 43 17 3c
       0.0774525 -1.7657449e-05 -0.08644002 0.009232347
0002a0 a7 22 cb bb 7e 00 77 bc 55 5c 20 3d 42 27 c3 3d
       -0.0061991992 -0.015075801 0.039150555 0.09528972
0002b0 94 cb 5f 3d 82 a8 3a 3d 66 f6 90 3e 28 42 cf 3c
       0.054637507 0.045570858 0.28312987 0.0253001
0002c0 fe 3f ba 3c 0c 1c bb bd de 09 0e 3d 5d cb fd 3d
       0.022735592 -0.09136209 0.03467738 0.12392304
0002d0 35 04 48 3e f9 4d 11 3e 45 10 4f 3d 8a e6 96 bd
       0.19532855 0.141899 0.050552625 -0.073681906
0002e0 34 5d 00 3e c2 0a a9 3e 25 32 a7 bc 70 08 62 3d
       0.12535554 0.3301602 -0.020409653 0.055183828
0002f0 90 8a 0d 3e e6 d0 b7 3d a8 84 0d 3e df d5 9e 3c
       0.13822389 0.08975391 0.13820136 0.019389091
000300 46 77 cc 3d 98 be 95 bc 9d 76 60 bd 4e 58 57 3d
       0.09983687 -0.018279359 -0.05480062 0.05257445
000310 84 ac 31 3e 17 e5 15 3e ef a9 e4 3d b2 7b 7a 3e
       0.17350966 0.14638172 0.11165225 0.24461249
000320 07 e3 96 3d db b1 00 be 68 3c 16 3e 9c 6e a0 bc
       0.07367521 -0.12567846 0.1467148 -0.019583993
000330 c5 4d 2b 3e f6 87 08 3e eb 84 05 3d 6c 1c b3 3d
       0.16728885 0.13333115 0.032597464 0.087456554
000340 c8 8a 04 3e 72 20 da bc 3a f1 6d 3c 96 f2 f6 3d
       0.12943566 -0.0266268 0.014522845 0.12057988
000350 7f 7b dc 3d a9 1f 01 3e 65 7a 80 3b c6 de 9a be
       0.107657425 0.12609734 0.0039208406 -0.30248088
000360 eb a4 9d bc 3f c6 02 be 96 ee 56 3e 63 67 46 bb
       -0.019243678 -0.12770937 0.20989451 -0.0030274026
000370 a7 13 9b 3e f4 86 38 3d 1c 0a 47 3d 5b 12 3f 3e
       0.3028843 0.045050576 0.048593625 0.18659346
000380 4f 28 4f 3e c7 9f 78 3e 84 3e 36 bd e3 41 46 3d
       0.2023022 0.242797 -0.044493213 0.04840268
000390 7d b2 ef 3d ae ca 9b 3d 88 a6 e4 3c f5 35 db 3d
       0.11703966 0.076070175 0.02791144 0.10703651
0003a0 20 28 17 be fe c9 99 bb 9a 80 f2 3d 25 6b 62 3c
       -0.147614 -0.004693269 0.11840935 0.013819491
0003b0 69 1d f5 3e 61 f4 35 3d de ac 4b 3d c1 b7 7a 3e
       0.47874 0.04442251 0.049725406 0.24484159
0003c0 a9 01 4a bd 7c 55 84 3d 32 6a 47 3d 38 10 b9 3d
       -0.04931799 0.06461617 0.04868526 0.090362966
0003d0 75 bb 19 3d ce 6b 13 be 04 75 1a 3d 25 da 17 3d
       0.03753229 -0.14396593 0.03770925 0.037073273
0003e0 9b a3 f8 bb 33 fc c1 bd 7c 9f 87 bd 49 f3 21 3d
       -0.0075878627 -0.09471931 -0.06622216 0.039538655
0003f0 30 2e 94 3d 0c 52 7b bd b3 65 f0 3d 9d 83 07 3e
       0.07235372 -0.061357543 0.117381476 0.132338

last_fc.weight f4 [3, 256]
000000 90 e4 15 3f d7 2a 22 3f 26 0d e5 bd 78 07 a1 3c
       0.58551884 0.6334662 -0.111841485 0.019656882
000010 9b 8f c4 bd 64 b0 ba be 77 26 c2 bc 87 91 3e be
       -0.09597703 -0.364627 -0.023699982 -0.18610202
000020 ef 68 2d 3e 6f e9 03 bc 19 ef fa 3d dc 82 dd bd
       0.1693456 -0.00805126 0.122526355 -0.10815975
000030 51 13 2f bf 13 82 58 3e 1a 17 63 3c 3c 15 01 bf
       -0.6838885 0.2114337 0.013860488 -0.50423026
000040 86 8e 19 bf e2 6d 6e 3d 58 89 2a bc 3e 0a fb bd
       -0.599831 0.05821026 -0.010408722 -0.12257813
000050 f3 9e 2c be b8 b8 d2 3c 03 a0 98 3e ac ab 85 3e
       -0.1685751 0.025722846 0.2980958 0.26107538
000060 92 10 01 bf 12 cb 74 bd e0 80 8f be 40 9b 5d bd
       -0.5041591 -0.059763975 -0.2802801 -0.054103136
000070 ca 2a 25 bf e4 9f 8e be 58 b8 de 3d de e6 af 3e
       -0.64518416 -0.27856362 0.108750045 0.34355825
000080 04 06 16 3e fb 30 1a bd 2a 62 82 bc 3f ce 1e bd
       0.14650732 -0.037644368 -0.015915949 -0.03877091
000090 13 d3 1c be 54 5f 12 3e 48 08 45 3d 25 50 78 3b
       -0.15314893 0.14294177 0.0481036 0.0037889567
0000a0 3e 9a 58 bb 33 52 14 bd f5 66 1e be c1 d4 c1 bd
       -0.003305092 -0.036211204 -0.15468962 -0.09464408
0000b0 4e 4f 79 bc 21 58 bb 3c bb 9f 82 3d fe 32 b7 3e
       -0.015216662 0.022869172 0.063781224 0.3578109
0000c0 fd 34 97 bd 86 e9 4b 3e fd f1 07 bd c4 b0 cf be
       -0.073831536 0.19913301 -0.033189762 -0.4056455
0000d0 bc 12 e5 3e 6f ad ed 3d a5 72 ec bd c7 aa e4 be
       0.44740856 0.116053455 -0.11545304 -0.44661543
0000e0 70 cd 4a be a6 3f 5a be a2 6d cb bb ff 96 fe 3d
       -0.1980493 -0.21313342 -0.0062081376 0.12431144
0000f0 73 09 dc 39 f6 d5 4c be ea f1 21 3f f2 14 99 bc
       0.0004196871 -0.20003495 0.63259757 -0.018686745
000100 c7 5f 1a 3c d2 d4 18 bf 70 a1 60 3d 96 e9 62 3c
       0.009422249 -0.5969974 0.05484146 0.013849637
000110 ba 9d b2 be 39 db a4 3e d7 15 48 3d 06 e8 37 bd
       -0.3488596 0.32198504 0.048848953 -0.04489901
000120 cf 29 87 3e 34 06 3e 3e ab 77 b6 3b 79 df cd bd
       0.26399085 0.18557054 0.0055684648 -0.1005239
000130 e7 9b 17 be 79 d7 ea b8 39 54 94 3b 42 2b df bc
       -0.14805566 -0.000111981244 0.0045266417 -0.027242307
000140 d3 0f c9 be cf 30 c4 bd cb c8 13 3d 22 bc 38 3c
       -0.39269885 -0.09579622 0.036080163 0.011275323
000150 cd a4 ef 3e 5a 87 88 be 3b e3 21 bd 13 1c c0 3d
       0.4680542 -0.26665765 -0.039523344 0.09380355
000160 6c 63 9d 3d 48 49 4d 3e 01 27 13 3d f5 42 41 3c
       0.07684979 0.20047486 0.03592587 0.011795749
000170 90 a3 e2 be e6 89 6d 3c fe 28 f1 3d 6d 88 5f be
       -0.44265413 0.01449821 0.11775397 -0.21829386
000180 31 22 24 3d 08 79 9b bd 94 ef 93 be 6e cb 27 3d
       0.04007167 -0.07591444 -0.2889372 0.04096549
000190 03 d1 13 bd ae 91 a4 bd 51 2e 0e 3e 15 bd 70 be
       -0.036088 -0.08035599 0.13884856 -0.23509629
0001a0 50 d4 3e bf 1f 09 15 bd 58 b0 22 be 8b 7f 84 be
       -0.74542713 -0.03638565 -0.15887582 -0.25878558
0001b0 08 c2 a6 3e fb 49 5f be a4 f9 0d 3e 81 e9 a1 3c
       0.3256991 -0.21805565 0.13864762 0.019764664
0001c0 64 91 0e be 79 4f 47 3c 32 aa 2e 3f 34 7c 91 3e
       -0.1392265 0.012164944 0.6822845 0.28415072
0001d0 a2 98 24 3e 07 27 19 3e 79 1c 1a 3d be a1 79 3d
       0.1607385 0.14956294 0.03762481 0.060945265
0001e0 2e 44 64 be fb 96 f7 3d c7 fc 57 3c f4 28 8b be
       -0.22291633 0.12089344 0.013182825 -0.27179682
0001f0 e1 ed e1 3c c7 72 84 be 59 ed 8a be d0 9b 63 bc
       0.02757925 -0.25868818 -0.27134207 -0.013892129
000200 b2 ef 42 3e 7a 3a 98 bb 6c a5 4c bc 71 a8 37 3f
       0.19036749 -0.004645643 -0.0124906115 0.71741396
000210 45 59 7b be 1d 71 56 3f db 43 2f bd 70 80 01 3e
       -0.24545772 0.8376635 -0.04278932 0.12646651
000220 26 d3 af bd 2a 55 02 3e 64 b0 83 bb 7b 72 84 be
       -0.08585195 0.127278 -0.00401883 -0.25868592
000230 aa 65 40 3e ef ab ea bc 96 fe 5d 3e 98 cb 7e 3e
       0.18788782 -0.028646437 0.21679148 0.24882352
000240 ec 66 92 bd 1d 83 14 bf e0 9f ad be 24 a7 bf 3e
       -0.07148537 -0.58012563 -0.33911037 0.37432206
000250 56 67 f6 3e 8e 81 de be 7c dd 89 bc cd f8 8d 3b
       0.48125714 -0.43458217 -0.016829245 0.004332638
000260 08 d0 82 be e6 cd f3 be e2 d7 a0 bd 6a d8 20 bd
       -0.2554934 -0.47618026 -0.078536764 -0.03926889
000270 ec 07 67 bd a0 66 7d 3d 81 6c 9b be 7f 1e 06 3e
       -0.05640404 0.06186545 -0.3035622 0.13097571
000280 6a 64 d1 be bf 73 e0 be a3 ce 02 3d 14 24 df bc
       -0.40896922 -0.43838307 0.031935345 -0.027238883
000290 12 54 21 3f 23 5f 35 bc a0 df 5a bd 69 96 e8 3c
       0.63018906 -0.011070046 -0.05343592 0.028392034
0002a0 36 77 ad 3e 8a cb a8 3d be 8f 3f bd c5 00 9f 3d
       0.33880013 0.08241947 -0.046767943 0.07763819
0002b0 3e 1e af 3c dc 4f d9 bc 76 a7 2c bd d6 04 4d 3e
       0.021376725 -0.026527338 -0.04215189 0.20021376
0002c0 85 6b a4 bd a9 c8 d8 bd 53 13 37 3e 46 e8 e5 3d
       -0.0802832 -0.10585148 0.17878465 0.11225943
0002d0 8a 4a 2b be 21 1a 18 bf cd 38 1a 3d b4 ec de bd
       -0.16727653 -0.5941487 0.037651826 -0.10884991
0002e0 79 ee 7c 3d 02 c7 b4 3d 72 65 15 be 5c 76 eb be
       0.061750863 0.0882702 -0.1458948 -0.4598874
0002f0 b8 5a 17 3e 38 30 85 be da ec aa bd c5 c4 ff bd
       0.147807 -0.2601335 -0.08345957 -0.12488703
000300 0d 47 d8 3e b3 24 e7 bc 5d 19 3a be 40 a5 8d bb
       0.42241707 -0.028215742 -0.18173738 -0.004322678
000310 19 be 85 bd 11 17 bb 3d 8d 27 84 bd 08 e1 08 bf
       -0.06530399 0.09135259 -0.06452856 -0.5346837
000320 c0 57 d5 be 14 53 0b 3e 44 8a 0a 3e 0f fc 11 be
       -0.4166851 0.1360591 0.13529307 -0.14256309
000330 d3 78 48 bd 90 c0 65 bc 2e 9d 92 3c 7b e5 1f 3e
       -0.048943352 -0.014022961 0.017897215 0.15614884
000340 b1 02 15 3e bb 1b fe 3c 89 ec 0a 3d 6a 6d ca 3d
       0.14551808 0.031019082 0.033916984 0.0988415
000350 2e 1c ba 3c 0f 80 e2 bc 66 02 0b be cd 54 8f bc
       0.022718515 -0.027648954 -0.13575134 -0.01749649
000360 82 1d 06 3e 69 9d 57 bc 30 28 7a 3d 0c 7f 68 be
       0.13097194 -0.013160088 0.061073482 -0.22704715
000370 83 88 fd 3d 7e 01 69 bc d2 bb e9 bb ec d2 b8 3d
       0.12379553 -0.014221547 -0.0071329856 0.09024605
000380 e5 e2 a2 3e d4 d9 82 3e 1c 14 2e bd 1f 51 0b 3e
       0.31813732 0.25556815 -0.042499647 0.13605164
000390 ca e0 bb 3d 79 6e 1e bf c1 f3 9c bc 40 07 2e bf
       0.091737345 -0.6188732 -0.0191592 -0.6797981
0003a0 b4 a7 e0 bd 2a d1 1c be 0f 84 80 3d 00 28 cc bb
       -0.10969487 -0.15314165 0.06275188 -0.0062303543
0003b0 c6 b7 64 bd 98 0a 59 be 9d 67 df 3a 84 51 93 3c
       -0.055839323 -0.21195447 0.0017044429 0.017983206
0003c0 64 29 98 bb ee 7a 54 bb 03 70 d2 3c 6a bf 03 be
       -0.004643606 -0.0032421905 0.025688177 -0.12865987
0003d0 6d 0d a3 bd f4 7d 8f be 75 77 d3 bb 36 be f8 3c
       -0.07961545 -0.28025782 -0.0064534494 0.030364137
0003e0 07 46 4c be 9e 27 6a be 18 db 56 3e 8c 14 b7 3e
       -0.19948588 -0.22866675 0.20982015 0.35757864
0003f0 95 67 cc bb d5 62 82 bd 8e b9 13 3f 61 72 38 3d
       -0.006237934 -0.06366507 0.5770501 0.045030955

last_fc.bias f4 [3]
000000 29 81 b6 3d a5 9c 01 be 40 35 96 3b
       0.08911354 -0.12657411 0.0045839846

last_fc_log_std.weight f4 [3, 256]
000000 48 74 49 3e bc 98 f1 3e bc e2 95 bd 42 eb 91 bc
       0.19673264 0.4718684 -0.07318637 -0.017812375
000010 7a 4e 86 3c 2e 22 70 3c 72 a0 eb ba e9 53 39 be
       0.016394842 0.014656587 -0.0017976894 -0.18098415
000020 62 16 11 3e df 75 22 3c 4f 78 51 3c 6f 82 7c bd
       0.14168695 0.009915798 0.012785031 -0.06164783
000030 47 b4 c4 3d 9a c6 1a 3e 46 f9 11 3c 17 43 1c 3e
       0.09604698 0.15114823 0.008909529 0.15259968
000040 e3 0c eb 3e 39 e6 7a 3d c4 f1 8a 3d 4f 16 b4 3c
       0.4590827 0.061254714 0.067843944 0.021983294
000050 6f 05 9f bd 49 3b d5 3c 06 21 91 3c 65 2d 47 3e
       -0.07764708 0.026029246 0.017715942 0.1945091
000060 48 cf 80 3e d8 c9 7d bc 94 72 0d 3c 86 7b 9a 3c
       0.25158143 -0.015490018 0.008633275 0.018857729
000070 98 db 0d 3e bf 1d 1b 3d d4 03 50 3d 44 c9 2b 3e
       0.138533 0.037870165 0.0507849 0.16775995
000080 55 79 df 3e b8 27 4d bd d2 e0 1c bd 27 e7 22 3b
       0.43647256 -0.050086707 -0.038300343 0.0024857016
000090 a2 f3 c4 3c 38 41 8f bd 51 83 dc 3c d6 b0 02 3e
       0.024041954 -0.06994861 0.026918085 0.1276277
0000a0 3e 62 50 3d ee 45 4a bd 48 14 90 bd c7 ff 42 be
       0.05087494 -0.049383096 -0.07035118 -0.19042884
0000b0 5f fb cc 3c b3 7a ac 3d 94 6e f4 3c 73 b1 b3 3d
       0.025022207 0.084218405 0.029837884 0.0877408
0000c0 1a ff 11 be d0 5e 21 3e d9 bb d7 3d ba b0 ba bd
       -0.1425747 0.15758824 0.10533876 -0.09115739
0000d0 b0 22 b6 3e 69 0f 0a bd f3 5f 07 bb 26 6e 13 3e
       0.3557334 -0.033706103 -0.0020656555 0.14397487
0000e0 53 d6 11 bd f1 f0 21 be 93 06 0d 3d 30 01 3b 3a
       -0.035604786 -0.15814568 0.034430098 0.0007133661
0000f0 1b 28 4f bb 62 f0 c6 bd db 65 83 3e c5 51 6a 3c
       -0.0031609598 -0.09713818 0.25663647 0.014301722
000100 f7 4b fd bc 61 f4 30 bd 69 71 91 3d 63 a4 2f bd
       -0.030920012 -0.043201808 0.071017094 -0.04288138
000110 a2 cb f9 3d ac 5a e0 3e 72 00 c2 be d4 be 6d bd
       0.12197043 0.43819177 -0.37890965 -0.058043316
000120 d5 05 aa 3d 6a c0 c3 bc 81 0b 54 3c 21 48 0f 3d
       0.083018936 -0.023895461 0.012942196 0.034980897
000130 ee fe fe bd 21 3a b7 bd 0e 48 2f 38 55 33 91 bd
       -0.12450968 -0.08946634 4.1790357e-05 -0.07089869
000140 52 a4 40 bd 0c 88 42 bc d9 61 3e 3d 05 5e b0 bc
       -0.047031708 -0.011873256 0.046480034 -0.021529207
000150 27 ad 84 3e 01 34 b3 bc 48 32 34 bd da 9a 3f bc
       0.25913355 -0.021875383 -0.043993264 -0.011694634
000160 48 c6 e0 3b 60 74 ed 3d bb 81 20 3d 44 15 97 ba
       0.0068595745 0.115944624 0.03918622 -0.0011526723
000170 77 29 95 3d 6a 66 db 3d 8a 07 cb 3c a3 9a 1d 3d
       0.072832994 0.10712893 0.024783868 0.03847755
000180 30 71 06 3d 51 2f e1 bd ec e3 df 3d a7 3a 04 3e
       0.032822788 -0.10995353 0.109321445 0.12912999
000190 fa cc 26 bc 82 2b 84 bc b6 65 51 3e cf e4 80 3d
       -0.010180706 -0.016134027 0.20448956 0.06293642
0001a0 1d ea b9 3e 2d 2a 00 bd 15 14 41 3d 1d 36 30 bd
       0.36311427 -0.031290222 0.047138292 -0.043020356
0001b0 42 94 42 3e 25 a2 c0 3d 77 14 72 3a ec e0 78 3d
       0.19001868 0.094059266 0.0009234617 0.060761377
0001c0 c8 42 f5 bd d6 d8 28 3c 89 0c aa 3e e7 ac b1 3e
       -0.11975628 0.010305604 0.3321269 0.34702227
0001d0 66 9a bd 3d 8d bc 03 3e 87 56 ad bc 14 45 8a 3d
       0.09257965 0.12864895 -0.021159424 0.06751457
0001e0 2a 5f a5 3d 95 f2 25 3d 04 31 57 3c 25 da 3b 3e
       0.08074792 0.040514547 0.013134245 0.18344934
0001f0 da 7b 27 3d 0d 91 1c 3e 3f 3e 68 3e 6d 54 85 bd
       0.0408896 0.15289707 0.22679995 -0.065102436
000200 a2 5f 0c 3e 6b e9 99 bc 31 57 1a 3a 11 a3 bd 3e
       0.13708356 -0.01878806 0.00058876263 0.37038472
000210 79 9d f9 bd 75 28 c2 3e cc d4 9e bc 46 f7 ba bd
       -0.12188239 0.3792149 -0.019388579 -0.09129195
000220 af c6 c9 3b 00 9f 0c bc b0 40 2b bd 54 6e 90 3e
       0.006157718 -0.00858283 -0.041809738 0.28209174
000230 33 f4 fc 3d a8 0e 3b bd 79 92 1b 3e a6 ff b7 3d
       0.12351265 -0.045668274 0.15192594 0.08984308
000240 8f a9 3b 3b d9 11 c6 3c 3c b4 e1 bd 6c 1c 33 3e
       0.0028635 0.024178432 -0.11020705 0.17491311
000250 e3 a1 8e 3e e9 d0 bd bc 87 90 a6 bc 70 3f f6 bb
       0.27857885 -0.023170905 -0.020332588 -0.0075148866
000260 c8 9c 67 3a 70 85 10 3e fa c9 95 b9 68 b1 38 bc
       0.0008835313 0.14113402 -0.0002856998 -0.011272766
000270 8d d7 69 bd dc a5 f6 3d 2c 4f da bc 08 89 ee 3d
       -0.05709033 0.12043354 -0.02664908 0.116472304
000280 1a e9 07 3e cd d8 ca 3d df 7e 64 3e bf fb c8 3b
       0.13272515 0.09904633 0.22314022 0.006133526
000290 25 e2 30 3f cd d6 b1 3d d3 e0 14 3d 62 02 e2 bc
       0.6909507 0.08683548 0.03634722 -0.027589027
0002a0 ce 8a a4 3d 9d a6 1f 3e 5e da 18 3d 30 6e c8 bb
       0.080342874 0.15590902 0.037317626 -0.006116651
0002b0 34 5a 75 3b ac 08 8e 3d 9b cd dd bd 2b 99 1c 3e
       0.0037437798 0.06935248 -0.10830232 0.15292804
0002c0 f0 1a 0d be 7d ed 01 3d 09 9a 14 3e 4f 16 f8 bc
       -0.13779807 0.031720627 0.14511885 -0.030284075
0002d0 15 6e 73 3e 10 bd 9d 3e e2 37 eb bc 20 52 08 3c
       0.23772462 0.30808306 -0.02871317 0.008320361
0002e0 7e bc f1 3c ee 34 a3 3c 25 67 44 bd df ad cd bd
       0.029508825 0.0199227 -0.04794993 -0.10042929
0002f0 ac ac fb 3c f0 18 ac 3d 50 17 81 3c 2d 02 11 bd
       0.030721985 0.08403194 0.015758187 -0.035402466
000300 27 e3 91 3e d9 3f f5 bc da 91 b1 bd ca ce 80 ba
       0.28493616 -0.029937671 -0.08670397 -0.0009827253
000310 2a 27 9a bd fb a6 14 3e 2c 60 80 3e c1 78 ac bc
       -0.07527001 0.14516823 0.25073373 -0.021053674
000320 19 42 6c 3d 42 9a ea 3d f3 fb 84 bc 86 7f c9 3d
       0.057680223 0.114552036 -0.01623342 0.09838776
000330 ed 38 d9 3c 57 9d 06 bc 16 15 9b 3d 61 10 e4 3d
       0.026516402 -0.008216224 0.07572381 0.111359365
000340 b1 e4 8e 3c 22 02 14 bc a1 a6 a1 3d d3 c8 e7 3c
       0.017443033 -0.009033712 0.0789311 0.028294003
000350 b2 a0 53 3d b3 25 55 bc 8e 43 b4 3c 9a 09 2a 3d
       0.051666923 -0.0130094765 0.022004869 0.041513063
000360 b0 2a 0a 3d fb ae 4d bd 55 81 b1 3d 4b 4b 00 3d
       0.033732116 -0.050215703 0.08667246 0.031321805
000370 c2 a7 94 3d 3c 32 18 3c 67 26 ce bc 1b 8f 35 be
       0.0725856 0.009289321 -0.025164796 -0.17730372
000380 5a 70 db bd c4 57 a3 3d 34 02 f9 3c d4 7f bc 3c
       -0.10714789 0.07975724 0.030396558 0.023010172
000390 5a 98 41 3e 45 a6 37 bd 61 e8 58 3d 32 7a 18 3e
       0.18905774 -0.0448363 0.05295599 0.14890364
0003a0 3a fa 11 3d d5 5c 78 3d 54 cf 3e bd 80 ca 26 bd
       0.035639025 0.060635407 -0.046584442 -0.040720463
0003b0 07 f2 a2 bd 60 e8 af bc 01 05 3f 3c 83 18 b0 3d
       -0.07956319 -0.02147311 0.011658908 0.08598425
0003c0 04 45 b7 bd fa 1a 4c 3c b0 d7 63 3b 8a 8b a2 be
       -0.089487106 0.012457604 0.003476601 -0.31747085
0003d0 fb b8 13 3d a2 15 c1 3d 78 9c 88 bb b5 69 5f 3c
       0.036065083 0.09427954 -0.004169043 0.013636042
0003e0 cc 9f 65 bc da 47 b9 3d 7d 8b cb 3d 87 74 b4 3e
       -0.014015149 0.09046908 0.09938715 0.35245153
0003f0 99 72 ea bc bc 24 79 bd 9e 5f f5 3e 78 9d 07 bc
       -0.028619098 -0.06082605 0.47924513 -0.00827729

last_fc_log_std.bias f4 [3]
000000 29 fe e7 bf 65 2c e3 bf 54 6d d9 bf
       -1.8124439 -1.7747923 -1.6986489
