models/Env3/PDSRL_256_A5_S3_P/local_episode_2200_reward_200.000000.pt (torch, 297564 bytes, 8 tensors)

fc0.weight f4 [256, 23]
00000000: fd99 7e3c ed86 a1bd 8f55 9a3c 9343 15bd
00000010: f5d4 d23c d523 8ebd 01d5 75bd cb9a 013c
00000020: 0ab8 96bd c21d 9cbd 9c43 653a 6828 5ebd
00000030: aead 6dbd 6bd2 3dbd fd7d 3bbd dd73 4f3c
00000040: d77a adbd 33bf eebc 2a7c 033d b9fb 87bd
00000050: 1224 7c3d 5085 51bc 2292 1ebc a738 6cbd
00000060: 011e 153c 1850 183c 466a 5f3c 71f9 6abd
00000070: 115a 56bd 2081 203b e7db 23bd 43ae 31bd
00000080: 6d7c 0ebd 7af3 61bc 6a20 8abd 4d27 8b3a
00000090: bf54 bdbd ffe0 8abd dfba 6fbc 73c9 11bb
000000a0: 8a7f 0bbd 681d adbd 8b0a 9f3c 008a cfbc
000000b0: fab7 7b3c 856e ddbc a4d7 bc3c 0c58 143c
000000c0: 7f42 273c 843a 87bd d793 25bd df80 86bd
000000d0: 4d9c dcbc 0b2b c3bd 1640 6abd 1e2b 1cbd
000000e0: 10ad 8dbd db92 22bc 6d2c 56bd 82f0 47bc
000000f0: 67cc ce3c 9234 11bc a796 89bc 3b15 64bd
00000100: 6b5f 57bd c021 98bd d4b9 96bc a69a 243d
00000110: 9409 05bc f7f2 a8bc 51aa 543c 6075 bbbc
00000120: 151e d73c 65e3 463d de66 84bd 7519 1dbd
00000130: 383d 66bd 2699 b03c 9226 f63c 08fb dfbd
00000140: 17c1 90bb 340c 0e3c b4fc 62bc 34cd 96bd
00000150: dbc4 37bd 3fbb c9bb 2b81 5e3c fc39 b4bd
00000160: d4a6 fabd f198 b4bd d40f 23bc ca40 e1bd
00000170: 7c70 df3e 9da0 373d 4ab2 13be 9410 0b3e
00000180: 49b0 083e baf8 15be 9e34 dfbe 09f3 05be
00000190: b97b 433e 0708 983e a98b 50be 4748 bbbe
000001a0: 7de4 8dbd 57be e1bc bcac d93d c0e5 42be
000001b0: fdf7 08bd 8d05 ae3d 9389 fd3d 42cb d7bc
000001c0: 73d7 b2bc 9f65 43be bd3d 39bc 1449 b4bc
000001d0: d12b 8ebc a9b2 86bb a355 93bd faa4 d93c
000001e0: 8ab7 81bd 6a3f 7fbd d342 123d be84 98bd
000001f0: d965 703b 61f2 4cbc b520 8a3c 9cad acbd
00000200: ec25 5ebd aea7 ea3c 9d91 70bd b15a 9dbd
00000210: 79da 7dbd f236 d1bb 5ff7 b9bc 01a5 28bd
00000220: f809 b5bb f323 9ebd 99a8 74bc 5f37 6ebb
00000230: cf4e 903b a135 8d3c c9cc 87bd 9539 babd
00000240: 2b17 80bc 0031 23bd e061 883d 556b 2bbd
00000250: 1e85 7f3c 0d19 d3bc f925 b8bb 0cf8 2ebd
00000260: ba48 68bb e183 343d 4ce5 843c 371c 39bd
00000270: 4db7 71bd 7e76 d1bc 18bb 5bbc 640a ffba
00000280: bf55 c1bc c2af 363e 251a 613d 143c 133d
00000290: dbb2 6d3c fe8c 683e 2444 af3d 9a96 4bbc
000002a0: c251 c83d 98c9 b73d b3e9 83be 65cd 47bf
000002b0: 35da efbe 7b11 d2bd f929 a6bc 3ded 74bd
000002c0: 05c9 ed3d 892b 28bd 1621 053e 89a0 f53d
000002d0: 597f f03c ef67 88be 6a64 043e 9549 663e
000002e0: 21bd 2d3e dc6c a4bd 58a8 7abe fd59 093d
000002f0: d212 4abe b8b7 abbd ce21 ddbd 27b1 85bd
00000300: 5cd8 adbd 4436 b4bd 6e60 b7bd daa6 ddbd
00000310: 0b71 4dbd 8439 0b3d aefd 673e 6f90 743d
00000320: 6500 0d3e b48e 7b3e ebff 113e d1bd fabd
00000330: 4f83 ad3d 3300 d3bc 35fd de3c e213 4dbe
00000340: 7fab 243c 7f61 61be 7164 c1bd 8ec6 2f3d
00000350: 2c1b ca3d d00f 273d 8620 e33b 349d 1abc
00000360: 6ef3 013e bde0 e8bc 8b20 dcbe 8902 14bf
00000370: bcc7 d93d ab75 dd3e 29ec 363e 5f8f 9c3d
00000380: ecf5 163e 71b8 ebbb e102 5f3e bb16 8cbe
00000390: c496 483e 82d6 a9be 89b3 463d 6f91 f7bb
000003a0: 4dcf b03c 5358 553e 097c 93be 5049 453c
000003b0: 8897 44bd 027e 6cbe c49b 99be 2ed1 46bd
000003c0: 218e 9bbd b082 c5bc 792c 2d3e fc3e 493e
000003d0: 4cc4 913e dce4 f23d 4b01 c5bc c70c 42be
000003e0: 069c 00be 45ab 8e3c 6099 83bf ac89 223e
000003f0: 720b ad3e 4704 c83c 64cd c7bd a4e9 b2bc
0.015539643 -0.07887063 0.018839626 -0.036441397 0.025736311 -0.06940428 -0.06001759 0.007910441
-0.073593214 -0.07622863 0.00087457313 -0.054237753 -0.058026962 -0.04634325 -0.04577445 0.012661901
-0.084706955 -0.029143905 0.032100834 -0.06639809 0.061557837 -0.012788132 -0.009678395 -0.057671215
0.009101392 0.00929644 0.013636177 -0.057366792 -0.052331988 0.0024491027 -0.040004637 -0.04337908
-0.03478663 -0.0137909595 -0.06744464 0.0010616571 -0.0924468 -0.06781196 -0.014631956 -0.0022245317
-0.034057178 -0.084528744 0.019414207 -0.025334358 0.015363688 -0.027030239 0.023052044 0.009054195
0.010208725 -0.06602958 -0.040424194 -0.06567549 -0.026929999 -0.09529694 -0.057190023 -0.038127057
-0.06917775 -0.009922708 -0.05228846 -0.012203338 0.025243951 -0.008862631 -0.01679547 -0.05568431
-0.052581232 -0.07428312 -0.018399157 0.040186547 -0.008119959 -0.020623667 0.01298006 -0.022883117
0.026259461 0.048556704 -0.06464933 -0.038354356 -0.056210726 0.021557402 0.030047689 -0.10936552
-0.0044175494 0.008669902 -0.013854194 -0.07363358 -0.04486547 -0.0061563547 0.013580601 -0.08800122
-0.12238851 -0.08818234 -0.009952504 -0.10998686 0.43640506 0.044830907 -0.1442348 0.13580543
0.13348497 -0.14645663 -0.4359483 -0.13080992 0.19090165 0.29693624 -0.20365776 -0.3657858
-0.06928346 -0.027556581 0.106286496 -0.19032955 -0.033439625 0.084971525 0.12379756 -0.026342038
-0.02183125 -0.19081734 -0.011306223 -0.022007503 -0.017354878 -0.0041106534 -0.07194068 0.026567925
-0.063338354 -0.062316336 0.03570826 -0.074471936 0.00366818 -0.0125089595 0.016861299 -0.08431551
-0.054235384 0.028644409 -0.058732618 -0.07683314 -0.06197593 -0.006384724 -0.022700964 -0.041172985
-0.00552487 -0.077217005 -0.014932775 -0.0036348922 0.004403926 0.017237486 -0.066308565 -0.09093014
-0.015636047 -0.039841652 0.06659293 -0.041850407 0.015595702 -0.025768781 -0.005619761 -0.042717025
-0.003544374 0.044071082 0.016222619 -0.045192923 -0.0590127 -0.025569197 -0.013411306 -0.0019458053
-0.023600457 0.17840484 0.054956574 0.035945967 0.0145079745 0.22710034 0.08557919 -0.012426043
0.09781219 0.08973998 -0.25764236 -0.7804778 -0.46846166 -0.102572404 -0.020283686 -0.05979656
0.11610607 -0.041057143 0.13000903 0.1199351 0.0293576 -0.26641795 0.1292893 0.22489007
0.16966678 -0.08028576 -0.2447828 0.033533085 -0.19733742 -0.08384651 -0.10797463 -0.0652793
-0.08488533 -0.08799413 -0.089539394 -0.1082284 -0.050156634 0.033990398 0.22655365 0.059708055
0.13769682 0.24566156 0.14257781 -0.12243236 0.08472311 -0.025756931 0.027220348 -0.20027116
0.0100506535 -0.22009848 -0.09442986 0.042913966 0.09868464 0.040786564 0.0069313673 -0.009436894
0.12690517 -0.028427476 -0.42993578 -0.5781637 0.106337994 0.43253836 0.17863525 0.07644533
0.14742249 -0.007193618 0.21778442 -0.27361092 0.19588763 -0.3317147 0.04851106 -0.007555179
0.021583224 0.20834474 -0.2880557 0.012041405 -0.047996074 -0.23094943 -0.30001652 -0.048539333
-0.07595468 -0.024110168 0.16911496 0.19652933 0.28470075 0.11860058 -0.024048468 -0.18950187
-0.12559518 0.017415652 -1.0281181 0.1587283 0.33797795 0.024416102 -0.09755972 -0.021839924

fc0.bias f4 [256]
00000000: c765 9d3d b8b8 833d 0f92 8e3d 96b5 613d
00000010: 5910 a73e 6934 943d 2c66 aa3d ff93 a13e
00000020: a2c1 8e3e ca66 413d 406e 1dbe a2d5 1f3e
00000030: 0790 af3d 4abe ba3d f78b 16bd bcb2 7f3e
00000040: f73d 1fbe 7f2b 963d 3c17 8c3d a673 bc3e
00000050: 8413 b1be 0615 803d 46f8 753d f0d5 38bd
00000060: 0158 ec3e 625e b03d 4011 2f3f dd92 be3e
00000070: 78ac 0ebf ca6a dc3d 7fb5 a13d 10c4 c73e
00000080: b1c2 b63d 7459 8e3e 5039 0a3f 90be db3e
00000090: 1957 963d 32fa 0d3f 13a0 953d a99d 913d
000000a0: 1b91 893e a9ff 243e aebb c73e 8c31 3c3d
000000b0: 1510 a33d ed65 1c3f c0e0 1c3e c594 b03d
000000c0: a571 833e 7c12 3c3e aade a23c 7a7d 393e
000000d0: 5462 aa3d 28de bb3a 3a81 193f 9694 953d
000000e0: 27f9 acbd 6629 a63e 58e9 b63d f4ba 47be
000000f0: 847e 773e 646c 8a3d 32c5 b4bd 0bc5 f0bb
00000100: 3898 de3e bcff 0e3e db15 a33d 079f d33e
00000110: 594f 193f e1e2 3fbe 771c 893e 5df4 29be
00000120: ff3f 8e3e ca0a 8f3e d79d 003f 98fd 403c
00000130: 7514 fd3e b4ec 953d e855 793c 478d b33d
00000140: 6120 a53d 51da 093e 2a1e 473f 0afd 8c3d
00000150: 20a6 983e 8781 003f 4e83 bb3d a980 24bc
00000160: 5c45 373e d82e a03d a56e b13d 325b d93e
00000170: 4164 ac3d 2a7e 963e 5f1d 2a3e ca3d eabd
00000180: 91e8 963d 4ebe d7be 97fe 64bc 0896 b03d
00000190: 57a7 9dbe ef39 ccbe a215 b53e 5f77 26be
000001a0: 9eb1 b53d daf3 f73d 5838 823d 5ad1 c73e
000001b0: ae97 e83e 4719 933d c37d 9dbd d9ee a23d
000001c0: 3451 ae3d 61b7 cebe 3dcd 553e 04e5 c3ba
000001d0: 3440 3a3e d93e 9c3d fcbd a13d bcd9 6a3e
000001e0: 5d4d eb3e 9d37 36be 8fcc e83d c3d4 b23d
000001f0: 3811 573e 9f5a d23d e114 e83e 86f9 febe
00000200: 4527 823d 77ad a4be 838f 23bd b208 083f
00000210: 7ee6 8b3d 3db2 0a3d 2e9d 423e ce14 903d
00000220: f247 ac3d afdd 7d3d 6bd9 b03d 2836 9d3d
00000230: 66ae eb3d 5271 e73d 1875 20bf 8b66 8c3d
00000240: 9ff7 033f 6aae bd3d 7ce6 f33e 0bb9 a03d
00000250: f8a9 8f3d 8cfd b03d 9387 8e3d 685d 8f3d
00000260: d2a9 0b3f e069 b63c 628c ac3d 8610 ca3e
00000270: 07d2 e53d 912d e23e 408a c9bd 27d9 a63d
00000280: 5515 383e e0aa 9b3d 1253 8c3d 36e1 053d
00000290: e756 fe3e b40e b8bd ae3f b43d 008b b93e
000002a0: 4799 843e a07c 783d e7da 843d 1a4f ac3d
000002b0: 7de8 80be bd94 83be 33ac 1c3f 44c2 b13d
000002c0: 595b d63d 5db0 94be 2681 8d3d 5bbd a93d
000002d0: 7a86 73bd 0ccd ac3d 3e45 613e 57ea e1bd
000002e0: 2536 8e3d bd0f a73d ca3e c33e f49e 07bd
000002f0: b9a9 0abe 09c3 8b3e 9d54 5a3e 8cd4 84be
00000300: 2793 883d 7c61 693d 583c 9f3e 050a 79bd
00000310: 6f99 a93e 0e65 d63e ef78 8abe 1ba8 943e
00000320: f1de b0bc 080e ae3d 2ca6 f03e 79c6 083d
00000330: bca9 9d3d 2a52 643e 0953 573d 6bfd 9c3d
00000340: 11fb 0abe adc3 9c3d 68e9 dcbd e377 7a3d
00000350: 9ae5 d93d d02b b43e e78d 02be 187d 803d
00000360: 1896 38bc 6921 af3d 7e9c e5bd 6fcb 813e
00000370: 870e ad3d d53e 893d 46d9 003e 6a14 a73e
00000380: 64ac 0c3e 4ea1 8a3d 5867 073f a954 183b
00000390: cd02 773d 9ea6 a73d f919 083f 00d9 8f3d
000003a0: cdcc cc3d b66d 983d 1916 703d 732c 633e
000003b0: b9a2 693e bc8a 9d3d 28ae b13d cdcc cc3d
000003c0: 7bc2 913d 4c84 7f3d c462 9f3d 80ab a23d
000003d0: 39b7 833d 7408 563f 2b30 48be 837b 253e
000003e0: 0e4e a43d b13d 373e 33cb 8b3e b075 e5bd
000003f0: 785e 8f3d ff43 8b3d 5bf6 9a3d c29c 8d3d
0.07685428 0.06431717 0.06961452 0.055104814 0.3262966 0.07236559 0.08320269 0.31558225
0.27882105 0.047217168 -0.15374088 0.15608838 0.08572393 0.09118326 -0.036754575 0.24970526
-0.15550981 0.07332515 0.06840369 0.36806983 -0.34585202 0.0625401 0.060051225 -0.0451259
0.46160892 0.08611752 0.68385696 0.37221423 -0.55731916 0.10762556 0.07895946 0.3901677
0.08923853 0.27802622 0.539937 0.42918825 0.07340831 0.5545989 0.07305922 0.071101494
0.2686852 0.16113152 0.39010376 0.04594569 0.07962052 0.61093026 0.1532011 0.086221255
0.2567264 0.18366426 0.019881565 0.18114272 0.08319536 0.0014333175 0.5996281 0.07303731
-0.084459595 0.3245346 0.089312255 -0.1950491 0.24169356 0.06758955 -0.088266745 -0.007347708
0.4347551 0.13964742 0.07963153 0.41332266 0.598867 -0.18738891 0.2677953 -0.16597123
0.277832 0.2793792 0.50240844 0.011779211 0.4942967 0.07320538 0.015218236 0.08767181
0.080628164 0.13462187 0.777804 0.06884201 0.29814243 0.50197643 0.09155904 -0.010040441
0.17897552 0.07821435 0.08663682 0.4245239 0.084175594 0.2939313 0.16612767 -0.114375666
0.07368577 -0.42137378 -0.013976715 0.08622366 -0.30791733 -0.3988795 0.35368067 -0.16256474
0.088717684 0.12107058 0.06358403 0.3902691 0.45428222 0.07182556 -0.07690003 0.07955713
0.08511582 -0.40374282 0.20879073 -0.0014945571 0.18188554 0.07629175 0.07897565 0.22934622
0.4595746 -0.17794652 0.113671415 0.08731987 0.21002662 0.10271191 0.4532843 -0.49799746
0.06355146 -0.32163593 -0.039931785 0.5313827 0.06831072 0.033861388 0.19005272 0.07035218
0.0841216 0.061978992 0.08635219 0.07676345 0.11507873 0.11300911 -0.6267867 0.06855496
0.51549715 0.092617825 0.47636783 0.07847794 0.07014841 0.0864211 0.069594525 0.07000238
0.54556 0.022267282 0.084252134 0.3946573 0.112217 0.4417539 -0.09840822 0.08146887
0.17976888 0.07600951 0.06851782 0.03268548 0.49675676 -0.089871794 0.088012084 0.3623886
0.2589819 0.060665727 0.06487065 0.08413525 -0.25177374 -0.25699416 0.61200255 0.08679631
0.10466642 -0.29040805 0.06909399 0.0828807 -0.05945442 0.08437547 0.2199907 -0.11031025
0.06943921 0.08157299 0.38133842 -0.033110574 -0.13541307 0.27297238 0.2132134 -0.2594341
0.06668692 0.056977734 0.31100726 -0.06080057 0.33124873 0.41873974 -0.2704539 0.29034504
-0.021590682 0.0849877 0.4700178 0.033392403 0.0769839 0.22296968 0.052569423 0.07665523
-0.13572337 0.0765451 -0.10786706 0.06114949 0.10639496 0.35189676 -0.12749444 0.0627386
-0.011266254 0.08551294 -0.11211489 0.2535052 0.084500365 0.067014374 0.12582883 0.32632762
0.13737637 0.06769048 0.52892065 0.002324382 0.060305405 0.081860766 0.5316463 0.07023811
0.1 0.07442801 0.058614824 0.22184925 0.2281598 0.07692477 0.08675796 0.1
0.07117172 0.062382028 0.0778251 0.07942867 0.06431431 0.8360665 -0.19549625 0.16160397
0.080227 0.17894627 0.27303466 -0.11204088 0.0700044 0.068000786 0.0756652 0.06914665

fc1.weight f4 [256, 256]
00000000: 0922 0b3c 732b fdbb d447 d939 5bff 5bbd
00000010: 61f5 6abd 05e2 12bd 2d08 d03b 20c1 463e
00000020: f726 d13c 38e7 e6be bcaf 91be cbb0 e73d
00000030: 6125 da3a 178d 23bc 4f1d c3be e382 d83b
00000040: 0c57 efbe 0554 633d 1268 6bbc 49af 09bf
00000050: d243 2bbf 1c06 06bd 803e d8be 56af efbd
00000060: c54b 94bd 5d48 343d ac03 ab3d 5003 573d
00000070: ceb3 a93c a1e7 b7bd dac3 c03b dcd8 98be
00000080: 9663 883c 4f2a 513e a2a0 c4bd 3209 8e3a
00000090: 0d64 453d b586 ce3d bf46 9f3c fea6 4cbc
000000a0: fe7c 54be 195b 0b3b abbd 09be fae3 56be
000000b0: a600 5fbd 0292 103e 03ec 12bf 83e7 79bd
000000c0: 770a e0bd 5d8a 1dbe cf50 a7bd bf7b 08bf
000000d0: d264 7d3d d9f0 d13d c73d 81be 72fa 97bc
000000e0: 8bc3 75be 60ce 263d ef45 bfba d443 aebe
000000f0: da3e b03c d956 b23a 7576 3fbf 48b4 edbe
00000100: edb4 03bd 8619 a0bd 5c2f 3d3d d9a7 0bbd
00000110: e008 6abe 0189 18be ece2 dbbe 4fff 323e
00000120: ba59 f0bd 8127 b1be 537a ecbc 6872 423e
00000130: 9fbc d43c 038c bcbc 12b1 063c 1c86 29bd
00000140: ccd5 6cbd 085e f6be 3ff0 16bf d2ed 9d3d
00000150: 8dd1 3bbc 1f87 f6bd 6489 c1be c62c 803d
00000160: b1f2 bfbe 9217 5dbd 42c3 313d 4c02 0dbd
00000170: 58c5 8bbc 42eb 23bd cd6e 14bf df18 07bf
00000180: e0fb 8e3d 79d3 613e 980b 57be dbee fcbc
00000190: 3220 e3bc 4b94 96bd 8114 98bd d9e3 56bc
000001a0: 14b8 903c 9797 523c f1e2 66bd 0c5d 1c3c
000001b0: 4576 ccbe c4cc c0bb c6e1 e4bd 389b 27bc
000001c0: 8006 3abe fbbb 1bbf 6dd8 bbbc 97f9 0f3e
000001d0: ff7e a63d d87f 2f3d c3fc 813c 060b 33be
000001e0: de37 13bd 7f77 31be 1a2e 0abe 68c6 e43c
000001f0: 5031 6cbe cb35 5cbe 5269 813d a1bc 183e
00000200: 319f aebe 4444 2dbf ee8b 283e 13cc 1d3e
00000210: 8eb8 36bd ac24 9fbd 5051 6d3c 5b5c 86bc
00000220: f0e1 953b 6eb5 99bd 69ff c8bc 2460 a13b
00000230: 206d 4a3e 2ae0 0abc 4521 92bd 9692 233d
00000240: 40f9 32be 0fd1 06be 8a2c ebbe b6b8 c63c
00000250: 2b4b 66bd 45ce 33bb 52c6 213d fb8a 853c
00000260: 963c aa3e 1e81 d5be aeeb 373d dd7e 06bf
00000270: 4e85 35bf e723 0cbe 90b8 bdbd b80e 323d
00000280: 6599 ddbc d497 a9bc c108 fe3c 11ca af3d
00000290: 79ac 0bbf e59a c43d ae67 3b3d 419a 2cbe
000002a0: f8d0 243e cad7 053d ad8e 40ba 208c aa3c
000002b0: e085 6b3e ee56 bbbe d8bb bdbe 192c bbbc
000002c0: 8e22 803e fdf4 d1be b681 6f3d 0d6b 8b3c
000002d0: f2a2 debc b854 473c 026b ef3d 3cc9 9fbd
000002e0: 52e0 41bc 0d26 1cbd cd7b f3be 3711 b33d
000002f0: c959 a1be da24 ecbd 2d84 cbbd 8a80 bdbe
00000300: 45f4 45bd a372 9bbd 0b42 85bd 558c 033e
00000310: ddef 33be bc4f aebe 7b9c efbd ce33 30be
00000320: c5f3 94bc 9bd2 a13c e919 82bd 104c 47bf
00000330: 110d cb3b d4d7 d4bd b487 b0bd 59f5 9cbd
00000340: 7cff 38be 0221 ed3c 7dcf 56bf 1757 cc3b
00000350: 2429 ebbd 3c4a 1bbe 2020 0dbe 895d c3bb
00000360: a6ab 72be c874 32bc 338b c2bd 02b1 2f3e
00000370: 5353 16bc 77f8 7fbd 4218 f3bb 2f37 52be
00000380: 0ee5 f7bd 7907 8f3c 894b 43be b6c3 693e
00000390: 8c25 52bb 5419 0d3c 96a4 0dbf 3a68 6bbd
000003a0: c4a9 1d3d 07ca 6e3d 97b8 4abe 6cd6 04bf
000003b0: a628 e9be 8ce5 213d a8d8 2d3d f6bd 5cbd
000003c0: e978 7abd 3258 4fbc c9d5 3a3d 22fe 60bd
000003d0: ff9f 74bd 37c3 b3bd a8e2 a5be abcc 593d
000003e0: 7ee7 1b3d 6bdd 28be ef76 863e 73e2 2ebf
000003f0: 3a7a 8a3c 38ad 113d f4ba f73c 23de 66bc
0.008492001 -0.007726127 0.00041442981 -0.053710323 -0.057362918 -0.03586008 0.006348631 0.19409609
0.025531275 -0.4509828 -0.28454387 0.113130175 0.001664322 -0.009982369 -0.38108298 0.0066074
-0.467461 0.05550005 -0.014368074 -0.5378309 -0.6690036 -0.03272067 -0.42235184 -0.117033646
-0.072410144 0.044014324 0.0835031 0.052493393 0.02071562 -0.089797266 0.0058827223 -0.2985295
0.016649049 0.20426296 -0.09600951 0.0010836481 0.04819112 0.10084287 0.019442914 -0.012490986
-0.20750806 0.0021264015 -0.13451259 -0.20985404 -0.054443978 0.14118198 -0.57391375 -0.061011802
-0.10939496 -0.15384813 -0.0816971 -0.5331382 0.061863728 0.10251016 -0.25242445 -0.018552039
-0.24000375 0.04072416 -0.0014592985 -0.34036124 0.021514345 0.0013606205 -0.74790126 -0.46426606
-0.032154966 -0.07817368 0.046187744 -0.03409562 -0.22854948 -0.14896013 -0.42946565 0.17480205
-0.11735864 -0.34600452 -0.028866922 0.18988955 0.025968848 -0.023015982 0.008220928 -0.041387662
-0.05782108 -0.48118615 -0.58960336 0.07711376 -0.011463535 -0.12037491 -0.37800133 0.0625854
-0.37489846 -0.053977557 0.043399103 -0.03442602 -0.017061874 -0.04001928 -0.5798157 -0.52772325
0.06981635 0.22053327 -0.21000516 -0.030875614 -0.027725313 -0.073525034 -0.07425786 -0.013115847
0.0176659 0.012853525 -0.056368772 0.0095436685 -0.39933982 -0.005883785 -0.11175875 -0.010229878
-0.18166542 -0.6083371 -0.022930348 0.14060055 0.08129691 0.04284653 0.015867596 -0.17484674
-0.03594195 -0.1733074 -0.13494149 0.027926639 -0.23065686 -0.21504895 0.063189164 0.14915706
-0.34105828 -0.6768229 0.16459629 0.1540988 -0.0446096 -0.077706665 0.014484718 -0.01640146
0.004574053 -0.07505308 -0.024535852 0.004924791 0.1976819 -0.008476296 -0.07135252 0.039934717
-0.17477894 -0.13165687 -0.45932418 0.024257999 -0.05622403 -0.0027436179 0.039495774 0.016301623
0.33249348 -0.4170007 0.044902496 -0.5253733 -0.7090653 -0.1368557 -0.09263718 0.04347107
-0.027050683 -0.02070228 0.031010034 0.08583463 -0.5456005 0.09599856 0.045753174 -0.16855718
0.1609534 0.032676496 -0.0007345479 0.02081877 0.23000288 -0.3658976 -0.37057376 -0.022848176
0.25026363 -0.41007224 0.05847331 0.01701882 -0.027177308 0.012166195 0.11690332 -0.07802054
-0.011833267 -0.038122226 -0.4755539 0.08743518 -0.31513813 -0.115304664 -0.0993732 -0.3701213
-0.048328657 -0.075902246 -0.06506737 0.12846501 -0.1757197 -0.34045208 -0.11699768 -0.17207262
-0.018182645 0.019753745 -0.06352598 -0.7785044 0.006196626 -0.103927284 -0.08619633 -0.07663984
-0.1806621 0.028946403 -0.8391035 0.006235968 -0.11482456 -0.15165037 -0.13781786 -0.005962078
-0.23698291 -0.010892101 -0.094992064 0.17157367 -0.0091751395 -0.062492814 -0.0074186632 -0.20528863
-0.121042356 0.017459618 -0.19071783 0.22828564 -0.0032065837 0.008611996 -0.55329263 -0.057472445
0.03849198 0.058298137 -0.19796978 -0.5188968 -0.45538825 0.039525554 0.042442948 -0.0538921
-0.061150465 -0.012655305 0.045614038 -0.05492986 -0.059722897 -0.08777469 -0.32399487 0.053173702
0.038062565 -0.16490714 0.26262614 -0.68314284 0.016903985 0.035565585 0.030240513 -0.014091047

fc1.bias f4 [256]
00000000: a0cf 323e a629 bb3e 7738 06bc a529 343c
00000010: 195b e2be a29a 283e bc9d b03c 4ac0 d53c
00000020: ae4e 443e 3901 493e c209 d03d 0c96 4bbc
00000030: dd9c 9a3d 9035 9a3d 6770 313d 0155 e93d
00000040: 3936 253e b883 d4bc 7d24 403e 20dc 8b3c
00000050: 44dc b6bc f1b8 593d 299a 71bd d2e3 95bc
00000060: 8404 8ebe 4816 143d 4a62 cbbc 3c26 33bd
00000070: 4a98 133d fe91 a9bd 50c9 eb3d ba37 9f3e
00000080: ee3d 363d 97d4 853e 2266 4b3d 8155 b03e
00000090: 2a5d 85be b470 f4bd 7c20 b13d 39d1 e7bd
000000a0: 3665 d63c 6dff 573d b516 7c3e cfd8 dc3d
000000b0: 8ed1 853d b073 483c 50b3 54be 0b6a 69bb
000000c0: 697e 1cbc d253 f53c d842 66be 4ae2 313d
000000d0: 93df 973e 7f29 353d 56b6 373d 28bf c13d
000000e0: 965b 09bd 86c3 3fbc d797 d8bd 9249 0d3f
000000f0: 02f7 c9bd 272f 21be b0d5 4d3e c838 a6be
00000100: 211b 823d 42e6 0f3e 168d fb3b 0fe3 9cbd
00000110: b2ac 10bd a664 8bbe 3389 0740 0241 b73e
00000120: cfb5 2a3b 5a6b 2b3e 8713 3d3d df8b e93d
00000130: 4677 863e 29a6 8b3f 5e76 473d 89b4 f03d
00000140: 7763 503d 3682 5e3e a227 07bc 554c 643d
00000150: 87cc 71bd cdba bf3d c1e3 d3be 4868 a6bd
00000160: 4441 873e 3efd 85bd cefa 923c 37a0 0d3d
00000170: 15d6 c73d 3194 763d 76ad 933c c54e 65be
00000180: 77f9 963c a472 c83d a9ba 2ebd 9c78 6d3e
00000190: a7c3 87bd aa38 833e 1741 783e 7caa 87be
000001a0: 6643 a93d 83bd 7a3d 2545 86bc eb80 48bd
000001b0: d62b 38be 62d4 12bd d27f c73d f57b 35bd
000001c0: cad8 df3e b82b 9dbe 9d09 abbd 9342 de3d
000001d0: 0a08 aa3e 7e54 9a3e 18a4 373e e6a6 b6bd
000001e0: a57a a6bc da40 833e 0969 333e 2558 0abe
000001f0: db49 a6bd 303d 143e fbee 69bd ca06 703e
00000200: c879 d63c 9acb 893d fec4 c4bd 6b63 c93e
00000210: 6c6e 4dbe f419 613e c362 583e 4149 d1bd
00000220: 339d fb3d 16da 28be 85ee 103d 73da 703e
00000230: 0480 5abe 17c0 313d 9b76 8f3e df52 923d
00000240: aafe 273d 4a58 453c 7f08 a93c c2dd 013e
00000250: 80e1 ca3d 84c1 85bc db45 88bc bf47 4c3d
00000260: f256 313d b31c 18be d83d 363d 1761 003d
00000270: 4f27 223d 1f71 07be 1b36 9a3c 4ca5 703d
00000280: 9a63 2ebe 8a98 83bd 47f5 583d fc99 8f3d
00000290: c5c3 f33d 370d 2abd 0364 2bbe b24f 393d
000002a0: e02e d7bc 7e00 77bc 555c 203d 0362 c83d
000002b0: 68cb 1e3d 2230 873d 84e3 063f 2842 cf3c
000002c0: b6c3 983d 141a 17be dc7a 0a3e 8653 343e
000002d0: c488 2a3e c6ae 0c3e 3670 a73d 0e35 17bd
000002e0: 3ff4 4b3d 8121 7d3e d2a6 14bd 7008 623d
000002f0: 2b7f b73d e6d0 b73d 2d4d 853d dfd5 9e3c
00000300: 3d81 9e3e a62f 2abe e5c3 c83c 4e58 573d
00000310: 2899 2d3e 17e5 153e 3443 b43d d441 513e
00000320: 07e3 963d 5bb7 53be 4fba ff3c 764c 42bd
00000330: 76f4 223e 2173 6a3d eb84 053d 05d3 a63d
00000340: 32f5 123e 479c 85be 0f15 e93c 24b7 ad3d
00000350: 2095 e63d ac48 903d 711c b7bd f485 50bf
00000360: 1e90 43bd 5eb1 8abe 20a9 083e 768e 97bd
00000370: 63cc 363e cdf1 f43c 180a 473d 5b12 3f3e
00000380: 570a 023e 8a07 5bbd 4a60 3ebe 248a ed3d
00000390: aa8f 923c c034 8c3d 44d7 483e f535 db3d
000003a0: c409 34bd f65d 853e b2f1 373e c311 07bb
000003b0: d44c 0c3f 59ea 91bd 4af3 0a3d 0eb2 883e
000003c0: 7ec3 41be 7b04 5b3d 8332 113d d9ff 36bc
000003d0: 4bc3 563d fa9b 18be 0475 1a3d 80b1 163d
000003e0: b7a5 debd 875e 6abd 6a2c 933d ccc9 3b3e
000003f0: d53c 313e 3c60 dfbe 2517 8f3d fed5 323e
0.17462015 0.36555213 -0.008192173 0.010996257 -0.44210127 0.16465238 0.021559589 0.026092667
0.19170639 0.19629373 0.10158111 -0.012425911 0.075494505 0.075297475 0.043320086 0.11393166
0.16133966 -0.025941715 0.18763919 0.017072737 -0.022321828 0.05315489 -0.05898491 -0.01829711
-0.2773782 0.03615406 -0.024827141 -0.043737635 0.036033906 -0.08279799 0.11513007 0.31097203
0.044492655 0.26138756 0.04965795 0.34440234 -0.2604764 -0.11935559 0.08648774 -0.11319203
0.026171308 0.052733827 0.24618037 0.107835405 0.0653411 0.012234613 -0.20771527 -0.0035616185
-0.009551623 0.029947195 -0.22486436 0.043428697 0.2966276 0.044229027 0.044851623 0.09460288
-0.03353461 -0.011704331 -0.10575836 0.55190384 -0.09861566 -0.15740643 0.20101047 -0.32465196
0.06352831 0.1405268 0.007676731 -0.076604955 -0.035320945 -0.27225226 2.117749 0.35791785
0.0026048308 0.1674017 0.0461612 0.114036314 0.26262873 1.0910083 0.048696868 0.11753184
0.050876107 0.21729359 -0.008249195 0.05573686 -0.059032943 0.09361801 -0.413847 -0.08125359
0.2641698 -0.06542443 0.017941859 0.03457662 0.0975763 0.06019992 0.018027049 -0.2239333
0.018429501 0.09787491 -0.04265848 0.2319054 -0.066291146 0.2562917 0.2424358 -0.26497257
0.08264808 0.06121589 -0.016390393 -0.04895107 -0.17985472 -0.035847075 0.09741177 -0.044307668
0.43720084 -0.30697417 -0.08351443 0.10852542 0.33209258 0.30142587 0.1793369 -0.08918552
-0.020322153 0.25635415 0.17520536 -0.13510187 -0.081195556 0.14476466 -0.057112675 0.2344009
0.026181117 0.06728287 -0.09607886 0.39333662 -0.20061654 0.21982557 0.21131425 -0.1021905
0.12285843 -0.16489443 0.03538372 0.23520832 -0.21337897 0.04339608 0.28020176 0.07144713
0.04101435 0.0120449755 0.020633934 0.1268225 0.09906292 -0.016327627 -0.016634872 0.04987311
0.043295808 -0.14854698 0.044492573 0.031342592 0.03958827 -0.13226746 0.018824628 0.05875139
-0.17030182 -0.06425579 0.05296829 0.07011792 0.119025744 -0.04151651 -0.1673737 0.04524202
-0.026267469 -0.015075801 0.039150555 0.09784319 0.038768202 0.066009775 0.5269091 0.0253001
0.07459204 -0.14756042 0.1352343 0.17609987 0.16653734 0.13738546 0.081756994 -0.03691583
0.049793478 0.24719812 -0.036291905 0.055183828 0.08959802 0.08975391 0.06508861 0.019389091
0.30957976 -0.16619739 0.024507472 0.05257445 0.16952956 0.14638172 0.088018805 0.20435268
0.07367521 -0.20675413 0.031216769 -0.0474362 0.15913567 0.0572387 0.032597464 0.081457175
0.14351347 -0.26095793 0.028452424 0.08482197 0.11258912 0.07045111 -0.08940972 -0.81454396
-0.047744863 -0.27088445 0.13345766 -0.07400219 0.17851405 0.029900456 0.04859361 0.18659346
0.12699257 -0.053473987 -0.18591419 0.11598614 0.01789077 0.06845999 0.19613367 0.10703651
-0.043954626 0.2604825 0.17963293 -0.0020609952 0.5480473 -0.071247764 0.033923425 0.26698345
-0.1892223 0.05347107 0.035448562 -0.011169397 0.05243234 -0.1490325 0.03770925 0.03679037
-0.10871451 -0.057219055 0.07186206 0.18338698 0.17308362 -0.43628109 0.06986836 0.17464444

last_fc.weight f4 [3, 256]
00000000: cc4a 3f3f cba0 003f 22a1 99bc 7074 45bc
00000010: 7adc 24be 5081 8cbe 3964 2a3e e30a 43be
00000020: 2cb4 da3d d00e 143d d77d 2e3e 8ec1 a6be
00000030: 41b4 27bf f81a 193e 1a17 633c 3c15 01bf
00000040: 8537 75be 55a2 02bd 8741 07be fb87 dbbd
00000050: 7ea9 93bd b8b8 d23c 04b6 073e 6921 3b3f
00000060: 2a6f ddbe 12cb 74bd e080 8fbe e885 f0bd
00000070: c5fd 2cbf 20e4 16bc a6d7 b73d 2070 123e
00000080: 1c6e 673e 53f5 4fbd 2a62 82bc 5947 903c
00000090: f133 bc3d 7e1b 0d3d 2681 d23d ecc1 45bc
000000a0: 3e9a 58bb 3352 14bd b71f 7cbd 09ca dabd
000000b0: 4e4f 79bc 6b1e bd3d 88b8 e63d 8e00 23be
000000c0: 2982 47be 9912 4a3e 758c 79be c4b0 cfbe
000000d0: e7a6 b43e 76cf 143e dbf5 84bd bb44 eebe
000000e0: c74d 213c eaa5 e9bd 71bd c93d d61d a5bd
000000f0: a48c 333e 2d6c 69be 1a11 9c3e cb0a fe3a
00000100: c75f 1a3c 2367 a4be 6544 d9bc fe7e 7fbb
00000110: ba9d b2be 53f6 d93d d42a aa3d 2d5a a2be
00000120: b34d 713e 35eb cc3d ab77 b63b 885a d0bc
00000130: 7f60 27be fdd4 243d 3954 943b a67b db3d
00000140: d30f c9be 1c52 cb3e cbc8 133d 22bc 383c
00000150: 88df db3e 8624 6b3e 96ed e2bd aed3 52be
00000160: 6b7d 423e 1e9f 84be 0127 133d f542 413c
00000170: 3722 49bf e689 6d3c c65c c5bc 6d88 5fbe
00000180: 185d c93c a523 1abd 94ef 93be 0f32 25bd
00000190: 9355 ffbd 84a1 45bd b9c3 d23d 05b3 eabd
000001a0: 7e7d 3abf 1f09 15bd 8eb4 adbd 7fb4 b9bd
000001b0: ec40 803d 981d e0bd eb0c cb3d aeb6 803b
000001c0: e7df 16be d5c5 eb3b 334d 233f 4479 9e3e
000001d0: 18aa 643d efc6 813d de2d 893e 9fc8 913e
000001e0: 8acb 9abe c11e cf3d 074a 5a3c 4089 b8be
000001f0: 9c9f 4abe f624 93be f60c 93be be2f 2dbe
00000200: fe53 c83d 7a3a 98bb 98a9 5b3e 3cc3 4c3f
00000210: 4103 56be 3db1 3a3f d513 7dbd 3c67 c13d
00000220: fc3f d0bd 9e10 613d 64b0 83bb cd33 0fbe
00000230: 1a47 0dbc efab eabc 9169 453e cfac 1d3e
00000240: 8f0a 96bd 1d83 14bf cb4c aebd 2765 a73d
00000250: 6a78 343f 8e81 debe 3653 adbd cdf8 8d3b
00000260: 08d0 82be 0049 c6be d121 d7bd 36b3 d9bd
00000270: 046a 9fbd bea7 003e 3e1d 7cbe 7f1e 063e
00000280: c3f2 36be dc19 d4be 9ce2 883d 1424 dfbc
00000290: 250a 013f d153 31be 9b66 a4be b310 1a3c
000002a0: ea23 c13e 8acb a83d be8f 3fbd 857f f8bd
000002b0: f3e5 173d 7fa4 91be 9ba0 8bbd d604 4d3e
000002c0: 63ec 80be 47fa 72bd 3b77 f1bd 5b33 453e
000002d0: 9c32 38be 667c c3be d706 9dbd a0e5 e9bd
000002e0: c978 dfba 0008 ad3d 2d22 05be 5c76 ebbe
000002f0: 2a86 2e3e 3830 85be 0fd2 f3bd c5c4 ffbd
00000300: 11a0 cbbd 7d14 003e fbdf 15bd 40a5 8dbb
00000310: b9f4 41bd 1117 bb3d d8e8 7c3c cb32 7fbe
00000320: c057 d5be a9f9 bc3e 7e76 ab3e 29d2 3dbd
00000330: cbdc 5cbe 6de1 76bd 2e9d 923c d3d5 193e
00000340: 2585 f53d 834d 113d ce97 b83b f542 8c3d
00000350: 471c aebb 5a62 97bd 3dcb 82bd ab15 95bc
00000360: dbb7 0dbe 0fb4 243d ff0d 9b3c ec85 e1be
00000370: cc03 f73d ab8a be3a 9dbb e9bb ecd2 b83d
00000380: ae72 ac3d 20fe 553d 38e5 9ebe 36ee c93d
00000390: b8a1 723d d72c 84bf d540 86bd 4007 2ebf
000003a0: 0211 253d cf44 96bc ba9c 5f3c a521 b5bc
000003b0: 811b 64bd a71d e2bd ffdb 4dbc a966 e03c
000003c0: d087 043c 8c4d 91bc fcf9 243c dc73 ffbe
000003d0: b760 87be c8ae d7be 7577 d3bb 082d bb3c
000003e0: 273b 60be 6a10 9fbe 3614 8c3c a541 1cbe
000003f0: 981f 263d 6474 73bc 30fb 903d 32a2 763c
0.74723506 0.5024535 -0.018753592 -0.012051687 -0.1609973 -0.27442408 0.16639794 -0.19047122
0.10678896 0.03614694 0.17040192 -0.32569546 -0.6550942 0.14951694 0.013860488 -0.50423026
-0.2394696 -0.031893093 -0.1320859 -0.107192956 -0.072100624 0.025722846 0.13253027 0.73097855
-0.43248874 -0.059763975 -0.2802801 -0.117442906 -0.6757472 -0.009209663 0.089766786 0.14300585
0.22600597 -0.05077107 -0.015915949 0.017612146 0.091895945 0.034450047 0.10278539 -0.01207016
-0.003305092 -0.036211204 -0.061553683 -0.106830664 -0.015216662 0.092343174 0.11265665 -0.1591818
-0.19483246 0.19733657 -0.24369986 -0.4056455 0.35283586 0.14532265 -0.06492206 -0.46536812
0.009845204 -0.11408599 0.09850586 -0.080623314 0.17534119 -0.22795172 0.30481797 0.0019381879
0.009422249 -0.32109937 -0.02652187 -0.0038985605 -0.3488596 0.10642686 0.0830895 -0.31709424
0.23564796 0.100058 0.0055684648 -0.025433794 -0.16345404 0.040242184 0.0045266417 0.107169434
-0.39269885 0.39711082 0.036080163 0.011275323 0.42943978 0.22963151 -0.11080472 -0.20588562
0.18993156 -0.25902647 0.03592587 0.011795749 -0.7856783 0.01449821 -0.02409209 -0.21829386
0.024580523 -0.03763165 -0.2889372 -0.040330943 -0.12467494 -0.048249736 0.102912374 -0.114599265
-0.72847736 -0.03638565 -0.08481704 -0.0906763 0.06262383 -0.109431446 0.09914573 0.003928027
-0.1473385 0.0071952143 0.6378967 0.30951893 0.055826277 0.06336772 0.26792806 0.28473374
-0.30233413 0.10113288 0.013323314 -0.36042213 -0.19787449 -0.28739136 -0.28720826 -0.16912743
0.09781645 -0.004645643 0.21451414 0.79985404 -0.20899679 0.72926694 -0.06178649 0.094435185
-0.10168454 0.054947488 -0.00401883 -0.13984604 -0.008622909 -0.028646437 0.19278552 0.15397952
-0.07326233 -0.58012563 -0.08510741 0.0817359 0.7049624 -0.43458217 -0.08463137 0.004332638
-0.2554934 -0.3872757 -0.10504497 -0.10629885 -0.07783893 0.12563989 -0.2462053 0.13097571
-0.17866044 -0.4142598 0.06683847 -0.027238883 0.50406104 -0.1731713 -0.32109532 0.0094033955
0.37722713 0.08241947 -0.046767943 -0.121336974 0.03708453 -0.28445813 -0.068177424 0.20021376
-0.2518035 -0.059320714 -0.117903195 0.19257872 -0.17988056 -0.38180846 -0.0766732 -0.114207506
-0.0017049547 0.084487915 -0.13001318 -0.4598874 0.17043367 -0.2601335 -0.119053 -0.12488703
-0.099426396 0.12507816 -0.036590558 -0.004322678 -0.047352526 0.09135259 0.015436374 -0.2492172
-0.4166851 0.36909226 0.3348884 -0.046343002 -0.21568601 -0.060273577 0.017897215 0.15022974
0.11988286 0.03547431 0.005633331 0.068487085 -0.0053134295 -0.07391806 -0.06386421 -0.018198809
-0.13839667 0.04021078 0.018927572 -0.44047487 0.12061271 0.0014537176 -0.007132961 0.09024605
0.08420311 0.052244306 -0.31034255 0.09859888 0.05923626 -1.0326184 -0.065553345 -0.6797981
0.040299423 -0.018343357 0.013648206 -0.02211077 -0.055690292 -0.11040812 -0.012564658 0.027392702
0.008089021 -0.017737173 0.010069367 -0.4989308 -0.26440975 -0.42125535 -0.0064534494 0.022848621
-0.21897565 -0.3106721 0.017099481 -0.15259416 0.040557474 -0.014859293 0.0707916 0.015053319

last_fc.bias f4 [3]
00000000: f7d1 7d3c 1cef 76bd 4b35 a7bd
0.015491954 -0.060286626 -0.08164462

last_fc_log_std.weight f4 [3, 256]
00000000: f193 ed3e 609c b73e e513 003d 4ee7 b2bc
00000010: 0b8f 893b 7b95 a43d e06e c53b 7ce7 81bd
00000020: 9122 9d3d dd8a a4bc 0fd3 323d 398f 2d3e
00000030: 2065 3b3e 81f7 813d 46f9 113c 1743 1c3e
00000040: 81b2 b73e 30e3 f13c 9ab9 61bd 2f5e 573d
00000050: e227 fe3a 493b d53c dc15 97bd 5cde 283f
00000060: abc4 8e3d d8c9 7dbc 9472 0d3c d98d 8b3d
00000070: 94f7 133e 9352 27bd ebf0 643d 095e dc3d
00000080: a195 f23d 5000 853c d2e0 1cbd b41d fd3c
00000090: 88e2 cc3d a290 5ebc 5b05 b33d 20e7 123e
000000a0: 3e62 503d ee45 4abd f041 d2bc c095 4bbe
000000b0: 5ffb cc3c 91b0 083d eeb6 a33d 252d 903d
000000c0: ca56 9abd 4574 553e 75b4 823d bab0 babd
000000d0: 1a5d 903e 1a6b 8bbb 045d 873c ad54 f83d
000000e0: ed3c 043e 0f54 89bd 2981 f13c f52e d4bc
000000f0: b228 d3bd c528 5abd a128 793e a803 aa3c
00000100: f74b fdbc c542 063d 534f 423c 58c7 323d
00000110: a2cb f93d b1e7 07ba dfa0 8bbe 8c23 12be
00000120: 3b24 093e 6417 833d 810b 543c cb32 78bd
00000130: a517 45bc 465d 1d3d 0e48 2f38 f3b8 8b3d
00000140: 52a4 40bd 0e63 023e d961 3e3d 055e b0bc
00000150: 2ae8 c03e 645b 033e 0330 893c a274 13be
00000160: 44e8 ce39 ee52 b7bd bb81 203d 4415 97ba
00000170: 1261 cc3e 6a66 db3d 2c00 73bd a39a 1d3d
00000180: b96d 273d e4c7 d2bd ece3 df3d 1a02 323d
00000190: c849 23be 15cc b7bc 65f9 4a3d 6e65 173c
000001a0: c840 733e 2d2a 00bd 2a46 643b 185d 9dbd
000001b0: 49cd b33c ac31 a3bc f5b0 103d cc87 3a3d
000001c0: 4a74 4d3d 0d88 3ebe 6121 433e e3be 8f3e
000001d0: 9a9e 323c 4330 4f3d 06c4 c03d 6289 413e
000001e0: 06fd f6bd 70e5 9f3c f81d 8e3c 9100 883e
000001f0: d117 97bc 8fa1 143f 7273 783e 3969 20bd
00000200: de63 a83d 6be9 99bc 6eb0 d7bd 7013 983e
00000210: 87a0 b1bc 05f3 b73e 9c52 b33b edb1 af3e
00000220: bfd4 b23c 6b25 68bc b040 2bbd 889e 0dbd
00000230: 0e9a 30bd a80e 3bbd da96 0f3e 6d27 e83d
00000240: a6bf 723d d911 c63c e34c 17be 98cf a23d
00000250: a2b5 773e e9d0 bdbc 066d 5b3d 703f f6bb
00000260: c89c 673a 31b9 7e3e 3e88 1dbb 6183 b9bd
00000270: b96e 073d d563 3fbe ecd6 d0bd 0889 ee3d
00000280: f404 5e3d ae76 ba3e c3fb 503d bffb c83b
00000290: eada fc3e 721b 8a3d 54bd dc3d 8477 02be
000002a0: 8d90 8e3d 9da6 1f3e 5eda 183d 82b3 ea3d
000002b0: e2a7 29bc b450 2d3e 4bdc 06bd 2b99 1c3e
000002c0: 1dc0 ef3c 64f6 063d 58c0 4dbe 229c 7c3d
000002d0: 3a70 2c3e 45e0 913d 8a15 6abc 920b 8c3d
000002e0: 56e5 043d f933 253d 4bb1 82bd dfad cdbd
000002f0: b198 0e3b f018 ac3d aaed 083c 2d02 11bd
00000300: 9c90 db3b 5e16 093d 9be9 ad3d cace 80ba
00000310: 2aba 2e3d fba6 143e 035d 873e 845a 53bd
00000320: 1942 6c3d 0e15 623e 6fb1 8cbd 98a2 cfbc
00000330: 77d8 8abd 5db6 66bc 1615 9b3d 3034 533e
00000340: 775e fb3c 7b93 5fbc bf02 a63c 8ef3 823c
00000350: e8b2 f4bb f49b 4abd 747e d93c 7556 e23c
00000360: 2214 013b 2d33 59bb e5fe 54bd 3530 333e
00000370: f2f9 993d 2b45 d4bb 7126 cebc 1b8f 35be
00000380: e29d 873b c25c 983c 8595 d43d 30a4 973d
00000390: 9a1b 933e 9304 1d3e c654 a23d 327a 183e
000003a0: ca70 74bc ba31 55bd 7c95 5b3c 55b8 cbbc
000003b0: 5d11 85bd fed6 06be 72e6 cb3c 25f1 74bc
000003c0: e444 8d3c a32d c33c c718 46bc b049 4e3e
000003d0: c88f 26bd b50f ab3e 789c 88bb c52d 4c3c
000003e0: f698 633e 47ed 743e c481 eabb d43e 32bd
000003f0: 5adb b3bc 26df 8a3a 70d2 fd3e d335 0ebc
0.46401933 0.35861492 0.031268973 -0.02183881 0.0041979603 0.08036324 0.00602518 -0.0634298
0.07672609 -0.020085746 0.043658312 0.16949166 0.18300295 0.06346036 0.008909529 0.15259968
0.35878375 0.029527277 -0.055108644 0.052580055 0.0019390548 0.026029246 -0.07377216 0.65964293
0.06971105 -0.015490018 0.008633275 0.06814165 0.14449912 -0.040850233 0.05589382 0.10760123
0.11844946 0.0162355 -0.038300343 0.030897953 0.10004145 -0.013584288 0.08741256 0.1434598
0.05087494 -0.049383096 -0.025666207 -0.19881344 0.025022207 0.03337151 0.079938754 0.07039861
-0.07536085 0.20845135 0.06382076 -0.09115739 0.2819603 -0.004254711 0.016523845 0.121255256
0.12913866 -0.06705486 0.029480534 -0.025901297 -0.103104964 -0.053261537 0.24331905 0.020753697
-0.030920012 0.03277852 0.011859733 0.04364714 0.12197043 -0.0005184366 -0.27271172 -0.14271373
0.13392727 0.06400946 0.012942196 -0.060595315 -0.012029563 0.03841903 4.1790357e-05 0.06822386
-0.047031708 0.12733099 0.046480034 -0.021529207 0.37677127 0.12827832 0.016746527 -0.1439996
0.00039464433 -0.089513645 0.03918622 -0.0011526723 0.3991781 0.10712893 -0.059326336 0.03847755
0.040876124 -0.10292032 0.109321445 0.043459035 -0.15946114 -0.022436181 0.049554247 0.009240491
0.23755181 -0.031290222 0.003483186 -0.07683772 0.021948474 -0.019921146 0.03532501 0.045539662
0.05015973 -0.18606587 0.19055702 0.28075323 0.010902071 0.050583135 0.094123885 0.18900064
-0.12059979 0.019518584 0.017348275 0.26562932 -0.018443974 0.5805902 0.24262789 -0.03916285
0.08222173 -0.01878806 -0.10531698 0.2970233 -0.02168299 0.35927597 0.0054724943 0.34315434
0.02182996 -0.014169077 -0.041809738 -0.034575015 -0.043115668 -0.045668274 0.14022389 0.11335645
0.0592648 0.024178432 -0.14775424 0.079497516 0.24190381 -0.023170905 0.05357077 -0.0075148866
0.0008835313 0.24875332 -0.0024037506 -0.09058262 0.033064578 -0.18690427 -0.10197243 0.116472304
0.054203942 0.3641867 0.05102135 0.006133526 0.49385768 0.06743516 0.10778299 -0.12740904
0.069611646 0.15590902 0.037317626 0.1146002 -0.010354968 0.16925317 -0.03292493 0.15292804
0.029266411 0.03294982 -0.20092905 0.061672337 0.16839686 0.07122854 -0.014287362 0.06838144
0.032445274 0.040332768 -0.06381472 -0.10042929 0.0021758492 0.08403194 0.008357445 -0.035402466
0.0067005884 0.033468597 0.08491822 -0.0009827253 0.04265801 0.14516823 0.2643815 -0.051599994
0.057680223 0.22078344 -0.0686978 -0.025346085 -0.06779569 -0.014081565 0.07572381 0.20625377
0.030684693 -0.013646002 0.020264981 0.015985277 -0.0074676163 -0.049465135 0.026549555 0.027629117
0.0019695838 -0.0033142075 -0.0520009 0.17498858 0.075183764 -0.006477972 -0.025164815 -0.17730372
0.004138694 0.018598918 0.10380081 0.07404363 0.28731996 0.15333776 0.079263255 0.14890364
-0.014919469 -0.052049376 0.013402339 -0.02486817 -0.064974524 -0.1316795 0.024890158 -0.014950071
0.017244764 0.023825472 -0.012090868 0.20145297 -0.040664464 0.3341042 -0.004169043 0.012462084
0.22226319 0.23918639 -0.0071565825 -0.04351695 -0.02195518 0.0010595068 0.49574614 -0.008679825

last_fc_log_std.bias f4 [3]
00000000: 174b 09c0 eee6 0ac0 dd1b 04c0
-2.1452081 -2.1703448 -2.0642006
