models/Env3/PDSRL_256_A5_S3_P/local_episode_1600_reward_200.000000.pt (torch, 297564 bytes, 8 tensors)

fc0.weight f4 [256, 23]
000000 fd 99 7e 3c ed 86 a1 bd 8f 55 9a 3c 93 43 15 bd
       0.015539643 -0.07887063 0.018839626 -0.036441397
000010 f5 d4 d2 3c d5 23 8e bd 01 d5 75 bd cb 9a 01 3c
       0.025736311 -0.06940428 -0.06001759 0.007910441
000020 0a b8 96 bd c2 1d 9c bd 9c 43 65 3a 68 28 5e bd
       -0.073593214 -0.07622863 0.00087457313 -0.054237753
000030 ae ad 6d bd 6b d2 3d bd fd 7d 3b bd dd 73 4f 3c
       -0.058026962 -0.04634325 -0.04577445 0.012661901
000040 d7 7a ad bd 33 bf ee bc 2a 7c 03 3d b9 fb 87 bd
       -0.084706955 -0.029143905 0.032100834 -0.06639809
000050 12 24 7c 3d 50 85 51 bc 22 92 1e bc a7 38 6c bd
       0.061557837 -0.012788132 -0.009678395 -0.057671215
000060 01 1e 15 3c 18 50 18 3c 46 6a 5f 3c 71 f9 6a bd
       0.009101392 0.00929644 0.013636177 -0.057366792
000070 11 5a 56 bd 20 81 20 3b e7 db 23 bd 43 ae 31 bd
       -0.052331988 0.0024491027 -0.040004637 -0.04337908
000080 6d 7c 0e bd 7a f3 61 bc 6a 20 8a bd 4d 27 8b 3a
       -0.03478663 -0.0137909595 -0.06744464 0.0010616571
000090 bf 54 bd bd ff e0 8a bd df ba 6f bc 73 c9 11 bb
       -0.0924468 -0.06781196 -0.014631956 -0.0022245317
0000a0 8a 7f 0b bd 68 1d ad bd 8b 0a 9f 3c 00 8a cf bc
       -0.034057178 -0.084528744 0.019414207 -0.025334358
0000b0 fa b7 7b 3c 85 6e dd bc a4 d7 bc 3c 0c 58 14 3c
       0.015363688 -0.027030239 0.023052044 0.009054195
0000c0 7f 42 27 3c 84 3a 87 bd d7 93 25 bd df 80 86 bd
       0.010208725 -0.06602958 -0.040424194 -0.06567549
0000d0 4d 9c dc bc 0b 2b c3 bd 16 40 6a bd 1e 2b 1c bd
       -0.026929999 -0.09529694 -0.057190023 -0.038127057
0000e0 10 ad 8d bd db 92 22 bc 6d 2c 56 bd 82 f0 47 bc
       -0.06917775 -0.009922708 -0.05228846 -0.012203338
0000f0 67 cc ce 3c 92 34 11 bc a7 96 89 bc 3b 15 64 bd
       0.025243951 -0.008862631 -0.01679547 -0.05568431
000100 6b 5f 57 bd c0 21 98 bd d4 b9 96 bc a6 9a 24 3d
       -0.052581232 -0.07428312 -0.018399157 0.040186547
000110 94 09 05 bc f7 f2 a8 bc 51 aa 54 3c 60 75 bb bc
       -0.008119959 -0.020623667 0.01298006 -0.022883117
000120 15 1e d7 3c 65 e3 46 3d de 66 84 bd 75 19 1d bd
       0.026259461 0.048556704 -0.06464933 -0.038354356
000130 38 3d 66 bd 26 99 b0 3c 92 26 f6 3c 08 fb df bd
       -0.056210726 0.021557402 0.030047689 -0.10936552
000140 17 c1 90 bb 34 0c 0e 3c b4 fc 62 bc 34 cd 96 bd
       -0.0044175494 0.008669902 -0.013854194 -0.07363358
000150 db c4 37 bd 3f bb c9 bb 2b 81 5e 3c fc 39 b4 bd
       -0.04486547 -0.0061563547 0.013580601 -0.08800122
000160 d4 a6 fa bd f1 98 b4 bd d4 0f 23 bc ca 40 e1 bd
       -0.12238851 -0.08818234 -0.009952504 -0.10998686
000170 5b 87 b4 3e 3e 1b 27 bc 73 fc 71 be 43 49 4a 3e
       0.35259518 -0.010199366 -0.23631458 0.1975451
000180 d7 7a 26 3e 7e 74 34 be ee 73 61 be 2b ae 9f 3c
       0.16257797 -0.17622563 -0.2201688 0.01949223
000190 aa cf 66 3e 7c 2a 36 3e 4a 33 57 be 08 45 c4 be
       0.22540155 0.17789644 -0.21015659 -0.38333917
0001a0 9c d2 7f bd 41 1f 78 3c c3 7a db 3d 03 11 76 be
       -0.062456712 0.01514417 0.10716774 -0.24029927
0001b0 62 b8 10 be e5 de f3 3d 14 e8 30 3c 5b 64 e1 3c
       -0.14132836 0.11907748 0.010797519 0.027513674
0001c0 cd e0 6f 3a c2 d8 ae bb f4 b8 91 3d 14 49 b4 bc
       0.00091506244 -0.005335898 0.07115355 -0.022007503
0001d0 d1 2b 8e bc a9 b2 86 bb a3 55 93 bd fa a4 d9 3c
       -0.017354878 -0.0041106534 -0.07194068 0.026567925
0001e0 8a b7 81 bd 6a 3f 7f bd d3 42 12 3d be 84 98 bd
       -0.063338354 -0.062316336 0.03570826 -0.074471936
0001f0 d9 65 70 3b 61 f2 4c bc b5 20 8a 3c 9c ad ac bd
       0.00366818 -0.0125089595 0.016861299 -0.08431551
000200 ec 25 5e bd ae a7 ea 3c 9d 91 70 bd b1 5a 9d bd
       -0.054235384 0.028644409 -0.058732618 -0.07683314
000210 79 da 7d bd f2 36 d1 bb 5f f7 b9 bc 01 a5 28 bd
       -0.06197593 -0.006384724 -0.022700964 -0.041172985
000220 f8 09 b5 bb f3 23 9e bd 99 a8 74 bc 5f 37 6e bb
       -0.00552487 -0.077217005 -0.014932775 -0.0036348922
000230 cf 4e 90 3b a1 35 8d 3c c9 cc 87 bd 95 39 ba bd
       0.004403926 0.017237486 -0.066308565 -0.09093014
000240 2b 17 80 bc 00 31 23 bd e0 61 88 3d 55 6b 2b bd
       -0.015636047 -0.039841652 0.06659293 -0.041850407
000250 1e 85 7f 3c 0d 19 d3 bc f9 25 b8 bb 0c f8 2e bd
       0.015595702 -0.025768781 -0.005619761 -0.042717025
000260 ba 48 68 bb e1 83 34 3d 4c e5 84 3c 37 1c 39 bd
       -0.003544374 0.044071082 0.016222619 -0.045192923
000270 4d b7 71 bd 7e 76 d1 bc 18 bb 5b bc 64 0a ff ba
       -0.0590127 -0.025569197 -0.013411306 -0.0019458053
000280 bf 55 c1 bc ae f6 75 3e 15 61 44 3e 48 1e d1 bd
       -0.023600457 0.24019882 0.19177659 -0.10210854
000290 e6 38 64 3d 0b 2c 05 3e c9 5e b8 3d 26 39 c9 bc
       0.055718325 0.13005082 0.09002454 -0.024563383
0002a0 e5 47 26 bd be 02 a0 3c 27 eb d5 bd 53 ae 09 bf
       -0.040595908 0.019532558 -0.104452424 -0.5378162
0002b0 71 eb 12 bf d9 8b 31 be de b6 a8 bc 4f 63 98 bd
       -0.57390505 -0.17338504 -0.02059501 -0.074408166
0002c0 83 cb d9 3d a7 32 35 bd 5f eb de 3c fd 81 cc 3d
       0.1063452 -0.04423776 0.027211843 0.09985731
0002d0 5d c8 09 3d 5d f1 5e be 16 63 a8 3d e3 3b b4 3e
       0.033638347 -0.2177176 0.08222024 0.3520194
0002e0 bd a4 0a 3d a1 4c b5 bd 09 b0 8c bd 57 a2 04 bd
       0.033848513 -0.088525064 -0.068695135 -0.03238138
0002f0 8a 98 28 bd 37 c4 bc bd c1 d2 9d bd 11 fb 27 bd
       -0.041161098 -0.092171125 -0.07706214 -0.04101092
000300 f9 fd d9 bc 86 97 c8 bd c7 2f 7e bd f0 18 3c bc
       -0.026610361 -0.09794526 -0.062057283 -0.011480555
000310 bc 12 cb bc ad 62 0b 3d b0 96 a5 3d 2a 7d 00 bd
       -0.024789207 0.03402965 0.08085382 -0.031369366
000320 4a a3 26 3d eb 3e 45 3e 9e e1 02 3e 14 89 8d bd
       0.04068307 0.19262283 0.12781379 -0.06910911
000330 48 af 14 3e 17 2a d2 bd 07 d7 da 3c f1 95 51 be
       0.1451999 -0.10261934 0.026713861 -0.20467354
000340 0e 4d 6e 3d be cf 58 be aa 6d 86 bd d5 fe d0 3d
       0.058178954 -0.21172997 -0.065638855 0.10204855
000350 79 ab ce 3d 8f af 24 3d be 50 05 bd 4b 76 8a bd
       0.100912996 0.04020649 -0.032547705 -0.06760844
000360 ae 15 23 3e eb d1 53 bd 35 80 03 bf 5e 98 13 bf
       0.15926239 -0.051713865 -0.51367503 -0.5765437
000370 b2 96 1e 3e 98 43 c9 3e c3 39 27 3e 76 c8 99 3d
       0.15487173 0.39309382 0.16330628 0.07508938
000380 62 af 28 3e 42 3e 79 3c 0d 9d 16 3e d0 a5 4e be
       0.16473153 0.015212597 0.14708348 -0.2018044
000390 e5 f7 a0 3e e5 98 37 be 7f 69 0f 3e be c8 3b 3c
       0.3143913 -0.17929418 0.14005087 0.011461435
0003a0 f3 ae 26 be 28 db 30 3e b8 da 3b bd 8a 7c f8 3c
       -0.16277675 0.17271101 -0.045862883 0.030332822
0003b0 94 00 23 3c 15 b5 36 be e0 ef 92 be 74 17 4b bd
       0.009948868 -0.17842515 -0.28698635 -0.049582914
0003c0 bd 75 88 bd 71 4e d4 bd 66 a5 db 3d 3c 36 19 3e
       -0.06663082 -0.10366524 0.107249066 0.14962095
0003d0 fa 44 9a 3e 69 fd 12 3e 64 af dd bd 03 30 52 be
       0.3013075 0.14354481 -0.10824469 -0.20526128
0003e0 d6 82 ae bd 58 c6 60 bc 24 0b 3d bf b9 04 46 3e
       -0.08521049 -0.013719164 -0.73845124 0.19337739
0003f0 6a 49 d5 3e 04 be 4e bd 6c b2 85 be 88 1c a9 bd
       0.41657573 -0.05047418 -0.26112688 -0.08257395

fc0.bias f4 [256]
000000 c7 65 9d 3d b8 b8 83 3d 0f 92 8e 3d 96 b5 61 3d
       0.07685428 0.06431717 0.06961452 0.055104814
000010 d7 6d 76 3e 69 34 94 3d 2c 66 aa 3d b7 4e c8 3e
       0.24065338 0.07236559 0.08320269 0.39122555
000020 ab 0b 21 3e 76 48 6d 3d e6 09 c1 bd 8e 77 20 3e
       0.15727107 0.057930432 -0.09425716 0.15670606
000030 07 90 af 3d 4a be ba 3d 20 25 67 bd db 3d 05 3e
       0.08572393 0.09118326 -0.05643189 0.13011877
000040 82 b4 6b 3c 7f 2b 96 3d 3c 17 8c 3d b5 9f 45 3e
       0.014386298 0.07332515 0.06840369 0.19299205
000050 6a d3 8a be 06 15 80 3d 41 b3 89 3d 9e 6b 8d bc
       -0.2711442 0.0625401 0.06723643 -0.01726323
000060 23 cf 88 3e 62 5e b0 3d a9 f6 05 3f 04 3d a5 3e
       0.26720533 0.08611752 0.523295 0.32273114
000070 21 11 c3 be c3 bc 19 3e 7f b5 a1 3d 03 9b ec 3e
       -0.38099006 0.15013413 0.07895946 0.46212015
000080 b1 c2 b6 3d d8 fc 47 3e 87 41 ec 3e 91 f4 bc 3e
       0.08923853 0.19530046 0.46143743 0.3690534
000090 19 57 96 3d d6 70 fb 3e 13 a0 95 3d a9 9d 91 3d
       0.07340831 0.49109524 0.07305922 0.071101494
0000a0 34 a8 84 3e 07 a9 a8 3d 7a da b5 3e 53 17 4c 3e
       0.2590958 0.082353644 0.35518247 0.19930772
0000b0 15 10 a3 3d 5f 8e cf 3e 43 c2 6c 3e c5 94 b0 3d
       0.07962052 0.40538308 0.2312098 0.086221255
0000c0 b6 13 8e 3e e1 93 19 3e 2a 20 a7 3d 4c f2 2d 3e
       0.27749413 0.14997818 0.08160432 0.1698696
0000d0 54 62 aa 3d b8 b3 77 3c c9 7c fa 3e 96 94 95 3d
       0.08319536 0.015118532 0.4892333 0.07303731
0000e0 5d e9 82 bd 26 57 99 3e 58 e9 b6 3d 30 94 38 be
       -0.06392167 0.299493 0.089312255 -0.18025279
0000f0 fa 41 8d 3e 64 6c 8a 3d 37 4e 0e bd b7 cb b0 3c
       0.275894 0.06758955 -0.03474256 0.021581514
000100 eb 68 a6 3e 6e ba 07 3e db 15 a3 3d 31 23 bb 3e
       0.3250192 0.13254711 0.07963153 0.36550286
000110 c1 aa 0d 3f 32 69 09 be 7c 71 81 3e ee c6 29 be
       0.55338675 -0.13419035 0.25281894 -0.16579792
000120 6c 4c 9e 3e ae 74 42 3e 9b f0 c2 3e 8e 85 a0 bd
       0.3091768 0.18989822 0.38074192 -0.078379735
000130 bb 65 cf 3e b4 ec 95 3d e8 55 79 3c 47 8d b3 3d
       0.40507302 0.07320538 0.015218236 0.08767181
000140 61 20 a5 3d 94 be 73 3c 28 fa 30 3f 0a fd 8c 3d
       0.080628164 0.01487698 0.6913171 0.06884201
000150 c9 0c a4 3e 3a 49 f8 3e e7 e3 10 3e c7 78 f0 bc
       0.32041004 0.48493367 0.14149438 -0.029354466
000160 51 4d 4d 3e d8 2e a0 3d a5 6e b1 3d 6b 74 d4 3e
       0.20049025 0.07821435 0.08663682 0.4149507
000170 41 64 ac 3d 11 e6 b3 3e 72 bc 86 3d 86 98 e9 bd
       0.084175594 0.35136464 0.06578912 -0.11406045
000180 91 e8 96 3d b7 fc af be 64 10 22 3d 08 96 b0 3d
       0.07368577 -0.34372494 0.039566413 0.08622366
000190 f9 92 f0 bd de 93 93 be 73 72 d6 3e 90 7d ed bc
       -0.11746783 -0.2882375 0.41884193 -0.028990537
0001a0 9e b1 b5 3d 55 d3 13 3e 58 38 82 3d 61 32 a3 3e
       0.088717684 0.14436086 0.06358403 0.31874374
0001b0 fa 40 d9 3e 47 19 93 3d fa d4 e5 bd d9 ee a2 3d
       0.42432386 0.07182556 -0.11222263 0.07955713
0001c0 c4 2c 9c 3d 1f b7 af be ce e2 48 3e 83 56 71 3d
       0.07625726 -0.34319398 0.19617769 0.058920395
0001d0 b4 fc 2e 3e d9 3e 9c 3d fc bd a1 3d 17 b5 99 3e
       0.17088586 0.07629175 0.07897565 0.30020973
0001e0 a5 54 b9 3e e8 da 19 be 8f cc e8 3d c3 d4 b2 3d
       0.3619739 -0.15024912 0.113671415 0.08731987
0001f0 6d bf 3f 3e 6d ce 5a 3e e0 c0 db 3e c4 fa de be
       0.18725367 0.21367808 0.4292059 -0.43550694
000200 60 64 ff 3d 53 bd 78 be 47 36 55 bd a0 95 df 3e
       0.12470317 -0.24290971 -0.052053716 0.43668842
000210 7e e6 8b 3d 3d b2 0a 3d fc ff a2 3d ce 14 90 3d
       0.06831072 0.033861388 0.079589814 0.07035218
000220 f2 47 ac 3d af dd 7d 3d 6b d9 b0 3d 28 36 9d 3d
       0.0841216 0.061978992 0.08635219 0.07676345
000230 0c 72 08 3e 57 d9 be 3d 58 20 15 bf 8b 66 8c 3d
       0.13324755 0.09318798 -0.5825248 0.06855496
000240 05 ef 0b 3f 77 cb bb 3d e9 f6 bc 3e 0b b9 a0 3d
       0.5466159 0.09169667 0.36907127 0.07847794
000250 f8 a9 8f 3d 8c fd b0 3d 93 87 8e 3d 7b da af 3d
       0.07014841 0.0864211 0.069594525 0.08586594
000260 b9 6b d2 3e 8a 64 e3 3d 62 8c ac 3d 94 09 8a 3e
       0.4109781 0.11103161 0.084252134 0.26960433
000270 3a 90 c3 3d 0f 9e ea 3e 40 8a c9 bd 58 26 b7 3d
       0.095489934 0.45823714 -0.09840822 0.0894286
000280 3c 90 a3 3d e0 aa 9b 3d 12 53 8c 3d 13 6e 7f bb
       0.07986495 0.07600951 0.06851782 -0.0038975521
000290 88 21 d8 3e 80 62 19 be ae 3f b4 3d 67 20 25 3e
       0.42213082 -0.14978981 0.088012084 0.16125642
0002a0 09 66 73 3e a0 7c 78 3d e7 da 84 3d 1a 4f ac 3d
       0.23769392 0.060665727 0.06487065 0.08413525
0002b0 2c b2 50 be 34 3d 71 be ac fd 05 3f 44 c2 b1 3d
       -0.20380467 -0.23558503 0.523402 0.08679631
0002c0 59 5b d6 3d 49 57 86 be 26 81 8d 3d 5b bd a9 3d
       0.10466642 -0.26238468 0.06909399 0.0828807
0002d0 9d 72 87 bc 0c cd ac 3d 74 0d 75 3e 67 f6 ed bd
       -0.016534144 0.08437547 0.23930913 -0.11619263
0002e0 25 36 8e 3d bd 0f a7 3d 9d 9b c9 3e f4 9e 07 bd
       0.06943921 0.08157299 0.39376536 -0.033110574
0002f0 ef 96 89 bd 6c 44 c0 3e 4a d3 59 3e 73 ae de bd
       -0.067182414 0.37552202 0.21272007 -0.10873117
000300 27 93 88 3d 7c 61 69 3d 51 b4 73 3e 19 7e f0 bd
       0.06668692 0.056977734 0.23799254 -0.11742801
000310 0b 7b 66 3e 11 5f e6 3e 84 34 77 be 2c b2 1a 3e
       0.22507875 0.44994405 -0.24141127 0.1510703
000320 f1 de b0 bc 08 0e ae 3d ca 62 d1 3e 42 b4 b1 3a
       -0.021590682 0.0849877 0.40895683 0.0013557749
000330 bc a9 9d 3d f8 c7 19 3e 09 53 57 3d 6b fd 9c 3d
       0.0769839 0.15017688 0.052569423 0.07665523
000340 c9 7a 1e 3a ad c3 9c 3d 0c ed 59 bd e3 77 7a 3d
       0.0006045518 0.0765451 -0.05320458 0.06114949
000350 de 81 77 3d 47 1a a5 3e fe 18 2b be 18 7d 80 3d
       0.060426585 0.3224661 -0.16708753 0.0627386
000360 f0 e2 f9 bc 69 21 af 3d 55 ef 86 bd df 76 50 3e
       -0.03050372 0.08551294 -0.06588618 0.20357846
000370 87 0e ad 3d d5 3e 89 3d 18 e7 9e 3d 0d 32 90 3e
       0.084500365 0.067014374 0.077589214 0.28163186
000380 83 6f 96 3d 4e a1 8a 3d a6 77 d9 3e c5 d5 9d 3c
       0.07345488 0.06769048 0.42474097 0.019266972
000390 8c fa 9b 3d 9e a6 a7 3d da e8 00 3f 00 d9 8f 3d
       0.076161474 0.081860766 0.50355303 0.07023811
0003a0 cd cc cc 3d b6 6d 98 3d ce 88 b1 3d 88 70 63 3e
       0.1 0.07442801 0.086686715 0.22210896
0003b0 18 2e 4c 3e bc 8a 9d 3d 28 ae b1 3d cd cc cc 3d
       0.19939458 0.07692477 0.08675796 0.1
0003c0 7b c2 91 3d 4c 84 7f 3d c4 62 9f 3d 80 ab a2 3d
       0.07117172 0.062382028 0.0778251 0.07942867
0003d0 39 b7 83 3d 02 f9 29 3f 6a a5 2d be b8 a9 af 3d
       0.06431431 0.6639558 -0.16957632 0.08577293
0003e0 0e 4e a4 3d 48 0a 6a 3e a0 33 92 3e 8b 62 57 bc
       0.080227 0.22855484 0.28555012 -0.013146053
0003f0 78 5e 8f 3d ff 43 8b 3d 5b f6 9a 3d c2 9c 8d 3d
       0.0700044 0.068000786 0.0756652 0.06914665

fc1.weight f4 [256, 256]
000000 09 22 0b 3c 73 2b fd bb d4 47 d9 39 5b ff 5b bd
       0.008492001 -0.007726127 0.00041442981 -0.053710323
000010 15 55 3d bd 05 e2 12 bd 2d 08 d0 3b f4 a2 49 3e
       -0.04622372 -0.03586008 0.006348631 0.19691068
000020 f7 26 d1 3c 38 e7 e6 be d8 8a 77 be cb b0 e7 3d
       0.025531275 -0.4509828 -0.24174058 0.113130175
000030 61 25 da 3a 17 8d 23 bc a4 90 b3 be e3 82 d8 3b
       0.001664322 -0.009982369 -0.3507129 0.0066074
000040 9f 8d 03 bf 05 54 63 3d 12 68 6b bc fc e2 1b bf
       -0.5138797 0.05550005 -0.014368074 -0.60893226
000050 26 76 10 bf 1c 06 06 bd 1b 25 d0 be 1f 87 dd bd
       -0.5643028 -0.03272067 -0.4065331 -0.10816788
000060 c5 4b 94 bd 5d 48 34 3d ac 03 ab 3d 50 03 57 3d
       -0.072410144 0.044014324 0.0835031 0.052493393
000070 c0 32 97 3d 50 63 07 bd da c3 c0 3b f9 b9 57 be
       0.07382727 -0.033053696 0.0058827223 -0.21067037
000080 96 63 88 3c fa 72 6d 3e a2 a0 c4 bd e1 4e 02 bc
       0.016649049 0.23188391 -0.09600951 -0.0079533765
000090 0d 64 45 3d be fe cc 3d bf 46 9f 3c fe a6 4c bc
       0.04819112 0.10009526 0.019442914 -0.012490986
0000a0 6e 93 c7 bd 19 5b 0b 3b 88 38 00 bd ae 2e 47 be
       -0.09744917 0.0021264015 -0.031303912 -0.194514
0000b0 a6 00 5f bd c5 1a 8e 3e 52 a9 14 bf 83 e7 79 bd
       -0.054443978 0.277548 -0.5807086 -0.061011802
0000c0 82 c2 e2 bd 56 5e 9d bd d7 32 89 bd bf 7b 08 bf
       -0.11072256 -0.07684009 -0.0669915 -0.5331382
0000d0 d2 64 7d 3d f1 d6 1f 3e c7 3d 81 be 72 fa 97 bc
       0.061863728 0.15609337 -0.25242445 -0.018552039
0000e0 8a db 67 be 60 8d a6 3d ef 45 bf ba d4 43 ae be
       -0.22642341 0.08132434 -0.0014592985 -0.34036124
0000f0 da 3e b0 3c d9 56 b2 3a 81 ba 36 bf 48 b4 ed be
       0.021514345 0.0013606205 -0.7137833 -0.46426606
000100 ed b4 03 bd 49 ca 7e bc 5c 2f 3d 3d 6d 18 41 3d
       -0.032154966 -0.015551158 0.046187744 0.047142435
000110 76 89 64 be 36 99 05 be a8 27 aa be 9c 9a 6f 3e
       -0.22318062 -0.13046727 -0.3323338 0.23398823
000120 b5 43 57 bd 6a 3e a8 be 53 7a ec bc 68 72 42 3e
       -0.052554805 -0.32860118 -0.028866922 0.18988955
000130 af 7f 13 3d 03 8c bc bc 12 b1 06 3c 1c 86 29 bd
       0.03601044 -0.023015982 0.008220928 -0.041387662
000140 cc d5 6c bd 32 bd 01 bf 3f f0 16 bf d2 ed 9d 3d
       -0.05782108 -0.50679314 -0.58960336 0.07711376
000150 ce 25 c2 3d 1f 87 f6 bd 0a b6 9c be c6 2c 80 3d
       0.09479867 -0.12037491 -0.30607635 0.0625854
000160 0b f4 95 be 92 17 5d bd 42 c3 31 3d 15 a5 2d bd
       -0.29287753 -0.053977557 0.043399103 -0.042393763
000170 58 c5 8b bc 68 ed 6f bd ec 67 0a bf df 18 07 bf
       -0.017061874 -0.058576018 -0.5406482 -0.52772325
000180 e0 fb 8e 3d d2 34 65 3e 98 0b 57 be db ee fc bc
       0.06981635 0.2238343 -0.21000516 -0.030875614
000190 32 20 e3 bc 6d ea 7a bd 28 4c d2 bb 14 07 d0 3c
       -0.027725313 -0.061258722 -0.00641777 0.025394
0001a0 14 b8 90 3c b6 9d 05 3d f1 e2 66 bd 4e 36 05 3e
       0.0176659 0.032621108 -0.056368772 0.13008997
0001b0 75 89 bb be c4 cc c0 bb 5e 6a a4 bd 38 9b 27 bc
       -0.3662831 -0.005883785 -0.080281004 -0.010229878
0001c0 1c 54 2e be 71 ba 18 bf d0 78 be bd d2 52 45 3e
       -0.17024273 -0.59659487 -0.09300387 0.19269875
0001d0 b8 b6 87 3d d8 7f 2f 3d c3 fc 81 3c d3 b0 08 be
       0.06626648 0.04284653 0.015867596 -0.13348703
0001e0 de 37 13 bd 7f 77 31 be 1a 2e 0a be 68 c6 e4 3c
       -0.03594195 -0.1733074 -0.13494149 0.027926639
0001f0 5d b9 63 be cb 35 5c be 5e 27 5b 3d ce 7c 40 3e
       -0.22238679 -0.21504895 0.05350434 0.18797609
000200 89 b4 ab be 24 6b 25 bf a9 8f 2c 3e 37 ba 2e 3e
       -0.33536175 -0.6461661 0.16851677 0.17063223
000210 8e b8 36 bd ac 24 9f bd 50 51 6d 3c 5b 5c 86 bc
       -0.0446096 -0.077706665 0.014484718 -0.01640146
000220 f0 e1 95 3b 6e b5 99 bd 69 ff c8 bc 24 60 a1 3b
       0.004574053 -0.07505308 -0.024535852 0.004924791
000230 52 cb 62 3e 2a e0 0a bc 98 ec 31 bc 96 92 23 3d
       0.22147873 -0.008476296 -0.010859631 0.039934717
000240 40 f9 32 be 87 2d 8a bd 69 d6 df be b6 b8 c6 3c
       -0.17477894 -0.06746965 -0.4371827 0.024257999
000250 2b 4b 66 bd 45 ce 33 bb 52 c6 21 3d fb 8a 85 3c
       -0.05622403 -0.0027436179 0.039495774 0.016301623
000260 96 3c aa 3e 1e 81 d5 be ae eb 37 3d dd 7e 06 bf
       0.33249348 -0.4170007 0.044902496 -0.5253733
000270 ac 1b 35 bf d8 ca 1e be 90 b8 bd bd b8 0e 32 3d
       -0.7074535 -0.15507066 -0.09263718 0.04347107
000280 65 99 dd bc d4 97 a9 bc c1 08 fe 3c 36 4e 92 3d
       -0.027050683 -0.02070228 0.031010034 0.07143824
000290 bd 2b 00 bf 0e 3b c0 3d ae 67 3b 3d 41 9a 2c be
       -0.5006674 0.09386264 0.045753174 -0.16855718
0002a0 7c b5 26 3e ca d7 05 3d ad 8e 40 ba 20 8c aa 3c
       0.16280168 0.032676496 -0.0007345479 0.02081877
0002b0 76 57 8e 3e 5c a1 93 be d8 bb bd be 19 2c bb bc
       0.27801102 -0.28834045 -0.37057376 -0.022848176
0002c0 8e 22 80 3e fd f4 d1 be b6 81 6f 3d 0d 6b 8b 3c
       0.25026363 -0.41007224 0.05847331 0.01701882
0002d0 3b e0 1c bd b8 54 47 3c 02 6b ef 3d ba 1e 4f bb
       -0.03829978 0.012166195 0.11690332 -0.0031604008
0002e0 52 e0 41 bc 0d 26 1c bd 6d 7c f0 be 37 11 b3 3d
       -0.011833267 -0.038122226 -0.4696993 0.08743518
0002f0 d9 39 8b be da 24 ec bd 7f d8 e9 bd b4 7a b3 be
       -0.27192572 -0.115304664 -0.114182465 -0.35054553
000300 45 f4 45 bd a3 72 9b bd 0b 42 85 bd 55 8c 03 3e
       -0.048328657 -0.075902246 -0.06506737 0.12846501
000310 dd ef 33 be ee bb bb be 0a ed 40 bd 5c 9a 26 be
       -0.1757197 -0.36666816 -0.047101058 -0.16269821
000320 c5 f3 94 bc 9b d2 a1 3c 64 6e 4b 3c 57 39 44 bf
       -0.018182645 0.019753745 0.012416456 -0.76649994
000330 11 0d cb 3b 4f 4a a1 bd b4 87 b0 bd 59 f5 9c bd
       0.006196626 -0.07875501 -0.08619633 -0.07663984
000340 7c ff 38 be 02 21 ed 3c 14 33 56 bf 17 57 cc 3b
       -0.1806621 0.028946403 -0.8367169 0.006235968
000350 ca 61 a9 bc 3c 4a 1b be c3 c9 f0 bd 89 5d c3 bb
       -0.020676512 -0.15165037 -0.11757233 -0.005962078
000360 a0 e4 3b be c8 74 32 bc d5 5a c3 bd 43 95 88 3e
       -0.18348932 -0.010892101 -0.09538809 0.26676378
000370 53 53 16 bc 77 f8 7f bd 42 18 f3 bb 44 9a 33 be
       -0.0091751395 -0.062492814 -0.0074186632 -0.17539316
000380 0e e5 f7 bd 79 07 8f 3c 89 4b 43 be ac b5 84 3e
       -0.121042356 0.017459618 -0.19071783 0.25919855
000390 8c 25 52 bb 54 19 0d 3c 96 a4 0d bf 3a 68 6b bd
       -0.0032065837 0.008611996 -0.55329263 -0.057472445
0003a0 c4 a9 1d 3d 07 ca 6e 3d be 50 a7 bd 6c d6 04 bf
       0.03849198 0.058298137 -0.08169697 -0.5188968
0003b0 96 c2 de be 8c e5 21 3d a8 d8 2d 3d f6 bd 5c bd
       -0.43507832 0.039525554 0.042442948 -0.0538921
0003c0 e9 78 7a bd 32 58 4f bc c9 d5 3a 3d 22 fe 60 bd
       -0.061150465 -0.012655305 0.045614038 -0.05492986
0003d0 ff 9f 74 bd ac c9 73 bc 13 e6 8f be ab cc 59 3d
       -0.059722897 -0.014879625 -0.2810522 0.053173702
0003e0 7e e7 1b 3d 81 7e 9b bd fd 39 99 3e 73 e2 2e bf
       0.038062565 -0.07592488 0.29927054 -0.68314284
0003f0 3a 7a 8a 3c 38 ad 11 3d f4 ba f7 3c 23 de 66 bc
       0.016903985 0.035565585 0.030240513 -0.014091047

fc1.bias f4 [256]
000000 b2 82 60 3e a5 04 d5 3e 09 55 af bc 41 20 dc 3c
       0.21924856 0.41605106 -0.021402853 0.026870849
000010 a6 2e 92 be eb 43 15 3e da 56 a5 3d bd a1 08 3d
       -0.28551215 0.1457669 0.08073206 0.03335737
000020 02 13 40 3e 4b 99 2a 3e 07 6b 38 3e c5 0a 3f bd
       0.18757251 0.16660039 0.18009578 -0.04664113
000030 9a fe aa 3d 12 68 2d 3d 67 70 31 3d 01 55 e9 3d
       0.08349343 0.042335577 0.043320086 0.11393166
000040 e4 de 14 3e 3b 43 73 bc a2 62 9a 3e cc c6 09 3d
       0.14538151 -0.014847572 0.30153376 0.033636853
000050 6d 3f d2 3d f1 b8 59 3d 0e 5b 41 bd f8 79 cb 3b
       0.10266004 0.05315489 -0.047205977 0.006209608
000060 f0 e2 85 be 48 16 14 3d 4a 62 cb bc 3c 26 33 bd
       -0.26149702 0.03615406 -0.024827141 -0.043737635
000070 05 39 1e 3d ec 51 66 3b 4f 9e 0a 3e 74 fc a8 3e
       0.038628597 0.0035144044 0.13536952 0.33005106
000080 e7 00 33 3d 9a 27 b4 3e 22 66 4b 3d 37 49 bc 3e
       0.043702032 0.35186464 0.04965795 0.36774608
000090 3d 94 4e be 0b 97 31 be ea b8 ac 3d 39 d1 e7 bd
       -0.20173736 -0.17342775 0.08433707 -0.11319203
0000a0 36 65 d6 3c 6d ff 57 3d 73 15 cd 3d cf d8 dc 3d
       0.026171308 0.052733827 0.10013857 0.107835405
0000b0 8e d1 85 3d d3 ba e7 3c ac 6e 0a be 4a ff 97 3d
       0.0653411 0.028287327 -0.1351878 0.074217394
0000c0 fb d6 ab bb bc 41 36 3d 13 0b f4 bd 4a e2 31 3d
       -0.0052441335 0.044496283 -0.11916175 0.043428697
0000d0 e5 4b a2 3e 61 70 e6 3d 6e 25 50 bd 28 bf c1 3d
       0.31698528 0.11251903 -0.050816946 0.09460288
0000e0 b8 90 69 3d d2 08 9e 3d 28 b5 6b 3c e5 a6 c4 3e
       0.05702278 0.07716526 0.014386453 0.3840858
0000f0 b5 d2 bd 3c 27 78 84 bd 09 3a 51 3e a4 d5 89 be
       0.023171762 -0.0646823 0.20432295 -0.26920807
000100 21 1b 82 3d 62 68 13 3e db 50 1f 3e 8e 6d 20 3d
       0.06352831 0.14395288 0.15558188 0.03916698
000110 b2 ac 10 bd c8 60 4a be 1c 04 ef 3f 69 64 9b 3e
       -0.035320945 -0.19763482 1.8673129 0.30350044
000120 05 0c a0 bc 54 61 7b 3e 87 13 3d 3d 5d 7f 4e 3e
       -0.019536981 0.24548846 0.0461612 0.20165773
000130 4b fd b6 3e 39 bd 8f 3f 5e 76 47 3d 6c db 11 3e
       0.35740122 1.1229621 0.048696868 0.14243859
000140 77 63 50 3d 8a 3c 74 3e a2 27 07 bc 55 4c 64 3d
       0.050876107 0.23851219 -0.008249195 0.05573686
000150 87 cc 71 bd da ae e8 3d ba c8 44 be 29 c1 cd bc
       -0.059032943 0.11361475 -0.19217196 -0.02511652
000160 48 8b 69 3e 0a 74 d4 bc ce fa 92 3c 37 a0 0d 3d
       0.22807038 -0.025934238 0.017941859 0.03457662
000170 79 57 60 3c 31 94 76 3d cd af 00 3e c5 4e 65 be
       0.01369273 0.06019992 0.12567063 -0.2239333
000180 4f 75 0c 3d 2e 01 2d bb a9 ba 2e bd a7 48 55 3e
       0.03429156 -0.0026398408 -0.04265848 0.20828496
000190 dc 33 80 3d 51 99 7c 3e 58 1d b6 3e 01 6e eb bd
       0.062598914 0.2466786 0.35569263 -0.11495591
0001a0 60 eb 5f 3d 83 bd 7a 3d 2d 55 41 3d 47 af ed bc
       0.05466783 0.06121589 0.04720037 -0.029014243
0001b0 14 21 43 be a3 31 c1 bc 44 7a f3 3d e7 e2 e8 bc
       -0.19055587 -0.023583239 0.11888555 -0.028428508
0001c0 ad 1a c7 3e 9d 40 74 be e7 db 35 bd fd 01 e9 3d
       0.3888754 -0.23852773 -0.04439917 0.11377332
0001d0 dc a7 08 3e 91 bb 81 3e 2a de 8f 3e 2e 1e 96 3d
       0.13345283 0.25338414 0.28099185 0.07329975
0001e0 ef 61 52 bd 6e 0b 83 3e 40 61 4a 3e f6 17 eb bc
       -0.051362928 0.25594658 0.1976366 -0.028697949
0001f0 7a c4 ba bd 47 5c 2a 3e 31 e2 28 bd d0 25 22 3e
       -0.09119506 0.16636764 -0.041231338 0.15834737
000200 5a 71 ab 3d 9a cb 89 3d 6f 0c 27 bd bc d1 a5 3e
       0.083712295 0.06728287 -0.040783342 0.32386577
000210 af ea 5a bd 2a c8 5f 3e a0 34 24 3e 8c e5 a4 bd
       -0.053446468 0.218537 0.160357 -0.08051595
000220 33 9d fb 3d c3 4f c1 bd 85 ee 10 3d 62 de 27 3e
       0.12285843 -0.094390415 0.03538372 0.16393426
000230 80 48 81 be 17 c0 31 3d e7 e8 8f 3e 34 19 a6 3d
       -0.25250626 0.04339608 0.28107378 0.08110276
000240 92 f8 cc 3b 4a 58 45 3c ad 91 15 3d 40 c0 da 3d
       0.006255218 0.0120449755 0.03651588 0.106812
000250 3e 2b 05 3e 84 c1 85 bc 20 45 ea bc bf 47 4c 3d
       0.13004777 -0.016327627 -0.028597414 0.04987311
000260 f2 56 31 3d 7e b9 00 be d8 3d 36 3d 10 8c 95 bc
       0.043295808 -0.1257076 0.044492573 -0.018255264
000270 e5 cc 89 3d 3b b8 86 bd 3e 7c 32 3c 4c a5 70 3d
       0.06728534 -0.06578108 0.010893879 0.05875139
000280 34 86 40 be 23 0f be bd 5d 80 05 3e fc 99 8f 3d
       -0.18801194 -0.09280231 0.13037248 0.07011792
000290 f4 63 b9 3d d5 7e 09 3d 11 1b de bd a2 f8 b7 3b
       0.09052268 0.033568222 -0.10845006 0.005614356
0002a0 a7 22 cb bb 7e 00 77 bc 55 5c 20 3d 15 73 23 3e
       -0.0061991992 -0.015075801 0.039150555 0.15961869
0002b0 68 cb 1e 3d ec 46 dd 3c 33 79 dc 3e 28 42 cf 3c
       0.038768202 0.027011357 0.43061218 0.0253001
0002c0 c0 e0 56 3c be c6 05 be a3 df e8 3d f8 2c c9 3d
       0.013115108 -0.13064095 0.1137078 0.0982303
0002d0 b6 5a 6d 3e 80 27 26 3e 71 97 a4 3d c1 c9 66 bd
       0.23179135 0.16226006 0.08036698 -0.05634475
0002e0 40 25 27 3e c0 10 c2 3e d2 a6 14 bd 70 08 62 3d
       0.16322803 0.37903404 -0.036291905 0.055183828
0002f0 3a f2 16 3e e6 d0 b7 3d ae ef 61 3e df d5 9e 3c
       0.1474084 0.08975391 0.22064087 0.019389091
000300 c1 38 48 3e 9f b0 03 be c8 4b eb bc 4e 58 57 3d
       0.195529 -0.12860344 -0.028722659 0.05257445
000310 29 4a 89 3e 17 e5 15 3e 34 43 b4 3d 8b 0a 57 3e
       0.26814392 0.14638172 0.088018805 0.21000116
000320 07 e3 96 3d f0 fe 19 be 4f ba ff 3c 22 da db bd
       0.07367521 -0.15038657 0.031216769 -0.10734965
000330 8c 39 3a 3e 9c cb ec 3c eb 84 05 3d 11 82 fe 3d
       0.18186015 0.028905682 0.032597464 0.12427152
000340 cd 62 af 3d 87 04 d8 bd 9a f0 74 3d ca ce f5 3d
       0.08563767 -0.105477385 0.059799768 0.120023325
000350 8a 9b 0c 3e 67 66 2d 3e 9b 28 6d bc 11 02 15 bf
       0.13731208 0.16933595 -0.014475013 -0.5820628
000360 4c bb ba bd 0e eb 61 be 3d 1f 50 3e 7b 65 b4 bc
       -0.09117755 -0.22062322 0.20324416 -0.022021046
000370 25 61 95 3e f4 86 38 3d 18 0a 47 3d 5b 12 3f 3e
       0.29175678 0.045050576 0.04859361 0.18659346
000380 20 b5 2a 3e 5a f7 37 3e 3e 88 4b be 6d 33 c8 3d
       0.16670656 0.17965451 -0.19876191 0.09775434
000390 d2 20 89 3d 59 08 98 3d 69 3f f4 3d f5 35 db 3d
       0.06695713 0.07423467 0.11926157 0.10703651
0003a0 8b 1b d3 bc 6c 40 17 3e c7 e2 5d 3e c3 11 07 bb
       -0.02576997 0.14770669 0.2166854 -0.0020609952
0003b0 1e 48 14 3f c4 13 21 bd de ac 4b 3d e2 19 99 3e
       0.5792254 -0.03932549 0.049725406 0.2990256
0003c0 09 88 56 be 7c 55 84 3d 83 32 11 3d cd 7d 8c 3d
       -0.20950331 0.06461617 0.035448562 0.06859932
0003d0 4e 2b ce 3d c6 fd 41 be 04 75 1a 3d 25 da 17 3d
       0.100668535 -0.18944463 0.03770925 0.037073273
0003e0 b4 36 91 bd f2 6c 91 bd d9 3e 5c 3d 35 af 1b 3d
       -0.07090512 -0.07100858 0.053770874 0.038008887
0003f0 a2 16 c6 3d c8 29 5f be be d2 f8 3d d4 8b ad 3d
       0.096722856 -0.21793282 0.12149571 0.08473936

last_fc.weight f4 [3, 256]
000000 c7 5b 53 3f d0 74 1c 3f b6 7f de bd 01 f8 79 3b
       0.82561916 0.6111574 -0.10864203 0.0038142207
000010 ea 21 5d be 89 0a 0c bf 3d c9 e1 3d ca ce 77 be
       -0.21594968 -0.54703575 0.11024711 -0.24199978
000020 df 4f d9 3d 4f 43 ef bd cb 96 8e 3e ee 0b bd bd
       0.10610937 -0.1168276 0.2784942 -0.09230791
000030 e0 fa 2f bf a5 e3 eb 3e 1a 17 63 3c 3c 15 01 bf
       -0.6874218 0.46072116 0.013860488 -0.50423026
000040 e3 f1 d6 be 4b 50 9b b9 f9 65 28 3d fb 7a 7c be
       -0.4198142 -0.00029623727 0.041112874 -0.24656288
000050 33 2f b8 bd b8 b8 d2 3c 75 0c 29 3e 5f 82 b3 3e
       -0.089933775 0.025722846 0.16508658 0.35060403
000060 14 79 e5 be 12 cb 74 bd e0 80 8f be e8 85 f0 bd
       -0.44818938 -0.059763975 -0.2802801 -0.117442906
000070 46 43 25 bf 5f da 13 be dd b4 aa 3d f3 bb 82 3e
       -0.64555776 -0.1443877 0.08335278 0.2553402
000080 cd f8 90 3d 64 3f dc bc 2a 62 82 bc 44 cf 86 bc
       0.07078705 -0.026885696 -0.015915949 -0.016456254
000090 dc 2f 03 3d 0c 3c 48 3d 71 9a aa 3c ec c1 45 bc
       0.032028064 0.04888539 0.020825597 -0.01207016
0000a0 3e 9a 58 bb 33 52 14 bd d9 8e b6 bd 09 ca da bd
       -0.003305092 -0.036211204 -0.08913965 -0.106830664
0000b0 4e 4f 79 bc 71 da 50 3d f7 de 3c 3e 9f 42 62 3e
       -0.015216662 0.050989572 0.1844443 0.22095726
0000c0 c7 b9 49 be f1 b3 0a 3e ee 1a 07 bf c4 b0 cf be
       -0.19699775 0.13545205 -0.52775466 -0.4056455
0000d0 55 ed d4 3e 39 9b eb 3d fb 24 8e bd bb 44 ee be
       0.4158732 0.11504216 -0.06940647 -0.46536812
0000e0 97 aa 17 be 79 42 29 bd 1b c9 ae bc e1 cc 34 bc
       -0.14811169 -0.04132316 -0.021336129 -0.011035175
0000f0 7d 19 7f 3e 5a f4 18 be 7c cb b2 3e 84 22 06 bc
       0.24912067 -0.14936963 0.3492087 -0.00818694
000100 c7 5f 1a 3c 82 c4 e6 be ec e2 71 3d 01 3c 89 3c
       0.009422249 -0.450718 0.0590543 0.016752245
000110 ba 9d b2 be 54 ec cf 3e 1c 5b a1 3d 9d 98 42 be
       -0.3488596 0.40609992 0.07878706 -0.1900353
000120 0f e8 2f 3f 97 aa aa 3d ab 77 b6 3b 20 3a cc bd
       0.6871347 0.08333319 0.0055684648 -0.09972024
000130 17 35 04 be 0a cb 54 3d 39 54 94 3b b9 e1 4a 3d
       -0.12910877 0.051951446 0.0045266417 0.049531672
000140 d3 0f c9 be e9 6b 41 3d cb c8 13 3d 22 bc 38 3c
       -0.39269885 0.04722205 0.036080163 0.011275323
000150 88 df db 3e 76 62 88 3c b9 ad 11 be 8d cb f6 bd
       0.42943978 0.016648512 -0.14226426 -0.12050543
000160 94 3f 18 3e c7 ca 7c be 01 27 13 3d f5 42 41 3c
       0.14868003 -0.24686728 0.03592587 0.011795749
000170 01 16 ec be e6 89 6d 3c d5 5c bc 3d 6d 88 5f be
       -0.46110538 0.01449821 0.09197394 -0.21829386
000180 31 22 24 3d 39 e7 a3 be 94 ef 93 be 28 52 5c bd
       0.04007167 -0.32012346 -0.2889372 -0.053789288
000190 2d c9 19 be 71 d5 2e 3d 5f c6 0e 3e f5 f0 21 be
       -0.15018149 0.042684022 0.1394286 -0.15814574
0001a0 dd c3 3c bf 1f 09 15 bd d0 61 e4 bd d1 26 12 be
       -0.73736364 -0.03638565 -0.11151469 -0.1427262
0001b0 33 27 06 3e e5 1b 51 be 8b 57 a0 3d 81 e9 a1 3c
       0.13100891 -0.20420797 0.078291975 0.019764664
0001c0 ad 6e e8 bd 22 c1 2b 3d ec c8 27 3f 8f 2c d7 3e
       -0.11349235 0.041932233 0.6554096 0.42026183
0001d0 d9 aa ac 3d 24 2e 44 3d 9e b2 1a 3d 9b c6 99 3e
       0.08431024 0.047895566 0.037768 0.30034336
0001e0 cb 24 eb be c9 af d6 3d 51 85 4e 3d af e7 12 bf
       -0.45926508 0.10482747 0.05042011 -0.5738477
0001f0 a3 eb 06 be 8a 27 23 bf 59 ed 8a be 7f 1a 0a be
       -0.13175826 -0.63732207 -0.27134207 -0.1348667
000200 8d c6 c3 3d 7a 3a 98 bb 1d 8e 72 3e a4 19 44 3f
       0.09559355 -0.004645643 0.23687024 0.76601624
000210 cc b7 48 be 79 67 5b 3f 2c 53 6a bd 27 be e3 3d
       -0.19601363 0.8570476 -0.057208225 0.11120253
000220 fc 3f d0 bd 99 bb 9e 3d 64 b0 83 bb 62 cb 70 be
       -0.10168454 0.07750625 -0.00401883 -0.23515084
000230 44 92 dd 3d ef ab ea bc 38 0d 88 3e c9 1a 84 3e
       0.108189136 -0.028646437 0.26572585 0.25801685
000240 d0 3b 37 bd 1d 83 14 bf 65 72 8e bd ff b7 38 3e
       -0.044734776 -0.58012563 -0.06955413 0.18038939
000250 ea db 32 3f 8e 81 de be d3 98 b1 3d cd f8 8d 3b
       0.6986681 -0.43458217 0.08671727 0.004332638
000260 08 d0 82 be 9e 3c d1 be d1 21 d7 bd 3d c8 a6 bd
       -0.2554934 -0.4086656 -0.10504497 -0.08143661
000270 80 ff 7d bd 34 2e 87 3e ad 21 8d be 7f 1e 06 3e
       -0.062011242 0.26402438 -0.27564755 0.13097571
000280 09 fb ae be 42 39 d0 be 5a de cd bc 14 24 df bc
       -0.341759 -0.40668684 -0.02513044 -0.027238883
000290 fa 44 2c 3f 48 a8 3b be 27 9a a0 be 93 96 cd bc
       0.6729275 -0.18325913 -0.3136761 -0.025096213
0002a0 36 77 ad 3e 8a cb a8 3d be 8f 3f bd c2 d7 2b be
       0.33880013 0.08241947 -0.046767943 -0.16781524
0002b0 f3 e5 17 3d c7 5a 51 bc 90 bf cc bc d6 04 4d 3e
       0.03708453 -0.012777991 -0.024993688 0.20021376
0002c0 60 54 9c be 52 76 06 be ec 91 5c be f2 5c 50 3e
       -0.30533123 -0.13131073 -0.2154004 0.20347956
0002d0 c8 d4 50 be 2e 31 b4 be e0 8b 3c be 7a 37 a2 bc
       -0.2039367 -0.3519377 -0.18412733 -0.019801844
0002e0 63 ef 08 3e dd c7 91 3d 2d 22 05 be 5c 76 eb be
       0.13372569 0.07118199 -0.13001318 -0.4598874
0002f0 99 ea 45 3e 38 30 85 be e1 a0 f6 bd c5 c4 ff bd
       0.19327773 -0.2601335 -0.12042404 -0.12488703
000300 8c 9e dc 3d ee 40 0d be a9 ae 75 be 40 a5 8d bb
       0.10772428 -0.137943 -0.23992409 -0.004322678
000310 09 36 97 bd 11 17 bb 3d d8 e8 7c 3c 62 84 bd 3a
       -0.07383353 0.09135259 0.015436374 0.0014459009
000320 c0 57 d5 be 7b b1 81 3e 7e 76 ab 3e cd 87 8a bd
       -0.4166851 0.2533072 0.3348884 -0.06764183
000330 6f 3b 83 be ec f6 8a bd 2e 9d 92 3c a5 47 67 3e
       -0.25631282 -0.06785378 0.017897215 0.22585924
000340 99 80 e6 3d ef f5 1f bc 43 14 c0 3b c9 ad b0 3d
       0.11254997 -0.009763225 0.0058617904 0.08626897
000350 43 57 bc 3b 27 e0 01 be b1 5d 69 bd fe 37 09 ba
       0.005747707 -0.12683164 -0.056974117 -0.0005234479
000360 7e b9 80 3b 10 b3 c1 3d 98 28 ed 3d ff e1 d7 be
       0.0039283624 0.094579816 0.11580008 -0.4216461
000370 63 fc 89 3d 7e 01 69 bc 9d bb e9 bb ec d2 b8 3d
       0.06737592 -0.014221547 -0.007132961 0.09024605
000380 34 05 21 3e 22 1c 10 3f a5 e6 65 be e5 bc 9a 3d
       0.15724641 0.5629293 -0.22451265 0.0755556
000390 de e5 03 3d 9e 7a 78 bf 75 ae 6a be 40 07 2e bf
       0.03220164 -0.970621 -0.22918113 -0.6797981
0003a0 97 43 dc 3d 8a fa 8b be bb 8c 39 3d a5 21 b5 bc
       0.10755079 -0.27339584 0.045300227 -0.02211077
0003b0 7e a8 5e bd 8f 5f e6 3d 9d 67 df 3a 9c ca 02 3c
       -0.054359905 0.11248695 0.0017044429 0.007982876
0003c0 ab cb ac 3c ee 7a 54 bb fc f9 24 3c ef a7 0d bf
       0.02109321 -0.0032421905 0.010069367 -0.5533437
0003d0 ae f5 54 be 45 68 1e bf 75 77 d3 bb 36 be f8 3c
       -0.20796844 -0.6187785 -0.0064534494 0.030364137
0003e0 1c 4c 5f be 32 01 4c be 7b 68 a7 3d 49 cd af 3b
       -0.21806377 -0.19922331 0.08174225 0.005365048
0003f0 db e9 b7 3d 4e bf 4a bd be e1 3d 3f 72 5f 70 3d
       0.08980151 -0.04949885 0.7417258 0.058684774

last_fc.bias f4 [3]
000000 38 d5 86 3d 04 36 f2 bd 6f 6b 40 3d
       0.06583637 -0.11826709 0.046977457

last_fc_log_std.weight f4 [3, 256]
000000 c4 25 f1 3e e9 1a 11 3f cb d6 3d bd 26 e4 06 bd
       0.47099125 0.56681687 -0.04634742 -0.032932423
000010 92 91 ab 3d 91 d7 30 3e 27 9c 36 bc a0 52 8a bb
       0.08377375 0.17269732 -0.011145628 -0.0042212754
000020 25 ad f9 3c f3 c7 98 3c 78 ee ea 3d 43 d2 3d bd
       0.03047807 0.01865003 0.114712656 -0.0463431
000030 a2 02 20 3e 48 4e ba 3d 46 f9 11 3c 17 43 1c 3e
       0.15626004 0.09096962 0.008909529 0.15259968
000040 21 bd 8f 3e 0d 9e fb 3c b1 5d 47 3c 35 59 0a 3e
       0.2807398 0.030715013 0.012168334 0.13510592
000050 99 6a 89 3d 49 3b d5 3c a0 25 9f 3c 06 57 e7 bd
       0.06709785 0.026029246 0.01942712 -0.11295895
000060 5e 16 62 3d d8 c9 7d bc 94 72 0d 3c d9 8d 8b 3d
       0.055197112 -0.015490018 0.008633275 0.06814165
000070 66 eb 11 3e cb 24 22 bd 96 85 56 3d 92 16 c2 3d
       0.14249954 -0.03958587 0.05237349 0.09476961
000080 da 3c ea 3d d0 93 45 bd d2 e0 1c bd 65 08 af bd
       0.11437388 -0.048236668 -0.038300343 -0.08546523
000090 ea 2e 1e 3c e3 71 9b bc e3 da 9f bc 20 e7 12 3e
       0.00965474 -0.018975204 -0.019513553 0.1434598
0000a0 3e 62 50 3d ee 45 4a bd e0 95 30 bd c0 95 4b be
       0.05087494 -0.049383096 -0.043111682 -0.19881344
0000b0 5f fb cc 3c 24 76 e1 3c 47 d2 19 3e 3b 78 c8 bc
       0.025022207 0.027522154 0.1502162 -0.024471393
0000c0 27 97 8c bd 22 4a fc 3d a9 11 3e 3e ba b0 ba bd
       -0.068647675 0.12318827 0.18561424 -0.09115739
0000d0 32 32 3d 3e fb 89 63 bc 92 62 0e 3c ad 54 f8 3d
       0.18476179 -0.013887878 0.008690493 0.121255256
0000e0 fa f1 e1 bc a3 5d 7e 3c a2 2b a6 3c ae b8 25 3d
       -0.027581204 0.015525254 0.020284478 0.040459327
0000f0 0d 11 30 be f1 7c 33 3d af 3b c0 3e c7 9e 75 bc
       -0.17194004 0.043820325 0.37545535 -0.014991469
000100 f7 4b fd bc 70 8f 60 bc 33 08 13 3b 77 57 6b 3c
       -0.030920012 -0.013706073 0.0022435307 0.014364115
000110 a2 cb f9 3d 2e 72 2f 3e fe 9d 9b be 45 fe ec 3d
       0.12197043 0.171334 -0.30393976 0.115719356
000120 2e f6 23 3e 33 7a 43 3d 81 0b 54 3c 1b 95 53 3d
       0.16011879 0.04772396 0.012942196 0.05165587
000130 12 0a 71 bd ae 91 5d bc 0e 48 2f 38 fe 8c db bc
       -0.058847494 -0.013523502 4.1790357e-05 -0.026800629
000140 52 a4 40 bd b6 15 2e bd d9 61 3e 3d 05 5e b0 bc
       -0.047031708 -0.042501174 0.046480034 -0.021529207
000150 2a e8 c0 3e 99 59 c8 3d 24 21 8b 3c 67 75 b9 bd
       0.37677127 0.097827144 0.016983576 -0.09055596
000160 ea bb d1 bc f7 63 e4 bd bb 81 20 3d 44 15 97 ba
       -0.0256023 -0.11151879 0.03918622 -0.0011526723
000170 0e 2d eb 3d 6a 66 db 3d 14 5a bf 3d a3 9a 1d 3d
       0.11483203 0.10712893 0.09343353 0.03847755
000180 30 71 06 3d 43 9a 0c 3e ec e3 df 3d f0 65 d7 3c
       0.032822788 0.13730721 0.109321445 0.026293725
000190 d1 0d 11 be d8 27 fb 3c de b3 15 3d c5 3a 10 bd
       -0.14165427 0.030658647 0.036548488 -0.035212297
0001a0 26 ca 9d 3e 2d 2a 00 bd bd 5b fb 3c 33 5d 92 bc
       0.3081829 -0.031290222 0.030683393 -0.017866706
0001b0 32 35 47 3e 3c 34 41 bd 89 5a dc 3b ec e0 78 3d
       0.19453886 -0.047168955 0.00672466 0.060761377
0001c0 a1 2d 6d 3d 93 e3 16 be 34 79 3a 3e ef 70 6c 3e
       0.057904843 -0.1473525 0.18210298 0.23089956
0001d0 5d 22 53 3d fe 60 8d bc b7 7c 9d bb 5f 9f 85 3e
       0.051546443 -0.017258164 -0.004806127 0.26098153
0001e0 af 3b 51 3e f5 ca a6 3d 53 9e 1d 3c ac a8 36 3e
       0.20432924 0.0814418 0.009620267 0.1783778
0001f0 b1 0a 2c bd 26 22 95 3e 3f 3e 68 3e ea 22 d0 bd
       -0.042002384 0.29127616 0.22679995 -0.10162909
000200 76 0f 3a 3c 6b e9 99 bc cd 97 4d bd 2a ec c4 3e
       0.011356225 -0.01878806 -0.050193597 0.3846143
000210 74 fb a1 3b e5 d4 1e 3f 4e d6 48 bc 01 cd ac 3e
       0.0049433056 0.620436 -0.0122581255 0.33750156
000220 bf d4 b2 3c 7d fd c7 bc b0 40 2b bd 02 03 9f 3d
       0.02182996 -0.024412865 -0.041809738 0.077642456
000230 ec d7 8c 3c a8 0e 3b bd 99 8f 2f 3e ed 73 03 3e
       0.017192803 -0.045668274 0.17144622 0.12837191
000240 1c ce a2 3c d9 11 c6 3c d0 3d 27 be e6 ba e1 3d
       0.019873671 0.024178432 -0.16332173 0.11021976
000250 c5 e8 82 3e e9 d0 bd bc f3 37 43 3d 70 3f f6 bb
       0.25568214 -0.023170905 0.04766078 -0.0075148866
000260 c8 9c 67 3a 31 93 7e 3e 3e 88 1d bb a0 4f d4 bc
       0.0008835313 0.24860837 -0.0024037506 -0.025916874
000270 99 a2 45 bc 01 84 f1 bd a6 5f 26 3e 08 89 ee 3d
       -0.012062692 -0.11792756 0.16247424 0.116472304
000280 39 f0 f6 bc 70 06 10 3f dd dc 93 3d bf fb c8 3b
       -0.030143844 0.5625982 0.07219861 0.006133526
000290 15 6f d7 3e ed 11 10 3d e0 2c 92 3d 34 61 54 bd
       0.42076936 0.035173345 0.071374655 -0.051850513
0002a0 ce 8a a4 3d 9d a6 1f 3e 5e da 18 3d 79 4c 87 bd
       0.080342874 0.15590902 0.037317626 -0.06606383
0002b0 e2 a7 29 bc 9d 52 91 3b 2a 05 d4 bd 2b 99 1c 3e
       -0.010354968 0.004434897 -0.103525475 0.15292804
0002c0 92 a5 36 be ec 12 26 3d 04 c8 a9 3d 34 67 68 3d
       -0.17836598 0.04054539 0.08290103 0.056739047
0002d0 d3 0c 02 3d 18 4a 6d 3d 13 e5 f5 bd 3d 6e a9 3b
       0.03175051 0.05793199 -0.12006583 0.005170612
0002e0 fa 4e a5 3d 5b 8a 4f 3d 4b b1 82 bd df ad cd bd
       0.08071704 0.050669055 -0.06381472 -0.10042929
0002f0 c7 01 f6 bd f0 18 ac 3d 53 62 32 bd 2d 02 11 bd
       -0.12012058 0.08403194 -0.0435508 -0.035402466
000300 2e d6 8c 3d 00 2c 8b bd 5d a6 88 3d ca ce 80 ba
       0.06876789 -0.06795502 0.06672356 -0.0009827253
000310 24 25 7a bd fb a6 14 3e 03 5d 87 3e 72 43 a4 bd
       -0.061070576 0.14516823 0.2643815 -0.08020677
000320 19 42 6c 3d 15 50 12 3e 6f b1 8c bd 04 70 d9 3c
       0.057680223 0.14288361 -0.0686978 0.026542671
000330 c2 5f 62 3d 56 e4 90 ba 16 15 9b 3d 82 cf 41 3e
       0.055267103 -0.0011054378 0.07572381 0.18926814
000340 b3 b8 95 3d 6a ab f3 3b 13 4d 02 3b e9 b4 fd 3c
       0.07310619 0.0074362056 0.0019882366 0.030970054
000350 08 63 0a 3d 34 4f 13 bc c8 ce 9a 3d 4f 80 f8 3b
       0.03378585 -0.008991051 0.07558972 0.007583655
000360 6e 5d d5 3d 0f 0e 4f bd 47 9b 89 bd 8f f7 43 3e
       0.10418211 -0.050550517 -0.0671907 0.19137405
000370 37 d5 2a 3d 3c 32 18 3c 71 26 ce bc 1b 8f 35 be
       0.041707244 0.009289321 -0.025164815 -0.17730372
000380 20 83 34 bd 29 88 b4 3e 8b 82 2b bd e4 ba 02 bd
       -0.044070363 0.35260132 -0.041872542 -0.031916514
000390 5d cc 78 3e 4e 99 6c 3e 01 c5 27 3e 32 7a 18 3e
       0.24296708 0.23105356 0.16383745 0.14890364
0003a0 9d 8a 7d 3d a1 bc 0d 3e ea c8 95 3d 55 b8 cb bc
       0.06189977 0.13841487 0.07313712 -0.02486817
0003b0 57 4f d1 bd 6e b3 ff 3d 01 05 3f 3c 90 3d f4 bc
       -0.10220211 0.12485395 0.011658908 -0.029814512
0003c0 b2 5b 02 bb fa 1a 4c 3c c7 18 46 bc 1f f6 6f 3e
       -0.001989108 0.012457604 -0.012090868 0.23433731
0003d0 20 27 a5 3b 16 b8 0c 3e 78 9c 88 bb b5 69 5f 3c
       0.0050400645 0.13742098 -0.004169043 0.013636042
0003e0 16 25 17 3e 9f b8 d9 3d 93 bc 8e 3c 0f 95 d8 3d
       0.14760241 0.10630917 0.017423904 0.10575306
0003f0 f2 3d 27 3d 73 a5 ac bb e9 d1 af 3e 79 37 81 3c
       0.04083056 -0.0052687465 0.34339836 0.015773522

last_fc_log_std.bias f4 [3]
000000 e4 08 01 c0 b6 7a 05 c0 a8 13 f5 bf
       -2.0161676 -2.0856147 -1.9146624
