models/Env1/PDSRL_256_A5_S1_P/local_episode_2400_reward_200.000000.pt (torch, 297564 bytes, 8 tensors)

fc0.weight f4 [256, 23]
000000 fb e0 e9 3c 99 f6 8e bd e9 0d cc 3c 5a 56 ff bc
       0.028549662 -0.069806285 0.024908977 -0.031169105
000010 52 1b 0b 3d 91 9d 80 bd df 89 5b bd 54 c2 56 3c
       0.0339616 -0.062800534 -0.05359828 0.013107855
000020 57 3a 8e bd 6b a6 91 bd 05 cc e9 3b e7 c5 4c bd
       -0.06944721 -0.0711182 0.0071349167 -0.049993422
000030 66 33 5e bd 0a c6 22 bd b9 5f 24 bd f0 02 8a 3c
       -0.054248236 -0.039739646 -0.04013035 0.016847104
000040 a0 48 a5 bd 5f 90 c8 bc 3a 2a 10 3d b7 50 80 bd
       -0.08070493 -0.024482904 0.03519652 -0.06265395
000050 7f ab 58 3d a4 01 18 bc 36 36 a5 3c f3 1f d4 bc
       0.052897926 -0.009277735 0.020167451 -0.02589414
000060 8f 86 08 3d 15 5f 43 3d d2 0e 03 3d 46 a9 7b bd
       0.03333145 0.0476981 0.031996556 -0.06144073
000070 6e 93 c2 bd b6 c1 17 bd 77 61 c6 bd 3b 43 99 bd
       -0.09500776 -0.03704997 -0.09686559 -0.07483526
000080 68 1d a0 bd 72 dc 8e bd ac ca 04 be d9 f8 1f bd
       -0.07818109 -0.0697564 -0.12967938 -0.03905568
000090 d5 5e ee bd ce 3c 2b bd f3 42 27 3d 78 19 2f 3d
       -0.116391815 -0.041806035 0.040835332 0.0427489
0000a0 b0 65 aa bc 7c 4a 98 bd 27 7b 02 3d c3 8a 37 be
       -0.020800442 -0.07436082 0.03185573 -0.17924027
0000b0 49 14 34 3e c2 80 27 be b4 a8 14 3e e7 08 21 3d
       0.17585863 -0.16357711 0.1451748 0.03931513
0000c0 a0 9e 3a bd d4 2a f6 bd 85 81 75 3c 72 b4 19 bc
       -0.045561433 -0.120198876 0.014984493 -0.0093814
0000d0 9a 17 d2 3d 2c d1 4b 3d 47 f2 ac bd 81 35 11 be
       0.10258408 0.04976003 -0.08444648 -0.14180566
0000e0 2f 11 0e be a4 80 17 3d a1 73 b0 3c c2 c3 8f 3d
       -0.13873743 0.036987916 0.021539511 0.0701976
0000f0 ea eb 95 3d f8 8d 03 bc 61 c9 7f 3c c2 21 1f bd
       0.07320388 -0.008029453 0.015611977 -0.038850553
000100 78 28 8e bd 95 b1 51 bd 12 36 9f bf 32 93 c0 bc
       -0.069413126 -0.051194746 -1.2438376 -0.023507688
000110 a4 82 57 3d 66 ca 1c bd 35 7c 21 bd 17 fd e0 3c
       0.052614823 -0.03827896 -0.039425094 0.027464433
000120 1e 7e 1c 3e 74 f7 96 bb 72 9c 35 be 63 8c a5 bd
       0.15282485 -0.0046071354 -0.1773546 -0.08083417
000130 48 d9 0d be 6e 8d 92 bd a5 1e 03 bd e4 31 a1 3d
       -0.13852417 -0.07155882 -0.032011647 0.07870844
000140 a2 76 80 3d 93 86 8b 3d c7 6c 76 3d e4 76 52 bd
       0.062726274 0.06812777 0.060162332 -0.051382914
000150 de f9 62 bd f5 77 b7 3d 61 5b 3b 3e 88 64 df 3c
       -0.055414073 0.08958427 0.18296577 0.027269617
000160 15 4b 93 bc cb a3 f1 be 8e 01 4f 3f 30 24 0e bf
       -0.017980138 -0.47195277 0.8086175 -0.5552397
000170 3a 6b 9f 3c 82 ce 0e bc 56 16 a2 bd ea b7 db bc
       0.01946031 -0.0087162275 -0.079144165 -0.026821095
000180 29 1b 05 3d 49 f0 29 3d a6 b4 39 bd ad 83 89 bd
       0.032496605 0.04148892 -0.045338295 -0.06714568
000190 e7 29 3d bc 31 41 06 3d 81 c5 c0 3c e7 a8 3f bd
       -0.011545635 0.032777015 0.023531677 -0.046791937
0001a0 82 54 bc bc ea c6 68 3c 61 e3 85 bd 5e 5f 46 3b
       -0.022989515 0.014207581 -0.0653751 0.0030269246
0001b0 5c 32 78 bd 46 d5 94 bd 85 1f 9d bd 6d 8c 19 3d
       -0.0605949 -0.07267241 -0.076720275 0.037487436
0001c0 5e 4a 17 bc 02 67 9b bc da 55 e3 3c 7c ab 6d bb
       -0.009234039 -0.018970016 0.027750898 -0.0036265543
0001d0 2a be 06 3a 77 86 0c 3c 5a 6e 73 bd 77 ed 3d 3d
       0.0005140031 0.008576981 -0.05943141 0.046369042
0001e0 63 e4 4c bd 4f 6a 53 bd b9 cf 41 3d bf 8b 78 bd
       -0.050022494 -0.051615056 0.04731724 -0.060680147
0001f0 0c 5d 83 3c 89 1e 07 3b f7 05 f2 3c 61 b8 92 bd
       0.01603558 0.0020617566 0.02954386 -0.07164074
000200 5d 2c 27 bd 81 73 2d 3d 89 7b 43 bd 1f 07 88 bd
       -0.040813792 0.04234648 -0.047725234 -0.06641983
000210 ba 13 50 bd 79 9a 8d 3b 32 3b 47 bc 8f d4 9f bc
       -0.050800063 0.004321393 -0.012160109 -0.019510536
000220 a3 17 68 3c d4 ca 80 bd f6 a0 cc bc c7 e0 ce bc
       0.014165792 -0.062886864 -0.024979096 -0.025253667
000230 da f3 9f bb ab 79 6e 3c 9e 44 47 bd 34 ed 95 bd
       -0.0048813643 0.014555375 -0.048649423 -0.073206335
000240 ca 8e 0c bd 40 96 7b bd f4 69 22 3d 3c 99 27 bd
       -0.03431586 -0.061422586 0.039651826 -0.04091762
000250 a0 aa 61 bc 16 e5 66 bd 6c f7 04 bd 7d 3c 44 bd
       -0.01377359 -0.056370817 -0.032462522 -0.04790925
000260 b8 00 09 bc 98 b2 20 3d ba 7f 92 3c 4c 89 4f bd
       -0.008361988 0.03923282 0.01788317 -0.050668046
000270 d0 0d 68 bd 3d 33 30 bd 19 03 f3 bc 7a 97 e6 3c
       -0.056653798 -0.043017615 -0.029664563 0.028148402
000280 09 4d d5 bc be 17 23 bd 4a a6 dc bd 08 a2 14 bd
       -0.02603771 -0.039817564 -0.107739046 -0.036287338
000290 1c 5f 5f bd 1d 8d 25 3c bd 4f cd b8 f1 02 cc 3d
       -0.054534063 0.010104445 -9.790014e-05 0.099614985
0002a0 a3 55 ff 3d 3a bc 5a 3b 69 77 c8 3b 32 be a5 bc
       0.12467506 0.0033376352 0.0061177504 -0.020232294
0002b0 1e 65 80 bd db db b1 bc 65 1c 62 3c ef 30 68 3d
       -0.062692866 -0.02171128 0.013800715 0.05668729
0002c0 53 9b 05 bd bb aa 12 be fb e3 9b bd 99 91 ca bd
       -0.03261883 -0.14322941 -0.07611843 -0.09891052
0002d0 43 18 c3 bd 29 b1 c9 bd eb 2d 8d 3f 92 68 3f 3d
       -0.09526112 -0.09848244 1.1029638 0.046730585
0002e0 aa 2a 13 3c 7e 73 05 bd ad bf 81 bc a5 a6 80 3c
       0.00898234 -0.032580845 -0.015838468 0.015704462
0002f0 4d 67 3a bd a6 59 27 bd 66 27 90 bd 95 f7 54 bd
       -0.04550867 -0.04085698 -0.07038765 -0.051993925
000300 0e cc a1 bc 9a 88 52 bb 74 c0 93 bd 62 d4 00 bd
       -0.019750621 -0.0032124878 -0.07214442 -0.031452544
000310 4a e9 c3 bc 94 a8 38 ba 8d a5 3c 3c 63 85 e5 bc
       -0.023914952 -0.0007044163 0.01151408 -0.028017705
000320 91 d6 33 bd 1d 67 dc 3c 26 83 34 3d 45 54 36 bd
       -0.0439058 0.026904637 0.044070385 -0.04451396
000330 1c ae 10 3d df ad 1f bc 8e 5d 1f bc 0a ab e9 bd
       0.035322294 -0.009746044 -0.009726895 -0.11409576
000340 f1 aa 3a be ad d6 f4 bd e0 27 43 3d 66 cb 1f 3e
       -0.18229271 -0.11955009 0.04764545 0.15604934
000350 1f 98 da 3d 00 8a 9f 3d 19 63 97 bd f1 b0 3e bd
       0.10673546 0.07789993 -0.07391948 -0.046555463
000360 09 39 d8 3d 06 ae 98 3d dc d1 85 bc d9 26 67 bd
       0.105577536 0.07455067 -0.01633542 -0.056433532
000370 b2 3e cb bd d2 b3 0d 3c 67 cb ea 3c d1 1f 6e 3d
       -0.099240676 0.00864883 0.028661443 0.05813581
000380 40 02 ef 3d cc 4d b1 bd cb 06 4b be cd 2c 0e 3c
       0.11670351 -0.08657417 -0.1982681 0.0086776735
000390 c3 a6 fd bd 07 c2 e0 3e 1b cf 18 3a 07 40 e8 bc
       -0.12385323 0.4389803 0.0005829201 -0.028350843
0003a0 35 f3 17 3d 61 df 03 3e 63 0d 1d bc a3 e3 89 bc
       0.037097175 0.12878181 -0.009585711 -0.016832178
0003b0 01 1f c6 bc 8a 6c 28 be fd 00 35 bd 47 57 68 bd
       -0.024184706 -0.16447654 -0.044190396 -0.05672386
0003c0 97 af 64 3d 84 74 b8 bd 47 46 8f bd 03 cb 6f bd
       0.055831518 -0.090065986 -0.06995826 -0.058543216
0003d0 fb e2 75 bc b5 c9 02 bd 80 c5 75 3d d0 b2 03 3d
       -0.01500773 -0.031930644 0.060002804 0.03215295
0003e0 81 89 2d bd 16 59 ea bb 87 98 6c 3f b7 5d f2 3d
       -0.042367462 -0.007151733 0.9242024 0.11834281
0003f0 d9 bb cc 3e b8 5a 5f 3d fc 20 c7 3c 70 5b a4 3b
       0.39987066 0.054529876 0.02430772 0.005015783

fc0.bias f4 [256]
000000 82 86 a7 3d d3 4e a7 3d 7e 78 80 3d 14 93 03 3e
       0.08179952 0.081693314 0.06272982 0.12849075
000010 d2 5a a9 3d 4c c2 af 3d ae 4f ac 3d 8f ab c9 3d
       0.08269276 0.08581981 0.08413635 0.09847175
000020 6f e6 ad 3d f9 2f 60 3d 2b b8 3a 3d 72 0d d9 3d
       0.08491217 0.05473325 0.045585793 0.105982676
000030 cd cc cc 3d 25 67 09 3e 02 5d 9a 3d cf 80 c7 3d
       0.1 0.13418253 0.07537271 0.09741365
000040 4a cb e0 3d e4 aa ae 3d a9 b3 c1 3d 54 39 a2 3d
       0.10976274 0.085286885 0.094580956 0.07921091
000050 2b 08 b3 3d 2c 54 a7 3d 83 3b ac 3d 58 fd c0 3d
       0.08741792 0.081703514 0.084097885 0.094233215
000060 6e cc ad 3d cb dc bf 3d 1a 73 a6 3d 4c 3d d6 3d
       0.084862575 0.09368285 0.08127423 0.1046091
000070 03 db aa 3d 11 c3 fe 3d 50 eb a5 3d a1 b1 96 3d
       0.083425544 0.1243955 0.08101523 0.07358099
000080 cd cc cc 3d 43 4b ac 3d 1e 97 b1 3d cb d0 b8 3d
       0.1 0.084127925 0.086714014 0.09024199
000090 8d cc b2 3d 67 21 a8 3d e6 f9 a4 3d 87 33 96 3d
       0.08730421 0.08209496 0.08055477 0.07334047
0000a0 e3 fd c3 3d cd cc cc 3d da a7 e0 3d fc 0e 8f 3d
       0.095699094 0.1 0.10969515 0.0698528
0000b0 48 15 a5 3d 38 28 b8 3d 26 86 2b 3e b0 64 aa 3d
       0.080607 0.08992046 0.16750392 0.08319986
0000c0 a7 83 9b 3d cf 37 0a 3e ff 40 b1 3d e6 97 e5 3d
       0.0759347 0.13497852 0.08654975 0.11210613
0000d0 42 4c ac 3d 52 95 b5 3d 06 c5 91 3d 1a 3f b0 3d
       0.084129825 0.08866371 0.07117657 0.08605786
0000e0 80 c4 af 3d 3a ce a0 3d 99 4d ac 3d 58 d4 c2 3d
       0.08582401 0.078518346 0.08413238 0.095131576
0000f0 cb 94 8e 3d 29 aa ae 3d 70 51 ad 3d 91 e2 94 3d
       0.06961974 0.08528549 0.084627986 0.072697766
000100 46 ae 87 3d f8 bb ac 3d 9d c2 a4 3d e6 be ca 3d
       0.06625037 0.0843429 0.08044932 0.09899692
000110 09 3a 6c 3d aa 97 89 3d 59 b4 99 3d a9 3a 92 3d
       0.057672534 0.06718381 0.07505102 0.07140095
000120 a1 58 e6 3d c8 be 9e 3d 42 eb b0 3d d9 be b2 3d
       0.11247373 0.077512324 0.08638622 0.087278076
000130 8d 80 8b 3d 97 31 a7 3d ea ca 87 3d cd cc cc 3d
       0.068116285 0.081637554 0.066305 0.1
000140 d8 7f a3 3d 32 c5 a5 3d 8e c8 92 3d 68 f4 a1 3d
       0.07983369 0.08094253 0.07167159 0.07907945
000150 74 f7 c6 3d 93 e1 ae 3c ad 25 a4 3d f6 5a 92 3d
       0.09715167 0.021347797 0.080149986 0.07146256
000160 a7 e3 b3 3d 20 d3 ac 3d 05 cb a5 3d 43 f0 e6 3c
       0.087836556 0.084387064 0.080953635 0.028190738
000170 cd cc cc 3d 61 e8 e2 3d fa 08 11 3e 20 d9 d1 3d
       0.1 0.11079479 0.1416358 0.102464914
000180 af 68 a2 3d 52 57 72 3d 99 9c 98 3d 17 95 ac 3d
       0.07930123 0.059165306 0.07451744 0.08426874
000190 83 55 f2 3d 69 42 d5 3d f2 48 ae 3d 38 5f e6 3d
       0.11832716 0.10413057 0.08510007 0.1124863
0001a0 cd cc cc 3d 02 4b a6 3d 3b 5b ac 3d 70 9e ac 3d
       0.1 0.08119775 0.08415838 0.08428657
0001b0 f8 88 ec 3d d7 e9 a6 3d df 4a a4 3d e0 7f a6 3d
       0.11549562 0.0815007 0.08022093 0.08129859
0001c0 a7 e4 aa 3d ef 5f 0d 3d f2 c4 16 3d cb 61 15 3e
       0.08344393 0.034515318 0.036808915 0.14588086
0001d0 2c ab 9d 3d 12 05 ae 3d 52 d0 ad 3d 61 8a 5f 3d
       0.07698664 0.08497061 0.084869996 0.054575328
0001e0 e6 fb b3 3d a0 bf a4 3d 48 6f 67 3d db 4b ac 3d
       0.0878828 0.08044362 0.05650261 0.08412906
0001f0 e9 7f ee 3d 5c 94 9c 3d 09 43 c2 3d 4c ad 51 3d
       0.11645491 0.07645485 0.09485442 0.05119066
000200 49 c3 a2 3d 16 44 a7 3c f6 96 8a 3d 89 16 71 3d
       0.07947404 0.020418208 0.06767075 0.05885938
000210 96 df ad 3d 01 bc ab 3d 8c 49 a4 3d 5b 94 a6 3d
       0.08489911 0.08385468 0.080218405 0.08133765
000220 cd cc cc 3d 2a b5 70 3d cd cc cc 3d 6c 7c a9 3d
       0.1 0.05876652 0.1 0.08275685
000230 cd 09 c2 3d d3 9d ac 3d ee 09 65 3d 24 b8 96 3d
       0.094745256 0.0842854 0.055917673 0.07359341
000240 5a 79 29 3e 07 d3 c5 3d e5 f0 aa 3d 00 97 bd 3d
       0.16550198 0.09659391 0.08346728 0.092573166
000250 e3 dc 97 3d cd cc cc 3d 11 d2 ae 3d c1 3c 88 3d
       0.07415178 0.1 0.08536161 0.06652213
000260 e0 46 b0 3c e3 3e bf 3d cd cc cc 3d d6 62 b4 3d
       0.02151817 0.093381666 0.1 0.08807914
000270 ac 54 dc 3d 77 34 a3 3d e3 53 85 3d ae c5 ac 3d
       0.107583374 0.07968991 0.06510141 0.08436142
000280 dc f6 9d 3d 11 7b b0 3d 3c 0d ab 3d 5e 87 9d 3d
       0.077131 0.08617223 0.08352134 0.07691835
000290 d3 ba a4 3d 74 da d7 3d cd cc cc 3d c2 8c 94 3d
       0.080434464 0.105397135 0.1 0.0725341
0002a0 66 de 80 3d e0 1d 9a 3d 26 90 03 3e cd cc cc 3d
       0.06292419 0.075252295 0.12847957 0.1
0002b0 f6 4d b5 3d e8 cb 4c 3d 81 3a b5 3d 8f ba ae 3d
       0.088527605 0.049999148 0.08849049 0.08531677
0002c0 42 5d 90 3d ac 71 a7 3d 46 8e b2 3d df 70 ac 3d
       0.070490375 0.08175978 0.08718543 0.08419966
0002d0 c1 3d 1c 3e cd cc cc 3d 25 c9 4e 3d cb 6d 18 3e
       0.15257932 0.1 0.050484795 0.14885633
0002e0 e6 54 9e 3d 1b 47 ac 3d cc 0a 91 3d 67 db 8e 3d
       0.07731037 0.08412 0.070821375 0.069754414
0002f0 3f 15 ad 3d 18 0a c1 3d cd cc cc 3d e2 cf ad 3d
       0.08451318 0.09425753 0.1 0.08486916
000300 25 a1 a5 3d 33 48 b5 3d 57 48 c3 3d 5f 69 8b 3d
       0.080873765 0.088516615 0.09535282 0.06807207
000310 80 95 90 3d 49 82 87 3d e7 f6 ad 3d b5 73 ac 3d
       0.07059765 0.06616647 0.084943585 0.08420507
000320 7e 73 7a 3d 96 68 04 3e 0e c9 1a 3e b5 2a 13 3d
       0.0611453 0.12930521 0.15115759 0.0359294
000330 68 92 ac 3d 3d 0f 84 3d ac 10 94 3d fd b0 ae 3d
       0.08426362 0.06448219 0.072297424 0.085298516
000340 cf 4a 81 3d ca 5b b3 3d 88 63 94 3d f0 7d a9 3d
       0.06313097 0.08757742 0.072455466 0.08275974
000350 7a 2b a9 3d 33 de a5 3d be 92 96 3d 68 18 ad 3d
       0.082602456 0.08099022 0.073522076 0.08451921
000360 45 8f 95 3d cd cc cc 3d f2 84 72 3d 96 57 12 3e
       0.07302717 0.1 0.059208818 0.14291224
000370 03 49 ac 3d 43 74 a5 3d 5a 37 86 3d 21 94 90 3d
       0.084123634 0.08078816 0.06553526 0.07059503
000380 e7 c4 a7 3d 6a 38 ff 3d b9 3d b1 3d 72 bc 9e 3d
       0.08191853 0.12461932 0.08654351 0.07750787
000390 04 1a 8e 3d 30 8f ac 3d 61 9c af 3d 94 ea b3 3d
       0.06938556 0.08425748 0.08574749 0.087849766
0003a0 cd cc cc 3d d4 b6 a2 3d 6f 63 31 3d a9 2a b3 3d
       0.1 0.07945028 0.043307718 0.08748371
0003b0 2b 4d b1 3d 7d 8a ac 3d a2 62 b4 3d cd cc cc 3d
       0.08657297 0.08424852 0.08807875 0.1
0003c0 22 0d b8 3d 9c 51 d9 3d cd cc cc 3d 07 6f ac 3d
       0.0898688 0.10611269 0.1 0.08419614
0003d0 89 ae f7 3d 7d eb a3 3d a6 d5 ac 3d 24 e9 b0 3d
       0.12093837 0.080039 0.08439188 0.08638218
0003e0 45 e8 4b 3d af 51 93 3d 8a 77 ac 3d 30 04 20 3d
       0.049782056 0.07193314 0.08421238 0.039066494
0003f0 de f1 fe 3d 2b 52 b9 3d 8b 4d ac 3d 08 27 b6 3d
       0.12448476 0.090488754 0.08413228 0.08894163

fc1.weight f4 [256, 256]
000000 f0 be 81 3c 97 ad 6b bd e5 0c 29 bd ca 7b 56 be
       0.015838116 -0.057538595 -0.041272063 -0.2094566
000010 9d f1 71 3d 48 84 6c bd 18 01 13 3c 61 89 65 be
       0.05906831 -0.05774334 0.008972429 -0.22415687
000020 34 f6 d8 3c 79 1e 95 3c 55 06 a0 3c 99 75 55 bd
       0.026484586 0.018203007 0.01953427 -0.052114103
000030 80 ec a7 3a e6 8a 2d bc b9 e4 cb 3b 73 4a cf b9
       0.0012811571 -0.010592198 0.006222334 -0.00039537586
000040 5f 09 02 be c2 14 55 3d 1f 89 94 bc b9 9b 80 3c
       -0.12698887 0.05202175 -0.01813179 0.015699254
000050 b4 1f 94 3c 5f 46 6e bd 37 8b fb 3b ed ca d7 bd
       0.018081523 -0.05817258 0.007676508 -0.10536752
000060 dc 0c c6 3c 76 09 8e 3d 1f 0c 9e 3d 65 44 9a 3e
       0.024176054 0.06935398 0.07717156 0.30130306
000070 ff d4 0e bd 42 99 79 3e 2e 7e 0e 3c 05 d3 53 3d
       -0.034871098 0.2437487 0.008697076 0.051714916
000080 e8 87 ab 3c e0 c4 7d 3d bc f8 dc bc c8 99 d5 3e
       0.020938829 0.061955333 -0.026974075 0.41718888
000090 12 22 27 3d 01 5a cc 3c cc 51 2e 3d 3d 82 db 3d
       0.040803976 0.024945261 0.042558476 0.107182
0000a0 3f de f3 bb cc 81 69 bd 25 ff 81 be d7 4c 81 3b
       -0.0074422653 -0.05700855 -0.25389972 0.0039459276
0000b0 3f 0a 55 bd 83 95 60 3c 59 f7 6c 3d 39 fe 7c bd
       -0.052011725 0.013707521 0.057853077 -0.061765883
0000c0 86 f5 1b bd 3c a9 04 bf 70 d4 9b 3c 19 41 dc bd
       -0.038075946 -0.5182073 0.019022197 -0.10754604
0000d0 a7 41 9f 3d 88 9e e8 3c 16 5f 20 bc cb e2 12 bc
       0.07776194 0.028395906 -0.009788295 -0.0089652045
0000e0 8e f8 1f 3e 83 f9 52 bd 58 72 45 3d f1 79 a4 be
       0.1562216 -0.051507484 0.04820475 -0.32124284
0000f0 b1 68 37 3d ba b4 bd bc 29 6c 5c 3d 0e ba 15 3d
       0.044777576 -0.023157466 0.053814087 0.03655439
000100 04 ac cd bb ce c4 80 bd 2a a8 55 3d 96 3b 4b be
       -0.0062766094 -0.062875375 0.052162327 -0.19846949
000110 e2 c1 05 3d b9 4d fb 3c 20 42 e1 bc 71 39 4c 3d
       0.032655604 0.03067671 -0.027497351 0.049859468
000120 1d 3e 1a be 3f ad c2 3c c8 06 9d 3c 3f ad 70 be
       -0.15062757 0.02376425 0.019168273 -0.23503588
000130 de 64 f4 3c c0 56 94 bc 6a fa 8c bd 1c 86 29 bd
       0.029833253 -0.018107772 -0.068837 -0.041387662
000140 28 3a 3e bd dd fa 2b 3d c1 e9 06 be 47 c4 67 3d
       -0.04644218 0.04198729 -0.13175108 0.05658367
000150 c1 64 5d be 18 5f 52 be 1d b5 23 3d 02 94 59 bd
       -0.21620466 -0.20544088 0.039967645 -0.053119667
000160 58 53 6f bc 69 c0 03 bd 02 58 04 3d c8 3e 20 3e
       -0.014607273 -0.03216592 0.032310493 0.15648949
000170 58 c5 8b bc 27 07 38 be 76 88 0b be 65 4a b1 3e
       -0.017061874 -0.17971478 -0.13626274 0.3462707
000180 dc f2 00 3d d2 3a a4 3d 71 d7 28 3c 74 e5 f9 bc
       0.03148161 0.080190316 0.0103052715 -0.03050492
000190 a2 24 9a 3e c7 96 cc be 57 dc 85 bd e9 07 08 bf
       0.30106074 -0.39958784 -0.06536167 -0.5313707
0001a0 40 81 6d bb bc 26 74 3d 20 99 5b bd 30 61 0c 3c
       -0.003624037 0.059607252 -0.05361283 0.008568093
0001b0 86 27 ea be 5d c0 47 3c 2a 54 38 3d ad 38 3c 3b
       -0.4573328 0.012191859 0.04500214 0.0028720305
0001c0 6d 70 4e 3d f3 aa 8d 3e 39 8c 52 3d 71 39 dc be
       0.050400186 0.27669486 0.051403258 -0.43012574
0001d0 8a 1a 8c bc cc c3 9e 3d 2e 34 c2 bb cd c3 67 be
       -0.017102499 0.07752189 -0.0059266305 -0.22633286
0001e0 bf bc 15 bd dc 4e 9e 3d 57 38 a9 3d 68 c6 e4 3c
       -0.036556955 0.07729885 0.08262699 0.027926639
0001f0 ec ff 32 3d 1e 5e 83 bb ae 8c 1d be a7 0d 9f bd
       0.043701097 -0.0040090224 -0.15385696 -0.07766276
000200 61 25 84 bd 9b 55 90 bd 05 f8 38 bd e4 65 77 3d
       -0.06452442 -0.07047578 -0.045158405 0.060399905
000210 d6 26 3d bd 67 20 89 bb 05 9e 0f 3c b8 13 ef bc
       -0.046179615 -0.004184771 0.008765702 -0.029184207
000220 f0 e1 95 3b 66 d8 8f bd b8 3f 40 bc 10 9e 6d 3c
       0.004574053 -0.070236966 -0.011733942 0.014503017
000230 49 04 b5 3d d4 b7 82 bc 99 d7 81 3d 99 5e c5 3d
       0.08838708 -0.015956797 0.0633995 0.09637184
000240 ef c3 ea be fb a7 1e bd e8 f5 34 bc bc ec 78 3d
       -0.4585261 -0.038734417 -0.011044957 0.060772642
000250 f7 bd 61 bd c0 51 cf bb c8 23 1c 3d 95 0f 14 3e
       -0.055112805 -0.006326884 0.03812006 0.14459069
000260 c0 e2 11 3c 6f b5 a7 be ae eb 37 3d ca 4f a5 3d
       0.008904159 -0.3275561 0.044902496 0.08071859
000270 81 39 7c be 78 69 2d 3c 06 f5 48 bc 82 64 47 3d
       -0.24631311 0.010584228 -0.012265449 0.048679836
000280 de a4 05 bd 00 6e 09 39 21 f4 92 3d a7 a6 4b 3d
       -0.032627933 0.00013106316 0.0717547 0.04971948
000290 14 75 72 3b 8b c7 08 be ae 67 3b 3d a3 14 22 3c
       0.0036996054 -0.1335737 0.045753174 0.0098926155
0002a0 61 c6 12 be 0e 5a 02 3d 9a 0e 32 3c 20 8c aa 3c
       -0.14333488 0.031824164 0.010867739 0.02081877
0002b0 e5 73 3f 3d fa 27 f2 3b e5 ee 3b bd d6 d1 e9 37
       0.046741385 0.0073900195 -0.045882124 2.7873477e-05
0002c0 d2 f8 de bc 1c 52 45 bc 6a 89 5a 3d 38 5d 80 3c
       -0.027218256 -0.012043502 0.053353705 0.01566945
0002d0 00 b4 91 bd b8 54 47 3c a7 dd f1 3d 1a 42 c9 be
       -0.071144104 0.012166195 0.11809855 -0.39308244
0002e0 1b 52 bd 3b c8 13 2d bd cb f2 d6 3b e8 6b 9a 3c
       0.00577761 -0.042255193 0.006559705 0.018850282
0002f0 3e 2c d9 bc ec f0 dd 3d ae ec 75 bd a5 8a d7 3c
       -0.026510354 0.10836968 -0.06004017 0.026311228
000300 e3 d5 1a bd 0e e8 05 bd a9 32 d0 3d 06 2e 00 3d
       -0.037801635 -0.032692008 0.10165913 0.03129389
000310 1e 37 70 3d 1e eb 8c bd 19 d3 39 3c 7a 1f 55 3d
       0.058646314 -0.068807825 0.0113418335 0.05203197
000320 b0 51 b7 3b af 7a f3 3d fa e2 4f 3d e0 f4 df bc
       0.0055944547 0.118886344 0.05075357 -0.027338445
000330 2b 34 9c bb 2b ac dc 3b f8 f7 2d bd 9b 54 91 bd
       -0.004766961 0.006734391 -0.04247281 -0.07096215
000340 e7 99 69 3e 88 12 fb 3c dd eb 46 bd c6 93 18 3d
       0.22812615 0.030648485 -0.04856478 0.037250303
000350 d8 a6 ed bc 55 2c 7a bd e6 72 17 3d 43 28 0e bd
       -0.029010221 -0.061077435 0.03697481 -0.034706365
000360 18 cd 06 bf c8 74 32 bc f8 9a 13 bf 00 55 00 bf
       -0.526567 -0.010892101 -0.5765834 -0.501297
000370 68 35 64 3c 2d a8 7b bd ba 02 1d ba a6 8a 1e be
       0.013928749 -0.06143968 -0.0005989481 -0.15482578
000380 c1 78 24 bd bb da 63 3c 6f 92 96 bd e7 87 13 3d
       -0.040154222 0.01390713 -0.07352149 0.03601828
000390 06 cf 77 bb 18 d1 6e 3c c8 df 3b bd a9 36 79 bd
       -0.0037812605 0.014576219 -0.04586771 -0.060843144
0003a0 c4 a9 1d 3d fa b5 92 3d 64 42 58 be 30 8f 8b bc
       0.03849198 0.071636155 -0.21119076 -0.01703605
0003b0 72 e5 58 bd 24 4a 14 3d 18 27 04 3d f6 bd 5c bd
       -0.05295319 0.03620352 0.032263845 -0.0538921
0003c0 33 42 1f bd 93 22 b7 be 66 ce 41 3d 28 aa 61 bd
       -0.038881492 -0.35768566 0.047315978 -0.055093914
0003d0 a6 08 f4 bd 46 74 1c bb e2 3a d8 3a 42 a9 16 3d
       -0.11915712 -0.0023873015 0.0016497041 0.03678251
0003e0 d7 bb 6a 3e a6 5e 71 bc 0a b2 03 bd a5 64 97 bd
       0.22923218 -0.014732039 -0.032152213 -0.07392243
0003f0 4e e3 a5 3e b7 95 57 3d 36 a1 04 3d ca e4 a8 3d
       0.32399982 0.052633014 0.032380305 0.08246763

fc1.bias f4 [256]
000000 dc 10 63 3e 79 c2 8d 3d e1 19 db 3e 15 10 73 3d
       0.221744 0.06921858 0.42793182 0.05934151
000010 53 e3 40 be e7 54 d9 bd 30 e9 22 3d f0 48 e8 3d
       -0.18836717 -0.10611897 0.039773166 0.11342037
000020 4b f1 32 3d 9c e5 05 3e 62 4b e7 3d 8c 56 8e bd
       0.043687146 0.1307587 0.11293675 -0.06950101
000030 ed 1d 8c 3d f2 d3 cf bd 6b 0d 01 3e a9 a4 8d 3e
       0.068416454 -0.10147847 0.12602775 0.27664688
000040 07 2e 30 3e 1c 71 65 3c 69 fa de 3d 85 f6 d9 3d
       0.17205058 0.014004018 0.10887606 0.10642723
000050 51 92 2f 3d de 71 9d 3d bc 55 09 3e c9 5d 10 3e
       0.042864148 0.07687734 0.13411611 0.14098276
000060 01 33 ac 3e 3e 3e f1 bd 74 5b 09 3d 79 54 de bb
       0.33632663 -0.1177945 0.033534482 -0.0067849723
000070 e2 28 88 3d 06 4f 67 3d 6e 99 2b 3e 54 fa 43 3e
       0.06648423 0.056471847 0.16757748 0.19138461
000080 66 8a 4f be c1 83 11 3e cc 16 f9 3d e8 79 3c 3e
       -0.20267639 0.14210416 0.12162551 0.18405879
000090 64 ac 47 3d fc ad 40 bd e7 d3 3b bd 15 37 21 3e
       0.04874839 -0.047040924 -0.045856383 0.15743668
0000a0 b5 51 38 3e 61 05 24 bc e9 45 b8 bc 51 48 74 3e
       0.17999919 -0.010011048 -0.022494273 0.23855712
0000b0 22 e6 3a 3d 18 93 1e 3e 0a 69 4a 3e 9b 64 6e 3e
       0.045629628 0.154858 0.19766632 0.23280565
0000c0 fa f7 1a 3e 1b f6 51 bd ed c6 16 3e e1 d8 91 3e
       0.15133658 -0.051260095 0.14724322 0.28485778
0000d0 91 6e 09 3e a1 7f c3 bd 81 56 40 3e 31 38 3c 3a
       0.13421084 -0.09545828 0.18782999 0.0007180004
0000e0 c5 f2 9a 3e ae 4f 4d 3d 5d 69 3d 3d 63 ee 27 be
       0.30263343 0.050124817 0.04624306 -0.16399531
0000f0 70 2c a1 3d 5d 78 05 be 02 c7 3d 3e d4 ba 9d bb
       0.07869804 -0.13034196 0.18532947 -0.0048135314
000100 cd 1c 3a 3e 39 0c 4a 3e e1 1b f8 3d 04 1a 53 3d
       0.18175049 0.19731225 0.121146925 0.051538482
000110 f7 3d 64 3d 66 fa 16 3e 5f fa 14 be 68 5b 1c 3e
       0.055723157 0.14743957 -0.14548634 0.15269244
000120 66 f9 32 be 64 38 30 3d e9 7f 60 3e 82 70 58 3d
       -0.1747795 0.04302253 0.21923794 0.05284167
000130 21 33 4c 3e 7f fd 2d bd 25 fd c1 3d fd 99 2c be
       0.19941379 -0.04247808 0.094721116 -0.16855617
000140 44 ef a8 3d ad 62 4c 3e 88 34 28 3d 76 0e 36 3d
       0.08248761 0.19959517 0.041065723 0.044447385
000150 10 ef 5e 3d 87 bc 38 3d c9 8f 5d 3d 57 e9 85 3e
       0.054427207 0.04510167 0.054092202 0.26154587
000160 cb 97 7b bd 5b 7a 5e 3e c7 7e 6d 3e a2 a8 33 3d
       -0.061424058 0.21726362 0.23192893 0.043861993
000170 fc e7 00 3e 22 18 31 3d 30 13 a7 3d 7b 4e ae be
       0.12588495 0.043235905 0.081579566 -0.3404425
000180 3a 16 71 3d be 37 13 3e 1f 68 28 3d 99 52 e5 3d
       0.058859088 0.14376733 0.041114923 0.11197395
000190 4c d0 e3 3d b2 1b 38 bd 5d 35 72 3e 31 3a 7a 3d
       0.11123714 -0.044948287 0.23653169 0.061090652
0001a0 c9 69 fd 3d d4 9a 1d 3d 69 d4 13 be c8 5c 0a 3e
       0.123736925 0.038477734 -0.14436497 0.13511956
0001b0 73 e1 2b 3c e7 3e 90 3e ac 12 45 3e 2b 7e cb bd
       0.010490763 0.2817299 0.19245404 -0.09936174
0001c0 9f a4 3f 3e a6 3e 7a 3d a4 47 b6 3d 95 4b 8e 3d
       0.18715142 0.061094902 0.08900383 0.0694801
0001d0 4b a1 39 bd 21 cf 7d 3e 3b ba 82 3e da 13 01 3d
       -0.045319837 0.24786045 0.25532708 0.031513073
0001e0 b1 fd ed 3c 9e e4 b6 3d f1 c2 6d bd 88 6d 67 3d
       0.029051634 0.08930324 -0.05804724 0.05650094
0001f0 8b 4b 73 bc 36 23 e6 3d d7 62 92 be 6c 11 37 bb
       -0.014849554 0.11237185 -0.28591034 -0.0027933968
000200 28 77 e6 bd c1 27 7b 3d a6 1f 1e be 06 3c 80 3d
       -0.11253196 0.06131721 -0.1544176 0.062614486
000210 5c aa 67 3e 82 d4 b2 3c 32 b9 8c 3e 02 88 5b 3d
       0.2262358 0.021829847 0.27485043 0.053596504
000220 38 bd 54 3e 59 cb 7b 3e 9e ec 0b 3e c5 73 71 3d
       0.20775306 0.2458929 0.13664481 0.058948297
000230 d5 54 59 3e 9f 4e 02 3d c8 9c 0c 3e b2 36 8d 3d
       0.21223767 0.03181326 0.13731682 0.06895198
000240 3a 2b 0c bc 9a 1a 37 be 2b 66 7e 3d f8 7a 2d 3d
       -0.008555228 -0.17881241 0.062109154 0.0423536
000250 d1 e3 22 3e 3e aa f8 3d ed 8a 42 3e 72 86 5b 3d
       0.15907218 0.12141846 0.18998308 0.053595014
000260 8c 11 29 3e 25 d6 87 3c 43 23 2c 3e 65 4b 36 3e
       0.165106 0.016581604 0.16810326 0.17802198
000270 e6 9c a6 bd 49 57 87 3c 15 f7 3b 3d 1d 93 01 3e
       -0.08135395 0.016521113 0.045889933 0.12653776
000280 01 ed 1f be 48 88 c9 3b f2 d2 af 3c 90 2d 60 3d
       -0.15617754 0.006150279 0.021462891 0.05473095
000290 9d 71 6b 3e 43 9d 1a 3e 37 0d d9 bb 2c 9c 1f 3e
       0.22992559 0.15099053 -0.00662389 0.15586919
0002a0 62 57 cc 3d 1f f5 ee 3d 26 bb 64 3d 1f 95 ac 3a
       0.099776044 0.11667847 0.05584254 0.0013167
0002b0 8f e5 39 3c 79 ab cb 3d 8c 77 12 3d 9e 39 2f 3d
       0.011346235 0.09944815 0.03575854 0.042779557
0002c0 d2 0f 20 3d 72 e3 09 3e 97 83 3a 3e a8 77 23 3e
       0.039077587 0.1346567 0.1821426 0.15963614
0002d0 f3 e1 7e 3e f0 ed b3 3d 61 f2 91 be 8a ff 96 3e
       0.2489088 0.08785617 -0.28505233 0.29491836
0002e0 8e 67 92 3e 3a 4b 20 3e 00 52 24 3d 1e 24 36 3e
       0.2859463 0.15653697 0.040117264 0.17787215
0002f0 3d 2a 3c 3e 67 32 e7 3d 5d c0 39 3e 2c 10 fe 3d
       0.18375488 0.1128891 0.18139787 0.12405428
000300 dd 79 41 3c 74 3f cc 3c 11 2e 41 3e b4 01 06 3e
       0.01180884 0.0249326 0.18865229 0.13086587
000310 f3 1b 38 bd 3d 55 4c 3e d1 5a 6d bc 7f 06 44 be
       -0.04494853 0.19954391 -0.014486984 -0.19143103
000320 94 39 fb 3b 6a 5b 5f 3d 3b d3 9f bd 4e 8a 45 3e
       0.007666776 0.05453054 -0.07803961 0.1929104
000330 44 09 cd 3e 2d c6 8a 3d 61 e1 06 3d 39 c0 a0 3d
       0.40046132 0.0677608 0.03292978 0.078491636
000340 55 05 86 3d c5 0c 82 3d 15 68 14 3e e4 b7 94 bd
       0.06543986 0.06350092 0.14492829 -0.07261637
000350 fd 99 1d 3e 28 85 a7 3d 46 b9 89 3d 70 2c 90 3e
       0.15390773 0.081796944 0.06724791 0.28158903
000360 95 b1 15 3d 58 4f 93 3e de d1 6e 3d 01 8b b0 3d
       0.03654631 0.28771472 0.058305614 0.08620263
000370 06 54 98 bd ae d7 11 bc f9 9e 81 3e 76 18 a2 bd
       -0.07437901 -0.00890152 0.253166 -0.07914822
000380 0f c2 d7 3d 9f 0d 23 3e 0e 0b de 3d ab cc a9 3d
       0.105350606 0.15923165 0.10841952 0.082909904
000390 35 d8 94 3c e5 21 8e 3d 0a 32 eb 3d 6d 11 6f 3d
       0.018169502 0.069400586 0.114841536 0.058366228
0003a0 45 34 31 3d 66 99 f2 3d fc 03 e5 3d 27 92 c6 3c
       0.04326274 0.11845665 0.111824006 0.024239613
0003b0 e4 23 d4 bc b6 be 3e 3e 3c cf 12 3e 54 51 60 3e
       -0.02589602 0.18627438 0.14336866 0.21906024
0003c0 48 75 aa 3e d7 38 a5 3d 27 e8 ac 3c 74 5e 22 3d
       0.33292603 0.08067482 0.021106793 0.03964086
0003d0 76 47 22 3e 3d 11 6a 3d c1 64 30 3d f2 69 56 3d
       0.15847573 0.057145346 0.043064836 0.05234713
0003e0 e8 6b 5e 3e 20 10 3d bd 84 8e 1e 3e 16 a4 1f 3e
       0.2172085 -0.046157956 0.15484053 0.15589938
0003f0 fa 98 cb 3d 23 08 0e 3e 5b 47 14 3e 86 46 76 3e
       0.09941287 0.13870291 0.14480345 0.2405034

last_fc.weight f4 [3, 256]
000000 ae 2b 0a be 53 96 70 be 13 33 6b bc 83 9b a0 3b
       -0.13493225 -0.23494844 -0.014355439 0.004901351
000010 8e 15 99 be 21 ef 0d be c3 a3 15 be 55 ee d0 bd
       -0.29899257 -0.13860752 -0.14613251 -0.10201708
000020 b6 83 13 be 80 b2 10 3d 45 dc a4 3e 25 ca d1 be
       -0.14405712 0.03532648 0.32199302 -0.40974537
000030 dd a2 5d 3c a4 cd ec be 07 ff d5 bd 95 13 cd 3d
       0.013527599 -0.4625064 -0.10449033 0.100135006
000040 d2 12 a9 3c 1c be 46 3c 36 3a 20 3c fe 27 e3 bd
       0.020638857 0.012130287 0.009779504 -0.11091612
000050 b5 cc 8b 3c b8 ba 2a be be a7 dc bc df 32 c1 3d
       0.017065385 -0.1667279 -0.026935454 0.09433531
000060 73 d2 a9 3e 1a 24 0c 3f 21 b9 8a be ad 0e 34 be
       0.33168373 0.54742587 -0.27094367 -0.17583723
000070 37 fd 4e be ab 8f 0b bb 12 bd 25 3e 33 5a 0e be
       -0.20213781 -0.002129535 0.16185406 -0.13901596
000080 36 28 ec 3d 0a 15 42 3e 35 3c a3 3d 07 9f 7f bd
       0.11531107 0.18953338 0.07970468 -0.06240752
000090 b8 af b4 bb 2a 96 c9 3d 7d 21 55 3e ea 03 80 bd
       -0.0055141114 0.09843095 0.20813556 -0.062507465
0000a0 98 39 fc 3b 6d 1d b8 3e 95 48 ec be de a5 10 3e
       0.0076972954 0.3595995 -0.46149126 0.14125773
0000b0 7f 9e ef bc 4c b5 82 3c 84 92 18 be af 62 23 3f
       -0.029250382 0.01595559 -0.14899641 0.63822454
0000c0 ef 5e 1f 3e 85 8f 5e bd 36 a2 58 bd 96 b3 ab be
       0.15563558 -0.05433609 -0.05288907 -0.3353545
0000d0 37 15 12 be 3a 6a f2 bd f7 f8 78 be 56 ec 40 3e
       -0.14265905 -0.11836667 -0.24313723 0.18840155
0000e0 23 3d 34 3e f2 b9 d6 be c1 c8 ae 3e de 59 d9 bd
       0.17601447 -0.4193874 0.34137538 -0.10612844
0000f0 2e 38 92 3d f7 30 43 3f a7 2e 0e 3e d1 57 e6 bd
       0.07139622 0.7624659 0.13884984 -0.112472184
000100 87 17 b2 3c 23 69 90 3d 87 f7 88 3d cd 64 c6 bd
       0.021739734 0.07051303 0.06687837 -0.09687195
000110 a8 3e 9d bb 6c 9d b3 3d c8 74 85 3e 00 3b 27 3e
       -0.004798729 0.0877026 0.2606566 0.163311
000120 bc 00 16 bd d2 b5 66 bb ec 35 df bd c4 97 31 bc
       -0.036621794 -0.0035203588 -0.10898957 -0.010839406
000130 90 95 4c 3d 21 37 08 be 93 f8 af 3e e5 b0 3b be
       0.04994732 -0.1330228 0.34369335 -0.18329199
000140 c0 5e 3c 3e 61 74 d4 3d a9 d0 24 bc c2 f4 46 3c
       0.1839552 0.1037376 -0.010059514 0.012143316
000150 d6 06 4d bc d2 d7 ba bd de 79 fc b9 3d c0 c2 bd
       -0.012513837 -0.09123196 -0.00048155984 -0.09509323
000160 a5 6a 8b bd 98 3f 91 3e 4f a4 ca bd e2 34 b6 3b
       -0.0680745 0.2836883 -0.098946206 0.0055605033
000170 1c fb be 3e 4a e1 b5 3c f5 d1 b8 3d 47 25 06 3f
       0.37300956 0.022202153 0.09024421 0.5240063
000180 44 0c 69 bc de d2 02 3f d1 6b ce 3b 04 5e a7 3d
       -0.014224116 0.5110301 0.006299474 0.08172229
000190 94 66 00 be 5e 6f 9e bd 22 9e 91 3d da 0b e4 3c
       -0.1253913 -0.07736085 0.071102396 0.027837683
0001a0 86 c5 53 3e 70 91 3f bd 70 56 21 bf 10 7f 55 3d
       0.20680818 -0.04676956 -0.6302252 0.05212313
0001b0 8c ad 5c be d9 64 6a 3e 61 7c c8 3e 2b 9d 4f 3e
       -0.21550578 0.22890033 0.39157394 0.20274799
0001c0 ff f7 0b bf 74 4e 3e be ee 31 84 be e9 c8 04 be
       -0.54675287 -0.18584615 -0.25819343 -0.12967266
0001d0 76 11 91 3e 5e 00 d7 bb d7 48 04 3e de f7 13 bf
       0.28333634 -0.006561323 0.12918411 -0.5780009
0001e0 93 c5 e4 bd 50 24 2f be 2c fb 86 3e b4 8f 25 be
       -0.11170497 -0.17103696 0.26363504 -0.161681
0001f0 3a ba c9 3e 06 b5 ee 3d bf 1d cd 3e ac 58 39 3d
       0.39399892 0.11655621 0.40061757 0.04525058
000200 08 1b b8 3e ab b0 4b 3c 92 c8 e7 bf a1 09 fb bd
       0.35958123 0.012432258 -1.8108084 -0.12257696
000210 38 e7 2b 3d c9 03 ad be 0f ab 9b 3d f9 96 16 3e
       0.041968554 -0.3379195 0.07600986 0.14706029
000220 4c bb fd 3d 94 93 e5 3c 25 1c 0a be 4a cf 2e 3c
       0.1238924 0.028024472 -0.13487299 0.010669539
000230 5c 28 f4 3d e1 10 76 bd 5c 4a 73 bd 8f 5d d9 3c
       0.119217604 -0.06007469 -0.059397087 0.02653387
000240 ec 00 4d be e9 1c 0b bf f2 87 0a 3d ee f4 91 3c
       -0.20019883 -0.5434099 0.033821054 0.017816987
000250 1b 5a a8 3c e2 8a 85 bd 9f 27 23 be 45 de 03 3c
       0.020550778 -0.065206304 -0.15933083 0.008048599
000260 04 c1 4c 3d 65 80 05 3e 1c c2 cf 3d 71 47 10 bd
       0.04998876 0.1303726 0.10144445 -0.03522438
000270 9a 03 44 bf 41 f7 b6 bd ce e1 b1 3b 3f 22 d3 3e
       -0.76567996 -0.08933879 0.0054285293 0.41237065
000280 ff ec c9 3e bd ff b6 bc 05 51 0a bb c0 47 b7 3b
       0.39438626 -0.022338742 -0.002110542 0.00559327
000290 f3 80 82 be 4f 9e 98 3e 1b d5 b2 3e ff ed 35 be
       -0.25489005 0.2980828 0.34928212 -0.1776657
0002a0 2e 34 9a be 1f a9 66 3e 5a b2 93 3b 6d 54 e6 be
       -0.30117935 0.22525452 0.004507345 -0.44986287
0002b0 53 48 74 be 6d 15 ec bd 44 78 3e be 37 7c 4f 3c
       -0.23855714 -0.11527524 -0.18600565 0.0126638925
0002c0 cd 4e 2f 3c e7 07 43 bc c2 22 46 be c3 30 8c 3e
       0.01069994 -0.0119037395 -0.19349197 0.27380952
0002d0 42 51 3f be 4f 87 1d 3f a6 9e 17 3e 18 30 89 3e
       -0.18683341 0.6153459 0.14806613 0.26794505
0002e0 25 cb 33 3e cd 93 21 be eb 94 8a 3c b7 1b 1d 3e
       0.17557962 -0.15779038 0.016916713 0.15342604
0002f0 20 2d ee bd bb 23 8a 3e ac 0a 33 3e 55 4b f5 3d
       -0.11629701 0.26980385 0.1748454 0.11977259
000300 f5 dd 4e 3e f2 09 df 3b 0d fd 13 3e 6d ba ae bd
       0.20201857 0.0068066055 0.14452 -0.08531652
000310 53 8d a0 bc 35 e5 80 3c 9e 6b ad bd 8d 24 96 3e
       -0.019598639 0.015734294 -0.08467792 0.2932476
000320 7b b1 c8 3d b8 8d 28 be 4c 6e 0e c0 35 61 e3 bd
       0.09799477 -0.16460311 -2.225482 -0.11102525
000330 87 61 3f bd a8 1a e7 3c eb f0 b5 3e d8 66 2c be
       -0.04672387 0.028210953 0.35535368 -0.16836107
000340 d6 cc 95 bc 9c e0 c3 bc 46 15 55 3d be 59 0b bf
       -0.01828615 -0.023910813 0.05202224 -0.5443381
000350 60 65 ec 3c e0 bb 35 be 6a 4b 49 bb f1 4f 3b 3e
       0.028856933 -0.1774745 -0.0030715116 0.18292214
000360 78 5c 75 bb b1 23 87 bd 5f 49 ab be 13 b9 e9 bc
       -0.003743915 -0.065986045 -0.33454415 -0.028530633
000370 a2 93 74 bf 7a 12 00 bd 16 c1 9c bc 94 30 fb bc
       -0.9553777 -0.03126762 -0.01913504 -0.030662812
000380 63 63 97 3e 11 3b 81 be 4f d1 d7 3c 4b 41 31 be
       0.29568014 -0.25240377 0.026344923 -0.17310064
000390 bd 96 df 3e 9e 97 bd 39 f5 a3 ae bd 19 5e e6 bb
       0.43669692 0.00036161853 -0.08527366 -0.0070302603
0003a0 d6 88 55 3e 84 6e d7 bd ff 4b 91 bc 42 51 c2 bd
       0.2085298 -0.10519126 -0.017736433 -0.09488155
0003b0 62 97 a6 be 66 92 88 3c 8b dc 11 3d 2f 7d 11 be
       -0.3253737 0.01667137 0.035610717 -0.1420791
0003c0 80 fc e4 bc fc fa 1e be 15 5e f3 3d 3e 32 81 3c
       -0.027952433 -0.1552543 0.11883179 0.015771028
0003d0 b4 8f 12 3e 69 ad a0 bc 8c 80 f4 3c 3d 20 3b bd
       0.14312631 -0.019613938 0.029846452 -0.04568504
0003e0 8e 3b 9d bd 77 81 19 3f e4 4b 76 be 03 6d 77 3e
       -0.07677375 0.5996317 -0.24052387 0.24162678
0003f0 ce f0 26 3d 9c ca f9 be 96 1a 08 be 44 73 fe 3e
       0.040756993 -0.4878739 -0.13291392 0.49697316

last_fc.bias f4 [3]
000000 08 3c 8a 3d fd ad a1 3d 90 37 e7 bc
       0.06749731 0.07894514 -0.028224736

last_fc_log_std.weight f4 [3, 256]
000000 45 bf 97 bd 16 a2 96 3e 75 8e 77 be f8 78 da 3c
       -0.07409529 0.29420537 -0.24175437 0.02666901
000010 37 35 5a 3e 7f 9d 20 3e c2 b3 68 be c1 92 b2 bd
       0.21309362 0.1568508 -0.22724822 -0.08719397
000020 95 e0 f2 bd 9c 3d 8f bd 7c 7b f7 bd 4c 39 81 3e
       -0.11859242 -0.06994173 -0.120841 0.25239027
000030 d9 0e 05 bc e2 8f 5d 3e 44 9f bd be ed 20 b8 3c
       -0.008121216 0.21636918 -0.37035573 0.022476638
000040 3d f6 57 3c 2e 8e 99 bd 1a 05 05 3f c6 5e 04 be
       0.013181266 -0.07497822 0.5196091 -0.12926778
000050 65 d8 f5 bb 5d ab d4 3c 68 d2 c0 bd 95 cb 77 bd
       -0.007502603 0.025960619 -0.09415132 -0.060496885
000060 0c 50 5f ba ae bc 42 bd d0 4c b4 3d 51 8b 96 3d
       -0.0008518703 -0.04754322 0.08803713 0.07350791
000070 f3 fa 70 bb 8e 13 e7 bc 3d df 21 3e e9 85 f6 bd
       -0.003677067 -0.028207567 0.15807815 -0.1203726
000080 75 42 59 3e f3 66 04 3e db da 1a 3d 3c 78 ef bd
       0.21216758 0.12929897 0.037806373 -0.11692855
000090 5d 36 f5 3b e5 26 ee bd 0a 3f 06 3e 60 a2 48 bd
       0.0074832872 -0.11628512 0.13109985 -0.048982978
0000a0 47 07 fc 3d 8c bb 95 be c3 d6 22 3d eb 34 59 bd
       0.123060755 -0.2924465 0.039755594 -0.053028982
0000b0 04 e6 99 3d 57 5b 56 3e fc 70 80 bd 1d c0 e4 3e
       0.07514575 0.20933281 -0.0627155 0.4467782
0000c0 84 cc 92 3d d3 32 9c bd 2d 25 b5 bc 77 8c 68 bd
       0.071679145 -0.076268815 -0.022112453 -0.056774583
0000d0 25 f8 8d 3d 72 55 b0 bd 57 97 86 be ef f8 25 3e
       0.069320954 -0.086100474 -0.26287338 0.16208242
0000e0 57 52 44 3e e7 89 f5 be 51 fa b2 3e c9 d1 a5 3d
       0.19172035 -0.47956774 0.349566 0.08096654
0000f0 b4 b7 bf 3d c6 5a fa 3d 4e c0 a5 3d 3b 58 87 3c
       0.093612105 0.12224345 0.0809332 0.016521564
000100 db 31 dd bd 1e 4b 65 be be 30 a4 bd b0 41 36 be
       -0.10800525 -0.22391936 -0.08017109 -0.17798495
000110 99 04 24 bd 9d 06 8a 3e 70 f2 c6 bc e3 cf bf bd
       -0.040043447 0.2695817 -0.024285525 -0.09365823
000120 43 69 ef 3d 12 fd e6 bc 2b 3c 0d be d9 db 08 3d
       0.11689999 -0.028196845 -0.13792484 0.033412788
000130 f8 44 e1 bd 6a 51 45 bd 34 f0 57 3e d2 10 a8 3e
       -0.10999483 -0.048173346 0.21087724 0.32825333
000140 2e 67 be 3d 5d 15 8e be 02 8e 38 3c 7f f5 5f 3d
       0.09297024 -0.27750674 0.011264326 0.054677483
000150 02 68 e2 3c 10 0a 43 3e a9 7c 7b 3c e8 ad c8 bd
       0.027637485 0.19046807 0.0153495455 -0.09798795
000160 52 57 cd 3d b8 0a 45 bd 88 9f 50 be 80 e0 36 3c
       0.10026421 -0.048105925 -0.20373356 0.011161923
000170 1b e0 a0 3e ab a2 1b bc 02 b0 83 bc 47 e5 25 be
       0.3142098 -0.009499232 -0.016075138 -0.16200744
000180 ce d8 60 bc 54 ef b4 3e 9c 2a 95 3b 84 5c b6 bd
       -0.013723565 0.35338843 0.0045521986 -0.08904365
000190 9b 0b e9 3d 34 f8 3b bc 21 96 cf 3d 56 d6 84 3b
       0.11379167 -0.01147275 0.10136057 0.004053871
0001a0 82 f8 ce 3b 74 9d f0 3b 77 eb 62 3e cd 1e 25 3d
       0.0063162455 0.0073429886 0.22160135 0.040312577
0001b0 7c 6d 31 3d 43 1a ff bb 06 ea a9 3e 24 d3 b1 bd
       0.043317303 -0.007785113 0.33186358 -0.0868285
0001c0 5e 99 fc bc 03 a0 dd bd 9e 1d 6d 3d a8 45 bf be
       -0.03083485 -0.108215354 0.057889573 -0.3735783
0001d0 0a 12 d9 bc 51 92 1b 3d ee fc 66 bd 96 ee 3c be
       -0.02649786 0.037981335 -0.056393556 -0.18450388
0001e0 a6 90 3f 3e fe 05 9b be f7 11 08 bd c9 e8 21 3d
       0.18707523 -0.3027801 -0.033220258 0.03952864
0001f0 8f 2b 3d be 8a bd c4 bc d0 e6 7f be 3c 10 c7 bb
       -0.18473648 -0.02401616 -0.24990392 -0.0060749333
000200 3e b7 5b be 40 4e 0a 3d 03 41 4f 3f 4c 18 95 3e
       -0.2145662 0.03376603 0.80958575 0.291201
000210 50 d5 2d 3e 3b a0 c0 bb 55 de af be 93 94 76 bd
       0.16975904 -0.005878476 -0.34349313 -0.060200285
000220 35 f9 85 3d ca 08 c5 bd ba cf 90 bd 4d ca af 3b
       0.06541673 -0.09620817 -0.07070871 0.0053646923
000230 be 39 85 3d 80 0e 47 bc e8 38 03 bd fc c2 e5 bd
       0.06505154 -0.012149453 -0.032036692 -0.11218831
000240 2a 08 11 be 11 b9 02 3e 16 e1 43 3a 4c c6 31 bd
       -0.1416327 0.1276591 0.00074722 -0.043402
000250 43 60 2f 3e da a3 c5 bd 7d 65 90 bd 9b 2e 3f 3a
       0.17126565 -0.09650393 -0.07050607 0.00072930165
000260 af 3c e6 bd 50 e6 e6 3c db 74 29 be 26 70 12 3e
       -0.11242043 0.028185993 -0.16548483 0.14300594
000270 ae 25 5a 3f 17 89 e3 bc ca a7 3d 3d 7f 16 1c 3e
       0.85213745 -0.02777533 0.046302594 0.15242957
000280 89 ad ff 3e 49 98 3e bd 7c 22 c2 bc 3d 40 c8 3c
       0.49937084 -0.04653195 -0.023698084 0.024444694
000290 b2 9a 38 be 59 3d 0a 3f 93 4a ed bc d1 7f af bd
       -0.18027762 0.5399986 -0.028966224 -0.08569301
0002a0 ce 65 dd bd e3 8a 74 3d 32 22 9b 3c ad 79 05 be
       -0.10810433 0.059702765 0.018937204 -0.13034697
0002b0 26 a8 a3 3c 68 21 41 be 08 bc 4e be 5e d4 79 3c
       0.01997764 -0.188604 -0.20188916 0.015248386
0002c0 11 e0 bb 3c 67 af f4 bc 4c 6c 05 bd 2c b5 a4 3e
       0.022933992 -0.029868795 -0.032573983 0.32169473
0002d0 d6 2f 72 3d 17 07 76 3e a0 21 b8 bd 0f 38 80 3e
       0.05912765 0.24026142 -0.089907885 0.2504277
0002e0 1c 7c f7 3c e6 2b 7a 3e 76 4b f7 3b de 38 70 3e
       0.030210547 0.24430808 0.0075468374 0.23459193
0002f0 3e 8b d9 bd 02 fc 81 3e c4 5f ce 3d ea 36 38 3e
       -0.106222615 0.2538758 0.100768596 0.17989698
000300 f4 91 95 bd 9d 77 26 3d f1 a5 b9 3d 1c 2b 05 3d
       -0.07303229 0.040641416 0.09064854 0.032511815
000310 d5 3c 4f 3d 6b d2 ad bc c7 81 44 3e 3f d5 ba bd
       0.050595123 -0.0212185 0.19190131 -0.09122705
000320 3f 45 af bd 2e 10 b8 bc 15 c6 33 3f cb 68 ab bd
       -0.085581295 -0.022468653 0.70224124 -0.08369597
000330 03 3c eb be b0 50 27 3d bc cf 9a 3d b0 dc e1 bd
       -0.45944223 0.040848434 0.075591534 -0.11028421
000340 b4 63 42 bc 04 c2 7c bc 44 bb 5e 3d 33 00 15 3f
       -0.011864591 -0.015427116 0.05437781 0.5820343
000350 3c dc dd bb 4c 34 1e be ef 74 56 3c 40 25 6c bd
       -0.0067706387 -0.15449637 0.013089403 -0.057652712
000360 b5 50 cc 3c a5 74 b9 bd 3b 25 4a 3f 3c 4b b0 3c
       0.024940828 -0.09055451 0.7896306 0.02152025
000370 a8 a6 db 3d 88 ef 29 bc 9b 11 13 be 25 6b 3f be
       0.107251465 -0.01037205 -0.14362185 -0.18693216
000380 f9 ae 88 3e 33 72 66 be 54 08 c9 3c 64 21 00 bc
       0.26695994 -0.22504501 0.024540104 -0.007820461
000390 18 13 58 be 54 80 0a bc 4a 8e e8 3c 70 5b e7 3a
       -0.21101034 -0.008453447 0.028388161 0.0017651152
0003a0 b9 df 31 3d c9 1c 16 bd b1 a7 99 3d 13 6b b9 bc
       0.04342625 -0.036648545 0.07502688 -0.022634065
0003b0 81 85 a5 be 13 d5 d8 bd 61 32 00 be 6c 16 96 3d
       -0.32328418 -0.10587516 -0.12519218 0.073284954
0003c0 5d c1 9c be dc 6d e9 3c 10 43 62 3d 73 fd c4 bc
       -0.30616274 0.028494768 0.055239737 -0.024046635
0003d0 51 8b 3c 3c 95 29 48 3d 2b b6 02 bd 2b c6 a0 3d
       0.011507825 0.04886778 -0.03191201 0.078502975
0003e0 0a c5 17 be b4 e2 e7 3e e4 eb aa 3d fe 23 e3 3d
       -0.14821258 0.45290148 0.08345774 0.11090849
0003f0 7a c1 1a 3e 41 85 21 bd f0 64 f0 bd 39 5e d8 3e
       0.15112868 -0.03943372 -0.11738002 0.42259386

last_fc_log_std.bias f4 [3]
000000 05 5b 5a bf 9a 6e 2a bf a5 aa 37 bf
       -0.85295135 -0.66575015 -0.7174476
