models/Env1/PDSRL_256_A5_S1_P/local_episode_2150_reward_200.000000.pt (torch, 297564 bytes, 8 tensors)

fc0.weight f4 [256, 23]
00000000: fbe0 e93c 99f6 8ebd e90d cc3c 5a56 ffbc
00000010: 521b 0b3d 919d 80bd df89 5bbd 54c2 563c
00000020: 573a 8ebd 6ba6 91bd 05cc e93b e7c5 4cbd
00000030: 6633 5ebd 0ac6 22bd b95f 24bd f002 8a3c
00000040: a048 a5bd 5f90 c8bc 3a2a 103d b750 80bd
00000050: 7fab 583d a401 18bc 3636 a53c f31f d4bc
00000060: 8f86 083d 155f 433d d20e 033d 46a9 7bbd
00000070: 6e93 c2bd b6c1 17bd 7761 c6bd 3b43 99bd
00000080: 681d a0bd 72dc 8ebd acca 04be d9f8 1fbd
00000090: d55e eebd ce3c 2bbd f342 273d 7819 2f3d
000000a0: b065 aabc 7c4a 98bd 277b 023d c38a 37be
000000b0: 4914 343e c280 27be 6d58 173e 31d8 233d
000000c0: bbdd 41bd fc52 00be 512b 923c 2d4f cf37
000000d0: 5d28 b23d 8a8f 053d 5c55 bebd b1db 0abe
000000e0: 2a5c 0bbe 7045 fa3c 2419 eb3c 88b7 953d
000000f0: dc95 973d 02c2 773b 69bd 833a f170 55bd
00000100: 8b3b 27bd d72f 8cbc a761 98bf 330f 94bd
00000110: c385 fb3c 2589 97bc 3051 d6bb adda 773d
00000120: 1263 3e3e 6f5e ff3c 4ca9 1fbe dbec e9bd
00000130: 7a84 1dbe 5c84 babd dca4 23bd 150b 903d
00000140: b975 953c 35b2 943c 5a5d 093d 34b2 93bd
00000150: 6ffe 80bd 2c1f 7d3d 5d82 313e e49a c33c
00000160: e956 18bb 9442 dabe 0343 4c3f ba84 febe
00000170: 3a6b 9f3c 82ce 0ebc 5616 a2bd eab7 dbbc
00000180: 291b 053d 49f0 293d a6b4 39bd ad83 89bd
00000190: e729 3dbc 3141 063d 81c5 c03c e7a8 3fbd
000001a0: 8254 bcbc eac6 683c 61e3 85bd 5e5f 463b
000001b0: 5c32 78bd 46d5 94bd 851f 9dbd 6d8c 193d
000001c0: 5e4a 17bc 0267 9bbc da55 e33c 7cab 6dbb
000001d0: 2abe 063a 7786 0c3c 5a6e 73bd 77ed 3d3d
000001e0: 63e4 4cbd 4f6a 53bd b9cf 413d bf8b 78bd
000001f0: 0c5d 833c 891e 073b f705 f23c 61b8 92bd
00000200: 5d2c 27bd 8173 2d3d 897b 43bd 1f07 88bd
00000210: ba13 50bd 799a 8d3b 323b 47bc 8fd4 9fbc
00000220: a317 683c d4ca 80bd f6a0 ccbc c7e0 cebc
00000230: daf3 9fbb ab79 6e3c 9e44 47bd 34ed 95bd
00000240: ca8e 0cbd 4096 7bbd f469 223d 3c99 27bd
00000250: a0aa 61bc 16e5 66bd 6cf7 04bd 7d3c 44bd
00000260: b800 09bc 98b2 203d ba7f 923c 4c89 4fbd
00000270: d00d 68bd 3d33 30bd 1903 f3bc 7a97 e63c
00000280: 094d d5bc 0577 b6bc 80cc 9cbd b0fe 28bd
00000290: e9a8 6ebd 4ebf cc3c 9e8a a93c 48c8 c13d
000002a0: b614 f63d 580f cfba 8bd1 433c 438e e2bb
000002b0: 07e7 80bd 4a08 acbc 7b68 c53c e543 563d
000002c0: b890 08bd fd9c 09be ebfd b9bd febc abbd
000002d0: 815c 8cbd dd22 1bbe f0c3 8c3f bc67 e33c
000002e0: aa2a 133c 7e73 05bd adbf 81bc a5a6 803c
000002f0: 4d67 3abd a659 27bd 6627 90bd 95f7 54bd
00000300: 0ecc a1bc 9a88 52bb 74c0 93bd 62d4 00bd
00000310: 4ae9 c3bc 94a8 38ba 8da5 3c3c 6385 e5bc
00000320: 91d6 33bd 1d67 dc3c 2683 343d 4554 36bd
00000330: 1cae 103d dfad 1fbc 8e5d 1fbc f972 ffbd
00000340: f577 40be 2f76 f6bd 0a6a 463d 459c 123e
00000350: b875 ac3d 64d9 8a3d 9eff a0bd fab1 42bd
00000360: 34b4 c53d e53c 663d 2cb3 06bc 6924 34bd
00000370: e2ba a9bd d9fb b23c 6cc1 c43c 1f1e 6b3d
00000380: 284a fb3d 5c82 82bd 1507 30be a29a 8abc
00000390: 8f4d 03be 53ab bf3e 6b61 f63b 83cb 8fbc
000003a0: 6724 6d3d 21e8 0c3e 1243 6d3c 62fb f2bb
000003b0: c8b1 00bd 1797 25be a846 2fbd 943f 0dbd
000003c0: a8c9 4d3d fa7d bebd cf20 9ebd 587b 9cbd
000003d0: ff9d 09bd 41b9 35bd bf19 713d edc9 c23c
000003e0: 713a 01bd ffa6 19bc 289b 653f 981f d63d
000003f0: 75fe cb3e b85a 5f3d fc20 c73c 705b a43b
0.028549662 -0.069806285 0.024908977 -0.031169105 0.0339616 -0.062800534 -0.05359828 0.013107855
-0.06944721 -0.0711182 0.0071349167 -0.049993422 -0.054248236 -0.039739646 -0.04013035 0.016847104
-0.08070493 -0.024482904 0.03519652 -0.06265395 0.052897926 -0.009277735 0.020167451 -0.02589414
0.03333145 0.0476981 0.031996556 -0.06144073 -0.09500776 -0.03704997 -0.09686559 -0.07483526
-0.07818109 -0.0697564 -0.12967938 -0.03905568 -0.116391815 -0.041806035 0.040835332 0.0427489
-0.020800442 -0.07436082 0.03185573 -0.17924027 0.17585863 -0.16357711 0.14779826 0.040001098
-0.0473306 -0.12531656 0.01784292 2.4713192e-05 0.08699105 0.032607593 -0.09293625 -0.13560368
-0.13609377 0.030550689 0.028698511 0.073103964 0.0740163 0.0037804847 0.0010050955 -0.052109662
-0.04082827 -0.017112656 -1.1904801 -0.072294615 0.030703431 -0.018498013 -0.00654044 0.06051128
0.1859248 0.03117296 -0.15591925 -0.1142213 -0.15382567 -0.09107277 -0.039952144 0.07033364
0.018244611 0.018151382 0.033536293 -0.07211724 -0.06298529 0.061797306 0.17334886 0.023877569
-0.0023245162 -0.4262892 0.7978975 -0.49710637 0.01946031 -0.0087162275 -0.079144165 -0.026821095
0.032496605 0.04148892 -0.045338295 -0.06714568 -0.011545635 0.032777015 0.023531677 -0.046791937
-0.022989515 0.014207581 -0.0653751 0.0030269246 -0.0605949 -0.07267241 -0.076720275 0.037487436
-0.009234039 -0.018970016 0.027750898 -0.0036265543 0.0005140031 0.008576981 -0.05943141 0.046369042
-0.050022494 -0.051615056 0.04731724 -0.060680147 0.01603558 0.0020617566 0.02954386 -0.07164074
-0.040813792 0.04234648 -0.047725234 -0.06641983 -0.050800063 0.004321393 -0.012160109 -0.019510536
0.014165792 -0.062886864 -0.024979096 -0.025253667 -0.0048813643 0.014555375 -0.048649423 -0.073206335
-0.03431586 -0.061422586 0.039651826 -0.04091762 -0.01377359 -0.056370817 -0.032462522 -0.04790925
-0.008361988 0.03923282 0.01788317 -0.050668046 -0.056653798 -0.043017615 -0.029664563 0.028148402
-0.02603771 -0.02227355 -0.07656193 -0.041258514 -0.058266554 0.024993565 0.02069598 0.09462029
0.12015669 -0.001579742 0.011951814 -0.0069139316 -0.06294065 -0.021000046 0.024097672 0.052310843
-0.03334114 -0.13438793 -0.09081634 -0.08385657 -0.06853581 -0.15150018 1.0997295 0.027759425
0.00898234 -0.032580845 -0.015838468 0.015704462 -0.04550867 -0.04085698 -0.07038765 -0.051993925
-0.019750621 -0.0032124878 -0.07214442 -0.031452544 -0.023914952 -0.0007044163 0.01151408 -0.028017705
-0.0439058 0.026904637 0.044070385 -0.04451396 0.035322294 -0.009746044 -0.009726895 -0.12473101
-0.1879576 -0.120342605 0.04844097 0.14317425 0.084208906 0.06779745 -0.07861255 -0.047533013
0.09653512 0.056210417 -0.008221429 -0.043980036 -0.08287598 0.021848606 0.024018012 0.057401773
0.122700036 -0.0637252 -0.17190202 -0.016919438 -0.12822555 0.37435398 0.0075189373 -0.017553097
0.057896044 0.13760425 0.014481323 -0.007415221 -0.031419545 -0.16170917 -0.042791992 -0.03448446
0.050241143 -0.09301372 -0.077211015 -0.076407135 -0.033597942 -0.044366125 0.058862444 0.023777926
-0.031549875 -0.009378194 0.89689875 0.10455245 0.39842573 0.054529876 0.02430772 0.005015783

fc0.bias f4 [256]
00000000: 8286 a73d d34e a73d 6689 933d 3b49 053e
00000010: d25a a93d 4cc2 af3d ae4f ac3d 623e d63d
00000020: 6fe6 ad3d 7dc5 6a3d c3f3 5d3d 720d d93d
00000030: cdcc cc3d b4fc e23d 025d 9a3d 1ba3 c73d
00000040: f4ce 053e e4aa ae3d a9b3 c13d 5439 a23d
00000050: 2b08 b33d 2c54 a73d 833b ac3d a230 be3d
00000060: 6ecc ad3d cbdc bf3d 4cf5 c93d f483 be3d
00000070: 03db aa3d a645 023e 50eb a53d a1b1 963d
00000080: cdcc cc3d 434b ac3d 1e97 b13d ebaf cb3d
00000090: 8dcc b23d 6721 a83d e6f9 a43d 8733 963d
000000a0: e3fd c33d cdcc cc3d f661 e53d 760d 9a3d
000000b0: 4815 a53d 3828 b83d 815c 193e b064 aa3d
000000c0: a783 9b3d 7b5d fc3d ff40 b13d 2748 e53d
000000d0: 424c ac3d 5295 b53d 06c5 913d 1a3f b03d
000000e0: c90a c93d 3ace a03d 994d ac3d 3709 c43d
000000f0: cb94 8e3d 29aa ae3d 7051 ad3d 91e2 943d
00000100: 46ae 873d f8bb ac3d 9dc2 a43d 56f3 cd3d
00000110: 093a 6c3d aa97 893d 59b4 993d a93a 923d
00000120: bb7f fd3d c8be 9e3d 42eb b03d bb5e ea3d
00000130: 8d80 8b3d 9731 a73d eaca 873d cdcc cc3d
00000140: d87f a33d 9ff7 8f3d f120 a13d 68f4 a13d
00000150: 74f7 c63d 93e1 ae3c ad25 a43d f65a 923d
00000160: a7e3 b33d 20d3 ac3d 05cb a53d bde3 d63c
00000170: cdcc cc3d 673c e83d 86ee 0d3e 80d1 ce3d
00000180: af68 a23d 5257 723d 999c 983d 1795 ac3d
00000190: 2e64 e43d 33e1 e33d f248 ae3d ba47 df3d
000001a0: cdcc cc3d 024b a63d 3b5b ac3d 709e ac3d
000001b0: 0754 f03d d7e9 a63d df4a a43d e07f a63d
000001c0: a7e4 aa3d 2703 013d 083d 233d 9b34 083e
000001d0: 2cab 9d3d 1205 ae3d 52d0 ad3d f49e 893d
000001e0: e6fb b33d bbe7 9f3d 486f 673d cdcc cc3d
000001f0: 440c e83d 5c94 9c3d 8ff2 c93d 4cad 513d
00000200: 49c3 a23d 007e ea3c c59d 853d 8916 713d
00000210: 96df ad3d 01bc ab3d 8c49 a43d 5b94 a63d
00000220: cdcc cc3d 2ab5 703d cdcc cc3d 4a72 ba3d
00000230: cd09 c23d d39d ac3d ee09 653d 24b8 963d
00000240: c9ac 1f3e 07d3 c53d e5f0 aa3d 0097 bd3d
00000250: e3dc 973d cdcc cc3d 11d2 ae3d abaa 833d
00000260: d3df 073d fa4b cc3d cdcc cc3d d662 b43d
00000270: 20d6 e23d 7734 a33d e353 853d aec5 ac3d
00000280: dcf6 9d3d 117b b03d 3c0d ab3d 5e87 9d3d
00000290: d3ba a43d 7784 d73d cdcc cc3d 1cf1 983d
000002a0: 32c5 7d3d e01d 9a3d 6b1c cc3d cdcc cc3d
000002b0: f64d b53d e8cb 4c3d 813a b53d 8fba ae3d
000002c0: 425d 903d ac71 a73d 468e b23d df70 ac3d
000002d0: 9f16 0f3e cdcc cc3d 9470 673d c5da 093e
000002e0: e654 9e3d 1b47 ac3d cc0a 913d 67db 8e3d
000002f0: 3f15 ad3d 8c82 c43d cdcc cc3d e2cf ad3d
00000300: 25a1 a53d 3348 b53d 78aa b93d acef ab3d
00000310: 8095 903d 4982 873d e7f6 ad3d b573 ac3d
00000320: 7e73 7a3d e7a9 f73d 622a 133e ce4b 073d
00000330: 6892 ac3d 3d0f 843d ac10 943d fdb0 ae3d
00000340: 45d5 873d ca5b b33d 8863 943d 8382 a43d
00000350: 7a2b a93d 33de a53d be92 963d 6818 ad3d
00000360: e130 9e3d cdcc cc3d 7200 7c3d f98a 103e
00000370: 0349 ac3d 4374 a53d 5a37 863d ea0c 833d
00000380: e7c4 a73d d410 f73d b93d b13d 72bc 9e3d
00000390: bb9a ae3d 308f ac3d 619c af3d 94ea b33d
000003a0: cdcc cc3d d4b6 a23d 6f63 313d a92a b33d
000003b0: 2b4d b13d 7d8a ac3d a262 b43d cdcc cc3d
000003c0: 220d b83d d8da cc3d cdcc cc3d cdcc cc3d
000003d0: e535 f13d 7deb a33d a6d5 ac3d 24e9 b03d
000003e0: 2155 633d af51 933d 8a77 ac3d 3004 203d
000003f0: 88a1 f93d 2b52 b93d 8b4d ac3d 0827 b63d
0.08179952 0.081693314 0.07203941 0.13016216 0.08269276 0.08581981 0.08413635 0.10461117
0.08491217 0.057317246 0.054187547 0.105982676 0.1 0.110833555 0.07537271 0.09747907
0.13067228 0.085286885 0.094580956 0.07921091 0.08741792 0.081703514 0.084097885 0.0928662
0.084862575 0.09368285 0.0986124 0.09302512 0.083425544 0.12721881 0.08101523 0.07358099
0.1 0.084127925 0.086714014 0.09945663 0.08730421 0.08209496 0.08055477 0.07334047
0.095699094 0.1 0.11200325 0.07522099 0.080607 0.08992046 0.14976694 0.08319986
0.0759347 0.123225175 0.08654975 0.111954026 0.084129825 0.08866371 0.07117657 0.08605786
0.0981651 0.078518346 0.08413238 0.0957207 0.06961974 0.08528549 0.084627986 0.072697766
0.06625037 0.0843429 0.08044932 0.10056178 0.057672534 0.06718381 0.07505102 0.07140095
0.12377878 0.077512324 0.08638622 0.1144385 0.068116285 0.081637554 0.066305 0.1
0.07983369 0.07029652 0.07867611 0.07907945 0.09715167 0.021347797 0.080149986 0.07146256
0.087836556 0.084387064 0.080953635 0.026231641 0.1 0.11339646 0.1386052 0.10098553
0.07930123 0.059165306 0.07451744 0.08426874 0.1115192 0.11126938 0.08510007 0.10902353
0.1 0.08119775 0.08415838 0.08428657 0.11734777 0.0815007 0.08022093 0.08129859
0.08344393 0.031497147 0.039853126 0.13301317 0.07698664 0.08497061 0.084869996 0.06719771
0.0878828 0.07807871 0.05650261 0.1 0.113304645 0.07645485 0.098607175 0.05119066
0.07947404 0.028624535 0.06524233 0.05885938 0.08489911 0.08385468 0.080218405 0.08133765
0.1 0.05876652 0.1 0.0910383 0.094745256 0.0842854 0.055917673 0.07359341
0.15593256 0.09659391 0.08346728 0.092573166 0.07415178 0.1 0.08536161 0.06429037
0.03317244 0.09975429 0.1 0.08807914 0.11075997 0.07968991 0.06510141 0.08436142
0.077131 0.08617223 0.08352134 0.07691835 0.080434464 0.105233125 0.1 0.07467863
0.06195564 0.075252295 0.09966358 0.1 0.088527605 0.049999148 0.08849049 0.08531677
0.070490375 0.08175978 0.08718543 0.08419966 0.13973473 0.1 0.056503847 0.1346236
0.07731037 0.08412 0.070821375 0.069754414 0.08451318 0.09595212 0.1 0.08486916
0.080873765 0.088516615 0.090657175 0.08395323 0.07059765 0.06616647 0.084943585 0.08420507
0.0611453 0.12092953 0.14371637 0.033031277 0.08426362 0.06448219 0.072297424 0.085298516
0.06632475 0.08757742 0.072455466 0.08032706 0.082602456 0.08099022 0.073522076 0.08451921
0.07724167 0.1 0.061523862 0.14115514 0.084123634 0.08078816 0.06553526 0.063989475
0.08191853 0.120637566 0.08654351 0.07750787 0.08525606 0.08425748 0.08574749 0.087849766
0.1 0.07945028 0.043307718 0.08748371 0.08657297 0.08424852 0.08807875 0.1
0.0898688 0.10002679 0.1 0.1 0.11777858 0.080039 0.08439188 0.08638218
0.055501107 0.07193314 0.08421238 0.039066494 0.12189013 0.090488754 0.08413228 0.08894163

fc1.weight f4 [256, 256]
00000000: f0be 813c 97ad 6bbd 9928 543d e421 12be
00000010: 9df1 713d 4884 6cbd 1801 133c 6189 65be
00000020: 34f6 d83c 5977 3d3c bd9c 003d 9975 55bd
00000030: 80ec a73a e68a 2dbc b9e4 cb3b 200a 243d
00000040: 1f9b 3abe c214 553d 1f89 94bc b99b 803c
00000050: b41f 943c 5f46 6ebd 378b fb3b ff22 8abd
00000060: dc0c c63c 7609 8e3d f459 cf3d 5689 8f3e
00000070: ffd4 0ebd f03b 743e 2e7e 0e3c 05d3 533d
00000080: e887 ab3c e0c4 7d3d bcf8 dcbc a77c c13e
00000090: 1222 273d 015a cc3c cc51 2e3d 3d82 db3d
000000a0: 3fde f3bb cc81 69bd c74f 39be 7261 193d
000000b0: 3f0a 55bd 8395 603c 13e8 b4bd 39fe 7cbd
000000c0: 86f5 1bbd 5626 dfbe 70d4 9b3c 7936 8e3d
000000d0: a741 9f3d 889e e83c 165f 20bc cbe2 12bc
000000e0: 6479 6f3e 83f9 52bd 5872 453d 8576 0abf
000000f0: b168 373d bab4 bdbc 296c 5c3d 0eba 153d
00000100: 04ac cdbb cec4 80bd 2aa8 553d 2432 88be
00000110: e2c1 053d b94d fb3c 2042 e1bc 7139 4c3d
00000120: 037a 1cbe 3fad c23c c806 9d3c 3fad 70be
00000130: de64 f43c c056 94bc 6afa 8cbd 1c86 29bd
00000140: 283a 3ebd 87f9 463d 3990 f2bd 47c4 673d
00000150: c164 5dbe 185f 52be 1db5 233d 0294 59bd
00000160: 5853 6fbc 69c0 03bd 0258 043d 12f4 9b3d
00000170: 58c5 8bbc 81a5 34be 1f3c 68be 6bb4 8e3e
00000180: dcf2 003d d23a a43d 71d7 283c 74e5 f9bc
00000190: 7d86 5e3e 28f0 b6be 57dc 85bd 331a e7be
000001a0: 4081 6dbb bc26 743d 2099 5bbd 3061 0c3c
000001b0: 8627 eabe 5dc0 473c 2a54 383d ad38 3c3b
000001c0: 6d70 4e3d 78ae 843e a40c fa3b 72ec 14bf
000001d0: 8a1a 8cbc ccc3 9e3d 2e34 c2bb 9210 62be
000001e0: bfbc 15bd f0ca 023e 5738 a93d 68c6 e43c
000001f0: 9459 afbc 1e5e 83bb 3908 1dbe a70d 9fbd
00000200: 6125 84bd 9b55 90bd 05f8 38bd e465 773d
00000210: d626 3dbd 6720 89bb 059e 0f3c b813 efbc
00000220: f0e1 953b 66d8 8fbd b83f 40bc 109e 6d3c
00000230: 4904 b53d d4b7 82bc 99d7 813d 995e c53d
00000240: a94b debe fba7 1ebd e8f5 34bc bcec 783d
00000250: f7bd 61bd c051 cfbb c823 1c3d fef2 373e
00000260: eaee 453d b6e5 88be aeeb 373d ca4f a53d
00000270: 8774 58be 7869 2d3c 06f5 48bc 8264 473d
00000280: dea4 05bd 006e 0939 21f4 923d a7a6 4b3d
00000290: 1475 723b cdb0 49be ae67 3b3d 9b68 973a
000002a0: c6c5 96bd 0e5a 023d 9a0e 323c 208c aa3c
000002b0: e573 3f3d fa27 f23b e5ee 3bbd d6d1 e937
000002c0: d2f8 debc 1c52 45bc 6a89 5a3d 385d 803c
000002d0: 37d3 1cbe b854 473c 7180 f73d 6c54 e7be
000002e0: 1b52 bd3b c813 2dbd cbf2 d63b e86b 9a3c
000002f0: 3e2c d9bc 9b5a e63d aeec 75bd a58a d73c
00000300: e3d5 1abd 0ee8 05bd c4c3 d43d 062e 003d
00000310: 1e37 703d 1eeb 8cbd 19d3 393c 7a1f 553d
00000320: b051 b73b bf19 953d fae2 4f3d 24dd a33d
00000330: 2b34 9cbb 2bac dc3b f8f7 2dbd 9b54 91bd
00000340: e0f9 4d3e 8812 fb3c ddeb 46bd 495a 2c3c
00000350: d8a6 edbc 552c 7abd e672 173d 4328 0ebd
00000360: bafe 18bf c874 32bc cceb 0abf 5182 20bf
00000370: 6835 643c 2da8 7bbd ba02 1dba a273 32be
00000380: c178 24bd 9771 55be 6f92 96bd e787 133d
00000390: 06cf 77bb 18d1 6e3c c8df 3bbd a936 79bd
000003a0: c4a9 1d3d fab5 923d 6442 58be 308f 8bbc
000003b0: 72e5 58bd 244a 143d 1827 043d f6bd 5cbd
000003c0: 3342 1fbd 4b3c 86be 66ce 413d 28aa 61bd
000003d0: 04df f2bd 4674 1cbb e23a d83a 42a9 163d
000003e0: b68a 773e a65e 71bc 0ab2 03bd a564 97bd
000003f0: c32d aa3e b795 573d 36a1 043d cae4 a83d
0.015838116 -0.057538595 0.05179653 -0.14270741 0.05906831 -0.05774334 0.008972429 -0.22415687
0.026484586 0.011564099 0.031399477 -0.052114103 0.0012811571 -0.010592198 0.006222334 0.04004872
-0.18223237 0.05202175 -0.01813179 0.015699254 0.018081523 -0.05817258 0.007676508 -0.06744956
0.024176054 0.06935398 0.10124579 0.28034467 -0.034871098 0.2385099 0.008697076 0.051714916
0.020938829 0.061955333 -0.026974075 0.37790415 0.040803976 0.024945261 0.042558476 0.107182
-0.0074422653 -0.05700855 -0.18096839 0.037446447 -0.052011725 0.013707521 -0.08833327 -0.061765883
-0.038075946 -0.43583935 0.019022197 0.069439836 0.07776194 0.028395906 -0.009788295 -0.0089652045
0.2338615 -0.051507484 0.04820475 -0.54087096 0.044777576 -0.023157466 0.053814087 0.03655439
-0.0062766094 -0.062875375 0.052162327 -0.26600754 0.032655604 0.03067671 -0.027497351 0.049859468
-0.15280919 0.02376425 0.019168273 -0.23503588 0.029833253 -0.018107772 -0.068837 -0.041387662
-0.04644218 0.04857781 -0.118439145 0.05658367 -0.21620466 -0.20544088 0.039967645 -0.053119667
-0.014607273 -0.03216592 0.032310493 0.07614912 -0.017061874 -0.1764126 -0.22679184 0.27872023
0.03148161 0.080190316 0.0103052715 -0.03050492 0.2173099 -0.357301 -0.06536167 -0.45137176
-0.003624037 0.059607252 -0.05361283 0.008568093 -0.4573328 0.012191859 0.04500214 0.0028720305
0.050400186 0.2591436 0.0076309014 -0.58173287 -0.017102499 0.07752189 -0.0059266305 -0.22076634
-0.036556955 0.12772727 0.08262699 0.027926639 -0.021405019 -0.0040090224 -0.15335168 -0.07766276
-0.06452442 -0.07047578 -0.045158405 0.060399905 -0.046179615 -0.004184771 0.008765702 -0.029184207
0.004574053 -0.070236966 -0.011733942 0.014503017 0.08838708 -0.015956797 0.0633995 0.09637184
-0.434171 -0.038734417 -0.011044957 0.060772642 -0.055112805 -0.006326884 0.03812006 0.17963788
0.04832355 -0.26737756 0.044902496 0.08071859 -0.21138202 0.010584228 -0.012265449 0.048679836
-0.032627933 0.00013106316 0.0717547 0.04971948 0.0036996054 -0.1969635 0.045753174 0.0011551561
-0.07361941 0.031824164 0.010867739 0.02081877 0.046741385 0.0073900195 -0.045882124 2.7873477e-05
-0.027218256 -0.012043502 0.053353705 0.01566945 -0.15314947 0.012166195 0.12085045 -0.45181596
0.00577761 -0.042255193 0.006559705 0.018850282 -0.026510354 0.1124775 -0.06004017 0.026311228
-0.037801635 -0.032692008 0.10388902 0.03129389 0.058646314 -0.068807825 0.0113418335 0.05203197
0.0055944547 0.07280301 0.05075357 0.080011636 -0.004766961 0.006734391 -0.04247281 -0.07096215
0.20114851 0.030648485 -0.04856478 0.0105195725 -0.029010221 -0.061077435 0.03697481 -0.034706365
-0.5976368 -0.010892101 -0.5426605 -0.6269885 0.013928749 -0.06143968 -0.0005989481 -0.17426923
-0.040154222 -0.20844112 -0.07352149 0.03601828 -0.0037812605 0.014576219 -0.04586771 -0.060843144
0.03849198 0.071636155 -0.21119076 -0.01703605 -0.05295319 0.03620352 0.032263845 -0.0538921
-0.038881492 -0.26217875 0.047315978 -0.055093914 -0.11858943 -0.0023873015 0.0016497041 0.03678251
0.24174008 -0.014732039 -0.032152213 -0.07392243 0.33238038 0.052633014 0.032380305 0.08246763

fc1.bias f4 [256]
00000000: 7b89 523e 784e 873d 9fe6 ce3e 1510 733d
00000010: 6c57 42be 1604 acbd 0b1d 473d 238c 003e
00000020: d430 dd3c 227a 0b3e 079e 963d 56ac f3bc
00000030: ed1d 8c3d 7690 cebd 1dd7 9c3d 5077 913e
00000040: f591 283e 2eef 5f3c 5641 903d fa40 6b3d
00000050: 5192 2f3d 0b86 983d 13f4 f03d bbf1 e33d
00000060: ee0a a43e aced dcbd 02f3 843d b73d 8dbc
00000070: 86cc 793d 064f 673d 4871 2e3e 8854 3f3e
00000080: 668a 4fbe 626f 293e dbec 0e3e a967 2d3e
00000090: 64ac 473d d889 8fbd 62ab f8bc d68f 293e
000000a0: 65c8 2d3e 8ae1 bcbb a806 34bd e775 703e
000000b0: 22e6 3a3d 8c5c 293e 3521 3e3e aaa7 813e
000000c0: 1401 063e 4997 fbbc 53c2 093e 2178 943e
000000d0: d4c9 203e c7d8 9cbd 428d 373e ccf0 35bc
000000e0: a806 933e fc71 533d e51a 3d3d 8fa3 1ebe
000000f0: bb52 c23d 52ac d2bd 24ff 4b3e f29c adbc
00000100: 86fe 423e 3189 4e3e ec27 183e 0daa 143d
00000110: f73d 643d 5332 d63d a720 10be 7089 213e
00000120: f963 13be 6438 303d fcf2 5f3e 8270 583d
00000130: ce6e 4c3e aea2 8ebb 11e4 c03d fd99 2cbe
00000140: 9f00 d33d fa89 4a3e 8834 283d 760e 363d
00000150: 10ef 5e3d f4ff 3f3d c98f 5d3d cc38 863e
00000160: fb69 a8bd 08d5 353e 16d5 733e a2a8 333d
00000170: 94ac e53d 2218 313d b8f5 b43d 2e66 a9be
00000180: 3a16 713d d019 f13d 1f68 283d 4285 d53d
00000190: 1860 f93d 793a 2fbd 9bc8 673e 313a 7a3d
000001a0: d0d9 eb3d d49a 1d3d 69d4 13be 7ce4 f93d
000001b0: 73e1 2b3c 5d01 883e b3de 523e 2b7e cbbd
000001c0: 78a8 293e a72b 193d ac95 8f3d 5d23 1c3d
000001d0: 4ba1 39bd aca6 963e 03ae 733e 00fc 063d
000001e0: 2257 383b ea12 c63d f1c2 6dbd 54a7 4b3d
000001f0: 7458 4ebc 34ed c73d 0011 6fbe 7553 f03c
00000200: 2877 e6bd c127 7b3d 78f7 19be 7c16 903c
00000210: 5117 6b3e 37b7 ff3a 4b7a 813e 0bc6 9d3d
00000220: 039a 4d3e 2d4e 843e 200a 193e c573 713d
00000230: 0288 453e 9f4e 023d 89c0 163e 3697 d03d
00000240: 3a2b 0cbc bf31 24be 2b66 7e3d f87a 2d3d
00000250: f03a 313e 3125 0e3e 84c1 363e 7286 5b3d
00000260: e8ff 1e3e 6d86 f73c 656a 133e d412 133e
00000270: b9d8 a1bd dd52 d73c 15f7 3b3d 6c2a e33d
00000280: ca77 01be 7e59 8b3d f2d2 af3c 902d 603d
00000290: bdb9 623e f8b3 cf3d 3532 fa3c e4c1 3b3e
000002a0: 8ac1 953d 3c3a 8e3d 26bb 643d 8879 13bd
000002b0: e8f1 d33c 5125 a93d f267 1f3d 9e39 2f3d
000002c0: d20f 203d d5c8 133e 7a35 353e d0ab 293e
000002d0: 8f01 5d3e a1ab c43d 8d76 8abe f4d1 983e
000002e0: 9018 943e 52be f73d cea6 4d3d 8b5f 463e
000002f0: 37da 3d3e e54f 053e 7c5d 3d3e be53 1b3e
00000300: 471f a63c 743f cc3c 1638 4d3e f5e1 103e
00000310: e223 6ebd aa31 513e 5376 643c dc59 38be
00000320: f8a5 d73c 9818 7d3d ba9d 96bd c393 513e
00000330: e24c ae3e b01a aa3d 1a4e 383d 061a 553d
00000340: 5505 863d c50c 823d b92e 193e a1af c3bd
00000350: 70fe fc3d 92cb b73d 46b9 893d bf9a 8a3e
00000360: 95b1 153d face 823e 73d4 963d 1711 ba3d
00000370: 3aea 99bd 2427 61bc 73c1 803e 74ce 99bd
00000380: 3be9 2d3e 4d5a 063e b8b2 de3d 7444 a63d
00000390: 3827 a63c e521 8e3d 8040 dd3d 6d11 6f3d
000003a0: 80a5 593d d6ea e63d 3c0c dc3d 2792 c63c
000003b0: d61c 1b3d 30f1 2b3e 4395 083e 1ae4 3c3e
000003c0: 5b82 a13e 3e81 683d 2c03 ca3c 745e 223d
000003d0: 3a4a 2f3e 11f0 483d c164 303d f269 563d
000003e0: c291 5b3e e491 28bc 466e 133e c1b6 113e
000003f0: e8c8 f63d 691a 293e 2ab3 f13d 6cd9 603e
0.20560257 0.066067636 0.40410325 0.05934151 -0.18978661 -0.08399217 0.048611682 0.12553458
0.027000822 0.13620809 0.0735436 -0.029745262 0.068416454 -0.100861475 0.07658217 0.2841134
0.16461928 0.013667865 0.07043712 0.057435013 0.042864148 0.07447442 0.117653035 0.11130091
0.3203959 -0.1078752 0.064916626 -0.017241342 0.060986064 0.056471847 0.17035401 0.1868459
-0.20267639 0.16546395 0.1395754 0.16934074 0.04874839 -0.070087135 -0.03035516 0.16558775
0.16970976 -0.005764191 -0.04395166 0.23482476 0.045629628 0.1653921 0.18567355 0.2532323
0.13086349 -0.030711787 0.13453035 0.289979 0.15701991 -0.076585345 0.1792498 -0.011104774
0.28716016 0.051622376 0.046168227 -0.1549208 0.09488436 -0.10286774 0.19921547 -0.021193001
0.19042405 0.20169522 0.14858979 0.036294986 0.055723157 0.10458817 -0.14074956 0.15775084
-0.14393605 0.04302253 0.21870035 0.05284167 0.19964144 -0.004352889 0.094185 -0.16855617
0.10302853 0.19779196 0.041065723 0.044447385 0.054427207 0.046874955 0.054092202 0.26215208
-0.08223339 0.17757046 0.23811755 0.043861993 0.11214557 0.043235905 0.0883593 -0.3308577
0.058859088 0.117725015 0.041114923 0.104258075 0.121765316 -0.042780373 0.22635119 0.061090652
0.11516154 0.038477734 -0.14436497 0.12201783 0.010490763 0.2656354 0.20592766 -0.09936174
0.16568172 0.037395146 0.070109695 0.038119663 -0.045319837 0.29424036 0.23796849 0.03295517
0.0028128107 0.09671576 -0.05804724 0.049720123 -0.012594331 0.0976204 -0.23346329 0.02933667
-0.11253196 0.06131721 -0.15035808 0.017588846 0.22958113 0.0019509558 0.25288615 0.07703789
0.20078282 0.25840893 0.14945269 0.058948297 0.19290164 0.03181326 0.14721884 0.10185091
-0.008555228 -0.16034602 0.062109154 0.0423536 0.17307639 0.13881375 0.17847258 0.053595014
0.15527308 0.030215466 0.14396055 0.14362651 -0.07902665 0.02628463 0.045889933 0.11092076
-0.12643352 0.06804179 0.021462891 0.05473095 0.22141166 0.10141748 0.030541519 0.18335682
0.07312305 0.06944701 0.05584254 -0.036004573 0.025872186 0.08259071 0.03891749 0.042779557
0.039077587 0.1443208 0.17696181 0.16569448 0.21582626 0.09603048 -0.27043572 0.29847682
0.2892499 0.120968476 0.050207905 0.19372384 0.18540274 0.13018759 0.18492693 0.15168664
0.020278586 0.0249326 0.20040926 0.14148696 -0.05813969 0.20429102 0.013944226 -0.18003029
0.026324257 0.061791033 -0.07354303 0.20466523 0.34043032 0.083058715 0.04499636 0.05202677
0.06543986 0.06350092 0.1495923 -0.09554983 0.123532176 0.08974375 0.06724791 0.27071187
0.03654631 0.25548536 0.0736474 0.09085291 -0.07515378 -0.013742242 0.2514759 -0.07510081
0.16983502 0.13120385 0.10873932 0.08118525 0.020282373 0.069400586 0.10803318 0.058366228
0.05313635 0.1127526 0.10744521 0.024239613 0.037869297 0.16791224 0.13338189 0.18446389
0.31544766 0.05676388 0.024659716 0.03964086 0.17118159 0.04905707 0.043064836 0.05234713
0.21442321 -0.010288689 0.14397535 0.14229871 0.120500386 0.16513981 0.11801751 0.2195794

last_fc.weight f4 [3, 256]
00000000: 2b37 36be 5492 7fbe bb7d 1abc 839b a03b
00000010: 34b8 d6be 0057 1fbe a55a 66be af59 d3bd
00000020: 311b f2bd 2233 bf3b 7e6f 813e 708b 0dbf
00000030: dda2 5d3c b33c f8be 4b1c 8abe 547a b93d
00000040: 3395 013d 65bc 10bc 3b56 7a3e 8a14 0fbe
00000050: b5cc 8b3c 4f9a 8fbe 730c f8bc dbc1 933d
00000060: b4a7 953e a257 0d3f 5315 1dbe eb91 01be
00000070: 502e 4abe ab8f 0bbb af3d 093e 95bb 15be
00000080: 3628 ec3d 640d 443e 43ee 6d3c d8ef 18bd
00000090: b8af b4bb c771 bdbd ceb6 4b3e 60d9 d1bd
000000a0: c962 083d d5d4 c93e 0610 f0be 2105 183e
000000b0: 7f9e efbc 4f92 ecbc dfd9 1cbe e608 f23e
000000c0: 42c7 183e eb9d 1ebd 0dfa 6ebd f235 9dbe
000000d0: 0c70 19be 0668 03be 5f67 71be be51 84bd
000000e0: aa21 153e f06b b2be fe3b 743e 8cb3 8bbb
000000f0: 50f0 d63d 29bf 333f ecbb 193e 82ef f0bd
00000100: 4244 163d c235 8b3d d6ea 413c fa15 c1bd
00000110: a83e 9dbb c512 9e3d 5235 df3d 1f6f e13d
00000120: cad2 7fbd d2b5 66bb 10a7 ffbd c497 31bc
00000130: cfd6 0a3d fe62 0cbd 9e1a ae3e e5b0 3bbe
00000140: 05dc 443e f95d d43d a9d0 24bc c2f4 463c
00000150: d606 4dbc f35c 99bd de79 fcb9 8706 a6bd
00000160: 0b33 6ebd 9190 d33d 1a7b dcbd e234 b63b
00000170: caa3 a03e 4ae1 b53c 1fe7 d33d c203 f93e
00000180: 440c 69bc 90ec 0d3f d16b ce3b d397 c03d
00000190: 5d5d b3bd 2fa4 c5bd 51c0 cb3d da0b e43c
000001a0: 0faf eb3d 7091 3fbd 7056 21bf be1a 503d
000001b0: 8cad 5cbe 8b81 6e3e 32aa c83e 2b9d 4f3e
000001c0: 87a2 dbbd 1ba6 25be 4e71 8dbe 787f 2cbe
000001d0: 7611 913e eb11 ccbb 44b9 0f3e dd6c 02bf
000001e0: 7cfb 15be c13a fabd 2cfb 863e 3c90 0fbe
000001f0: 622e 793e 7e4e c23d c8a7 aa3e 8b86 873d
00000200: 081b b83e abb0 4b3c 73b5 e8bf b05c 81bb
00000210: 0efe f13c f859 a2be 0af5 f63c 6783 1b3e
00000220: dba6 0b3e b399 ae3d 4478 b3bd 4acf 2e3c
00000230: c25b f53d e110 76bd e2e9 1bbd 4821 fc3c
00000240: ec00 4dbe e27c 2ebf f287 0a3d eef4 913c
00000250: a984 7a3d ab5f 80bd 973b 44be 45de 033c
00000260: da65 3f3d b82e 143e 4600 4b3e 21d0 c53c
00000270: 2d95 1fbf 992e c0bd cee1 b13b b6fb 993e
00000280: 077e 2f3f c826 d83c 0551 0abb c047 b73b
00000290: ecd6 8fbe 6141 aa3e ec9b b33e f025 55be
000002a0: 60f7 8ebe b825 183e 5ab2 933b 5c07 c1be
000002b0: 538d 5fbe e123 e4bd 7adf 1dbe 377c 4f3c
000002c0: cd4e 2f3c f8f0 593c 862d 17be 92ee 633e
000002d0: 0930 59be 7045 173f 65b2 0e3e 1aff 923e
000002e0: 78dc 693e 8ef7 23be 98f2 0a3d 9dbf 903d
000002f0: 0f85 00be f7df 3f3e 70f5 203e 54d6 f43d
00000300: 10b5 673e f209 df3b ba6b 493e d853 32bd
00000310: bcd3 98bd 2cbe 473d 5473 9fbd 1763 993e
00000320: b433 183e 7d93 5ebe 60fa 0fc0 9b4e 60bd
00000330: fb78 82bc 70fd 883a 00b3 2a3d c6e1 32be
00000340: d6cc 95bc 9ce0 c3bc dece 263d 0f42 01bf
00000350: 1df7 c33c 2184 58be 6a4b 49bb 0d49 413e
00000360: 785c 75bb e9e0 7cbd 59da 79be ba4c 6c3c
00000370: b091 74bf 84d5 cf3d 124b f9bc 70f2 febb
00000380: 5cf0 a03e becf 77be d28b 073d 98d8 92be
00000390: 502a 263e 9e97 bd39 2df9 96bd 195e e6bb
000003a0: 5a6c 223e 1d34 0dbe 8a24 3cbd 4251 c2bd
000003b0: 7885 81be f116 b93c a288 563c e5ac 04be
000003c0: c5fe b9bb bd70 8ebd 996c 1d3e 3e32 813c
000003d0: 52da 213e 9874 78bc 8c80 f43c 3d20 3bbd
000003e0: d87a a4bd 2f59 023f e24e 7bbe 3aff 5e3e
000003f0: 169e 5f3d 260d 01bf a83d efbd cab2 e63e
-0.17794482 -0.24958163 -0.009429391 0.004901351 -0.4193741 -0.15560532 -0.22495516 -0.1031984
-0.118215926 0.005834953 0.25280374 -0.5529089 0.013527599 -0.4848381 -0.2697471 0.09056535
0.031636428 -0.008833979 0.24446957 -0.13972679 0.017065385 -0.28047416 -0.030279374 0.07214709
0.2922951 0.5521184 -0.15340166 -0.1265332 -0.1974423 -0.002129535 0.13402437 -0.14622338
0.11531107 0.19145733 0.014522138 -0.037338108 -0.0055141114 -0.09250217 0.19893953 -0.10246539
0.033297334 0.3942019 -0.46887225 0.14845707 -0.029250382 -0.02887836 -0.15317486 0.47272414
0.14919761 -0.03872482 -0.058343936 -0.3070522 -0.14984149 -0.1283265 -0.23574589 -0.064609036
0.14563623 -0.34847975 0.2385101 -0.004263347 0.10495055 0.7021356 0.15013093 -0.117644325
0.03668619 0.06797363 0.011835774 -0.0942802 -0.004798729 0.07718424 0.10898842 0.11007523
-0.062456883 -0.0035203588 -0.124830365 -0.010839406 0.033896264 -0.034274094 0.34004682 -0.18329199
0.19224556 0.10369486 -0.010059514 0.012143316 -0.012513837 -0.07488432 -0.00048155984 -0.08106714
-0.058154147 0.10330308 -0.10765667 0.0055605033 0.3137496 0.022202153 0.10346817 0.4863568
-0.014224116 0.5543909 0.006299474 0.09403958 -0.08758042 -0.09650456 0.09948791 0.027837683
0.11507999 -0.04676956 -0.6302252 0.050806753 -0.21550578 0.23291604 0.3919235 0.20274799
-0.10724359 -0.16176645 -0.27625507 -0.168455 0.28333634 -0.006227722 0.14035517 -0.5094736
-0.14646715 -0.12218238 0.26363504 -0.14019865 0.243341 0.094876274 0.33331132 0.06617459
0.35958123 0.012432258 -1.8180374 -0.003947817 0.029540088 -0.31709266 0.03014614 0.15186845
0.13637869 0.085254095 -0.08763173 0.010669539 0.11980392 -0.06007469 -0.038064845 0.030777588
-0.20019883 -0.68159306 0.033821054 0.017816987 0.06116167 -0.06268247 -0.19163357 0.008048599
0.046727993 0.14470947 0.19824323 0.024147095 -0.62337 -0.09383888 0.0054285293 0.30074853
0.6855168 0.02638568 -0.002110542 0.00559327 -0.2809366 0.33253005 0.35079896 -0.20815253
-0.27923107 0.14858139 0.004507345 -0.37700927 -0.21831255 -0.11139656 -0.15417281 0.0126638925
0.01069994 0.01330208 -0.1476346 0.22258976 -0.2120973 0.5909033 0.1393524 0.28710252
0.22838008 -0.16012403 0.03392276 0.07067797 -0.12550758 0.1873778 0.15718627 0.11954942
0.22627664 0.0068066055 0.1967 -0.04353699 -0.0746226 0.048765346 -0.07785669 0.29958412
0.14863473 -0.2173595 -2.2496567 -0.054762464 -0.015926829 0.0010451507 0.041674614 -0.17468938
-0.01828615 -0.023910813 0.040724628 -0.5049142 0.023921544 -0.21144153 -0.0030715116 0.18875523
-0.003743915 -0.06173793 -0.243997 0.01442259 -0.955348 0.10148147 -0.030431304 -0.0077803656
0.3143338 -0.24200341 0.033092327 -0.28680873 0.16227078 0.00036161853 -0.07371745 -0.0070302603
0.15861645 -0.13789411 -0.045933284 -0.09488155 -0.2529714 0.022593947 0.013094099 -0.12956579
-0.005676123 -0.06955097 0.15373458 0.015771028 0.15805939 -0.015164517 0.029846452 -0.04568504
-0.08031243 0.50917333 -0.2454181 0.21777049 0.054594122 -0.5041069 -0.11681682 0.4505828

last_fc.bias f4 [3]
00000000: 6f4c 9b3d bf25 953d 6810 c8bc
0.07582938 0.0728259 -0.024421886

last_fc_log_std.weight f4 [3, 256]
00000000: 8809 afbd 8f3e 9b3e 146a 8dbe f878 da3c
00000010: 4d62 153e 87a3 1f3e d875 46be 2555 f4bd
00000020: 366f 11be dbaf 8bbd 241e 32bd 837f 813e
00000030: d90e 05bc ef50 703e 5da6 2abe 910e 163d
00000040: 38be b7bd 5f9f 53bd acd4 ae3e 881a 97bd
00000050: 65d8 f5bb 68fa 6abc 33c3 a7bd 49dc 03bd
00000060: 2094 82bc f42f 64bc 2513 d83d 9695 013e
00000070: 598d 2cbc 8e13 e7bc 40db 0b3e 3406 f3bd
00000080: 7542 593e 1575 143e a7d1 a2bd 9a88 aabd
00000090: 5d36 f53b b070 fdbd 2dc3 c63d c32d ddbc
000000a0: 5ed3 533e 6353 b0bd 925e 1b3d fed5 40bd
000000b0: 04e6 993d 86d6 353e 7873 afbd 69e2 913e
000000c0: 8fe2 c63d c7d4 18bd 575c 3cbd 65ee 54be
000000d0: c3ab e23d af36 14bc c885 96be 4317 7a3e
000000e0: 569e 493e 3589 f0be 9a1a 9e3e 2cc9 bebd
000000f0: aa55 a13d 111e 6a3e 23a6 603d 2766 8a3c
00000100: 25db 13be da64 67be eeef b4bc d174 19be
00000110: 9904 24bd 75d5 7d3e e9b8 ae3c 1182 3cbe
00000120: ebd2 f93d 12fd e6bc b8bf f0bd d9db 083d
00000130: 16b4 c6bd 63ce 643d fc69 843e d210 a83e
00000140: 45cc 013e 0aaf 9abe 028e 383c 7ff5 5f3d
00000150: 0268 e23c f105 11bd a97c 7b3c 1d18 e8bd
00000160: cd6e 6c3d e7ed ea3c 13d6 48be 80e0 363c
00000170: 3e59 8b3e aba2 1bbc def4 3cbc 9146 b2bd
00000180: ced8 60bc ab80 9b3e 9c2a 953b 8afc 8bbd
00000190: 8633 573d e44e 293d c3a9 c43d 56d6 843b
000001a0: 7644 4d3c 749d f03b 77eb 623e 6e1a ac3c
000001b0: 7c6d 313d d34f db3c f570 8c3e 24d3 b1bd
000001c0: a6f0 b5bd b358 eabd 58bc a63d 5b9d cfbe
000001d0: 0a12 d9bc 0819 453b 5352 a1bc 260d 6fbe
000001e0: 481f dbbc 657d debe f711 08bd ae47 dbbc
000001f0: 9ab3 e0bd 3ca3 6fbd b884 a5bd dc4c a5bb
00000200: 3eb7 5bbe 404e 0a3d 2cef 4e3f 5839 833e
00000210: 6c25 de3d c8a6 123e c30f a5be 7bf1 183d
00000220: a7d4 ac3d 095e 87bd 881e 89bd 4dca af3b
00000230: 2a03 b93d 800e 47bc 9226 febb 6b8f eebd
00000240: 2a08 11be f22b f43d 16e1 433a 4cc6 31bd
00000250: c319 f03d ecbc 87bd be46 a1bd 9b2e 3f3a
00000260: b69e a7bd 1b87 803d ac10 01be 24fe 723d
00000270: eff9 563f 302d 38bd caa7 3d3d 12af 0f3e
00000280: 7351 1c3f c826 a0bd 7c22 c2bc 3d40 c83c
00000290: 4d1c 38be 0e8a 0c3f 7d96 fabc f3c4 9fbc
000002a0: 54f9 eabd 741f 9a3c 3222 9b3c 0467 edbd
000002b0: 13bd 2abd 8950 6ebe 098f 49be 5ed4 793c
000002c0: 11e0 bb3c ab4d 643d 6bd0 3abd 0521 103e
000002d0: 4aba 703d b2cd 343e 573a 71bd ab04 7a3e
000002e0: 653c 7b3d 1b51 0e3e de2e 82bb 90b7 5c3e
000002f0: 87bb afbd 19f4 7a3e 4b6e fe3c 8d8a 3b3e
00000300: 4532 53bc 9d77 263d 6eff 553d 5469 db3d
00000310: 9e78 c33d 5861 50bd 3659 2c3e d3f0 0abe
00000320: f36d 003e 3d4c 7ebd de83 303f a4a8 62bd
00000330: 8bd1 ecbe aeec 073d f5c8 9d3d 519a c6bd
00000340: b463 42bc 04c2 7cbc 103d c03d cd86 1d3f
00000350: ec83 89bc 13ea 2fbe ef74 563c eca7 7cbb
00000360: b550 cc3c 1258 b1bd 5260 b93e 61ee b83c
00000370: e796 db3d b194 043d d8e5 d9bd f06f f4bd
00000380: e7f3 063e a4f2 bcbd d946 5e3c 86b5 623d
00000390: 96f8 2cbe 5480 0abc 432a c63c 705b e73a
000003a0: 317f 6dbc 732a a0bd 2d4a a73d 136b b9bc
000003b0: 1e20 8bbe 72c1 abbd 0ce1 45bd c8a7 84bd
000003c0: 0580 a6be 1ee4 063d fa9a 8c3d 73fd c4bc
000003d0: fdcf 053d 1bc9 803d 2bb6 02bd 2bc6 a03d
000003e0: 07a8 13be 79da c63e deac 533d ce20 e03d
000003f0: ede6 ed3d 63d4 5cbe 2d06 10be e99f ff3e
-0.0854674 0.30321166 -0.27619994 0.02666901 0.1458828 0.15589724 -0.19380891 -0.119303025
-0.1420258 -0.06820651 -0.043485776 0.25292596 -0.008121216 0.23468374 -0.16665025 0.036634985
-0.08971828 -0.05166566 0.3414663 -0.07378107 -0.007502603 -0.014341928 -0.08191528 -0.032192502
-0.015939772 -0.013927449 0.105505265 0.12654719 -0.010531747 -0.028207567 0.13657856 -0.118664175
0.21216758 0.14497788 -0.07950144 -0.08326836 0.0074832872 -0.12375009 0.097051956 -0.02699936
0.20686099 -0.08609655 0.037931986 -0.04707908 0.07514575 0.17757615 -0.08566946 0.2849305
0.09711181 -0.037312295 -0.0459865 -0.20794065 0.11067917 -0.009046241 -0.29398942 0.24422936
0.19689307 -0.4697968 0.3087967 -0.09315714 0.07877667 0.22863032 0.05484594 0.016894413
-0.14439066 -0.22597066 -0.022087064 -0.14985968 -0.040043447 0.24788459 0.021328406 -0.18408991
0.121984325 -0.028196845 -0.117553174 0.033412788 -0.097023174 0.05586089 0.2586211 0.32825333
0.12675579 -0.3021167 0.011264326 0.054677483 0.027637485 -0.035406057 0.0153495455 -0.11332724
0.057722855 0.028677894 -0.19612913 0.011161923 0.27216524 -0.009499232 -0.01153299 -0.08704866
-0.013723565 0.30371603 0.0045521986 -0.068352774 0.05253937 0.041335 0.09602692 0.004053871
0.012528529 0.0073429886 0.22160135 0.021008696 0.043317303 0.026771462 0.2742993 -0.0868285
-0.08883791 -0.11442699 0.081413925 -0.4054974 -0.02649786 0.0030074734 -0.019692576 -0.2334486
-0.026748314 -0.43455043 -0.033220258 -0.026767578 -0.10971756 -0.05850528 -0.08081955 -0.0050445627
-0.2145662 0.03376603 0.808337 0.25629687 0.108469814 0.14321434 -0.32238588 0.03733967
0.08438998 -0.06609733 -0.066952765 0.0053646923 0.090338066 -0.012149453 -0.007756063 -0.116484486
-0.1416327 0.119224444 0.00074722 -0.043402 0.11723664 -0.06627831 -0.07874821 0.00072930165
-0.081845686 0.06275769 -0.12604016 0.0593244 0.8397512 -0.04496497 0.046302594 0.14031628
0.6106178 -0.07819897 -0.023698084 0.024444694 -0.17979546 0.54898155 -0.030589337 -0.019503092
-0.11473337 0.018813826 0.018937204 -0.11591914 -0.04168422 -0.23272909 -0.1968347 0.015248386
0.022933992 0.055738132 -0.04560892 0.14075096 0.05877141 0.17656592 -0.058893528 0.24415843
0.061336894 0.13898127 -0.003972872 0.21554399 -0.0858069 0.24507178 0.031058451 0.18314572
-0.012890403 0.040641416 0.05224555 0.10713449 0.0954449 -0.050874084 0.16830906 -0.1356843
0.12541942 -0.062084425 0.68951213 -0.05533661 -0.4625362 0.0331847 0.07704345 -0.09697402
-0.011864591 -0.015427116 0.09386647 0.61533815 -0.016786538 -0.17179136 0.013089403 -0.0038552238
0.024940828 -0.08659376 0.362063 0.022574605 0.10722142 0.032368366 -0.10639542 -0.11935413
0.13178979 -0.092259675 0.013566696 0.055348895 -0.16891703 -0.008453447 0.024190074 0.0017651152
-0.014495657 -0.078205965 0.08168445 -0.022634065 -0.2717294 -0.08386506 -0.048310325 -0.06477314
-0.32519546 0.032932393 0.06865497 -0.024046635 0.032669056 0.06288358 -0.03191201 0.078502975
-0.14419566 0.38838556 0.05167853 0.10943757 0.11616311 -0.21565394 -0.14064856 0.4992669

last_fc_log_std.bias f4 [3]
00000000: 5536 51bf 1be7 24bf 6022 34bf
-0.8172353 -0.6441514 -0.7036495
