models/Env1/PDSRL_256_A5_S1_P/local_episode_3100_reward_200.000000.pt (torch, 297564 bytes, 8 tensors)

fc0.weight f4 [256, 23]
00000000: fbe0 e93c 99f6 8ebd e90d cc3c 5a56 ffbc
00000010: 521b 0b3d 919d 80bd df89 5bbd 54c2 563c
00000020: 573a 8ebd 6ba6 91bd 05cc e93b e7c5 4cbd
00000030: 6633 5ebd 0ac6 22bd b95f 24bd f002 8a3c
00000040: a048 a5bd 5f90 c8bc 3a2a 103d b750 80bd
00000050: 7fab 583d a401 18bc 3636 a53c f31f d4bc
00000060: 8f86 083d 155f 433d d20e 033d 46a9 7bbd
00000070: 6e93 c2bd b6c1 17bd 7761 c6bd 3b43 99bd
00000080: 681d a0bd 72dc 8ebd acca 04be d9f8 1fbd
00000090: d55e eebd ce3c 2bbd f342 273d 7819 2f3d
000000a0: b065 aabc 7c4a 98bd 277b 023d c38a 37be
000000b0: 4914 343e c280 27be 5852 213e 2253 a33c
000000c0: c211 52bd c5ac fabd 1a00 0d3c 55c2 51bc
000000d0: 6c5d ce3d 0950 ae3c df60 c8bd 30c4 06be
000000e0: b316 1bbe 2345 d93c 0087 073d 6c64 8d3d
000000f0: 90d3 7d3d 9426 1bbd 7e4a 913b 4dcf e2bc
00000100: f0a4 71bd 71e4 51bc 8c36 a5bf ac62 123d
00000110: 5db9 c93d 1c9c b9bc ca37 38bd 93e7 2d3d
00000120: 1768 513e 89d5 333d ddcb 3dbe 9f25 d0bd
00000130: f143 47be b659 e6bd 3192 afbc 4d61 b03d
00000140: 5cf2 233d f7c7 8d3d 63fa 6b3c 3427 bebd
00000150: fd70 95bd a172 993d 0476 293e 9e30 5d3d
00000160: e5f8 403c ded9 b7be 0a24 783f 5ead febe
00000170: 3a6b 9f3c 82ce 0ebc 5616 a2bd eab7 dbbc
00000180: 291b 053d 49f0 293d a6b4 39bd ad83 89bd
00000190: e729 3dbc 3141 063d 81c5 c03c e7a8 3fbd
000001a0: 8254 bcbc eac6 683c 61e3 85bd 5e5f 463b
000001b0: 5c32 78bd 46d5 94bd 851f 9dbd 6d8c 193d
000001c0: 5e4a 17bc 0267 9bbc da55 e33c 7cab 6dbb
000001d0: 2abe 063a 7786 0c3c 5a6e 73bd 77ed 3d3d
000001e0: 63e4 4cbd 4f6a 53bd b9cf 413d bf8b 78bd
000001f0: 0c5d 833c 891e 073b f705 f23c 61b8 92bd
00000200: 5d2c 27bd 8173 2d3d 897b 43bd 1f07 88bd
00000210: ba13 50bd 799a 8d3b 323b 47bc 8fd4 9fbc
00000220: a317 683c d4ca 80bd f6a0 ccbc c7e0 cebc
00000230: daf3 9fbb ab79 6e3c 9e44 47bd 34ed 95bd
00000240: ca8e 0cbd 4096 7bbd f469 223d 3c99 27bd
00000250: a0aa 61bc 16e5 66bd 6cf7 04bd 7d3c 44bd
00000260: b800 09bc 98b2 203d ba7f 923c 4c89 4fbd
00000270: d00d 68bd 3d33 30bd 1903 f3bc 7a97 e63c
00000280: 094d d5bc 7cde 96bc cb4e 09be 9e4f 48bd
00000290: 44eb 41bd 4844 863c 43e7 a73c cb2b dd3d
000002a0: fbfa ee3d b4bb 50bc 2133 a13c 1f4f 71ba
000002b0: 7ed8 29bd 65a5 993b 1d8f f83b 089d ee3c
000002c0: 0887 afbb 13d9 c7bd febf 24bd b54b b7bd
000002d0: e0ea 06be 528f 52be 2cd9 923f f654 ce3c
000002e0: aa2a 133c 7e73 05bd adbf 81bc a5a6 803c
000002f0: 4d67 3abd a659 27bd 6627 90bd 95f7 54bd
00000300: 0ecc a1bc 9a88 52bb 74c0 93bd 62d4 00bd
00000310: 4ae9 c3bc 94a8 38ba 8da5 3c3c 6385 e5bc
00000320: 91d6 33bd 1d67 dc3c 2683 343d 4554 36bd
00000330: 1cae 103d dfad 1fbc 8e5d 1fbc f34a babd
00000340: 8ec9 3dbe aa1a 12be 6ca8 2bbc 30cd 013e
00000350: 0bd4 cb3d 09c7 d23d 2b78 a9bd 9052 a8bd
00000360: 475b 793d 6211 923d 427a 8838 a0e6 4ebd
00000370: f1cf ecbd d3ad 9abc c6e8 633d d298 da3d
00000380: 1c3d 0f3e f9a5 81bd 22ca 59be 7931 b6bd
00000390: a5ac 8ebd 232c f03e 4998 24bd 8b26 51bd
000003a0: 433b 043d 821e 023e 25d8 9bbc b498 28bd
000003b0: 045e 82bd da4e 46be acb0 26bd 3e0a 4cbd
000003c0: 61d2 9c3d bc2b 8fbd 4006 3dbd e6ca 55bd
000003d0: d241 cdba a069 a1bc 0062 b23d ff47 873d
000003e0: c243 01bd da79 a6bc 5851 6a3f 27f4 e33d
000003f0: a7b8 d43e b85a 5f3d fc20 c73c 705b a43b
0.028549662 -0.069806285 0.024908977 -0.031169105 0.0339616 -0.062800534 -0.05359828 0.013107855
-0.06944721 -0.0711182 0.0071349167 -0.049993422 -0.054248236 -0.039739646 -0.04013035 0.016847104
-0.08070493 -0.024482904 0.03519652 -0.06265395 0.052897926 -0.009277735 0.020167451 -0.02589414
0.03333145 0.0476981 0.031996556 -0.06144073 -0.09500776 -0.03704997 -0.09686559 -0.07483526
-0.07818109 -0.0697564 -0.12967938 -0.03905568 -0.116391815 -0.041806035 0.040835332 0.0427489
-0.020800442 -0.07436082 0.03185573 -0.17924027 0.17585863 -0.16357711 0.15754068 0.019937102
-0.051286466 -0.122399844 0.008605981 -0.01280268 0.100764126 0.021278398 -0.09784102 -0.13160777
-0.15145378 0.026522225 0.03308773 0.069039196 0.06196934 -0.037878588 0.004433929 -0.02768674
-0.058995187 -0.012810812 -1.2907271 0.035738632 0.09849808 -0.022657447 -0.04497508 0.042457175
0.20449863 0.043904815 -0.18534799 -0.10163426 -0.19459511 -0.1124758 -0.021432014 0.08612309
0.040026054 0.06922906 0.014402959 -0.09284821 -0.072969414 0.07492567 0.16548926 0.054001443
0.011778091 -0.35908407 0.9692999 -0.49741644 0.01946031 -0.0087162275 -0.079144165 -0.026821095
0.032496605 0.04148892 -0.045338295 -0.06714568 -0.011545635 0.032777015 0.023531677 -0.046791937
-0.022989515 0.014207581 -0.0653751 0.0030269246 -0.0605949 -0.07267241 -0.076720275 0.037487436
-0.009234039 -0.018970016 0.027750898 -0.0036265543 0.0005140031 0.008576981 -0.05943141 0.046369042
-0.050022494 -0.051615056 0.04731724 -0.060680147 0.01603558 0.0020617566 0.02954386 -0.07164074
-0.040813792 0.04234648 -0.047725234 -0.06641983 -0.050800063 0.004321393 -0.012160109 -0.019510536
0.014165792 -0.062886864 -0.024979096 -0.025253667 -0.0048813643 0.014555375 -0.048649423 -0.073206335
-0.03431586 -0.061422586 0.039651826 -0.04091762 -0.01377359 -0.056370817 -0.032462522 -0.04790925
-0.008361988 0.03923282 0.01788317 -0.050668046 -0.056653798 -0.043017615 -0.029664563 0.028148402
-0.02603771 -0.018416636 -0.13408963 -0.048904054 -0.047343507 0.01638998 0.020496016 0.107993685
0.116689645 -0.012740064 0.0196777 -0.00092052104 -0.04146623 0.004688906 0.00758542 0.029127613
-0.005356673 -0.097582005 -0.04022216 -0.08949987 -0.13175535 -0.20562485 1.1472526 0.025186997
0.00898234 -0.032580845 -0.015838468 0.015704462 -0.04550867 -0.04085698 -0.07038765 -0.051993925
-0.019750621 -0.0032124878 -0.07214442 -0.031452544 -0.023914952 -0.0007044163 0.01151408 -0.028017705
-0.0439058 0.026904637 0.044070385 -0.04451396 0.035322294 -0.009746044 -0.009726895 -0.09096327
-0.18533918 -0.14267984 -0.010477167 0.12675929 0.09952553 0.10291869 -0.08274873 -0.082188725
0.060878064 0.07132222 6.507758e-05 -0.05051291 -0.11563099 -0.018881714 0.055641912 0.106736794
0.13988155 -0.06330485 -0.21268514 -0.08896155 -0.06966523 0.46908674 -0.040184293 -0.051062148
0.03228308 0.1270695 -0.019023964 -0.041161254 -0.06365588 -0.19366017 -0.04069583 -0.049814455
0.07657314 -0.069907635 -0.04614854 -0.052195452 -0.0015659875 -0.019703686 0.08710098 0.06605529
-0.03155876 -0.020321775 0.9153037 0.11130553 0.4154713 0.054529876 0.02430772 0.005015783

fc0.bias f4 [256]
00000000: 8286 a73d d34e a73d 4222 683d 1f9b 0f3e
00000010: d25a a93d 4cc2 af3d ae4f ac3d b5e7 cf3d
00000020: 6fe6 ad3d 9dc3 3c3d 667d 1e3d 720d d93d
00000030: cdcc cc3d 5c3b 003e 025d 9a3d c094 b53d
00000040: 778c ff3d e4aa ae3d a9b3 c13d 5439 a23d
00000050: 2b08 b33d 2c54 a73d 833b ac3d bc2f c53d
00000060: 6ecc ad3d cbdc bf3d 4d43 a43d 5029 c13d
00000070: 03db aa3d 875d f83d 50eb a53d a1b1 963d
00000080: cdcc cc3d 434b ac3d 1e97 b13d 4960 c03d
00000090: 8dcc b23d 6721 a83d e6f9 a43d 8733 963d
000000a0: e3fd c33d cdcc cc3d 8129 d03d 4bc1 813d
000000b0: 4815 a53d 3828 b83d 775e 283e b064 aa3d
000000c0: a783 9b3d e207 1a3e ff40 b13d 75a9 e53d
000000d0: 424c ac3d 5295 b53d 06c5 913d 1a3f b03d
000000e0: 14e4 ad3d 3ace a03d 994d ac3d e273 d03d
000000f0: cb94 8e3d 29aa ae3d 7051 ad3d 91e2 943d
00000100: 46ae 873d f8bb ac3d 9dc2 a43d 65bd d43d
00000110: 093a 6c3d aa97 893d 59b4 993d a93a 923d
00000120: 3fa5 db3d c8be 9e3d 42eb b03d e747 b53d
00000130: 8d80 8b3d 9731 a73d eaca 873d cdcc cc3d
00000140: d87f a33d 073a 9a3d 8fcb 7e3d 68f4 a13d
00000150: 740a 093e 93e1 ae3c ad25 a43d f65a 923d
00000160: a7e3 b33d 20d3 ac3d 05cb a53d ea0e ba3c
00000170: cdcc cc3d a19a e53d cd2f 123e 1842 c03d
00000180: af68 a23d 5257 723d 999c 983d 1795 ac3d
00000190: 29f5 f63d ee0f c43d f248 ae3d f006 e63d
000001a0: cdcc cc3d 024b a63d 3b5b ac3d 709e ac3d
000001b0: fc77 c63d d7e9 a63d df4a a43d e07f a63d
000001c0: a7e4 aa3d 8235 0b3d 0673 393d 2653 0b3e
000001d0: 2cab 9d3d 1205 ae3d 52d0 ad3d e2d0 2a3d
000001e0: e6fb b33d 0c66 9a3d 486f 673d db4b ac3d
000001f0: aa57 003e 5c94 9c3d 314b bb3d 4cad 513d
00000200: 49c3 a23d 3c04 ff3b eed1 893d 8916 713d
00000210: 96df ad3d 01bc ab3d 8c49 a43d 5b94 a63d
00000220: cdcc cc3d 2ab5 703d cdcc cc3d a38c ca3d
00000230: cd09 c23d d39d ac3d ee09 653d 24b8 963d
00000240: a54a 2d3e 07d3 c53d e5f0 aa3d 0097 bd3d
00000250: e3dc 973d cdcc cc3d 11d2 ae3d 6b6e 833d
00000260: 01ae e13c ba71 a23d cdcc cc3d d662 b43d
00000270: f221 e73d 7734 a33d e353 853d aec5 ac3d
00000280: dcf6 9d3d 117b b03d 3c0d ab3d 5e87 9d3d
00000290: d3ba a43d 19e6 cf3d cdcc cc3d 1e2b 883d
000002a0: 826a 883d e01d 9a3d 164b 013e cdcc cc3d
000002b0: f64d b53d e8cb 4c3d 813a b53d 8fba ae3d
000002c0: 425d 903d ac71 a73d 468e b23d df70 ac3d
000002d0: 5fc4 1b3e cdcc cc3d e460 323d 2103 213e
000002e0: e654 9e3d 1b47 ac3d cc0a 913d 67db 8e3d
000002f0: 3f15 ad3d 8d22 d13d cdcc cc3d e2cf ad3d
00000300: 25a1 a53d 3348 b53d e56d cd3d 5f69 8b3d
00000310: 8095 903d 4982 873d e7f6 ad3d b573 ac3d
00000320: 7e73 7a3d ce07 f33d 815f 213e 09b3 df3c
00000330: 6892 ac3d 3d0f 843d ac10 943d fdb0 ae3d
00000340: 2ece 823d ca5b b33d 8863 943d f07d a93d
00000350: 7a2b a93d 33de a53d be92 963d 6818 ad3d
00000360: 676a 7a3d cdcc cc3d 630b 873d 9507 133e
00000370: 0349 ac3d 4374 a53d 5a37 863d 258e a43d
00000380: e7c4 a73d bcb0 fb3d b93d b13d 72bc 9e3d
00000390: 041a 8e3d 308f ac3d 619c af3d 94ea b33d
000003a0: cdcc cc3d d4b6 a23d 6f63 313d a92a b33d
000003b0: 2b4d b13d 7d8a ac3d a262 b43d cdcc cc3d
000003c0: 220d b83d b996 dd3d cdcc cc3d 076f ac3d
000003d0: e650 f23d 7deb a33d a6d5 ac3d 24e9 b03d
000003e0: 6490 413d af51 933d 8a77 ac3d 3004 203d
000003f0: b46e 0a3e 2b52 b93d 8b4d ac3d 0827 b63d
0.08179952 0.081693314 0.056673296 0.14024018 0.08269276 0.08581981 0.08413635 0.101516165
0.08491217 0.04608499 0.038693808 0.105982676 0.1 0.12522644 0.07537271 0.088662624
0.124779634 0.085286885 0.094580956 0.07921091 0.08741792 0.081703514 0.084097885 0.09628245
0.084862575 0.09368285 0.08020649 0.09431708 0.083425544 0.12127214 0.08101523 0.07358099
0.1 0.084127925 0.086714014 0.09393365 0.08730421 0.08209496 0.08055477 0.07334047
0.095699094 0.1 0.10164166 0.06335696 0.080607 0.08992046 0.16442285 0.08319986
0.0759347 0.1504207 0.08654975 0.11213962 0.084129825 0.08866371 0.07117657 0.08605786
0.08490768 0.078518346 0.08413238 0.10178353 0.06961974 0.08528549 0.084627986 0.072697766
0.06625037 0.0843429 0.08044932 0.10387687 0.057672534 0.06718381 0.07505102 0.07140095
0.107248776 0.077512324 0.08638622 0.08851605 0.068116285 0.081637554 0.066305 0.1
0.07983369 0.07530599 0.062205847 0.07907945 0.13382894 0.021347797 0.080149986 0.07146256
0.087836556 0.084387064 0.080953635 0.02271219 0.1 0.11211134 0.14276047 0.093876064
0.07930123 0.059165306 0.07451744 0.08426874 0.12058479 0.09573351 0.08510007 0.11231792
0.1 0.08119775 0.08415838 0.08428657 0.09690854 0.0815007 0.08022093 0.08129859
0.08344393 0.033986576 0.04527571 0.13605937 0.07698664 0.08497061 0.084869996 0.041703112
0.0878828 0.07538995 0.05650261 0.08412906 0.12533441 0.07645485 0.09145201 0.05119066
0.07947404 0.007782487 0.06729494 0.05885938 0.08489911 0.08385468 0.080218405 0.08133765
0.1 0.05876652 0.1 0.098901056 0.094745256 0.0842854 0.055917673 0.07359341
0.16923006 0.09659391 0.08346728 0.092573166 0.07415178 0.1 0.08536161 0.06417545
0.027548792 0.07931848 0.1 0.08807914 0.112857714 0.07968991 0.06510141 0.08436142
0.077131 0.08617223 0.08352134 0.07691835 0.080434464 0.101513095 0.1 0.06648849
0.0666094 0.075252295 0.126263 0.1 0.088527605 0.049999148 0.08849049 0.08531677
0.070490375 0.08175978 0.08718543 0.08419966 0.15211628 0.1 0.043549433 0.1572385
0.07731037 0.08412 0.070821375 0.069754414 0.08451318 0.10211668 0.1 0.08486916
0.080873765 0.088516615 0.10030726 0.06807207 0.07059765 0.06616647 0.084943585 0.08420507
0.0611453 0.11866723 0.15759088 0.02730705 0.08426362 0.06448219 0.072297424 0.085298516
0.06386982 0.08757742 0.072455466 0.08275974 0.082602456 0.08099022 0.073522076 0.08451921
0.06113663 0.1 0.06593969 0.14358361 0.084123634 0.08078816 0.06553526 0.080349244
0.08191853 0.12289569 0.08654351 0.07750787 0.06938556 0.08425748 0.08574749 0.087849766
0.1 0.07945028 0.043307718 0.08748371 0.08657297 0.08424852 0.08807875 0.1
0.0898688 0.10819764 0.1 0.08419614 0.118318364 0.080039 0.08439188 0.08638218
0.047256842 0.07193314 0.08421238 0.039066494 0.13518792 0.090488754 0.08413228 0.08894163

fc1.weight f4 [256, 256]
00000000: f0be 813c 97ad 6bbd d296 853d cc0a e6bd
00000010: 9df1 713d 4884 6cbd 1801 133c 6189 65be
00000020: 34f6 d83c fb9e 34bd f82a b0bc 9975 55bd
00000030: 80ec a73a e68a 2dbc b9e4 cb3b e837 8ebc
00000040: 03d1 17be c214 553d 1f89 94bc b99b 803c
00000050: b41f 943c 5f46 6ebd 378b fb3b 14de 20be
00000060: dc0c c63c 7609 8e3d 1f0c 9e3d 7a33 cc3e
00000070: ffd4 0ebd 67de 6a3e 2e7e 0e3c 05d3 533d
00000080: e887 ab3c e0c4 7d3d bcf8 dcbc d6c8 e43e
00000090: 1222 273d 015a cc3c cc51 2e3d 3d82 db3d
000000a0: 3fde f3bb cc81 69bd e7cd 71be 27dd 17bd
000000b0: 3f0a 55bd 8395 603c 877a 803b 39fe 7cbd
000000c0: 86f5 1bbd cac0 0dbf 70d4 9b3c 0086 38be
000000d0: a741 9f3d 889e e83c 165f 20bc cbe2 12bc
000000e0: b312 283e 83f9 52bd 5872 453d 4318 b7be
000000f0: b168 373d bab4 bdbc 296c 5c3d 0eba 153d
00000100: 04ac cdbb cec4 80bd 2aa8 553d 8b10 2fbe
00000110: e2c1 053d b94d fb3c 2042 e1bc 7139 4c3d
00000120: 6f20 8bbe 3fad c23c c806 9d3c 3fad 70be
00000130: de64 f43c c056 94bc 6afa 8cbd 1c86 29bd
00000140: 283a 3ebd 072f 3a3c d63c 31be 47c4 673d
00000150: d23c 81be 185f 52be 1db5 233d 0294 59bd
00000160: 5853 6fbc 69c0 03bd 0258 043d 5753 413e
00000170: 58c5 8bbc 3bd9 51be ea4d 29be 94e9 bc3e
00000180: dcf2 003d d23a a43d 71d7 283c 74e5 f9bc
00000190: 51fe c63e 6afc d2be 57dc 85bd facd f1be
000001a0: 4081 6dbb bc26 743d 2099 5bbd 3061 0c3c
000001b0: 8627 eabe 5dc0 473c 2a54 383d ad38 3c3b
000001c0: 6d70 4e3d 7ce0 823e 0157 833e c320 e9be
000001d0: 8a1a 8cbc ccc3 9e3d 2e34 c2bb 7ddb 60be
000001e0: bfbc 15bd 6ec3 713b 5738 a93d 68c6 e43c
000001f0: 68c8 c43d 1e5e 83bb 52a5 16be a70d 9fbd
00000200: 6125 84bd 9b55 90bd 05f8 38bd e465 773d
00000210: d626 3dbd 6720 89bb 059e 0f3c b813 efbc
00000220: f0e1 953b 66d8 8fbd b83f 40bc 8277 b8bb
00000230: 4904 b53d d4b7 82bc 99d7 813d 995e c53d
00000240: 3ce6 debe fba7 1ebd e8f5 34bc bcec 783d
00000250: f7bd 61bd c051 cfbb c823 1c3d d50e 913e
00000260: 93d1 33be 3a41 a0be aeeb 373d ca4f a53d
00000270: 48f5 ecbe 7869 2d3c 06f5 48bc 8264 473d
00000280: dea4 05bd 006e 0939 21f4 923d a7a6 4b3d
00000290: 1475 723b a017 63be ae67 3b3d 0521 233d
000002a0: 61c6 12be 0e5a 023d 9a0e 323c 208c aa3c
000002b0: e573 3f3d fa27 f23b e5ee 3bbd d6d1 e937
000002c0: d2f8 debc 1c52 45bc 6a89 5a3d 385d 803c
000002d0: e0f5 17bd b854 473c 2911 b03d 0a99 f8be
000002e0: 1b52 bd3b c813 2dbd cbf2 d63b e86b 9a3c
000002f0: 3e2c d9bc 5caa a23d aeec 75bd a58a d73c
00000300: e3d5 1abd 0ee8 05bd 86b2 b63d 062e 003d
00000310: 1e37 703d 1eeb 8cbd 19d3 393c 7a1f 553d
00000320: b051 b73b d193 f83d fae2 4f3d fd92 7a3e
00000330: 2b34 9cbb 2bac dc3b f8f7 2dbd 9b54 91bd
00000340: c3ff 733e 8812 fb3c ddeb 46bd c693 183d
00000350: d8a6 edbc 552c 7abd e672 173d 4328 0ebd
00000360: 2a9c 06bf c874 32bc efec 12bf 2d7f fdbe
00000370: 6835 643c 2da8 7bbd ba02 1dba 2730 72be
00000380: c178 24bd 0497 9e3d 6f92 96bd e787 133d
00000390: 06cf 77bb 18d1 6e3c c8df 3bbd a936 79bd
000003a0: c4a9 1d3d fab5 923d 6442 58be 308f 8bbc
000003b0: 72e5 58bd 244a 143d 1827 043d f6bd 5cbd
000003c0: 3342 1fbd 28a7 04bf 66ce 413d 28aa 61bd
000003d0: 0151 9dbe 4674 1cbb e23a d83a 42a9 163d
000003e0: a3aa 3a3e a65e 71bc 0ab2 03bd a564 97bd
000003f0: 16f3 8b3e b795 573d 36a1 043d cae4 a83d
0.015838116 -0.057538595 0.06522907 -0.11232528 0.05906831 -0.05774334 0.008972429 -0.22415687
0.026484586 -0.044096928 -0.021504864 -0.052114103 0.0012811571 -0.010592198 0.006222334 -0.017360643
-0.14825825 0.05202175 -0.01813179 0.015699254 0.018081523 -0.05817258 0.007676508 -0.15709716
0.024176054 0.06935398 0.07717156 0.39883024 -0.034871098 0.22936402 0.008697076 0.051714916
0.020938829 0.061955333 -0.026974075 0.44684476 0.040803976 0.024945261 0.042558476 0.107182
-0.0074422653 -0.05700855 -0.23613702 -0.03707614 -0.052011725 0.013707521 0.0039208564 -0.061765883
-0.038075946 -0.553723 0.019022197 -0.18019867 0.07776194 0.028395906 -0.009788295 -0.0089652045
0.16413383 -0.051507484 0.04820475 -0.35760698 0.044777576 -0.023157466 0.053814087 0.03655439
-0.0062766094 -0.062875375 0.052162327 -0.17096154 0.032655604 0.03067671 -0.027497351 0.049859468
-0.27173182 0.02376425 0.019168273 -0.23503588 0.029833253 -0.018107772 -0.068837 -0.041387662
-0.04644218 0.011363751 -0.17308363 0.05658367 -0.25241715 -0.20544088 0.039967645 -0.053119667
-0.014607273 -0.03216592 0.032310493 0.18879448 -0.017061874 -0.20493023 -0.16533628 0.36896956
0.03148161 0.080190316 0.0103052715 -0.03050492 0.38865903 -0.41208202 -0.06536167 -0.4722746
-0.003624037 0.059607252 -0.05361283 0.008568093 -0.4573328 0.012191859 0.04500214 0.0028720305
0.050400186 0.25561893 0.25652316 -0.45532808 -0.017102499 0.07752189 -0.0059266305 -0.21958728
-0.036556955 0.0036890167 0.08262699 0.027926639 0.09608537 -0.0040090224 -0.14711502 -0.07766276
-0.06452442 -0.07047578 -0.045158405 0.060399905 -0.046179615 -0.004184771 0.008765702 -0.029184207
0.004574053 -0.070236966 -0.011733942 -0.005629481 0.08838708 -0.015956797 0.0633995 0.09637184
-0.4353503 -0.038734417 -0.011044957 0.060772642 -0.055112805 -0.006326884 0.03812006 0.28331628
-0.17560415 -0.31299764 0.044902496 0.08071859 -0.46280885 0.010584228 -0.012265449 0.048679836
-0.032627933 0.00013106316 0.0717547 0.04971948 0.0036996054 -0.22176981 0.045753174 0.03982641
-0.14333488 0.031824164 0.010867739 0.02081877 0.046741385 0.0073900195 -0.045882124 2.7873477e-05
-0.027218256 -0.012043502 0.053353705 0.01566945 -0.03709972 0.012166195 0.08597023 -0.4855426
0.00577761 -0.042255193 0.006559705 0.018850282 -0.026510354 0.0794265 -0.06004017 0.026311228
-0.037801635 -0.032692008 0.089207694 0.03129389 0.058646314 -0.068807825 0.0113418335 0.05203197
0.0055944547 0.12137569 0.05075357 0.24470134 -0.004766961 0.006734391 -0.04247281 -0.07096215
0.23828034 0.030648485 -0.04856478 0.037250303 -0.029010221 -0.061077435 0.03697481 -0.034706365
-0.5258204 -0.010892101 -0.5739278 -0.4951109 0.013928749 -0.06143968 -0.0005989481 -0.23651181
-0.040154222 0.07743648 -0.07352149 0.03601828 -0.0037812605 0.014576219 -0.04586771 -0.060843144
0.03849198 0.071636155 -0.21119076 -0.01703605 -0.05295319 0.03620352 0.032263845 -0.0538921
-0.038881492 -0.5181756 0.047315978 -0.055093914 -0.30725864 -0.0023873015 0.0016497041 0.03678251
0.18229155 -0.014732039 -0.032152213 -0.07392243 0.27333897 0.052633014 0.032380305 0.08246763

fc1.bias f4 [256]
00000000: d77a 623e 42d1 c63d efed ed3e 1510 733d
00000010: 7721 20be 04cb b9bd 86ce 243d 313b d63d
00000020: 7d9b 6b3d 8e72 123e 9ada 9f3d fc0c 70bd
00000030: ed1d 8c3d 72ba c2bd ef5d 2f3e cfa3 943e
00000040: 24c0 353e b7fe 43bd b875 003e 75a8 0d3e
00000050: 5192 2f3d f1ff ea3c 21b8 0e3e bcb2 1d3e
00000060: 6989 a73e b426 07be a747 d03c c827 c9bc
00000070: eef3 3e3d 064f 673d b8ee 1d3e 446d 3e3e
00000080: 434b 5dbe c494 f23d 6d1d cb3d ea50 383e
00000090: 64ac 473d 832e fcbc e9af e0bd dee7 063e
000000a0: 55c8 4d3e ad9d 60bc 21b2 1cbc 4238 633e
000000b0: 22e6 3a3d 41f7 043e d051 4d3e eb1e 323e
000000c0: fa4a 2b3e e978 0dbe c346 eb3d 50c8 ab3e
000000d0: 0df1 193e 7b4c c6bd d683 533e 1d80 68bd
000000e0: 4930 a03e 2906 bd3d 0f8f 613d 3e14 28be
000000f0: 1978 1e3d b1db 3abe 9a52 413e 59b9 003d
00000100: 14d5 3a3e 4796 5f3e b71a 883d 4e88 883c
00000110: f73d 643d c0d2 0c3e 6fc3 2dbe d7fd dd3d
00000120: b529 80be 6438 303d adbe 5b3e 8270 583d
00000130: a657 463e 7baa a4bd a0ea ba3d fd99 2cbe
00000140: c01a b63d 3491 593e 8834 283d c623 ea3c
00000150: 10ef 5e3d 0332 b73c c98f 5d3d 4910 923e
00000160: 0540 f5bc 8658 5c3e e108 703e a2a8 333d
00000170: 0574 e23d 2218 313d 4044 903d 6b8b b9be
00000180: 3a16 713d 2eba 463e 1f68 283d d71c d43d
00000190: f2cb fb3d 9f87 7ebd 1bfa 7b3e 313a 7a3d
000001a0: c043 163e d49a 1d3d 69d4 13be 77fb 0f3e
000001b0: 73e1 2b3c 6123 9e3e ac1c 343e 2b7e cbbd
000001c0: 3daf 3f3e 415e e83d 5af4 ec3d 9cf5 8b3d
000001d0: 4ba1 39bd b12e 823e 5139 843e 3b08 2b3d
000001e0: de43 483d 11e0 c33d f1c2 6dbd 3448 493c
000001f0: 4d28 f7bb 8378 ba3d b11e a8be 671a 95bc
00000200: 2877 e6bd c127 7b3d 0d5e 2ebe 24e3 d33d
00000210: 1d76 623e 29b0 903c dd45 853e a68f d13c
00000220: 0240 5a3e fee9 5e3e 0aed db3d c573 713d
00000230: c508 6e3e 9f4e 023d 1315 c03d 2395 593d
00000240: 3a2b 0cbc 42c3 43be 2b66 7e3d f87a 2d3d
00000250: 652b da3d f876 e23d 7327 5c3e 7286 5b3d
00000260: 341e 1b3e 65fe c53c e516 293e ad4f 403e
00000270: 7649 fdbc b3ba 32bc 15f7 3b3d 7a08 d73d
00000280: 86f4 2abe 6e00 93bd f2d2 af3c 902d 603d
00000290: c0e4 5d3e b387 6d3e 1831 fa3c 991f 1c3e
000002a0: e0ca db3d 52b5 843d 26bb 643d 643c 44bd
000002b0: 3fa8 c63b 7981 d83d ecba 4d3d 9e39 2f3d
000002c0: d20f 203d c82e b33d a024 4b3e c23a e53d
000002d0: c7fe 813e 69b0 ca3d 99db aabe 4436 943e
000002e0: 63cd 9d3e 26e3 1b3e 0052 243d 0eb7 213e
000002f0: 49b8 343e fe0f b13d b9f3 383e f39a e23d
00000300: c6f4 433d 743f cc3c 9c28 363e e050 ce3d
00000310: 77ce 12bd b3c9 283e d2eb 75bc a259 5cbe
00000320: 9c8e 1ebc 6983 303d 1034 b9bd 4726 6d3e
00000330: 422d dc3e b459 ab3d 6eca 743c ca1e d33d
00000340: 5505 863d c50c 823d be0d 023e e41c e3bb
00000350: 1ec2 253e 6283 b13d 46b9 893d 802e 9f3e
00000360: 95b1 153d 2151 8d3e 6608 7f3d ac3c 893d
00000370: 8383 8ebd f7fb e0bc 26bf 823e 2c36 dbbd
00000380: d19f dd3d cec9 283e f8c9 b73d b759 923d
00000390: fbf9 b53b e521 8e3d 3d01 dc3d 6d11 6f3d
000003a0: e380 debc e098 893d 16df 143e 2792 c63c
000003b0: 529d 9dbd db24 643e d7aa 2e3e 8001 6b3e
000003c0: c231 ab3e cdb2 913d 16a3 883c 745e 223d
000003d0: 58a9 ec3d c981 82bc c164 303d f269 563d
000003e0: 644b 5d3e 7165 98bd f82a 333e 99dd fd3d
000003f0: a720 883d 951f 393e eeb2 0f3e 6384 653e
0.22117172 0.097078815 0.4647059 0.05934151 -0.15637766 -0.09071925 0.04023602 0.104605086
0.057521332 0.14301512 0.07805367 -0.058606133 0.068416454 -0.09508218 0.17125677 0.29031226
0.17749077 -0.047850337 0.12544906 0.13833793 0.042864148 0.028686495 0.13937427 0.15400213
0.32722023 -0.13198358 0.025424791 -0.024555102 0.04661935 0.056471847 0.15423095 0.18596369
-0.21610741 0.11844781 0.09917722 0.17999616 0.04874839 -0.030783897 -0.10971052 0.13174388
0.20095952 -0.013709468 -0.009563954 0.2218943 0.045629628 0.12984945 0.2005074 0.17394607
0.1672782 -0.13815655 0.11488106 0.33551264 0.1503336 -0.09682556 0.2065576 -0.056762803
0.3128684 0.092296906 0.055068072 -0.16413972 0.038688753 -0.18247868 0.18879166 0.03142676
0.18245345 0.2183467 0.066457205 0.016666558 0.055723157 0.1375227 -0.16969083 0.10839432
-0.2503182 0.04302253 0.21459456 0.05284167 0.19369373 -0.08040329 0.091267824 -0.16855617
0.08891821 0.21246797 0.041065723 0.028581511 0.054427207 0.022362715 0.054092202 0.2852805
-0.029937753 0.21518144 0.23440887 0.043861993 0.11057285 0.043235905 0.07044268 -0.3623918
0.058859088 0.1940696 0.041114923 0.10357063 0.12294759 -0.062141057 0.24607126 0.061090652
0.14674282 0.038477734 -0.14436497 0.1406077 0.010490763 0.30886367 0.17589062 -0.09936174
0.18719192 0.113461025 0.11570044 0.06833956 -0.045319837 0.25426248 0.2582498 0.041755896
0.04889285 0.09564222 -0.05804724 0.012285281 -0.007542646 0.09105017 -0.32835916 -0.018201066
-0.11253196 0.06131721 -0.17028065 0.10346058 0.22115369 0.017662125 0.26029864 0.025581192
0.2131348 0.21768948 0.10738571 0.058948297 0.23245533 0.03181326 0.093790196 0.053120743
-0.008555228 -0.19117454 0.062109154 0.0423536 0.10652808 0.11057848 0.21499424 0.053595014
0.1514824 0.024169156 0.1651264 0.18780394 -0.030918818 -0.01090877 0.045889933 0.10499664
-0.16694841 -0.07177816 0.021462891 0.05473095 0.21669292 0.23196296 0.030540988 0.15246429
0.10732055 0.064798966 0.05584254 -0.047909155 0.006062537 0.1057157 0.05022709 0.042779557
0.039077587 0.08749157 0.1983819 0.11192848 0.25389692 0.09896929 -0.33370665 0.2894765
0.3082076 0.15223369 0.040117264 0.15792486 0.17648424 0.086456284 0.18061723 0.110647105
0.047840856 0.0249326 0.17788929 0.100740194 -0.03584143 0.16483192 -0.015009837 -0.21518567
-0.009677555 0.043094072 -0.09043133 0.23159133 0.4300328 0.08366719 0.014940841 0.10308607
0.06543986 0.06350092 0.12700555 -0.0069309343 0.16187331 0.086676374 0.06724791 0.31090164
0.03654631 0.2760096 0.06226387 0.06701025 -0.069586776 -0.027463896 0.2553646 -0.10703692
0.10821498 0.16483232 0.08974069 0.07146018 0.0055534816 0.069400586 0.10742424 0.058366228
-0.027161067 0.06718612 0.14538226 0.024239613 -0.07696022 0.22279684 0.17057358 0.22949791
0.334364 0.07114182 0.016679328 0.03964086 0.11555737 -0.015931027 0.043064836 0.05234713
0.2161079 -0.074412234 0.1749686 0.12395782 0.06646853 0.18078454 0.140331 0.22413783

last_fc.weight f4 [3, 256]
00000000: dab7 e0bd 6f0d 68be 9ec2 d4bd 839b a03b
00000010: c4c4 11bd 22ad 84bd 4d63 5abc 9df1 e1bd
00000020: 8fbd 20be 8f35 3e3c 639a 763e 629e 76be
00000030: dda2 5d3c e89f e4be fd8f b9bd a983 8e3d
00000040: 483d 80bd bcee f7bd 485f 88bd 4ac8 16be
00000050: b5cc 8b3c 62f5 ebbd 0196 b0bc 4823 153d
00000060: f2f2 b83e a112 053f 59da 8abe de8b 27be
00000070: b3df 3dbe ab8f 0bbb 854a 913e 6018 01be
00000080: 213c 273e 41aa 133e 9689 bc3c 6a1b 55bd
00000090: b8af b4bb e422 763d 8426 d23d 97bb 01bd
000000a0: 3878 723d 2b39 b63e f38c e6be bfef 023e
000000b0: 7f9e efbc dd11 bd3d f1d2 0fbe 051c 243f
000000c0: 64aa 7e3e 2ca9 86bd 0297 1fbd ceed c7be
000000d0: 3eec 86be 76cc 0bbe a976 1fbe b2af 973e
000000e0: 739f 763e 150b cabe 910b b13e 9ad4 43bd
000000f0: e75b 803d 5899 263f 1ef3 fd3d 73bc d8bd
00000100: 5ac3 65bc 475e 823d 4730 32bc 6240 c3bd
00000110: a83e 9dbb a8b7 a13e a5d2 843e 2ae3 873e
00000120: 5b8e 49bd d2b5 66bb 4369 c1bd c497 31bc
00000130: 99b2 133c 9e7e 22be 2273 b93e e5b0 3bbe
00000140: 56c9 263e a764 eb3d a9d0 24bc fa51 13bb
00000150: d606 4dbc cb18 b2bd de79 fcb9 69cc c4bd
00000160: 74a0 63bd 6feb 953e 5fb4 56bd e234 b63b
00000170: 0bc8 e93e 4ae1 b53c 070a a33d b7f9 f43e
00000180: 440c 69bc eaab e33e d16b ce3b f18d 913d
00000190: 4b35 04be c0c3 88bd 5904 f93d da0b e43c
000001a0: 5e91 3e3e 7091 3fbd 7056 21bf e946 523d
000001b0: 8cad 5cbe 6686 713e 36cf 953e 2b9d 4f3e
000001c0: 7032 68bf 686a 27be cabe 81be d892 993c
000001d0: 7611 913e 94ae 833b a84e d13d 1d31 1abf
000001e0: be62 8cbd b77c 79bd 2cfb 863e 88ec 0dbe
000001f0: d1b3 0e3f d1bb 263e 328f b93e fdeb 03bd
00000200: 081b b83e abb0 4b3c 89ca e5bf 7763 4bbc
00000210: 40e9 fb3b f4b4 96be ffca 41bd 9044 3a3e
00000220: 6d75 2f3e 6494 d73d 1bfc 40be 4acf 2e3c
00000230: 9828 403e e110 76bd 4ead c7bd f598 273d
00000240: ec00 4dbe cab6 bfbe f287 0a3d eef4 913c
00000250: 072c ff3c 0628 88bd 7997 06be 45de 033c
00000260: 8acc 8cbb 6a8a fb3d 5f12 b13d 38f9 323d
00000270: 2898 2bbf 8889 6ebd cee1 b13b 325a 143f
00000280: 5334 9f3e 8720 d3bd 0551 0abb c047 b73b
00000290: e90c 6bbe c274 c53e c688 db3e 040f 44be
000002a0: 679c 8fbe 289c 963e 5ab2 933b a511 debe
000002b0: bacd 5bbe 0b54 d4bd 21c4 51be 377c 4f3c
000002c0: cd4e 2f3c 3956 a4bd 9dde 63bd 710f a53e
000002d0: 3065 0bbe b4dd 0e3f 9eb4 cb3d 7090 893e
000002e0: 1b13 013e 1dc0 58be eb94 8a3c 08f3 523e
000002f0: e6cc e6bd 8e75 e63e 2ac4 823e dab5 d53d
00000300: 9860 3c3e f209 df3b 8756 d23d 90d7 90bd
00000310: bc32 94bd 765c 1ebd bf12 95bd 8f22 843e
00000320: db5b 013d 4514 07be 72b5 09c0 fee6 5ebe
00000330: e932 87bd c94a f23c e085 6a3f b9b1 1bbe
00000340: d6cc 95bc 9ce0 c3bc 5d9a 9c3d 4191 0abf
00000350: 1701 363d 30d3 44be 6a4b 49bb 768d 3a3e
00000360: 785c 75bb 7a56 debc 46b1 a8bd c634 58bc
00000370: d8d3 74bf 0b0e a5bd 1288 ad3b 9205 d4bd
00000380: 7ca0 6a3e f85b 56be c7a0 603c b75a 9e3c
00000390: 7f3d 533e 9e97 bd39 f089 99bd 195e e6bb
000003a0: da85 583e 13a9 d2bd e20f e7bb 4251 c2bd
000003b0: 0834 b3be 5aec b63b cc2c 7b3c cedf 28be
000003c0: be0c 3dbd 4c29 efbc ff55 e33d 3e32 813c
000003d0: 3d02 ec3d f5a0 93bd 8c80 f43c 3d20 3bbd
000003e0: 7c19 5bbd ebd6 293f feec 56be b99f 023f
000003f0: 457e c63c 245b 03bf a1fc 07be 22a1 bb3e
-0.10972567 -0.22661375 -0.10388683 0.004901351 -0.03558804 -0.06478335 -0.013329339 -0.11032412
-0.15697311 0.011609449 0.24082331 -0.24083856 0.013527599 -0.4465325 -0.09060667 0.06958706
-0.062616885 -0.12106082 -0.066587985 -0.14724842 0.017065385 -0.115214124 -0.021555902 0.0364106
0.36122853 0.5198155 -0.2711971 -0.16361949 -0.18542366 -0.002129535 0.28377166 -0.12606955
0.16331531 0.14420415 0.023014825 -0.052028097 -0.0055141114 0.060091868 0.102612525 -0.03167304
0.05919668 0.3559049 -0.4502941 0.12786768 -0.029250382 0.09231923 -0.14045312 0.64105254
0.24869686 -0.06575236 -0.03896237 -0.39048618 -0.26352113 -0.13652214 -0.15572609 0.29626232
0.24084263 -0.3946158 0.34579137 -0.047810175 0.06267529 0.65077734 0.123998865 -0.10582819
-0.014023626 0.06365638 -0.010875768 -0.095337644 -0.004798729 0.3158543 0.2594196 0.265405
-0.049208026 -0.0035203588 -0.09443905 -0.010839406 0.009014749 -0.15868613 0.36220652 -0.18329199
0.16287741 0.11493807 -0.010059514 -0.0022479282 -0.012513837 -0.08696135 -0.00048155984 -0.09609301
-0.055572942 0.29281184 -0.05241811 0.0055605033 0.45660433 0.022202153 0.07960897 0.47846767
-0.014224116 0.44467098 0.006299474 0.07107151 -0.12910955 -0.06677961 0.121590324 0.027837683
0.1861014 -0.04676956 -0.6302252 0.051337156 -0.21550578 0.23586425 0.29259652 0.20274799
-0.9070196 -0.16349185 -0.25340873 0.018746778 0.28333634 0.004018614 0.102200806 -0.6023119
-0.06854771 -0.060909953 0.26363504 -0.13859761 0.5574313 0.16282584 0.36242062 -0.032207478
0.35958123 0.012432258 -1.7952434 -0.012413851 0.0076877177 -0.2943493 -0.047312733 0.18190217
0.17134638 0.1052635 -0.1884617 0.010669539 0.18765485 -0.06007469 -0.09749852 0.040917356
-0.20019883 -0.37444144 0.033821054 0.017816987 0.031148924 -0.06648259 -0.1314372 0.008048599
-0.004296844 0.1228226 0.08646082 0.043694705 -0.67029047 -0.05823663 0.0054285293 0.5795013
0.31094608 -0.103089385 -0.002110542 0.00559327 -0.22954144 0.38565642 0.42877787 -0.19146353
-0.28049013 0.29416013 0.004507345 -0.43372837 -0.21465197 -0.103675924 -0.20484973 0.0126638925
0.01069994 -0.08024258 -0.055632222 0.32238343 -0.13612819 0.5580704 0.09946559 0.2686801
0.12604944 -0.21167035 0.016916713 0.20600522 -0.1126955 0.45011562 0.25540286 0.10435076
0.18396223 0.0068066055 0.1027041 -0.07072365 -0.07236239 -0.038662396 -0.07278966 0.25807616
0.03158174 -0.13191326 -2.1516995 -0.21767804 -0.06601507 0.029576676 0.9161053 -0.15204515
-0.01828615 -0.023910813 0.0764663 -0.5412789 0.044434633 -0.19221187 -0.0030715116 0.18218026
-0.003743915 -0.027140845 -0.08236937 -0.013196176 -0.9563575 -0.08059319 0.005295762 -0.10352625
0.22912782 -0.20933521 0.013710207 0.019330366 0.20628928 0.00036161853 -0.074970126 -0.0070302603
0.2114481 -0.102861546 -0.007051454 -0.09488155 -0.35000634 0.0055823745 0.015330505 -0.16491625
-0.04615473 -0.029194497 0.11100387 0.015771028 0.115238644 -0.072084345 0.029846452 -0.04568504
-0.0534911 0.66343564 -0.20988843 0.5102497 0.024230132 -0.51310945 -0.13279964 0.36646372

last_fc.bias f4 [3]
00000000: e505 7a3d d76b b53d 88bd e3bc
0.061040778 0.088584594 -0.027800336

last_fc_log_std.weight f4 [3, 256]
00000000: 7869 8abd 47c0 473e dea1 49be f878 da3c
00000010: a9af c63e 6693 5e3e 3978 b9be 4db8 adbc
00000020: 55fa 333c 5ad8 98bd c70e 3bbe 5bde a33e
00000030: d90e 05bc 7b40 543e 03c6 45be f2fc 8d3d
00000040: f21a 503e 509e 5abd 6328 d53e 3fe6 82be
00000050: 65d8 f5bb 6a85 703d 98d5 80bd 8c44 15bd
00000060: 8fd8 9e3d 1c49 15bd d8e0 b43d 034c 463e
00000070: d436 05bd 8e13 e7bc 599c 973e 2e5b debd
00000080: bfcc 593e 22ce 4b3e 125a e83d 3516 47be
00000090: 5d36 f53b 106f 7dbd 225c 493e b14c d8bc
000000a0: 0717 c8bc 4a88 bebe 0f86 303d 0a25 00bd
000000b0: 04e6 993d c294 683e ee88 99bd 9fc6 073f
000000c0: db82 a7bd bcb2 ebbc fc3d 08bd ae54 a0bd
000000d0: c15f 8ebd d097 4bbd df67 a0be ecc5 bb3d
000000e0: aa0e 6c3e 1c26 06be 8a72 c63e 98c9 0d3e
000000f0: 5d09 203d a399 22be bbf1 d63d ca65 2c3d
00000100: b8ff 1abe ea87 69be d6d0 cebd aa70 93be
00000110: 9904 24bd dd7c 613e 0b04 48bd cc19 f4bd
00000120: 7118 153e 12fd e6bc 78bb 00be d9db 083d
00000130: 2e0f f7bd a092 28be 08e5 003e d210 a83e
00000140: f744 013e 35c9 94be 028e 383c dbda 4f3d
00000150: 0268 e23c 0dbe d53d a97c 7b3c 6fc1 7cbd
00000160: 283a 993d 0590 2bbd 69d3 17be 80e0 363c
00000170: 7e8b 7f3e aba2 1bbc 2fea abbd 50ce 0ebe
00000180: ced8 60bc db77 ee3e 9c2a 953b 5e28 bfbd
00000190: 86b5 153e dcfd b13c a8b9 8b3b 56d6 843b
000001a0: f8c2 953d 749d f03b 77eb 623e 4787 5a3d
000001b0: 7c6d 313d 92fe 8f3b 5ff0 673e 24d3 b1bd
000001c0: 1682 5c3e cb53 e2bd 11ce cf3d fad6 52be
000001d0: 0a12 d9bc 5288 cf3c 4fe5 e8bd cd88 6ebe
000001e0: f61d 153e 90df 123e f711 08bd c617 3f3d
000001f0: 6e0e 81be dea7 9e3c a04a 87be 0232 ba3d
00000200: 3eb7 5bbe 404e 0a3d ab77 4b3f d46f 613e
00000210: ba39 3f3e 9628 00be e2e3 7abe de65 eebd
00000220: edda 72bd 481b 18be 7a8c 32ba 4dca af3b
00000230: 94ec b7bb 800e 47bc e11d 043e 2db4 c7bd
00000240: 2a08 11be 5889 9a3d 16e1 433a 4cc6 31bd
00000250: 3763 383d 6f6d 9fbd 5268 25be 9b2e 3f3a
00000260: 198a bdbd 45ac 98bc c01b 3ebe 3b52 fe3d
00000270: 4f11 783f f187 b3bd caa7 3d3d b0d5 de3e
00000280: a3e4 b23d 187c 3ebd 7c22 c2bc 3d40 c83c
00000290: 47b5 17be be52 0e3f fc1b 033e f01b 95bd
000002a0: 7457 8fbd 2e8e d63a 3222 9b3c f3a3 49be
000002b0: d2ad ec3c fc58 1dbe 8595 57be 5ed4 793c
000002c0: 11e0 bb3c 320a 8e3d f88d b2bc 8582 8d3e
000002d0: 79d8 273d 3019 473e 3bf0 b13b c359 953e
000002e0: f865 d8bc 1a85 9a3e 764b f73b 2ac5 363e
000002f0: 0f54 b6bd ec94 bb3e 8772 6f3e a162 4e3e
00000300: d167 16be 9d77 263d 3394 c33d fb36 80bc
00000310: 8869 99bd 741f 10bd 1bf4 4d3e 0d52 a3bd
00000320: f3b5 a03d c6e7 6bbd 0c38 493f 6a2f a3bb
00000330: 32f9 84be 8c15 54bd 7fbf c03e e21e d2bd
00000340: b463 42bc 04c2 7cbc 4170 083c 61d8 123f
00000350: 5ba2 75bd 0e4f 2bbe ef74 563c 5687 aabd
00000360: b550 cc3c 793b aebd 77e1 ee3e 0126 d23d
00000370: ee0f e63d 7be9 dd3d 7868 0cbe f6cf 4cbd
00000380: 565d e03e 1261 98be 13c3 423d 420b f1bd
00000390: 2fc3 90be 5480 0abc 3499 993c 705b e73a
000003a0: 2276 44bd 9abe a63c bd45 9a3d 136b b9bc
000003b0: c234 c3be b4e4 05be a69b 1ebd 8816 183d
000003c0: 4cec aebe 0c78 b63c f6e8 b1bd 73fd c4bc
000003d0: cda5 71bd c935 dd3c 2bb6 02bd 2bc6 a03d
000003e0: 299f 31be 5ed3 ed3e b02c 713d e6b4 853d
000003f0: 5090 023e 9a70 10be ea53 31be 7a8f ae3e
-0.06758398 0.19506942 -0.19690654 0.02666901 0.38805893 0.21735916 -0.36224535 -0.021206046
0.010984977 -0.07463141 -0.18267356 0.3200558 -0.008121216 0.20727722 -0.19313817 0.06933011
0.20322779 -0.053373635 0.41632375 -0.2556629 -0.007502603 0.058720984 -0.0629074 -0.036442325
0.07756149 -0.036446676 0.08831948 0.19364934 -0.03252299 -0.028207567 0.2961147 -0.10857235
0.2126951 0.19902852 0.113453045 -0.19442065 0.0074832872 -0.061873496 0.19664052 -0.026403757
-0.024425043 -0.37213355 0.0430966 -0.031285323 0.07514575 0.22712997 -0.074968204 0.53037447
-0.081792556 -0.02877175 -0.033262238 -0.07828651 -0.06951857 -0.049705327 -0.31329247 0.0916861
0.23052469 -0.13100475 0.3875926 0.13846433 0.03907143 -0.1587892 0.10495325 0.04208926
-0.15136611 -0.22805753 -0.10098426 -0.28796893 -0.040043447 0.22020288 -0.04883198 -0.11918983
0.14560105 -0.028196845 -0.12571514 0.033412788 -0.12063442 -0.16462183 0.12587368 0.32825333
0.12623964 -0.2905976 0.011264326 0.050745826 0.027637485 0.1043664 0.0153495455 -0.06170791
0.074817955 -0.041885395 -0.1482674 0.011161923 0.24955556 -0.009499232 -0.08394276 -0.1394589
-0.013723565 0.46575817 0.0045521986 -0.09333871 0.14620027 0.021727495 0.0042640753 0.004053871
0.07312578 0.0073429886 0.22160135 0.053351667 0.043317303 0.004394361 0.22650288 -0.0868285
0.21533999 -0.110511385 0.10146726 -0.2058982 -0.02649786 0.025333557 -0.11371862 -0.23294373
0.1456221 0.14343095 -0.033220258 0.04665353 -0.2520632 0.019367155 -0.26424122 0.090915695
-0.2145662 0.03376603 0.79479474 0.22015315 0.18674365 -0.12515482 -0.24500993 -0.116405234
-0.059290815 -0.14854157 -0.0006811094 0.0053646923 -0.005612919 -0.012149453 0.12902023 -0.09751163
-0.1416327 0.075457275 0.00074722 -0.043402 0.045016494 -0.07784545 -0.16153076 0.00072930165
-0.09254856 -0.018636832 -0.18565273 0.12418028 0.9690141 -0.08766163 0.046302594 0.43522406
0.08735015 -0.046505064 -0.023698084 0.024444694 -0.14815246 0.55595005 0.12803644 -0.07280719
-0.06999102 0.0016369277 0.018937204 -0.19691448 0.028891478 -0.15365976 -0.21053131 0.015248386
0.022933992 0.06935538 -0.021796212 0.2763864 0.04097793 0.19443202 0.005430249 0.29170045
-0.02641581 0.30179673 0.0075468374 0.1784865 -0.08902752 0.36637056 0.23383532 0.20154811
-0.1468804 0.040641416 0.09549751 -0.015651217 -0.074908316 -0.035186246 0.2011265 -0.07974634
0.07847204 -0.057594083 0.78601146 -0.0049800174 -0.2597137 -0.05177836 0.376461 -0.10259797
-0.011864591 -0.015427116 0.008327545 0.5736142 -0.059969287 -0.16729376 0.013089403 -0.083265945
0.024940828 -0.08507437 0.4665639 0.10261155 0.11233507 0.108355485 -0.13711727 -0.050003015
0.4382121 -0.2976156 0.04754932 -0.117697254 -0.28273913 -0.008453447 0.01874981 0.0017651152
-0.047964223 0.020354558 0.07532833 -0.022634065 -0.3812619 -0.13075525 -0.038722657 0.037130862
-0.34164655 0.02227404 -0.08687012 -0.024046635 -0.05899601 0.027003186 -0.03191201 0.078502975
-0.17345871 0.46450323 0.058880508 0.06528644 0.12750363 -0.14105454 -0.17317167 0.3409384

last_fc_log_std.bias f4 [3]
00000000: ea68 6dbf 7a62 36bf cf72 42bf
-0.9273821 -0.71244013 -0.75956434
