models/Env1/PDSRL_256_A5_S1_P/local_episode_3400_reward_200.000000.pt (torch, 297564 bytes, 8 tensors)

fc0.weight f4 [256, 23]
0	0x3ce9e0fb	0.028549662
1	0xbd8ef699	-0.069806285
2	0x3ccc0de9	0.024908977
3	0xbcff565a	-0.031169105
4	0x3d0b1b52	0.0339616
5	0xbd809d91	-0.062800534
6	0xbd5b89df	-0.05359828
7	0x3c56c254	0.013107855
8	0xbd8e3a57	-0.06944721
9	0xbd91a66b	-0.0711182
10	0x3be9cc05	0.0071349167
11	0xbd4cc5e7	-0.049993422
12	0xbd5e3366	-0.054248236
13	0xbd22c60a	-0.039739646
14	0xbd245fb9	-0.04013035
15	0x3c8a02f0	0.016847104
16	0xbda548a0	-0.08070493
17	0xbcc8905f	-0.024482904
18	0x3d102a3a	0.03519652
19	0xbd8050b7	-0.06265395
20	0x3d58ab7f	0.052897926
21	0xbc1801a4	-0.009277735
22	0x3ca53636	0.020167451
23	0xbcd41ff3	-0.02589414
24	0x3d08868f	0.03333145
25	0x3d435f15	0.0476981
26	0x3d030ed2	0.031996556
27	0xbd7ba946	-0.06144073
28	0xbdc2936e	-0.09500776
29	0xbd17c1b6	-0.03704997
30	0xbdc66177	-0.09686559
31	0xbd99433b	-0.07483526
32	0xbda01d68	-0.07818109
33	0xbd8edc72	-0.0697564
34	0xbe04caac	-0.12967938
35	0xbd1ff8d9	-0.03905568
36	0xbdee5ed5	-0.116391815
37	0xbd2b3cce	-0.041806035
38	0x3d2742f3	0.040835332
39	0x3d2f1978	0.0427489
40	0xbcaa65b0	-0.020800442
41	0xbd984a7c	-0.07436082
42	0x3d027b27	0.03185573
43	0xbe378ac3	-0.17924027
44	0x3e341449	0.17585863
45	0xbe2780c2	-0.16357711
46	0x3e1c88fa	0.15286627
47	0x3c7fdbb9	0.015616351
48	0xbd61ccff	-0.05512714
49	0xbe07125a	-0.13190594
50	0x39b69c78	0.00034830323
51	0xbcb219a5	-0.021740744
52	0x3dd45117	0.10367029
53	0x3c963965	0.018337915
54	0xbdd1c5c7	-0.10242801
55	0xbe085c03	-0.1331635
56	0xbe1e421a	-0.15454903
57	0x3cbc2618	0.022967383
58	0x3d159b6a	0.036525168
59	0x3d98bd19	0.074579425
60	0x3d8efa4e	0.069813356
61	0xbd1d3b36	-0.038386546
62	0xbb0ed1a3	-0.0021792434
63	0xbd0a0ea6	-0.033705376
64	0xbd6146ff	-0.054999348
65	0xbb8eae17	-0.004354249
66	0xbfa84ff2	-1.3149397
67	0x3d45dd70	0.048306882
68	0x3dbb071d	0.09132216
69	0xbaee4052	-0.0018177128
70	0xbd180165	-0.037110705
71	0x3d095454	0.033527687
72	0x3e5822f6	0.21107087
73	0x3d3f3146	0.04667785
74	0xbe4047ff	-0.18777464
75	0xbdb960f5	-0.09051696
76	0xbe455d3d	-0.19273849
77	0xbe0080dc	-0.12549156
78	0xbccbb127	-0.024864746
79	0x3d889b4a	0.06670244
80	0x3cebece7	0.028799487
81	0x3d9d4f4f	0.076811425
82	0x3c8de6c7	0.017321957
83	0xbdc26009	-0.094909735
84	0xbd87f846	-0.06639151
85	0x3d8ddfd6	0.06927459
86	0x3e1508dc	0.14554161
87	0x3d7e9891	0.062157217
88	0x3ce85da0	0.028364956
89	0xbeb1cf3a	-0.34728414
90	0x3f800afc	1.0003352
91	0xbeef397a	-0.4672354
92	0x3c9f6b3a	0.01946031
93	0xbc0ece82	-0.0087162275
94	0xbda21656	-0.079144165
95	0xbcdbb7ea	-0.026821095
96	0x3d051b29	0.032496605
97	0x3d29f049	0.04148892
98	0xbd39b4a6	-0.045338295
99	0xbd8983ad	-0.06714568
100	0xbc3d29e7	-0.011545635
101	0x3d064131	0.032777015
102	0x3cc0c581	0.023531677
103	0xbd3fa8e7	-0.046791937
104	0xbcbc5482	-0.022989515
105	0x3c68c6ea	0.014207581
106	0xbd85e361	-0.0653751
107	0x3b465f5e	0.0030269246
108	0xbd78325c	-0.0605949
109	0xbd94d546	-0.07267241
110	0xbd9d1f85	-0.076720275
111	0x3d198c6d	0.037487436
112	0xbc174a5e	-0.009234039
113	0xbc9b6702	-0.018970016
114	0x3ce355da	0.027750898
115	0xbb6dab7c	-0.0036265543
116	0x3a06be2a	0.0005140031
117	0x3c0c8677	0.008576981
118	0xbd736e5a	-0.05943141
119	0x3d3ded77	0.046369042
120	0xbd4ce463	-0.050022494
121	0xbd536a4f	-0.051615056
122	0x3d41cfb9	0.04731724
123	0xbd788bbf	-0.060680147
124	0x3c835d0c	0.01603558
125	0x3b071e89	0.0020617566
126	0x3cf205f7	0.02954386
127	0xbd92b861	-0.07164074
128	0xbd272c5d	-0.040813792
129	0x3d2d7381	0.04234648
130	0xbd437b89	-0.047725234
131	0xbd88071f	-0.06641983
132	0xbd5013ba	-0.050800063
133	0x3b8d9a79	0.004321393
134	0xbc473b32	-0.012160109
135	0xbc9fd48f	-0.019510536
136	0x3c6817a3	0.014165792
137	0xbd80cad4	-0.062886864
138	0xbccca0f6	-0.024979096
139	0xbccee0c7	-0.025253667
140	0xbb9ff3da	-0.0048813643
141	0x3c6e79ab	0.014555375
142	0xbd47449e	-0.048649423
143	0xbd95ed34	-0.073206335
144	0xbd0c8eca	-0.03431586
145	0xbd7b9640	-0.061422586
146	0x3d2269f4	0.039651826
147	0xbd27993c	-0.04091762
148	0xbc61aaa0	-0.01377359
149	0xbd66e516	-0.056370817
150	0xbd04f76c	-0.032462522
151	0xbd443c7d	-0.04790925
152	0xbc0900b8	-0.008361988
153	0x3d20b298	0.03923282
154	0x3c927fba	0.01788317
155	0xbd4f894c	-0.050668046
156	0xbd680dd0	-0.056653798
157	0xbd30333d	-0.043017615
158	0xbcf30319	-0.029664563
159	0x3ce6977a	0.028148402
160	0xbcd54d09	-0.02603771
161	0xbc80ba34	-0.015713789
162	0xbe13d899	-0.14438094
163	0xbd738524	-0.059453145
164	0xbd33aa76	-0.043863736
165	0x3cb99fe5	0.022659251
166	0x3c67e0dd	0.014152733
167	0x3de70c06	0.1128159
168	0x3e087966	0.1332756
169	0xba9ba780	-0.001187548
170	0x3d097854	0.03356202
171	0x3c4a8a51	0.012362079
172	0xbd0f5a67	-0.034998324
173	0x3c63c296	0.013901373
174	0x3a8f23ec	0.001092074
175	0x3cf535a3	0.029932803
176	0x3c61dfe5	0.013786291
177	0xbdc71ae0	-0.09721923
178	0xbd2af3c1	-0.041736368
179	0xbdc700e2	-0.09716965
180	0xbe101d35	-0.14073642
181	0xbe8a81ae	-0.27052063
182	0x3f93722f	1.1519221
183	0xba61e882	-0.0008617715
184	0x3c132aaa	0.00898234
185	0xbd05737e	-0.032580845
186	0xbc81bfad	-0.015838468
187	0x3c80a6a5	0.015704462
188	0xbd3a674d	-0.04550867
189	0xbd2759a6	-0.04085698
190	0xbd902766	-0.07038765
191	0xbd54f795	-0.051993925
192	0xbca1cc0e	-0.019750621
193	0xbb52889a	-0.0032124878
194	0xbd93c074	-0.07214442
195	0xbd00d462	-0.031452544
196	0xbcc3e94a	-0.023914952
197	0xba38a894	-0.0007044163
198	0x3c3ca58d	0.01151408
199	0xbce58563	-0.028017705
200	0xbd33d691	-0.0439058
201	0x3cdc671d	0.026904637
202	0x3d348326	0.044070385
203	0xbd365445	-0.04451396
204	0x3d10ae1c	0.035322294
205	0xbc1faddf	-0.009746044
206	0xbc1f5d8e	-0.009726895
207	0xbdaea956	-0.08528392
208	0xbe42fef3	-0.19042568
209	0xbe18c57c	-0.14919084
210	0xbcf036bd	-0.029322976
211	0x3de8c057	0.11364811
212	0x3dd7c98b	0.10536488
213	0x3df22b30	0.118246436
214	0xbdad02f5	-0.0844783
215	0xbdb31fd5	-0.08746306
216	0x3d382190	0.044953883
217	0x3d5700d2	0.052491017
218	0x3a818a0d	0.0009883061
219	0xbd085985	-0.033288497
220	0xbde01a45	-0.109425105
221	0xbceb40fa	-0.028717507
222	0x3d33e187	0.04391625
223	0x3dcf6f17	0.101286106
224	0x3e151a40	0.14560795
225	0xbd2f3d4b	-0.042783063
226	0xbe52f24e	-0.20600244
227	0xbd8c34d8	-0.06846017
228	0xbd428053	-0.04748566
229	0x3ef3c775	0.4761311
230	0xbd3cd0ad	-0.046097446
231	0xbd42ba39	-0.047540877
232	0x3d189745	0.037253637
233	0x3e05637b	0.1302623
234	0xbca98c95	-0.020696918
235	0xbd312369	-0.04324666
236	0xbd9b14bc	-0.07572314
237	0xbe543acf	-0.20725559
238	0xbd56cdd8	-0.0524424
239	0xbd78cc84	-0.060741916
240	0x3d8c9661	0.0686462
241	0xbd8ae54e	-0.06782018
242	0xbd425889	-0.047447715
243	0xbd87b633	-0.066265486
244	0x3b5bab29	0.0033518767
245	0xbbdb1027	-0.006685275
246	0x3dd7de74	0.105404764
247	0x3da29ae9	0.07939703
248	0xbd04d375	-0.032428224
249	0xbcbaa5cd	-0.022784138
250	0x3f6952d8	0.91142035
251	0x3dbe5a39	0.09294552
252	0x3ed6863d	0.4189929
253	0x3d5f5ab8	0.054529876
254	0x3cc720fc	0.02430772
255	0x3ba45b70	0.005015783

fc0.bias f4 [256]
0	0x3da78682	0.08179952
1	0x3da74ed3	0.081693314
2	0x3d5228e4	0.051308528
3	0x3e120153	0.14258318
4	0x3da95ad2	0.08269276
5	0x3dafc24c	0.08581981
6	0x3dac4fae	0.08413635
7	0x3dd3589d	0.10319636
8	0x3dade66f	0.08491217
9	0x3d2a9bd3	0.04165251
10	0x3d1d8f90	0.03846699
11	0x3dd90d72	0.105982676
12	0x3dcccccd	0.1
13	0x3db6a431	0.08918036
14	0x3d9a5d02	0.07537271
15	0x3db648c8	0.08900601
16	0x3e13ac8e	0.14421293
17	0x3daeaae4	0.085286885
18	0x3dc1b3a9	0.094580956
19	0x3da23954	0.07921091
20	0x3db3082b	0.08741792
21	0x3da7542c	0.081703514
22	0x3dac3b83	0.084097885
23	0x3dc43ba0	0.09581685
24	0x3dadcc6e	0.084862575
25	0x3dbfdccb	0.09368285
26	0x3d8015fc	0.06254193
27	0x3dd15295	0.102208294
28	0x3daadb03	0.083425544
29	0x3e0013c8	0.12507546
30	0x3da5eb50	0.08101523
31	0x3d96b1a1	0.07358099
32	0x3dcccccd	0.1
33	0x3dac4b43	0.084127925
34	0x3db1971e	0.086714014
35	0x3dcd6019	0.10028095
36	0x3db2cc8d	0.08730421
37	0x3da82167	0.08209496
38	0x3da4f9e6	0.08055477
39	0x3d963387	0.07334047
40	0x3dc3fde3	0.095699094
41	0x3dcccccd	0.1
42	0x3dc89b79	0.09795279
43	0x3d8217d3	0.063522
44	0x3da51548	0.080607
45	0x3db82838	0.08992046
46	0x3e2448a9	0.16043343
47	0x3daa64b0	0.08319986
48	0x3d9b83a7	0.0759347
49	0x3e2451e0	0.16046858
50	0x3db140ff	0.08654975
51	0x3dec9f1f	0.115537874
52	0x3dac4c42	0.084129825
53	0x3db59552	0.08866371
54	0x3d91c506	0.07117657
55	0x3db03f1a	0.08605786
56	0x3da78106	0.08178906
57	0x3da0ce3a	0.078518346
58	0x3dac4d99	0.08413238
59	0x3dd0430e	0.1016904
60	0x3d8e94cb	0.06961974
61	0x3daeaa29	0.08528549
62	0x3dad5170	0.084627986
63	0x3d94e291	0.072697766
64	0x3d87ae46	0.06625037
65	0x3dacbbf8	0.0843429
66	0x3da4c29d	0.08044932
67	0x3dd6226d	0.10455785
68	0x3d6c3a09	0.057672534
69	0x3d8997aa	0.06718381
70	0x3d99b459	0.07505102
71	0x3d923aa9	0.07140095
72	0x3dea5b57	0.11443203
73	0x3d9ebec8	0.077512324
74	0x3db0eb42	0.08638622
75	0x3dba1b9c	0.09087297
76	0x3d8b808d	0.068116285
77	0x3da73197	0.081637554
78	0x3d87caea	0.066305
79	0x3dcccccd	0.1
80	0x3da37fd8	0.07983369
81	0x3d932667	0.07185059
82	0x3d7136a8	0.058890015
83	0x3da1f468	0.07907945
84	0x3e0865af	0.13320039
85	0x3caee193	0.021347797
86	0x3da425ad	0.080149986
87	0x3d925af6	0.07146256
88	0x3db3e3a7	0.087836556
89	0x3dacd320	0.084387064
90	0x3da5cb05	0.080953635
91	0x3cad3b40	0.021146417
92	0x3dcccccd	0.1
93	0x3de5d2a5	0.11221818
94	0x3e175f9e	0.14782569
95	0x3dc3da0b	0.09563073
96	0x3da268af	0.07930123
97	0x3d725752	0.059165306
98	0x3d989c99	0.07451744
99	0x3dac9517	0.08426874
100	0x3dff215d	0.124575354
101	0x3dca3c78	0.09874815
102	0x3dae48f2	0.08510007
103	0x3de003d6	0.10938232
104	0x3dcccccd	0.1
105	0x3da64b02	0.08119775
106	0x3dac5b3b	0.08415838
107	0x3dac9e70	0.08428657
108	0x3dcbafbd	0.09945629
109	0x3da6e9d7	0.0815007
110	0x3da44adf	0.08022093
111	0x3da67fe0	0.08129859
112	0x3daae4a7	0.08344393
113	0x3d0fb954	0.035088852
114	0x3d413a43	0.047174703
115	0x3e094a23	0.13407187
116	0x3d9dab2c	0.07698664
117	0x3dae0512	0.08497061
118	0x3dadd052	0.084869996
119	0x3d24cbab	0.040233295
120	0x3db3fbe6	0.0878828
121	0x3d927efd	0.07153127
122	0x3d676f48	0.05650261
123	0x3dac4bdb	0.08412906
124	0x3dfc4556	0.12317912
125	0x3d9c945c	0.07645485
126	0x3dbc99cb	0.09209021
127	0x3d51ad4c	0.05119066
128	0x3da2c349	0.07947404
129	0x3bff043c	0.007782487
130	0x3d85f459	0.06540746
131	0x3d711689	0.05885938
132	0x3daddf96	0.08489911
133	0x3dabbc01	0.08385468
134	0x3da4498c	0.080218405
135	0x3da6945b	0.08133765
136	0x3dcccccd	0.1
137	0x3d70b52a	0.05876652
138	0x3dcccccd	0.1
139	0x3dc36dad	0.09542403
140	0x3dc209cd	0.094745256
141	0x3dac9dd3	0.0842854
142	0x3d6509ee	0.055917673
143	0x3d96b824	0.07359341
144	0x3e261251	0.16217925
145	0x3dc5d307	0.09659391
146	0x3daaf0e5	0.08346728
147	0x3dbd9700	0.092573166
148	0x3d97dce3	0.07415178
149	0x3dcccccd	0.1
150	0x3daed211	0.08536161
151	0x3d631056	0.0554355
152	0x3ca6f7f5	0.020381907
153	0x3da47066	0.08029251
154	0x3dcccccd	0.1
155	0x3db462d6	0.08807914
156	0x3de384cd	0.11109314
157	0x3da33477	0.07968991
158	0x3d8553e3	0.06510141
159	0x3dacc5ae	0.08436142
160	0x3d9df6dc	0.077131
161	0x3db07b11	0.08617223
162	0x3dab0d3c	0.08352134
163	0x3d9d875e	0.07691835
164	0x3da4bad3	0.080434464
165	0x3dcd213a	0.10016103
166	0x3dcccccd	0.1
167	0x3d8b0103	0.06787302
168	0x3d8665af	0.06562363
169	0x3d9a1de0	0.075252295
170	0x3e00f81d	0.12594648
171	0x3dcccccd	0.1
172	0x3db54df6	0.088527605
173	0x3d4ccbe8	0.049999148
174	0x3db53a81	0.08849049
175	0x3daeba8f	0.08531677
176	0x3d905d42	0.070490375
177	0x3da771ac	0.08175978
178	0x3db28e46	0.08718543
179	0x3dac70df	0.08419966
180	0x3e201456	0.15632758
181	0x3dcccccd	0.1
182	0x3d3f1394	0.04664953
183	0x3e1ff70a	0.15621582
184	0x3d9e54e6	0.07731037
185	0x3dac471b	0.08412
186	0x3d910acc	0.070821375
187	0x3d8edb67	0.069754414
188	0x3dad153f	0.08451318
189	0x3dce6e5b	0.100796424
190	0x3dcccccd	0.1
191	0x3dadcfe2	0.08486916
192	0x3da5a125	0.080873765
193	0x3db54833	0.088516615
194	0x3dce1826	0.100632
195	0x3d8b695f	0.06807207
196	0x3d909580	0.07059765
197	0x3d878249	0.06616647
198	0x3dadf6e7	0.084943585
199	0x3dac73b5	0.08420507
200	0x3d7a737e	0.0611453
201	0x3dee71f8	0.116428316
202	0x3e118eb7	0.14214598
203	0x3ce3c829	0.027805405
204	0x3dac9268	0.08426362
205	0x3d840f3d	0.06448219
206	0x3d9410ac	0.072297424
207	0x3daeb0fd	0.085298516
208	0x3d86914e	0.065706834
209	0x3db35bca	0.08757742
210	0x3d946388	0.072455466
211	0x3da97df0	0.08275974
212	0x3da92b7a	0.082602456
213	0x3da5de33	0.08099022
214	0x3d9692be	0.073522076
215	0x3dad1868	0.08451921
216	0x3d705d80	0.05868292
217	0x3dcccccd	0.1
218	0x3d895633	0.06705894
219	0x3e1ac5f2	0.15114573
220	0x3dac4903	0.084123634
221	0x3da57443	0.08078816
222	0x3d86375a	0.06553526
223	0x3db9c25e	0.09070276
224	0x3da7c4e7	0.08191853
225	0x3deb7468	0.11496812
226	0x3db13db9	0.08654351
227	0x3d9ebc72	0.07750787
228	0x3d8e1a04	0.06938556
229	0x3dac8f30	0.08425748
230	0x3daf9c61	0.08574749
231	0x3db3ea94	0.087849766
232	0x3dcccccd	0.1
233	0x3da2b6d4	0.07945028
234	0x3d31636f	0.043307718
235	0x3db32aa9	0.08748371
236	0x3db14d2b	0.08657297
237	0x3dac8a7d	0.08424852
238	0x3db462a2	0.08807875
239	0x3dcccccd	0.1
240	0x3db80d22	0.0898688
241	0x3ddc3405	0.107521094
242	0x3dcccccd	0.1
243	0x3dac6f07	0.08419614
244	0x3df5696c	0.11982998
245	0x3da3eb7d	0.080039
246	0x3dacd5a6	0.08439188
247	0x3db0e924	0.08638218
248	0x3d409613	0.047018122
249	0x3d9351af	0.07193314
250	0x3dac778a	0.08421238
251	0x3d200430	0.039066494
252	0x3e107ba5	0.14109667
253	0x3db9522b	0.090488754
254	0x3dac4d8b	0.08413228
255	0x3db62708	0.08894163

fc1.weight f4 [256, 256]
0	0x3c81bef0	0.015838116
1	0xbd6bad97	-0.057538595
2	0x3d9e57f7	0.07731622
3	0xbca7b097	-0.020469947
4	0x3d71f19d	0.05906831
5	0xbd6c8448	-0.05774334
6	0x3c130118	0.008972429
7	0xbe658961	-0.22415687
8	0x3cd8f634	0.026484586
9	0xbda6e88a	-0.08149822
10	0xbd08c6c6	-0.03339269
11	0xbd557599	-0.052114103
12	0x3aa7ec80	0.0012811571
13	0xbc2d8ae6	-0.010592198
14	0x3bcbe4b9	0.006222334
15	0xbcbad0ce	-0.022804644
16	0xbe17d103	-0.14825825
17	0x3d5514c2	0.05202175
18	0xbc94891f	-0.01813179
19	0x3c809bb9	0.015699254
20	0x3c941fb4	0.018081523
21	0xbd6e465f	-0.05817258
22	0x3bfb8b37	0.007676508
23	0xbe32b1e0	-0.17450666
24	0x3cc60cdc	0.024176054
25	0x3d8e0976	0.06935398
26	0x3d9e0c1f	0.07717156
27	0x3ec2383e	0.37933534
28	0xbd0ed4ff	-0.034871098
29	0x3e5f55f9	0.2181014
30	0x3c0e7e2e	0.008697076
31	0x3d53d305	0.051714916
32	0x3cab87e8	0.020938829
33	0x3d7dc4e0	0.061955333
34	0xbcdcf8bc	-0.026974075
35	0x3f05572b	0.5208613
36	0x3d272212	0.040803976
37	0x3ccc5a01	0.024945261
38	0x3d2e51cc	0.042558476
39	0x3ddb823d	0.107182
40	0xbbf3de3f	-0.0074422653
41	0xbd6981cc	-0.05700855
42	0xbe56b602	-0.20967868
43	0x3c6edaa6	0.014578497
44	0xbd550a3f	-0.052011725
45	0x3c609583	0.013707521
46	0xbcfa0cb6	-0.03052364
47	0xbd7cfe39	-0.061765883
48	0xbd1bf586	-0.038075946
49	0xbf09466c	-0.5362308
50	0x3c9bd470	0.019022197
51	0xbe051f55	-0.13000233
52	0x3d9f41a7	0.07776194
53	0x3ce89e88	0.028395906
54	0xbc205f16	-0.009788295
55	0xbc12e2cb	-0.0089652045
56	0x3e82d9cf	0.255568
57	0xbd52f983	-0.051507484
58	0x3d457258	0.04820475
59	0xbeda441d	-0.4263009
60	0x3d3768b1	0.044777576
61	0xbcbdb4ba	-0.023157466
62	0x3d5c6c29	0.053814087
63	0x3d15ba0e	0.03655439
64	0xbbcdac04	-0.0062766094
65	0xbd80c4ce	-0.062875375
66	0x3d55a82a	0.052162327
67	0xbe2bbc84	-0.16771132
68	0x3d05c1e2	0.032655604
69	0x3cfb4db9	0.03067671
70	0xbce14220	-0.027497351
71	0x3d4c3971	0.049859468
72	0xbe8b0856	-0.27154797
73	0x3cc2ad3f	0.02376425
74	0x3c9d06c8	0.019168273
75	0xbe70ad3f	-0.23503588
76	0x3cf464de	0.029833253
77	0xbc9456c0	-0.018107772
78	0xbd8cfa6a	-0.068837
79	0xbd29861c	-0.041387662
80	0xbd3e3a28	-0.04644218
81	0xbcc76cb6	-0.02434383
82	0xbe37f85a	-0.17965832
83	0x3d67c447	0.05658367
84	0xbe5b1dcd	-0.21398087
85	0xbe525f18	-0.20544088
86	0x3d23b51d	0.039967645
87	0xbd599402	-0.053119667
88	0xbc6f5358	-0.014607273
89	0xbd03c069	-0.03216592
90	0x3d045802	0.032310493
91	0x3e257f07	0.16161738
92	0xbc8bc558	-0.017061874
93	0xbe691edb	-0.22765677
94	0xbde39aa1	-0.111134775
95	0x3ec77e87	0.3896372
96	0x3d00f2dc	0.03148161
97	0x3da43ad2	0.080190316
98	0x3c28d771	0.0103052715
99	0xbcf9e574	-0.03050492
100	0x3ebee7ef	0.37286326
101	0xbef373bf	-0.47549245
102	0xbd85dc57	-0.06536167
103	0xbf0b73ef	-0.54473776
104	0xbb6d8140	-0.003624037
105	0x3d7426bc	0.059607252
106	0xbd5b9920	-0.05361283
107	0x3c0c6130	0.008568093
108	0xbeea2786	-0.4573328
109	0x3c47c05d	0.012191859
110	0x3d38542a	0.04500214
111	0x3b3c38ad	0.0028720305
112	0x3d4e706d	0.050400186
113	0x3e6b5775	0.22982581
114	0x3e894302	0.26808935
115	0xbee920c3	-0.45532808
116	0xbc8c1a8a	-0.017102499
117	0x3d9ec3cc	0.07752189
118	0xbbc2342e	-0.0059266305
119	0xbe82053a	-0.25394613
120	0xbd15bcbf	-0.036556955
121	0xbce244d0	-0.027620703
122	0x3da93857	0.08262699
123	0x3ce4c668	0.027926639
124	0x3e05358c	0.13008708
125	0xbb835e1e	-0.0040090224
126	0xbe1ddf4f	-0.15417217
127	0xbd9f0da7	-0.07766276
128	0xbd842561	-0.06452442
129	0xbd90559b	-0.07047578
130	0xbd38f805	-0.045158405
131	0x3d7765e4	0.060399905
132	0xbd3d26d6	-0.046179615
133	0xbb892067	-0.004184771
134	0x3c0f9e05	0.008765702
135	0xbcef13b8	-0.029184207
136	0x3b95e1f0	0.004574053
137	0xbd8fd866	-0.070236966
138	0xbc403fb8	-0.011733942
139	0xbbb87782	-0.005629481
140	0x3db50449	0.08838708
141	0xbc82b7d4	-0.015956797
142	0x3d81d799	0.0633995
143	0x3dc55e99	0.09637184
144	0xbeda353e	-0.42618746
145	0xbd1ea7fb	-0.038734417
146	0xbc34f5e8	-0.011044957
147	0x3d78ecbc	0.060772642
148	0xbd61bdf7	-0.055112805
149	0xbbcf51c0	-0.006326884
150	0x3d1c23c8	0.03812006
151	0x3eac6714	0.33672392
152	0xbdd7a089	-0.105286665
153	0xbea6a3db	-0.32546887
154	0x3d37ebae	0.044902496
155	0x3da54fca	0.08071859
156	0xbee19a38	-0.44062972
157	0x3c2d6978	0.010584228
158	0xbc48f506	-0.012265449
159	0x3d476482	0.048679836
160	0xbd05a4de	-0.032627933
161	0x39096e00	0.00013106316
162	0x3d92f421	0.0717547
163	0x3d4ba6a7	0.04971948
164	0x3b727514	0.0036996054
165	0xbe8321cc	-0.25611722
166	0x3d3b67ae	0.045753174
167	0x3b2028e0	0.0024438426
168	0xbe12c661	-0.14333488
169	0x3d025a0e	0.031824164
170	0x3c320e9a	0.010867739
171	0x3caa8c20	0.02081877
172	0x3d3f73e5	0.046741385
173	0x3bf227fa	0.0073900195
174	0xbd3beee5	-0.045882124
175	0x37e9d1d6	2.7873477e-05
176	0xbcdef8d2	-0.027218256
177	0xbc45521c	-0.012043502
178	0x3d5a896a	0.053353705
179	0x3c805d38	0.01566945
180	0xbcf8c8e7	-0.030369235
181	0x3c4754b8	0.012166195
182	0x3dd8ec02	0.1059189
183	0xbeb68464	-0.3564788
184	0x3bbd521b	0.00577761
185	0xbd2d13c8	-0.042255193
186	0x3bd6f2cb	0.006559705
187	0x3c9a6be8	0.018850282
188	0xbcd92c3e	-0.026510354
189	0xbcc57dad	-0.024107778
190	0xbd75ecae	-0.06004017
191	0x3cd78aa5	0.026311228
192	0xbd1ad5e3	-0.037801635
193	0xbd05e80e	-0.032692008
194	0x3d3ccf3b	0.046096068
195	0x3d002e06	0.03129389
196	0x3d70371e	0.058646314
197	0xbd8ceb1e	-0.068807825
198	0x3c39d319	0.0113418335
199	0x3d551f7a	0.05203197
200	0x3bb751b0	0.0055944547
201	0x3e2d6d66	0.16936263
202	0x3d4fe2fa	0.05075357
203	0x3e60137a	0.2188243
204	0xbb9c342b	-0.004766961
205	0x3bdcac2b	0.006734391
206	0xbd2df7f8	-0.04247281
207	0xbd91549b	-0.07096215
208	0x3e888cae	0.2666983
209	0x3cfb1288	0.030648485
210	0xbd46ebdd	-0.04856478
211	0x3d1893c6	0.037250303
212	0xbceda6d8	-0.029010221
213	0xbd7a2c55	-0.061077435
214	0x3d1772e6	0.03697481
215	0xbd0e2843	-0.034706365
216	0xbee2bbfc	-0.44284046
217	0xbc3274c8	-0.010892101
218	0xbf12f262	-0.57401097
219	0xbf0404e0	-0.5156994
220	0x3c643568	0.013928749
221	0xbd7ba82d	-0.06143968
222	0xba1d02ba	-0.0005989481
223	0xbe644f5d	-0.222959
224	0xbd2478c1	-0.040154222
225	0x3e25caa3	0.16190581
226	0xbd96926f	-0.07352149
227	0x3d1387e7	0.03601828
228	0xbb77cf06	-0.0037812605
229	0x3c6ed118	0.014576219
230	0xbd3bdfc8	-0.04586771
231	0xbd7936a9	-0.060843144
232	0x3d1da9c4	0.03849198
233	0x3d92b5fa	0.071636155
234	0xbe584264	-0.21119076
235	0xbc8b8f30	-0.01703605
236	0xbd58e572	-0.05295319
237	0x3d144a24	0.03620352
238	0x3d042718	0.032263845
239	0xbd5cbdf6	-0.0538921
240	0xbd1f4233	-0.038881492
241	0xbf0a777c	-0.5408857
242	0x3d41ce66	0.047315978
243	0xbd61aa28	-0.055093914
244	0xbe86d14d	-0.2633156
245	0xbb1c7446	-0.0023873015
246	0x3ad83ae2	0.0016497041
247	0x3d16a942	0.03678251
248	0x3e419109	0.18902983
249	0xbc715ea6	-0.014732039
250	0xbd03b20a	-0.032152213
251	0xbd9764a5	-0.07392243
252	0x3e88518b	0.26624712
253	0x3d5795b7	0.052633014
254	0x3d04a136	0.032380305
255	0x3da8e4ca	0.08246763

fc1.bias f4 [256]
0	0x3e3e7430	0.1859901
1	0x3ddae818	0.106887996
2	0x3ef5ef90	0.48034334
3	0x3d731015	0.05934151
4	0xbe1ee3c5	-0.15516575
5	0xbd9e2ee5	-0.07723788
6	0x3d33b2fe	0.043871872
7	0x3dddc9fb	0.1082954
8	0x3d66dbf7	0.05636212
9	0x3e3523b0	0.17689395
10	0x3da6b415	0.08139817
11	0xbd3ef62b	-0.046621483
12	0x3d8c1ded	0.068416454
13	0xbda09bf3	-0.07842245
14	0x3e157f6c	0.14599389
15	0x3e9cb784	0.3060876
16	0x3e2b52f7	0.16730867
17	0xbd812519	-0.06305904
18	0x3def0c5b	0.116722785
19	0x3df51c40	0.11968279
20	0x3d2f9251	0.042864148
21	0x3c852d83	0.016257053
22	0x3df81b7b	0.121146165
23	0x3e29c025	0.16577204
24	0x3ea967ef	0.33087108
25	0xbe0f33e3	-0.13984637
26	0x3cd047a7	0.025424791
27	0xbcdc6a58	-0.026906177
28	0x3d32b0e9	0.043625746
29	0x3d674f06	0.056471847
30	0x3e20b090	0.15692353
31	0x3e3a81a2	0.18213513
32	0xbe69bc18	-0.22825658
33	0x3dfcb7c9	0.12339742
34	0x3dad96b2	0.084760085
35	0x3e396de3	0.18108325
36	0x3d47ac64	0.04874839
37	0xbd230141	-0.039796118
38	0xbe16cc86	-0.14726457
39	0x3e051066	0.12994537
40	0x3e510389	0.20411505
41	0xbc2a918d	-0.010410679
42	0xbbd4a46f	-0.0064893286
43	0x3e58c11e	0.21167418
44	0x3d3ae622	0.045629628
45	0x3df9e49f	0.12201809
46	0x3e44e689	0.19228567
47	0x3e3131dc	0.17304176
48	0x3e30f788	0.17281926
49	0xbe243e0d	-0.16039295
50	0x3de2776d	0.11057935
51	0x3eb2435d	0.3481702
52	0x3e10d384	0.14143187
53	0xbdbac448	-0.09119469
54	0x3e5ad7f3	0.2137144
55	0xbdb005d1	-0.085948594
56	0x3eabd406	0.335602
57	0x3daefbb0	0.08544099
58	0x3d85eed3	0.06539693
59	0xbe2bf950	-0.16794324
60	0x3d453d56	0.048154198
61	0xbe575b55	-0.21030934
62	0x3e516aa5	0.20450838
63	0x3d2036bc	0.0391147
64	0x3e417e62	0.18895867
65	0x3e6f0d34	0.2334488
66	0x3d29a71f	0.041419145
67	0xbc372af1	-0.011179672
68	0x3d643df7	0.055723157
69	0x3e0a9063	0.13531642
70	0xbe3a363c	-0.18184751
71	0x3df9495d	0.12172196
72	0xbe8b6e15	-0.27232423
73	0x3d303864	0.04302253
74	0x3e4e6721	0.20156528
75	0x3d587082	0.05284167
76	0x3e53ddb0	0.20690036
77	0xbde16587	-0.11005693
78	0x3daf738d	0.085669614
79	0xbe2c99fd	-0.16855617
80	0x3de118ab	0.10991033
81	0x3e5f71ee	0.21820804
82	0x3d283488	0.041065723
83	0x3cea23c6	0.028581511
84	0x3d1e5306	0.038653396
85	0x3bfdccde	0.0077453693
86	0x3d5d8fc9	0.054092202
87	0x3e960ecc	0.29308164
88	0xbcd05c4c	-0.025434636
89	0x3e69d316	0.22834429
90	0x3e75100a	0.239319
91	0x3d33a8a2	0.043861993
92	0x3df115d7	0.11771744
93	0x3d311822	0.043235905
94	0x3d996b7e	0.07491206
95	0xbebe6e80	-0.3719368
96	0x3d71163a	0.058859088
97	0x3e535e85	0.20641525
98	0x3d28681f	0.041114923
99	0x3dd85a15	0.10564057
100	0x3deee5f2	0.11664952
101	0xbd849f54	-0.06475702
102	0x3e7f1e6d	0.2491395
103	0x3d7a3a31	0.061090652
104	0x3e15350a	0.14571014
105	0x3d1d9ad4	0.038477734
106	0xbe13d469	-0.14436497
107	0x3e0db118	0.13837087
108	0x3c2be173	0.010490763
109	0x3eafb01b	0.34314045
110	0x3e3687b5	0.17825206
111	0xbdcb7e2b	-0.09936174
112	0x3e0654a1	0.13118221
113	0x3df458c4	0.11930993
114	0x3df07e76	0.117428705
115	0x3da57f4d	0.08080921
116	0xbd39a14b	-0.045319837
117	0x3e88b7b3	0.2670265
118	0x3e83b150	0.25721216
119	0x3d073fbf	0.033019777
120	0x3d64bc67	0.055843737
121	0x3dda8141	0.106691845
122	0xbd6dc2f1	-0.05804724
123	0xbc9580f5	-0.018249968
124	0xbd1aab94	-0.037761286
125	0x3dc35756	0.095381424
126	0xbeadd585	-0.33951965
127	0xbcb426d0	-0.021991163
128	0xbde67728	-0.11253196
129	0x3d7b27c1	0.06131721
130	0xbe3e8862	-0.18606713
131	0x3db9a0b8	0.09063858
132	0x3e6ce2af	0.23133348
133	0x3cfb81e7	0.03070159
134	0x3e80ac51	0.25131467
135	0x3b8c1c5b	0.004275841
136	0x3e6b16f0	0.22957969
137	0x3e646b17	0.22306477
138	0x3dc527f1	0.09626759
139	0x3d7173c5	0.058948297
140	0x3e73e16b	0.23816459
141	0x3d024e9f	0.03181326
142	0x3db69bd0	0.089164376
143	0x3d50c373	0.050967645
144	0xbc0c2b3a	-0.008555228
145	0xbe43c342	-0.19117454
146	0x3d7e662b	0.062109154
147	0x3d2d7af8	0.0423536
148	0x3d8ba3e3	0.06818368
149	0x3dd2c00f	0.102905385
150	0x3e6a7b59	0.22898616
151	0x3d5b8672	0.053595014
152	0x3e26e4cc	0.16298217
153	0x3ccb76d3	0.024836933
154	0x3e30a553	0.17250566
155	0x3e4ee7c4	0.20205599
156	0xbd7c36e8	-0.0615758
157	0xbc4511c5	-0.012028162
158	0x3d3bf715	0.045889933
159	0x3de8f0f7	0.113740854
160	0xbe388991	-0.18021227
161	0xbd7a378a	-0.061088122
162	0x3cafd2f2	0.021462891
163	0x3d602d90	0.05473095
164	0x3e3c0fda	0.18365422
165	0x3e62e48e	0.22157499
166	0x3d335c8e	0.04378944
167	0x3e0eba65	0.13938291
168	0x3dc7b6c6	0.09751658
169	0x3d84a7e4	0.06477335
170	0x3d64bb26	0.05584254
171	0xbd9647b9	-0.07337899
172	0x3c2aaa74	0.010416616
173	0x3de1293c	0.10994193
174	0x3daf7039	0.08566327
175	0x3d2f399e	0.042779557
176	0x3d200fd2	0.039077587
177	0x3d88b29d	0.06674693
178	0x3e4b053c	0.19826216
179	0x3daafd8f	0.08349144
180	0x3e85287d	0.26007453
181	0x3dc705c9	0.097179
182	0xbeb7bdda	-0.35887033
183	0x3e997d90	0.2997861
184	0x3e9c0050	0.30468988
185	0x3e0ed07d	0.1394672
186	0x3d245200	0.040117264
187	0x3e08a8a0	0.13345575
188	0x3e2d15d1	0.16902854
189	0x3da6767f	0.0812807
190	0x3e303fe8	0.17211878
191	0x3df7913e	0.120882496
192	0x3db52eaa	0.08846791
193	0x3ccc3f74	0.0249326
194	0x3e2e0044	0.16992289
195	0x3db7f24b	0.089817606
196	0xbcec83fe	-0.028871533
197	0x3e2eb9bf	0.17063044
198	0xbc9b887a	-0.018985976
199	0xbe60b1db	-0.21942846
200	0xbc63e43d	-0.013909397
201	0x3ce9e56c	0.02855178
202	0xbddf1438	-0.10892528
203	0x3e6df5df	0.23238324
204	0x3ee18191	0.44044164
205	0x3daa44dc	0.08313915
206	0x3c88b61e	0.016688403
207	0x3dc68f8b	0.096953474
208	0x3d860555	0.06543986
209	0x3d820cc5	0.06350092
210	0x3e0e5265	0.13898619
211	0x3cc1bd4e	0.023649838
212	0x3e1df148	0.15424073
213	0x3d925b40	0.07146311
214	0x3d89b946	0.06724791
215	0x3ea72a95	0.32649675
216	0x3d15b195	0.03654631
217	0x3e956c0e	0.29184002
218	0x3d8b73d1	0.068091996
219	0x3d768bd5	0.060191948
220	0xbd9b0544	-0.07569364
221	0xbcbcb502	-0.02303553
222	0x3e78ee9f	0.24309777
223	0xbdc6a00b	-0.096984945
224	0x3e02dcd6	0.12779555
225	0x3e22dd90	0.15904832
226	0x3dbf0ddf	0.093288176
227	0x3d7f7426	0.062366627
228	0x3c461b64	0.012091491
229	0x3d8e21e5	0.069400586
230	0x3dbc7a54	0.0920302
231	0x3d6f116d	0.058366228
232	0xbd0427e1	-0.032264594
233	0x3d51303e	0.051071398
234	0x3dfe8d2b	0.124292694
235	0x3cc69227	0.024239613
236	0xbd36668f	-0.0445314
237	0x3e605561	0.2190757
238	0x3e1a1dd0	0.15050435
239	0x3e6a9ba1	0.2291093
240	0x3ead7387	0.33877203
241	0x3d6b5401	0.05745316
242	0x3c84b750	0.016200691
243	0x3d225e74	0.03964086
244	0x3de28e17	0.11062258
245	0xbd7a620d	-0.061128665
246	0x3d3064c1	0.043064836
247	0x3d5669f2	0.05234713
248	0x3e547ea9	0.20751442
249	0xbdc1a598	-0.094554126
250	0x3e3ea783	0.18618588
251	0x3df78278	0.12085432
252	0x3d89109e	0.066926226
253	0x3e2b11bf	0.16705988
254	0x3e084289	0.13306631
255	0x3e750dcf	0.23931049

last_fc.weight f4 [3, 256]
0	0xbe298a4c	-0.16556662
1	0xbe6761e5	-0.22595938
2	0xbde96924	-0.11397007
3	0x3ba09b83	0.004901351
4	0xbd3b9b95	-0.04580267
5	0xbd26be66	-0.04070892
6	0xbc0c5f05	-0.008567576
7	0xbddb22d6	-0.10700004
8	0xbe1de467	-0.1541916
9	0x3be576d7	0.007002692
10	0x3e402c7d	0.18766971
11	0xbe563d0c	-0.20921725
12	0x3c5da2dd	0.013527599
13	0xbede0fe1	-0.4337149
14	0xbdd809df	-0.10548758
15	0x3d72098c	0.059091136
16	0xbd8dfabe	-0.06932591
17	0xbe1a3c4a	-0.15062061
18	0xbddbc719	-0.10731334
19	0xbe533335	-0.20625003
20	0x3c8bccb5	0.017065385
21	0xbe1e0864	-0.15432888
22	0xbcb56cb1	-0.022146555
23	0x3ce2abc7	0.0276698
24	0x3ea67724	0.32512772
25	0x3f03a8cc	0.5142944
26	0xbe8ada59	-0.2711971
27	0xbe30a3d1	-0.17249991
28	0xbe75d8bb	-0.24008457
29	0xbb0b8fab	-0.002129535
30	0x3ea37eda	0.31932718
31	0xbdfb6f6b	-0.12277111
32	0x3e256344	0.16151148
33	0x3e0cf7fb	0.13766472
34	0xbbfaf485	-0.0076585435
35	0xbd86ed96	-0.06588285
36	0xbbb4afb8	-0.0055141114
37	0x3d6bcbcf	0.057567414
38	0x3dddaca3	0.108239435
39	0xbd6094ad	-0.05482929
40	0x3d9f587b	0.07780548
41	0x3ea77993	0.3270994
42	0xbee5119a	-0.4473999
43	0x3dea320e	0.114353284
44	0xbcef9e7f	-0.029250382
45	0xbcc21f92	-0.023696695
46	0xbdf75af0	-0.12077892
47	0x3f212a6d	0.6295536
48	0x3e6d7f91	0.23193194
49	0xbd4844ca	-0.048893727
50	0xbd13e123	-0.03610338
51	0xbed96f9a	-0.42467958
52	0xbe4ba30c	-0.19886416
53	0xbe0eb40c	-0.1393587
54	0xbe1b0cb5	-0.15141566
55	0x3e8fb48f	0.28067443
56	0x3e7eba88	0.24875844
57	0xbed576cc	-0.41692197
58	0x3ebd7aea	0.37007838
59	0xbde0254f	-0.10944616
60	0x3d6f3f18	0.05840978
61	0x3f422243	0.7583353
62	0x3e0146d9	0.12624682
63	0xbdd4a790	-0.103835225
64	0xbc822521	-0.015886845
65	0x3d038eff	0.032118794
66	0xbd0a87a5	-0.033820767
67	0xbd5b0b9b	-0.053477865
68	0xbb9d3ea8	-0.004798729
69	0x3ea94cdd	0.33066455
70	0x3e9c117b	0.30482087
71	0x3e981b74	0.29708445
72	0xbd7d3191	-0.06181485
73	0xbb66b5d2	-0.0035203588
74	0xbdaf8b0a	-0.085714415
75	0xbc3197c4	-0.010839406
76	0x3acce1ff	0.0015631317
77	0xbe25b125	-0.16180857
78	0x3eb892a7	0.36049387
79	0xbe3bb0e5	-0.18329199
80	0x3e27fb75	0.16404517
81	0x3df011da	0.11722155
82	0xbc24d0a9	-0.010059514
83	0xbb1351fa	-0.0022479282
84	0x3b3541cf	0.0027657633
85	0xbdb501d8	-0.08838242
86	0xb9fc79de	-0.00048155984
87	0xbdc9be7a	-0.09850784
88	0xbd5a6330	-0.05331725
89	0x3e8f4819	0.27984694
90	0xbdaac048	-0.08337456
91	0x3bb634e2	0.0055605033
92	0x3eec700f	0.46179244
93	0x3cb5e14a	0.022202153
94	0x3d8f1872	0.069870844
95	0x3eee6485	0.46561065
96	0xbc690c44	-0.014224116
97	0x3ed671f7	0.41883823
98	0x3bce6bd1	0.006299474
99	0x3d80b439	0.06284375
100	0xbe026661	-0.12734367
101	0xbd9354cc	-0.07193908
102	0x3d8e1bf6	0.06938927
103	0x3ce40bda	0.027837683
104	0x3e41ac41	0.18913366
105	0xbd3f9170	-0.04676956
106	0xbf215670	-0.6302252
107	0x3d49d9a5	0.049279828
108	0xbe5cad8c	-0.21550578
109	0x3e848288	0.25880837
110	0x3ea7ec41	0.32797435
111	0x3e4f9d2b	0.20274799
112	0xbf6b8368	-0.91997385
113	0xbe230073	-0.1591814
114	0xbe79b507	-0.24385463
115	0x3d07ac89	0.033123527
116	0x3e911176	0.28333634
117	0xbccf7ab2	-0.02532706
118	0x3db680a8	0.08911258
119	0xbf17e679	-0.5933605
120	0xbdb31b3b	-0.08745428
121	0xbdff5518	-0.12467402
122	0x3e86fb2c	0.26363504
123	0xbe119a03	-0.14218907
124	0x3f0eefa1	0.55834395
125	0x3e67526a	0.22590032
126	0x3eb3abd6	0.35092038
127	0xbc2f97ee	-0.010717375
128	0x3eb81b08	0.35958123
129	0x3c4bb0ab	0.012432258
130	0xbfe3cead	-1.7797447
131	0xbc897459	-0.016779112
132	0x3c83155b	0.016001394
133	0xbe070e5e	-0.13189074
134	0xbd2f1550	-0.042744935
135	0x3e810a84	0.25203335
136	0x3e28290e	0.16421911
137	0x3e5f69e0	0.21817732
138	0xbe35c5d8	-0.17751253
139	0x3c2ecf4a	0.010669539
140	0x3e226d75	0.15862067
141	0xbd7610e1	-0.06007469
142	0xbde7750b	-0.11301621
143	0x3d198d26	0.037488125
144	0xbe4d00ec	-0.20019883
145	0xbebfb6ca	-0.37444144
146	0x3d0a87f2	0.033821054
147	0x3c91f4ee	0.017816987
148	0x3d0f1432	0.03493137
149	0xbd7d4120	-0.061829686
150	0xbde4df18	-0.11175364
151	0x3c03de45	0.008048599
152	0x3c38012f	0.011230751
153	0x3ddf2631	0.10895956
154	0x3d985b0f	0.07439243
155	0x3cd6020d	0.026124025
156	0xbf03ed7e	-0.5153426
157	0xbd794226	-0.0608541
158	0x3bb1e1ce	0.0054285293
159	0x3f111b4e	0.5668229
160	0x3ec56220	0.38551426
161	0xbda445de	-0.080211386
162	0xbb0a5105	-0.002110542
163	0x3bb747c0	0.00559327
164	0xbe6bc786	-0.23025331
165	0x3ead41e7	0.33839342
166	0x3ed9bccf	0.42526862
167	0xbe4eca80	-0.20194435
168	0xbeace2b1	-0.33766702
169	0x3e7b0381	0.24513055
170	0x3b93b25a	0.004507345
171	0xbed39af0	-0.41329145
172	0xbe15b48e	-0.14619657
173	0xbdaea55d	-0.08527634
174	0xbe4a8563	-0.19777445
175	0x3c4f7c37	0.0126638925
176	0x3c2f4ecd	0.01069994
177	0xbdf861ad	-0.12128005
178	0xbd9d5ddd	-0.076839186
179	0x3eee7c66	0.46579283
180	0xbdf355f2	-0.11881627
181	0x3f0f7d43	0.5605051
182	0x3da70d73	0.08156862
183	0x3e8c6d61	0.274272
184	0x3e09606f	0.13415693
185	0xbe78d043	-0.24298196
186	0x3c8a94eb	0.016916713
187	0x3e70b657	0.23507057
188	0xbdd84fd7	-0.10562103
189	0x3ec771a0	0.38953876
190	0x3e6dac02	0.23210147
191	0x3dbd689d	0.09248469
192	0x3e3e9157	0.1861013
193	0x3bdf09f2	0.0068066055
194	0x3de53fc3	0.11193802
195	0x3bf5c659	0.0075004515
196	0xbce45ab8	-0.02787529
197	0xbd46cbb1	-0.0485341
198	0xbd785971	-0.060632173
199	0x3e81fee3	0.25389776
200	0x3c1f7a33	0.009733724
201	0xbd90dcc8	-0.07073361
202	0xc006fe3e	-2.1092677
203	0xbe82b6d9	-0.25530127
204	0xbd11caa9	-0.035593662
205	0x3c094ed5	0.008380611
206	0x3f7064ee	0.93904006
207	0xbe1ae84e	-0.1512768
208	0xbc95ccd6	-0.01828615
209	0xbcc3e09c	-0.023910813
210	0x3dae520b	0.08511742
211	0xbf093de7	-0.5361008
212	0x3d57af84	0.05265762
213	0xbe19ea7c	-0.15030855
214	0xbb494b6a	-0.0030715116
215	0x3e2b44c4	0.16725451
216	0xbb755c78	-0.003743915
217	0xbd388d09	-0.045056377
218	0xbe06388c	-0.13107508
219	0xbd163b2b	-0.03667752
220	0xbf6eac94	-0.93232083
221	0x3d4c9456	0.04994615
222	0xbb0cd168	-0.002148712
223	0x3d238b2d	0.03992765
224	0x3e5fb8b6	0.21847805
225	0xbdf62583	-0.120188735
226	0x3c111617	0.008855364
227	0x3d72ced4	0.059279278
228	0x3e5fdaa1	0.21860744
229	0x39bd979e	0.00036161853
230	0xbd95be59	-0.073116966
231	0xbbe65e19	-0.0070302603
232	0x3e518973	0.20462589
233	0xbe08fa52	-0.1337674
234	0xbc060b55	-0.008181413
235	0xbdc25142	-0.09488155
236	0xbee7281e	-0.45147794
237	0x3a8f9ca7	0.001095672
238	0xbc9116b2	-0.017711017
239	0xbe4e5702	-0.20150378
240	0xbcb95d87	-0.022627605
241	0x3dba4acb	0.09096297
242	0x3dbc4532	0.091928855
243	0x3c81323e	0.015771028
244	0x3e027e5a	0.12743512
245	0xbc76209b	-0.015022422
246	0x3cf4808c	0.029846452
247	0xbd3b203d	-0.04568504
248	0xbd588ec5	-0.05287053
249	0x3f2a87af	0.66613287
250	0xbe4e00da	-0.20117512
251	0x3f029d9e	0.51021755
252	0x3c10ab78	0.008829944
253	0xbefc9d93	-0.4933897
254	0xbe014cb3	-0.12626915
255	0x3ee113a1	0.43960288

last_fc.bias f4 [3]
0	0x3d749c02	0.059719093
1	0x3db3bab1	0.08775843
2	0xbca04126	-0.019562315

last_fc_log_std.weight f4 [3, 256]
0	0xbdd0cefe	-0.101957306
1	0x3e4bf5d9	0.19918002
2	0xbe499b33	-0.1968811
3	0x3cda78f8	0.02666901
4	0x3e57f5d5	0.21089871
5	0x3e482a69	0.19547428
6	0xbecd3c1a	-0.40084916
7	0x3c5f615c	0.013634052
8	0x3c2c618f	0.010521307
9	0xbd9189fa	-0.07106395
10	0xbe8f0c1e	-0.27938932
11	0x3ea150ff	0.31507108
12	0xbc050ed9	-0.008121216
13	0x3e3fb4ff	0.18721388
14	0xbdb73d8d	-0.08947287
15	0x3da1a400	0.07892609
16	0x3e83bb12	0.2572866
17	0x3db4fa9b	0.08836862
18	0x3e81a9a1	0.2532473
19	0xbe8431bf	-0.25819203
20	0xbbf5d865	-0.007502603
21	0x3d7a0b95	0.0610462
22	0xbd124538	-0.035710543
23	0xbbe24a08	-0.006905798
24	0x3e44e0ef	0.1922643
25	0xbd1c605e	-0.03817784
26	0x3db4e0d8	0.08831948
27	0x3e9de16e	0.30836052
28	0x3d2c6dfe	0.042097084
29	0xbce7138e	-0.028207567
30	0x3eb79e46	0.3586294
31	0xbddcceab	-0.10781606
32	0x3e780287	0.24219714
33	0x3d6d5f7f	0.0579524
34	0x3dcfd522	0.10148074
35	0xbe3fb7e7	-0.18722497
36	0x3bf5365d	0.0074832872
37	0xbe116368	-0.14198077
38	0x3e53a556	0.2066854
39	0x3c48d05c	0.012256708
40	0xbd268937	-0.040658202
41	0xbebbed08	-0.36704278
42	0x3d6895c0	0.056783438
43	0xbcf9690d	-0.0304456
44	0x3d99e604	0.07514575
45	0x3e05db94	0.13072044
46	0xbda4713d	-0.08029411
47	0x3f06468c	0.52451396
48	0xbdcb8f59	-0.09939451
49	0xbc6c8fd0	-0.014438584
50	0xbce610a0	-0.0280841
51	0xbd5f8c83	-0.05457736
52	0xbe37016a	-0.17871633
53	0xbd6b913e	-0.05751156
54	0xbec75012	-0.38928276
55	0x3dc00505	0.093759574
56	0x3e3b1b5a	0.18272153
57	0xbd8c71b8	-0.06857628
58	0x3ecdcbdc	0.40194595
59	0x3e100c06	0.14067087
60	0x3d00c97c	0.03144215
61	0xbed3411c	-0.41260612
62	0x3dbe9ef1	0.093076594
63	0x3d2479be	0.040155165
64	0xbe1e6209	-0.15467085
65	0xbe654467	-0.22389375
66	0xbd514396	-0.051089846
67	0xbe9e1f2f	-0.30883166
68	0xbd240499	-0.040043447
69	0x3ee6a92a	0.45050937
70	0xbbbcc960	-0.0057613105
71	0xbd818954	-0.063250214
72	0x3e16d36f	0.14729093
73	0xbce6fd12	-0.028196845
74	0xbde38ae4	-0.11110476
75	0x3d08dbd9	0.033412788
76	0xbdfd4af0	-0.12367809
77	0xbe26eebf	-0.16302012
78	0x3dd8a0b1	0.105775245
79	0x3ea810d2	0.32825333
80	0x3e0285ed	0.12746401
81	0xbe870d43	-0.26377305
82	0x3c388e02	0.011264326
83	0x3d4fdadb	0.050745826
84	0x3c8e3e80	0.017363787
85	0x3d967f17	0.07348459
86	0x3c7b7ca9	0.0153495455
87	0xbd56ef94	-0.052474573
88	0x3d4b49ad	0.04963081
89	0xbc382040	-0.011238158
90	0xbe3774fc	-0.1791572
91	0x3c36e080	0.011161923
92	0x3e66ec71	0.22551133
93	0xbc1ba2ab	-0.009499232
94	0xbdf17009	-0.11788947
95	0xbe15f9e3	-0.14646105
96	0xbc60d8ce	-0.013723565
97	0x3f114978	0.5675273
98	0x3b952a9c	0.0045521986
99	0xbdcb7f71	-0.09936417
100	0x3de3887b	0.11110016
101	0x3c5ef4f3	0.013608205
102	0x3df7e322	0.12103869
103	0x3b84d656	0.004053871
104	0x3df2968c	0.11845121
105	0x3bf09d74	0.0073429886
106	0x3e62eb77	0.22160135
107	0x3d594d00	0.05305195
108	0x3d316d7c	0.043317303
109	0x3c363fca	0.011123607
110	0xbb4cb970	-0.003123846
111	0xbdb1d324	-0.0868285
112	0x3e97d86d	0.29657307
113	0xbde9f0d8	-0.114228904
114	0x3defcad0	0.11708605
115	0xbe855c71	-0.2604709
116	0xbcd9120a	-0.02649786
117	0x3cb42559	0.021990465
118	0xbdcd8bdb	-0.10036441
119	0xbe99d9a0	-0.30048847
120	0x3dcae514	0.099069744
121	0x3e043d9f	0.12914132
122	0xbd0811f7	-0.033220258
123	0x3d85141c	0.06497976
124	0xbe671450	-0.22566342
125	0x3abeff88	0.0014572004
126	0xbe8aff94	-0.27148116
127	0x3e59ca43	0.21268563
128	0xbe5bb73e	-0.2145662
129	0x3d0a4e40	0.03376603
130	0x3f47fc94	0.7811978
131	0x3e1b4af5	0.15165313
132	0x3e26fd1d	0.16307493
133	0xbde11d90	-0.10991967
134	0xbe1f17c4	-0.1553641
135	0xbd52be73	-0.051451158
136	0xbdc2310d	-0.09482012
137	0xbe818509	-0.2529681
138	0x3d15b584	0.03655006
139	0x3bafca4d	0.0053646923
140	0xbb344242	-0.0027505313
141	0xbc470e80	-0.012149453
142	0x3e05bd8b	0.13060586
143	0xbdf1f1b7	-0.118136816
144	0xbe11082a	-0.1416327
145	0x3d9a8958	0.075457275
146	0x3a43e116	0.00074722
147	0xbd31c64c	-0.043402
148	0x3d0a1efc	0.033720955
149	0xbdab8e4e	-0.08376752
150	0xbe302d49	-0.17204775
151	0x3a3f2e9b	0.00072930165
152	0xbde8dafe	-0.113698944
153	0xbd35d9a0	-0.044396996
154	0xbe75a902	-0.23990253
155	0x3e287a32	0.16452864
156	0x3f7b5b54	0.9818623
157	0xbdbc1e06	-0.09185414
158	0x3d3da7ca	0.046302594
159	0x3ed4ea32	0.41584927
160	0xbd5d1209	-0.053972278
161	0xbd6db8f2	-0.058037706
162	0xbcc2227c	-0.023698084
163	0x3cc8403d	0.024444694
164	0xbdd36da3	-0.10323646
165	0x3f0d7fda	0.5527321
166	0x3e00a3c2	0.12562469
167	0xbda54ae8	-0.08070928
168	0xbcf11147	-0.029427184
169	0xbddfd08f	-0.10928451
170	0x3c9b2232	0.018937204
171	0xbe1811c9	-0.14850534
172	0x3df2c6cd	0.118543245
173	0xbe045299	-0.12922134
174	0xbe4a8c3f	-0.19780062
175	0x3c79d45e	0.015248386
176	0x3cbbe011	0.022933992
177	0x3e17e7f9	0.14834584
178	0x3d02c766	0.031928442
179	0x3e904a6d	0.28181782
180	0x3ce13103	0.02748919
181	0x3df3173a	0.118696645
182	0xbc7aa740	-0.015298665
183	0x3e9ed977	0.31025288
184	0xbcb6cc46	-0.022314202
185	0x3ec31dca	0.38108665
186	0x3bf74b76	0.0075468374
187	0x3d5c5ca0	0.05379927
188	0xbdb522de	-0.08844541
189	0x3f07b4e3	0.53010386
190	0x3e812874	0.25226176
191	0x3e3705fd	0.17873378
192	0xbe3bca7f	-0.18338965
193	0x3d26779d	0.040641416
194	0x3db45ab0	0.0880636
195	0xbd854047	-0.065064006
196	0xbde2800b	-0.110595785
197	0x3b8fa7b6	0.0043840064
198	0x3e16127c	0.14655489
199	0xbdc715ec	-0.09720978
200	0x3d8c2f5a	0.06844969
201	0xbe115a0d	-0.14194508
202	0x3f5e0ca6	0.8673805
203	0x3d2101c6	0.039308332
204	0xbe61d9a6	-0.22055683
205	0xbd04be6c	-0.032408163
206	0x3ec8c1ae	0.39210266
207	0xbdc97dfc	-0.09838483
208	0xbc4263b4	-0.011864591
209	0xbc7cc204	-0.015427116
210	0x3d3292e7	0.04359713
211	0x3f1393fa	0.5764767
212	0xbd916a03	-0.07100298
213	0xbe8d8ae0	-0.27645016
214	0x3c5674ef	0.013089403
215	0xbdc5ba6f	-0.096547
216	0x3ccc50b5	0.024940828
217	0xbdd83e7c	-0.10558793
218	0x3ed0adf0	0.40757704
219	0x3ddb52bc	0.1070914
220	0x3d87c6c3	0.06629708
221	0x3d791b4d	0.06081705
222	0xbe156c89	-0.14592184
223	0xbdd04d68	-0.10171014
224	0x3ed87e36	0.4228379
225	0xbec9cbf3	-0.39413413
226	0x3d13843b	0.036014777
227	0xbdcb7b3b	-0.09935614
228	0xbe983a3f	-0.29731938
229	0xbc0a8054	-0.008453447
230	0x3b10cf33	0.0022096157
231	0x3ae75b70	0.0017651152
232	0xbd8dd205	-0.06924824
233	0x3c63d39b	0.013905431
234	0x3d9b4c9b	0.07582971
235	0xbcb96b13	-0.022634065
236	0xbecbb244	-0.39784443
237	0xbe17164c	-0.147546
238	0xbd7f2046	-0.062286638
239	0x3a51ffbe	0.0008010826
240	0xbeb1dc90	-0.34738588
241	0xbd39d11f	-0.04536545
242	0xbe10cf72	-0.14141634
243	0xbcc4fd73	-0.024046635
244	0xbd02f88e	-0.03197532
245	0xbc5f754a	-0.013638804
246	0xbd02b62b	-0.03191201
247	0x3da0c62b	0.078502975
248	0xbe466650	-0.19374967
249	0x3f063eed	0.5243977
250	0x3d38f30b	0.04515366
251	0x3d85b4c4	0.06528619
252	0x3df0490f	0.11732685
253	0xbe0e16d4	-0.13875896
254	0xbe3356fd	-0.17513652
255	0x3ec72065	0.38891903

last_fc_log_std.bias f4 [3]
0	0xbf72a923	-0.9478933
1	0xbf3931b8	-0.7234149
2	0xbf454253	-0.7705433
