models/Env1/SAC_256_A5_S1_P/local_episode_1800_reward_200.000000.pt (torch, 297002 bytes, 6 tensors)

trunk.0.weight f4 [256, 23]
0	0xbd474fe8	-0.04866019
1	0x3d41a952	0.047280617
2	0xbcc9091e	-0.02454048
3	0xbe30fac0	-0.17283154
4	0xbccab036	-0.024742227
5	0x3d4cccfa	0.05000017
6	0x3d169004	0.036758438
7	0xbda223b7	-0.07916968
8	0x3e1bc17c	0.15210527
9	0xbe20a021	-0.15686084
10	0x3bc31362	0.0059532383
11	0xbceabb83	-0.028653866
12	0xbd115806	-0.035484336
13	0xbde3ce3e	-0.11123322
14	0xbd4ccb5b	-0.049998622
15	0x3c339a23	0.010962042
16	0xbc30540d	-0.010762227
17	0x3c41814e	0.011810614
18	0xbc9d3b4d	-0.019193316
19	0x3c669fd2	0.01407619
20	0xbdf15086	-0.11782937
21	0x3dca8259	0.09888143
22	0xbca6e6e7	-0.020373775
23	0x3bd9cf0e	0.0066469973
24	0xbd01eb71	-0.031718675
25	0xbcf4891b	-0.029850533
26	0xbdc5d5ea	-0.096599415
27	0xbcd2bfe7	-0.025726272
28	0xbd02f10d	-0.031968165
29	0xbb4cc624	-0.003124603
30	0xbbdbf9dd	-0.0067131356
31	0xbc959c64	-0.01826305
32	0xbcb6becb	-0.022307774
33	0x3dc90d72	0.098170176
34	0x3d5a9f68	0.053374678
35	0xbcf62ef7	-0.030051691
36	0x3b3e83f3	0.0029070347
37	0xbd34d0e8	-0.04414454
38	0xbcd1e6b3	-0.025622701
39	0xbca48149	-0.02008118
40	0xbd91befd	-0.07116506
41	0xbd795d6f	-0.06088012
42	0xbcb73081	-0.022361996
43	0xbc08855f	-0.008332579
44	0xbe0e4a3f	-0.1389551
45	0xbd673302	-0.05644513
46	0xbd9ac922	-0.07557894
47	0xbcce14a2	-0.025156323
48	0x3c5dd43c	0.01353937
49	0xbba3b7d4	-0.0049962793
50	0xbd4a4e35	-0.04939099
51	0xbda241db	-0.07922717
52	0xbdb59ede	-0.08868192
53	0x3d7df308	0.06199935
54	0x3b28b827	0.002574453
55	0xbd344338	-0.044009417
56	0x3cb68554	0.022280373
57	0xbd4a9c8e	-0.04946571
58	0xbc18fa4c	-0.009337019
59	0xbcce55b1	-0.025187345
60	0xbd936042	-0.07196094
61	0x3dedf242	0.11618473
62	0x3c4de404	0.01256657
63	0x3d7473d7	0.059680786
64	0xbdb8aa07	-0.09016805
65	0xbdd06491	-0.101754315
66	0xbbf501cd	-0.0074770213
67	0x3d0d3556	0.034474693
68	0xbcce8d10	-0.025213748
69	0x3ddd1b92	0.10796274
70	0x3c7ddb14	0.015494127
71	0xbd865d7e	-0.06560801
72	0xbcb53d3e	-0.02212393
73	0xbd99f9bf	-0.075183384
74	0x3d21c79b	0.039497
75	0x3d092d5e	0.03349053
76	0xbc876f07	-0.016532434
77	0xbd0db4ca	-0.034596242
78	0xbc97c3c7	-0.018525971
79	0xbdb32761	-0.08747745
80	0xbce0ba59	-0.027432607
81	0xbdaa8858	-0.08326787
82	0x3b1fa2c3	0.0024358488
83	0xbd85bd18	-0.065302074
84	0xbdd99eab	-0.10625967
85	0x3d862d53	0.06551614
86	0xbdd35bc1	-0.10320235
87	0xbd815d92	-0.06316675
88	0xbdf9cc63	-0.12197187
89	0x3b0ed467	0.0021794082
90	0x3ca35c4b	0.01994147
91	0xbd3585ad	-0.044316936
92	0x3c0514ea	0.008122662
93	0xbcc2c39a	-0.02377491
94	0x3d311840	0.043236017
95	0xbbb6ecb8	-0.0055824183
96	0x3be58535	0.007004405
97	0x3c9ec9d6	0.019383352
98	0x3d083308	0.033251792
99	0xbc767b40	-0.0150440335
100	0x3d5340c5	0.05157544
101	0xbc28f2d2	-0.010311799
102	0xbe137b94	-0.1440261
103	0xbe0477db	-0.12936346
104	0x3c6095e3	0.013707611
105	0x3ce2273a	0.027606595
106	0x3cd88f5d	0.026435548
107	0x3c76b934	0.015058804
108	0xbd77b032	-0.060470767
109	0xbddb6475	-0.1071252
110	0xbd00c9b5	-0.031442363
111	0xbdc0061a	-0.09376164
112	0x3db6aa44	0.08919194
113	0xbd9076b7	-0.07053893
114	0xbe0211c9	-0.12702097
115	0xbe06d238	-0.1316613
116	0xbdfb8a0b	-0.12282189
117	0xbd65d308	-0.05610946
118	0xbbe5197d	-0.006991564
119	0x3d732275	0.059359033
120	0xba330781	-0.0006829426
121	0x3da36c9f	0.07979702
122	0x3e2fd449	0.17170824
123	0x3d49f51f	0.04930603
124	0xbd049f6e	-0.032378606
125	0xbd4c2e7b	-0.049849015
126	0xbd823392	-0.063574925
127	0xbd9d86cd	-0.07691727
128	0xbdcb2b92	-0.0992042
129	0x3d550915	0.052010614
130	0xbdbc6470	-0.091988444
131	0xbe62eee9	-0.2216145
132	0x3ca64717	0.02029757
133	0xbe367283	-0.1781712
134	0xbe1c298c	-0.15250224
135	0x3d376d2f	0.04478186
136	0xbb2e7717	-0.0026621276
137	0x3e4b985e	0.19882342
138	0xbd7f21e1	-0.06228817
139	0xbdf976f7	-0.12180894
140	0xbdc2fec6	-0.095212504
141	0xbd3451b4	-0.04402323
142	0xbe0a5ec3	-0.13512711
143	0xbbda65dc	-0.0066649746
144	0x3d546863	0.051857363
145	0xbd7faa75	-0.06241842
146	0xbb489de0	-0.003061168
147	0x3d84fb1b	0.06493207
148	0xbcd5fedb	-0.026122501
149	0x3c1bf8c9	0.009519764
150	0xbd737ca7	-0.05944505
151	0xbe1d12d4	-0.15339214
152	0x3db8c9c8	0.09022862
153	0x3ca46d2c	0.020071588
154	0x3d12607c	0.035736546
155	0xbd7d2816	-0.061805807
156	0x3bdf1c59	0.006808799
157	0x3b7b03d1	0.0038301835
158	0x3cca8ca3	0.024725264
159	0xbdb94596	-0.090464756
160	0xbdac9b18	-0.08428019
161	0x3e246e65	0.16057737
162	0x3e233068	0.15936434
163	0xbbe31e3d	-0.006931095
164	0xbe0e7da8	-0.13915122
165	0xbea36a5a	-0.31917077
166	0xbe4765c7	-0.19472419
167	0xbe08cbb2	-0.13358954
168	0x3e93507b	0.2877234
169	0x3e4118d6	0.1885713
170	0x3e00c23e	0.12574098
171	0x3d5cf86f	0.053947862
172	0xbdf10b9f	-0.11769795
173	0xbdc3083d	-0.09523056
174	0xbe2e5793	-0.17025594
175	0xbc35e4f2	-0.011101948
176	0x3cf24278	0.02957271
177	0x3dd446c4	0.1036506
178	0x3d776190	0.060395777
179	0xbddfe501	-0.10932351
180	0xbd0482d1	-0.03235132
181	0x3e70648c	0.23475856
182	0x3e7a7d22	0.24461797
183	0x3e2ac609	0.16677107
184	0xbdc077e6	-0.09397869
185	0x3cf62d78	0.030050978
186	0xbd6280c3	-0.055298578
187	0xbc9a4ac1	-0.018834474
188	0xbe19eb29	-0.15031113
189	0x3b9f1753	0.0048550754
190	0xbc8c7d22	-0.017149512
191	0x3ac7d976	0.0015247304
192	0x3d3b4a8c	0.04572539
193	0xbc7f4834	-0.015581179
194	0x3d416c61	0.0472225
195	0xbc887eef	-0.01666209
196	0xbda0c72f	-0.07850491
197	0x3ad7a119	0.0016451209
198	0xba045485	-0.0005047995
199	0x3d8488c5	0.06471399
200	0xbdfee981	-0.12446881
201	0x3b837925	0.0040122443
202	0xbdf2f27f	-0.11862659
203	0x3db660ad	0.08905158
204	0x3d68090e	0.05664926
205	0x3da0cb8c	0.078513235
206	0xbc87e770	-0.01658985
207	0xbd20769a	-0.039175607
208	0x3d2b1791	0.04177052
209	0xbd7e3456	-0.06206163
210	0x39a0b850	0.00030654902
211	0xbd691132	-0.056901164
212	0xbd58db49	-0.0529435
213	0xbd4b5fe6	-0.049652003
214	0xbd46539d	-0.048419584
215	0x3cfa1041	0.030525329
216	0xbd16bd0f	-0.036801394
217	0xbd3d6daa	-0.046247162
218	0xbd8e51c1	-0.06949187
219	0xbb6c4615	-0.0036052514
220	0x3c7412f5	0.014897098
221	0x3d8a7ab7	0.06761687
222	0xbd146554	-0.036229447
223	0xbd92cde5	-0.071681775
224	0xbb9ce31e	-0.0047878167
225	0x3d45d852	0.048302002
226	0xbc3c1773	-0.0114802
227	0xbc4f2a32	-0.0126443375
228	0x3cfdf25e	0.030999359
229	0xbe1135c2	-0.14180663
230	0x3ce4da38	0.027936086
231	0xbd09eee4	-0.03367509
232	0xbdb1e869	-0.08686907
233	0x3b594b0d	0.0033156306
234	0xbcb417af	-0.02198395
235	0x3ded86f6	0.115980074
236	0xbd36e190	-0.044648707
237	0x3cf6ff68	0.030151084
238	0xbdcd391a	-0.10020657
239	0xbe0b8cc5	-0.13627918
240	0x3d5efa48	0.054437906
241	0xb986c434	-0.00025704654
242	0xbdb3a32b	-0.08771356
243	0xbd7c794e	-0.061639123
244	0xbd453cee	-0.04815381
245	0xbe135e83	-0.14391522
246	0xbca3ae05	-0.01998044
247	0xbd8fd627	-0.07023268
248	0xbdd6463b	-0.10462614
249	0x3cae425b	0.021271875
250	0x3d810dc4	0.06301454
251	0xbe529a5f	-0.205667
252	0x3d744139	0.059632514
253	0xbde76be1	-0.11299873
254	0xbe16e137	-0.1473435
255	0xbdec75e8	-0.11545926

trunk.0.bias f4 [256]
0	0xbc87c196	-0.016571801
1	0xbd097340	-0.033557177
2	0xbc99e405	-0.018785486
3	0xbc82156e	-0.01587936
4	0xbd21973f	-0.03945088
5	0xbc9697b0	-0.018382877
6	0xbca6dead	-0.020369852
7	0xbb0e10f5	-0.0021677588
8	0xbc426bba	-0.011866504
9	0xbced0e1a	-0.028937388
10	0xbd34429c	-0.044008836
11	0xbd888148	-0.066652834
12	0xbd93c07a	-0.07214446
13	0xbd162470	-0.036655843
14	0x00000000	0.0
15	0xbc2a8083	-0.010406616
16	0xbd19f5c7	-0.037587907
17	0xbdb58bb2	-0.088645354
18	0xbc820778	-0.015872702
19	0xbc94fab3	-0.018185949
20	0x3d7cc29b	0.061709028
21	0xbc12f582	-0.008969666
22	0xbc9b1f05	-0.01893569
23	0xbd31fd9e	-0.04345476
24	0xbcd367b5	-0.025806287
25	0xbd560e16	-0.052259527
26	0xbcd9adbe	-0.026572105
27	0x3b416621	0.0029510336
28	0xbce4f103	-0.027946955
29	0xbcd71d8f	-0.026259212
30	0xbce454b4	-0.02787242
31	0x3c5fa862	0.013650985
32	0xbd02cb47	-0.03193214
33	0xbc820e71	-0.015876027
34	0xbd1c5518	-0.03816709
35	0xbc83b696	-0.016078275
36	0x00000000	0.0
37	0xbcff5e1e	-0.031172808
38	0xbcdcc8a9	-0.026951151
39	0x00000000	0.0
40	0xbc9c68b5	-0.019092897
41	0xbda76b2e	-0.0817474
42	0xbd4061e7	-0.046968367
43	0xbc58790b	-0.013212453
44	0xbc821a97	-0.01588182
45	0xbcf457a3	-0.029826945
46	0xbce054e5	-0.02738423
47	0xbc4812af	-0.012211486
48	0xbd23601c	-0.03988658
49	0xbca2c2c6	-0.019868266
50	0x00000000	0.0
51	0x00000000	0.0
52	0xbc7d1cf5	-0.015448798
53	0x00000000	0.0
54	0xbcb5e55e	-0.022204097
55	0xbc82193f	-0.015881179
56	0xbcebcd71	-0.028784486
57	0xbcce1e95	-0.025161067
58	0xbbca5be3	-0.0061755045
59	0x3c7f5f94	0.015586752
60	0xbd7ac778	-0.061225384
61	0xbcd23a06	-0.025662433
62	0x00000000	0.0
63	0xbd0ca0dc	-0.034333095
64	0xbcf04636	-0.029330354
65	0x00000000	0.0
66	0xbcd0146a	-0.02540036
67	0xbcf59fd6	-0.029983442
68	0xbc821ba8	-0.015882328
69	0xbd2cb85d	-0.04216801
70	0xbceaa47b	-0.028642884
71	0xbc64ddfa	-0.013968939
72	0xbc72fbd5	-0.014830549
73	0xbd04a40a	-0.032383002
74	0xbd7e6e22	-0.06211675
75	0x00000000	0.0
76	0xbd6da860	-0.058021903
77	0xbc81cb9f	-0.015844164
78	0xbd64ec2f	-0.055889305
79	0xbc4d6ac2	-0.01253766
80	0xbc8216cf	-0.015880017
81	0xbd8b8c14	-0.06813827
82	0x00000000	0.0
83	0xbc8218c6	-0.015880954
84	0xbc8f1b1a	-0.017468978
85	0xbd14adf7	-0.03629872
86	0xbb473fd9	-0.0030403046
87	0xbd29be05	-0.041440982
88	0x3c7c49b1	0.015398429
89	0xbd7aef52	-0.06126339
90	0xbd5ef27c	-0.05443047
91	0x00000000	0.0
92	0xbd4ffb19	-0.050776575
93	0xbd22d1bb	-0.039750796
94	0xbd22c440	-0.03973794
95	0x3c38212f	0.01123838
96	0xbd3d00b1	-0.046143238
97	0x00000000	0.0
98	0xbcbc81f5	-0.023011187
99	0xbd456c8c	-0.04819922
100	0xbd82c88e	-0.06385909
101	0xbdd103b6	-0.10205786
102	0xbc29f078	-0.010372274
103	0xbcd21b55	-0.025647799
104	0xbc844cfd	-0.016149992
105	0xbd36d54f	-0.04463702
106	0xbd451cce	-0.048123173
107	0xbc9b7047	-0.018974436
108	0xbc82154d	-0.015879298
109	0xbd1cc562	-0.038274176
110	0x3d2a6957	0.041604366
111	0xbcf68c7e	-0.030096289
112	0x00000000	0.0
113	0xbcbac391	-0.022798331
114	0xbc92746d	-0.017877782
115	0xbcf3075b	-0.029666593
116	0xbcff4b28	-0.031163767
117	0xbce348cb	-0.027744671
118	0xbcfec9ad	-0.031102026
119	0xbd0743d6	-0.033023678
120	0xbd1b7e0e	-0.037962012
121	0x00000000	0.0
122	0xbd15148d	-0.036396552
123	0xbcf1e412	-0.029527698
124	0xbbf49ea1	-0.007465199
125	0xbcd4c0a5	-0.025970766
126	0xbce1a1d6	-0.02754299
127	0xbc4a6a04	-0.012354378
128	0xbce1d881	-0.027569057
129	0xbcea1e27	-0.02857883
130	0xbb26693d	-0.0025392317
131	0xbcca065c	-0.024661236
132	0xbd402932	-0.046914287
133	0xbc59ce03	-0.013293746
134	0xbc8ae64d	-0.01695552
135	0xbcf17570	-0.029474944
136	0xbce1ee56	-0.027579468
137	0xbcd29272	-0.025704596
138	0x3c722753	0.014779883
139	0xbce2e4a8	-0.027696922
140	0x3b9eb282	0.004843057
141	0xbd5fb2a4	-0.054613724
142	0xbc8219d9	-0.015881466
143	0xbc820cf0	-0.01587531
144	0xbd329264	-0.04359664
145	0xbd05aeea	-0.032637514
146	0xbdab7cd4	-0.083734185
147	0xbd83fb57	-0.06444424
148	0xbcefa544	-0.02925361
149	0xbc71f795	-0.014768501
150	0x00000000	0.0
151	0xbcc231b4	-0.02370534
152	0xbc629f13	-0.013831872
153	0xbcccb40d	-0.024988199
154	0xbcd68f11	-0.026191266
155	0xbcae2b06	-0.02126075
156	0xbdb0d51f	-0.086343996
157	0xbd6161c7	-0.05502489
158	0xbd3cb47a	-0.046070553
159	0xbccc6d88	-0.024954572
160	0xbd312f46	-0.043257974
161	0xbcf4afea	-0.029869039
162	0xbcd16f54	-0.02556578
163	0xbd32631d	-0.043551553
164	0x00000000	0.0
165	0xbd8eb59d	-0.06968234
166	0xbc5d7f84	-0.013519172
167	0xbced32a1	-0.028954806
168	0xbd7ae019	-0.061248872
169	0xbd674b65	-0.056468386
170	0x3b86bd1e	0.0041119
171	0xbd17853c	-0.036992297
172	0xbb02348b	-0.0019867744
173	0xbcbf4c07	-0.023351682
174	0xbccf5540	-0.025309205
175	0xbcdf8b35	-0.027288059
176	0xbcdf6b90	-0.02727297
177	0xbc536278	-0.012901895
178	0xbc85bc9a	-0.016325284
179	0xbdc71f64	-0.09722784
180	0xbce5e0e1	-0.028061332
181	0xbc81dd60	-0.01585263
182	0xbc8212c9	-0.015878098
183	0xbcff52fd	-0.031167502
184	0xbcac3658	-0.021022007
185	0xbd143a8c	-0.036188647
186	0x3d3b5183	0.045732033
187	0xbc7f49aa	-0.015581528
188	0xbda43461	-0.08017803
189	0xbce1b73f	-0.027553199
190	0xbcc33a36	-0.023831468
191	0xbd1fb4c8	-0.038990766
192	0xbd323de2	-0.043516047
193	0xbc8b3aeb	-0.016995868
194	0xbcce81c4	-0.025208361
195	0xbda88990	-0.08229363
196	0xbcdabff2	-0.026702855
197	0xbc82192b	-0.015881142
198	0xbca42bf1	-0.020040484
199	0x00000000	0.0
200	0xbd554a39	-0.052072737
201	0x00000000	0.0
202	0x3ccf4dd0	0.025305659
203	0xbc81ee9b	-0.015860846
204	0xbc94595b	-0.018109014
205	0xbc81f4f9	-0.015863882
206	0xbcc90028	-0.024536207
207	0xbd05c1e8	-0.032655627
208	0xbc8201f2	-0.015870068
209	0xbdac99e5	-0.084277906
210	0xbd269238	-0.04066679
211	0xbda39f07	-0.079893164
212	0xbd28626e	-0.041109495
213	0xbd0f2e46	-0.03495624
214	0xbc9de9eb	-0.01927658
215	0xbbfbf72c	-0.0076893773
216	0xbcf6d043	-0.030128604
217	0xbd802a27	-0.0625804
218	0x00000000	0.0
219	0xbd155046	-0.036453508
220	0xbd9b5a8e	-0.07585631
221	0xbd265a3c	-0.040613398
222	0xbcb8c9dd	-0.022557193
223	0xbd05afc6	-0.032638334
224	0xbc80b24c	-0.015710019
225	0x3cb150cb	0.02164497
226	0xbd510351	-0.051028553
227	0xbd24bd91	-0.040219847
228	0xbce12da8	-0.02748759
229	0xbc9e3c26	-0.01931579
230	0xbd12a07b	-0.035797577
231	0xbd796837	-0.060890403
232	0x3b8d8b14	0.004319558
233	0xbc81fa07	-0.015866293
234	0x3cb94411	0.022615464
235	0x00000000	0.0
236	0xbc226a2a	-0.009913007
237	0xbce521cc	-0.027970217
238	0xbcfaaad2	-0.030599032
239	0xbcf78954	-0.03021685
240	0x00000000	0.0
241	0xbc8835d6	-0.016627233
242	0xbdc54b84	-0.09633544
243	0xbd07477b	-0.033027153
244	0xbcbee8ca	-0.023304362
245	0x3cd271a7	0.02568896
246	0xbc820526	-0.015871596
247	0xbc8e380a	-0.017360706
248	0x3d5a10d5	0.05323871
249	0xbd6de203	-0.05807687
250	0xbc1c80f2	-0.009552227
251	0xbb1e9590	-0.0024198033
252	0xbdb62e50	-0.08895552
253	0xbced6a90	-0.028981477
254	0xbd9c2183	-0.07623579
255	0xbd0eeb67	-0.034892466

trunk.2.weight f4 [256, 256]
0	0xbdb1137c	-0.086462945
1	0x3b392276	0.00282493
2	0x3d47ef51	0.048812214
3	0xbd369f98	-0.044585794
4	0xbcd90bab	-0.026494822
5	0x3d4023d1	0.046909157
6	0x3d52d8a6	0.051476143
7	0x3ea0a294	0.31374037
8	0x3e14f746	0.14547452
9	0x3c27af80	0.010234714
10	0xbd030adc	-0.03199278
11	0x3dc6ffee	0.097167835
12	0xbdedc625	-0.11610059
13	0xbdb7f108	-0.0898152
14	0xbc46dd32	-0.012137698
15	0xbdc85d94	-0.097834736
16	0x3c83d926	0.016094755
17	0x3a5630c7	0.00081707205
18	0xbd31c52a	-0.04340092
19	0xbe1d4acb	-0.15360563
20	0x3e6340cd	0.22192688
21	0x3d853c6d	0.06505666
22	0x3d3b4769	0.0457224
23	0x3d3de116	0.046357237
24	0x3d055025	0.032547135
25	0x3d7339eb	0.059381407
26	0xbda26568	-0.07929498
27	0xbe86fb80	-0.26363754
28	0x3dfbab47	0.12288528
29	0xbd90d929	-0.0707267
30	0xbd87babf	-0.06627416
31	0xbe4d0229	-0.20020355
32	0x3d013589	0.031545196
33	0xbd8a2920	-0.06746125
34	0xbc4174f1	-0.011807666
35	0x3cd61024	0.026130743
36	0x3a66e7d0	0.00088083465
37	0xbc2790f7	-0.010227433
38	0x3d98122b	0.0742534
39	0x3c9e19e8	0.019299462
40	0x3e26627b	0.16248505
41	0xbe2a4a6a	-0.16629949
42	0xbe4823fd	-0.19544978
43	0x3de9365a	0.1138732
44	0x3de47675	0.111554064
45	0x3d91db55	0.071219124
46	0xbd7f5b72	-0.06234307
47	0x3b0d4113	0.002155368
48	0x3d3e2f5d	0.046431888
49	0xbdb6f908	-0.08934218
50	0xbdb17523	-0.0866492
51	0xbddca492	-0.10773577
52	0xbc5c2f3b	-0.013438995
53	0xbdf18188	-0.11792284
54	0x3d673257	0.056444492
55	0x3da4126b	0.080113254
56	0x3d6645da	0.05621896
57	0x3d7061c9	0.058687005
58	0xbd56e962	-0.052468665
59	0xbea04ef7	-0.31310245
60	0x3e441c2c	0.19151372
61	0xbd21c145	-0.039490957
62	0xbe03db22	-0.12876561
63	0xbd775660	-0.060385108
64	0x3bd73d08	0.006568555
65	0x3db86fe4	0.090057164
66	0x3cbf8b5e	0.023381885
67	0xbbd6290d	-0.0065356554
68	0x3d1e3e5d	0.038633693
69	0xbe336cec	-0.17522019
70	0xbde3ae29	-0.11117203
71	0x3d311896	0.043236338
72	0x3b46ceac	0.0030335588
73	0x3d21ccd2	0.039501972
74	0xbef5c57f	-0.4800224
75	0x3d1a21ea	0.03763
76	0xbcfc928b	-0.030831596
77	0x3c1dae96	0.009624144
78	0x3aa6acd6	0.0012716304
79	0x3d750e4b	0.059828084
80	0xbd919bd8	-0.07109803
81	0xbe024a55	-0.12723668
82	0x3d4bdaa0	0.049769044
83	0x3ca0cfa5	0.019630263
84	0x3d6f213d	0.058381308
85	0xbcd3c9d1	-0.02585307
86	0x3d92089b	0.071305476
87	0xbe990b4e	-0.29891437
88	0xbe55ef8d	-0.20892163
89	0xbbdef026	-0.0068035303
90	0xbec1890b	-0.37799868
91	0xbe03609e	-0.12829825
92	0x3e0c8a06	0.13724527
93	0x3d20420b	0.039125483
94	0xbc964f0c	-0.01834824
95	0x3e3f10f4	0.18658811
96	0xbb9feff7	-0.004880901
97	0x3b4e7488	0.0031502564
98	0x3d1b296b	0.037881296
99	0xbdbe3383	-0.09287169
100	0x3e29ebe8	0.16593897
101	0xbdb03d0b	-0.08605393
102	0xbd9d18e0	-0.0767076
103	0xbd4be410	-0.049778044
104	0x3d95481f	0.07289147
105	0x3d3947bd	0.04523443
106	0xbe82c755	-0.25542703
107	0xbf04a017	-0.5180678
108	0xbddeb223	-0.10873821
109	0xbe0dc395	-0.1384414
110	0xbe0fa08b	-0.14026086
111	0xbd4f7f75	-0.050658662
112	0x3d56b755	0.052420933
113	0xbc5ab8fd	-0.013349769
114	0x3dfb47a1	0.122695215
115	0x39b53e0f	0.00034569248
116	0x3cae7ff0	0.02130124
117	0xbc6b305e	-0.014354793
118	0xbd3a0aaa	-0.045420326
119	0xbdc5b28b	-0.09653195
120	0x3d3bde74	0.045866445
121	0xbc1f9e32	-0.009742307
122	0x3de6b630	0.11265218
123	0xbcbd18ae	-0.023083057
124	0xbd06d47e	-0.032917492
125	0x3c58c58c	0.013230693
126	0xbd2e93f4	-0.042621568
127	0xbd31e9c6	-0.043435834
128	0x3db5b481	0.08872319
129	0x3d9fe9f9	0.078082986
130	0xbd058afc	-0.03260325
131	0x3c49e684	0.012323026
132	0x3bd863e6	0.0066037057
133	0x3c0bc039	0.008529716
134	0xbc8c5fbc	-0.017135493
135	0x3cfaf581	0.030634644
136	0x3db3780f	0.08763134
137	0x3bea6c9e	0.0071540615
138	0x3c331b24	0.010931764
139	0x3d2185a4	0.03943409
140	0x3dfd73c3	0.123755954
141	0xbd0d2036	-0.034454547
142	0xbceffdab	-0.029295763
143	0xbdd25203	-0.10269549
144	0xbd16d342	-0.036822565
145	0x3d8e599d	0.06950686
146	0xbe2106da	-0.1572527
147	0x3b208795	0.0024494876
148	0xbd9af285	-0.07565788
149	0xbd5f1f88	-0.05447343
150	0x3dc32c96	0.095299885
151	0xbbd0d3fb	-0.0063729263
152	0xbf2476f0	-0.64243984
153	0x3e414a6e	0.18876049
154	0x3d016a41	0.031595472
155	0xbd77f968	-0.060540587
156	0x3d9e311f	0.07724213
157	0x3dfc7334	0.12326661
158	0x3a7f78a9	0.0009745458
159	0xbe7cd503	-0.24690633
160	0xbdef7174	-0.11691561
161	0xbd784b76	-0.06061884
162	0xbcc08286	-0.023499738
163	0x3bef8f45	0.00731078
164	0x3cdd94d6	0.02704851
165	0xbd715dda	-0.058927394
166	0x3da51149	0.080599375
167	0xbc4178a7	-0.011808551
168	0xbd7b82c2	-0.061403997
169	0x3d805b73	0.062674426
170	0x3c775ffb	0.015098567
171	0xbc926732	-0.017871473
172	0xbdec6b54	-0.11543909
173	0x3e17df9e	0.14831397
174	0x3d904d2a	0.07045968
175	0xbe6722aa	-0.22571817
176	0x3d9e3c48	0.077263415
177	0x3d285850	0.041099846
178	0x3cf5c708	0.030002132
179	0x3df52577	0.119700365
180	0x3c42f7b7	0.01189988
181	0xbc6edfdc	-0.014579739
182	0xbd6ed2bb	-0.058306437
183	0x3c99837c	0.018739454
184	0xbdef07b1	-0.11671389
185	0xbd1f277e	-0.038856022
186	0x3d6c1162	0.057633765
187	0x3c67bcc2	0.014144124
188	0x3d83d96f	0.064379565
189	0x3d54a52d	0.051915336
190	0x3e2e5037	0.17022787
191	0xbd801471	-0.06253899
192	0x3de61dfc	0.11236188
193	0x3b8a191a	0.004214418
194	0x3ce79cca	0.028273005
195	0x3db110e9	0.086458035
196	0xbd2c4aa9	-0.04206339
197	0x3ceefb8f	0.029172687
198	0x3cc01c0d	0.023450876
199	0xbde2000c	-0.11035165
200	0xbf5ccd51	-0.8625079
201	0x3bb402b8	0.005493488
202	0xbed22ce4	-0.41049874
203	0x3e1015e8	0.14070857
204	0x3a801161	0.0009770804
205	0x3cc2f0cd	0.023796463
206	0x3c87d7eb	0.01658245
207	0xbd1ec983	-0.038766395
208	0x3a4ced31	0.00078173267
209	0xbe62a3a9	-0.22132744
210	0x3be55a52	0.0069992924
211	0xbdb9b711	-0.0906812
212	0xbdcf0d37	-0.101099424
213	0xbec5d59f	-0.38639542
214	0xbdacfd83	-0.08446791
215	0xbdaee3bd	-0.085395314
216	0xbe50a8a1	-0.20376827
217	0xbd8179b6	-0.06322043
218	0x3d79a407	0.060947444
219	0x3d88c0c6	0.066773936
220	0xbf0b7284	-0.5447161
221	0xbd0a14d0	-0.033711255
222	0x3c8385a5	0.016054938
223	0xbe092a84	-0.13395125
224	0xbd450c6d	-0.048107553
225	0xbe3bd938	-0.18344581
226	0xbd95cbfc	-0.073142976
227	0xbbc875e2	-0.0061175684
228	0xbdc7bdc7	-0.09752994
229	0xbd243893	-0.040093016
230	0x3d322098	0.043488115
231	0xbe2b1584	-0.16707426
232	0xbcc5260c	-0.024065994
233	0x3dc3a31e	0.095525965
234	0x3e826350	0.25466394
235	0x3d455cd8	0.048184246
236	0x3c6112e6	0.013737416
237	0xbe1a46e4	-0.15066105
238	0xbce38ae1	-0.027776184
239	0x3dfd25be	0.123607144
240	0x3c43646a	0.011925796
241	0x3e5f9b8e	0.21836683
242	0x3d4c3834	0.049858287
243	0xbd55e25b	-0.052217823
244	0xbcc1d89e	-0.023662861
245	0x3df54c59	0.11977453
246	0xbd499d0e	-0.049222045
247	0x3d7490e5	0.059708495
248	0x3d6e55a9	0.05818716
249	0x3aa6d2a1	0.0012727567
250	0x3d6339b5	0.055474956
251	0xbd91a950	-0.07112372
252	0xbef41904	-0.47675335
253	0x3dcb0905	0.0991383
254	0xbe9cc525	-0.3061916
255	0x3d4d2323	0.050082337

trunk.2.bias f4 [256]
0	0xbe8fe1aa	-0.28101856
1	0x3e225953	0.15854387
2	0xbdec7dd1	-0.11547435
3	0xbdadbd5b	-0.08483382
4	0xbd4d4eeb	-0.05012409
5	0x3e05613e	0.13025376
6	0xbe6cd7cc	-0.23129195
7	0x3edf121b	0.435685
8	0xbd396b79	-0.04526851
9	0xbd542e29	-0.051801834
10	0xbdb968df	-0.09053206
11	0x3f5bc8b1	0.85853106
12	0xbdc4468c	-0.09583768
13	0xbe9e844c	-0.3096031
14	0xbdabba59	-0.08385152
15	0xbccf4c21	-0.025304856
16	0x3e723f68	0.23657
17	0xbd86c57e	-0.065806374
18	0xbd878321	-0.06616808
19	0xbd38265e	-0.044958465
20	0xbe5bb625	-0.21456201
21	0x3e28c7f5	0.16482528
22	0xbdbcdba2	-0.09221579
23	0xbe9372b4	-0.2879845
24	0x3c5c69c2	0.013452949
25	0x3f1da21d	0.6157549
26	0xbd78809a	-0.06066952
27	0xbd97511a	-0.07388516
28	0x3e855c78	0.2604711
29	0x3c204e4f	0.009784295
30	0x3f1b424e	0.6064805
31	0xbdb96513	-0.090524815
32	0x3e410242	0.18848518
33	0xbd9dcade	-0.077047095
34	0xbdab6622	-0.0836909
35	0xbda8fb7d	-0.082510926
36	0xbbb8c9e9	-0.005639304
37	0x3cad371b	0.02114444
38	0x3cb85b3c	0.022504441
39	0x3e8a58f2	0.27020985
40	0x3d982489	0.074288435
41	0xbd2cabce	-0.042156033
42	0xbe67a481	-0.22621347
43	0xbd9c2b9b	-0.076255046
44	0xbd51fe3b	-0.051267844
45	0x3d5cacd5	0.053875763
46	0x3d58074b	0.05274133
47	0xbdd108ea	-0.10206778
48	0xbd42808e	-0.04748588
49	0x3d847fc8	0.06469685
50	0xbde6cf28	-0.11269981
51	0xbe8c0af8	-0.27352118
52	0xbdae2bc7	-0.085044436
53	0xbe445794	-0.19174033
54	0x3e2c4d0e	0.16826269
55	0xbdc2f64a	-0.09519632
56	0xbd29595c	-0.041344985
57	0x3cbd159c	0.023081593
58	0x3c361ab2	0.011114763
59	0xbd5d9eba	-0.05410645
60	0xbe53eafd	-0.2069511
61	0x3ecb7f1d	0.39745417
62	0xbde9d068	-0.114167035
63	0xbd66cb83	-0.056346428
64	0x3d1896ab	0.037253063
65	0x3c05f7b2	0.008176731
66	0xbc1b2fcf	-0.009471848
67	0x3d262982	0.04056693
68	0x3df39284	0.1189318
69	0xbd8ff841	-0.070297725
70	0x3d09d3ec	0.03364937
71	0x3f3885b8	0.7207904
72	0x3e9c3748	0.30510926
73	0x3d102639	0.035192702
74	0xbd9b6a51	-0.075886376
75	0x3bb8781a	0.0056295516
76	0xbdc4d95f	-0.09611773
77	0xbe8d4cc1	-0.2759762
78	0x3bd961c7	0.0066339704
79	0xbdde0204	-0.10840228
80	0xbe4194aa	-0.18904367
81	0xbe40ce74	-0.18828756
82	0xbc700bf4	-0.014651287
83	0xbe412f69	-0.18865742
84	0x3ef1c7c8	0.47222733
85	0xbd988872	-0.074479
86	0xbce40ab6	-0.027837139
87	0xbdd95c34	-0.106132895
88	0xbe4f9c8f	-0.20274566
89	0x3eb70557	0.3574626
90	0xbccd47f3	-0.025058722
91	0xbe6a963c	-0.22908872
92	0xbdafaed2	-0.08578266
93	0xbdedb79e	-0.11607288
94	0xbeca1b26	-0.39473838
95	0xbe2b8b7f	-0.16752432
96	0xbdc897a9	-0.09794552
97	0xbdcb7bde	-0.09935735
98	0xbdc29c79	-0.09502501
99	0x3f70f618	0.9412551
100	0x3f2163d1	0.6304293
101	0x3e634dee	0.22197697
102	0xbe8b547a	-0.27212888
103	0xbd7719f8	-0.0603275
104	0x3d688fba	0.056777693
105	0x3d2c0a9f	0.042002317
106	0xbdb872b8	-0.09006256
107	0x3d68d250	0.056841195
108	0x3e51e8a7	0.20498906
109	0xbddbbddf	-0.107295744
110	0xbd86304d	-0.065521814
111	0x3d12c22d	0.03582971
112	0xbd268bed	-0.040660787
113	0xbdadd993	-0.084887646
114	0xbdaf6a8a	-0.085652426
115	0xbe746bdf	-0.23869275
116	0xbdb48ab6	-0.088155195
117	0xbece8f21	-0.40343574
118	0xbe01502b	-0.12628238
119	0xbe81a0ed	-0.2531809
120	0xbd559001	-0.052139286
121	0xbe41a17a	-0.18909255
122	0xbd1b95ad	-0.03798454
123	0x3e870281	0.26369098
124	0x3dfa0e7e	0.122097954
125	0xbd7ec26a	-0.062197126
126	0xbe3179f1	-0.17331673
127	0x3d648616	0.055791937
128	0x3df09dd0	0.1174885
129	0xbd40b88a	-0.04705099
130	0x3eeade17	0.45872566
131	0x3dd38340	0.10327768
132	0xbdda8896	-0.10670583
133	0xbe2289cd	-0.1587288
134	0xbd93ae62	-0.07210995
135	0xbd72a4d9	-0.059239242
136	0x3d0d819e	0.03454744
137	0xbf0ed354	-0.5579121
138	0x3d3b30ec	0.045700952
139	0xbdba59a5	-0.090991296
140	0x3eff08c4	0.49811375
141	0xbef80d9c	-0.48447883
142	0x3e60f147	0.2196704
143	0xbd91d08b	-0.071198545
144	0xbdeb0177	-0.11474889
145	0xbe4e26af	-0.20131944
146	0xbdcdd3de	-0.10050176
147	0xbdd1b4bd	-0.10239551
148	0x3dd3b9ac	0.103381485
149	0xbe312ff7	-0.17303453
150	0x3eb65bcb	0.35616907
151	0x3d15932d	0.03651731
152	0xbe5b27df	-0.21401928
153	0xbd3f57c5	-0.046714563
154	0xbdfbe95e	-0.12300371
155	0xbe496899	-0.19668807
156	0x3e0e827c	0.13916963
157	0xbe43ac89	-0.19108786
158	0xbea3f50e	-0.320229
159	0xbd521bab	-0.051295917
160	0xbd4b7038	-0.049667567
161	0xbe012979	-0.12613477
162	0xbd029923	-0.031884324
163	0xbcca6c75	-0.02470992
164	0x3f0d26e5	0.55137473
165	0x3db55dd1	0.08855785
166	0x3cb43484	0.021997698
167	0xbd40700a	-0.04698185
168	0x3d4dbdca	0.050229825
169	0xbd9f3fda	-0.077758506
170	0xbe1a65b3	-0.15077858
171	0x3db0a4e1	0.08625198
172	0x3e53b004	0.20672613
173	0x3dacd582	0.08439161
174	0x3eb8cdc2	0.3609448
175	0xbdd43f49	-0.10363633
176	0xbdd45f81	-0.103697784
177	0xbd61d264	-0.055132285
178	0xbe6776ed	-0.2260396
179	0x3ea8aa1a	0.32942277
180	0xbe07d16b	-0.1326348
181	0xbd51154d	-0.051045705
182	0xbddde8b1	-0.10835398
183	0xbd96a113	-0.07354941
184	0xbda32d3c	-0.07967612
185	0xbe293a9e	-0.16526267
186	0xbcc74fa4	-0.024329968
187	0xbd64d2c3	-0.05586506
188	0xbde20991	-0.11036981
189	0x3ebda45c	0.3703946
190	0x3ed7fb4d	0.42183915
191	0xbe9924ec	-0.29910982
192	0xbd210ab4	-0.039316848
193	0xbe0861d2	-0.13318565
194	0xbdca6cf1	-0.0988406
195	0x3e25459a	0.16139832
196	0xbdb0a8f6	-0.08625977
197	0xbd33c4dd	-0.043888915
198	0x3da47109	0.08029372
199	0xbeb9433b	-0.36184105
200	0xbe597af5	-0.2123831
201	0xbecb1765	-0.39666286
202	0x3e2c8a61	0.16849662
203	0xbdbf1f01	-0.093320854
204	0xbded7d1e	-0.1159613
205	0xbde7c47f	-0.113167755
206	0xbdb5d058	-0.08877629
207	0x3ec9cf34	0.39415896
208	0x3eec5ff6	0.46166962
209	0xbd2a5bb2	-0.041591354
210	0xbd0dc837	-0.034614768
211	0x3e468ed8	0.19390428
212	0xbda45e46	-0.08025794
213	0xbcecd959	-0.028912233
214	0x3eb1c83e	0.34723085
215	0xbd89f42f	-0.067360274
216	0xbd710c7e	-0.058849804
217	0x3ea561b8	0.32301116
218	0xbe5cb733	-0.2155426
219	0xbd8cc63c	-0.06873748
220	0xbb0d4521	-0.0021556097
221	0xbe2bb3b6	-0.16767773
222	0xbd88a377	-0.066718034
223	0xbe1f60bc	-0.15564245
224	0x3ec1c98c	0.3784908
225	0xbe1780a1	-0.14795162
226	0x3d892e36	0.06698267
227	0x3d72076c	0.05908911
228	0xbdb98238	-0.090580404
229	0xbdb3dc9c	-0.08782312
230	0xbdaa8d6a	-0.08327754
231	0xbe326619	-0.1742176
232	0xbcd6545b	-0.02616327
233	0xbdb274af	-0.08713662
234	0xbda0c111	-0.078493245
235	0xbd955a05	-0.072925605
236	0x3e565c85	0.20933731
237	0xbdeabf3f	-0.114622585
238	0xbd2ff434	-0.0429575
239	0xbaa4176d	-0.0012519188
240	0xbdb737a3	-0.08946159
241	0xbe399ad7	-0.18125473
242	0xbe98e633	-0.29863128
243	0x3de06eb4	0.10958615
244	0x3dfeab26	0.12434988
245	0xbdbc96b0	-0.09208429
246	0xbd2f3444	-0.042774454
247	0xbe090966	-0.13382491
248	0x3f120860	0.5704403
249	0xbe4d1daf	-0.20030855
250	0xbdf4d862	-0.11955334
251	0xbbec7be0	-0.0072169155
252	0xbdeb1c6d	-0.11480031
253	0x3d85b185	0.06528
254	0xbda316dd	-0.07963345
255	0xbd8be1b7	-0.06830161

trunk.4.weight f4 [6, 256]
0	0xbd6f9884	-0.05849506
1	0x3c599edd	0.013282505
2	0x3df0c36b	0.11756023
3	0xbd50c1c7	-0.05096605
4	0x3d69e986	0.05710747
5	0x3def6aa0	0.11690259
6	0xbdd17840	-0.10228014
7	0x3d9d17e1	0.0767057
8	0xbd2ab792	-0.041678973
9	0xbd0521ff	-0.032503124
10	0x3daacca2	0.08339812
11	0x3d8faed8	0.07015771
12	0xbd059b7e	-0.032618992
13	0xbe1299ad	-0.14316435
14	0x3bba69f7	0.0056889015
15	0x3da596aa	0.080853775
16	0xbc74f5f4	-0.014951218
17	0x3db44b7e	0.088034615
18	0xbe097844	-0.13424784
19	0xbdbf15d2	-0.09330334
20	0xbe3c87d5	-0.18411191
21	0xbd863e99	-0.06554908
22	0xbb0205b4	-0.0019839825
23	0xbe1cbad3	-0.15305643
24	0x3dcfc3e0	0.10144782
25	0x3d718678	0.05896613
26	0x3ca42467	0.02003689
27	0x3cb3ffc7	0.02197255
28	0xbd48df51	-0.049041096
29	0xbdb8bb30	-0.09020078
30	0x3cc402de	0.023927148
31	0xbaeac9cc	-0.0017912923
32	0xbc03c24d	-0.00804193
33	0x3d1e5ab3	0.038660716
34	0xbb8d39f0	-0.004309885
35	0xbb8411c5	-0.0040304386
36	0xbe196031	-0.149781
37	0x3e430a3a	0.1904687
38	0x3f18acbc	0.5963857
39	0xbc0b35a2	-0.008496674
40	0xbedbab0e	-0.42903942
41	0xbd1e149d	-0.038593877
42	0xbd0675e3	-0.03282727
43	0x3e07c3c0	0.13258266
44	0x3d3bca86	0.04584744
45	0xbe13c4d1	-0.14430548
46	0xbd63ec86	-0.05564549
47	0xbd10fdef	-0.03539842
48	0x3d1e7ac9	0.038691316
49	0x3dba6818	0.091018856
50	0xbc5c2fb8	-0.013439111
51	0xbe858fe1	-0.26086333
52	0xbd8af674	-0.067852885
53	0xbc8ec647	-0.01742853
54	0xbd1c727e	-0.038195126
55	0xbceb90dc	-0.028755598
56	0x3e080cf5	0.13286193
57	0x3f2f3f69	0.6845613
58	0xbd1830d4	-0.03715594
59	0x3c97a3f4	0.018510796
60	0x3d1ba150	0.037995636
61	0x3e07ce24	0.1326223
62	0xbda49345	-0.08035902
63	0x3e000513	0.12501936
64	0xbc083b7d	-0.008314964
65	0xbe2e3be0	-0.17015028
66	0xbe1c9ea8	-0.15294898
67	0xbdf792fe	-0.120885834
68	0x3e4a8cb2	0.19780234
69	0x3cd1a0d4	0.025589384
70	0x3c40e6bd	0.011773762
71	0x3c90396b	0.017605504
72	0x3df3ec00	0.11910248
73	0x3c8c8c80	0.01715684
74	0x3c6f5789	0.014608272
75	0xbebfe36f	-0.37478206
76	0xbc897e2d	-0.016783798
77	0xbe4ae086	-0.19812211
78	0xbded52cc	-0.11588058
79	0xbe013c11	-0.1262057
80	0x3daad8ef	0.08342158
81	0x3d27ed96	0.040998064
82	0xbd824cd1	-0.06362308
83	0x3e8359a4	0.25654328
84	0xbd396aae	-0.045267753
85	0x3ccb07ff	0.024784086
86	0xbe5da348	-0.21644318
87	0x3ce9f245	0.028557906
88	0xbe9ab176	-0.30213517
89	0xbdde8508	-0.108652174
90	0xbe01fba7	-0.12693654
91	0xbe871c17	-0.26388618
92	0x3d4fde26	0.050748967
93	0x3e452170	0.19251037
94	0xbdac39bd	-0.0840945
95	0xbcce0835	-0.025150398
96	0xbd7d7f24	-0.06188883
97	0x3b3516ed	0.0027632073
98	0xbc26e78a	-0.010187039
99	0x3e225d24	0.15855843
100	0x3d94cb90	0.07265389
101	0xbc3df156	-0.0115931835
102	0x3ce3fb4c	0.027829789
103	0xbc183a7f	-0.00929129
104	0x3d2692f6	0.040667497
105	0x3e510719	0.20412864
106	0x3d1ee15d	0.038789142
107	0x3d2a38c8	0.041558057
108	0x3d665c13	0.056240153
109	0x3ccdd1ba	0.02512442
110	0xbca97a16	-0.020688098
111	0xbd0dfa6b	-0.034662645
112	0x3de980bb	0.114015065
113	0x3d8d9aa7	0.06914263
114	0x3d1c0806	0.03809359
115	0xbe8b4e34	-0.27208102
116	0x3ca74c8f	0.020422248
117	0x3d8caaac	0.068684906
118	0x3d6773a1	0.056506757
119	0xbd1b12e4	-0.037859812
120	0x3d967413	0.07346358
121	0x3aa126fb	0.0012294942
122	0x3e8092cf	0.25112006
123	0x3dcb1c8d	0.09917555
124	0x3d1e63ca	0.038669385
125	0xbd018f05	-0.031630535
126	0x3e788a3f	0.24271487
127	0x3d9b2b63	0.07576635
128	0x3c9e7245	0.019341597
129	0xbabe4453	-0.0014516212
130	0x3e03f8c0	0.1288786
131	0x3e092727	0.13393842
132	0xbd17bd72	-0.037045904
133	0x3b556ca8	0.0032565985
134	0xbc708a97	-0.01468148
135	0xbd972210	-0.07379544
136	0x3dc925bb	0.0982165
137	0xbe09c4f7	-0.13454042
138	0x3f0503e9	0.5195909
139	0xbd8d189a	-0.06889458
140	0xbcf3a56a	-0.029741962
141	0xbdd856ec	-0.10563454
142	0xbdfc15cc	-0.12308845
143	0xbcc523cb	-0.024064919
144	0xbf0c56ce	-0.54819953
145	0xbcaf4ed9	-0.021399902
146	0x3e66c5ef	0.22536443
147	0xbcc9708a	-0.024589796
148	0x3c34e172	0.0110400785
149	0x3e3f2028	0.1866461
150	0xbd8a1099	-0.06741447
151	0xbddca3f8	-0.10773462
152	0xbe41b376	-0.18916115
153	0xbe8405a1	-0.25785545
154	0xbe3fadd4	-0.18718654
155	0xbf3b38fb	-0.7313382
156	0xbe7bff6d	-0.24609156
157	0x3ec8496d	0.3911852
158	0xbdd292df	-0.1028192
159	0xbce7981d	-0.028270775
160	0x3d521e91	0.05129868
161	0xbb47dc53	-0.0030496314
162	0xbd8dda25	-0.069263734
163	0x3dbea12c	0.09308085
164	0xbdb49962	-0.08818318
165	0x3e2b4962	0.16727212
166	0xbe66515d	-0.22491975
167	0x3cdb926c	0.026803218
168	0x3d75fc38	0.060054988
169	0xbc4c7591	-0.012479202
170	0xbeb4f21f	-0.35340974
171	0x3d3643c5	0.044498224
172	0x3df238f7	0.118272714
173	0x3c890dc0	0.01673019
174	0x3e1148de	0.14187953
175	0xbe76a897	-0.2408775
176	0xbd955922	-0.07292391
177	0x3c1fbcd5	0.009749611
178	0x3d2a7e8c	0.04162459
179	0xbd9ae991	-0.075640805
180	0x3dc4abbe	0.0960307
181	0xbda56474	-0.080758005
182	0x3ac39485	0.0014921582
183	0xbdb8cce7	-0.09023457
184	0xbbab316b	-0.005224397
185	0xbe5b8af3	-0.21439724
186	0x3ca830d1	0.02053109
187	0x3ca0037a	0.019532908
188	0xbd1b5f79	-0.037932847
189	0x3cd75f7b	0.026290646
190	0xbc8d9521	-0.017283024
191	0x3eb0d03c	0.3453387
192	0xbca3624c	-0.019944333
193	0xbbca5380	-0.0061745048
194	0x3e19dd4f	0.15025829
195	0xbe4fd78c	-0.20297068
196	0xbc95644f	-0.018236307
197	0x3d3708e1	0.044686202
198	0xbc2d9c35	-0.010596325
199	0xbd5dd3b4	-0.054156974
200	0x3e472bb1	0.1945026
201	0xbcbae48d	-0.02281406
202	0x3c42388a	0.0118543
203	0xbcef0dd2	-0.029181395
204	0x3b9f324b	0.0048582903
205	0xbd87706a	-0.06613238
206	0xbc4df0d9	-0.01256963
207	0xbca45af6	-0.020062905
208	0x3e0025c3	0.12514405
209	0xbd124c69	-0.0357174
210	0xbe422fb4	-0.1896351
211	0xbbf6f202	-0.007536174
212	0x3d4b8de7	0.049695875
213	0x3bf99f85	0.007617893
214	0x3dc66323	0.096868776
215	0xbec9f5fe	-0.3944549
216	0xbb061e05	-0.002046467
217	0x3ce1304c	0.02748885
218	0xbd7136ee	-0.058890276
219	0x3cc72840	0.024311185
220	0xbdfb97b1	-0.12284792
221	0x3d59d080	0.053177357
222	0xbd54fb2e	-0.051997356
223	0xbdde312e	-0.10849224
224	0x3e032d7e	0.12810323
225	0x3dac00cc	0.083985895
226	0x3e4b0a51	0.19828154
227	0xbd14e898	-0.03635463
228	0x3ce6d86c	0.02817937
229	0xbcb44b22	-0.022008482
230	0xbd838c17	-0.064232044
231	0xbd163678	-0.03667304
232	0x3f49d16c	0.7883518
233	0xbd8fee4b	-0.07027873
234	0xbc820119	-0.015869664
235	0xbbb1f34b	-0.005430614
236	0x3e05c1de	0.13062236
237	0x3cb76cb8	0.022390708
238	0x3de85975	0.113451876
239	0xbd40bc30	-0.04705447
240	0x3dd765a7	0.105174355
241	0xbea4689b	-0.32111058
242	0xbe5d375a	-0.21603146
243	0xbdb98199	-0.09057922
244	0x3de87c8f	0.11351883
245	0xbde1b11e	-0.110201105
246	0xbe890cdb	-0.2676762
247	0xbe3635a6	-0.17793903
248	0xbc792758	-0.015207134
249	0x3d22a107	0.03970435
250	0xbd4b55bf	-0.04964232
251	0xbe09b92f	-0.13449548
252	0xbd0e40b4	-0.034729674
253	0x3cdbc5ff	0.02682781
254	0xbd47e80d	-0.048805285
255	0xbe89e99b	-0.2693604

trunk.4.bias f4 [6]
0	0x3e8e238a	0.2776149
1	0xbe8aec4a	-0.271334
2	0x3f2fe49d	0.6870821
3	0xbff4cb4d	-1.9124542
4	0xbfd3bc0e	-1.6541765
5	0xbfe9f920	-1.8279152
