models/Env1/SAC_256_A5_S1_P/local_episode_1500_reward_200.000000.pt (torch, 297002 bytes, 6 tensors)

trunk.0.weight f4 [256, 23]
0	0xbd474fe8	-0.04866019
1	0x3d41a952	0.047280617
2	0xbcc9091e	-0.02454048
3	0xbe30fac0	-0.17283154
4	0xbccab036	-0.024742227
5	0x3d4cccfa	0.05000017
6	0x3d169004	0.036758438
7	0xbda223b7	-0.07916968
8	0x3e1bc17c	0.15210527
9	0xbe20a021	-0.15686084
10	0x3bc31362	0.0059532383
11	0xbceabb83	-0.028653866
12	0xbd115806	-0.035484336
13	0xbde3ce3e	-0.11123322
14	0xbd4ccb5b	-0.049998622
15	0x3c339a23	0.010962042
16	0xbc30540d	-0.010762227
17	0x3c41814e	0.011810614
18	0xbc9d3b4d	-0.019193316
19	0x3c669fd2	0.01407619
20	0xbdf15086	-0.11782937
21	0x3dca8259	0.09888143
22	0xbca6e6e7	-0.020373775
23	0x3bd9cf0e	0.0066469973
24	0xbd01eb71	-0.031718675
25	0xbcf4891b	-0.029850533
26	0xbdc5d5ea	-0.096599415
27	0xbcd2bfe7	-0.025726272
28	0xbd02f10d	-0.031968165
29	0xbb4cc624	-0.003124603
30	0xbbdbf9dd	-0.0067131356
31	0xbc959c64	-0.01826305
32	0xbcb6becb	-0.022307774
33	0x3dc90d72	0.098170176
34	0x3d5a9f68	0.053374678
35	0xbcf62ef7	-0.030051691
36	0x3b3e83f3	0.0029070347
37	0xbd34d0e8	-0.04414454
38	0xbcd1e6b3	-0.025622701
39	0xbca48149	-0.02008118
40	0xbd91befd	-0.07116506
41	0xbd795d6f	-0.06088012
42	0xbcb73081	-0.022361996
43	0xbc08855f	-0.008332579
44	0xbe0e4a3f	-0.1389551
45	0xbd673302	-0.05644513
46	0xbd9ac922	-0.07557894
47	0xbcce14a2	-0.025156323
48	0x3c5dd43c	0.01353937
49	0xbba3b7d4	-0.0049962793
50	0xbd4a4e35	-0.04939099
51	0xbda241db	-0.07922717
52	0xbdb59ede	-0.08868192
53	0x3d7df308	0.06199935
54	0x3b28b827	0.002574453
55	0xbd344338	-0.044009417
56	0x3cb68554	0.022280373
57	0xbd4a9c8e	-0.04946571
58	0xbc18fa4c	-0.009337019
59	0xbcce55b1	-0.025187345
60	0xbd936042	-0.07196094
61	0x3dedf242	0.11618473
62	0x3c4de404	0.01256657
63	0x3d7473d7	0.059680786
64	0xbdb8aa07	-0.09016805
65	0xbdd06491	-0.101754315
66	0xbbf501cd	-0.0074770213
67	0x3d0d3556	0.034474693
68	0xbcce8d10	-0.025213748
69	0x3ddd1b92	0.10796274
70	0x3c7ddb14	0.015494127
71	0xbd865d7e	-0.06560801
72	0xbcb53d3e	-0.02212393
73	0xbd99f9bf	-0.075183384
74	0x3d21c79b	0.039497
75	0x3d092d5e	0.03349053
76	0xbc876f07	-0.016532434
77	0xbd0db4ca	-0.034596242
78	0xbc97c3c7	-0.018525971
79	0xbdb32761	-0.08747745
80	0xbce0ba59	-0.027432607
81	0xbdaa8858	-0.08326787
82	0x3b1fa2c3	0.0024358488
83	0xbd85bd18	-0.065302074
84	0xbdd99eab	-0.10625967
85	0x3d862d53	0.06551614
86	0xbdd35bc1	-0.10320235
87	0xbd815d92	-0.06316675
88	0xbdf9cc63	-0.12197187
89	0x3b0ed467	0.0021794082
90	0x3ca35c4b	0.01994147
91	0xbd3585ad	-0.044316936
92	0x3c0514ea	0.008122662
93	0xbcc2c39a	-0.02377491
94	0x3d311840	0.043236017
95	0xbbb6ecb8	-0.0055824183
96	0x3be58535	0.007004405
97	0x3c9ec9d6	0.019383352
98	0x3d083308	0.033251792
99	0xbc767b40	-0.0150440335
100	0x3d5340c5	0.05157544
101	0xbc28f2d2	-0.010311799
102	0xbe137b94	-0.1440261
103	0xbe0477db	-0.12936346
104	0x3c6095e3	0.013707611
105	0x3ce2273a	0.027606595
106	0x3cd88f5d	0.026435548
107	0x3c76b934	0.015058804
108	0xbd77b032	-0.060470767
109	0xbddb6475	-0.1071252
110	0xbd00c9b5	-0.031442363
111	0xbdc0061a	-0.09376164
112	0x3db6aa44	0.08919194
113	0xbd9076b7	-0.07053893
114	0xbe0211c9	-0.12702097
115	0xbe06d238	-0.1316613
116	0xbdfb8a0b	-0.12282189
117	0xbd65d308	-0.05610946
118	0xbbe5197d	-0.006991564
119	0x3d732275	0.059359033
120	0xba330781	-0.0006829426
121	0x3da36c9f	0.07979702
122	0x3e2fd449	0.17170824
123	0x3d49f51f	0.04930603
124	0xbd049f6e	-0.032378606
125	0xbd4c2e7b	-0.049849015
126	0xbd823392	-0.063574925
127	0xbd9d86cd	-0.07691727
128	0xbdcb2b92	-0.0992042
129	0x3d550915	0.052010614
130	0xbdbc6470	-0.091988444
131	0xbe62eee9	-0.2216145
132	0x3ca64717	0.02029757
133	0xbe367283	-0.1781712
134	0xbe1c298c	-0.15250224
135	0x3d376d2f	0.04478186
136	0xbb2e7717	-0.0026621276
137	0x3e4b985e	0.19882342
138	0xbd7f21e1	-0.06228817
139	0xbdf976f7	-0.12180894
140	0xbdc2fec6	-0.095212504
141	0xbd3451b4	-0.04402323
142	0xbe0a5ec3	-0.13512711
143	0xbbda65dc	-0.0066649746
144	0x3d546863	0.051857363
145	0xbd7faa75	-0.06241842
146	0xbb489de0	-0.003061168
147	0x3d84fb1b	0.06493207
148	0xbcd5fedb	-0.026122501
149	0x3c1bf8c9	0.009519764
150	0xbd737ca7	-0.05944505
151	0xbe1d12d4	-0.15339214
152	0x3db8c9c8	0.09022862
153	0x3ca46d2c	0.020071588
154	0x3d12607c	0.035736546
155	0xbd7d2816	-0.061805807
156	0x3bdf1c59	0.006808799
157	0x3b7b03d1	0.0038301835
158	0x3cca8ca3	0.024725264
159	0xbdb94596	-0.090464756
160	0xbdac9b18	-0.08428019
161	0x3e4473c8	0.19184792
162	0x3e50ce06	0.20391092
163	0xbcadae5d	-0.021201307
164	0xbe3182b1	-0.17335011
165	0xbeae2f4b	-0.34020457
166	0xbe4a7509	-0.19771208
167	0xbe1a3082	-0.15057567
168	0x3e86c591	0.26322606
169	0x3e4cbb69	0.19993366
170	0x3e1a0c98	0.15043867
171	0x3d3b74ee	0.04576581
172	0xbdff9543	-0.12479641
173	0xbdc0e79d	-0.09419177
174	0xbe3e42fb	-0.18580239
175	0x3d1ce4ce	0.038304143
176	0x3de1fbd5	0.11034361
177	0x3db6a261	0.0891769
178	0x3cc090e9	0.023506599
179	0xbe05f42f	-0.1308143
180	0xbbadb2c1	-0.00530085
181	0x3e8f5d65	0.28000942
182	0x3c9835a6	0.018580269
183	0x3e391bee	0.1807706
184	0xbdc077e6	-0.09397869
185	0x3cf62d78	0.030050978
186	0xbd6280c3	-0.055298578
187	0xbc9a4ac1	-0.018834474
188	0xbe19eb29	-0.15031113
189	0x3b9f1753	0.0048550754
190	0xbc8c7d22	-0.017149512
191	0x3ac7d976	0.0015247304
192	0x3d3b4a8c	0.04572539
193	0xbc7f4834	-0.015581179
194	0x3d416c61	0.0472225
195	0xbc887eef	-0.01666209
196	0xbda0c72f	-0.07850491
197	0x3ad7a119	0.0016451209
198	0xba045485	-0.0005047995
199	0x3d8488c5	0.06471399
200	0xbdfee981	-0.12446881
201	0x3b837925	0.0040122443
202	0xbdf2f27f	-0.11862659
203	0x3db660ad	0.08905158
204	0x3d68090e	0.05664926
205	0x3da0cb8c	0.078513235
206	0xbc87e770	-0.01658985
207	0xbd20769a	-0.039175607
208	0x3d2b1791	0.04177052
209	0xbd7e3456	-0.06206163
210	0x39a0b850	0.00030654902
211	0xbd691132	-0.056901164
212	0xbd58db49	-0.0529435
213	0xbd4b5fe6	-0.049652003
214	0xbd46539d	-0.048419584
215	0x3cfa1041	0.030525329
216	0xbd16bd0f	-0.036801394
217	0xbd3d6daa	-0.046247162
218	0xbd8e51c1	-0.06949187
219	0xbb6c4615	-0.0036052514
220	0x3c7412f5	0.014897098
221	0x3d8a7ab7	0.06761687
222	0xbd146554	-0.036229447
223	0xbd92cde5	-0.071681775
224	0xbb9ce31e	-0.0047878167
225	0x3d45d852	0.048302002
226	0xbc3c1773	-0.0114802
227	0xbc4f2a32	-0.0126443375
228	0x3cfdf25e	0.030999359
229	0xbe1135c2	-0.14180663
230	0x3ce4da38	0.027936086
231	0xbd09eee4	-0.03367509
232	0xbdb1e869	-0.08686907
233	0x3b594b0d	0.0033156306
234	0xbcb417af	-0.02198395
235	0x3ded86f6	0.115980074
236	0xbd36e190	-0.044648707
237	0x3cf6ff68	0.030151084
238	0xbdcd391a	-0.10020657
239	0xbe0b8cc5	-0.13627918
240	0x3d5efa48	0.054437906
241	0xb986c434	-0.00025704654
242	0xbdb3a32b	-0.08771356
243	0xbd7c794e	-0.061639123
244	0xbd453cee	-0.04815381
245	0xbe135e83	-0.14391522
246	0xbca3ae05	-0.01998044
247	0xbd8fd627	-0.07023268
248	0xbdd6463b	-0.10462614
249	0x3cae425b	0.021271875
250	0x3d810dc4	0.06301454
251	0xbe529a5f	-0.205667
252	0x3d744139	0.059632514
253	0xbde76be1	-0.11299873
254	0xbe16e137	-0.1473435
255	0xbdec75e8	-0.11545926

trunk.0.bias f4 [256]
0	0xbc87c196	-0.016571801
1	0xbd097340	-0.033557177
2	0xbc99e405	-0.018785486
3	0xbc82156e	-0.01587936
4	0xbd21973f	-0.03945088
5	0xbc9697b0	-0.018382877
6	0xbca6dead	-0.020369852
7	0x3b9d2680	0.0047958493
8	0xbc426bba	-0.011866504
9	0xbced0e1a	-0.028937388
10	0xbd34429c	-0.044008836
11	0xbd888148	-0.066652834
12	0xbd93c07a	-0.07214446
13	0xbcc0721b	-0.02349191
14	0x00000000	0.0
15	0xbc2a8083	-0.010406616
16	0xbd19f5c7	-0.037587907
17	0xbdb58bb2	-0.088645354
18	0xbc820778	-0.015872702
19	0xbc94fab3	-0.018185949
20	0x3d3c9601	0.046041492
21	0xbc12f582	-0.008969666
22	0xbc9b1f05	-0.01893569
23	0xbd31fd9e	-0.04345476
24	0xbcd367b5	-0.025806287
25	0xbd560e16	-0.052259527
26	0xbcd9adbe	-0.026572105
27	0x3d131656	0.035909973
28	0xbce4f103	-0.027946955
29	0xbcd71d8f	-0.026259212
30	0xbce454b4	-0.02787242
31	0x3d1a053e	0.037602656
32	0xbd02cb47	-0.03193214
33	0xbc820e71	-0.015876027
34	0xbd1c5518	-0.03816709
35	0xbc83b696	-0.016078275
36	0x00000000	0.0
37	0xbcff5e1e	-0.031172808
38	0xbcdcc8a9	-0.026951151
39	0x00000000	0.0
40	0xbc9c68b5	-0.019092897
41	0xbd37b600	-0.044851303
42	0xbd4061e7	-0.046968367
43	0xbc58790b	-0.013212453
44	0xbc821a97	-0.01588182
45	0xbcf457a3	-0.029826945
46	0xbce054e5	-0.02738423
47	0xbc4812af	-0.012211486
48	0xbd23601c	-0.03988658
49	0xbca2c2c6	-0.019868266
50	0x00000000	0.0
51	0x00000000	0.0
52	0xbc7d1cf5	-0.015448798
53	0x00000000	0.0
54	0xbcb5e55e	-0.022204097
55	0xbc82193f	-0.015881179
56	0xbcebcd71	-0.028784486
57	0xbcce1e95	-0.025161067
58	0xbbca5be3	-0.0061755045
59	0xbb9f6bc1	-0.00486514
60	0xbd5d5522	-0.054036267
61	0xbcd23a06	-0.025662433
62	0x00000000	0.0
63	0xbd0ca0dc	-0.034333095
64	0xbcf04636	-0.029330354
65	0x00000000	0.0
66	0xbcd0146a	-0.02540036
67	0xbcf59fd6	-0.029983442
68	0xbc821ba8	-0.015882328
69	0xbd2cb85d	-0.04216801
70	0xbceaa47b	-0.028642884
71	0xbc64ddfa	-0.013968939
72	0xbc72fbd5	-0.014830549
73	0xbd04a40a	-0.032383002
74	0xbcb17ac3	-0.021664983
75	0x00000000	0.0
76	0xbd6da860	-0.058021903
77	0xbc81cb9f	-0.015844164
78	0xbd64ec2f	-0.055889305
79	0xbc4d6ac2	-0.01253766
80	0xbc8216cf	-0.015880017
81	0xbd8502ab	-0.064946495
82	0x00000000	0.0
83	0xbc8218c6	-0.015880954
84	0xbc8f1b1a	-0.017468978
85	0xbd14adf7	-0.03629872
86	0xbb473fd9	-0.0030403046
87	0xbc85ce69	-0.016333776
88	0x3c7c49b1	0.015398429
89	0xbd7aef52	-0.06126339
90	0xbcb02929	-0.021504002
91	0x00000000	0.0
92	0xbd4ffb19	-0.050776575
93	0xbd22d1bb	-0.039750796
94	0xbd22c440	-0.03973794
95	0x3ccfe330	0.025376886
96	0xbd3d00b1	-0.046143238
97	0x00000000	0.0
98	0xbcbc81f5	-0.023011187
99	0xbd456c8c	-0.04819922
100	0xbd82c88e	-0.06385909
101	0xbdd103b6	-0.10205786
102	0xbc29f078	-0.010372274
103	0xbcd21b55	-0.025647799
104	0xbc844cfd	-0.016149992
105	0xbd36d54f	-0.04463702
106	0xbd27415f	-0.040833827
107	0xbcd1297b	-0.025532475
108	0xbc82154d	-0.015879298
109	0xbd1cc562	-0.038274176
110	0x3d8e60ac	0.069520324
111	0xbcf68c7e	-0.030096289
112	0x00000000	0.0
113	0xbcbac391	-0.022798331
114	0xbc92746d	-0.017877782
115	0xbcf3075b	-0.029666593
116	0xbcff4b28	-0.031163767
117	0xbce348cb	-0.027744671
118	0xbcfec9ad	-0.031102026
119	0xbd0743d6	-0.033023678
120	0xbd1b7e0e	-0.037962012
121	0x00000000	0.0
122	0xbd15148d	-0.036396552
123	0xbcf1e412	-0.029527698
124	0xbbf49ea1	-0.007465199
125	0xbcd4c0a5	-0.025970766
126	0xbce1a1d6	-0.02754299
127	0xbc4a6a04	-0.012354378
128	0xbce1d881	-0.027569057
129	0xbcea1e27	-0.02857883
130	0xbb26693d	-0.0025392317
131	0xbcca065c	-0.024661236
132	0xbd402932	-0.046914287
133	0xbc59ce03	-0.013293746
134	0xbc8ae64d	-0.01695552
135	0xbcf17570	-0.029474944
136	0xbce1ee56	-0.027579468
137	0xbcd29272	-0.025704596
138	0x3d2343e2	0.03985966
139	0xbce2e4a8	-0.027696922
140	0xbc265b53	-0.010153609
141	0xbd04b53d	-0.032399405
142	0xbc8219d9	-0.015881466
143	0xbc820cf0	-0.01587531
144	0xbd329264	-0.04359664
145	0xbd05aeea	-0.032637514
146	0xbd7f101f	-0.062271234
147	0xbd83fb57	-0.06444424
148	0xbcefa544	-0.02925361
149	0xbc71f795	-0.014768501
150	0x00000000	0.0
151	0xbcc231b4	-0.02370534
152	0x3be5d6e4	0.0070141423
153	0xbcccb40d	-0.024988199
154	0xbcd68f11	-0.026191266
155	0xbcae2b06	-0.02126075
156	0xbdb0d51f	-0.086343996
157	0xbd3b40dc	-0.04571615
158	0xbd3cb47a	-0.046070553
159	0xbd36156c	-0.044454023
160	0xbd312f46	-0.043257974
161	0xbcf4afea	-0.029869039
162	0xbcd16f54	-0.02556578
163	0xbd32631d	-0.043551553
164	0x00000000	0.0
165	0xbd98b9a0	-0.0745728
166	0xbc5d7f84	-0.013519172
167	0xbced32a1	-0.028954806
168	0xbd7ae019	-0.061248872
169	0xbd674b65	-0.056468386
170	0x3cff2712	0.03114656
171	0xbd17853c	-0.036992297
172	0xbb02348b	-0.0019867744
173	0xbcc5ca5f	-0.02414435
174	0xbccf5540	-0.025309205
175	0x3c97f4d1	0.018549355
176	0xbcdf6b90	-0.02727297
177	0xbc536278	-0.012901895
178	0xbc85bc9a	-0.016325284
179	0xbdc71f64	-0.09722784
180	0xbce5e0e1	-0.028061332
181	0xbc81dd60	-0.01585263
182	0xbc8212c9	-0.015878098
183	0xbcff52fd	-0.031167502
184	0xbcac3658	-0.021022007
185	0xbd143a8c	-0.036188647
186	0x3d499753	0.04921658
187	0xbc7f49aa	-0.015581528
188	0xbd4fdc4b	-0.050747197
189	0xbce1b73f	-0.027553199
190	0x3c6d274e	0.014474703
191	0xbd1fb4c8	-0.038990766
192	0xbd323de2	-0.043516047
193	0xbc8b3aeb	-0.016995868
194	0xbcce81c4	-0.025208361
195	0xbd9f2c1e	-0.077720866
196	0xbcdabff2	-0.026702855
197	0xbc82192b	-0.015881142
198	0xbca42bf1	-0.020040484
199	0x00000000	0.0
200	0xbd5586dc	-0.052130565
201	0x00000000	0.0
202	0x3a93b1b3	0.0011268168
203	0xbc81ee9b	-0.015860846
204	0xbc94595b	-0.018109014
205	0xbc81f4f9	-0.015863882
206	0xbcc90028	-0.024536207
207	0xbd05c1e8	-0.032655627
208	0xbc8201f2	-0.015870068
209	0xbdac99e5	-0.084277906
210	0xbd269238	-0.04066679
211	0xbda39f07	-0.079893164
212	0xbd28626e	-0.041109495
213	0xbd1f9748	-0.038962632
214	0xbc9de9eb	-0.01927658
215	0xbbfbf72c	-0.0076893773
216	0xbcf6d043	-0.030128604
217	0xbd802a27	-0.0625804
218	0x00000000	0.0
219	0xbd155046	-0.036453508
220	0xbd9b5a8e	-0.07585631
221	0xbd265a3c	-0.040613398
222	0xbcb8c9dd	-0.022557193
223	0xbd05afc6	-0.032638334
224	0xbc80b24c	-0.015710019
225	0x3c8f4b0e	0.017491844
226	0xbd64bb04	-0.055842414
227	0xbd24bd91	-0.040219847
228	0xbce12da8	-0.02748759
229	0xbc9e3c26	-0.01931579
230	0xbc1289cf	-0.008943989
231	0xbd81eb7a	-0.06343742
232	0x3b8d8b14	0.004319558
233	0xbc81fa07	-0.015866293
234	0x3d299307	0.04139998
235	0x00000000	0.0
236	0xbc226a2a	-0.009913007
237	0xbd6bfe2a	-0.057615437
238	0xbcfaaad2	-0.030599032
239	0xbcf78954	-0.03021685
240	0x00000000	0.0
241	0xbcee03a2	-0.029054467
242	0xbdc54b84	-0.09633544
243	0xbd07477b	-0.033027153
244	0xbcbee8ca	-0.023304362
245	0x3aa7b717	0.0012795654
246	0xbc820526	-0.015871596
247	0xbc8e380a	-0.017360706
248	0x3ccf6ed1	0.025321396
249	0xbd6de203	-0.05807687
250	0xbc1c80f2	-0.009552227
251	0xbb1e9590	-0.0024198033
252	0xbd7524a1	-0.059849385
253	0xbced6a90	-0.028981477
254	0xbd9c2183	-0.07623579
255	0xbd0eeb67	-0.034892466

trunk.2.weight f4 [256, 256]
0	0xbdb1137c	-0.086462945
1	0x3b392276	0.00282493
2	0x3d47ef51	0.048812214
3	0xbd369f98	-0.044585794
4	0xbcd90bab	-0.026494822
5	0x3d4023d1	0.046909157
6	0x3d52d8a6	0.051476143
7	0x3eca45a5	0.3950626
8	0x3e14f746	0.14547452
9	0x3c27af80	0.010234714
10	0xbd030adc	-0.03199278
11	0x3dc6ffee	0.097167835
12	0xbdedc625	-0.11610059
13	0xbe024ade	-0.12723872
14	0xbc46dd32	-0.012137698
15	0xbdc85d94	-0.097834736
16	0x3c83d926	0.016094755
17	0x3a5630c7	0.00081707205
18	0xbd31c52a	-0.04340092
19	0xbe1d4acb	-0.15360563
20	0x3e16ff46	0.14745817
21	0x3d853c6d	0.06505666
22	0x3d3b4769	0.0457224
23	0x3d3de116	0.046357237
24	0x3d055025	0.032547135
25	0x3d7339eb	0.059381407
26	0xbda26568	-0.07929498
27	0xbe53ef8b	-0.20696847
28	0x3dfbab47	0.12288528
29	0xbd90d929	-0.0707267
30	0xbd87babf	-0.06627416
31	0xbde182b7	-0.1101126
32	0x3d013589	0.031545196
33	0xbd8a2920	-0.06746125
34	0xbc4174f1	-0.011807666
35	0x3cd61024	0.026130743
36	0x3a66e7d0	0.00088083465
37	0xbc2790f7	-0.010227433
38	0x3d98122b	0.0742534
39	0x3c9e19e8	0.019299462
40	0x3e26627b	0.16248505
41	0xbe266343	-0.16248803
42	0xbe4823fd	-0.19544978
43	0x3de9365a	0.1138732
44	0x3de47675	0.111554064
45	0x3d91db55	0.071219124
46	0xbd7f5b72	-0.06234307
47	0x3b0d4113	0.002155368
48	0x3d3e2f5d	0.046431888
49	0xbdb6f908	-0.08934218
50	0xbdb17523	-0.0866492
51	0xbddca492	-0.10773577
52	0xbc5c2f3b	-0.013438995
53	0xbdf18188	-0.11792284
54	0x3d673257	0.056444492
55	0x3da4126b	0.080113254
56	0x3d6645da	0.05621896
57	0x3d7061c9	0.058687005
58	0xbd56e962	-0.052468665
59	0xbe470bc7	-0.19438086
60	0x3e655c61	0.22398521
61	0xbd21c145	-0.039490957
62	0xbe03db22	-0.12876561
63	0xbd775660	-0.060385108
64	0x3bd73d08	0.006568555
65	0x3db86fe4	0.090057164
66	0x3cbf8b5e	0.023381885
67	0xbbd6290d	-0.0065356554
68	0x3d1e3e5d	0.038633693
69	0xbe336cec	-0.17522019
70	0xbde3ae29	-0.11117203
71	0x3d311896	0.043236338
72	0x3b46ceac	0.0030335588
73	0x3d21ccd2	0.039501972
74	0xbeda7e87	-0.42674658
75	0x3d1a21ea	0.03763
76	0xbcfc928b	-0.030831596
77	0x3c1dae96	0.009624144
78	0x3aa6acd6	0.0012716304
79	0x3d750e4b	0.059828084
80	0xbd919bd8	-0.07109803
81	0xbe628f90	-0.22125077
82	0x3d4bdaa0	0.049769044
83	0x3ca0cfa5	0.019630263
84	0x3d6f213d	0.058381308
85	0xbcd3c9d1	-0.02585307
86	0x3d92089b	0.071305476
87	0xbe375f6e	-0.17907497
88	0xbe55ef8d	-0.20892163
89	0xbbdef026	-0.0068035303
90	0xbdc4d597	-0.096110515
91	0xbe03609e	-0.12829825
92	0x3e0c8a06	0.13724527
93	0x3d20420b	0.039125483
94	0xbc964f0c	-0.01834824
95	0x3e3f10f4	0.18658811
96	0xbb9feff7	-0.004880901
97	0x3b4e7488	0.0031502564
98	0x3d1b296b	0.037881296
99	0xbdbe3383	-0.09287169
100	0x3e29ebe8	0.16593897
101	0xbdb03d0b	-0.08605393
102	0xbd9d18e0	-0.0767076
103	0xbd4be410	-0.049778044
104	0x3d95481f	0.07289147
105	0x3d3947bd	0.04523443
106	0xbeab7bcb	-0.33492884
107	0xbe7efbf6	-0.24900803
108	0xbddeb223	-0.10873821
109	0xbe0dc395	-0.1384414
110	0x3dd1f79d	0.102523066
111	0xbd4f7f75	-0.050658662
112	0x3d56b755	0.052420933
113	0xbc5ab8fd	-0.013349769
114	0x3dfb47a1	0.122695215
115	0x39b53e0f	0.00034569248
116	0x3cae7ff0	0.02130124
117	0xbc6b305e	-0.014354793
118	0xbd3a0aaa	-0.045420326
119	0xbdc5b28b	-0.09653195
120	0x3d3bde74	0.045866445
121	0xbc1f9e32	-0.009742307
122	0x3de6b630	0.11265218
123	0xbcbd18ae	-0.023083057
124	0xbd06d47e	-0.032917492
125	0x3c58c58c	0.013230693
126	0xbd2e93f4	-0.042621568
127	0xbd31e9c6	-0.043435834
128	0x3db5b481	0.08872319
129	0x3d9fe9f9	0.078082986
130	0xbd058afc	-0.03260325
131	0x3c49e684	0.012323026
132	0x3bd863e6	0.0066037057
133	0x3c0bc039	0.008529716
134	0xbc8c5fbc	-0.017135493
135	0x3cfaf581	0.030634644
136	0x3db3780f	0.08763134
137	0x3bea6c9e	0.0071540615
138	0x3c752324	0.014961991
139	0x3d2185a4	0.03943409
140	0x3e25fe09	0.16210188
141	0xbcca0dd0	-0.02466479
142	0xbceffdab	-0.029295763
143	0xbdd25203	-0.10269549
144	0xbd16d342	-0.036822565
145	0x3d8e599d	0.06950686
146	0xbe1f0913	-0.15530805
147	0x3b208795	0.0024494876
148	0xbd9af285	-0.07565788
149	0xbd5f1f88	-0.05447343
150	0x3dc32c96	0.095299885
151	0xbbd0d3fb	-0.0063729263
152	0xbf2d2ae0	-0.6764355
153	0x3e414a6e	0.18876049
154	0x3d016a41	0.031595472
155	0xbd77f968	-0.060540587
156	0x3d9e311f	0.07724213
157	0x3dfc32e9	0.12314398
158	0x3a7f78a9	0.0009745458
159	0xbe9164db	-0.2839726
160	0xbdef7174	-0.11691561
161	0xbd784b76	-0.06061884
162	0xbcc08286	-0.023499738
163	0x3bef8f45	0.00731078
164	0x3cdd94d6	0.02704851
165	0xbd47b78c	-0.04875903
166	0x3da51149	0.080599375
167	0xbc4178a7	-0.011808551
168	0xbd7b82c2	-0.061403997
169	0x3d805b73	0.062674426
170	0x3de64684	0.112439185
171	0xbc926732	-0.017871473
172	0xbdec6b54	-0.11543909
173	0x3e3552d7	0.17707382
174	0x3d904d2a	0.07045968
175	0xbdd8287b	-0.10554596
176	0x3d9e3c48	0.077263415
177	0x3d285850	0.041099846
178	0x3cf5c708	0.030002132
179	0x3df52577	0.119700365
180	0x3c42f7b7	0.01189988
181	0xbc6edfdc	-0.014579739
182	0xbd6ed2bb	-0.058306437
183	0x3c99837c	0.018739454
184	0xbdef07b1	-0.11671389
185	0xbd1f277e	-0.038856022
186	0xbc71a4d9	-0.014748775
187	0x3c67bcc2	0.014144124
188	0xbded6022	-0.115906015
189	0x3d54a52d	0.051915336
190	0x3d7eddd3	0.062223267
191	0xbd801471	-0.06253899
192	0x3de61dfc	0.11236188
193	0x3b8a191a	0.004214418
194	0x3ce79cca	0.028273005
195	0x3db8e0f6	0.09027283
196	0xbd2c4aa9	-0.04206339
197	0x3ceefb8f	0.029172687
198	0x3cc01c0d	0.023450876
199	0xbde2000c	-0.11035165
200	0xbeaf8c4f	-0.34286734
201	0x3bb402b8	0.005493488
202	0xbea7537d	-0.32680884
203	0x3e1015e8	0.14070857
204	0x3a801161	0.0009770804
205	0x3cc2f0cd	0.023796463
206	0x3c87d7eb	0.01658245
207	0xbd1ec983	-0.038766395
208	0x3a4ced31	0.00078173267
209	0xbe62a3a9	-0.22132744
210	0x3be55a52	0.0069992924
211	0xbdb9b711	-0.0906812
212	0xbdcf0d37	-0.101099424
213	0xbec5d59f	-0.38639542
214	0xbdacfd83	-0.08446791
215	0xbdaee3bd	-0.085395314
216	0xbe50a8a1	-0.20376827
217	0xbd8179b6	-0.06322043
218	0x3d79a407	0.060947444
219	0x3d88c0c6	0.066773936
220	0xbf0b7284	-0.5447161
221	0xbd0a14d0	-0.033711255
222	0x3c8385a5	0.016054938
223	0xbe092a84	-0.13395125
224	0xbd450c6d	-0.048107553
225	0xbbc8e2da	-0.0061305584
226	0x3e3df5aa	0.18550745
227	0xbbc875e2	-0.0061175684
228	0xbdc7bdc7	-0.09752994
229	0xbd243893	-0.040093016
230	0x3daca6b4	0.084302336
231	0xbe489771	-0.1958902
232	0xbcc5260c	-0.024065994
233	0x3dc3a31e	0.095525965
234	0x3e8f7e5c	0.28026092
235	0x3d455cd8	0.048184246
236	0x3c6112e6	0.013737416
237	0xbe4972e2	-0.1967273
238	0xbce38ae1	-0.027776184
239	0x3dfd25be	0.123607144
240	0x3c43646a	0.011925796
241	0x3e1695d9	0.147056
242	0x3d4c3834	0.049858287
243	0xbd55e25b	-0.052217823
244	0xbcc1d89e	-0.023662861
245	0xbd6da391	-0.058017317
246	0xbd499d0e	-0.049222045
247	0x3d7490e5	0.059708495
248	0x3e25ed84	0.16203886
249	0x3aa6d2a1	0.0012727567
250	0x3d6339b5	0.055474956
251	0xbd91a950	-0.07112372
252	0xbef74503	-0.4829484
253	0x3dcb0905	0.0991383
254	0xbe9cc525	-0.3061916
255	0x3d4d2323	0.050082337

trunk.2.bias f4 [256]
0	0xbe297a04	-0.16550452
1	0x3d10b2ef	0.035326894
2	0xbe046b99	-0.1293167
3	0xbdadbd5b	-0.08483382
4	0xbd4d4eeb	-0.05012409
5	0x3e1aed62	0.15129617
6	0xbe0f42db	-0.13990347
7	0x3e9989cd	0.29987946
8	0xbd396b79	-0.04526851
9	0xbd542e29	-0.051801834
10	0x3d7461de	0.059663646
11	0x3f4509ee	0.76968277
12	0xbda3c84c	-0.07997188
13	0xbe406ef0	-0.1879232
14	0xbd752305	-0.05984785
15	0xbdb60cb2	-0.0888914
16	0x3e3e0a91	0.18558718
17	0xbd78f5d2	-0.060781308
18	0x3d883806	0.066513106
19	0xbd38265e	-0.044958465
20	0xbd9bf6cb	-0.076154314
21	0x3e3d13f4	0.18464643
22	0xbdbcdba2	-0.09221579
23	0xbe8a0309	-0.2695544
24	0xbdea8260	-0.11450648
25	0x3efa6751	0.4890695
26	0xbd1e7962	-0.03868998
27	0xbd97511a	-0.07388516
28	0x3e636bfb	0.2220916
29	0xbd1691cc	-0.036760136
30	0x3eedbba0	0.4643221
31	0xbdb96513	-0.090524815
32	0x3e5c2d97	0.21501766
33	0xbd9dcade	-0.077047095
34	0xbdab6622	-0.0836909
35	0xbda8fb7d	-0.082510926
36	0xbd1dcfaf	-0.03852814
37	0x3a9a3c84	0.0011767303
38	0x3cb85b3c	0.022504441
39	0x3e4531bf	0.19257258
40	0x3e0732b3	0.13202934
41	0xbd2cabce	-0.042156033
42	0xbe2f0f79	-0.17095746
43	0xbdf89abb	-0.121388875
44	0xbd51fe3b	-0.051267844
45	0x3d857c2e	0.06517826
46	0x3dca019f	0.098635904
47	0xbdd108ea	-0.10206778
48	0xbd8472ad	-0.06467185
49	0x3d5f67e6	0.054542445
50	0xbdc6ab27	-0.097006135
51	0xbe8e23b1	-0.27761605
52	0xbdae2bc7	-0.085044436
53	0xbe4ac194	-0.19800407
54	0x3de7b62b	0.11314043
55	0xbdc2f64a	-0.09519632
56	0xbd29595c	-0.041344985
57	0x3dacb936	0.08433764
58	0x3caad7cb	0.020854851
59	0xbd5d9eba	-0.05410645
60	0xbe3b0fd4	-0.18267757
61	0x3eaa9b79	0.3332174
62	0xbd778f78	-0.060439557
63	0xbd973414	-0.0738298
64	0x3db77657	0.089581184
65	0xbd8b788c	-0.06810102
66	0x3e206029	0.15661682
67	0x3e0dffd6	0.13867125
68	0x3e05d733	0.13070373
69	0xbd5ee394	-0.054416254
70	0x3d2e62cc	0.04257469
71	0x3f1ea6bc	0.61973166
72	0x3e34bf16	0.17651019
73	0x3d6e3a58	0.05816111
74	0xbd9b6a51	-0.075886376
75	0xbdb18541	-0.08667994
76	0xbdc4d95f	-0.09611773
77	0xbe20b988	-0.15695775
78	0x3d8c70d6	0.06857459
79	0xbdc9d1b2	-0.09854449
80	0xbda7bbcd	-0.08190117
81	0xbe85abe9	-0.2610772
82	0x3ddcd61c	0.107830256
83	0xbe412f69	-0.18865742
84	0x3f09f900	0.5389557
85	0xbd988872	-0.074479
86	0x3c0de7b0	0.008661196
87	0xbdb8d69d	-0.09025309
88	0xbe4f9c8f	-0.20274566
89	0x3ef00c5b	0.46884426
90	0xbcc201fd	-0.023682589
91	0xbe35f8d2	-0.17770699
92	0xbdafaed2	-0.08578266
93	0xbe1a6e4c	-0.15081137
94	0xbeae8f11	-0.34093526
95	0xbe0d9679	-0.13826932
96	0xbdc897a9	-0.09794552
97	0xbdcb7bde	-0.09935735
98	0xbd9f2c76	-0.07772152
99	0x3f40d059	0.75317913
100	0x3ef60012	0.4804693
101	0x3eb6bd42	0.35691267
102	0xbe466d31	-0.1937759
103	0xbd5eedd7	-0.05442604
104	0xbd85ad5a	-0.06527205
105	0xbc3b0298	-0.011414193
106	0xbdb872b8	-0.09006256
107	0x3c4c335b	0.012463416
108	0x3e4f9897	0.20273052
109	0xbd8c7d0a	-0.06859787
110	0xbd86304d	-0.065521814
111	0x3cfa8aae	0.030583706
112	0xbd9aa898	-0.07551688
113	0xbdadd993	-0.084887646
114	0xbd8eedcf	-0.06978952
115	0xbe746bdf	-0.23869275
116	0xbdb48ab6	-0.088155195
117	0xbea7cea8	-0.32774854
118	0xbdcc4be2	-0.09975411
119	0xbe0d0f39	-0.13775338
120	0xbd23e1bf	-0.04001021
121	0xbd67fe7e	-0.056639187
122	0xbad27aca	-0.0016058323
123	0x3e2f9622	0.17147115
124	0xbd854378	-0.06507009
125	0xbd586af2	-0.052836366
126	0xbdc3dbe0	-0.09563422
127	0x3df77a46	0.12083869
128	0x3d502832	0.050819583
129	0xbcff61f9	-0.031174647
130	0x3ec017e6	0.37518233
131	0x3da43479	0.08017821
132	0xbcb0a2ab	-0.021561941
133	0xbe2289cd	-0.1587288
134	0xbd93ae62	-0.07210995
135	0xbdb5dcc4	-0.08879998
136	0x3d0648bf	0.03278422
137	0xbea06859	-0.3132961
138	0x3dfb4866	0.12269668
139	0xbd9566ec	-0.072950214
140	0x3ea7e00d	0.32788125
141	0xbefc0e51	-0.49229673
142	0x3e924298	0.28566432
143	0xbd91d08b	-0.071198545
144	0xbd52cc2f	-0.051464256
145	0xbd936078	-0.07196134
146	0xbdcdd3de	-0.10050176
147	0xbdd1b4bd	-0.10239551
148	0x3d6d7197	0.057969656
149	0xbe312ff7	-0.17303453
150	0x3ef05a0c	0.469437
151	0x3da6a6a1	0.08137251
152	0xbdb7550e	-0.0895177
153	0x3bb4c840	0.0055170357
154	0xbdfbe95e	-0.12300371
155	0xbe496899	-0.19668807
156	0x3e401bb3	0.18760566
157	0xbe43ac89	-0.19108786
158	0xbe2e2154	-0.17004901
159	0xbd521bab	-0.051295917
160	0xbdc3a5ad	-0.095530845
161	0xbe012979	-0.12613477
162	0xbd029923	-0.031884324
163	0xbd1630bc	-0.03666757
164	0x3f095913	0.5365154
165	0xbd897e0a	-0.06713493
166	0x3d72f368	0.05931416
167	0xbd40700a	-0.04698185
168	0x3d4006c1	0.04688144
169	0xbd889af6	-0.066701815
170	0xbe1a65b3	-0.15077858
171	0x3b502d48	0.003176527
172	0x3d26a3fc	0.04068373
173	0x3e0745d7	0.13210236
174	0x3ec29abb	0.38008675
175	0xbd2d8586	-0.042363666
176	0xbdb3da3e	-0.08781861
177	0xbd61d264	-0.055132285
178	0xbe0a747e	-0.13521
179	0x3ea1ec6c	0.31625688
180	0xbdde8c81	-0.10866643
181	0x3d5c4133	0.053773116
182	0xbddde8b1	-0.10835398
183	0xbd96a113	-0.07354941
184	0xbda32d3c	-0.07967612
185	0xbe09ae41	-0.13445379
186	0x3d73fa02	0.059564598
187	0xbd64d2c3	-0.05586506
188	0xbde20991	-0.11036981
189	0x3e994c62	0.29941088
190	0x3e9a2c6f	0.30112025
191	0xbe9924ec	-0.29910982
192	0xbd6794f1	-0.056538526
193	0xbdf03d49	-0.11730439
194	0xbd44fbe4	-0.048091784
195	0x3d93009e	0.07177852
196	0xbd902472	-0.070382014
197	0xbd33c4dd	-0.043888915
198	0xbd8a2df8	-0.06747049
199	0xbe6f6770	-0.23379302
200	0xbe18e29e	-0.14930198
201	0xbe7228b9	-0.23648347
202	0x3e320151	0.17383315
203	0xbd9e987c	-0.07743928
204	0xbded7d1e	-0.1159613
205	0xbde7c47f	-0.113167755
206	0xbdb5d058	-0.08877629
207	0x3e56b5bb	0.20967762
208	0x3e3240cc	0.1740753
209	0xbd2a5bb2	-0.041591354
210	0xbbe94f97	-0.0071200836
211	0x3e00dbf3	0.12583904
212	0xbd46ce8e	-0.04853683
213	0x3db61dc7	0.08892398
214	0x3ea30114	0.3183676
215	0xbd11bbdc	-0.035579547
216	0xbd710c7e	-0.058849804
217	0x3e83a3eb	0.25710997
218	0xbdcdb6fe	-0.100446686
219	0xbd8cc63c	-0.06873748
220	0x3d88c981	0.06679059
221	0xbdc42571	-0.09577454
222	0xbd88a377	-0.066718034
223	0xbde689fb	-0.112567864
224	0x3ef6c5a1	0.48197654
225	0xbd406f21	-0.04698098
226	0x3dce0175	0.10058872
227	0x3d9e7c87	0.077385955
228	0xbdb98238	-0.090580404
229	0xbdb3dc9c	-0.08782312
230	0xbdaa8d6a	-0.08327754
231	0xbe09c17b	-0.13452713
232	0x3b2bc76c	0.0026211394
233	0xbdb274af	-0.08713662
234	0xbdd0f01f	-0.102020495
235	0xbd955a05	-0.072925605
236	0x3e43cff1	0.19122292
237	0xbdeabf3f	-0.114622585
238	0xbd2ff434	-0.0429575
239	0xbd7b476f	-0.06134742
240	0xbd96b17e	-0.07358073
241	0xbe3cd309	-0.18439879
242	0xbe7cf84f	-0.24704097
243	0x3d3d5b03	0.046229374
244	0xbd137638	-0.036001414
245	0xbd919317	-0.07108133
246	0xbd32c9d4	-0.04364951
247	0xbe0a1193	-0.13483267
248	0x3f062d18	0.5241256
249	0xbd9449f4	-0.07240668
250	0xbde7f79f	-0.11326527
251	0x3dbd8559	0.0925395
252	0xbde58473	-0.11206903
253	0xbb828516	-0.0039831502
254	0xbd75c600	-0.06000328
255	0x3dab2ffa	0.0835876

trunk.4.weight f4 [6, 256]
0	0xbe1734f2	-0.14766291
1	0x3dbed7f7	0.09318536
2	0x3e349f18	0.17638814
3	0xbd50c1c7	-0.05096605
4	0x3d69e986	0.05710747
5	0x3dc9ad9e	0.09847568
6	0xbe1e1e50	-0.15441251
7	0x3da5b511	0.08091176
8	0xbd2ab792	-0.041678973
9	0xbd0521ff	-0.032503124
10	0x3e81a45e	0.25320715
11	0x3d4a6ebf	0.049422022
12	0xbc89cc2e	-0.016820993
13	0xbe820943	-0.2539769
14	0x3ba17bd5	0.004928092
15	0x3ca558fb	0.02018403
16	0xbdac16a3	-0.08402755
17	0x3df6a674	0.12043467
18	0xbe8f3e3d	-0.27977172
19	0xbdbf15d2	-0.09330334
20	0x3c4a2267	0.012337304
21	0xbe2e2500	-0.17006302
22	0xbb0205b4	-0.0019839825
23	0xbe1a46a1	-0.15066005
24	0x3d8eb4db	0.06968089
25	0x3c580582	0.013184907
26	0x3d947449	0.07248742
27	0x3cb3ffc7	0.02197255
28	0xbd893eb2	-0.06701411
29	0xbdd781b4	-0.10522786
30	0x3d96bbe8	0.07360059
31	0xbaeac9cc	-0.0017912923
32	0x3be4a8d0	0.006978132
33	0x3d1e5ab3	0.038660716
34	0xbb8d39f0	-0.004309885
35	0xbb8411c5	-0.0040304386
36	0xbce7f0cd	-0.028313065
37	0x3e6c5cd9	0.23082294
38	0x3f18acbc	0.5963857
39	0xbde844da	-0.113412574
40	0xbf059531	-0.52180773
41	0xbd1e149d	-0.038593877
42	0xbd60d13d	-0.054887045
43	0x3eb3cf1f	0.35118958
44	0x3d3bca86	0.04584744
45	0xbd090cab	-0.033459347
46	0xbc89d759	-0.016826319
47	0xbd10fdef	-0.03539842
48	0xbc641319	-0.013920569
49	0x3e484bc2	0.1956015
50	0x3b1ec736	0.0024227626
51	0xbeae9b71	-0.34102967
52	0xbd8af674	-0.067852885
53	0x3d7ba5a9	0.061437283
54	0x3d4aeef3	0.049544286
55	0xbceb90dc	-0.028755598
56	0x3e080cf5	0.13286193
57	0x3f48f117	0.78492874
58	0xbc9145d2	-0.017733488
59	0x3c97a3f4	0.018510796
60	0x3e16c4ff	0.14723586
61	0x3dfa1b90	0.122122884
62	0xbe1f944e	-0.15583917
63	0x3c7c4442	0.015397133
64	0xbdc58efb	-0.09646412
65	0xbda90f08	-0.0825482
66	0xbd86f946	-0.06590514
67	0xbe242abe	-0.1603193
68	0xbbe8648c	-0.0070920642
69	0x3d2768d8	0.04087147
70	0xbd382479	-0.044956658
71	0xbd7d9e94	-0.06191881
72	0x3e0141c8	0.1262275
73	0xbdc5a32a	-0.09650262
74	0x3c6f5789	0.014608272
75	0xbd1efab9	-0.038813327
76	0xbc897e2d	-0.016783798
77	0xbea75d5f	-0.32688424
78	0xbe9ec018	-0.3100593
79	0xbcb238a7	-0.02175553
80	0xbd0da0f5	-0.03457733
81	0xbe50ab48	-0.20377839
82	0xbe373f57	-0.17895256
83	0x3e8359a4	0.25654328
84	0xbe1deb65	-0.15421827
85	0x3ccb07ff	0.024784086
86	0xbe60ac8f	-0.21940826
87	0x3d35f7cc	0.04442577
88	0xbe9ab176	-0.30213517
89	0xbe0aa039	-0.13537683
90	0xbe2d0528	-0.16896498
91	0xbe3efc01	-0.1865082
92	0x3d4fde26	0.050748967
93	0x3e780a58	0.24222696
94	0xbe3c0579	-0.18361463
95	0xbe0c7220	-0.1371541
96	0xbd7d7f24	-0.06188883
97	0x3b3516ed	0.0027632073
98	0x3b0a746e	0.0021126526
99	0x3d568015	0.052368242
100	0x3d4a0282	0.049318798
101	0xbe119dd6	-0.14220366
102	0x3da9182f	0.08256566
103	0x3c064448	0.00819499
104	0x3e2e7251	0.17035796
105	0x3e3ce2e5	0.18445928
106	0x3d1ee15d	0.038789142
107	0x3df18160	0.117922544
108	0x3db4f7a9	0.088363
109	0x3ca8486a	0.020542342
110	0xbca97a16	-0.020688098
111	0x3d5409b3	0.051767062
112	0xbe01e393	-0.12684469
113	0x3d8d9aa7	0.06914263
114	0x3d5cb41d	0.053882707
115	0xbe8b4e34	-0.27208102
116	0x3ca74c8f	0.020422248
117	0xbd2440ad	-0.040100742
118	0x3dcdd5a7	0.100505166
119	0xbe38fa61	-0.18064262
120	0xbc75d67a	-0.0150047485
121	0xbdec47b5	-0.115371145
122	0x3e33ef84	0.17571837
123	0x3ece2445	0.40262046
124	0x3b566d01	0.003271878
125	0xbc20e004	-0.0098190345
126	0x3e9db911	0.30805257
127	0x3dd199f6	0.10234444
128	0xbb2bf974	-0.0026241215
129	0x3c6bcaec	0.014391642
130	0x3e33a6fe	0.17544171
131	0x3ea8e09c	0.32983863
132	0xbdb81ef3	-0.08990278
133	0x3b556ca8	0.0032565985
134	0xbc708a97	-0.01468148
135	0xbd33bf97	-0.043883886
136	0x3dc60b45	0.09670118
137	0x3dea332c	0.114355415
138	0x3f113a56	0.5672964
139	0xbdadef4b	-0.08492907
140	0xbd567ef5	-0.05236717
141	0xbe973118	-0.29529643
142	0xbe6cb697	-0.23116527
143	0xbcc523cb	-0.024064919
144	0xbf208b52	-0.62712586
145	0xbe127485	-0.14302261
146	0x3e66c5ef	0.22536443
147	0xbcc9708a	-0.024589796
148	0x3e1219af	0.1426761
149	0x3e3f2028	0.1866461
150	0xbe32b91d	-0.17453428
151	0xbe15dda6	-0.14635333
152	0xbe8e7767	-0.27825472
153	0xbe8a0604	-0.26957715
154	0xbe3fadd4	-0.18718654
155	0xbf3b38fb	-0.7313382
156	0xbde06104	-0.10956004
157	0x3ec8496d	0.3911852
158	0xbdbc00b8	-0.091798246
159	0xbce7981d	-0.028270775
160	0x3d3cf121	0.046128396
161	0xbb47dc53	-0.0030496314
162	0xbd8dda25	-0.069263734
163	0x3e35296f	0.17691587
164	0xbe101cb3	-0.14073448
165	0xbd1a1941	-0.03762174
166	0xbe4e3d02	-0.2014046
167	0x3cdb926c	0.026803218
168	0x3e149166	0.1450859
169	0x3bd225be	0.0064131906
170	0xbeb4f21f	-0.35340974
171	0x3ceee3ae	0.0291613
172	0x3e33183d	0.17489715
173	0x3cee4f12	0.029090438
174	0x3e92119c	0.2852906
175	0xbe6a103d	-0.22857757
176	0xbd6a8fd0	-0.057266057
177	0x3c1fbcd5	0.009749611
178	0x3e8fab4c	0.28060377
179	0x3e34cdbd	0.17656608
180	0x3e2f539e	0.17121741
181	0x3dae4e8b	0.08511075
182	0x3ac39485	0.0014921582
183	0xbdb8cce7	-0.09023457
184	0xbbab316b	-0.005224397
185	0xbe8dd468	-0.27701116
186	0xbaac2267	-0.0013132811
187	0x3ca0037a	0.019532908
188	0xbd1b5f79	-0.037932847
189	0x3d84d368	0.06485635
190	0x3d8966b0	0.06709039
191	0x3eb0d03c	0.3453387
192	0x3c01eb1e	0.007929591
193	0xbcb4af62	-0.022056285
194	0x3e6dc181	0.23218347
195	0xbe1a4ed2	-0.1506913
196	0xbb1c27a3	-0.0023827336
197	0x3d3708e1	0.044686202
198	0x3d64bf9d	0.0558468
199	0xbde737ac	-0.112899154
200	0x3e50902f	0.20367502
201	0xbd5f0468	-0.05444756
202	0x3dbb1388	0.09134585
203	0xbd388d14	-0.045056418
204	0x3b9f324b	0.0048582903
205	0xbd87706a	-0.06613238
206	0xbc4df0d9	-0.01256963
207	0xbdc77b1b	-0.097402774
208	0x3e316c26	0.17326412
209	0xbd124c69	-0.0357174
210	0xbe285a3b	-0.1644067
211	0xbe07f648	-0.13277543
212	0x3d4b8d71	0.049695436
213	0x3de5f4bc	0.1122832
214	0x3d940a05	0.072284736
215	0xbed9988a	-0.4249919
216	0xbb061e05	-0.002046467
217	0x3e0d36f0	0.13790488
218	0x3e86075a	0.26177484
219	0x3cc72840	0.024311185
220	0xbe537105	-0.20648582
221	0x3cbccbf4	0.023046471
222	0xbd54fb2e	-0.051997356
223	0xbe32f57d	-0.17476459
224	0x3e15a173	0.14612369
225	0x3de3e485	0.11127571
226	0x3db7492d	0.08949504
227	0xbd1cda36	-0.03829404
228	0x3ce6d86c	0.02817937
229	0xbcb44b22	-0.022008482
230	0xbd838c17	-0.064232044
231	0xbe12252b	-0.14271991
232	0x3f4d94e3	0.8030531
233	0xbd8fee4b	-0.07027873
234	0xb98c333a	-0.00026741048
235	0xbbb1f34b	-0.005430614
236	0x3e1b3398	0.151564
237	0x3cb76cb8	0.022390708
238	0x3de85975	0.113451876
239	0x3d20e380	0.03927946
240	0x3db72339	0.08942265
241	0xbeb8b898	-0.36078334
242	0xbe4e3bd3	-0.20140009
243	0xbe9cab5c	-0.30599487
244	0x3e35f563	0.17769389
245	0xbcb723e2	-0.022355977
246	0xbe873e73	-0.26414832
247	0xbe8906e8	-0.26763082
248	0xbd7ae0a1	-0.06124938
249	0x3dd63be8	0.10460645
250	0xbd466bfb	-0.048442822
251	0xbe08ae6f	-0.13347791
252	0xbd38a05f	-0.045074817
253	0xbe4d79d0	-0.20065999
254	0xbda47636	-0.080303594
255	0xbf07af4d	-0.5300186

trunk.4.bias f4 [6]
0	0x3ced82d7	0.028993053
1	0xbe952df3	-0.2913662
2	0x3f096695	0.5367215
3	0xbff44c70	-1.9085827
4	0xbfd25cbd	-1.6434551
5	0xbfdd3076	-1.7280414
