models/Env1/TD3_256_A5_S1_P/local_episode_1650_reward_200.000000.pt (torch, 293866 bytes, 6 tensors)

linear1.weight f4 [256, 23]
-0.16690372 0.10745673 0.07923546 -0.08888215 -0.23064701 -0.12862857 0.08440662 0.08911455
-0.033456203 0.0067802095 0.05053933 -0.118968174 0.12894383 0.050504252 0.03918822 -0.015369317
-0.014345778 0.17506063 0.006020164 -0.31972364 -0.2848902 -0.30270642 0.561914 -0.05625307
-0.096628636 -0.22826758 -0.3080207 0.07145875 -0.22129078 -0.20362806 -0.02611961 -0.038020324
0.1754578 -0.12411568 -0.024638625 -0.16507807 -0.107347645 -0.14250332 0.089585826 0.05304689
-0.0066499403 0.210868 0.16664903 0.0995472 -0.07354675 -0.16570486 -0.040353335 -0.060359064
0.1601704 0.17899553 -0.2299047 0.059971783 -0.2658546 -0.0030986194 0.030705664 0.1464537
-0.12824358 -0.096506044 -0.030067977 0.18753883 0.03484465 0.14511871 -0.09639591 -0.054346494
0.11624157 0.20756644 -0.32229796 0.0950705 -0.5725361 -0.12374294 0.04166655 0.058612525
-0.017893258 -0.20825751 -0.17270799 -0.09953058 -0.053038694 -0.0023630788 -0.21712132 -0.062223386
0.12510292 0.18038176 0.13874668 -0.1325736 0.18551461 -0.080038436 -0.17766912 -0.1528391
-0.011173517 -0.09495644 -0.13740201 -0.1241023 -0.10250915 -0.052621536 -0.038088657 -0.20923723
0.030659886 -0.17609647 0.19815326 0.23364268 0.16265428 0.20067097 -0.115170136 0.1053486
-0.11411957 -0.0030581453 -0.0011207954 0.1802076 -0.033501543 -0.25901327 -0.1740787 0.16856664
0.15005498 -0.2648157 -0.3807301 -0.34102714 -0.19153371 -0.22728921 0.18767731 -0.11842562
-0.10219722 -0.27120712 -0.07134691 0.010982336 -0.011343861 -0.089818016 0.21279924 -0.03819033
0.18648341 0.21405047 0.042821325 0.043871336 -0.22534777 0.14462005 0.07801688 -0.045806393
0.55728054 -0.4199643 0.20834127 -0.09046046 0.1341705 0.18264078 0.07142648 -0.13444637
0.088202 0.07582467 -0.012927639 -0.0645201 -0.070449874 -0.05884097 0.13260531 -0.11828583
0.19570577 0.0051644924 0.10799684 -0.025990937 -0.11641358 0.04967942 0.1445465 0.15574037
-0.7510277 -0.05369336 0.0817729 -0.023374153 0.07671782 0.11867386 0.013701762 -0.03342923
-0.19066723 0.14851244 -0.1554164 0.028603144 -0.10576233 0.09066058 -0.27962622 -0.33450988
-0.29953608 -0.10358225 -0.065563224 -0.20013994 0.08645394 -0.5740681 0.31567153 0.2064293
0.050891694 -0.26624888 -0.27811378 0.09878471 -0.12066969 -0.012804329 0.15332784 -0.01921423
0.053799566 -0.23209062 -0.19769314 0.119184114 -0.10520359 0.046975054 -0.023737106 0.15713556
0.14812468 -0.062022366 -0.09990075 -0.08355612 0.022299455 0.32117328 0.99566495 -0.33221054
-0.24691874 -0.20762518 -0.11952579 -0.12534022 0.034061063 0.031583 -0.08559197 0.17035604
0.26218936 0.008356251 0.06811818 0.29057416 0.13374077 -0.020044383 -0.005588356 -0.086496465
-0.0075746714 0.12851268 -0.08158012 -0.120650634 0.1830956 0.05129671 -0.092427604 0.11688287
0.10815792 -0.2065432 -0.03514185 0.01610575 -0.059019495 0.19933875 -0.16717184 -0.2035282
0.06223555 -0.19949917 -0.17063765 0.13076906 0.10113357 -0.11704904 -0.07807936 0.023669243
0.17180884 -0.11085061 0.03647179 0.20647329 0.047569208 -0.20600618 -0.29304856 -0.17692441
00000000: cfe8 2abe 4612 dc3d 3346 a23d d807 b6bd
00000010: bb2e 6cbe 35b7 03be 61dd ac3d b081 b63d
00000020: 5f09 09bd 852c de3b 5402 4f3d 96a5 f3bd
00000030: da09 043e 8cdd 4e3d d483 203d 96cf 7bbc
00000040: 8e0a 6bbc 1843 333e cc44 c53b d1b2 a3be
00000050: 21dd 91be 56fc 9abe 99d9 0f3f 9e69 66bd
00000060: 3ce5 c5bd fabe 69be e4b4 9dbe f758 923d
00000070: 0d9a 62be e083 50be cbf8 d5bc 33bb 1bbd
00000080: 36ab 333e 5d30 febd f1d6 c9bc 3a0a 29be
00000090: 15d9 dbbd 64ec 11be c678 b73d b247 593d
000000a0: bee7 d9bb c8ed 573e 0ba6 2a3e 67df cb3d
000000b0: ae9f 96bd 89ae 29be 8a49 25bd 113b 77bd
000000c0: b603 243e 9b4a 373e 236c 6bbe f9a4 753d
000000d0: 181e 88be 3512 4bbb 728a fb3c f5f7 153e
000000e0: 4952 03be f6a4 c5bd 1e51 f6bc 2e0a 403e
000000f0: 44b9 0e3d 009a 143e 386b c5bd 6e9a 5ebd
00000100: 0f10 ee3d 4c8c 543e 3d04 a5be 53b4 c23d
00000110: ba91 12bf f06c fdbd 8baa 2a3d b013 703d
00000120: e294 92bc 7541 55be 5dda 30be b0d6 cbbd
00000130: 1a3f 59bd e2dd 1abb 0d55 5ebe f3dd 7ebd
00000140: fb1a 003e ffb5 383e 9c13 0e3e 60c1 07be
00000150: 8bf7 3d3e 31eb a3bd e5ee 35be da81 1cbe
00000160: 2111 37bc 8678 c2bd 1db3 0cbe 5929 febd
00000170: 51f0 d1bd ae89 57bd da02 1cbd 4942 56be
00000180: 712a fb3c a252 34be b0e8 4a3e 0740 6f3e
00000190: d88e 263e b17c 4d3e 52de ebbd 02c1 d73d
000001a0: 85b7 e9bd 2a6b 48bb a7e7 92ba 5788 383e
000001b0: ea38 09bd 639d 84be b041 32be bc9c 2c3e
000001c0: 03a8 193e ec95 87be 0eef c2be 1c9b aebe
000001d0: 6a21 44be 81be 68be 7b2e 403e 2289 f2bd
000001e0: c74c d1bd a9db 8abe 541e 92bd 41ef 333c
000001f0: 9adb 39bc 82f2 b7bd 0be8 593e 776d 1cbd
00000200: 82f5 3e3e 0c30 5b3e 6a65 2f3d 6eb2 333d
00000210: 91c1 66be 4717 143e 50c7 9f3d 7c9f 3bbd
00000220: f0a9 0e3f 9005 d7be 6a57 553e 5543 b9bd
00000230: fe63 093e 2f06 3b3e 0c48 923d 4fac 09be
00000240: 40a3 b43d f749 9b3d 73ce 53bc 1d23 84bd
00000250: 0648 90bd 3b03 71bd b0c9 073e d73f f2bd
00000260: 1867 483e e73a a93b 722d dd3d f2ea d4bc
00000270: 3e6a eebd a67c 4b3d ff03 143e 677a 1f3e
00000280: 5a43 40bf 92ed 5bbd 8d78 a73d 277b bfbc
00000290: 3b1e 9d3d 480b f33d 5b7d 603c 17ed 08bd
000002a0: 453e 43be a513 183e 7a25 1fbe 2451 ea3c
000002b0: ec99 d8bd 41ac b93d 2b2b 8fbe e144 abbe
000002c0: cb5c 99be ee22 d4bd 0346 86bd 7cf1 4cbe
000002d0: c30e b13d 21f6 12bf b39f a13e 3462 533e
000002e0: cf73 503d c651 88be ee64 8ebe a34f ca3d
000002f0: ac21 f7bd 40c9 51bc f901 1d3e 2967 9dbc
00000300: ef5c 5c3d 2aa9 6dbe 1270 4abe cd16 f43d
00000310: fb74 d7bd ea68 403d 5274 c2bc 25e8 203e
00000320: ffad 173e 2a0b 7ebd c498 ccbd 791f abbd
00000330: 59ad b63c d370 a43e e6e3 7e3f 8017 aabe
00000340: 44d8 7cbe b29b 54be f0c9 f4bd 3059 00be
00000350: 9d83 0b3d 2d5d 013d d84a afbd d071 2e3e
00000360: af3d 863e a8e8 083c 8b81 8b3d 23c6 943e
00000370: 57f3 083e 1e34 a4bc 871e b7bb 0f25 b1bd
00000380: f334 f8bb d498 033e 7a13 a7bd ae17 f7bd
00000390: 6a7d 3b3e 801c 523d af4a bdbd 4960 ef3d
000003a0: e681 dd3d 1080 53be e7f0 0fbd 35f0 833c
000003b0: 6dbe 71bd 751f 4c3e 182f 2bbe b269 50be
000003c0: b4ea 7e3d 8349 4cbe a3bb 2ebe 53e8 053e
000003d0: 1e1f cf3d 68b7 efbd 12e8 9fbd 00e6 c13c
000003e0: a8ee 2f3e a505 e3bd 7263 153d bc6d 533e
000003f0: eed7 423d 49f3 52be 760a 96be ac2b 35be

linear1.bias f4 [256]
0.06267363 0.03750621 -0.03206211 0.065161735 0.08603378 0.040534873 -0.07580886 -0.14002304
0.10998029 0.14618677 0.14820226 -0.043149315 -0.09919247 0.006782278 0.070784666 -0.026103374
-0.14535555 -0.12858774 -0.042552877 -0.19011135 -0.044883642 -0.06764052 0.16793336 0.08120101
-0.11461241 -0.08326588 0.020354414 0.047249183 0.002131631 -0.03736373 -0.1710604 0.13314663
0.15112583 -0.0010499347 -0.1347166 0.14649552 -0.20977587 -0.10367851 0.044780742 0.0771137
-0.18128313 -0.16973343 -0.20690806 -0.082904 0.014508277 0.06936852 0.18144834 0.10148242
-0.26683104 -0.07728341 -0.015623627 -0.12689891 0.003809063 -0.10697816 0.06847902 0.11057933
0.13767436 0.0170176 -0.055765368 0.060966045 -0.14947654 0.015035073 -0.042207014 -0.03729051
-0.14641656 0.11864808 -0.21975102 -0.005796146 0.010629007 0.06789267 -0.19388746 0.055344384
-0.09050802 0.1650462 0.12827833 -0.18780017 0.05130423 -0.002389138 -0.09510529 -0.05322168
-0.22596672 -0.0029714168 -0.14823444 0.09093693 0.05387946 0.19011226 -0.12675658 -0.0983594
-0.09012869 0.21130505 0.10986443 -0.02479423 0.057701968 0.16740188 -0.15302691 -0.1728928
0.0033472558 -0.12574877 0.029191248 -0.08556004 -0.0015032279 0.08862409 -0.13635367 0.16452377
-0.17585576 -0.18265818 0.18408969 0.13891138 -0.1654534 -0.13352892 -0.12611715 -0.049332336
-0.12985146 0.102594234 0.04147502 -0.03228252 -0.23071826 0.1804319 0.13107565 0.10905817
0.024185082 0.11225261 0.03704312 0.16282918 -0.089262605 -0.13025276 -0.088564076 0.06859763
0.09654904 0.072646126 -0.16196986 -0.043360993 0.021076761 -0.11342344 -0.07051264 -0.1736105
-0.13116796 -0.023224322 -0.16325793 0.13777894 -0.048149038 -0.18121915 -0.18147789 0.013268348
0.025508534 -0.05429336 0.024175767 0.045759887 -0.058371834 -0.0957132 -0.14233631 0.11528422
0.044508062 -0.04828822 0.09777557 -0.087505 0.17213602 -0.081962354 0.16027151 -0.03074639
0.1282013 0.031353153 -0.05571723 -0.09465616 0.03838761 -0.16635062 0.052492306 -0.14567794
0.073397785 0.20662005 -0.14525512 0.1345081 0.008530558 -0.13698114 0.18508917 0.07018055
0.043056153 0.10905582 0.08383982 0.0022536342 -0.044184644 0.1531655 0.025361203 -0.05601804
-0.08122222 0.03664577 -0.01591157 0.04335526 -0.11018849 0.032376524 -0.09574764 0.06313195
0.008872566 -0.2784436 0.016619865 -0.08439779 -0.118850924 -0.05797605 0.056146465 0.100698255
0.039570346 0.17992027 -0.09741887 0.06298635 0.14689277 0.07269905 -0.03513872 -0.050446626
-0.028786922 -0.20931193 -0.01797239 0.189274 -0.18903495 0.014391464 0.08712049 0.18860662
-0.19011904 0.04379039 -0.0846113 0.11995341 -0.0786537 -0.053001817 -0.16814262 0.048615567
0.10670118 -0.01483799 -0.0019817185 -0.007624494 0.07014085 -0.12765913 -0.26101267 -0.15202607
-0.027347272 0.04352927 0.08019184 -0.16853283 0.10824974 0.07522523 -0.04146421 -0.21818951
0.19172987 0.0019092424 0.06608032 -0.108000994 -0.18219247 -0.13612935 -0.066327706 -0.076142885
0.004249873 0.12732038 -0.15830581 -0.09931758 0.112958014 0.17881887 -0.24977408 0.051697627
00000000: 085b 803d 1da0 193d 8f53 03bd 8473 853d
00000010: 7a32 b03d e507 263d ad41 9bbd 3362 0fbe
00000020: 593d e13d fcb1 153e 55c2 173e 56bd 30bd
00000030: 6c25 cbbd df3d de3b 8df7 903d bed6 d5bc
00000040: 16d8 14be 81ac 03be ed4b 2ebd 8dac 42be
00000050: e9d7 37bd 1d87 8abd b9f6 2b3e b74c a63d
00000060: e9b9 eabd 4d87 aabd 4dbe a63c 5c88 413d
00000070: d5b2 0b3b b60a 19bd 752a 2fbe 9757 083e
00000080: bbc0 1a3e f69d 89ba 26f3 09be ec02 163e
00000090: 7ccf 56be 6655 d4bd 036c 373d caed 9d3d
000000a0: 49a2 39be 9ace 2dbe b5df 53be 93c9 a9bd
000000b0: 20b4 6d3c 1511 8e3d 98cd 393e 04d6 cf3d
000000c0: 149e 88be c446 9ebd 3efa 7fbc caf1 01be
000000d0: 79a1 793b 5e17 dbbd ba3e 8c3d 6a77 e23d
000000e0: 82fa 0c3e 7e68 8b3c 3a6a 64bd 88b7 793d
000000f0: 6110 19be ab55 763c 43e1 2cbd efbd 18bd
00000100: 39ee 15be c4fd f23d 6906 61be 99ed bdbb
00000110: 4925 2e3c 500b 8b3d 6f8a 46be cbb0 623d
00000120: 455c b9bd df01 293e 655b 033e b04e 40be
00000130: 6224 523d 1693 1cbb 90c6 c2bd fafe 59bd
00000140: d263 67be 1abc 42bb c5ca 17be 243d ba3d
00000150: b5b0 5c3d caac 423e 7acc 01be a770 c9bd
00000160: 6495 b8bd 5a60 583e 9a00 e13d 451d cbbc
00000170: e658 6c3d 666b 2b3e 16b3 1cbe cf0a 31be
00000180: a25d 5b3b 49c4 00be 7c22 ef3c 1a3a afbd
00000190: f507 c5ba 8c80 b53d 4ca0 0bbe eb78 283e
000001a0: 8813 34be bf0a 3bbe 0282 3c3e c93e 0e3e
000001b0: 9e6c 29be cebb 08be db24 01be b410 4abd
000001c0: c8f7 04be ed1c d23d b6e1 293d ad3a 04bd
000001d0: 6841 6cbe 24c3 383e b238 063e e459 df3d
000001e0: cb1f c63c b2e4 e53d 87ba 173d b1bc 263e
000001f0: 50cf b6bd fb60 05be 1561 b5bd ea7c 8c3d
00000200: 81bb c53d 7ec7 943d 6ddb 25be 4c9b 31bd
00000210: 2ca9 ac3c 8c4a e8bd ee68 90bd f3c6 31be
00000220: e550 06be ef40 bebc 162d 27be ec15 0d3e
00000230: ed37 45bd 8391 39be 57d5 39be 7c63 593c
00000240: 46f7 d03c b762 5ebd 420c c63c b86e 3b3d
00000250: 4e17 6fbd 4805 c4bd 9cc0 11be 221a ec3d
00000260: 164e 363d dec9 45bd 8f3e c83d d235 b3bd
00000270: 6d44 303e e1db a7bd 371e 243e dadf fbbc
00000280: 3447 033e 2a6c 003d c037 64bd 17db c1bd
00000290: 543c 1d3d d157 2abe 2c02 573d 992c 15be
000002a0: 9451 963d 3594 533e c2bd 14be 7ebc 093e
000002b0: c1c3 0b3c c944 0cbe 0488 3d3e d2ba 8f3d
000002c0: a65b 303d a858 df3d 36b4 ab3d b5b1 133b
000002d0: f5fa 34bd 6bd7 1c3e 4cc2 cf3c 2c73 65bd
000002e0: d657 a6bd e019 163d fb58 82bc 4995 313d
000002f0: 81aa e1bd 3f9d 043d 5717 c4bd 534b 813d
00000300: 3d5e 113c 2990 8ebe 6226 883c c0d8 acbd
00000310: 1d68 f3bd 4b78 6dbd d6f9 653d e33a ce3d
00000320: 8414 223d 053d 383e 8b83 c7bd fdfe 803d
00000330: 0f6b 163e 3de3 943d 9eed 0fbd 1fa1 4ebd
00000340: 8dd2 ebbc de55 56be d53a 93bc 0bd1 413e
00000350: 6192 41be 2dca 6b3c 3a6c b23d 1822 413e
00000360: 91ae 42be 8d5d 333d b048 adbd 22aa f53d
00000370: 3115 a1bd 6f18 59bd 942d 2cbe 1e21 473d
00000380: 2686 da3d 0a1b 73bc b8df 01bb e4d6 f9bb
00000390: 02a6 8f3d 13b9 02be 74a3 85be b9ac 1bbe
000003a0: 6307 e0bc bf4b 323d 9f3b a43d df93 2cbe
000003b0: 0ab2 dd3d af0f 9a3d 60d6 29bd 126d 5fbe
000003c0: d654 443e 8b3f fa3a 1e55 873d a02f ddbd
000003d0: aa90 3abe 7e65 0bbe d2d6 87bd cdf0 9bbd
000003e0: 8542 8b3b 4660 023e eb1a 22be 0467 cbbd
000003f0: 8856 e73d 4b1c 373e c7c4 7fbe e4c0 533d

linear2.weight f4 [256, 256]
0.049919613 -0.06264488 0.019821074 -0.01283963 0.018530898 -0.045907952 -0.05376797 0.031132556
-0.06934004 -0.066114545 0.024171188 -0.042097505 -0.03464812 -0.022988223 -0.022441074 0.006562763
-0.08973717 -0.04142155 0.030824529 -0.042995833 0.029893965 -0.036216967 0.013833016 -0.024195291
0.010402458 0.047487795 0.016211368 -0.06556309 -0.02384425 0.034191027 0.013727449 0.010200247
0.012116753 0.00957361 -0.0114392545 0.033489447 -0.060096808 -0.02942606 -0.0020001575 0.011247862
-0.025446225 -0.056179877 0.06061212 -0.050236844 0.005848892 0.008685194 0.045017686 0.008568014
0.031456467 -0.040849857 -0.010516418 -0.038686305 -0.038555633 -0.08822845 -0.024887063 -0.014435082
-0.03771607 -0.009598733 -0.055865187 0.01898588 0.04801802 0.012733452 0.010038346 -0.0629916
-0.029332476 -0.047001712 -0.057882506 0.011919305 0.0044865534 0.01164224 0.018646076 -0.015362767
-0.00064895174 0.057595268 -0.03466797 -0.013642277 -0.025627926 0.027336514 0.032117028 -0.049017973
0.04000991 0.03632127 0.041604117 -0.06425528 -0.012627557 0.029161755 0.038810354 -0.045651108
-0.035334952 -0.048404843 -0.013242013 -0.050059363 0.031104887 -0.00054378243 -0.062517196 -0.017501492
0.041491464 0.059191033 -0.027865835 -0.049906887 -0.020718142 0.05030912 0.04117579 -0.055679377
-0.005593255 0.031053305 -0.07290497 0.020280011 -0.036435306 -0.06382184 -0.059723385 0.045800004
-0.016965315 -0.047459397 0.032073736 -0.01571667 0.008401902 0.015228795 -0.06784829 0.0285874
-0.046491127 -0.056414574 0.041372083 -0.07107927 0.016091714 -0.019722266 0.043827705 -0.05726343
-0.061436143 0.056628883 -0.0435672 -0.058288433 -0.053992588 0.018577874 0.0020943433 -0.033696204
-0.031306613 -0.057162117 -0.00909812 -0.031173956 -0.0019311681 0.021317564 -0.038401358 -0.09263714
-0.02810975 -0.053225357 0.019790038 -0.03302349 -0.008068105 -0.061051182 -0.026325334 -0.04014993
0.0075101554 0.055107042 0.028533347 -0.034793325 -0.094981425 -0.058227167 -0.013789877 0.026840616
-0.0101713985 0.031202398 -0.038909756 -0.027728934 0.038072683 0.024335008 -0.0054465607 0.030268364
0.028029796 -0.07536709 -0.09487068 -0.049242046 -0.051393025 -0.07299391 -0.056012973 -0.025445268
0.002692178 -0.075912364 -0.0448011 -0.04235522 -0.050365053 0.02425359 0.057791803 0.038009226
0.015823158 -0.020368446 -0.009334094 0.020622259 -0.06105492 -0.033196528 -0.055272527 -0.045357544
-0.0046361387 0.0033224523 -0.057028115 -0.05365628 -0.01854311 0.014412329 0.022329522 -0.035810858
-0.0519954 0.040049367 0.047561683 -0.04046859 0.024692519 -0.033707693 0.005390756 0.008226512
-0.03134136 -0.047618233 0.022913484 0.015231094 0.041685 0.05255411 -0.02316841 -0.0013297423
0.0457587 -0.028860912 -0.012462026 -0.03768637 -0.024333015 0.0058459635 0.016317226 -0.04723612
0.03272147 0.0392917 -0.06730171 -0.012173453 0.040461514 -0.03232978 -0.021642972 -0.03864766
-0.0004917234 0.022887498 0.07856361 0.04827313 0.026739977 -0.062460303 -0.028296515 -0.07935821
0.025252318 -0.033921905 0.011409466 -0.07110306 0.0075305714 -0.044488743 0.042399064 0.021824596
-0.02678704 0.05174572 0.010278912 0.04095473 0.054774515 0.0063542724 -0.019014684 -0.027027655
00000000: 8278 4c3d f54b 80bd ce5f a23c 505d 52bc
00000010: 1cce 973c fa09 3cbd ce3b 5cbd b409 ff3c
00000020: 2702 8ebd 1067 87bd a802 c63c 6f6e 2cbd
00000030: 30eb 0dbd cc51 bcbc 58d6 b7bc 720c d73b
00000040: 1fc8 b7bd a5a9 29bd b983 fc3c 661c 30bd
00000050: 30e4 f43c 3e58 14bd e0a3 623c 3435 c6bc
00000060: 126f 2a3c 9082 423d b4cd 843c f145 86bd
00000070: 0455 c3bc e40b 0c3d 18e9 603c f01e 273c
00000080: 5885 463c a1da 1c3c b66b 3bbc 3b2c 093d
00000090: 1228 76bd ec0e f1bc 1315 03bb f448 383c
000000a0: 9a74 d0bc df1c 66bd 6a44 783d 26c5 4dbd
000000b0: 10a8 bf3b 584c 0e3c 7764 383d db60 0c3c
000000c0: 7fd8 003d 2e52 27bd 0e4d 2cbc 8875 1ebd
000000d0: 83ec 1dbd 1eb1 b4bd f4df cbbc 1f81 6cbc
000000e0: 2a7c 1abd 0144 1dbc e5d2 64bd 4788 9b3c
000000f0: 8bae 443d f89f 503c e077 243c bd01 81bd
00000100: a94a f0bc de84 40bd 3516 6dbd 3049 433c
00000110: f003 933b 18bf 3e3c a8bf 983c 1db4 7bbc
00000120: 6a1e 2aba 04e9 6b3d 0000 0ebd db83 5fbc
00000130: a8f1 d1bc d3f0 df3c 258d 033d 12c7 48bd
00000140: 6ee1 233d 9dc5 143d 1469 2a3d 4698 83bd
00000150: d0e3 4ebc a2e4 ee3c 9bf7 1e3d a8fc 3abd
00000160: 62bb 10bd 2844 46bd 07f5 58bc 0c0b 4dbd
00000170: adcf fe3c 9f8c 0eba 0409 80bd 4a5f 8fbc
00000180: f4f2 293d 4c72 723d e446 e4bc 2a6b 4cbd
00000190: 18b9 a9bc f010 4e3d f2a7 283d 0f10 64bd
000001a0: a047 b7bb 8063 fe3c 334f 95bd 4422 a63c
000001b0: 303d 15bd 06b5 82bd 82a0 74bd c998 3b3d
000001c0: d8fa 8abc c964 42bd c05f 033d 3fc0 80bc
000001d0: 22a8 093c 3282 793c 0bf4 8abd 2030 ea3c
000001e0: 7b6d 3ebd f812 67bd c675 293d 0292 91bd
000001f0: c5d2 833c 9790 a1bc ae84 333d 0f8d 6abd
00000200: 77a4 7bbd b0f3 673d 8573 32bd dabf 6ebd
00000210: 5527 5dbd a030 983c 4041 093b 0805 0abd
00000220: 5d3b 00bd d322 6abd 4810 15bc 8660 ffbc
00000230: 401f fdba 2ca2 ae3c be4a 1dbd 8ab8 bdbd
00000240: 6b46 e6bc d502 5abd b81e a23c a443 07bd
00000250: 1630 04bc ce10 7abd 3aa8 d7bc 4174 24bd
00000260: c017 f63b ecb7 613d c4be e93c 7283 0ebd
00000270: 9f85 c2bd 9c7f 6ebd f0ee 61bc dae0 db3c
00000280: f0a5 26bc 2c9c ff3c d65f 1fbd ca27 e3bc
00000290: 1af2 1b3d 365a c73c 1079 b2bb 5cf5 f73c
000002a0: be9e e53c 105a 9abd 8f4b c2bd 07b2 49bd
000002b0: 7e81 52bd d57d 95bd dc6d 65bd 9872 d0bc
000002c0: 406f 303b f177 9bbd 5c81 37bd ab7c 2dbd
000002d0: 964b 4ebd 77af c63c 19b7 6c3d 90af 1b3d
000002e0: 919f 813c badb a6bc 07ee 18bc 03f0 a83c
000002f0: b914 7abd 15f9 07bd 7265 62bd d5c8 39bd
00000300: c0ea 97bb 80bd 593b 5096 69bd b0c6 5bbd
00000310: b8e7 97bc b021 6c3c 67ec b63c 68ae 12bd
00000320: 21f9 54bd ce0a 243d 0ad0 423d 64c2 25bd
00000330: f747 ca3c 1411 0abd f0a4 b03b 7ec8 063c
00000340: cc5f 00bd 560b 43bd 0fb5 bb3c d78b 793c
00000350: e4bd 2a3d fa42 573d adcb bdbc bf4a aeba
00000360: 7a6d 3b3d b86d ecbc 872d 4cbc 065d 1abd
00000370: 0856 c7bc 7f8f bf3b b4ab 853c a97a 41bd
00000380: f306 063d 55f0 203d 7bd5 89bd 2a73 47bc
00000390: f9ba 253d 3b6c 04bd 9a4c b1bc 024d 1ebd
000003a0: 00e7 00ba 907e bb3c f5e5 a03d 0cba 453d
000003b0: cc0d db3c 60d6 7fbd 18ce e7bc 8f86 a2bd
000003c0: f3dd ce3c b2f1 0abd c5ee 3a3c 7b9e 91bd
000003d0: 03c3 f63b d439 36bd a4aa 2d3d 7fc9 b23c
000003e0: 7f70 dbbc 52f3 533d e268 283c 26c0 273d
000003f0: 3e5b 603d 8037 d03b afc4 9bbc 1a69 ddbc

linear2.bias f4 [256]
-0.08374059 -0.063884474 0.004275392 -0.043178543 -0.043948874 0.035992514 -0.09132551 -0.0012253703
0.07163526 -0.18048225 -0.016961556 -0.13909858 -0.017293017 0.0053371573 0.06689231 0.043582905
-0.018298892 -0.13277243 -0.105254985 -0.036686383 -0.047560297 -0.07678889 -0.045448918 0.015641192
0.053849876 -0.028098319 0.04240953 -0.016900616 -0.08412555 -0.014969377 0.012451635 -0.07175481
-0.059430864 -0.027169231 0.0460632 -0.06556151 -0.0874892 -0.0013129852 -0.07047741 -0.007799928
0.053579215 -0.017871583 -0.025346866 0.022941312 0.025117269 0.16213666 -0.05578215 -0.042801503
-0.07854301 -0.07256062 0.029667111 -0.09290983 -0.105139814 -0.024680344 0.032245968 -0.014671112
-0.026352298 -0.052632157 0.00077489304 -0.07863544 -0.09596007 -0.0727947 -0.1248967 -0.10708162
0.0029629837 0.04013687 -0.0007890667 -0.11292846 0.18357585 0.039996896 0.07724637 -0.031198967
0.009087223 0.105576776 -0.10864399 -0.15809527 0.0011350671 -0.02110801 -0.08364064 -0.093639776
-0.04435375 0.065679625 0.0154271405 0.019049034 0.07353587 0.010472782 0.0267639 -0.06638174
0.032577172 -0.16566981 -0.084528126 0.07041044 0.02714668 -0.13566917 -0.028684607 -0.05304912
-0.022542823 -0.047057766 -0.044548914 -0.13458702 -0.07085915 -0.061414033 0.0064560855 -0.024619149
-0.0018695607 -0.109003276 -0.0363274 -0.047637977 0.15117285 -0.12986745 -0.13188569 0.01382442
-0.16975364 0.012617929 -0.025011212 -0.048557848 -0.21165082 0.003280433 0.062589675 0.07754272
0.024296816 0.019397797 -0.03923016 -0.035481304 0.008030507 -0.14995392 -0.067779854 -0.02159418
-0.00015380708 0.070801295 -0.12326769 -0.054868553 0.108187824 -0.04612942 -0.010793365 -0.0097413175
-0.13534944 -0.19595332 -0.019437166 0.039639913 -0.055028044 -0.06154122 -0.09184772 -0.09567784
0.030141931 -0.25375888 0.113249995 -0.01114012 -0.028948728 -0.01522283 -0.027079506 -0.06641613
-0.104861155 -0.0038105021 -0.02282072 0.02406105 -0.06519948 -0.06170668 -0.007599898 0.062361963
-0.0936957 -0.066527165 -0.034076452 -0.029134214 -0.03611635 0.074425235 0.022966195 -0.09304526
0.024470998 -0.10838386 -0.017056704 -0.034810968 -0.0746699 -0.181185 -0.015883185 -0.09476707
-0.063687846 0.026511634 -0.030750448 -0.0094247935 -0.20221318 -0.033792805 -0.04256407 -0.07061873
-0.055184755 -0.00873262 0.001999973 0.06329985 -0.17556086 -0.07483526 0.06095399 0.0102769155
-0.008980018 0.029814612 -0.07399975 -0.052137967 -0.067561194 -0.056085553 0.002175293 -0.0091911
0.019337507 0.020374369 -0.08725589 -0.06983231 -0.098482355 -0.06105114 0.06500006 0.055226237
-0.032438844 -0.021651288 0.009590072 0.02165864 -0.039072037 0.10858165 -0.11693252 -0.044828255
0.01585336 -0.06705439 -0.14322984 -0.07204243 -0.0060575865 -0.002294602 0.13926129 0.022272015
0.029132485 -0.08685601 -0.028478194 -0.05981794 0.045812067 -0.063295044 0.013293701 -0.027935643
0.06555964 0.04839701 0.0236417 -0.060664695 -0.03619816 0.086774595 0.042302337 -0.06633822
0.011478057 0.0017163235 -0.10389244 0.066269934 0.013851854 -0.089629956 -0.042190988 0.028925797
-0.08351185 0.12884252 0.06426839 0.024599 0.09080233 -0.07200521 -0.0738685 0.0006038162
00000000: 3080 abbd ddd5 82bd 9618 8c3b fcdb 30bd
00000010: bc03 34bd e36c 133d de08 bbbd 9b9c a0ba
00000020: 82b5 923d 57d0 38be f6f2 8abc dc6f 0ebe
00000030: 16aa 8dbc 52e3 ae3b d6fe 883d fd83 323d
00000040: 8fe7 95bc 7ff5 07be ed8f d7bd 7644 16bd
00000050: 96ce 42bd 7e43 9dbd a528 3abd f521 803c
00000060: b091 5c3d 722e e6bc 9eb5 2d3d 2973 8abc
00000070: 044a acbd 1e42 75bc f101 4c3c 30f4 92bd
00000080: c76d 73bd 0292 debc c4ac 3c3d 1d45 86bd
00000090: 8a2d b3bd 7918 acba 7656 90bd 8a96 ffbb
000000a0: e175 5b3d 6d67 92bc 3ba4 cfbc 6bef bb3c
000000b0: bbc2 cd3c 2707 263e d37b 64bd a150 2fbd
000000c0: 28db a0bd aa9a 94bd 7108 f33c 8247 bebd
000000d0: 8b53 d7bd 6f2e cabc 5914 043d 1b5f 70bc
000000e0: c6e0 d7bc d194 57bd 3122 4b3a 9e0b a1bd
000000f0: b786 c4bd 6315 95bd d7c9 ffbd 9c4d dbbd
00000100: 9e2e 423b 8f66 243d 5fd9 4eba 0947 e7bd
00000110: 4ffb 3b3e c9d3 233d 5833 9e3d fa94 ffbc
00000120: 93e2 143c a338 d83d bd80 debd bae3 21be
00000130: 88c6 943a b5ea acbc c94b abbd 36c6 bfbd
00000140: 47ac 35bd 0a83 863d 1ec2 7c3c b80c 9c3c
00000150: f999 963d 0896 2b3c f73f db3c 26f3 87bd
00000160: a46f 053d 59a5 29be 151d adbd 5933 903d
00000170: b762 de3c dcec 0abe fbfb eabc 094a 59bd
00000180: baab b8bc a5bf 40bd ec78 36bd 2ed1 09be
00000190: 9a1e 91bd 488d 7bbd 928d d33b 19ae c9bc
000001a0: 0c0c f5ba 1c3d dfbd 0acc 14bd 0a20 43bd
000001b0: 0ecd 1a3e f9fb 04be 0b0d 07be d27f 623c
000001c0: e6d3 2dbe 6ebb 4e3c 50e4 ccbc 98e4 46bd
000001d0: feba 58be 88fc 563b 042f 803d b8ce 9e3d
000001e0: 1e0a c73c 21e8 9e3c ceaf 20bd d854 11bd
000001f0: 6392 033c 858d 19be 2ad0 8abd 47e6 b0bc
00000200: 4647 21b9 4500 913d c573 fcbd d9bd 60bd
00000210: 9491 dd3d 34f2 3cbd a7d6 30bc 0c9a 1fbc
00000220: 0b99 0abe fda7 48be b13a 9fbc 765d 223d
00000230: 1665 61bd a512 7cbd a81a bcbd bef2 c3bd
00000240: 36ec f63c afec 81be 9def e73d 0d85 36bc
00000250: e225 edbc 2d69 79bc d7d5 ddbc 2e05 88bd
00000260: 72c1 d6bd 9eb9 79bb 85f2 babc ae1b c53c
00000270: 4e87 85bd 25c0 7cbd 9108 f9bb 426f 7f3d
00000280: 88e3 bfbd 653f 88bd c093 0bbd e0aa eebc
00000290: bdee 13bd 426c 983d 9a23 bc3c 838e bebd
000002a0: 6777 c83c 5bf8 ddbd 80ba 8bbc f295 0ebd
000002b0: 88ec 98bd 9088 39be 741d 82bc 3d15 c2bd
000002c0: c66e 82bd ed2e d93c 5de8 fbbc 736a 1abc
000002d0: f910 4fbe 536a 0abd aa57 2ebd 8da0 90bd
000002e0: 6909 62bd 4313 0fbc fb11 033b 5aa3 813d
000002f0: 3ac6 33be 3b43 99bd e4aa 793d 8260 283c
00000300: ed20 13bc c63d f43c 2e8d 97bd 9f8e 55bd
00000310: 865d 8abd f7b9 65bd 5c8f 0e3b 4496 16bc
00000320: b169 9e3c 26e8 a63c 37b3 b2bd 3e04 8fbd
00000330: 1eb1 c9bd c310 7abd c01e 853d e834 623d
00000340: 98de 04bd 0b5e b1bc ad1f 1d3c 766d b13c
00000350: 000a 20bd 0e60 de3d 517a efbd d59d 37bd
00000360: e8de 813c d053 89bd d8aa 12be fb8a 93bd
00000370: b87e c6bb 0961 16bb 839a 0e3e cd73 b63c
00000380: 40a7 ee3c 90e1 b1bd 1a4b e9bc a803 75bd
00000390: 6fa5 3b3d d5a0 81bd d3cd 593c 4ad9 e4bc
000003a0: 2244 863d f13b 463d 3dac c13c 8b7b 78bd
000003b0: 8644 14bd e1b6 b13d 3745 2d3d 55dc 87bd
000003c0: 760e 3c3c 43f6 e03a 8fc5 d4bd 88b8 873d
000003d0: e3f2 623c e98f b7bd 75d0 2cbd cbf5 ec3c
000003e0: 4308 abbd 4bef 033e 259f 833d d883 c93c
000003f0: 92f6 b93d 7877 93bd 5e48 97bd 6b49 1e3a

linear3.weight f4 [3, 256]
-0.007902727 -0.04156 0.023096086 0.4103457 0.098673515 -0.052547254 0.10708708 0.14108211
0.26002887 -0.3749369 0.02267715 -0.71962816 -0.025804805 -0.010431193 0.89903 0.5408807
0.103935584 -0.7436434 -0.041896466 -0.050350204 -0.32734329 -0.03723211 0.05398882 -0.44866794
0.23011702 0.019014942 -0.17377545 -0.049188808 -0.12679975 0.17452493 -0.013235971 -0.061615147
-0.4169359 -0.023266286 0.30659226 -1.186132 0.036729682 -0.0023038893 0.009862572 -0.005652971
0.05139247 -0.40282872 -0.025497008 0.008779664 0.36556086 0.30920282 -0.8180718 -0.04953538
-0.20797649 -0.36975345 -0.087826416 -0.033867072 0.20417777 -0.33606872 -0.0013574433 -0.106590465
-0.9541837 -0.060781352 0.15505262 -0.0070103556 0.023426918 -0.031361356 0.6084809 0.23236565
0.038847588 -0.05797808 -0.032747984 0.310194 0.005475841 -0.048189424 -0.99916446 0.35772377
-0.32607487 0.11845231 -0.42306024 -1.7941831 -0.02887326 0.043213036 0.26131114 -0.36925334
-0.12139317 -0.20920974 -0.093700275 -0.5103039 0.4387137 0.009510444 0.31155595 0.013604189
0.019148046 1.1960247 -0.19824107 0.23761533 -0.045710064 0.6935424 0.004047363 -0.5529978
0.020351976 0.0582807 0.05425611 -0.58029026 0.037439596 -0.4763184 -0.012096052 -0.26233137
-0.018688899 -0.9139956 0.33904627 0.14961834 0.2582172 -0.22219045 0.2225507 0.33265084
-0.7045882 -0.2180148 0.39107436 -0.3417729 0.695228 -0.030855812 0.32304657 0.49521264
0.01633804 -0.1867613 -0.050323647 -0.068298176 0.18397494 -0.74120486 0.0060205883 0.046965316
-0.006958828 0.2892421 0.2524502 0.14596224 0.2542847 -0.056075517 -0.012636291 0.004613
0.06839542 -0.33067358 0.3206767 0.0072554015 -0.67430633 0.03602591 -0.037124842 -0.025351277
-0.85247844 -0.09777643 0.45726487 -0.014610325 0.0326844 -0.005075108 0.024925439 0.055972986
0.24870966 -0.48350468 -0.12431132 0.029416932 -0.34288338 -0.024846254 -0.0049137007 -0.42461088
-0.040565312 -0.0034911397 0.025405377 -0.029153483 -0.8222232 0.8478176 -0.02479683 0.049386926
-0.03581607 -0.6721713 -0.0076396153 -0.021756008 0.021708822 0.41742992 -0.023096096 -0.8472953
-0.031781435 0.122707844 -0.18717386 0.041149575 -1.4611788 0.3042037 0.02382079 -0.031788033
-0.50499886 -0.023507591 0.3345658 -0.8080896 0.14648332 0.021481613 0.18620645 -0.35460266
0.16805337 0.30311596 -0.0042982944 0.009694125 0.03253698 -0.014448635 -0.35491562 -0.038435668
-0.24675944 0.002791506 -1.3239468 0.26062226 -0.035074104 -0.00485057 0.020486202 0.40348667
0.4207985 -0.089981414 0.022079928 -0.40706438 -0.33088088 0.03782041 -0.7882235 0.56220245
0.24583569 -0.020754164 0.12482641 -0.37992525 -0.59233254 0.018068394 0.49653375 0.07784846
0.01320267 -0.049755782 0.265418 -0.44950697 0.046193607 -0.14009745 0.013932392 -0.16013692
0.29966885 0.03549989 -0.0345131 0.016758053 -0.00032328555 -0.2102066 0.010187414 -0.0008061176
0.05538373 -0.00018270833 -0.80114573 -0.16462247 -0.05821584 0.033924434 -0.034075636 0.07576357
-0.6727854 0.4747524 0.03681369 -0.07509315 0.5546695 0.20395586 -0.08038751 0.026659856
00000000: 717a 01bc d23a 2abd 0134 bd3c d518 d23e
00000010: 5715 ca3d ca3b 57bd 7950 db3d d477 103e
00000020: 8122 853e bbf7 bfbe 6ec5 b93c 8d39 38bf
00000030: 9964 d3bc 98e7 2abc d526 663f 2877 0a3f
00000040: 2edc d43d 6a5f 3ebf a19b 2bbd 043c 4ebd
00000050: 8a99 a7be b280 18bd 6223 5d3d ceb7 e5be
00000060: cca3 6b3e 39c5 9b3c 31f2 31be 347a 49bd
00000070: cbd7 01be aab6 323e b0db 58bc 2a60 7cbd
00000080: 9f78 d5be f098 bebc a9f9 9c3e 2cd3 97bf
00000090: dd71 163d d9fc 16bb a096 213c 8f3c b9bb
000000a0: e980 523d 913f cebe 1adf d0bc 94d8 0f3c
000000b0: cb2a bb3e d54f 9e3e 276d 51bf 9ce5 4abd
000000c0: caf7 54be 5350 bdbe 56de b3bd 33b8 0abd
000000d0: fa13 513e 3311 acbe 3dec b1ba 1a4c dabd
000000e0: 6245 74bf def5 78bd 1dc6 1e3e 20b7 e5bb
000000f0: cfe9 bf3c c474 00bd 67c5 1b3f 43f1 6d3e
00000100: a61e 1f3d 6c7a 6dbd c022 06bd bfd1 9e3e
00000110: af6e b33b 4662 45bd 3ec9 7fbf 9227 b73e
00000120: 49f3 a6be 2097 f23d 5a9b d8be cba7 e5bf
00000130: 9d87 ecbc 2700 313d 93ca 853e c60e bdbe
00000140: fb9c f8bd 143b 56be eee5 bfbd 47a3 02bf
00000150: 159f e03e b1d1 1b3c 4384 9f3e 1be4 5e3c
00000160: 5ddc 9c3c 5617 993f b5ff 4abe 6f51 733e
00000170: 7a3a 3bbd ff8b 313f be9f 843b 4491 0dbf
00000180: 30b9 a63c beb7 6e3d a83b 5e3d e78d 14bf
00000190: 435a 193d 01e0 f3be 852e 46bc 4c50 86be
000001a0: 7619 99bc 9efb 69bf 7997 ad3e 8d35 193e
000001b0: 0b35 843e e585 63be 55e4 633e 3651 aa3e
000001c0: e45f 34bf 463f 5fbe e63a c83e dcfc aebe
000001d0: 76fa 313f 54c5 fcbc 5c66 a53e 838c fd3e
000001e0: 5ad7 853c 5b3e 3fbe 2b20 4ebd eadf 8bbd
000001f0: ed63 3c3e 9abf 3dbf 5b48 c53b b45e 403d
00000200: e106 e4bb 8a17 943e 2741 813e 2077 153e
00000210: 9b31 823e 71af 65bd 7208 4fbc a628 973b
00000220: e612 8c3d 0c4e a9be bd2f a43e b8be ed3b
00000230: 579f 2cbf e88f 133d 3810 18bd 7bad cfbc
00000240: 073c 5abf 023f c8bd 9f1e ea3e 2560 6fbc
00000250: 14e0 053d 174d a6bb 6f30 cc3c ee43 653d
00000260: bfad 7e3e ed8d f7be ef96 febd c7fb f03c
00000270: 698e afbe 5f8a cbbc 1c03 a1bb 9966 d9be
00000280: d027 26bd 9bcb 64bb f01e d03c 49d3 eebc
00000290: 387d 52bf 930a 593f b922 cbbc f249 4a3d
000002a0: dfb3 12bd 6b13 2cbf bd55 fabb a839 b2bc
000002b0: b3d6 b13c 60b9 d53e 0634 bdbc 58e8 58bf
000002c0: 402d 02bd 404e fb3d 81aa 3fbe 758c 283d
000002d0: e807 bbbf 96c0 9b3e d123 c33c 2b34 02bd
000002e0: 9b47 01bf fe92 c0bc 354c ab3e f6de 4ebf
000002f0: b9ff 153e 35fa af3c e7ac 3e3e 7b8e b5be
00000300: 2f16 2c3e 0432 9b3e b5d8 8cbb 1bd4 1e3c
00000310: 7f45 053d f8b9 6cbc 80b7 b5be b86e 1dbd
00000320: 82ae 7cbe b3f1 363b 1777 a9bf 4870 853e
00000330: dda9 0fbd 88f1 9ebb aed2 a73c ce95 ce3e
00000340: e772 d73e 2d48 b8bd f7e0 b43c be6a d0be
00000350: 3869 a9be 93e9 1a3d 04c9 49bf 80ec 0f3f
00000360: 5abc 7b3e a304 aabc fda4 ff3d 9085 c2be
00000370: 1ba3 17bf 2b04 943c ac39 fe3e 036f 9f3d
00000380: 0350 583c b8cc 4bbd dee4 873e c725 e6be
00000390: 8235 3d3d b575 0fbe b044 643c effa 23be
000003a0: 326e 993e 5568 113d 9c5d 0dbd 2f48 893c
000003b0: a77e a9b9 6640 57be 1ce9 263c a351 53ba
000003c0: 0dda 623d 6595 3fb9 e317 4dbf cb92 28be
000003d0: bc73 6ebd 59f4 0a3d e592 0bbd ee29 9b3d
000003e0: aa3b 2cbf bf12 f33e f4c9 163d 70ca 99bd
000003f0: d2fe 0d3f ced9 503e 35a2 a4bd c565 da3c

linear3.bias f4 [3]
0.16534844 0.04763486 -0.09652552
00000000: 1a51 293e c51c 433d 2caf c5bd
