models/Env1/TD3_256_A5_S1_P/local_episode_700_reward_200.000000.pt (torch, 293856 bytes, 6 tensors)

linear1.weight f4 [256, 23]
-0.113024704 0.1726221 0.11089228 -0.06971466 -0.2192264 -0.11808461 0.08344782 0.09286686
-0.044528067 -0.0009064338 0.038456652 -0.14264375 0.106964715 0.036361884 0.05278055 -0.0005957551
0.032186173 0.17457761 -0.001538953 -0.26814744 -0.23071823 -0.28821665 0.55524683 -0.05625307
-0.096628636 -0.22826758 -0.3080207 0.07145875 -0.22129078 -0.20362806 -0.02611961 -0.038020324
0.1754578 -0.12411568 -0.024638625 -0.16507807 -0.107347645 -0.14250332 0.089585826 0.05304689
-0.0066499403 0.210868 0.16664903 0.0995472 -0.07354675 -0.16570486 -0.015404194 -0.058101986
0.13281828 0.15815192 -0.24729277 0.08479299 -0.23776385 0.011105331 0.04085418 0.14012055
-0.13708515 -0.10345328 -0.041774817 0.17854956 0.043924447 0.13715619 -0.120984256 -0.07240478
0.10050427 0.18023303 -0.21684386 0.015885348 -0.5855244 -0.12374294 0.04166655 0.058612525
-0.017893258 -0.20825751 -0.17270799 -0.09953058 -0.053038694 -0.0023630788 -0.21712132 -0.062223386
0.12510292 0.18038176 0.13874668 -0.1325736 0.18551461 -0.080038436 -0.17766912 -0.1528391
-0.011173517 -0.09495644 -0.13740201 -0.1241023 -0.10142584 -0.05247437 -0.017220654 -0.18392894
0.040276792 -0.15171416 0.21140131 0.24513954 0.18149799 0.22131978 -0.09059251 0.11840612
-0.106081426 0.005202132 0.0074012727 0.17672925 -0.03480811 -0.2553205 -0.17587851 0.16567452
0.14227074 -0.20930839 -0.36255798 -0.30395505 -0.17088674 -0.23320551 0.16470033 -0.17240654
-0.16530794 -0.31457326 -0.07467122 0.019100532 -0.0059193857 -0.1052082 0.1653084 -0.07982006
0.15099254 0.17892483 -0.013556088 -0.0049316287 -0.26580304 0.1030006 0.013538327 -0.14965719
0.5109474 -0.42780876 0.20241219 -0.12539706 0.114146255 0.17840117 0.097044915 -0.12830912
0.09749252 0.06627649 -0.025120432 -0.06847814 -0.054328788 -0.04560769 0.13451332 -0.12525225
0.1816957 0.0068055633 0.10883775 -0.0075224964 -0.10418001 0.043624774 0.15445757 0.12758212
-0.72240895 -0.069109984 0.07561966 -0.012989891 0.09484885 0.13562864 0.03339569 -0.0060318643
-0.15335225 0.18784223 -0.12124818 0.061777107 -0.07329791 0.12724409 -0.24684791 -0.30864355
-0.2787486 -0.08649348 -0.051196303 -0.18753755 0.09649861 -0.61129135 0.3345446 0.23388794
0.1036461 -0.20010342 -0.22188681 0.13670924 -0.12288642 -0.014976495 0.1551683 -0.028497351
0.03936751 -0.26870897 -0.23474914 0.101757355 -0.12908247 0.032074917 -0.016008431 0.16126215
0.15163276 -0.06079493 -0.08641358 -0.035926506 -0.030175097 0.33944398 0.91368484 -0.33187318
-0.24525593 -0.2126445 -0.14497326 -0.1575905 0.019287663 0.028159171 -0.11002385 0.16006836
0.26057822 0.018690292 0.08326631 0.30832595 0.13055696 0.016082864 0.040890746 -0.048323154
0.013437419 0.13786781 -0.08988642 -0.16372018 0.06987822 -0.057787407 -0.092427604 0.11688287
0.10815792 -0.2065432 -0.03514185 0.01610575 -0.059019495 0.19933875 -0.16717184 -0.2035282
0.06223555 -0.19949917 -0.17063765 0.13076906 0.10113357 -0.11704904 -0.07807936 0.023669243
0.17180884 -0.11085061 0.03647179 0.20647329 0.047569208 -0.18258671 -0.28625757 -0.17227466
00000000: 7f79 e7bd d9c3 303e 7e1b e33d 8fc6 8ebd
00000010: e37c 60be 58d6 f1bd b1e6 aa3d fb30 be3d
00000020: 1063 36bd be9d 6dba b984 1d3d 3411 12be
00000030: 5110 db3d 33f0 143d 6b30 583d 732c 1cba
00000040: a6d5 033d 79c4 323e b2b6 c9ba 9f4a 89be
00000050: 6641 6cbe 2291 93be a824 0e3f 9e69 66bd
00000060: 3ce5 c5bd fabe 69be e4b4 9dbe f758 923d
00000070: 0d9a 62be e083 50be cbf8 d5bc 33bb 1bbd
00000080: 36ab 333e 5d30 febd f1d6 c9bc 3a0a 29be
00000090: 15d9 dbbd 64ec 11be c678 b73d b247 593d
000000a0: bee7 d9bb c8ed 573e 0ba6 2a3e 67df cb3d
000000b0: ae9f 96bd 89ae 29be df61 7cbc 59fc 6dbd
000000c0: 8401 083e 94f2 213e 513a 7dbe f2a7 ad3d
000000d0: 5e78 73be 22f3 353c b656 273d c37b 0f3e
000000e0: 0d60 0cbe 50df d3bd 121c 2bbd b2d5 363e
000000f0: 1fea 333d ac72 0c3e 98c6 f7bd f548 94bd
00000100: 2fd5 cd3d 028f 383e 510c 5ebe fd21 823c
00000110: ede4 15bf f06c fdbd 8baa 2a3d b013 703d
00000120: e294 92bc 7541 55be 5dda 30be b0d6 cbbd
00000130: 1a3f 59bd e2dd 1abb 0d55 5ebe f3dd 7ebd
00000140: fb1a 003e ffb5 383e 9c13 0e3e 60c1 07be
00000150: 8bf7 3d3e 31eb a3bd e5ee 35be da81 1cbe
00000160: 2111 37bc 8678 c2bd 1db3 0cbe 5929 febd
00000170: 5ab8 cfbd 5def 56bd 5412 8dbc de57 3cbe
00000180: 47f9 243d f55a 1bbe 9679 583e dc05 7b3e
00000190: 9cda 393e a7a1 623e 9188 b9bd e87e f23d
000001a0: 3841 d9bd a576 aa3b 6086 f23b 83f8 343e
000001b0: f392 0ebd 5eb9 82be 7f19 34be 95a6 293e
000001c0: 6caf 113e f054 56be 33a1 b9be ff9f 9bbe
000001d0: effc 2ebe 6dcd 6ebe 34a7 283e 578b 30be
000001e0: 7c46 29be bf0f a1be 39ed 98bd b878 9c3c
000001f0: 68f7 c1bb 6677 d7bd 9b46 293e b378 a3bd
00000200: ca9d 1a3e 1238 373e 5b1a 5ebc 8099 a1bb
00000210: 5617 88be fbf1 d23d dccf 5d3c bc3f 19be
00000220: 73cd 023f c009 dbbe 2445 4f3e 1668 00be
00000230: 83c5 e93d ccae 363e 7cbf c63d 7763 03be
00000240: 29aa c73d f8bb 873d 5dc9 cdbc 443e 8cbd
00000250: dd87 5ebd 21cf 3abd dcbd 093e 2042 00be
00000260: 700e 3a3e 3401 df3b 54e6 de3d 467f f6bb
00000270: 545c d5bd e4af 323d 202a 1e3e e3a4 023e
00000280: cbef 38bf 8989 8dbd 7bde 9a3d 8dd3 54bc
00000290: 1d40 c23d 3ce2 0a3e ebc9 083d f2a6 c5bb
000002a0: 5f08 1dbe b759 403e f750 f8bd fe09 7d3d
000002b0: 371d 96bd 464c 023e b3c5 7cbe 8706 9ebe
000002c0: 23b8 8ebe 7e23 b1bd 37b3 51bd d809 40be
000002d0: 10a1 c53d 977d 1cbf 6e49 ab3e 5280 6f3e
000002e0: 6844 d43d e9e7 4cbe 4c36 63be 82fd 0b3e
000002f0: e0ab fbbd f95f 75bc 70e4 1e3e 4773 e9bc
00000300: d33f 213d 3994 89be 1462 70be 2966 d03d
00000310: 322e 04be fd60 033d 1d24 83bc e821 253e
00000320: 9e45 1b3e 1b04 79bd 9af9 b0bd ac27 13bd
00000330: c431 f7bc 9acb ad3e 40e7 693f 48eb a9be
00000340: 5f24 7bbe 7bbf 59be df73 14be 675f 21be
00000350: 2901 9e3c 10ae e63c 2f54 e1bd f6e8 233e
00000360: 826a 853e 621c 993c 8787 aa3d e6dc 9d3e
00000370: b9b0 053e 36c0 833c 0e7d 273d 80ee 45bd
00000380: 9f28 5c3c 382d 0d3e 5f16 b8bd 43a6 27be
00000390: 501c 8f3d 7db2 6cbd af4a bdbd 4960 ef3d
000003a0: e681 dd3d 1080 53be e7f0 0fbd 35f0 833c
000003b0: 6dbe 71bd 751f 4c3e 182f 2bbe b269 50be
000003c0: b4ea 7e3d 8349 4cbe a3bb 2ebe 53e8 053e
000003d0: 1e1f cf3d 68b7 efbd 12e8 9fbd 00e6 c13c
000003e0: a8ee 2f3e a505 e3bd 7263 153d bc6d 533e
000003f0: eed7 423d 03f8 3abe 5a90 92be c568 30be

linear1.bias f4 [256]
0.0787677 0.03750621 -0.037955612 0.065161735 0.09398436 0.01048868 -0.07644107 -0.12144206
0.12179096 0.15545319 0.14820226 -0.03189858 -0.09919247 0.006782278 0.070784666 -0.026174655
-0.13917716 -0.121147364 -0.039536145 -0.19011135 -0.029011566 -0.06764052 0.16793336 0.08939645
-0.09613602 -0.08326588 0.004030387 0.022289062 0.018009553 -0.04433881 -0.18664925 0.13314663
0.15112583 -0.0072717457 -0.13642643 0.1369864 -0.20977587 -0.10367851 0.037483923 0.05361764
-0.17926681 -0.16973343 -0.20690806 -0.082904 0.029010337 0.06936852 0.14570042 0.09821283
-0.27441022 -0.07728341 -0.015759127 -0.12689891 0.0022973276 -0.10697816 0.06847902 0.11057933
0.10627509 0.011045976 -0.06369433 0.057318784 -0.14947654 0.012365501 -0.042207014 0.0022805417
-0.14641656 0.11864808 -0.21975102 -0.005796146 0.014736103 0.06789267 -0.19388746 0.0702235
-0.07459893 0.1650462 0.12827833 -0.18349439 0.05130423 -0.002389138 -0.10285066 -0.07223061
-0.22596672 0.0025521044 -0.14823444 0.08380486 0.05383576 0.21357782 -0.11689967 -0.12023357
-0.09012869 0.22605239 0.10055678 -0.01353628 0.048366804 0.18535174 -0.1759453 -0.17677853
0.0033380329 -0.12574877 0.029191248 -0.04536222 0.023189623 0.08862409 -0.13635367 0.16479822
-0.17585576 -0.18265818 0.1718111 0.14639154 -0.15491365 -0.13352892 -0.12611715 -0.052855365
-0.12985146 0.09522829 0.04147502 0.0048101447 -0.23071826 0.1525741 0.12316565 0.123463474
0.024185082 0.1154916 0.056576353 0.17938659 -0.080117375 -0.12219436 -0.088564076 0.06175226
0.10219756 0.088419065 -0.15332082 -0.04822336 0.020242332 -0.11342344 -0.07051264 -0.1736105
-0.14168379 -0.01700182 -0.16325793 0.12949158 -0.031183373 -0.18121915 -0.18069975 -0.010512152
0.005276616 -0.020515732 0.041203085 0.036368027 -0.052660406 -0.0957132 -0.14489993 0.11528422
0.044508062 -0.04828822 0.09010664 -0.087505 0.16522768 -0.08283188 0.16027151 -0.030028604
0.1282013 0.017530292 -0.06273405 -0.09432131 0.034443446 -0.14498706 0.054472886 -0.14567794
0.078384355 0.19910063 -0.1260236 0.1525748 0.008530558 -0.17244622 0.18300873 0.07018055
0.043056153 0.13188998 0.08383982 -0.0010011322 -0.024225108 0.1370522 0.055206377 -0.05601804
-0.08122222 0.0538482 -0.0125006335 0.0463055 -0.08288839 0.032376524 -0.09574764 0.06313195
0.008872566 -0.26945892 0.016619865 -0.076611936 -0.13343908 -0.05797605 0.065371916 0.086765334
0.047366053 0.17322536 -0.07349223 0.06298635 0.16623427 0.072431095 -0.03513872 -0.050446626
-0.028786922 -0.21629672 -0.016653886 0.19597255 -0.18903495 0.013817807 0.086461335 0.18597642
-0.19011904 0.04379039 -0.08341779 0.11995341 -0.07427527 -0.056460675 -0.16814262 0.048615567
0.08940923 -0.012864801 -0.03129202 -0.03764231 0.08039136 -0.13305116 -0.24432862 -0.14644691
-0.018703336 0.04352927 0.0689783 -0.16853283 0.10824974 0.102365166 -0.05450739 -0.1956855
0.18616903 0.0019092424 0.06394345 -0.1282421 -0.18219247 -0.11841932 -0.066327706 -0.059306696
0.012455972 0.10277769 -0.14773773 -0.09931758 0.112958014 0.17881887 -0.23370391 0.051697627
00000000: f650 a13d 1da0 193d 5877 1bbd 8473 853d
00000010: df7a c03d b6d8 2b3c 238d 9cbd 9db6 f8bd
00000020: 8a6d f93d 1f2f 1f3e 55c2 173e 16a8 02bd
00000030: 6c25 cbbd df3d de3b 8df7 903d 3b6c d6bc
00000040: 7584 0ebe 1c1c f8bd a7f0 21bd 8dac 42be
00000050: aaa9 edbc 1d87 8abd b9f6 2b3e 7c15 b73d
00000060: f6e2 c4bd 4d87 aabd 5611 843b 8d97 b63c
00000070: c588 933c 9d9c 35bd fb20 3fbe 9757 083e
00000080: bbc0 1a3e d347 eebb 5fb3 0bbe 2a46 0c3e
00000090: 7ccf 56be 6655 d4bd be88 193d 2c9e 5b3d
000000a0: b891 37be 9ace 2dbe b5df 53be 93c9 a9bd
000000b0: 16a7 ed3c 1511 8e3d 7e32 153e cf23 c93d
000000c0: 7f7f 8cbe c446 9ebd 4919 81bc caf1 01be
000000d0: c38e 163b 5e17 dbbd ba3e 8c3d 6a77 e23d
000000e0: c1a6 d93d 2efa 343c 2c72 82bd 1ac7 6a3d
000000f0: 6110 19be ac98 4a3c 43e1 2cbd 2475 153b
00000100: 39ee 15be c4fd f23d 6906 61be 99ed bdbb
00000110: b26f 713c 500b 8b3d 6f8a 46be 57d1 8f3d
00000120: 53c7 98bd df01 293e 655b 033e f4e5 3bbe
00000130: 6224 523d 1693 1cbb 5ea3 d2bd a4ed 93bd
00000140: d263 67be 3541 273b c5ca 17be e2a1 ab3d
00000150: e382 5c3d 25b4 5a3e 1869 efbd 053d f6bd
00000160: 6495 b8bd 477a 673e b7f0 cd3d 46c7 5dbc
00000170: 451c 463d d9cc 3d3e 012b 34be 6e05 35be
00000180: e6c2 5a3b 49c4 00be 7c22 ef3c bccd 39bd
00000190: 2af8 bd3c 8c80 b53d 4ca0 0bbe ddc0 283e
000001a0: 8813 34be bf0a 3bbe 40ef 2f3e aae7 153e
000001b0: afa1 1ebe cebb 08be db24 01be de7e 58bd
000001c0: c8f7 04be 0d07 c33d b6e1 293d 6b9e 9d3b
000001d0: 6841 6cbe 633c 1c3e 463e fc3d 6bda fc3d
000001e0: cb1f c63c dc86 ec3d 9bbc 673d 1eb1 373e
000001f0: 9414 a4bd 0941 fabd 1561 b5bd f0ef 7c3d
00000200: f44c d13d 0e15 b53d 2200 1dbe dc85 45bd
00000210: 3fd3 a53c 8c4a e8bd ee68 90bd f3c6 31be
00000220: 8e15 11be 6747 8bbc 162d 27be 7199 043e
00000230: 4674 ffbc 8391 39be 5b09 39be 293b 2cbc
00000240: 77e7 ac3b 9c10 a8bc 91c4 283d a4f6 143d
00000250: 70b2 57bd 4805 c4bd a660 14be 221a ec3d
00000260: 164e 363d dec9 45bd d489 b83d d235 b3bd
00000270: 7231 293e c3a3 a9bd 371e 243e 8cfe f5bc
00000280: 3447 033e b09b 8f3c b67a 80bd 882b c1bd
00000290: 9214 0d3d 7d77 14be f61e 5f3d 992c 15be
000002a0: fa87 a03d 09e1 4b3e 550c 01be 923c 1c3e
000002b0: c1c3 0b3c be95 30be a466 3b3e d2ba 8f3d
000002c0: a65b 303d 2b0e 073e 36b4 ab3d 6c38 83ba
000002d0: bc73 c6bc 6957 0c3e 1520 623d 2c73 65bd
000002e0: d657 a6bd ee8f 5c3d 75cf 4cbc d6aa 3d3d
000002f0: 63c1 a9bd 3f9d 043d 5717 c4bd 534b 813d
00000300: 3d5e 113c 85f6 89be 6226 883c b8e6 9cbd
00000310: 41a4 08be 4b78 6dbd b6e1 853d 06b2 b13d
00000320: e802 423d fd61 313e 1883 96bd fdfe 803d
00000330: 5139 2a3e c156 943d 9eed 0fbd 1fa1 4ebd
00000340: 8dd2 ebbc e37c 5dbe bb6d 88bc 07ad 483e
00000350: 6192 41be 1564 623c a412 b13d 9a70 3e3e
00000360: 91ae 42be 8d5d 333d f2d6 aabd 22aa f53d
00000370: a21d 98bd 4f43 67bd 942d 2cbe 1e21 473d
00000380: 301c b73d e3c6 52bc 102c 00bd d32e 1abd
00000390: 3aa4 a43d 903e 08be 4831 7abe 2ef6 15be
000003a0: bd37 99bc bf4b 323d 7f44 8d3d df93 2cbe
000003b0: 0ab2 dd3d d4a4 d13d 2443 5fbd c861 48be
000003c0: 18a3 3e3e 8b3f fa3a c9f4 823d e651 03be
000003d0: aa90 3abe d485 f2bd d2d6 87bd 94eb 72bd
000003e0: 2214 4c3c 1c7d d23d 8f48 17be 0467 cbbd
000003f0: 8856 e73d 4b1c 373e 1450 6fbe e4c0 533d

linear2.weight f4 [256, 256]
0.049919613 -0.06264488 0.019821074 -0.01283963 0.018530898 -0.045907952 -0.05376797 0.031132556
-0.06934004 -0.066114545 0.024171188 -0.042097505 -0.03464812 -0.022988223 -0.022441074 0.006562763
-0.08973717 -0.04142155 0.030824529 -0.042995833 0.029893965 -0.036216967 0.013833016 -0.024195291
0.010402458 0.047487795 0.016211368 -0.06556309 -0.02384425 0.034191027 0.013727449 0.010200247
0.012116753 0.00957361 -0.0114392545 0.033489447 -0.060096808 -0.02942606 -0.0020001575 0.011247862
-0.025446225 -0.056179877 0.06061212 -0.050236844 0.005848892 0.008685194 0.045017686 0.008568014
0.031456467 -0.040849857 -0.010516418 -0.038686305 -0.038555633 -0.08822845 -0.024887063 -0.014435082
-0.03771607 -0.009598733 -0.055865187 0.01898588 0.04801802 0.012733452 0.010038346 -0.0629916
-0.029332476 -0.047001712 -0.057882506 0.011919305 0.0044865534 0.01164224 0.018646076 -0.015362767
-0.00064895174 0.057595268 -0.03466797 -0.013642277 -0.025627926 0.027336514 0.032117028 -0.049017973
0.04000991 0.03632127 0.041604117 -0.06425528 -0.012627557 0.029161755 0.038810354 -0.045651108
-0.035334952 -0.048404843 -0.013242013 -0.050059363 0.031104887 -0.00054378243 -0.062517196 -0.017501492
0.041491464 0.059191033 -0.027865835 -0.049906887 -0.020718142 0.05030912 0.04117579 -0.055679377
-0.005593255 0.031053305 -0.07290497 0.020280011 -0.036435306 -0.06382184 -0.059723385 0.045800004
-0.016965315 -0.047459397 0.032073736 -0.01571667 0.008401902 0.015228795 -0.06784829 0.0285874
-0.046491127 -0.056414574 0.041372083 -0.07107927 0.016091714 -0.019722266 0.043827705 -0.05726343
-0.061436143 0.056628883 -0.0435672 -0.058288433 -0.053992588 0.018577874 0.0020943433 -0.033696204
-0.031306613 -0.057162117 -0.00909812 -0.031173956 -0.0019311681 0.021317564 -0.038401358 -0.09263714
-0.02810975 -0.053225357 0.019790038 -0.03302349 -0.008068105 -0.061051182 -0.026325334 -0.04014993
0.0075101554 0.055107042 0.028533347 -0.034793325 -0.094981425 -0.058227167 -0.013789877 0.026840616
-0.0101713985 0.031202398 -0.038909756 -0.027728934 0.038072683 0.024335008 -0.0054465607 0.030268364
0.028029796 -0.07536709 -0.09487068 -0.049242046 -0.051393025 -0.07299391 -0.056012973 -0.025445268
0.002692178 -0.075912364 -0.0448011 -0.04235522 -0.050365053 0.02425359 0.057791803 0.038009226
0.015823158 -0.020368446 -0.009334094 0.020622259 -0.06105492 -0.033196528 -0.055272527 -0.045357544
-0.0046361387 0.0033224523 -0.057028115 -0.05365628 -0.01854311 0.014412329 0.022329522 -0.035810858
-0.0519954 0.040049367 0.047561683 -0.04046859 0.024692519 -0.033707693 0.005390756 0.008226512
-0.03134136 -0.047618233 0.022913484 0.015231094 0.041685 0.05255411 -0.02316841 -0.0013297423
0.0457587 -0.028860912 -0.012462026 -0.03768637 -0.024333015 0.0058459635 0.016317226 -0.04723612
0.03272147 0.0392917 -0.06730171 -0.012173453 0.040461514 -0.03232978 -0.021642972 -0.03864766
-0.0004917234 0.022887498 0.07856361 0.04827313 0.026739977 -0.062460303 -0.028296515 -0.07935821
0.025252318 -0.033921905 0.011409466 -0.07110306 0.0075305714 -0.044488743 0.042399064 0.021824596
-0.02678704 0.05174572 0.010278912 0.04095473 0.054774515 0.0063542724 -0.019014684 -0.027027655
00000000: 8278 4c3d f54b 80bd ce5f a23c 505d 52bc
00000010: 1cce 973c fa09 3cbd ce3b 5cbd b409 ff3c
00000020: 2702 8ebd 1067 87bd a802 c63c 6f6e 2cbd
00000030: 30eb 0dbd cc51 bcbc 58d6 b7bc 720c d73b
00000040: 1fc8 b7bd a5a9 29bd b983 fc3c 661c 30bd
00000050: 30e4 f43c 3e58 14bd e0a3 623c 3435 c6bc
00000060: 126f 2a3c 9082 423d b4cd 843c f145 86bd
00000070: 0455 c3bc e40b 0c3d 18e9 603c f01e 273c
00000080: 5885 463c a1da 1c3c b66b 3bbc 3b2c 093d
00000090: 1228 76bd ec0e f1bc 1315 03bb f448 383c
000000a0: 9a74 d0bc df1c 66bd 6a44 783d 26c5 4dbd
000000b0: 10a8 bf3b 584c 0e3c 7764 383d db60 0c3c
000000c0: 7fd8 003d 2e52 27bd 0e4d 2cbc 8875 1ebd
000000d0: 83ec 1dbd 1eb1 b4bd f4df cbbc 1f81 6cbc
000000e0: 2a7c 1abd 0144 1dbc e5d2 64bd 4788 9b3c
000000f0: 8bae 443d f89f 503c e077 243c bd01 81bd
00000100: a94a f0bc de84 40bd 3516 6dbd 3049 433c
00000110: f003 933b 18bf 3e3c a8bf 983c 1db4 7bbc
00000120: 6a1e 2aba 04e9 6b3d 0000 0ebd db83 5fbc
00000130: a8f1 d1bc d3f0 df3c 258d 033d 12c7 48bd
00000140: 6ee1 233d 9dc5 143d 1469 2a3d 4698 83bd
00000150: d0e3 4ebc a2e4 ee3c 9bf7 1e3d a8fc 3abd
00000160: 62bb 10bd 2844 46bd 07f5 58bc 0c0b 4dbd
00000170: adcf fe3c 9f8c 0eba 0409 80bd 4a5f 8fbc
00000180: f4f2 293d 4c72 723d e446 e4bc 2a6b 4cbd
00000190: 18b9 a9bc f010 4e3d f2a7 283d 0f10 64bd
000001a0: a047 b7bb 8063 fe3c 334f 95bd 4422 a63c
000001b0: 303d 15bd 06b5 82bd 82a0 74bd c998 3b3d
000001c0: d8fa 8abc c964 42bd c05f 033d 3fc0 80bc
000001d0: 22a8 093c 3282 793c 0bf4 8abd 2030 ea3c
000001e0: 7b6d 3ebd f812 67bd c675 293d 0292 91bd
000001f0: c5d2 833c 9790 a1bc ae84 333d 0f8d 6abd
00000200: 77a4 7bbd b0f3 673d 8573 32bd dabf 6ebd
00000210: 5527 5dbd a030 983c 4041 093b 0805 0abd
00000220: 5d3b 00bd d322 6abd 4810 15bc 8660 ffbc
00000230: 401f fdba 2ca2 ae3c be4a 1dbd 8ab8 bdbd
00000240: 6b46 e6bc d502 5abd b81e a23c a443 07bd
00000250: 1630 04bc ce10 7abd 3aa8 d7bc 4174 24bd
00000260: c017 f63b ecb7 613d c4be e93c 7283 0ebd
00000270: 9f85 c2bd 9c7f 6ebd f0ee 61bc dae0 db3c
00000280: f0a5 26bc 2c9c ff3c d65f 1fbd ca27 e3bc
00000290: 1af2 1b3d 365a c73c 1079 b2bb 5cf5 f73c
000002a0: be9e e53c 105a 9abd 8f4b c2bd 07b2 49bd
000002b0: 7e81 52bd d57d 95bd dc6d 65bd 9872 d0bc
000002c0: 406f 303b f177 9bbd 5c81 37bd ab7c 2dbd
000002d0: 964b 4ebd 77af c63c 19b7 6c3d 90af 1b3d
000002e0: 919f 813c badb a6bc 07ee 18bc 03f0 a83c
000002f0: b914 7abd 15f9 07bd 7265 62bd d5c8 39bd
00000300: c0ea 97bb 80bd 593b 5096 69bd b0c6 5bbd
00000310: b8e7 97bc b021 6c3c 67ec b63c 68ae 12bd
00000320: 21f9 54bd ce0a 243d 0ad0 423d 64c2 25bd
00000330: f747 ca3c 1411 0abd f0a4 b03b 7ec8 063c
00000340: cc5f 00bd 560b 43bd 0fb5 bb3c d78b 793c
00000350: e4bd 2a3d fa42 573d adcb bdbc bf4a aeba
00000360: 7a6d 3b3d b86d ecbc 872d 4cbc 065d 1abd
00000370: 0856 c7bc 7f8f bf3b b4ab 853c a97a 41bd
00000380: f306 063d 55f0 203d 7bd5 89bd 2a73 47bc
00000390: f9ba 253d 3b6c 04bd 9a4c b1bc 024d 1ebd
000003a0: 00e7 00ba 907e bb3c f5e5 a03d 0cba 453d
000003b0: cc0d db3c 60d6 7fbd 18ce e7bc 8f86 a2bd
000003c0: f3dd ce3c b2f1 0abd c5ee 3a3c 7b9e 91bd
000003d0: 03c3 f63b d439 36bd a4aa 2d3d 7fc9 b23c
000003e0: 7f70 dbbc 52f3 533d e268 283c 26c0 273d
000003f0: 3e5b 603d 8037 d03b afc4 9bbc 1a69 ddbc

linear2.bias f4 [256]
-0.08374059 -0.063884474 0.014512916 -0.045167264 -0.018389283 0.035992514 -0.08606265 0.043575354
0.069493 -0.15917096 -0.016961556 -0.14667843 -0.017293017 0.0053371573 0.09146778 0.051812243
0.0064366576 -0.076072045 -0.06141111 -0.036686383 -0.050238136 -0.07678889 -0.045448918 0.044628903
0.032905467 -0.028098319 0.09007935 -0.025473952 -0.08412555 -0.014969377 0.012451635 -0.064539656
-0.055376288 -0.060793575 0.07490775 -0.031240111 -0.0874892 0.014565659 -0.07047741 -0.007799928
0.08871758 0.0028554865 -0.018422835 0.022941312 0.005288792 0.10734572 0.0025178215 -0.042801503
-0.024803242 -0.09089517 0.054284256 -0.09290983 -0.074636854 -0.0035612527 0.032245968 -0.016218841
-0.028305255 -0.030307386 -0.00884524 -0.07863544 -0.09596007 -0.0727947 -0.14679053 -0.056874737
0.0029629837 0.06871889 -0.0007890667 -0.10084191 0.15348515 0.09918316 0.07429491 0.006131578
0.016090626 0.095934145 -0.104436934 -0.10385057 0.0011350671 -0.02110801 -0.09009598 -0.07331449
0.0012151469 0.063426934 0.0154271405 0.03973942 0.094266325 0.010472782 -0.014790496 -0.06638174
-0.0012582293 -0.10809043 -0.04288306 0.039985493 0.02714668 -0.04363553 -0.028684607 -0.032579523
-0.022542823 -0.047057766 -0.028762324 -0.08268336 -0.07085915 -0.043591544 0.014950869 -0.009568667
0.01694503 -0.109003276 -0.057666 -0.07460692 0.15848012 -0.08380511 -0.09337286 0.023249377
-0.12761703 0.007157323 -0.04822218 -0.04591709 -0.17643628 0.003280433 0.05495072 0.020322908
0.024296816 0.04403917 -0.03923016 -0.035481304 -0.027490685 -0.13823302 -0.067779854 -0.02159418
-0.06514724 0.12386244 -0.10819117 -0.052779987 0.1016342 -0.04612942 -0.010793365 -0.0097413175
-0.10126427 -0.14282553 -0.03173286 0.039639913 -0.014754752 -0.06154122 -0.09184772 -0.09567784
0.02627497 -0.2384676 0.07915875 -0.0037946627 -0.028948728 -0.01522283 -0.017919285 -0.06641613
-0.10323903 0.021575673 -0.05039927 0.02406105 -0.066583835 -0.06170668 -0.007599898 0.0749011
-0.0936957 -0.066527165 -0.034076452 0.0050094808 -0.015355297 0.025784802 0.06481217 -0.09304526
0.024470998 -0.12348411 -0.017056704 -0.034810968 -0.0746699 -0.13231632 -0.015883185 -0.09476707
-0.063687846 -0.0005498589 -0.06147592 -0.0094247935 -0.1547597 0.019697437 -0.033067133 -0.07061873
-0.030064309 -0.00873262 0.0073426077 0.08768169 -0.16063502 -0.058964297 0.07468386 0.004842445
0.0015641543 0.026063548 -0.07399975 -0.052137967 -0.053968426 -0.056085553 -0.010828679 -0.0512813
0.028268637 0.020374369 -0.07240745 -0.061171494 -0.083156966 -0.06105114 0.036773786 0.06685511
-0.057127967 -0.03520867 0.009590072 0.054348294 -0.058274597 0.07173019 -0.099516 -0.04689088
0.018747663 -0.06705439 -0.105285056 -0.027807388 0.013284102 -0.002294602 0.1789397 0.027199194
0.029132485 -0.08685601 0.045443933 -0.007408647 0.045812067 -0.059727468 0.013293701 -0.0117009245
0.053272642 0.08834626 0.0236417 -0.060664695 -0.03619816 0.10211441 0.042302337 -0.02825112
0.011478057 -0.015385158 -0.096824706 0.053339627 0.013851854 -0.08490036 -0.042190988 0.028925797
-0.08351185 0.064912796 0.080190115 0.024599 0.066397674 -0.005561432 -0.048369776 0.0006038162
00000000: 3080 abbd ddd5 82bd 95c7 6d3c 4f01 39bd
00000010: 1fa5 96bc e36c 133d 9d41 b0bd 127c 323d
00000020: 5952 8e3d b6fd 22be f6f2 8abc df32 16be
00000030: 16aa 8dbc 52e3 ae3b 7653 bb3d 1339 543d
00000040: 99ea d23b a9cb 9bbd 378a 7bbd 7644 16bd
00000050: 81c6 4dbd 7e43 9dbd a528 3abd cccc 363d
00000060: e2c7 063d 722e e6bc 867b b83d c0ae d0bc
00000070: 044a acbd 1e42 75bc f101 4c3c 5e2d 84bd
00000080: 3fd2 62bd af02 79bd 3c69 993d 43eb ffbc
00000090: 8a2d b3bd cda4 6e3c 7656 90bd 8a96 ffbb
000000a0: 90b1 b53d 1d23 3b3b 7ceb 96bc 6bef bb3c
000000b0: 9a4d ad3b 13d8 db3d 0902 253b a150 2fbd
000000c0: 2b30 cbbc 3f27 babd 2b59 5e3d 8247 bebd
000000d0: 35db 98bd e863 69bb 5914 043d 60dd 84bc
000000e0: 6ce0 e7bc 3247 f8bc a0eb 10bc 9e0b a1bd
000000f0: b786 c4bd 6315 95bd 4250 16be 7cf5 68bd
00000100: 9e2e 423b 7dbc 8c3d 5fd9 4eba 3486 cebd
00000110: 362b 1d3e 8a20 cb3d ee27 983d 67eb c83b
00000120: 7dd0 833c 1f79 c43d 08e3 d5bd 9caf d4bd
00000130: 88c6 943a b5ea acbc 3e84 b8bd e825 96bd
00000140: 9045 9f3a fbe5 813d 1ec2 7c3c cdc5 223d
00000150: b40e c13d 0896 2b3c d653 72bc 26f3 87bd
00000160: 2beb a4ba 845e ddbd 26a6 2fbd d4c7 233d
00000170: b762 de3c 2bbb 32bd fbfb eabc 1b72 05bd
00000180: baab b8bc a5bf 40bd f79e ebbc e555 a9bd
00000190: 9a1e 91bd 0c8d 32bd 7df4 743c e6c5 1cbc
000001a0: 4ed0 8a3c 1c3d dfbd 2f33 6cbd 83cb 98bd
000001b0: 9d48 223e 03a2 abbd 453a bfbd 7a75 be3c
000001c0: 0aae 02be fa87 ea3b 9f84 45bd 8f13 3cbd
000001d0: b6ab 34be 88fc 563b 0214 613d 3a7c a63c
000001e0: 1e0a c73c 6b62 343d ceaf 20bd d854 11bd
000001f0: 2534 e1bc f58c 0dbe 2ad0 8abd 47e6 b0bc
00000200: eb6b 85bd 97ab fd3d 5593 ddbd d42f 58bd
00000210: 9725 d03d 34f2 3cbd a7d6 30bc 0c9a 1fbc
00000220: a463 cfbd db40 12be 51fa 01bd 765d 223d
00000230: eabd 71bc a512 7cbd a81a bcbd bef2 c3bd
00000240: 9b3e d73c da30 74be fc1d a23d e0af 78bb
00000250: e225 edbc 2d69 79bc 77cb 92bc 2e05 88bd
00000260: fc6e d3bd 77bf b03c 776f 4ebd ae1b c53c
00000270: 1b5d 88bd 25c0 7cbd 9108 f9bb bf65 993d
00000280: 88e3 bfbd 653f 88bd c093 0bbd 9226 a43b
00000290: c994 7bbc a63a d33c 3ebc 843d 838e bebd
000002a0: 6777 c83c 3de5 fcbd 80ba 8bbc f295 0ebd
000002b0: 88ec 98bd ee7d 07be 741d 82bc 3d15 c2bd
000002c0: c66e 82bd 6824 10ba 2dce 7bbd 736a 1abc
000002d0: 5479 1ebe 855c a13c 6771 07bd 8da0 90bd
000002e0: 6d49 f6bc 4313 0fbc 429a f03b 7592 b33d
000002f0: 827d 24be 8c84 71bd daf3 983d 5fad 9e3b
00000300: 4f04 cd3a 3983 d53c 2e8d 97bd 9f8e 55bd
00000310: ff0d 5dbd f7b9 65bd c66a 31bc 570c 52bd
00000320: a193 e73c 26e8 a63c 5b4a 94bd f68e 7abd
00000330: 334e aabd c310 7abd 1ca0 163d 55eb 883d
00000340: 04ff 69bd f736 10bd ad1f 1d3c 519c 5e3d
00000350: 58b1 6ebd 47e7 923d 0bcf cbbd a710 40bd
00000360: b394 993c d053 89bd b19f d7bd 52cc e3bc
00000370: 90a5 593c 0961 16bb f83b 373e d8d0 de3c
00000380: 40a7 ee3c 90e1 b1bd 6b23 3a3d 3cc4 f2bb
00000390: 6fa5 3b3d caa4 74bd d3cd 593c 3cb5 3fbc
000003a0: 6a34 5a3d e2ee b43d 3dac c13c 8b7b 78bd
000003b0: 8644 14bd 5c21 d13d 3745 2d3d e56e e7bc
000003c0: 760e 3c3c 0812 7cbc 084c c6bd a77a 5a3d
000003d0: e3f2 623c 3de0 adbd 75d0 2cbd cbf5 ec3c
000003e0: 4308 abbd 00f1 843d b73a a43d d883 c93c
000003f0: 81fb 873d ac3c b6bb 631f 46bd 6b49 1e3a

linear3.weight f4 [3, 256]
-0.007902727 -0.04156 0.044923536 0.38067782 0.05156319 -0.052547254 0.22467305 0.09090712
0.3271294 -0.3424685 0.02267715 -0.56975603 -0.025804805 -0.010431193 0.7744923 0.28921872
0.23290588 -0.727445 0.031776145 -0.050350204 -0.20829575 -0.03723211 0.05398882 -0.35556668
0.26537994 0.019014942 -0.17497697 -0.10897946 -0.12679975 0.17452493 -0.013235971 -0.066387065
-0.39943317 -0.031098593 0.27960262 -1.3754075 0.036729682 0.013097085 0.009862572 -0.005652971
0.084808215 -0.29801846 -0.06592533 0.008779664 0.40659446 0.235309 -0.8806936 -0.04953538
-0.1526501 -0.31922755 -0.08540458 -0.033867072 0.12118975 -0.26830035 -0.0013574433 -0.04781639
-0.7776931 -0.06273731 -0.049586337 -0.0070103556 0.023426918 -0.031361356 0.5747692 0.3032604
0.038847588 -0.056552842 -0.032747984 0.28899273 0.06401363 -0.05553139 -0.89993036 0.39119685
-0.1759062 0.0040234854 -0.24989884 -1.7472614 -0.02887326 0.043213036 0.3909913 -0.38612658
-0.07763112 -0.24017274 -0.093700275 -0.46611765 0.5606855 0.009510444 0.28505316 0.013604189
0.058564045 0.6033891 -0.16206019 0.1531347 -0.045710064 0.6832283 0.004047363 -0.41542214
0.020351976 0.0582807 0.04681073 -0.54356897 0.037439596 -0.51430786 -0.012089274 -0.42025077
0.0025071448 -0.9139956 0.24238612 0.07064394 0.25119483 -0.14276199 0.15363917 0.44107684
-0.6606685 -0.34292433 0.19961284 -0.28962925 0.79979765 -0.030855812 0.381335 0.5695354
0.01633804 -0.20674731 -0.050323647 -0.068298176 -0.022337465 -0.595899 0.0060205883 0.046965316
0.07174289 0.3054056 0.23560655 0.03855132 0.35612175 -0.056075517 -0.012636291 0.004613
0.068367176 -0.26254663 0.35688573 0.0072554015 -0.6269449 0.03602591 -0.037124842 -0.025351277
-0.7896119 -0.09777643 0.46655008 -0.010348388 0.0326844 -0.005075108 0.0020468628 0.055972986
0.2977164 -0.42708194 -0.22636382 0.029416932 -0.42355812 -0.024846254 -0.0049137007 0.0016800012
-0.040565312 -0.0034911397 0.025405377 -0.10212043 -0.6231533 0.8411152 0.029746244 0.049386926
-0.03581607 -0.8161123 -0.0076396153 -0.021756008 0.021708822 0.47036865 -0.023096096 -0.8472953
-0.031781435 0.17117418 -0.15790026 0.041149575 -1.3642796 0.32425034 0.07036384 -0.031788033
-0.52498555 -0.023507591 0.30633926 -0.7986383 0.14648332 0.021481613 0.24201189 -0.34408146
0.017502848 0.36854547 -0.0042982944 0.009694125 0.020732302 -0.014448635 -0.14000143 0.07311417
-0.13811615 0.002791506 -1.234807 0.25133526 -0.033731125 -0.00485057 -0.027025722 0.38076025
0.33037013 -0.09326983 0.022079928 -0.40131646 -0.14495198 0.13978821 -0.5024396 0.59743357
0.18244612 -0.020754164 0.14300041 -0.39041904 -0.2005418 0.018068394 0.35929826 0.18818617
0.01320267 -0.049755782 0.29587936 -0.46821496 0.046193607 -0.010353367 0.013932392 -0.25965273
0.20100458 0.20791288 -0.0345131 0.016758053 -0.00032328555 -0.17600937 0.010187414 0.02030257
0.05538373 -0.081133716 -0.62459946 -0.15629718 -0.05821584 0.040626694 -0.034075636 0.07576357
-0.6727854 0.49112517 0.033337485 -0.07509315 0.5799891 0.03850615 0.10854433 0.026659856
00000000: 717a 01bc d23a 2abd be01 383d 34e8 c23e
00000010: ec33 533d ca3b 57bd b110 663e 832d ba3d
00000020: 817d a73e 0858 afbe 6ec5 b93c 88db 11bf
00000030: 9964 d3bc 98e7 2abc 2145 463f 7a14 943e
00000040: e17e 6e3e d639 3abf b427 023d 043c 4ebd
00000050: 7b4b 55be b280 18bd 6223 5d3d d60c b6be
00000060: e1df 873e 39c5 9b3c 2a2d 33be a030 dfbd
00000070: cbd7 01be aab6 323e b0db 58bc f1f5 87bd
00000080: 8182 ccbe 7ac2 febc 1328 8f3e 5a0d b0bf
00000090: dd71 163d 2895 563c a096 213c 8f3c b9bb
000000a0: eeaf ad3d e095 98be dc03 87bd 94d8 0f3c
000000b0: 262d d03e d8f4 703e 2375 61bf 9ce5 4abd
000000c0: 4f50 1cbe cb71 a3be 99e8 aebd 33b8 0abd
000000d0: 5532 f83d aa5e 89be 3dec b1ba 1edb 43bd
000000e0: e516 47bf 6b7c 80bd 0b1b 4bbd 20b7 e5bb
000000f0: cfe9 bf3c c474 00bd 1324 133f f244 9b3e
00000100: a61e 1f3d f4a3 67bd c022 06bd dbf6 933e
00000110: 9419 833d e274 63bd d661 66bf f44a c83e
00000120: c120 34be 71d7 833b 7be5 7fbe 43a6 dfbf
00000130: 9d87 ecbc 2700 313d 0330 c83e 62b2 c5be
00000140: 11fd 9ebd d8ef 75be eee5 bfbd f9a6 eebe
00000150: 1689 0f3f b1d1 1b3c 7df2 913e 1be4 5e3c
00000160: dae0 6f3d b577 1a3f 1bf3 25be 58cf 1c3e
00000170: 7a3a 3bbd 0de8 2e3f be9f 843b 36b2 d4be
00000180: 30b9 a63c beb7 6e3d 9cbc 3f3d 5627 0bbf
00000190: 435a 193d aea9 03bf 1712 46bc 1c2b d7be
000001a0: e94e 243b 9efb 69bf 1134 783e c5ad 903d
000001b0: 9c9c 803e 3330 12be 9653 1d3e d3d4 e13e
000001c0: 9221 29bf c793 afbe 4f67 4c3e 494a 94be
000001d0: 8abf 4c3f 54c5 fcbc 573e c33e 12cd 113f
000001e0: 5ad7 853c 91b5 53be 2b20 4ebd eadf 8bbd
000001f0: 0ffd b6bc d68c 18bf 5b48 c53b b45e 403d
00000200: f0ed 923d 1f5e 9c3e d842 713e fde7 1d3d
00000210: 9755 b63e 71af 65bd 7208 4fbc a628 973b
00000220: 1704 8c3d 836c 86be bab9 b63e b8be ed3b
00000230: 767f 20bf e88f 133d 3810 18bd 7bad cfbc
00000240: 0124 4abf 023f c8bd a7df ee3e 498c 29bc
00000250: 14e0 053d 174d a6bb a924 063b ee43 653d
00000260: 496e 983e 7caa dabe ebcb 67be c7fb f03c
00000270: 9cdc d8be 5f8a cbbc 1c03 a1bb 7c33 dc3a
00000280: d027 26bd 9bcb 64bb f01e d03c 8424 d1bd
00000290: fa86 1fbf 5353 573f 65ae f33c f249 4a3d
000002a0: dfb3 12bd bcec 50bf bd55 fabb a839 b2bc
000002b0: b3d6 b13c 29d4 f03e 0634 bdbc 58e8 58bf
000002c0: 402d 02bd 4948 2f3e 9bb0 21be 758c 283d
000002d0: b7a0 aebf 2404 a63e eb1a 903d 2b34 02bd
000002e0: 7465 06bf fe92 c0bc 80d8 9c3e 8f73 4cbf
000002f0: b9ff 153e 35fa af3c f7d1 773e 722b b0be
00000300: 2262 8f3c feb1 bc3e b5d8 8cbb 1bd4 1e3c
00000310: cad6 a93c f8b9 6cbc 895c 0fbe e2bc 953d
00000320: 526e 0dbe b3f1 363b 280e 9ebf 04af 803e
00000330: a629 0abd 88f1 9ebb 0c65 ddbc 02f3 c23e
00000340: 4626 a93e 4104 bfbd f7e0 b43c 5a79 cdbe
00000350: 4b6e 14be a424 0f3e e29f 00bf 68f1 183f
00000360: 28d3 3a3e a304 aabc b36e 123e 01e5 c7be
00000370: d45a 4dbe 2b04 943c f1f5 b73e e0b3 403e
00000380: 0350 583c b8cc 4bbd 807d 973e dfb9 efbe
00000390: 8235 3d3d 2ba1 29bc b044 643c 34f1 84be
000003a0: 25d4 4d3e 1de7 543e 9c5d 0dbd 2f48 893c
000003b0: a77e a9b9 cd3b 34be 1ce9 263c 9351 a63c
000003c0: 0dda 623d 6f29 a6bd c0e5 1fbf 5e0c 20be
000003d0: bc73 6ebd 2d68 263d e592 0bbd ee29 9b3d
000003e0: aa3b 2cbf c274 fb3e e38c 083d 70ca 99bd
000003f0: 2a7a 143f a0b8 1d3d 7d4c de3d c565 da3c

linear3.bias f4 [3]
0.15322128 0.031758193 -0.11335292
00000000: 0ae6 1c3e e114 023d 9325 e8bd
